src/models/34x32_10robot_10humans_1pickup_8dropoff_2048shelves_30002episodes_1000steps.pth (torch, 293808 bytes, 10 tensors)

conv1.weight f4 [16, 80, 3, 3]
000000 3b fc f3 3d 0d dc 49 3d 5f 23 e0 3c 85 9c 80 3d
       0.119133435 0.049282122 0.027360616 0.06279854
000010 a0 ea 7c 3d c5 59 8c 3d 75 e9 72 3c d0 e9 8d 3d
       0.061747193 0.0685306 0.014826168 0.06929362
000020 0c eb b7 3d 7c 3a 14 3c 4f 4a 66 3c fb 37 3c bc
       0.089803785 0.009047147 0.0140558025 -0.011487956
000030 da f1 45 3c cd 11 16 bc b6 b3 05 3b 75 5e 17 bc
       0.012081588 -0.0091595175 0.0020401306 -0.009238829
000040 1c 9a c8 ba 07 c1 61 bb 79 53 99 3c f0 15 dd 3b
       -0.0015304717 -0.0034447329 0.01871656 0.006747
000050 25 a5 3a 3c 1f 9f 01 bd 5f e7 81 bc 91 db 33 bc
       0.011391913 -0.03164589 -0.015857397 -0.010977642
000060 b6 84 a8 3c d4 00 82 bb 7c ba 91 bc 61 f3 ac 3c
       0.020571094 -0.003967384 -0.017789118 0.021112146
000070 92 9f e9 b9 24 ad 79 bc a5 47 56 3b 1f b8 eb ba
       -0.00044560112 -0.015239034 0.0032696512 -0.001798395
000080 dd f1 c3 3b b8 f6 d3 3c a9 4a 86 bb 8b c9 a0 bc
       0.00597976 0.02587448 -0.0040982557 -0.019627353
000090 14 45 2c bc f3 de d9 bd 84 42 d3 bd 2b c2 c9 bd
       -0.010514516 -0.10638227 -0.10315421 -0.09851488
0000a0 2e a8 de bd fe e6 0d be eb 52 4f bc 51 71 0a be
       -0.108719215 -0.13857648 -0.0126540465 -0.1351979
0000b0 83 04 8b bd 01 25 93 3c 25 6c f5 3c a0 95 6e bc
       -0.0678797 0.01796198 0.029958794 -0.014562041
0000c0 71 9a 7d bc e6 83 b7 bc aa 34 a3 3c 54 9f f8 bb
       -0.015478716 -0.022401761 0.019922573 -0.007587353
0000d0 c5 83 a6 3c 81 9d 9b 3c ff 66 b4 3c 8b 94 cd bc
       0.020326504 0.018996002 0.022021769 -0.025095245
0000e0 15 32 24 bd 94 c0 b5 3c de 97 a3 3c c8 bf f7 3c
       -0.040086824 0.022186555 0.019969877 0.030242816
0000f0 70 30 c8 bc 7b ba d8 3c 62 6b c1 ba 04 5e c7 bc
       -0.02443716 0.026456108 -0.0014756734 -0.024336822
000100 1c bf 08 3d 11 23 6b bc c5 2b fb 3c 27 4a 17 3d
       0.03338538 -0.014351622 0.03066052 0.03693595
000110 ad f9 0b bd 85 bc 65 bb 3a ac 09 3d 7e fd 5c 3b
       -0.034173656 -0.0035054993 0.033611514 0.003372043
000120 0b 9b ec 3c 09 65 e3 3c 2d ef 36 3d 65 a0 38 3d
       0.028882524 0.027758138 0.04466169 0.04507484
000130 79 6e f8 3b ed f1 97 3c 71 5d 57 3d 82 69 26 3d
       0.0075815287 0.018547976 0.052579347 0.040627964
000140 27 3c 17 3d 67 8e e3 3a 29 2b e9 bc 2c 35 76 3b
       0.0369226 0.0017361165 -0.028462963 0.0037568314
000150 ad 4e ef bc 5c 71 d6 bd 7e cc 77 bc 3a 8b ab bb
       -0.02921232 -0.1047084 -0.015124438 -0.005235103
000160 5b a6 8e bd fc 7e 30 3c 2f c5 9c 3d b4 ed b9 3c
       -0.069653235 0.010772463 0.07654797 0.022696353
000170 a5 83 9d 3d e3 f2 8d 3d a9 a1 90 3d 26 76 95 3d
       0.07691125 0.069310926 0.07062084 0.07297926
000180 33 02 e2 3c c3 1e 3a 3d 8c 3e a3 3d a8 ec 77 3a
       0.02758894 0.045439493 0.07970914 0.0009457567
000190 7e 56 34 3c 41 bc 80 3c 13 4a 86 bc 80 ee 12 3c
       0.0110069495 0.015714766 -0.016392743 0.008967996
0001a0 28 03 8d bc 82 79 2a 3b 93 99 91 bc 8f b5 d0 bb
       -0.01721342 0.0026012366 -0.017773425 -0.0063692997
0001b0 ee 9d 79 bb fb 70 06 bb 2e c6 04 3d 92 15 10 bc
       -0.0038088518 -0.002051412 0.03241556 -0.008794205
0001c0 78 3d c5 bc 5b 6d d0 bc fa d5 03 bc 31 b5 e3 3c
       -0.024077162 -0.02544277 -0.008046621 0.02779636
0001d0 58 e9 ff 3c c1 57 d0 3c 88 56 c5 bc a9 dc 60 ba
       0.031239197 0.02543247 -0.024089113 -0.0008577803
0001e0 bb d0 6f 3c 2f 7f 16 3c 38 6d 68 bc 21 b3 17 3d
       0.014637168 0.009185596 -0.014186196 0.037036065
0001f0 7b 5e 9e bb c4 d6 88 bc 0c 1a 6e 3c ce 44 9d bd
       -0.0048330403 -0.01670397 0.014532577 -0.07679139
000200 75 17 57 bd 89 ed bc bd d0 4d bb bd 75 55 a9 bd
       -0.052512605 -0.09224994 -0.09145701 -0.08268253
000210 5a c6 73 bc 03 0d a5 bd 60 68 a1 bd 51 13 5c 3c
       -0.014878834 -0.080591224 -0.07881236 0.01343234
000220 7f 58 0a 3d ba 51 34 bd 8e 74 14 3c 76 c7 07 bb
       0.033775803 -0.044023253 0.009060992 -0.0020718253
000230 c4 ec 9b bb 21 28 6e bb c3 50 fc bb bd 24 07 3c
       -0.0047584493 -0.0036339837 -0.0077000572 0.008248505
000240 9d a3 6e 3c 49 9c b8 3b f9 74 45 bc ef 2e b6 39
       0.014565376 0.005633865 -0.012051814 0.00034748713
000250 79 bf f3 bc 16 5a ac 3b 46 15 9a bb 13 95 ac ba
       -0.029754387 0.0052597625 -0.004702243 -0.0013166986
000260 61 c3 4c bc e6 75 5c bc b6 6a df 3c a4 0b 14 3d
       -0.012497754 -0.013455844 0.027272563 0.036143914
000270 95 de 25 3c bf 92 83 bc 30 df b8 bc 6c 02 cb 3c
       0.0101238685 -0.016061185 -0.022567362 0.024781428
000280 45 43 15 3c c2 4a 2e bc 62 ed 4c 3d ed e8 1d bc
       0.009110277 -0.010637941 0.050031073 -0.009638053
000290 e0 ab 7c 3d fe ac 2f 3d ce 73 36 3c 05 fd 8a 3b
       0.06168735 0.042889588 0.011136008 0.004241588
0002a0 57 ce 05 3d 96 19 55 3d d7 4d 85 3c af 49 42 3b
       0.032667484 0.052026354 0.016272468 0.002964597
0002b0 c1 4a 12 bc 61 8b 4a bc 0a 19 86 bc a9 dc 8b bd
       -0.0089289555 -0.012362332 -0.016369361 -0.06829197
0002c0 b8 dc 2f bd 15 b3 86 3c c8 a3 e9 bc 34 3e 3e 3b
       -0.042935103 0.016442815 -0.02852048 0.0029028775
0002d0 08 30 e4 3d a6 b4 0e 3d 29 d4 3c 3d a4 d4 ea 3d
       0.11141974 0.03484025 0.04610077 0.11466339
0002e0 7c 48 56 3d c1 73 fc 3c 15 6c 16 3b 0c 39 ae 3d
       0.05231522 0.030816915 0.0022952606 0.085069746
0002f0 c2 c4 f0 3d 42 2c f9 3c f4 d3 63 3c 55 79 ed 3b
       0.117562786 0.030416612 0.013905514 0.00724713
000300 25 ce 56 3c 64 30 75 ba 15 5f 18 3c 45 25 46 bb
       0.013110672 -0.0009353219 0.009300013 -0.0030234617
000310 fb 35 0f bd a6 60 a4 3c d1 6e a4 bb 37 9a 92 bb
       -0.03496359 0.020065617 -0.005018093 -0.0044739502
000320 09 49 b6 3c 10 4a 5d 3c 5f aa ae bc 25 24 5e bc
       0.022251623 0.013506427 -0.021321474 -0.013558422
000330 b0 06 8b bc 5a 33 f8 3c 1c e6 f0 bb 76 d6 2a 3c
       -0.016970962 0.030297924 -0.00735165 0.010427108
000340 b2 e8 06 bc 3e f8 9e 3b c4 94 a0 ba e4 14 0b 3c
       -0.00823419 0.00485137 -0.0012251367 0.008488867
000350 17 f1 fd bb b6 eb 92 3c 96 88 ee 3b 88 6d 93 bc
       -0.0077496874 0.017934661 0.007279466 -0.017996565
000360 17 f2 3c bd ba c1 ff bd 13 ca 19 bd 27 59 f0 bd
       -0.046129312 -0.12488122 -0.03754623 -0.117357545
000370 eb d6 a4 bd a4 5d ae bd 41 db 56 bd 44 f7 0b be
       -0.08048805 -0.08513954 -0.05245519 -0.13668543
000380 65 e9 e8 bd 0b 1e 72 3c 3f 3e da bb e3 b0 de bc
       -0.113726415 0.014777671 -0.0066602523 -0.027183956
000390 41 0c bc bc 93 b6 05 bd 9c 48 a2 3c c6 48 a0 3c
       -0.022955062 -0.03264482 0.019810013 0.019565951
0003a0 a4 88 d6 bc 10 fe 00 3d 4c cd e8 3c 7c 88 7e bb
       -0.026188202 0.031492293 0.028418206 -0.0038838675
0003b0 da 1a 25 3c f5 7d 9d 3c 24 9a 0b bc ad d0 27 3d
       0.010077203 0.0192251 -0.008520637 0.040970493
0003c0 9d 40 b1 3b 84 04 84 3d f8 4a a3 3c 23 23 b7 3c
       0.005409314 0.06446174 0.019933209 0.022355622
0003d0 09 6c 21 bb a5 69 05 3c 9f 52 02 bb e9 07 da bc
       -0.0024631044 0.008142863 -0.0019885672 -0.0266151
0003e0 18 3d 8c 3b 14 15 81 3c 94 94 ee bc c8 6b 96 bc
       0.004279744 0.015757121 -0.029123582 -0.018361941
0003f0 ad 8b 39 3d 7c cc 74 3c cd 4a f9 3c 08 38 0d 3d
       0.04529922 0.014941331 0.030431176 0.034477264

conv1.bias f4 [16]
000000 d4 cc 06 3d 30 01 ef 3c 25 5f b0 3d 71 93 eb 3c
       0.032910183 0.029175371 0.086118974 0.028756829
000010 2b 5f af 3d 19 27 b1 3d 22 24 00 3d c5 6d a8 3d
       0.08563074 0.086500354 0.03128446 0.08224062
000020 e3 00 c1 3d d7 c0 c4 3d 66 12 27 3c 15 96 05 3c
       0.09423997 0.09607094 0.010197258 0.008153458
000030 71 bb aa 3d c4 67 d2 3d 00 ea 89 3d a5 c0 a1 3d
       0.08336533 0.10273698 0.06734085 0.07898072

conv2.weight f4 [32, 16, 3, 3]
000000 2d 28 77 3d aa 70 1a bd 9a 9d 8e bd fc a6 bb 3d
       0.06034105 -0.0377051 -0.06963654 0.09162709
000010 6a 9e ff 3c 72 9c 15 3d 9f a5 22 3c bb 49 c7 3c
       0.031203467 0.03652615 0.009927182 0.02432715
000020 ba 9b 33 bc c9 ca e6 3d 96 e4 24 3d 2b bd 44 3e
       -0.010962421 0.11269147 0.04025706 0.19212787
000030 43 76 a2 3d f6 cd 2c 3e 70 85 0f 3d 59 d2 1a 3d
       0.07932713 0.16875443 0.035039365 0.03779826
000040 e1 8e 72 3c ed f0 8b bb 4b 38 04 bd c3 c0 dd 3d
       0.014804573 -0.004270664 -0.032280248 0.10827782
000050 e7 a4 45 3d 7b 05 ef b9 fc 48 23 3e 29 06 c8 3d
       0.048252966 -0.00045589716 0.1594581 0.097668
000060 83 00 f2 3d 29 54 fd 3d 6e c0 5a 3e 73 08 9c bc
       0.11816504 0.12369568 0.21362469 -0.019046998
000070 b5 11 a3 3d 67 93 5c bd 45 ee b4 3d a3 4f 6c bd
       0.07962362 -0.05385151 0.08834509 -0.057693135
000080 2a 77 d6 bd 9a f3 5b be e4 95 1e 3c a8 4a 0f be
       -0.104719475 -0.21479645 0.009679291 -0.13993323
000090 a4 62 8e bc 5f d9 04 3d ef 13 f6 3b 94 8f 4d bd
       -0.01738102 0.032433864 0.0075097005 -0.050185755
0000a0 33 84 03 3e 0d 7d b7 bc 84 87 4a 3c 0c 51 6d 3e
       0.12843399 -0.022398496 0.012361411 0.23175448
0000b0 24 77 f1 3d c8 3f a0 bd 96 fd 54 3d 4b d7 25 3e
       0.117903024 -0.07824665 0.05199965 0.16195409
0000c0 f2 7f 93 bd 27 e6 9e 3d fe 70 cf 3d 4a 6f c2 bc
       -0.07202138 0.07758742 0.101289734 -0.023734707
0000d0 7d 55 34 3c 99 90 2e 3c 3b 34 ca bd 7a 64 89 bd
       0.01100671 0.010654592 -0.098732434 -0.067086175
0000e0 dc c0 1f be ba 0f 11 3e 0c 6d 14 be 61 d5 06 be
       -0.15600914 0.14166155 -0.14494723 -0.13167335
0000f0 4f fb 2f bd bf ac 1b 3d cb e6 bb 3b 3e 9b 83 3d
       -0.042964276 0.03800654 0.0057343 0.064260945
000100 ea 18 52 bd 78 7f 3e 3d 1b 76 f7 3c 9c d4 02 bd
       -0.05129329 0.046508282 0.030207684 -0.03194104
000110 fc ca a5 bd e6 cb 11 3c 62 98 e5 bc 09 00 40 3d
       -0.08095357 0.008898711 -0.028026763 0.046875034
000120 ac 21 6d bd 43 85 1e be cf bf ba 3c 5c 7e 5c bc
       -0.05789344 -0.15480523 0.02279654 -0.013457861
000130 3b 0d a1 3d 2d de cd 3d 62 51 2b 3d 59 f1 de bc
       0.07863852 0.10052142 0.04182566 -0.027214693
000140 77 5a 16 bd 5d e6 2e 3e bc dd e3 bb 44 83 7c 3d
       -0.036707368 0.17080064 -0.006953923 0.061648622
000150 fd 4a 2b 3e 6f cd 7f 3d f1 65 31 3e 20 25 1f 3e
       0.16727825 0.062451776 0.17324044 0.15541506
000160 3e 2a 28 3c 54 d4 ed 3d d2 b1 df bc 00 f9 02 3e
       0.010263978 0.11612764 -0.027306471 0.12790298
000170 67 77 b1 bc f9 15 d7 39 84 d7 cf bd b4 4b bf 3c
       -0.02166338 0.00041024367 -0.10148528 0.023351528
000180 84 87 5b be ca a9 d0 bd 84 04 0a be 9b 3f 2e 3d
       -0.21438414 -0.10188635 -0.13478285 0.042541128
000190 da e4 8f 3b 79 72 21 3e 1d fa 95 3d 7a fe b0 3c
       0.004391295 0.15766324 0.07323096 0.021605719
0001a0 22 1d 49 3d 30 a6 0e bd 92 26 ec 3c 7a 8a d6 bd
       0.04910005 -0.034826458 0.028826986 -0.10475631
0001b0 c9 08 08 be 36 a3 b9 bc 5a cc 2b bd 36 8b e4 3d
       -0.13284601 -0.022660833 -0.04194293 0.11159365
0001c0 8d 93 ac bd 20 74 b2 bd a8 a5 be bd ed ea 51 3e
       -0.084265806 -0.08713555 -0.0930894 0.20499773
0001d0 2f 83 d3 bd eb ac 43 be d1 cc ac bd 81 57 a2 bd
       -0.10327756 -0.19108932 -0.08437503 -0.07926846
0001e0 f4 cc d9 bd 73 b6 86 3c 11 2f c8 bd 29 09 ae bd
       -0.10634795 0.01644442 -0.09774602 -0.08497841
0001f0 2a 0f 70 bd d7 92 8f 3d 51 21 71 bd b8 43 9b bd
       -0.05860821 0.07010429 -0.058869664 -0.07581276
000200 4c db ae 3d 7e a6 59 3e db a4 04 3e f7 e8 1b 3d
       0.08537921 0.21254918 0.12953512 0.03806397
000210 0e ab 29 3e a6 eb 63 3e 9e f6 09 3d 3f 9f c4 3d
       0.16569158 0.22257861 0.033682458 0.09600686
000220 01 64 6b 3e 97 06 24 3e 65 6a 97 3d fe b2 8b 3d
       0.22987367 0.16018139 0.0739334 0.068212494
000230 a8 8c 02 bc a4 d6 da bc 01 f2 93 3d ee f3 c3 3d
       -0.007968105 -0.026713677 0.07223893 0.0956801
000240 03 17 40 3d 52 86 9f 3d 5f 6a ef 3a d1 fb 8f bd
       0.046896946 0.077892914 0.0018265954 -0.07030452
000250 22 48 12 bc 8a 66 0e 3e bc 04 54 bd ae 6d dd 3d
       -0.008928331 0.13906303 -0.051762328 0.10811935
000260 3c ff d0 bd 7b 03 2d 3e 46 dd 38 3e 77 94 50 3e
       -0.10204932 0.16895859 0.18053159 0.20369135
000270 fa a3 a9 bd 6c cc 32 3e 99 f5 6b 3d 80 cd d0 3d
       -0.08283229 0.17460793 0.057607267 0.10195446
000280 6b 2f b0 3d d9 6d 8d bc 2d 63 0d 3e da d6 f8 3d
       0.08602794 -0.017264294 0.13807364 0.12150355
000290 38 1c 30 3d d9 ee 94 3d f1 51 3b 3e 90 14 12 3e
       0.04299566 0.07272119 0.18292977 0.14265656
0002a0 07 ac 32 3e 36 6b f1 3d 0f b8 f3 3c 6b 56 8b bd
       0.17448436 0.11788027 0.029750852 -0.06803592
0002b0 85 db a6 3c ca c2 e9 bd 13 ab 13 be d5 c8 90 bc
       0.020368347 -0.11414106 -0.14420728 -0.01767389
0002c0 eb 17 32 be 45 9f 22 be 06 36 d7 bd d6 8f 2f be
       -0.17391936 -0.15881069 -0.10508351 -0.17144713
0002d0 09 7f 1f 3d 93 96 0c 3d 0a fa 70 3d bc 30 f2 b7
       0.03893951 0.034323286 0.058832206 -2.8871342e-05
0002e0 df 59 fc 3c 4a 3b e3 3d dd 32 ad 3b 6c d2 c0 3d
       0.030804573 0.11095293 0.0052856044 0.09415135
0002f0 ae ad 6c 3d d9 44 63 bd 3b 6d 85 3d 56 4c 22 3e
       0.05778282 -0.05548558 0.06514975 0.15849432
000300 e8 0b c4 3b 80 de 56 bc 87 cd 52 3d 8f 64 56 3e
       0.0059828646 -0.013114572 0.051465537 0.20936798
000310 97 29 36 bc f3 74 24 be 2c d4 d3 bd 0c 10 78 3d
       -0.011118314 -0.16060238 -0.10343203 0.06056218
000320 62 b5 31 be 3c 1e eb 3c ca 0b a2 3d 68 89 5c bd
       -0.17354348 0.02870094 0.07912405 -0.05384198
000330 6b ef 0f be 75 05 89 3d 04 28 c7 bc 82 46 82 bd
       -0.14056174 0.06690494 -0.024311073 -0.063611045
000340 70 57 2c be 68 c4 a4 3b fd 36 47 bb a9 6b 57 bd
       -0.1683023 0.0050282963 -0.0030397766 -0.052592907
000350 ed 91 85 bd 5e 35 61 bd 7c 38 b8 3d b9 ee 0d 3c
       -0.06521974 -0.054982536 0.089951485 0.008662873
000360 89 e6 42 bd 43 d1 43 3d 87 42 66 bd 3a 1d 48 bc
       -0.047583137 0.04780699 -0.05621579 -0.012213999
000370 16 eb b3 bb b0 94 eb 3d 8b ca 13 bd 91 55 8e 3d
       -0.005490671 0.11502969 -0.036081832 0.06949914
000380 50 8a a8 3d a1 89 2b 3e 76 9e 9a 3d 76 9e 1a 3d
       0.08229506 0.1675172 0.07549755 0.037748776
000390 fc af 35 3e 6a 8f 47 3e 97 a1 04 3e 0c b1 98 bd
       0.17742914 0.19488302 0.12952267 -0.07455644
0003a0 6e 6e a9 3d cc 2d 46 3d 14 8c 52 3d 9a 64 09 3d
       0.08273016 0.04838352 0.05140312 0.033543207
0003b0 cb c3 16 be e4 54 44 be 8e 29 ad bc ff 1b 87 bd
       -0.14723127 -0.19173008 -0.021137979 -0.06597137
0003c0 66 31 f9 bc 75 a6 39 be 0d b7 f8 bd a6 89 2a 3e
       -0.030419063 -0.18129905 -0.12144289 0.16654071
0003d0 8f 0b 0d 3e c7 65 c4 3d 7d bb 26 3d e9 af 2a 3e
       0.1377394 0.09589725 0.040706147 0.16668667
0003e0 37 62 e3 3d cb 91 a9 3d 85 39 c7 3d 17 4a 1f 3d
       0.11102717 0.08279761 0.09727768 0.038889017
0003f0 37 1a 28 bd ba 28 07 be ee c4 39 be bc 9c 52 3d
       -0.041040625 -0.1319913 -0.18141529 0.051419005

conv2.bias f4 [32]
000000 69 e6 d4 3d 58 eb 30 3d 9a e2 e9 3d 8d 01 ec 3d
       0.1039551 0.04319319 0.11420174 0.11523733
000010 d1 d9 c3 bc 6f 94 19 3d ed 41 07 3e b7 f6 c4 3d
       -0.023907574 0.037495073 0.13208742 0.096173696
000020 aa 91 d7 3d 47 9f dd 3d e0 5f 10 3e 20 e0 02 3e
       0.1052583 0.10821395 0.14099073 0.1278081
000030 8d fc 3a bc 30 42 f6 3d 6e b6 8a 3c 0d 1e 56 3d
       -0.011412752 0.12024343 0.016932692 0.052274752
000040 e6 47 a2 3a be 21 be 3d 26 05 b8 3c b3 03 2d 3c
       0.0012381047 0.092837796 0.022463392 0.010559964
000050 81 45 cc 3b dc c2 37 3d 1b 80 bc 3d f9 d5 05 3e
       0.0062338714 0.044863567 0.09204122 0.13069905
000060 3c 96 ac 3c cb 67 92 3d 5b 14 a8 3d 84 d6 1d 3d
       0.021067731 0.07148703 0.082070075 0.038534656
000070 82 81 9a 3d b9 5c 28 3d ec 62 9c 3d 8a 64 02 3d
       0.07544233 0.041104052 0.07636055 0.031834163

fc1.weight f4 [64, 800]
000000 32 2e 3f 39 05 1e 5b 3b 31 35 95 3b cb 81 a3 bc
       0.00018232389 0.003343464 0.00455346 -0.019959351
000010 67 f5 f1 bc 4d 7e a5 3c d7 f5 05 3d 62 0b 13 bd
       -0.029535962 0.020201826 0.032705154 -0.035899527
000020 0b 55 84 3c 34 c5 38 bc 4e bb 79 3b 9f 81 a5 3c
       0.016153833 -0.011277486 0.0038106027 0.02020341
000030 c2 fa 2a 39 6e 7c 89 bc b6 35 76 bc 85 46 0f bd
       0.00016305878 -0.016782966 -0.015027454 -0.034979362
000040 f8 1b b3 bc 96 ec ef 3c 0c 5d 89 3a 6f 47 b1 3c
       -0.021863922 0.029287618 0.0010480001 0.021640508
000050 0a dd fa bc cd de df 3c 09 d3 ae bc 4b 20 02 3d
       -0.030622978 0.02732792 -0.021340864 0.03176908
000060 79 c4 0e 3c 9b 73 4a 3b e3 c8 98 bc de 3e 18 bd
       0.008713835 0.003089166 -0.018650478 -0.03716933
000070 5c f2 c0 3b 27 ac c1 3b 07 18 fe bc a1 ce 83 3c
       0.0058882665 0.0059104147 -0.031017317 0.01608974
000080 76 a8 14 bd 1c 56 5b 3b 18 08 08 bd fd 72 f3 ba
       -0.03629347 0.0033468073 -0.033210844 -0.0018573698
000090 70 d0 b8 3c 15 15 4c 3c aa d9 d3 bc 4f 08 08 bd
       0.022560328 0.012456198 -0.025860626 -0.03321105
0000a0 86 4e b3 3c f3 6b cc bc 14 29 e2 3a cd b6 86 bc
       0.021888029 -0.024953818 0.0017254674 -0.016444588
0000b0 75 c2 69 3c 83 f3 bc 3c a5 6d d4 bc 37 02 b0 bb
       0.014267554 0.023065334 -0.025931189 -0.005371358
0000c0 19 d2 6a 3c e3 31 0b 3c 51 bf c3 3c 73 ef ae 3c
       0.014332318 0.008495781 0.023894938 0.021354413
0000d0 32 7a 0b bd 18 f8 be bc 39 f7 88 3c 6a 1d 11 bd
       -0.03405208 -0.02331166 0.016719447 -0.035428442
0000e0 13 13 05 bd da 2b a1 bc 71 08 7f bc b5 56 a4 3c
       -0.032488894 -0.01967423 -0.015565977 0.020060876
0000f0 6b 08 94 3c b2 a0 fc bb 19 f9 01 3d e8 97 90 bb
       0.01807042 -0.007709586 0.0317317 -0.00441264
000100 a9 2a 4c ba 4a e4 2e bc a7 2c d4 3c b2 c8 f9 3b
       -0.0007788339 -0.010674546 0.025900198 0.0076228017
000110 45 3d e7 3c 97 12 19 bd 23 95 b6 bc 53 fa 16 3c
       0.028227458 -0.037371244 -0.02228791 0.009214955
000120 74 c7 88 bc 74 aa 0b bd 07 89 c8 3c a9 dd e1 bc
       -0.01669667 -0.034098104 0.024479402 -0.027571516
000130 42 9d 58 bc d0 b9 f5 3c 2e 0d 3a 3c 71 c7 b3 bc
       -0.013221087 0.029995829 0.011355681 -0.021945687
000140 3b 28 19 bd 13 e4 90 3c 63 b6 8e 3c 48 c8 de bb
       -0.037391882 0.01768688 0.017420953 -0.0067987777
000150 91 5e 0d bc ad 9f 1e bc 7e c9 87 bc b0 f5 e9 bc
       -0.008628503 -0.009681624 -0.016575571 -0.028559536
000160 2e 39 03 3d 9d de cd 3b 77 1a 0a bd 58 37 fe 3c
       0.032036953 0.006282641 -0.033716645 0.03103225
000170 c4 4d 04 3c a1 87 a5 bc cb 43 80 3a 73 5b be bb
       0.008075181 -0.020206274 0.0009785829 -0.0058092414
000180 1b b5 7b 3c 6c 33 98 bb 96 f1 52 3c 74 41 c8 3c
       0.015363003 -0.004644802 0.012874981 0.024445273
000190 9b e7 da bc 6e e0 3f 3c 19 7f 60 3b 16 14 aa bc
       -0.026721766 0.011711223 0.0034255444 -0.02076153
0001a0 6f 7b 9d ba 70 10 ae 3c 68 bb df 3c 59 43 7b 3c
       -0.0012014935 0.021248072 0.027311042 0.015335881
0001b0 24 d7 c5 3c a3 bc 1a bc ef 82 3c bc 90 68 56 bc
       0.024150439 -0.009444389 -0.011505826 -0.013086453
0001c0 4f 08 6c 38 02 5a 2a bc 78 9c 62 bc 1a c2 7b bc
       5.6274523e-05 -0.010397436 -0.01383125 -0.015366102
0001d0 60 99 f4 3c f0 75 03 ba 4a c2 0e bc 54 0e 21 bb
       0.029858291 -0.00050148275 -0.008713314 -0.002457519
0001e0 2d ea 93 3c cd 06 c2 3c 28 5f 1e bc 9e 40 07 3d
       0.018056 0.023684883 -0.009666242 0.033020608
0001f0 ba 25 c1 3c e5 39 0f 3c cb 90 8c bc d8 e7 f3 3b
       0.02357756 0.0087418305 -0.017158886 0.0074434094
000200 e0 5e 07 3d ac 89 69 bc 4b 89 d5 3c b5 60 28 3c
       0.033049464 -0.014254015 0.026066443 0.010276963
000210 a2 e4 9d 3c 3a 7b d8 3c 18 45 dd bc e9 90 05 3d
       0.01927406 0.026425947 -0.027010486 0.0326089
000220 fb f6 a5 3c d8 a4 98 bc cf c8 d8 3c f7 fd 91 3c
       0.020259371 -0.018633291 0.02646294 0.017821295
000230 9f ad cf bb 23 4c 20 3b 74 01 84 bc e7 69 c9 3b
       -0.006337836 0.0024459444 -0.016113974 0.0061466577
000240 6d d6 0a bd 8a d5 59 3c e3 3f 08 3c 67 67 1d 3c
       -0.0338959 0.013295541 0.008316013 0.009607173
000250 bc 75 ed bc 5d 6a 7c 3c f3 10 d4 bc c2 1b e8 3b
       -0.028986804 0.015406218 -0.025886988 0.007083387
000260 5a 6c 30 3a ee 8f 15 bc 0a 84 ee 3c 58 0f 0f 3c
       0.0006730013 -0.009128554 0.029115696 0.008731686
000270 9f 65 c0 35 21 ab fb bc 4e 3b da 3c 2d 69 ed 3c
       1.433469e-06 -0.030721249 0.026639607 0.028980816
000280 38 78 b3 bb 45 bd 8e 3c d9 a9 1a bd 86 f4 c3 bc
       -0.0054769777 0.017424235 -0.037759636 -0.023920309
000290 21 9d b6 3b 8e 40 89 3c 88 ef 80 39 da f3 8a 3c
       0.0055729304 0.016754415 0.00024592527 0.01696198
0002a0 bc cb 2b 3c ad 49 cc bc 74 5a b7 bc e5 26 45 bc
       0.010485586 -0.024937475 -0.022381999 -0.012033199
0002b0 8f 24 ba bc 01 42 2d bc 3d 71 27 3c ce f0 83 3b
       -0.02272251 -0.010574819 0.010219869 0.004026509
0002c0 00 e5 da bc 09 fb b8 3c a3 1f 77 3c 6a e1 a0 3c
       -0.026720524 0.02258064 0.015083226 0.019638736
0002d0 82 ef ec bc ad b0 9b 3a 8c ca b5 3c 13 72 15 3c
       -0.0289228 0.0011878215 0.022191308 0.009121436
0002e0 aa 05 7d 3c 8c 83 49 3b d6 6e fa bc 41 ac 18 bd
       0.015443245 0.0030748574 -0.030570429 -0.03727365
0002f0 2f 8e 38 3c dd a9 12 bd 28 f7 84 bc 61 4b 33 3c
       0.011264368 -0.035806525 -0.016231135 0.010943265
000300 f6 06 e0 ba 37 53 f5 bb 9f e2 73 3c 99 dc d1 bc
       -0.0017091918 -0.0074867266 0.014885574 -0.025617884
000310 dd bb d2 bb 86 e6 27 3c f2 4a 07 bd 4c 58 f6 3b
       -0.0064310865 0.010247832 -0.033030458 0.00751785
000320 4b f7 fd b7 07 3e fb 3c bf 99 ab 3c d3 19 be bc
       -3.0275105e-05 0.030669225 0.020947335 -0.023205673
000330 04 72 ad 3c a1 2a d1 bc c1 1b 0f bd 8f ed 5f 3c
       0.021172531 -0.025533022 -0.034938578 0.013667478
000340 be 75 d0 3b a7 ac a8 b9 e4 bd 47 bc db 33 02 bd
       0.006361692 -0.00032172093 -0.01219127 -0.031787734
000350 bb 72 da 3c 04 41 fb bc 41 44 b9 3a bf b9 8a bb
       0.026666036 -0.03067065 0.0014134721 -0.0042335684
000360 bd 7b 39 bc 91 e4 25 bc 36 c9 93 bc 17 93 30 3c
       -0.011321005 -0.010125295 -0.01804028 0.010777256
000370 8b 90 2f bc bd f0 ec 3c e5 8b fa 3c 6d 3c 05 bd
       -0.010715614 0.028923387 0.030584285 -0.03252833
000380 47 8d fc 3c b9 01 b7 3c 4b a5 3f 3c b5 e1 0b 3b
       0.030829085 0.022339689 0.011697124 0.0021344249
000390 eb 51 cf ba 8f 29 f1 3c b2 21 a8 3b 39 0b 88 bc
       -0.001581726 0.029438762 0.00513097 -0.016606914
0003a0 cc 16 e4 bc 7b 1b 4e bc 43 a6 f0 3c 89 a6 01 bb
       -0.027842902 -0.012579794 0.029376155 -0.00197831
0003b0 0b 1c 6d bc 51 c1 6b ba 54 8a d7 3c a9 34 f1 bb
       -0.014472018 -0.0008993345 0.026311077 -0.007361014
0003c0 5e c3 8d 3c b4 d4 92 3a 14 9a 0e bd d9 13 80 ba
       0.017305072 0.0011202306 -0.03481491 -0.000977154
0003d0 d2 2c cf 3c 49 67 45 bc 88 e4 00 bd 35 d1 d4 bc
       0.025289927 -0.012048551 -0.031467944 -0.025978664
0003e0 85 aa 48 bb 5e ad 64 3c 2a 5c 0c 3c 83 3b 18 bb
       -0.0030619216 0.01395735 0.0085668955 -0.002322883
0003f0 46 f1 f3 39 96 d5 a6 bc f4 21 0f bd 1e b7 63 3c
       0.00046528334 -0.020365518 -0.03494449 0.013898639

fc1.bias f4 [64]
000000 a5 2d 75 bb 12 fa b0 3c 12 e8 05 bc df 8d 7f bb
       -0.003741124 0.021603618 -0.008173006 -0.0038994474
000010 1c ba ff 3d 15 e8 58 bd 32 a5 70 bc 68 8f ac 3c
       0.124866694 -0.052955706 -0.014687823 0.021064475
000020 b3 82 93 bc 1b 7a c9 3c 08 b8 fb 3b 37 91 55 3d
       -0.018006658 0.024594357 0.0076818503 0.05214044
000030 a7 11 5e 3d 99 ee 0a bd df ea 02 3c e5 88 d9 3c
       0.054216053 -0.03391895 0.007990568 0.026554534
000040 29 4a 45 3c af f8 a0 3d eb d7 b1 3c a1 1e a8 3a
       0.012041607 0.07859933 0.021709403 0.0012826511
000050 18 35 f3 bb 83 05 f1 bc 4e 33 0a bd 75 0c bf 3c
       -0.0074221008 -0.029421574 -0.033740334 0.02332137
000060 db cb fc ba 4f b4 41 3a e8 01 ef bb c6 59 0f 3b
       -0.0019286828 0.0007389234 -0.0072939284 0.0021873577
000070 90 56 6f 3c 86 17 87 3c cb ab 22 3c 04 be f3 3c
       0.01460804 0.016490709 0.009928654 0.029753692
000080 53 8d 9d bc a0 c5 05 bd d8 41 fd 3c 83 1c 82 3c
       -0.019232428 -0.032659173 0.030915186 0.015882736
000090 e7 a4 4a 3c ee 55 cd ba 30 03 da 3c b8 78 79 3c
       0.012368417 -0.0015665868 0.026612848 0.0152265355
0000a0 e6 40 5f 3d 8c 4d 96 3b a2 65 e5 bc 80 e0 7d 3c
       0.05450525 0.004586881 -0.028002564 0.0154954195
0000b0 49 73 8c bc d4 02 9b 3c d8 88 3a 3d 25 38 5d 3b
       -0.017144816 0.018922247 0.04554066 0.0033755389
0000c0 2d b2 ae 3c 07 a8 d9 bc ec 05 06 bd 3f 46 d4 3c
       0.021325195 -0.02656938 -0.03272049 0.025912402
0000d0 a9 70 0b bd 07 0c 5f bc 2a 1e 82 3d d5 d2 8f 3c
       -0.034042988 -0.013613707 0.063534096 0.017556587
0000e0 13 1a aa 3c 74 6c 96 bc 56 de 50 3c 57 8e f5 3c
       0.020764386 -0.018362261 0.0127483215 0.0299751
0000f0 7b 0b ce 3c ec ba 93 bc 09 0d f7 3b 96 97 08 bd
       0.025151959 -0.018033467 0.0075393957 -0.03334769

fc2.weight f4 [64, 64]
000000 2b 43 a8 bd 07 1f a3 3c bb d9 5f bc 98 09 9f bd
       -0.08215936 0.019912256 -0.013662751 -0.07765502
000010 80 3d 37 bd ee 95 8b bd 58 65 bd bd 63 fb f9 3c
       -0.044736385 -0.06815706 -0.092478454 0.030515378
000020 29 7b 90 3d 2e 65 5e bd 3c 7e e6 bd ed af 42 3c
       0.07054741 -0.05429571 -0.11254546 0.011882764
000030 9a c9 e1 3d 29 97 c4 bd 53 e2 8a bd 70 e0 ac bd
       0.110247806 -0.09599144 -0.06781449 -0.084412456
000040 a1 52 46 bd 1d 52 ec bc 22 cc cc bd f7 7f d8 bd
       -0.048418645 -0.028847748 -0.09999873 -0.10571282
000050 08 79 48 3d 28 c6 8c bd 94 7d b0 bd f5 f0 d7 3d
       0.04894355 -0.06873733 -0.08617702 0.10544006
000060 eb 80 f5 bb a8 bb 7c 3d 8c 35 1e bd 11 cc 4c bd
       -0.007492175 0.0617024 -0.038625285 -0.0499993
000070 55 a6 93 bd 8c 80 bc bd 69 d0 29 3c f5 e7 77 3c
       -0.0720946 -0.09204206 0.01036463 0.015130986
000080 3e 39 c3 bd 81 1d e6 bd f7 da 8b bd 94 e6 29 3d
       -0.095324025 -0.11236096 -0.068288736 0.041479662
000090 86 90 a0 bd 21 fa 80 3d 06 b9 89 bd 36 d7 5a bd
       -0.07840066 0.06297708 -0.067247435 -0.053427897
0000a0 69 dc c9 bd 5a 61 fd bc 9c 92 9d 3c 26 12 fd 3d
       -0.09856493 -0.03093021 0.019234948 0.12356977
0000b0 f9 cc 5a bd 2b cc 14 3c 91 6e cd bd 74 5d e6 bc
       -0.053418133 0.009081881 -0.100308545 -0.028120734
0000c0 ef 27 b2 bd 89 ff ca 3c 2c 88 85 3d 4c 6f a2 bd
       -0.08699023 0.024780052 0.06520113 -0.079313844
0000d0 45 c7 bc 3c b3 29 5f bd b7 cc fe bd 39 6d 14 3d
       0.023044238 -0.054483127 -0.1244139 0.036236975
0000e0 9f 75 9a 3b b0 85 ca bd 90 19 e3 3d 29 6d 6a 3d
       0.0047137286 -0.0988878 0.1108886 0.05723301
0000f0 1b 52 a2 3b 79 b3 e7 bd 3f 90 8a 3c 20 cf b0 3d
       0.0049536354 -0.113135286 0.016914485 0.08633256
000100 18 a4 de bd 1d d8 d1 3d 0a 05 02 be a0 64 a3 bc
       -0.10871142 0.102462985 -0.12697235 -0.019945443
000110 e6 d2 18 3e cc a2 91 3d 97 2b d0 bd 30 b3 62 ba
       0.14924201 0.07111129 -0.10164564 -0.0008647917
000120 40 f5 1f 3e b8 ce 9f 3d ff 81 a2 3d b8 54 2c 3d
       0.15620899 0.078031 0.07934951 0.04207298
000130 a2 70 c2 bd 6c 2a 08 bd a9 0e 1a bd be 58 c2 bd
       -0.09494139 -0.03324358 -0.037611637 -0.094895825
000140 fb ba 02 3e 83 61 3a bd 6a d6 12 bd ca e0 c0 3d
       0.1276664 -0.04550315 -0.035849012 0.09417875
000150 45 3b da bd f0 94 ef 3c 6c 3c 57 3d 53 94 fd bd
       -0.10655836 0.029245824 0.052547857 -0.12381806
000160 d4 f6 3d 3b 7c c4 d2 3d f3 08 49 3c a0 0d ac be
       0.0028986232 0.10291383 0.0122702 -0.33604145
000170 3f df 39 3b a8 47 c6 3c c5 63 f8 3b 35 ac 95 3d
       0.0028361825 0.02420409 0.007580253 0.073082365
000180 5e 2a 6f 3d 4b 04 be 3d 3c d9 24 3d b3 39 03 be
       0.058390014 0.092781626 0.040246233 -0.1281498
000190 3a ca 30 3d a8 8c 0e 3c d3 c4 b1 bd 27 ea af 3d
       0.04316161 0.008700527 -0.08680119 0.08589583
0001a0 31 ab b9 3d 81 14 07 3e 8a be a0 3d 6c 69 97 3c
       0.09065855 0.13191415 0.078488424 0.018482886
0001b0 53 e4 f0 bc 17 ba 5f 3c 51 b8 aa 3d f3 33 9f bd
       -0.029405748 0.013655207 0.08335937 -0.077735804
0001c0 05 ba c0 bc 24 52 49 b9 a4 2f a3 3d 6c 2f 21 be
       -0.023526201 -0.00019199454 0.07968071 -0.15740746
0001d0 77 52 9a bd d9 8b 6d bd 87 77 b1 bd a8 ad 6e 3c
       -0.0753526 -0.057994697 -0.08665376 0.01456777
0001e0 d1 d0 8d bd f8 ac 8c 3d 82 9d b2 bd f6 ec 00 be
       -0.06924594 0.06868929 -0.087214485 -0.12590393
0001f0 24 52 97 3d f3 e6 e3 3d 93 69 9d 3c 06 c1 f1 3c
       0.07388714 0.111280344 0.01921538 0.029510986
000200 6e 6c 78 3d 7b db de 3d 06 59 e8 bd b3 ce 7d 3b
       0.06065028 0.10881706 -0.11345105 0.0038727939
000210 e5 45 93 3d ad f0 7d bc 6c 50 4d be 3b 11 a8 3d
       0.07191066 -0.015499276 -0.2005021 0.082064115
000220 ce 8c 06 bd 7e 78 3b 3d 10 4a e6 3d 85 71 85 bc
       -0.032849126 0.045769207 0.11244595 -0.016289482
000230 40 b7 68 3d 2a a6 a5 bd 8e 2d 9e 3d 0d 09 a5 bd
       0.056815386 -0.08088334 0.077235326 -0.08058367
000240 44 9b f9 3d ee d1 4c be 82 41 30 bd c3 c9 fc bc
       0.12187818 -0.20001957 -0.043031223 -0.030857926
000250 63 1a 0c 3b 84 cd 7c bd 07 42 f3 bc 4b 6a a9 bc
       0.0021378032 -0.061719432 -0.02969457 -0.020680567
000260 b2 cf f6 bd 16 bb b0 bd e6 b1 a2 bd 77 1d 0b be
       -0.120513335 -0.08629434 -0.07944088 -0.13585459
000270 4a 33 ae 3c a2 2f 5a 3d f5 9e 40 3d 00 3a 5c 3d
       0.02126469 0.053268082 0.047026593 0.05376625
000280 42 cb 4c 3c 4d 4a a3 3d 43 61 7d bd d6 7c 17 3d
       0.012499632 0.07973156 -0.061860334 0.036984287
000290 66 3d a1 3d cd 05 ba bd cf fb a0 3d 69 75 b7 3d
       0.07873039 -0.09083138 0.07860529 0.08957941
0002a0 cf 4d 92 3c 5a 35 c9 3d 84 b6 e3 3d fa df 5b 3d
       0.017859368 0.09824629 0.111187965 0.053680398
0002b0 76 30 ec 3c b1 bc 69 3d 7d 4e 82 3d de 11 8e bd
       0.028831702 0.057064716 0.06362627 -0.06937002
0002c0 3b 25 50 3b 55 3d 70 3d 1e e2 e1 bd c3 fb 5a bd
       0.0031760472 0.05865224 -0.110294566 -0.053462755
0002d0 e4 f5 ad 3d 90 af 11 bd c2 0c cb 3d 95 30 cf bc
       0.084941655 -0.03556782 0.09914543 -0.02529172
0002e0 96 6d 17 bd 01 69 ca 3d 48 60 a2 3d 7b 03 41 bd
       -0.036969744 0.09883309 0.079285204 -0.04712246
0002f0 a6 45 15 3c aa 35 c0 bd 9d 15 5c bd f3 4d d7 bd
       0.009110844 -0.093852356 -0.05373155 -0.105129145
000300 c4 63 6f bd d9 2d e6 3d d5 8e 20 be 18 5a 5b bd
       -0.058444753 0.112392135 -0.15679486 -0.053552717
000310 52 42 95 bd 2a 60 bd bd 80 dc d9 bd 4f f0 d6 bd
       -0.0728804 -0.092468575 -0.1063776 -0.10495054
000320 03 11 35 be 70 73 ec 3c 36 79 e6 bd 20 82 9f bd
       -0.1768227 0.028863639 -0.11253588 -0.07788491
000330 fa 46 b5 bd 70 e8 03 3d 6e fe a9 bd 44 6d 3f bd
       -0.08851428 0.03220409 -0.08300482 -0.046735063
000340 81 4f 15 be d6 5c 3d 3e 80 a4 d9 ba 17 ee d5 bc
       -0.1458111 0.18492445 -0.0016604811 -0.026114507
000350 f0 af d4 bd 54 46 24 bd 50 48 26 3c 37 76 18 3e
       -0.1038512 -0.040106133 0.010149077 0.14888845
000360 ac 09 84 bd c0 db 6e 3b 95 33 a9 3c e3 7d e4 bd
       -0.06447157 0.00364469 0.020654479 -0.111568235
000370 1e ec e7 3d 4d 65 21 be e2 0a d4 3d d6 96 f6 3d
       0.11324333 -0.157613 0.10353638 0.120404884
000380 48 5d 0b 3d b3 65 89 3d 08 4d ca bc 71 e3 b5 3c
       0.034024507 0.06708851 -0.024694934 0.02220318
000390 e0 4a 2a 3c f0 0e 36 3d ea ae e0 3d fc df 38 bd
       0.010393828 0.04444784 0.10970862 -0.045135483
0003a0 d8 81 93 3d 5d 87 1a bd 40 8f 83 bc c0 0b 8e bb
       0.072025 -0.03772675 -0.016059518 -0.004334897
0003b0 c0 6b a0 3d 82 5f b4 3d 6a 23 08 3e 98 67 f5 3c
       0.07833052 0.08807279 0.1329476 0.029956624
0003c0 56 c0 ca bd 58 37 e3 3c b4 0e dd bd eb 0a f7 3c
       -0.098999664 0.02773635 -0.1079382 0.030156573
0003d0 7c 00 5a bb 3c f5 3a 3d ed b4 30 3e 21 47 c6 bd
       -0.003326445 0.04564403 0.17256518 -0.096815355
0003e0 b0 f6 44 3d 22 3a e9 bc d3 75 96 3d f7 1f a9 3d
       0.048086822 -0.028470103 0.07346692 0.0825805
0003f0 23 ea 86 3c a8 f0 3c bd 08 20 19 bd 58 83 aa 3c
       0.016469067 -0.046127945 -0.037384063 0.020814583

fc2.bias f4 [64]
000000 35 59 f9 3d a5 15 91 3d 8b d6 f3 3d 32 17 08 3d
       0.12175218 0.070842065 0.11906155 0.033225246
000010 81 ae 01 3e 3c fb 20 bd 58 d7 97 3d 43 89 74 3c
       0.12664224 -0.039302096 0.074141204 0.014925304
000020 98 cd 42 bd b6 de 61 3c 71 59 01 3e 8b cf 7f 3d
       -0.04755935 0.013786009 0.12631775 0.062453788
000030 7e 9f 53 3d e6 79 09 3e 8e 6d 02 3e fe 00 06 bd
       0.051665775 0.13425407 0.12737104 -0.03271579
000040 e2 e9 0d 3e 21 ff 48 bd 88 42 18 3d 63 d2 89 3d
       0.1385875 -0.049071435 0.037172824 0.06729581
000050 91 ee 96 3d aa bb 2d 3e d2 95 19 3e cb df 26 3e
       0.07369722 0.1696612 0.14998558 0.16296308
000060 16 b8 bd 3d 88 ad 5e 3d 22 40 00 bc 5a 41 c2 bd
       0.09263627 0.05436471 -0.00782779 -0.09485121
000070 c8 24 7c 3d 99 e9 46 3d f4 f4 d1 bd 16 51 c7 3c
       0.061558515 0.04856262 -0.10251799 0.024330657
000080 30 ef fb 3d 92 fe c6 3d c3 30 0f bb 30 1d b8 3c
       0.12301481 0.09716524 -0.0021849133 0.022474855
000090 dc ec 2e bd c8 b7 84 3d cd 2e bc bd b7 9c f0 bc
       -0.042706355 0.06480366 -0.09188614 -0.029371602
0000a0 46 ce e9 bc cd 76 2b 3d 35 af 2a 3c d8 e2 04 bd
       -0.028540742 0.041861344 0.010417749 -0.032442898
0000b0 9a 0b e2 3c 6e 4e 0e 3e 5e 4f b7 bd f8 38 37 3e
       0.027593423 0.13897106 -0.08950685 0.17892826
0000c0 d9 77 fe bd a7 52 c1 bd d0 61 b0 bc 60 01 ce bd
       -0.12425203 -0.09439593 -0.021531016 -0.10058856
0000d0 ec 0c e1 3d a9 4d 8e bd 4f 73 a8 bc 1c 42 77 3d
       0.10988793 -0.06948406 -0.020562796 0.06036578
0000e0 6a 29 a5 bd 5d 52 db bd 60 60 08 3e 99 e8 8d 3d
       -0.0806454 -0.10709069 0.13318014 0.0692913
0000f0 12 b1 cf 3c a8 86 8e bb df 98 6a 3d 05 06 92 3c
       0.025352988 -0.0043495484 0.057274695 0.017825136

fc3.weight f4 [7, 64]
000000 dc 2e 5b bd e4 20 da bc 49 17 06 3e 3a 7a e9 3d
       -0.053511485 -0.026627012 0.1309482 0.11400266
000010 08 98 05 bd 28 01 f1 3c 51 c0 18 be 52 34 58 bd
       -0.03261569 0.029419497 -0.14917113 -0.05278427
000020 82 21 dc 3d 75 48 d0 bd 99 dd c0 bd ec 90 34 be
       0.107485786 -0.1017007 -0.094172664 -0.17633408
000030 bf 6c e0 bd fe f5 92 bd e5 84 7e 3d c4 d9 91 3d
       -0.10958242 -0.071758255 0.062138457 0.071216136
000040 b2 f0 15 be 64 4e 7f bd 76 2e 6d 3e 9e ea 8e 3e
       -0.14642599 -0.06233062 0.23162255 0.27913374
000050 9d 4e 8b 3e 4a fa 84 bd 0d 66 bd 3d a1 03 83 3e
       0.27208415 -0.06493051 0.0924798 0.25588706
000060 b1 b9 ac 3d 62 b2 09 bc 63 0a 19 3c c0 56 26 3b
       0.08433855 -0.008404346 0.009340855 0.0025381297
000070 d0 14 3c 3d 53 23 b7 bd cb 93 d1 bd 88 3d 17 3e
       0.045918286 -0.089422844 -0.102332674 0.14769566
000080 6f f0 7e bd 19 60 96 3d 81 90 16 bc 7f 47 1f bd
       -0.062241014 0.07342548 -0.009189726 -0.038886543
000090 6e ca e1 3d 3c 43 fb 3d 00 c5 df 3b c0 8c 9d bd
       0.110249385 0.12268683 0.006828904 -0.076928616
0000a0 44 66 2f 3e b1 88 15 3c cc 8e ff bd b2 6f b6 bc
       0.17128855 0.009126828 -0.12478408 -0.022270057
0000b0 4f 1a a4 3d 1c 1d 83 bd c0 1b 0f bd 09 46 d6 3e
       0.080128305 -0.064020365 -0.034938574 0.41850308
0000c0 ff 6f b5 bd c2 d4 5a bd e4 81 13 3d ac 04 5c bd
       -0.08859252 -0.053425558 0.036012545 -0.053715393
0000d0 3c 95 5d 3c e8 8c 27 3e a2 b4 f4 bd 37 0e 25 bc
       0.01352435 0.16362345 -0.119485155 -0.01007419
0000e0 7d 20 b5 3d 2b 03 9f bc 53 e1 98 3d 72 e1 4c 3d
       0.08844087 -0.01941069 0.07464852 0.05001969
0000f0 93 06 e5 3c 90 da a9 3e 3f a2 92 3c 51 1e d6 bc
       0.027957236 0.33174562 0.01789963 -0.026137503
000100 6a 7a 7e bd 13 fc 2e be 71 8a 06 be 3d 1f bb 3d
       -0.062128462 -0.17088346 -0.13138749 0.091368176
000110 6d 4f 1c be c8 70 21 bd 23 b3 37 bd fe c7 e4 3d
       -0.15264674 -0.039414197 -0.044848572 0.11170958
000120 3e 8e de bd 9f ef 8a bb 99 77 a4 be 8d a5 f5 bc
       -0.10866974 -0.004239991 -0.32122496 -0.029986167
000130 87 d9 55 3e 05 13 e0 3d e6 82 bf bd 5d aa 19 3d
       0.20883761 0.10941128 -0.09351139 0.037515987
000140 65 21 07 be 22 6d 02 3d 5b 1b f1 3d 3b 6f f6 bd
       -0.13196333 0.03184236 0.11772796 -0.12032934
000150 04 21 20 3e 86 44 50 3d 42 5f de 3e 91 5e 53 3c
       0.15637594 0.0508466 0.4343205 0.012900964
000160 ca b2 b0 bd c1 93 70 bd 9e 49 56 bb 00 6c 46 bc
       -0.08627851 -0.05873466 -0.0032697688 -0.01211071
000170 f9 6b 81 bc 97 c2 e6 bd b4 87 a9 bd 36 ca 55 3c
       -0.015798556 -0.11267584 -0.082778364 0.013048699
000180 90 7c 99 bd dc fc 77 3d 74 3d a7 bd bd ce 09 be
       -0.074944615 0.06054388 -0.08166018 -0.1345777
000190 0c 39 05 3d f8 7f 29 3e 28 23 b9 3c 0e 68 f1 3c
       0.032525107 0.16552722 0.022599772 0.029468562
0001a0 b7 78 a6 3d f1 60 b1 bc f1 e0 96 bd df e7 0a 3c
       0.08128493 -0.02165267 -0.07367123 0.008478134
0001b0 29 16 b1 bd f3 cf d1 3d e8 88 b1 bc 96 d8 25 3d
       -0.08646805 0.10244741 -0.021671727 0.040489756
0001c0 ba b9 33 3e 93 d7 f8 3e 60 bf cd bb 60 5b c0 bb
       0.17551318 0.4860197 -0.006278917 -0.0058702677
0001d0 76 63 58 bd 0d ab ce bd 74 63 dc 3c 16 fe 20 bd
       -0.05282923 -0.10091219 0.026902892 -0.039304815
0001e0 d1 ed 1f 3e 4f 98 4c bd 62 2c bb 3e a1 9b b1 3c
       0.15618064 -0.04994994 0.365573 0.021680655
0001f0 ca 74 18 bd d3 60 0f 3e 54 6b 2a bc 2f 29 56 3d
       -0.037220754 0.1400178 -0.010401566 0.05228537
000200 52 87 75 bd 17 8c 67 3e c4 5f 0a 3e 6d e7 45 3e
       -0.059943505 0.22612034 0.13513094 0.19326563
000210 67 29 fd 3c e0 b1 dc bb eb 0f 57 3e a0 51 d8 bd
       0.030903531 -0.0067350715 0.21002166 -0.10562444
000220 08 c0 de bc 7d 4e 8f bd 9e cf 54 bc 50 06 6a 3d
       -0.027191177 -0.06997392 -0.012988953 0.057134926
000230 9d 65 54 3e 00 9f 2d 3d ed 78 13 be cc 85 18 3e
       0.20741887 0.042387962 -0.14401598 0.1489479
000240 3b d7 3a 3b 11 8c af bd b9 f8 54 bc 08 da 85 3d
       0.0028509635 -0.085716374 -0.012998753 0.06535727
000250 8c 94 df 3d 18 fe 0b 3d 75 07 d0 3d 6f d4 3e be
       0.10917005 0.03417787 0.10157672 -0.18635724
000260 86 e2 a9 bd ce e5 29 bd 51 9c 66 3d dc a8 68 bd
       -0.08295159 -0.041478924 0.05630142 -0.05680166
000270 22 26 f7 3d 60 77 14 ba 11 58 81 3d fe 96 ed 3e
       0.1206782 -0.000566354 0.063156255 0.4640426
000280 ef 42 32 bd c7 55 f6 bd 43 17 59 3c e2 2c cf bd
       -0.043520864 -0.120280795 0.013250175 -0.101159826
000290 e8 b8 d6 3d 8b 02 fc 3d cc 92 00 3d 18 9e 1b be
       0.10484487 0.123051725 0.031389996 -0.15197027
0002a0 7b 7b 9e 3c 7f 1a cd bd 92 4d 4c 3c f7 fe 90 bd
       0.01934599 -0.10014819 0.012469666 -0.07079881
0002b0 81 2f b6 bd ab 67 9d 3d 00 d8 49 3a 9b dd 1d 3e
       -0.088957794 0.07685789 0.0007699728 0.15416567
0002c0 eb ac 01 be f0 04 3a be 10 0c b6 bd 7c 3a b5 3d
       -0.12663619 -0.18165946 -0.088890195 0.08849046
0002d0 e4 f5 4d be 27 67 46 be cb 86 16 bd 5c f7 08 be
       -0.20113331 -0.19375287 -0.036749642 -0.1337561
0002e0 2b 61 0c 3d fb 46 1a bd 65 4f 92 3e 0c 9a 70 bd
       0.034272354 -0.03766535 0.28576198 -0.05874066
0002f0 01 d0 af 3d 65 4e a5 be 9b a4 11 bd 0d 87 1c bd
       0.085845955 -0.32286373 -0.03555737 -0.038214732
000300 14 7c ba bc 20 e5 59 3d bc ce a2 bd 31 db 40 3e
       -0.022764243 0.053197026 -0.07949588 0.18833615
000310 61 6f f0 bd e2 6c 8e bd 0c 03 7a 3e 82 21 f4 3d
       -0.11739994 -0.069543615 0.24415225 0.119204536
000320 50 87 90 3d e9 46 35 b9 16 73 d6 3d 5d db 88 bd
       0.07057059 -0.00017287921 0.1047117 -0.06682465
000330 60 ac a7 bd 16 87 12 3c 52 b0 e8 bc 06 7f 29 3e
       -0.08187175 0.00894334 -0.028404389 0.16552362
000340 30 6e 53 3e b5 db 86 3d ea 40 2d 3d 82 6b 21 be
       0.20647502 0.065848745 0.042298235 -0.15763667
000350 17 4e 91 bd be 57 3b bd 42 23 13 3e f8 eb 02 be
       -0.070949726 -0.045737974 0.14368919 -0.12785327
000360 a5 a1 e0 bd 44 fb bd 3e e7 3a 3a 3d c0 d0 09 3d
       -0.10968331 0.37105763 0.04546633 0.033646345
000370 99 6f e5 3e e0 6f f1 bd 20 33 bf 3c 54 c1 0c 3e
       0.44811705 -0.117889166 0.023339808 0.13745624
000380 fd be 82 3b 3d 95 fb 3d 09 54 4e 3d 91 01 cf bc
       0.0039900527 0.12284324 0.05037311 -0.025269302
000390 c0 43 6b bb ff d5 27 3d 7a 47 b4 bd b0 13 6b be
       -0.0035898536 0.040975567 -0.088026956 -0.22956729
0003a0 d3 7b fc 3d 26 87 f1 3d ba 73 a6 bd 6e cd 86 bd
       0.12328305 0.11793356 -0.08127542 -0.06582151
0003b0 06 fd 41 bd 25 b6 e7 3d 78 6f fa bc 3a ab 6a 3e
       -0.047360443 0.11314038 -0.03057073 0.2291688
0003c0 d2 e9 41 be 23 3f 43 bc 42 e2 e0 3d f4 af 2f bd
       -0.18936852 -0.011916908 0.10980655 -0.04289241
0003d0 d4 bc 18 3e d2 bf 07 3e d8 f1 70 3d fb d4 6e 3d
       0.14915782 0.13256767 0.05882439 0.058308583
0003e0 76 3e f5 3d 20 e1 bc be 6f 34 be 3e 06 f8 40 bd
       0.11974804 -0.36890507 0.3714938 -0.047111534
0003f0 46 b9 cb bd 15 32 87 3e 1e 9f b3 3c 8e 90 e2 3c
       -0.099474475 0.26405397 0.021926459 0.02765682

fc3.bias f4 [7]
000000 9f 4b c8 3d 14 16 89 3d 20 a7 13 3d ff be f9 3b
       0.097800486 0.06693664 0.036048055 0.0076216455
000010 1c 5c b8 3d 17 a0 02 3d 17 aa ca bd
       0.090019435 0.031890955 -0.09895723
