src/models/34x32_10robot_10humans_1pickup_8dropoff_2048shelves_30000episodes_1000steps(other rewards).pth (torch, 294018 bytes, 10 tensors)

conv1.weight f4 [16, 80, 3, 3]
0	0x3d716916	0.05893811
1	0x3d7756e5	0.060385603
2	0x3d8b9596	0.06815641
3	0x3dcaf861	0.09910656
4	0x3c67af37	0.014140896
5	0x3d81bb3f	0.063345425
6	0x3dc119b3	0.0942873
7	0xbe6a2311	-0.2286494
8	0x3dac88a4	0.084245
9	0xbbc1a0b3	-0.0059090494
10	0xbbbe85ff	-0.0058143134
11	0xbc21c9fb	-0.009874816
12	0xbc2f01c1	-0.0106815705
13	0xbbc677c4	-0.0060567576
14	0xbba58484	-0.0050511975
15	0x3cd990a6	0.026558232
16	0x3caab822	0.020839754
17	0x3c9c3b6e	0.019071307
18	0xbbd0e4e0	-0.0063749403
19	0xba3799d7	-0.000700382
20	0xbb831c59	-0.004001182
21	0xbb03c107	-0.0020104067
22	0x3b806138	0.0039178394
23	0xbaa7c4a8	-0.0012799697
24	0xbb6514f4	-0.0034955116
25	0xba7712b9	-0.0009425092
26	0x3b27f36e	0.0025627273
27	0x39455ff3	0.00018823128
28	0x3ba90f5f	0.005159303
29	0xbcb73acb	-0.022366902
30	0x3b64b3ff	0.0034897325
31	0xb7817a18	-1.5434853e-05
32	0x3b09d890	0.0021033622
33	0x3ca48be1	0.02008623
34	0x3c596633	0.013268995
35	0xbb3354d7	-0.00273638
36	0x3d475fdf	0.048675414
37	0xbc2c66cb	-0.010522555
38	0xbc81fa29	-0.015866356
39	0x3c0183a1	0.007904918
40	0xbd712ef5	-0.058882672
41	0xbccf6e93	-0.02532128
42	0x3c9b1d3a	0.018934835
43	0xbce18e03	-0.027533537
44	0xbca042c0	-0.019563079
45	0xba69a607	-0.00089129846
46	0xb90afcbc	-0.00013254856
47	0x3acd003b	0.0015640327
48	0xbcbb870d	-0.022891546
49	0xbba16823	-0.004925744
50	0xbc1bfe63	-0.0095211
51	0x3c25e53b	0.010125454
52	0xbc203e9f	-0.009780555
53	0xbc9fd27e	-0.01950955
54	0x3c845332	0.016152952
55	0x3b5424db	0.00323706
56	0x3ca3f4e0	0.020014226
57	0xbcfb91f9	-0.030709254
58	0xbcd3ea3c	-0.025868528
59	0x3c84be25	0.01620395
60	0x3b5698f7	0.0032744983
61	0x3ce99340	0.028512597
62	0x3c6fc7c2	0.014635028
63	0xbc1efe6c	-0.009704214
64	0x3b6506c1	0.0034946653
65	0x3ce338d6	0.027737062
66	0x3a9cac01	0.0011953117
67	0x3c985e42	0.018599633
68	0xbd099190	-0.033586085
69	0x3a228b15	0.00062005344
70	0x3bc8a3e6	0.006123054
71	0xbc872501	-0.016497137
72	0xbc4b5e84	-0.012412671
73	0x3c8fdde3	0.017561859
74	0xba8981ef	-0.0010490994
75	0x3d196eae	0.037459068
76	0x3d0888f0	0.03333372
77	0xbc116bbb	-0.008875783
78	0xbd0db2b9	-0.03459427
79	0xbc3d6d97	-0.011561773
80	0xbbbdf778	-0.005797323
81	0x3cec6f89	0.028861778
82	0x3c8e36dc	0.017360143
83	0x3d0ca433	0.03433628
84	0xbd300ce4	-0.042981043
85	0x3c731e2e	0.014838738
86	0x3c3272da	0.010891641
87	0x3cbcb90b	0.023037454
88	0xbd0a0f06	-0.033705734
89	0x3d46756a	0.04845182
90	0x3dd765c9	0.10517461
91	0x3d871566	0.06595878
92	0x3cdc75ea	0.026911695
93	0x3d2786b1	0.040899936
94	0x3d08e9ed	0.033426214
95	0x3db2a831	0.08723486
96	0x3d924bbb	0.07143351
97	0xbe898b57	-0.2686412
98	0x3e03ceb2	0.12871817
99	0xbc234db5	-0.009967257
100	0x3c152af3	0.009104478
101	0x3b8a1795	0.004214237
102	0xbc0c03f3	-0.008545863
103	0xbbeafa77	-0.007170971
104	0xbca3d07d	-0.019996876
105	0x3d09a3df	0.033603545
106	0x3d08e615	0.03342255
107	0x3ce0a57a	0.027422655
108	0xbbf545c9	-0.0074851257
109	0xbb0ad4ca	-0.002118396
110	0xbc5b0a91	-0.013369218
111	0xbc007710	-0.007840887
112	0xbb36c427	-0.0027887912
113	0x3af536e2	0.0018708373
114	0xbc08fed3	-0.008361536
115	0x3b27944f	0.0025570577
116	0xb9eea9ec	-0.000455215
117	0xbc3dd9ac	-0.011587542
118	0xba44f9af	-0.00075140124
119	0xbca3af23	-0.019980973
120	0x3c5f70fe	0.013637779
121	0xbc8ba5f5	-0.017046908
122	0xbc0c903b	-0.008579309
123	0x3c0de82d	0.008661312
124	0x3c2afd6b	0.010436396
125	0x3b658226	0.0035020201
126	0x3cd04de8	0.025427774
127	0xbd58cbd2	-0.052928753
128	0xbd1f33d8	-0.0388678
129	0x3cdac81e	0.026706751
130	0xbd73e48c	-0.05954413
131	0xbcbe7181	-0.023247482
132	0x3cfb9c3d	0.030714149
133	0xbc1bed38	-0.009517007
134	0xbcc823d2	-0.024431143
135	0x39831457	0.0002500142
136	0x3b982d5d	0.0046440796
137	0xbb944111	-0.004524358
138	0xbc7acc2b	-0.0153074665
139	0x3b9d045d	0.00479178
140	0xbc76b9fd	-0.0150589915
141	0x3ccca499	0.02498083
142	0x3c5fd6e6	0.013662076
143	0xbc3a8fb4	-0.011386801
144	0x3ca5976f	0.02021381
145	0xbc111061	-0.008854003
146	0x3cea5be1	0.028608264
147	0xbd2b7f68	-0.04186955
148	0xbd03c7c5	-0.032172937
149	0x3d35b172	0.04435868
150	0x3d2728a6	0.04081025
151	0x3d7290dc	0.05922018
152	0x3d813065	0.06308059
153	0x3c13a6bf	0.009011923
154	0x3c89581d	0.016765648
155	0xbcf85b3a	-0.030316938
156	0xbc1d0c9c	-0.009585526
157	0x3c431e92	0.011909144
158	0x3b2dad27	0.0026500912
159	0x3bffcc76	0.007806356
160	0x3be33691	0.006933995
161	0x3c4d23cb	0.012520741
162	0xbc9ab7ea	-0.018886525
163	0xbbbf12ee	-0.005831114
164	0xbc53898d	-0.012911213
165	0x3bf0e824	0.007351892
166	0x3ce474aa	0.027887661
167	0xbab7b6f6	-0.0014016319
168	0xbd1ae435	-0.03781529
169	0xbd0cf8ae	-0.034416847
170	0xbae585a0	-0.0017511137
171	0x3ceccb5f	0.028905569
172	0x3d26d4ae	0.04073017
173	0x3d603d7a	0.05474613
174	0xbc92deee	-0.017928567
175	0x3af50deb	0.0018696164
176	0x3ca47e72	0.020079825
177	0x3b59a2de	0.0033208649
178	0xbc0ec6a2	-0.00871435
179	0x3d17b270	0.037035406
180	0x3d73dce4	0.05953683
181	0x3dac6b02	0.084188476
182	0x3da7408c	0.08166608
183	0x3d964313	0.07337012
184	0xbb8f49b4	-0.0043728
185	0x3dab61ff	0.08368301
186	0x3d9d3061	0.07675243
187	0xbe5b8013	-0.21435575
188	0x3def3fd6	0.116820976
189	0x3ccb24d8	0.024797842
190	0xbb8446a5	-0.004036742
191	0xbc36a3ab	-0.01114742
192	0x3b1617f4	0.002290246
193	0xbc5b3092	-0.013378279
194	0xbc86c8fd	-0.01645326
195	0x3d68e567	0.0568594
196	0x3d003767	0.031302836
197	0x3c5d05fb	0.013490195
198	0xbc06b8fa	-0.008222813
199	0x386bb568	5.6197314e-05
200	0xbc81ffeb	-0.015869102
201	0xbc257280	-0.0100981
202	0x3b5a0607	0.0033267753
203	0x3c44a576	0.01200234
204	0xbb682dee	-0.0035427767
205	0x3af5277a	0.0018703782
206	0x3b31d8ba	0.0027137236
207	0xbba23475	-0.004950101
208	0x3bd1f196	0.006406973
209	0xbc9721f8	-0.018448815
210	0x3c7443a5	0.014908706
211	0x3bd75963	0.006571935
212	0x3bfdcdf9	0.007745501
213	0x3cb9d7f3	0.02268598
214	0x3cba3cdf	0.022734104
215	0x3c5906fd	0.013246295
216	0x3d668e4a	0.05628804
217	0xbd9c913e	-0.0764489
218	0xbd3d1e58	-0.046171516
219	0x3d0c827c	0.034304127
220	0xbd35b57f	-0.04436254
221	0x3be5c56e	0.007012061
222	0x3cf11a80	0.029431581
223	0x3c84643c	0.016161077
224	0xbcedf08f	-0.029045371
225	0xbccb23ba	-0.02479731
226	0x3c6666fd	0.01406264
227	0xbbe0916b	-0.0068532727
228	0xbc93c3ba	-0.018037666
229	0x3c3ea7b9	0.011636668
230	0xbc10ecdb	-0.008845533
231	0x3d19de7c	0.037565693
232	0x3ba32a4a	0.0049794065
233	0x3bb95f3e	0.0056571057
234	0x3cc12ad2	0.023579989
235	0xbc0636f1	-0.00819181
236	0x3d9720b8	0.073792875
237	0xbcc18964	-0.023625083
238	0xbc8c63ba	-0.017137397
239	0x3d693307	0.05693343
240	0x3d95fafb	0.07323261
241	0x3d9bfe68	0.076168835
242	0x3da71797	0.08158796
243	0xbc054a0a	-0.008135328
244	0x3c9fdd2a	0.019514639
245	0xbce9d7d5	-0.0285453
246	0x3cfabf44	0.03060878
247	0x3c01d5f3	0.007924545
248	0x3c91b44e	0.017786171
249	0xbcbe47ac	-0.023227535
250	0x3cadae94	0.02120141
251	0xbd221020	-0.03956616
252	0xbbb5cd99	-0.005548191
253	0x3c4efba7	0.012633241
254	0xbc0f0095	-0.008728166
255	0xbbb26614	-0.0054442976

conv1.bias f4 [16]
0	0x3e329a18	0.17441595
1	0xbda64fab	-0.08120664
2	0x3da5e7f3	0.081008814
3	0x3db1a307	0.08673673
4	0x3e373e04	0.17894751
5	0xbe3f0b93	-0.18656759
6	0x3e3b4d92	0.1829131
7	0xbd802df9	-0.062587686
8	0x3e10df7b	0.14147751
9	0xbce7082c	-0.028202139
10	0x3d82f81d	0.0639498
11	0xbe0c2d57	-0.13689171
12	0xbd6652ea	-0.056231417
13	0x3df65fef	0.12030017
14	0x3e8aadbc	0.27085674
15	0x3e82e0ac	0.25562036

conv2.weight f4 [32, 16, 3, 3]
0	0x3e61ceca	0.2205154
1	0x3cda8ffe	0.026679989
2	0x3e1d0410	0.15333581
3	0x3e838f4f	0.25695273
4	0x3d0424e7	0.032261755
5	0x3e7f9e3a	0.24962702
6	0xbe1a7e04	-0.15087134
7	0x3df79e22	0.12090708
8	0x3e4b5f39	0.19860543
9	0x3b9203c8	0.004456017
10	0x3e80b6d8	0.251395
11	0xbd46dfc5	-0.048553247
12	0x3e9ad918	0.30243754
13	0x3f0b938a	0.54522
14	0x3e758246	0.23975477
15	0x3e14d5e2	0.14534715
16	0x3ec03982	0.37543875
17	0xbd5accec	-0.053418085
18	0xbe7cbad7	-0.24680649
19	0xbe30d1ba	-0.17267504
20	0x3e40a06b	0.18811195
21	0xbe27fbd0	-0.16404653
22	0xbd836a72	-0.06416787
23	0xbe18861a	-0.14894906
24	0x3dc7dcd5	0.09758917
25	0xbe2d1d97	-0.16905819
26	0x3c2ca103	0.010536435
27	0x3da9cd2f	0.08291089
28	0xbe9c98fd	-0.3058547
29	0x3d6c72a8	0.057726532
30	0xbea5a8b8	-0.32355285
31	0xbeaea66f	-0.34111354
32	0xbe2e5161	-0.17023231
33	0xbad807d5	-0.0016481826
34	0xbf07e825	-0.530886
35	0xbe23fcd6	-0.16014418
36	0x3e989d74	0.29807627
37	0x3e206637	0.15663992
38	0x3de989ec	0.1140326
39	0x3e67bc2e	0.22630379
40	0x3e963664	0.29338372
41	0xbdf0d612	-0.11759581
42	0x3e754337	0.23951422
43	0x3d3be823	0.04587568
44	0x3e533b4c	0.20628089
45	0x3b8dfb1d	0.0043329136
46	0xbc8731b2	-0.016503189
47	0xbe13b24f	-0.14423488
48	0xbc2afa43	-0.010435644
49	0xbf0a56c5	-0.5403865
50	0xbe3b4523	-0.18288092
51	0xbd3f5090	-0.04670769
52	0x3d2fc370	0.042910993
53	0xbe850179	-0.25977686
54	0xbde93535	-0.113871016
55	0xbe4a580e	-0.19760153
56	0xbe3ca002	-0.18420413
57	0x3e1b3fe3	0.1516109
58	0xbcf99d04	-0.030470379
59	0x3db3a191	0.08771051
60	0x3e3a7aae	0.18210861
61	0x3e35b5bc	0.17745107
62	0xbcf34926	-0.029697966
63	0x3da5991d	0.08085845
64	0x3c855d39	0.016279804
65	0xbd43dba1	-0.047816876
66	0xbea531a4	-0.32264435
67	0x3dd40f7a	0.103545144
68	0xbd7752ea	-0.060381807
69	0xbdc7601a	-0.09735127
70	0xbdcc1eae	-0.09966789
71	0x3db0a328	0.086248696
72	0xbd8d3f65	-0.06896857
73	0xbe8a9cf0	-0.2707286
74	0x3ced6f2f	0.02898368
75	0x3d08962a	0.033346333
76	0xbf1e1844	-0.61755776
77	0xbe3be7a0	-0.18350077
78	0xbd8642e5	-0.06555728
79	0xbe392352	-0.1807988
80	0x3da6c8f8	0.081438005
81	0xbc5f0c4c	-0.013613772
82	0x3db5b381	0.08872128
83	0x3e7126c0	0.23549938
84	0x3c922a7c	0.017842524
85	0x3d30c5e2	0.043157466
86	0x3d8cac01	0.06868745
87	0xbb6ca42f	-0.0036108603
88	0x3b71b33b	0.0036880511
89	0x3e50751e	0.20357177
90	0x3d7f51f2	0.06233401
91	0x3d47e814	0.04880531
92	0x3e139d63	0.14415507
93	0xbbeac158	-0.0071641617
94	0x3def425a	0.116825774
95	0xbdfc74ee	-0.1232699
96	0x3e052ab2	0.13004568
97	0xbe644931	-0.22293545
98	0x3e02a8f4	0.12759763
99	0x3de4081f	0.111343615
100	0x3e405645	0.18782909
101	0x3e395354	0.18098193
102	0xbe118a5f	-0.1421294
103	0xbea87836	-0.32904214
104	0xbcdcf3c9	-0.026971715
105	0xbdd51d64	-0.104059964
106	0x3b8b54f7	0.004252072
107	0xbd573697	-0.052542295
108	0x3e1d6bec	0.153732
109	0x3db38d58	0.087671936
110	0xbd3e09bb	-0.046396
111	0x3ebf132b	0.37319311
112	0x3d9b9676	0.075970575
113	0x3e303b51	0.17210127
114	0xbd8d840e	-0.06909953
115	0x3ddc7f2e	0.10766445
116	0xbd4a8313	-0.04944141
117	0xbe0701ab	-0.1318423
118	0xbe418e3d	-0.18901916
119	0xbd3937b4	-0.04521914
120	0xbd34f2b3	-0.04417677
121	0xbe76e960	-0.24112463
122	0xbd194997	-0.037423696
123	0xbdb19339	-0.086706586
124	0xbc0e8fa2	-0.008701237
125	0x3d890988	0.06691271
126	0xbe3b5cd0	-0.18297124
127	0xbe4c6046	-0.199586
128	0x3d3ebe95	0.046568472
129	0xbda458a6	-0.08024721
130	0xbd880fc3	-0.06643631
131	0xbe03a084	-0.128542
132	0xbe685152	-0.22687271
133	0xbe3ca13d	-0.18420883
134	0xbd8d915e	-0.06912492
135	0xbcb3eb80	-0.021962881
136	0xbe704b14	-0.2346614
137	0x3c87c968	0.01657553
138	0xbe429d3d	-0.19005294
139	0x3e3bb4f0	0.18330741
140	0x3d88d191	0.066805966
141	0x3dfaa67b	0.12238785
142	0xbe87651a	-0.26444322
143	0xbe5d2f57	-0.2160009
144	0xbe8a457f	-0.27006146
145	0x3c08b4e4	0.008343909
146	0xbcbc70c8	-0.023002997
147	0x3d62d76b	0.05538122
148	0xbc479e2a	-0.012183705
149	0xbd96890a	-0.07350357
150	0xbd8b13bc	-0.067908734
151	0x3cbaf618	0.022822425
152	0x3c1cf571	0.009580002
153	0xbe39b427	-0.18135129
154	0x3dbb66f4	0.09150496
155	0xbb81abba	-0.003957239
156	0x3a8af17b	0.0010600531
157	0x3e4fd4e5	0.20296057
158	0xbdce7ea1	-0.10082746
159	0x3e4a7f2b	0.19775073
160	0x3cca253f	0.024675963
161	0xbe4bd814	-0.19906646
162	0x3e7cc931	0.24686123
163	0x3e1b21ef	0.15149663
164	0x3e293857	0.16525398
165	0x3daeb1fd	0.08530042
166	0xbdab75b1	-0.08372057
167	0xbd022672	-0.031774946
168	0xbe141f7b	-0.14465134
169	0xbdc5b873	-0.096543215
170	0xbda1ca17	-0.07899874
171	0xbe6fe030	-0.23425364
172	0x3d0238a8	0.031792313
173	0x3d5af232	0.05345363
174	0xbc15f3df	-0.009152382
175	0x3e18ef62	0.14935067
176	0xbe01dc9a	-0.12681809
177	0x3e206d27	0.15666638
178	0x3e0ba743	0.13638024
179	0x3e34f79c	0.1767258
180	0xbf02940e	-0.51007164
181	0xbe9b21f5	-0.30299345
182	0x3e453b8c	0.19260997
183	0x3e061809	0.13095106
184	0x3df2a477	0.118477754
185	0x3de29dfa	0.11065288
186	0xbdda83c9	-0.10669667
187	0xbbe18d3d	-0.006883292
188	0x3e1531c8	0.14569771
189	0x3e893b82	0.26803213
190	0x3eaca5af	0.33720157
191	0xbdeb0b6e	-0.114767894
192	0x3f01875c	0.50597167
193	0x3ea948c2	0.33063322
194	0xbe10e548	-0.14149964
195	0x3dd6b6e1	0.104841
196	0xbe058a84	-0.13041121
197	0xbc94d86f	-0.01816961
198	0xbe930af7	-0.28719303
199	0x3e4e1b0f	0.2012751
200	0xbd4beddf	-0.0497874
201	0x3ed70510	0.4199605
202	0x3e49db27	0.19712506
203	0x3c52f5aa	0.012875954
204	0x3daa3169	0.083102055
205	0xbc8e22c1	-0.017350556
206	0xbe385484	-0.1800099
207	0x3e2489c1	0.16068174
208	0x3e8a5ea3	0.27025327
209	0xbd0365fb	-0.032079678
210	0x3e6b088f	0.22952484
211	0x3dd379cd	0.10325966
212	0x3d9b5410	0.07584393
213	0xbc705e9b	-0.014670993
214	0xbe4b2079	-0.19836606
215	0xbd8c6ec1	-0.06857062
216	0xbec4d84a	-0.38446265
217	0xbed72d0b	-0.42026553
218	0x3cb62df6	0.022238713
219	0xbed61c2c	-0.41818368
220	0xbec8e1b9	-0.39234713
221	0x3d40b800	0.047050476
222	0xbe5cf5b6	-0.21578106
223	0xbd35638a	-0.04428438
224	0x3e58fcac	0.21190137
225	0xbd80f2c7	-0.06296306
226	0xbcc5c782	-0.024142984
227	0x3dfbc5a0	0.12293553
228	0x3e097bbd	0.13426109
229	0x3e09bdb1	0.13451268
230	0x3dc88468	0.097908795
231	0x3cff0256	0.031129044
232	0x3dc7fd0c	0.09765062
233	0x3e801b7e	0.25020975
234	0x3c1d5fe5	0.009605383
235	0xbcc743de	-0.024324354
236	0x3ca86dd9	0.020560192
237	0x3e82d8cd	0.2555603
238	0x3e8b6157	0.27222702
239	0x3e36fd44	0.1787005
240	0xbe19743e	-0.14985749
241	0xbd43ce6d	-0.047804285
242	0x3e265d6d	0.16246577
243	0xbca3ec9f	-0.02001029
244	0x3d8a1383	0.06742003
245	0x3d8e475b	0.06947204
246	0xbcd90127	-0.026489807
247	0x3cd38b47	0.025823249
248	0xbd82bf12	-0.063841
249	0x3d14c674	0.036322072
250	0x3dbf6de2	0.0934713
251	0x3ca92040	0.02064526
252	0xbd612f4e	-0.054976754
253	0x3d78974d	0.060691167
254	0x3c7b424b	0.01533563
255	0xbca72106	-0.020401489

conv2.bias f4 [32]
0	0x3e0074b7	0.12544523
1	0x3dc9c4e1	0.09852005
2	0x3e08bbc7	0.13352881
3	0x3e3cc408	0.18434155
4	0x3d87674f	0.066115014
5	0x3e00122f	0.12506936
6	0x3dea5a81	0.114430435
7	0x3e447b98	0.19187772
8	0x3e2135cb	0.15743177
9	0x3dc6ec7d	0.09713075
10	0x3db1a587	0.0867415
11	0x3e3112a6	0.1729227
12	0x3d8397cf	0.064254396
13	0xbdb16381	-0.08661557
14	0x3d5d8fb0	0.05409211
15	0x3d15639b	0.036471944
16	0x3e0a1bdb	0.13487189
17	0x3dcef6a0	0.10105634
18	0x3e2c2c08	0.16813672
19	0x3d92e634	0.07172814
20	0x3dbe90c2	0.09304954
21	0x3de2e98a	0.110797
22	0x3da22425	0.0791705
23	0x3dcc3d29	0.09972603
24	0x3dc2f93a	0.095201924
25	0x3e6d071d	0.23147245
26	0x3e7a1b33	0.24424438
27	0x3e783bd0	0.24241567
28	0x3e00adfb	0.12566368
29	0x3e42f2f1	0.19037987
30	0x3b2b90a7	0.0026178749
31	0xbd88783a	-0.066635564

fc1.weight f4 [64, 800]
0	0x3c6a0a61	0.014284701
1	0xbbd0d044	-0.0063724834
2	0xbd0a44f1	-0.033757154
3	0x3cda2faa	0.026634056
4	0xbce06169	-0.027390199
5	0xbcb881aa	-0.022522766
6	0xbca905bf	-0.020632623
7	0xbc63d383	-0.013905409
8	0x3ccbc4e7	0.024874164
9	0xba7e9332	-0.0009711265
10	0xbcf453f2	-0.029825184
11	0x3c3cba57	0.011519036
12	0x3cd63e88	0.026152864
13	0xbc8b5a61	-0.01701087
14	0xbbb3b464	-0.0054841507
15	0xbcd8f73c	-0.026485078
16	0xbaf16d30	-0.0018419381
17	0x3cee8950	0.02911821
18	0x3bc5fb9f	0.0060419585
19	0x3b2fe817	0.0026841217
20	0xbd00ca4b	-0.03144292
21	0x3b8e66ab	0.004345735
22	0x3b2f7d60	0.002677761
23	0xbcb9aa50	-0.02266422
24	0x3c6fad08	0.014628656
25	0xbca33142	-0.019920949
26	0xbca2974c	-0.019847535
27	0x3cac012f	0.020996658
28	0x3c0da780	0.008645892
29	0xbd0ceeec	-0.03440754
30	0xbd106ab4	-0.03525801
31	0xbcfda84a	-0.030964036
32	0x3bee5921	0.0072738086
33	0x385e1559	5.2948806e-05
34	0xbd18727c	-0.037218556
35	0x3d005d52	0.031338997
36	0xbba2a762	-0.0049638012
37	0x3ba8a092	0.0051460946
38	0xbc2438c0	-0.010023296
39	0xbc845a0d	-0.01615622
40	0x3cd515fe	0.026011463
41	0xbcef0d15	-0.029181043
42	0xbcae8f8c	-0.021308683
43	0xbc2cfad3	-0.010557848
44	0xbccf6c71	-0.025320264
45	0x3c6496d6	0.013951978
46	0x3c803210	0.015648872
47	0x3bb9d8b7	0.0056715864
48	0xbd1343c1	-0.035953287
49	0xbd0d234c	-0.03445749
50	0xbcec250a	-0.028826255
51	0xbced32d8	-0.028954908
52	0xbcb6119b	-0.022225192
53	0x3ce0e3ea	0.027452428
54	0x3c7f3dd3	0.015578705
55	0xbca087d7	-0.019596023
56	0x3cdc8871	0.02692053
57	0x3cdf9a03	0.027295118
58	0x39d95190	0.00041450234
59	0xbbc701df	-0.006073221
60	0x3cef4b30	0.029210657
61	0xbbea43dd	-0.007149203
62	0xbc437cf7	-0.011931649
63	0x3c86e087	0.016464485
64	0x3cd74137	0.026276214
65	0xbb9f3e6d	-0.0048597367
66	0xbccbccb4	-0.024877883
67	0xbc457ae4	-0.012053225
68	0xbc6a2c01	-0.014292718
69	0x3cc28572	0.023745272
70	0x3cfb36c3	0.03066576
71	0x3cf2501c	0.029579215
72	0x38b3eedd	8.579877e-05
73	0x3c823a95	0.015897075
74	0xbb34eb10	-0.0027605928
75	0xbbeeeb5e	-0.0072912415
76	0xbc9cb37c	-0.019128554
77	0x3cc9af77	0.024619801
78	0x3cb35b0e	0.021894004
79	0x3c97428d	0.018464351
80	0x3c724ba4	0.014788542
81	0xbc9a8755	-0.01886336
82	0x3cbc80a8	0.023010567
83	0x3bd12eaa	0.0063837366
84	0x3c5e914e	0.013584448
85	0xbc93164b	-0.017954966
86	0x3c529fed	0.012855512
87	0xbd077a6a	-0.033075728
88	0xbcb5609d	-0.022140795
89	0xbc135a29	-0.008993664
90	0xbcb1aff1	-0.02169034
91	0x3b9b16cc	0.004732942
92	0x38e2f3ba	0.000108219174
93	0x3cfaf904	0.030636318
94	0x3ce3f4c4	0.027826674
95	0x3c815bef	0.015790908
96	0xbc9d1993	-0.019177234
97	0x3c87873d	0.016543979
98	0x3ca8e995	0.020619193
99	0xbc6d197a	-0.014471406
100	0xbc5bbf9c	-0.013412382
101	0xbd0bda1c	-0.034143552
102	0x3c388eee	0.011264546
103	0xbc98e4fe	-0.01866388
104	0xbad36437	-0.0016127889
105	0x3c62d795	0.013845344
106	0xbd03dc08	-0.03219226
107	0x3c492747	0.012277431
108	0x3cfb6d3a	0.030691732
109	0x3d0a0030	0.033691585
110	0x3c2d4e66	0.010577774
111	0x3be71d5d	0.007053061
112	0x3c6e9891	0.014562742
113	0xbd087a2e	-0.033319645
114	0xbcc0a977	-0.023518307
115	0x3c43fb54	0.011961777
116	0xbcaabe96	-0.020842832
117	0xbd169db3	-0.036771487
118	0xbc8f36ee	-0.017482247
119	0xbaff47a5	-0.0019476308
120	0xbcbc0490	-0.022951394
121	0xbcb4f7e0	-0.022090852
122	0xbd1b1e3a	-0.037870623
123	0xbc25aff6	-0.010112753
124	0xbc6fa6c6	-0.014627164
125	0xbca97926	-0.02068765
126	0xbcc81c68	-0.024427608
127	0x3b38741d	0.002814538
128	0x3c2008b5	0.009767701
129	0xbbe04b82	-0.0068449387
130	0xbccad077	-0.024757607
131	0xbcbef6a2	-0.023310963
132	0x3cc94f1f	0.02457386
133	0x3ca3ff4b	0.020019194
134	0xbcff05f5	-0.03113077
135	0xba81d15a	-0.000990431
136	0xba664345	-0.00087838277
137	0x3ccfea70	0.025380343
138	0x3cb583d9	0.022157596
139	0x3ce15e8d	0.027510906
140	0xbcdf5d51	-0.027266176
141	0xbcdde966	-0.027088832
142	0xbd002420	-0.03128445
143	0xb970490b	-0.00022915394
144	0xbd0b0c18	-0.03394708
145	0xbbbabc15	-0.0056986907
146	0x3cb516a2	0.022105519
147	0xbcd09bf7	-0.025464995
148	0x3c71d201	0.0147595415
149	0x3b44c316	0.0030023507
150	0x3c4cb201	0.012493611
151	0xbc3f1c7f	-0.011664509
152	0xbc93c708	-0.018039241
153	0x3b9b2e1d	0.0047357217
154	0xbc8aea51	-0.016957434
155	0x3bcf833f	0.0063327844
156	0xb9db5b26	-0.00041838846
157	0x3c55df4b	0.0130537255
158	0xbcd525ad	-0.026018942
159	0x3cbda333	0.023149109
160	0x3cab15ce	0.02088442
161	0x3c94d1ad	0.018166387
162	0xbcf8552b	-0.030314049
163	0xbce3f11d	-0.027824933
164	0xbc860a56	-0.01636235
165	0xbd057a6b	-0.03258745
166	0x3b9970b1	0.0046826233
167	0xbbdcc237	-0.0067370194
168	0xbcc44f93	-0.023963725
169	0x3cd14ab7	0.025548322
170	0xbc6d8a16	-0.014498254
171	0xbc5fbda2	-0.013656052
172	0xbc3a2b5b	-0.011362876
173	0xbcc8e242	-0.02452195
174	0xbc9c2790	-0.019061834
175	0x3cf192f6	0.029489022
176	0xbbe9245a	-0.007114929
177	0x3c999542	0.01874793
178	0xbc775f6d	-0.015098435
179	0xbcd9706e	-0.026542868
180	0x3cc971ad	0.024590338
181	0x3cd0218e	0.025406625
182	0x3ced803e	0.028991815
183	0xbd169183	-0.036759865
184	0x3b41e584	0.0029586265
185	0xbbe50cb4	-0.0069900397
186	0x3ce70282	0.028199438
187	0xbcf808f0	-0.0302777
188	0x3c9a415a	0.01882999
189	0x3c9697dc	0.018382959
190	0x3bac99a0	0.005267337
191	0xbcc69116	-0.024239104
192	0x3cfe513a	0.031044591
193	0xbbfa2312	-0.0076335752
194	0x3b3549ec	0.002766247
195	0x3cd645e6	0.026156377
196	0x3cb147cf	0.021640686
197	0x3c85c0be	0.016327258
198	0x3cec113e	0.028816815
199	0xbc171caf	-0.009223147
200	0xbd111914	-0.035424307
201	0xbcb05f0b	-0.021529695
202	0xbbcadfba	-0.006191221
203	0x3d00fc79	0.031490777
204	0x3bf33888	0.0074225105
205	0x3c57f6ab	0.013181369
206	0xbc7266e6	-0.014795041
207	0x3ba01420	0.0048852116
208	0x3b662da5	0.003512242
209	0x3cec9ea2	0.028884236
210	0xbd1645e4	-0.036687747
211	0xbcc29e1d	-0.023757035
212	0xbc65c7db	-0.0140247
213	0x3c53879e	0.012910752
214	0x3bda6e84	0.0066660065
215	0x3b92333e	0.004461675
216	0x3c3677f1	0.011136995
217	0xbd1a3364	-0.037646666
218	0xba137655	-0.0005625238
219	0xbd135ef1	-0.035979215
220	0xbce172d2	-0.02752057
221	0xbc9e436e	-0.019319262
222	0xbd0be75b	-0.034156185
223	0x3c66ee43	0.014094892
224	0x3cdc58ba	0.026897777
225	0x3c5d58b6	0.01350992
226	0x3cccfe92	0.025023732
227	0x3cae15af	0.021250574
228	0x3c4eb48b	0.012616287
229	0x3c4ead1e	0.012614517
230	0x3ccb2d83	0.024801975
231	0xba8614af	-0.0010229553
232	0xbb099051	-0.002099056
233	0xbc2b750a	-0.010464916
234	0x3c9d5627	0.01920612
235	0x3cd01a85	0.02540327
236	0x3c4c2607	0.012460238
237	0xbd0b0e0e	-0.03394895
238	0xbd194ddc	-0.037427768
239	0x3c4b55ad	0.012410563
240	0x3ba27179	0.0049573747
241	0xbcd87597	-0.026423259
242	0xbce9d8bb	-0.028545728
243	0xbbdb4e5d	-0.0066926912
244	0x3b7e150c	0.003876987
245	0xbc3a8d02	-0.011386158
246	0x3befabc9	0.0073141796
247	0xbc654e68	-0.013995744
248	0x3b1daeb4	0.002406043
249	0x3cd9982e	0.026561823
250	0x3c94ce54	0.018164791
251	0x3c8f35c7	0.017481698
252	0xbd131b3b	-0.03591464
253	0x3cb8173d	0.022472018
254	0x3cd400cd	0.025879288
255	0xbcd9c794	-0.026584424

fc1.bias f4 [64]
0	0x3ca9c4a5	0.02072365
1	0xbcb54426	-0.022127222
2	0x3d6ea4f5	0.058262784
3	0x3e039ad3	0.1285203
4	0xbd498b11	-0.04920489
5	0x3dfafa3a	0.12254758
6	0x3cf82488	0.030290857
7	0xbccfb875	-0.02535651
8	0xbc74435d	-0.014908639
9	0x3c96cf59	0.018409418
10	0x3bf3c39d	0.0074390904
11	0x3e01f259	0.12690105
12	0x3e009ce5	0.1255985
13	0xbc37dff3	-0.011222827
14	0x3e0895b7	0.13338362
15	0xbc53a6e4	-0.012918208
16	0x3ca7bc59	0.020475553
17	0x3d2189d8	0.0394381
18	0x3d507c86	0.050900005
19	0x3da968ed	0.08271966
20	0xbb115bec	-0.0022180034
21	0xb9e889bf	-0.00044353117
22	0x3df266c6	0.11836009
23	0x3c9f7468	0.019464687
24	0x3cefd1f1	0.029274913
25	0x3c6203e3	0.013794872
26	0x3d3eb169	0.04655591
27	0x3bffc86c	0.0078058746
28	0xbc8f7226	-0.017510485
29	0x3dada0b4	0.08477917
30	0x3caf3f53	0.0213925
31	0xbbd7e4d1	-0.0065885563
32	0x3d2936d8	0.04131207
33	0xbd0baaeb	-0.034098547
34	0xbd0d5505	-0.03450491
35	0xbc63c177	-0.013901106
36	0x3d96a3f2	0.07355489
37	0x3ddc639a	0.10761185
38	0x3e009375	0.1255625
39	0x3dff3668	0.12461549
40	0x3e2eb7bd	0.17062278
41	0x3e42f9c5	0.19040592
42	0x3dda949f	0.106728785
43	0x3b60ed05	0.0034320962
44	0x3d9541f2	0.07287969
45	0xbd528d6b	-0.051404398
46	0x3b65dd75	0.0035074626
47	0x3ce2d8e4	0.027691312
48	0xbcbd729b	-0.023125937
49	0xbc2af032	-0.010433244
50	0x3da2abe9	0.079429455
51	0xbc67ed8a	-0.014155755
52	0xbcb9013e	-0.0225836
53	0x3da0a389	0.07843692
54	0x3d8142fa	0.06311603
55	0x3dea060a	0.11426933
56	0x3bca8fe1	0.0061817025
57	0x3db79821	0.08964563
58	0x3c41b5e9	0.011823156
59	0xbd2b9893	-0.041893553
60	0xb802fcfa	-3.1230018e-05
61	0x3c82a518	0.015947863
62	0x3d8603b8	0.06543678
63	0x3e001347	0.12507354

fc2.weight f4 [64, 64]
0	0x3dc24fb8	0.094878614
1	0x3af8c600	0.0018979907
2	0xbe0e3a0e	-0.13889334
3	0x3df8baf7	0.12145036
4	0x3dcf7517	0.10129755
5	0x3e387c4e	0.18016168
6	0xbda78d60	-0.08181262
7	0x3dfa4562	0.12220265
8	0xbda8f66c	-0.08250126
9	0x3de5a4f1	0.11213101
10	0xbd8ae196	-0.06781308
11	0x3dae0241	0.08496524
12	0x3de80cae	0.113305435
13	0xbdb08b55	-0.086203255
14	0x3e2d10c6	0.1690093
15	0x3d65d2b0	0.05610913
16	0x3ecb4864	0.39703667
17	0xbee53a8c	-0.4477123
18	0xbd81ff0b	-0.06347474
19	0xbd2f0e14	-0.042738035
20	0x3d31bacf	0.043391045
21	0xbdb83ccf	-0.08995973
22	0x3df14dbc	0.11782405
23	0xbb938940	-0.0045024455
24	0xbd90c6bd	-0.07069156
25	0x3c97ece9	0.018545585
26	0x3e0f3861	0.1398635
27	0xbd783790	-0.060599864
28	0xbd4002c0	-0.046877623
29	0xbd160b55	-0.0366319
30	0xbc9a94c7	-0.01886977
31	0x3d7e82a2	0.0621363
32	0x3cc74e1e	0.024329241
33	0xbda3f2e9	-0.08005316
34	0x3d9266c5	0.07148508
35	0xbde7450b	-0.11292466
36	0xbe8fa5f5	-0.28056303
37	0xbd53c539	-0.051701758
38	0x3db0c2bf	0.08630895
39	0xbc3a1d6f	-0.011359557
40	0x3e413399	0.18867339
41	0x3e4bf969	0.19919361
42	0x3d518ebc	0.051161513
43	0xbbc2ccfb	-0.0059448457
44	0xbdb37e40	-0.08764315
45	0x3c7969e3	0.015222999
46	0xbdca39b3	-0.098742865
47	0x3a057a73	0.0005091794
48	0x3ddf39c1	0.108996876
49	0x3ce92a11	0.028462442
50	0x3cc53864	0.02407474
51	0xbde6297a	-0.1123838
52	0x3d5f5f44	0.05453421
53	0xbd00c232	-0.0314352
54	0xbec332fd	-0.38124838
55	0x3cfc14c3	0.030771619
56	0xbdd1ebc3	-0.10250046
57	0x3c818ae4	0.015813299
58	0x3d4a3547	0.049367215
59	0xbe1310a1	-0.14361812
60	0xbc0d77aa	-0.008634487
61	0xbeec8162	-0.4619246
62	0xbeb1a5ff	-0.34696957
63	0x3e3f6505	0.1869088
64	0xbd7f2b1e	-0.06229698
65	0xbd6710a8	-0.05641237
66	0x3c5754cc	0.013142776
67	0x3d45dc37	0.048305716
68	0x3d916088	0.0709849
69	0x3da7afd5	0.08187834
70	0xbde7fe12	-0.11327757
71	0x3b1f69c0	0.0024324507
72	0x3df02668	0.117260754
73	0x3cc9aa0d	0.02461722
74	0xbdd4223b	-0.103580914
75	0xbe3a7f52	-0.18212631
76	0xbeabe814	-0.335755
77	0xbdaa44f9	-0.08313937
78	0x3df0bb6e	0.117544994
79	0x3cbfbfe8	0.023406938
80	0xbd34009c	-0.043945894
81	0xbddce4b9	-0.10785813
82	0xbe2df400	-0.1698761
83	0x3d9bfb75	0.07616321
84	0xbd26605d	-0.040619243
85	0x3c2b9783	0.010473135
86	0xbe6c807d	-0.2309589
87	0xbc96e4e9	-0.0184197
88	0xbde7c833	-0.11317482
89	0xbdf5efe5	-0.12008647
90	0xbda6d295	-0.08145634
91	0xbd20926f	-0.03920215
92	0xbdd2c682	-0.102917686
93	0x3c0d4f35	0.008624841
94	0xbd2df593	-0.042470526
95	0x3de00f46	0.10940413
96	0x3c57a4ff	0.013161897
97	0x3ce14d7f	0.027502773
98	0x3d14b6fe	0.036307327
99	0x3c17eb4b	0.009272407
100	0x3e304a85	0.17215927
101	0x3d1b3055	0.03788789
102	0xbd957880	-0.07298374
103	0x3ce9cc25	0.028539727
104	0xbe56462c	-0.20925206
105	0x3d846ac4	0.064656764
106	0xbddc8f6c	-0.10769543
107	0xbd8cf2de	-0.06882261
108	0xbd56405c	-0.05230747
109	0x3d2928a3	0.04129852
110	0xbd19c878	-0.037544698
111	0x3dea8fb8	0.114531934
112	0x3c8d1157	0.017220182
113	0xbdc2272a	-0.09480126
114	0xbc99e09b	-0.018783858
115	0xbd6abca8	-0.057308823
116	0xbec1a035	-0.3781754
117	0x3d04e313	0.032443117
118	0x3d2a01c8	0.041505605
119	0x3e52b801	0.20578004
120	0xbc8f4397	-0.017488284
121	0xbd8da841	-0.069168575
122	0xbca883bb	-0.020570626
123	0xbcfc54a3	-0.030802077
124	0xbda3c740	-0.07996988
125	0x3dfb4d36	0.12270586
126	0xbe32a4fa	-0.17445746
127	0xbd9d13b8	-0.07669777
128	0x3d1e4fd8	0.038650364
129	0x3d83470a	0.06410034
130	0xbd992d26	-0.074793145
131	0xbc5dc8d0	-0.013536647
132	0xbd4b3f84	-0.04962112
133	0xbd66d6a4	-0.05635704
134	0x3da6f860	0.081528425
135	0xbdc4a8d2	-0.096025124
136	0xbd09d0c4	-0.03364636
137	0xbdb42c4a	-0.0879751
138	0x3d492350	0.049105942
139	0x3c3c9800	0.011510849
140	0xbd83ba40	-0.06432009
141	0x3d20b688	0.039236575
142	0xbdf67666	-0.120343015
143	0x3cf7b0a8	0.030235603
144	0x3df13c2e	0.117790565
145	0xbd823150	-0.06357062
146	0x3d9c7520	0.07639527
147	0x3db4a8bc	0.08821246
148	0x3ddf25d0	0.10895884
149	0xbd87e290	-0.0663501
150	0xbde3582a	-0.111008
151	0x3de0e946	0.109819934
152	0x3b809260	0.0039236993
153	0xbdbef66c	-0.09324345
154	0xbc88f980	-0.016720533
155	0x3d42078c	0.04737048
156	0xbd7549bc	-0.05988477
157	0x3c3b51e0	0.011433095
158	0x3d20d59c	0.039266214
159	0xbd8e74fe	-0.06955908
160	0xbdb48230	-0.08813894
161	0xbb8d72e0	-0.0043166727
162	0x3d043aec	0.032282755
163	0x3d2ac5e8	0.041692644
164	0x3c574a80	0.013140321
165	0xbd80e340	-0.062933445
166	0xbd93e608	-0.07221609
167	0xbdd67e02	-0.10473253
168	0xbdc87cae	-0.09789406
169	0xbd7c13ec	-0.061542436
170	0xbc2c1d20	-0.010504991
171	0xbbb64740	-0.005562693
172	0x3d86973e	0.06571816
173	0x3cc53550	0.024073273
174	0x3cebaa20	0.028767645
175	0x3d9d9fb8	0.076964796
176	0x3ded3a3c	0.11583373
177	0x3ce29c60	0.027662456
178	0x3cd743b8	0.026277408
179	0x3c45aa30	0.012064502
180	0x3d850a3c	0.06496093
181	0x3cca1550	0.024668366
182	0xbdb616d0	-0.0889107
183	0xbdc2f9fe	-0.095203385
184	0x3c158ef0	0.009128317
185	0xbd923dac	-0.07140669
186	0xbdf74c7e	-0.120751366
187	0x3dd0fa7e	0.102040276
188	0x3aed4b80	0.0018104166
189	0xbdeacfae	-0.11465393
190	0x3c2c4600	0.010514736
191	0xbdcbb682	-0.0994692
192	0xbdef64b8	-0.116891325
193	0xbd5c8b04	-0.053843513
194	0xbe5f51fb	-0.21808617
195	0x3e61a17f	0.22034262
196	0xbe6f041d	-0.23341413
197	0x3e3db935	0.18527682
198	0x3c6fa3a6	0.014626419
199	0x3dc067a9	0.093947716
200	0x3da05cb8	0.07830185
201	0xbd89518c	-0.06705007
202	0x3d459d2e	0.0482456
203	0x3e3faa2f	0.18717264
204	0x3d156bdf	0.036479827
205	0x3bbfb94e	0.0058509475
206	0x3d40c0f8	0.04705903
207	0xbdbf0512	-0.09327139
208	0x3ef875fd	0.48527518
209	0xbf100d1c	-0.56270003
210	0x3d7fdbde	0.06246554
211	0x3db27eb4	0.08715573
212	0x3d0e1415	0.03468712
213	0xbd8d017b	-0.06885048
214	0x3d86d2dd	0.06583188
215	0xbdacd44a	-0.084389284
216	0xbdd5fdd4	-0.104488045
217	0x3cd345d2	0.025790129
218	0x3b8f9503	0.0043817773
219	0x3dde198e	0.10844718
220	0xbdbd1743	-0.092329524
221	0xbd834144	-0.06408933
222	0x3d998c39	0.074974485
223	0xbd4a1d01	-0.049344067
224	0xbdb06dcf	-0.08614694
225	0x3db5ac8a	0.088708
226	0xbdfc3283	-0.12314322
227	0xbd5cb9c6	-0.053888105
228	0xbf48027e	-0.781288
229	0x3ddde088	0.108338416
230	0xbcd79764	-0.026317306
231	0xbe4a998d	-0.19785137
232	0xbd3e0d64	-0.04639949
233	0x3dfaf097	0.1225292
234	0x3e65f8a5	0.22458132
235	0x3df5555a	0.1197917
236	0x3e71b11f	0.23602723
237	0x3d54ff35	0.052001197
238	0xbd086fdd	-0.033309806
239	0xbba67220	-0.0050795227
240	0x3db37bae	0.087638244
241	0x3d4fd283	0.05073787
242	0x3e96caa0	0.29451466
243	0xbdaf97c1	-0.08573867
244	0x3c5c131d	0.013432291
245	0xbe09fdf3	-0.1347578
246	0x3c8a20f2	0.016861413
247	0x3d82d037	0.0638737
248	0x3df239a0	0.11827397
249	0xbcd87a43	-0.026425486
250	0xbdf1afdc	-0.11801121
251	0xbe81a9ec	-0.25324953
252	0x3ddec2de	0.10877012
253	0xbdd69d06	-0.104791686
254	0xbe4beceb	-0.19914596
255	0x3db59024	0.08865383

fc2.bias f4 [64]
0	0x3e0f1f28	0.13976729
1	0x3e0ac7f1	0.13552834
2	0xbd2119d0	-0.039331257
3	0xbcbb478b	-0.022861263
4	0x3e183221	0.14862873
5	0x3ddd2fe8	0.10800153
6	0xbe2a2a60	-0.16617727
7	0xbd2facd0	-0.042889416
8	0x3e0a53b1	0.13508488
9	0xbc5f6280	-0.013634324
10	0xbdbbbece	-0.091672525
11	0x3d9afefa	0.07568164
12	0xbcd8aa7f	-0.026448486
13	0x3d7fab6a	0.062419333
14	0x3df76293	0.120793484
15	0xbd5ba1d2	-0.05362112
16	0x3dceccd2	0.1009766
17	0xbdd19d60	-0.10235095
18	0xbd10e7f4	-0.035377458
19	0xbd319aac	-0.043360397
20	0x3c3e5b95	0.011618515
21	0xbb9aeec8	-0.004728172
22	0x3c337108	0.010952242
23	0x3dd62607	0.10456472
24	0x3e1293ac	0.14314145
25	0x3cccdaa7	0.025006605
26	0x3c6ac4dc	0.0143291615
27	0xbc96ee7a	-0.018424261
28	0x3d0b3201	0.033983234
29	0x3dda66bd	0.10664127
30	0x3e51f151	0.20502211
31	0x3d7279d1	0.059198204
32	0x3dd3cb77	0.10341542
33	0x3e59718a	0.21234718
34	0xbda4bd45	-0.08043913
35	0x3e8365ce	0.25663608
36	0xbe28b010	-0.16473413
37	0xbcc9e27c	-0.024644129
38	0x3e76aa5d	0.24088426
39	0x3da52883	0.080643676
40	0xbd30a061	-0.0431217
41	0x3e37bf13	0.17943983
42	0xbcc66624	-0.024218626
43	0x3e507633	0.2035759
44	0xbdd36390	-0.103217244
45	0x3db4c056	0.08825748
46	0xbd4c8245	-0.049928922
47	0x3de7ffcf	0.113280885
48	0x3de1c4e2	0.110238805
49	0xbcf931a7	-0.030419184
50	0x3e9527e6	0.29132003
51	0x3d78ccf5	0.060742337
52	0xbc46d44c	-0.012135576
53	0xbd476b0c	-0.048686072
54	0xbd982d97	-0.074305706
55	0xbe2c54e5	-0.1682926
56	0x3e2cbb90	0.16868424
57	0x3d2a695e	0.041604392
58	0x3e303e7e	0.17211339
59	0xbc42b9f6	-0.011885157
60	0x3cec187e	0.028820273
61	0xbd2b1d0d	-0.04177575
62	0x3e36ba38	0.17844474
63	0x3db7aac1	0.089681156

fc3.weight f4 [7, 64]
0	0xbe5b8abf	-0.21439646
1	0x3caa3311	0.020776303
2	0xbda6927c	-0.081334084
3	0x3cf23e9f	0.029570876
4	0x3d8c946b	0.06864246
5	0x3dd3ff60	0.10351443
6	0x3d878f0d	0.06619082
7	0xbd857c8e	-0.065178975
8	0x3d129594	0.03578718
9	0x3d04df88	0.03243974
10	0x3d5a2a34	0.053262904
11	0xbcd0a874	-0.02547095
12	0xbdd9bf97	-0.10632246
13	0x3dd7bde2	0.10534264
14	0xbcce5fc1	-0.025192143
15	0xbdbe2b1c	-0.09285566
16	0xbe85e9a7	-0.26154825
17	0x3d836d9b	0.0641739
18	0xbd002a04	-0.03129007
19	0xbe6ed694	-0.23324043
20	0x3ea188c1	0.31549647
21	0x3f1a0607	0.60165447
22	0x3d1c2b3c	0.03812717
23	0xbe455eba	-0.19274417
24	0xbcf714b5	-0.030161241
25	0x3c169e7d	0.00919306
26	0xbd7c0104	-0.061524406
27	0x3e03657f	0.12831686
28	0xbe462ac5	-0.19352253
29	0xbcd9e6ac	-0.02659925
30	0xbe894d2c	-0.2681669
31	0x3e2d4702	0.16921619
32	0xbe880f3d	-0.26574126
33	0xbe25c381	-0.1618786
34	0x3ee4d0ed	0.44690648
35	0xbe79de39	-0.24401177
36	0x3e10dbef	0.14146398
37	0xbefb3712	-0.49065453
38	0xbd1305b5	-0.035894115
39	0xbe32a437	-0.17445455
40	0x3dc1d1e3	0.09463861
41	0xbcf11039	-0.02942668
42	0x3d6576c4	0.056021467
43	0xbe322771	-0.17397858
44	0xbcdc4280	-0.026887178
45	0xbea35c69	-0.3190644
46	0xbe229fb2	-0.15881231
47	0xbdaa11e9	-0.08304197
48	0xbe5f2349	-0.21790804
49	0xbe44e34e	-0.19227335
50	0x3c5982db	0.013275827
51	0xbe136d8f	-0.14397262
52	0x3ea565f7	0.32304356
53	0xbda2fddc	-0.07958576
54	0xbecee4e4	-0.40409005
55	0x3dab788e	0.08372603
56	0xbe448dea	-0.19194761
57	0xbe7d2578	-0.24721324
58	0x3d1bd5b4	0.0380456
59	0xbea92413	-0.33035335
60	0xbec70f04	-0.38878644
61	0x3e6e71ab	0.23285548
62	0xbe394ebf	-0.18096446
63	0x3be5557b	0.0069987155
64	0xbc2f76d0	-0.010709479
65	0x3b5392e4	0.0032283599
66	0x3dd4e462	0.10395123
67	0xbe2cb8fa	-0.16867438
68	0xbe819a9e	-0.25313276
69	0xbf2044b6	-0.62604845
70	0xbd08f9d9	-0.0334414
71	0xbe944e36	-0.2896592
72	0xbe3afabe	-0.18259713
73	0xbdcfa414	-0.10138717
74	0x3d47b1b8	0.04875347
75	0xbdfd81b1	-0.12378252
76	0xbdc131b5	-0.09433309
77	0x3f1fb584	0.62386346
78	0xbe0be090	-0.13659883
79	0xbdfca228	-0.12335616
80	0xbe3ab74b	-0.18233983
81	0x3e29cae6	0.16581306
82	0x3dc15984	0.09440902
83	0xbe2e59c0	-0.17026424
84	0x3e883d07	0.2660906
85	0xbde98287	-0.11401849
86	0x3d55486b	0.052071016
87	0xbc1c3520	-0.00953415
88	0xbe444052	-0.19165161
89	0x3d195949	0.037438665
90	0xbdfcfca0	-0.12352872
91	0xbe188be1	-0.1489711
92	0x3cea98c1	0.028637292
93	0xbd2bc292	-0.041933604
94	0xbeff2650	-0.49833918
95	0x3e4d5171	0.20050599
96	0xbe408da7	-0.18804036
97	0xbd18a6e4	-0.037268534
98	0x3eaed944	0.34150136
99	0xbd9bad76	-0.076014444
100	0x3c8ef652	0.017451439
101	0x3dba202b	0.09088167
102	0xbe1faf6e	-0.15594265
103	0xbe141ace	-0.1446335
104	0x3da96028	0.082702935
105	0xbddc7bde	-0.10765813
106	0x3c98fdff	0.018675802
107	0xbd03e98d	-0.032205153
108	0xbda6cc1e	-0.08144401
109	0x3e9c6ced	0.30551854
110	0x3ea09c02	0.31369025
111	0x3cb07dd2	0.02154437
112	0xbe196c48	-0.14982712
113	0xbe724fd5	-0.23663266
114	0xbde23f2f	-0.110472076
115	0xbe365225	-0.17804773
116	0x3df112f9	0.11771197
117	0xbd8ebf4e	-0.06970082
118	0x3bab4981	0.005227268
119	0x3dc54f3a	0.09634252
120	0xbab86418	-0.0014067916
121	0x3e240ce1	0.16020538
122	0xbce69206	-0.028145801
123	0xbe02f51b	-0.12788813
124	0x3e916ddd	0.28404132
125	0x3e8b10de	0.27161306
126	0xbe87af29	-0.26500824
127	0x3cb5b6eb	0.022181949
128	0x3dc46b4e	0.09590779
129	0x3d33fd46	0.043942712
130	0x3cb9c7d0	0.022678286
131	0xbc91a1fa	-0.017777432
132	0xbd478264	-0.048708335
133	0x3b1c1445	0.0023815793
134	0xbcb88b27	-0.02252729
135	0x3dc027d3	0.09382596
136	0x3d0adc17	0.0339013
137	0xbc15dd70	-0.009147033
138	0x3defd71c	0.11710951
139	0xbe58d576	-0.21175179
140	0x3e91c7f5	0.28472868
141	0x3e5c1a8f	0.21494506
142	0xbe7d68d6	-0.24747023
143	0xbd0771eb	-0.033067625
144	0xbcbcd27e	-0.02304959
145	0xbceccbc2	-0.028905753
146	0x3d100ce8	0.03516856
147	0x3e2b9c74	0.16758901
148	0x3df53ff7	0.11975091
149	0xbe5f5e3b	-0.2181329
150	0xbe02b8dc	-0.12765831
151	0x3caaef58	0.020866081
152	0xbd9d115d	-0.076693274
153	0xbe58c908	-0.21170437
154	0x3dcd7952	0.10032906
155	0x3e467454	0.19380313
156	0x3ddb260d	0.10700617
157	0xbe82ec7e	-0.25571054
158	0xbd2e9705	-0.042624492
159	0x3e506e16	0.20354494
160	0xbdc18e0a	-0.0945092
161	0xbf218bf1	-0.6310416
162	0x3ee0773c	0.4384097
163	0x3cb2d91e	0.021832045
164	0xbd4bffa8	-0.04980436
165	0x3d9be396	0.07611768
166	0xbe4b6ee1	-0.19866516
167	0xbd996775	-0.07490436
168	0x3f1f33f4	0.6218865
169	0xbde7457c	-0.1129255
170	0x3dc1ad6a	0.09456904
171	0xbd9ff6c1	-0.078107364
172	0x3db6dd8c	0.089289755
173	0x3eb4b955	0.35297647
174	0x3e914349	0.28371647
175	0xbdd734fb	-0.10508152
176	0xbe1f43c0	-0.15553188
177	0x3e0c4f34	0.13702089
178	0xbe353758	-0.17696893
179	0xbd891d1f	-0.066950075
180	0x3c213b29	0.009840765
181	0xba628500	-0.00086410344
182	0xbe6eb262	-0.23310235
183	0xbd3de60d	-0.04636197
184	0xbe339812	-0.17538479
185	0xbd5c5e73	-0.05380101
186	0xbe2270da	-0.15863362
187	0x3d42d2e7	0.047564413
188	0x3e85db69	0.2614396
189	0x3e09b5f7	0.1344832
190	0x3da97ea7	0.0827611
191	0xbdca2514	-0.09870353
192	0xbe4e8d32	-0.20171049
193	0x3e5d73af	0.21626161
194	0x3d9266da	0.07148524
195	0xbe2c29e0	-0.16812849
196	0xbd3678e2	-0.044548877
197	0xbe1231a2	-0.14276746
198	0x3d3895a6	0.04506459
199	0x3ef312ac	0.47475183
200	0xbdaa44ef	-0.08313929
201	0xbd65c0a8	-0.056091934
202	0x3c10d6f0	0.008840308
203	0xbd496c95	-0.049175818
204	0x3eb543b3	0.35403213
205	0xbdead9ba	-0.11467309
206	0xbe46ed46	-0.1942645
207	0xbcc6c5bd	-0.02426421
208	0x3dbaa1d9	0.09112901
209	0x3ecdffa9	0.40234116
210	0xbcc90958	-0.024540588
211	0xbe22384e	-0.15841791
212	0x3de9ce02	0.11416246
213	0xbd44e2e1	-0.04806793
214	0xbc3b0970	-0.011415824
215	0xbe6e57e7	-0.2327572
216	0x3e042ba5	0.12907274
217	0xbd16acd3	-0.03678591
218	0x3d2212ba	0.03956864
219	0xbe9e4746	-0.30913752
220	0x3e03653d	0.12831588
221	0x3da458ea	0.080247715
222	0x3e2efee5	0.17089422
223	0xbf1371ab	-0.5759532
224	0xbe813f66	-0.25243682
225	0xbea74acd	-0.32674256
226	0x3e2cdcea	0.16881147
227	0xbe87a962	-0.26496416
228	0x3e2cbb1e	0.16868255
229	0xbe9bac92	-0.30405098
230	0xbde06605	-0.10956959
231	0xbe456f30	-0.19280696
232	0x3e49b170	0.19696593
233	0x3dfbd0fe	0.122957215
234	0x3d29c002	0.04144288
235	0xbdd4ef15	-0.10397164
236	0xbde88584	-0.11353591
237	0x3e178590	0.14797044
238	0xbdf555af	-0.119792335
239	0xbda89299	-0.08231086
240	0xbe06ce01	-0.13164522
241	0xbe6759d9	-0.22592868
242	0xbdca6c49	-0.09883935
243	0xbe16b7ff	-0.14718626
244	0x3e81f7c2	0.25384337
245	0x3d006b90	0.03135258
246	0xbe83ee3c	-0.25767696
247	0x3df8235a	0.12116118
248	0xbd74cba3	-0.059764516
249	0xbd98a391	-0.07453073
250	0xbe2d0537	-0.1689652
251	0xbc45fd8c	-0.012084376
252	0x3aee5ad2	0.0018185026
253	0x3d53252f	0.051549133
254	0xbdb05085	-0.08609108
255	0x3b0cec3e	0.0021503116

fc3.bias f4 [7]
0	0xbe7e3d1b	-0.24827997
1	0xbe6727ae	-0.2257373
2	0xbe4b9bba	-0.19883624
3	0x3cf69708	0.030101314
4	0xbdcfc151	-0.10144294
5	0xbe8ac3d0	-0.27102518
6	0xbf05dbb0	-0.5228834
