src/models/34x32_10robot_10humans_1pickup_8dropoff_2048shelves_30000episodes_1000steps.pth (torch, 293744 bytes, 10 tensors)

conv1.weight f4 [16, 80, 3, 3]
00000000: 7f53 98bc 0752 5b3c bd5b 213d de27 4d3d
00000010: 364b 513c 0e69 223d f8b6 fe3c b49d f93c
00000020: 71ef b63c 012c ddbb 3d9c f43c 728e 423d
00000030: 8f85 c1bb 91cb ad3c 750e 2f3d 2ac5 75bc
00000040: 2f3a 6b3c 9463 173d 350f a23c 5f23 493d
00000050: 503c 393d f008 ca3a e480 913b b0e1 253c
00000060: 27ad 923c 1852 493a 872b 383d 65ec fdba
00000070: e283 7abc 5ebf fd3b 6078 ad3b fd59 883b
00000080: 0105 a5bc a147 2b3d 301e 71bb 850f 203d
00000090: 339b e23c 98dd cc3c d1ff 943c 85fc f33c
000000a0: cb38 71bc 758d 083d b49c b43c 3ee1 b1bc
000000b0: 69f6 fbbc bdf0 cfbc ca95 dbbc f04b 1f3d
000000c0: 8e84 86bc 0365 fd3c 510e 5e3c f162 073d
000000d0: 5a3f 45bc 1a78 34bc ab9f abbc 28b8 bfbc
000000e0: 009a 093d 6e8c 88bb b7cd f83c c21d 833c
000000f0: 6506 72bc 69c5 0a3d bf7a bdbc 14b6 f9bb
00000100: c495 fbba 4f98 963c ae1e ca3c 7b26 d2bc
00000110: 29f0 aebc 0c83 e1bc 146e b13c 4d4b 86bb
00000120: 5e6b 49bc 169a 34bb f200 aa3c affd 843c
00000130: 13d3 013d 557c a8bc 8ce8 053c 7a4f 65bc
00000140: bc48 fabb 0232 7f3a fc22 c23c 3ae6 b13c
00000150: af21 c63b a749 483d 1c0f 963c f28a 4c3d
00000160: 1df9 13bb 7939 c73c 944a a0bc 9082 3dbb
00000170: 3144 173c e59f 30bc cfa3 1a3d 5411 353d
00000180: 9c7b e43c 819d 5cbc f477 903c 717a 5e3c
00000190: f471 6b3b 6f75 22bc c74b 0dbc b03b 093d
000001a0: c9be 9b3b fde7 d6bc 3ecc 15bb 1664 d9bc
000001b0: 1932 383d 9137 aa3c e429 3ebb f66e 1b3d
000001c0: e9fc e5bb a2d9 7c3b e07a e73c 448e a43c
000001d0: 6961 90bc 17ad 2f3d f072 ae3c 326e 213d
000001e0: 0d45 593b f231 233d d811 e13c 9c8d f73a
000001f0: a3bf 913c 9f79 63bc 5d1f 0d3c 673f 95bc
00000200: 0b27 9a3c 7193 dbbc aa6b 0a3b 218c ba3a
00000210: f97e 33bc 6cea fc3c f664 02bd 32c9 f7bb
00000220: 9ef6 2e3d 07fb 21bc 26f3 54b8 04fd 83bc
00000230: 478f 3dbc b6d0 58bc b40c 87bc 7616 b83c
00000240: 11cc 073d d0b5 d83c 22b0 dc3c 1433 84bb
00000250: a99d 80bc 66bd 78bc a0b2 ae3c 0380 8dbb
00000260: f190 b3bc a4ac 03bc 0fb0 e13c 8c5d 7d3a
00000270: 1139 0f3d a949 933c 3cd2 85bb 194e a6b8
00000280: fbae 87bc 28ce fe3c 13e9 e63c 33c8 343d
00000290: ae26 e539 fd59 c93c 9f87 153d 99ba 77bb
000002a0: cb05 1bbc dba2 a43c 2528 403d 4262 f239
000002b0: e3ba f5bb c99b 8ebc 7bc1 dc3c 8cc4 de3b
000002c0: 121e 033d 6a40 e83c 6e23 673c 6e87 05bb
000002d0: 9a16 0d3d c5a0 02bc 20f7 083d 7acb 813b
000002e0: 451d 933c 88d4 873c 4e65 853c 9c3d c3bc
000002f0: eb7f af3c 4a27 82bb ddce b13c c2f2 72bc
00000300: b04d 083d 2b29 ff3c 6564 b83c b865 203d
00000310: 1a6c 013d 3c1d 043d df65 6bbc 72e6 993c
00000320: 1709 2b3d 08b4 483d 3320 95bc 4221 e5b9
00000330: 95bb dbba 3cd0 cc3c 558c 5b3c ee24 f03c
00000340: 7b09 4b3d b464 d63c 04f8 913c 1eee 173d
00000350: b118 45ba cbe3 38ba f049 0f3d 3aa8 aa3c
00000360: 9cec ff3c f3fa ba3c 4711 02bc f3b9 af3c
00000370: 29ca a2bc 1718 0b3c a1ed 513c d137 fcbc
00000380: a9d5 aebc d50e 58bc 25ad 0e3d 831e 6fbc
00000390: 3a29 253d efe9 9ebc f9e9 df3c c0dd 563b
000003a0: ba04 5a3b 9749 423c 0b72 8fbb 7d27 693c
000003b0: 406d 87bb 4971 103d a561 1f3d d368 bc3c
000003c0: 92f4 e53c 73df 7bbb c52c e5bb e921 083d
000003d0: 76b6 0fbd 13c4 febc b8bc 67bc 4579 e6bc
000003e0: 1418 e8bc 6f6c a53c e827 4cbc 1e21 b7bc
000003f0: cd38 b23c 63d7 0bbc 9ccc 833c a833 a73c
-0.018594502 0.013386256 0.03939413 0.05008685 0.012774279 0.03965097 0.031093106 0.030470707
0.022330971 -0.0067496304 0.029859656 0.047499128 -0.005905814 0.021215232 0.042738397 -0.015000621
0.014357134 0.0369602 0.019782642 0.049105998 0.045223534 0.001541404 0.004440414 0.010124609
0.017904831 0.00076797744 0.044963386 -0.0019372819 -0.015290232 0.00774376 0.005293891 0.004161118
-0.020143988 0.041816358 -0.0036791675 0.0390773 0.027661895 0.025008008 0.018188389 0.029783497
-0.014723013 0.03333803 0.022047378 -0.02171385 -0.030757146 -0.025383348 -0.026804823 0.03889078
-0.016420629 0.030931955 0.013553218 0.033053342 -0.01203903 -0.011014963 -0.020950159 -0.023403242
0.03359413 -0.004167131 0.03037153 0.0160054 -0.014772032 0.03387967 -0.023129819 -0.0076205824
-0.0019194414 0.018383173 0.024672832 -0.025653115 -0.021354752 -0.027528308 0.021658935 -0.004098332
-0.012293665 -0.0027557663 0.020752404 0.016234247 0.031695437 -0.020567099 0.008173119 -0.0139959995
-0.007638065 0.000973493 0.023698322 0.021716226 0.006046496 0.048898365 0.018317752 0.049937196
-0.0022578903 0.024319397 -0.019566812 -0.0028916933 0.009232567 -0.010780309 0.037753876 0.04420598
0.027890973 -0.013465286 0.017635323 0.013578997 0.0035926076 -0.009915694 -0.008624024 0.033504188
0.004752968 -0.026233668 -0.0022857334 -0.026536983 0.04496965 0.02077845 -0.0029016668 0.037947617
-0.0070186746 0.0038581868 0.028256834 0.020087369 -0.017624574 0.04288968 0.02129504 0.03941173
0.003315273 0.039842553 0.027474329 0.0018886807 0.017791575 -0.013883977 0.008613435 -0.01821871
0.018817445 -0.026803704 0.0021121302 0.0014232435 -0.010955566 0.0308735 -0.031834565 -0.007561826
0.04271566 -0.00988651 -5.077119e-05 -0.016111858 -0.0115698045 -0.013233354 -0.01648555 0.022471648
0.033153597 0.026453882 0.026939455 -0.0040344093 -0.015700178 -0.015181875 0.02132541 -0.0043182387
-0.0219197 -0.008036766 0.027549772 0.00096651237 0.034966532 0.01797946 -0.0040839 -7.930044e-05
-0.01656293 0.031104162 0.02818731 0.044136237 0.00043707102 0.024579043 0.03650629 -0.003780043
-0.00946183 0.020097187 0.046913285 0.00046231045 -0.0074990853 -0.017408269 0.026947727 0.0067983326
0.0320111 0.028351028 0.014107568 -0.0020374912 0.034445383 -0.007972901 0.0334388 0.003961024
0.017958293 0.016580835 0.016283657 -0.023833089 0.0214233 -0.003971969 0.021705085 -0.014828386
0.033277214 0.03114756 0.02250881 0.039159507 0.031597234 0.032254443 -0.01436755 0.018786643
0.041756716 0.048999816 -0.01820383 -0.00043703063 -0.0016764278 0.025001638 0.013400157 0.029314484
0.04956959 0.026171066 0.017818458 0.03709232 -0.0007518633 -0.0007052987 0.03498262 0.02083217
0.031240754 0.02282474 -0.00793869 0.021450972 -0.019871788 0.00848963 0.012813003 -0.030788334
-0.021342115 -0.01318713 0.034833092 -0.014594677 0.04032252 -0.019398658 0.027333247 0.0032785982
0.0033266977 0.0118583655 -0.0043776087 0.014230606 -0.0041328967 0.035264287 0.03891148 0.022999203
0.028070722 -0.0038432747 -0.0069938623 0.033235464 -0.035086118 -0.031099355 -0.014144115 -0.028133998
-0.028331794 0.020193307 -0.012460686 -0.022354659 0.0217556 -0.008535239 0.016088776 0.020410374

conv1.bias f4 [16]
00000000: 99d4 4f3d 6282 e53c 688b a5bc e368 bf3c
00000010: dda2 383c fe89 003d fe18 013d acb0 3f3d
00000020: 6e1d ff3c b4df cd3c 97d4 62bc 2192 433d
00000030: 8ceb eaba 078c af3c e5d0 223c 996d d63c
0.05073986 0.028016273 -0.020208076 0.023365444 0.011269298 0.0313816 0.031517975 0.046799347
0.031141963 0.025131084 -0.013844631 0.04774678 -0.0017922982 0.021429075 0.0099375 0.026175307

conv2.weight f4 [32, 16, 3, 3]
00000000: f630 ebba beac ad3c 9977 a3bc fc98 633d
00000010: 592a b9bc ab01 52bd 154c 1a3d f956 29bd
00000020: 6625 623c 6a4b 10bc a4b3 863d edce 87bd
00000030: 5587 9a3d 846e 273d 6646 9b3b 31e1 763d
00000040: 661d ab3d cb40 c63d 9321 68bc e08e c03c
00000050: 094b 55bd b0ef 9b3c 09c9 41bd b136 1fbb
00000060: a701 3e3d 5a9d 313d 2f1b 1abd e9d9 13bc
00000070: ee79 c93c 1c4f fbbc 9526 c43d e615 973c
00000080: 0842 19bc b78c 49bc 8f30 52bd a895 42bb
00000090: edf4 25bd b602 c43d 6ddc ba3d 1cfb dd3b
000000a0: 214a 2a3d da57 0cbc d927 d63c 4732 1bbd
000000b0: b8f0 373d ac95 973d 0eb4 083c 7e17 123d
000000c0: c6b0 e0bc 6ebd 993d 9b62 cbbb 2130 423d
000000d0: 0596 4b3d 7279 ad3c 44ec 6cbc 85a9 cd3c
000000e0: 2721 5d3c cebf 893b 4698 523c 2577 963d
000000f0: 8e68 67bd cb40 29bd 10dd c8bb c740 023d
00000100: ba9f 8d3d 5127 f63c 0b8a 36bc 092b 913d
00000110: c615 85bd 7648 a03a 628e a73d 512e 023d
00000120: 2c82 bc3d 2d9f 6a3d aab7 04bc fe4f 56bd
00000130: a370 cfbc f38b 983d a13a a43d c42c 19bd
00000140: f4ee 723d de6a e8ba 5a9a 3b3d 930e 47bd
00000150: 7357 8b3d 17a6 7abc 9396 67bd 539d 66bd
00000160: f096 9b3d 34fc 35bd 1642 9d3d 4e46 25bd
00000170: 248d 3abd a46d 20bd 32e6 e63c 2dca 83bd
00000180: 9282 5cbd ce7a d9bc 8160 8f3d 1064 ae3d
00000190: 08d4 463c deea 59bb 5186 6dbd b4ef 47bd
000001a0: 887b 8c3d ada7 d1bc 8055 993d 0502 653d
000001b0: 40ce 2c3d 202d 2a3d 2024 53bc 0349 c93c
000001c0: b424 6cbd a0f3 553d 3ffb 90bd 6be6 943d
000001d0: 00db 363d 0068 25bc cacb 663d 75b8 bc3d
000001e0: 223e 2dbd b261 803d 6dcc 603d 110c d13c
000001f0: f643 77bd 90da 813d 93a3 aabc 618b 863d
00000200: 1287 19bd 8f24 7fbd 5645 993d 7700 63bd
00000210: 2b0b c03d faae 26bc 1514 9a3c 995f a23d
00000220: 1d73 34bd 3bf3 973d 81d9 48bd 7543 0cbd
00000230: b774 883d c3cb b83d 092f 3abd ebf4 37bb
00000240: 151c bc3d c0f8 993d c68a c4bc 2cb9 b33d
00000250: 3be7 533c 3a1f 8abd e8fa 903d 427b 3dbc
00000260: c4e0 56bc 9eaa a53d c786 b73d a97f 61bd
00000270: 4bcf 8abd 7f40 2aba e523 993d d17c 403c
00000280: 0180 a33d 1e46 d9bc e281 00bd 874f 5dbd
00000290: 9926 293d 0d80 653d ab7e 07bd 92d2 1dbd
000002a0: 8f6a b93d 3c5d 8bbd 5447 873d 11b9 00bd
000002b0: b165 8bbd 7d47 47bd 94ff 41bd c986 e9bc
000002c0: 7daf 40bd 0692 413c 4c94 6e3d 6862 00bd
000002d0: 2ba9 563d 677b 26bc 2cb7 10bb f94d c23d
000002e0: 35c3 883d 03e5 4bbd b5a6 8abd c807 be39
000002f0: a760 64bc cce5 e7bc bca1 233d 445e aa3d
00000300: f19f af3d f945 72bd a328 f93c 682f e83c
00000310: 7383 c13d 4985 28bd 528a 5ebd 3d5a 9f3d
00000320: eabf 4c3c 0349 713d 9cb5 89bc 74a6 bb3d
00000330: 8e68 77bc b5af a33c 9924 ad3c 4286 663d
00000340: 1e72 6f3c 661e 79bd 6d49 3fbd 4224 403d
00000350: 2a44 76bd c49f 82bc e1f6 263d b75a 05bd
00000360: d5bc 88bd 4c9c 9b3d 2f32 7a3d 82eb 8bbd
00000370: 7c4c 48bd 7dc1 313d 86e6 c03c 4688 923d
00000380: ed0b 56bd 4382 95bd 3b86 92bc 9d1e 07bd
00000390: b713 3dbc dac6 c23c c483 da3c d731 b63d
000003a0: 21a3 07bc ec4c cabc 2243 783c 22ef 3cbc
000003b0: be0e 393d 1978 8dbd d69c 02bd 0c0d bc3d
000003c0: b286 493d 9e47 8e3c 43fd 60bd 7023 19bd
000003d0: bed8 113d 79d7 05bd 1821 5a3d 15ef c33d
000003e0: 85f9 9fbb e21a abbc 5740 17bc 4f5f 8b3b
000003f0: 8f96 a13d 11a7 46bc 0ce1 d93c 2424 383d
-0.0017943669 0.021200534 -0.01995449 0.05556582 -0.0226032 -0.051271122 0.037670214 -0.04134271
0.013802862 -0.008807043 0.065772325 -0.06631265 0.07545344 0.04087688 0.0047386168 0.060273353
0.08355217 0.09680327 -0.014168161 0.023505628 -0.052073512 0.01903519 -0.047310863 -0.0024294073
0.046388295 0.043362953 -0.03762358 -0.009024122 0.024594273 -0.03067737 0.095776714 0.01844306
-0.009354122 -0.012301615 -0.05131584 -0.0029691253 -0.040516783 0.095708296 0.09124074 0.0067743193
0.0415746 -0.008565867 0.026142048 -0.037889745 0.0449073 0.074015945 0.00834371 0.035666935
-0.027428042 0.07506834 -0.006206823 0.04740918 0.049703617 0.021176074 -0.014460627 0.025105247
0.013496674 0.004203773 0.012853688 0.07346944 -0.056496195 -0.041321557 -0.0061298683 0.031800058
0.06915231 0.030048044 -0.01114131 0.070882864 -0.064982936 0.0012228626 0.08181454 0.031782452
0.09204516 0.057280708 -0.00810043 -0.05232238 -0.025322264 0.07448568 0.08018995 -0.037396207
0.059309915 -0.0017732044 0.045801498 -0.048597883 0.06803789 -0.015298388 -0.056540083 -0.05630238
0.075971484 -0.044429973 0.076786205 -0.04035025 -0.04554476 -0.03916706 0.028185938 -0.06435046
-0.05383546 -0.026547816 0.070008285 0.08515179 0.012135513 -0.0033251564 -0.057989422 -0.048812583
0.06859499 -0.02559265 0.07487011 0.05591013 0.042188883 0.04154694 -0.012887031 0.024570948
-0.05765219 0.052234292 -0.070791714 0.07270511 0.04464245 -0.010095596 0.056346692 0.0921487
-0.042295583 0.06268634 0.054882456 0.025518449 -0.060367547 0.063405156 -0.020829951 0.06569553
-0.03748233 -0.062290724 0.07483928 -0.055420365 0.0937713 -0.010173554 0.018808404 0.0792839
-0.044055093 0.074194394 -0.049035553 -0.03424402 0.066628866 0.090232395 -0.045455012 -0.0028069566
0.09185044 0.075181484 -0.023991954 0.08775553 0.012933548 -0.06744237 0.070791066 -0.0115650315
-0.013115112 0.08089183 0.089612536 -0.055053387 -0.06777819 -0.0006494596 0.074775495 0.011748509
0.07983399 -0.026522692 -0.031373866 -0.05403092 0.041296575 0.056030322 -0.033079784 -0.038530894
0.090535276 -0.068048924 0.06605402 -0.031426493 -0.068065055 -0.04865216 -0.04736288 -0.028506653
-0.04704236 0.0118146 0.058246896 -0.031343848 0.052407425 -0.010161257 -0.0022081835 0.09487528
0.06677858 -0.04977895 -0.06770078 0.00036245422 -0.013939059 -0.028307818 0.039949164 0.08318761
0.08575428 -0.059148762 0.030414885 0.028342918 0.094489 -0.041142736 -0.05433113 0.077808835
0.012496928 0.05890752 -0.01681023 0.09162608 -0.015100611 0.019981245 0.021135615 0.056280382
0.01461461 -0.060820006 -0.046700884 0.04690958 -0.0601236 -0.015945323 0.040762786 -0.032557216
-0.06676642 0.07598171 0.061083015 -0.06832029 -0.048901066 0.043397415 0.023547422 0.07154898
-0.052257467 -0.07300236 -0.017886272 -0.03298818 -0.011540345 0.02377646 0.026674159 0.08896225
-0.008278639 -0.024694882 0.015152724 -0.011531623 0.045180075 -0.069076724 -0.03188785 0.09182176
0.04920072 0.017368134 -0.05492903 -0.03738731 0.035607092 -0.032676194 0.053254217 0.09567086
-0.00488204 -0.020886842 -0.009231648 0.004253305 0.07890045 -0.012124793 0.026596569 0.04495634

conv2.bias f4 [32]
00000000: 2332 3b3d ae3d 8b3c ae93 8fb8 7a1c 413d
00000010: a9ef 503d c837 25bd d832 153d 3863 06bd
00000020: fb3f 203c 154b 1dba 457d 38bb 9b63 0abb
00000030: 51c6 9e3d 0879 6e3d 9015 73bd fd67 943d
00000040: ddee 073d d2a8 a93d 9726 613d 2a5e edbb
00000050: 991d 963d 6e72 8dbc 28cd 6a3d 8b82 9b3d
00000060: db4b 37bd 2ca8 903d f96b 543d 20c2 82bc
00000070: 1f6d a93d 0d1a d1bc a5ba 543d b21e bd3d
0.04570211 0.016997185 -6.846279e-05 0.047146298 0.051009808 -0.0403364 0.03642544 -0.032809466
0.009780879 -0.0006000263 -0.0028150838 -0.0021116498 0.077526696 0.058220893 -0.059346735 0.07246397
0.033186782 0.08284153 0.054968443 -0.0072438912 0.07329864 -0.017266478 0.05732456 0.075932585
-0.044750076 0.07063326 0.051860783 -0.015961707 0.08272766 -0.025525117 0.05193581 0.0923437

fc1.weight f4 [64, 800]
00000000: 6612 033d 458b 803b 109f 90bc cf39 3fbb
00000010: 626e e53c 519e 443c d4d9 d6bc fea3 b7bc
00000020: 133b d23c ab10 b93c 2752 e6bc cc4f f8bc
00000030: c786 b53c 8139 54bc a0e0 5e3c c388 11bb
00000040: 4140 2a3c 22c5 953c e5d6 493c aec0 aebc
00000050: ba4d 013d 521d e4bc d77c 323c 7464 0e3d
00000060: 527f 623c 2f87 293c 94b4 d53c c829 c43b
00000070: 286c d1bc 3d29 aa3c 947f 1b3c a1f1 7b3c
00000080: 88f7 8e3b 2d4e 7cbc 1ee7 093d 64fd 93bc
00000090: 7cd0 793b 03a5 b2bc be80 a23c e744 04bd
000000a0: ac6e a6bb fbf1 90bb ee95 bfbc 7495 ac3c
000000b0: 0b44 ce3c 4988 b03c a4fc 1dbc e2c1 cebc
000000c0: e42a c8bc e4a4 1a3d 608f 67bb 3fb3 7ebc
000000d0: 1d97 f03c dcb7 703c f94d 083b 1d1b c0bc
000000e0: df20 85bc cd12 103d 5e18 cb3b 2beb 973b
000000f0: 15cc a0bc 706b e43c 4018 ff3b f7dc 43bc
00000100: 236c 193d 0c77 07bd 2d99 303b 9740 3bba
00000110: b154 17bb 00de 7bb9 8cda abbb 927d 123a
00000120: 3fa7 543b 3ff2 89bb 722e f4bc 18c9 a2bb
00000130: 75be 72bc 5669 3dbc a116 ebbb 035e 733c
00000140: 8907 8abc 7ac7 9fba f5b0 45bc fa88 fd3c
00000150: 545b e3bc d863 04ba dc71 e8bc 828f fdba
00000160: fdfe b53c 0b73 b5bc a7d0 39bc aec6 8f3c
00000170: d67b debb 002e e03b 5b13 883a a49e 203d
00000180: 9acd 803b 64ee de3c e1c0 31bc 7869 f2bc
00000190: 5848 c13c 359d 13bc aa9f c83c efb7 c63a
000001a0: 76ce 413c f152 c8bc 7e1a 013d 075d ebbc
000001b0: 6c20 8b3b 7407 b8bc 4cbc 68bb 8e10 d9bc
000001c0: 3150 a43c 4837 f13c 5096 daba 1bd3 abbc
000001d0: 1099 e93b 5d33 26bc 595b 093d 41df b5bc
000001e0: d876 163d 2d4a 013b 3f7a c2bc 01a6 81bc
000001f0: cb24 9b3c d857 f43c a929 dbbc 4bc3 2b3c
00000200: 7bd0 c63b eea6 08bc 6503 91bc fa56 a6bc
00000210: cb3e aab9 eae6 b63c d5df 743b 9f4f 603c
00000220: 5495 17bc 2056 32bc 446f 9a3b ce7d 47bc
00000230: 24f6 b63c 051c fc3c 0c89 91bc 16d5 a2ba
00000240: 500a fe3b be4d ea3c ba0c f1bc c206 bbbc
00000250: 22de 9a3b 7965 b83c 0502 d03c c65a 063d
00000260: 650b 043d d951 df3c 17b0 e7bb 958d d03c
00000270: bf0d d83c ce48 a03c 769e 9fbc 0c2a 293b
00000280: c142 f7bb aac1 9dbc 87c2 8c3b e976 fe3c
00000290: 58f2 33b9 03b0 203c 39b3 8cbc e463 fcbc
000002a0: ce3e 38bc 2e30 c6bc 2d0a 1e3c 73cd 893c
000002b0: cdec 023d 20fd bbbc d6e1 113d b25b cabc
000002c0: ea9a 86bc e7c5 283a c3ad a23c cae9 ceba
000002d0: 3b85 f23c 2d52 973c 4375 c73c 4421 e8bc
000002e0: d0d1 163d 3de4 9b3c fa54 84bb 90e9 0c3d
000002f0: 41d4 123c cbea 15bc f4da 223d 14a2 d53b
00000300: 1363 b33b 5b4e c9bc 2883 0abd 2206 e03c
00000310: 4d4a 46bc 5eed a0bc 0b82 f33c fff6 50bc
00000320: 1a72 db3b f664 c83c 201d 0d3d 72bc eebc
00000330: 8b1c 25bc ae20 e9bc 1011 08bc 79c5 a8bc
00000340: 4cd2 7f3c 5119 c6bc d33b 03bd d119 1d3c
00000350: f65c 073d 0223 863c b4d1 3bba ecfd a43c
00000360: 5bfd 193d 8a92 8bbc e9e1 aebc 4c78 703c
00000370: 5cca df3b 4231 e63c b61e 243c df3f 803c
00000380: 5d93 ae3c 6b7e d7bc 0431 b23c b697 aa3a
00000390: 4768 d53c e226 693c b778 10bc d176 f0ba
000003a0: 196f 823c d734 cb3c cf5a ccbc 70d6 92bc
000003b0: f820 b3bc 8a36 9dbb bc13 aabc d3dd d7bc
000003c0: ab4b b43b 79b3 b3bc b9f6 aa3b ad74 b93b
000003d0: ce85 76bc 2804 c73b c307 2dbc 8dce 7a39
000003e0: 5a83 a33b 1be0 61bc a8ef df3c 3c04 9fba
000003f0: dae8 0dbc b94d 253c f5a0 dfbc 6e65 92ba
0.031999968 0.003922852 -0.017653972 -0.0029178744 0.028006736 0.012000636 -0.026226915 -0.022417065
0.025662934 0.022590956 -0.028115345 -0.030311488 0.022158993 -0.012953163 0.013603359 -0.002220676
0.010391296 0.018282477 0.012319301 -0.021332111 0.031568266 -0.027846012 0.010894022 0.03476377
0.013824301 0.010347172 0.026087083 0.005986426 -0.025564268 0.020771617 0.009490866 0.015377433
0.004363004 -0.015399498 0.033667676 -0.018065162 0.003811865 -0.0218072 0.01983678 -0.032292273
-0.005079111 -0.0044233776 -0.023386922 0.021067359 0.02517893 0.02154936 -0.009642754 -0.025238935
-0.024434514 0.03775491 -0.003533326 -0.015545665 0.029368931 0.014692273 0.0020798428 -0.023450429
-0.016251026 0.03517418 0.006197973 0.0046361885 -0.019628564 0.027883261 0.0077848732 -0.011954538
0.037456643 -0.033072516 0.0026946769 -0.00071431085 -0.0023091251 -0.00024019927 -0.0052445587 0.00055881694
0.003244832 -0.004209786 -0.029807303 -0.00496782 -0.014815916 -0.011560759 -0.0071743284 0.014853957
-0.016849296 -0.0012190186 -0.012066116 0.030949105 -0.02775351 -0.0005050278 -0.028374605 -0.0019345137
0.022216314 -0.022149583 -0.0113412505 0.017550793 -0.0067896647 0.006841421 0.0010381745 0.03921379
0.0039307596 0.027213283 -0.010849209 -0.029591307 0.023594067 -0.009009649 0.024490196 0.0015161018
0.011829009 -0.024453612 0.031519406 -0.028730882 0.0042458083 -0.022464491 -0.0035512624 -0.026497152
0.02005777 0.029445305 -0.0016676877 -0.020974686 0.007128842 -0.010144082 0.03353438 -0.022201182
0.036734432 0.001972805 -0.023739932 -0.015826227 0.018938443 0.029827043 -0.026753264 0.010483573
0.0060673333 -0.00834058 -0.017701814 -0.020305146 -0.0003247171 0.022326905 0.003736486 0.013690858
-0.009251911 -0.010884792 0.004712971 -0.01217599 0.022334166 0.03077508 -0.017765544 -0.0012423124
0.007752694 0.028601523 -0.029425014 -0.02283037 0.0047261873 0.022509323 0.025391588 0.032801412
0.03223743 0.027260708 -0.007070552 0.025458137 0.026373742 0.019565966 -0.01948474 0.0025812415
-0.0075457995 -0.019257385 0.0042956504 0.03106256 -0.0001716105 0.009807589 -0.017175304 -0.03080935
-0.011245443 -0.024192896 0.009645981 0.016821599 0.031964112 -0.022947848 0.035615765 -0.024701927
-0.01643129 0.0006438181 0.019858247 -0.0015786227 0.029604545 0.018471802 0.024347907 -0.028336175
0.036821187 0.01902973 -0.0040384503 0.03440243 0.008961738 -0.009150217 0.03975959 0.0065195654
0.005474457 -0.024573496 -0.033816487 0.027346674 -0.012102676 -0.019644435 0.029725095 -0.012754201
0.0066969516 0.024462204 0.034451604 -0.029142592 -0.010077606 -0.028457966 -0.008304849 -0.020601975
0.0156141035 -0.024181994 -0.032039475 0.009588675 0.03304764 0.016374115 -0.0007164732 0.02014061
0.037595134 -0.017037649 -0.021347957 0.0146771185 0.006829543 0.02809966 0.010017088 0.015655456
0.021310503 -0.026305398 0.021751888 0.0013015184 0.0260507 0.014230462 -0.008817843 -0.0018345957
0.015922116 0.02480547 -0.024945645 -0.017924517 -0.021866307 -0.0047977613 -0.020761363 -0.026350891
0.0055021844 -0.021936165 0.0052174 0.005659661 -0.01504655 0.0060734935 -0.010560933 0.00023918804
0.0049900236 -0.013786341 0.027335957 -0.0012131999 -0.008661473 0.010089331 -0.02729843 -0.0011169144

fc1.bias f4 [64]
00000000: dde3 e63c 481e e43c df94 3c3c 5f87 b5bc
00000010: f1a9 adb9 bd95 8bbc dbca 9bbc 0687 49bc
00000020: 32d3 0dbc 47f0 89bb c9df 513c 185b 9c3b
00000030: 99a1 943c 2581 ecbc f1ff a03c 7a56 04bd
00000040: 7654 32bc 1b92 0bbd 9815 b83b bf34 8a3c
00000050: 9ed4 d33c 7af1 ed3c ec84 953c 3dda 073d
00000060: a30a 4abc b731 963c f3f5 a23c 33bd f4bc
00000070: fa95 0c3c 104d 883c 69b1 303c 4a69 273d
00000080: 401d 55bc 3e66 013b 1405 183d 4563 abbc
00000090: 5151 dc3c 5a66 cfbb 15e7 163d 6ba5 faba
000000a0: 43fc cd3b 972b e2bc 3f71 033d 4c12 cf3c
000000b0: 43d4 4e3b 65c1 0bbd 1b36 d0bc a7cc c3bc
000000c0: 0c05 063d 1e06 2cbc be2c a23c 7874 e03c
000000d0: 4e0f f73c f621 6f3c abb3 aa3b 3a83 bbbc
000000e0: facf 0cbd bae2 343d 288e 843c ad42 02bb
000000f0: fc49 563b eaac 993c f814 40bc 3a34 b33c
0.028184826 0.02784647 0.011510103 -0.022159277 -0.00033123748 -0.017039174 -0.019017627 -0.0123002585
-0.00865631 -0.0042095515 0.012809702 0.0047716014 0.018143462 -0.028870175 0.019653292 -0.032309033
-0.010884395 -0.034074884 0.0056178086 0.016870854 0.02585822 0.029045809 0.018251859 0.033167113
-0.012331638 0.018334253 0.019892668 -0.029875373 0.008580679 0.016638309 0.010784485 0.040871896
-0.013007462 0.001974478 0.037114218 -0.020921359 0.026894243 -0.00632934 0.03684147 -0.0019122785
0.0062861755 -0.027608676 0.03209042 0.02527728 0.0031559623 -0.034119982 -0.025416424 -0.023901297
0.032719657 -0.010499505 0.019796725 0.027399287 0.030158665 0.014595499 0.0052094064 -0.022889722
-0.03437803 0.044161536 0.016181067 -0.0019876168 0.0032697907 0.01875921 -0.011723749 0.02187549

fc2.weight f4 [64, 64]
00000000: a83a 21bd 7e7d eabb 2f10 823d f06b 183d
00000010: 9c4d b4bd 30ae c1bd 34ff 40bd 8db1 993c
00000020: afc8 89bc aec3 963d c9da 533d 288f 1cbd
00000030: 6104 8dbd 095c 9bbc 8f71 463c 14cf ed3d
00000040: 2600 91bd 564e a8bd 9911 9dbd f83e 55bd
00000050: 2bac 8e3b 63b3 be3d c1f6 c9bd 3f3c ee3d
00000060: 2447 5dbd 9862 1c3d dc6b a0bd 711d cfb9
00000070: b114 4ebd 208b 90bc b07a e23d 4464 afbd
00000080: 8c13 1f3d f6c7 f0bd ca7e bcbd 6088 823c
00000090: 62f1 80bd 812d c43d 94e2 7dbc 10c3 a0bc
000000a0: 74e3 5b3d 249f e03c e091 38bd 522d a6bd
000000b0: c0fd 953d 4236 613d 0a1b f63d 66d4 e53d
000000c0: 8ea0 72bc 9cb9 733d 98da d63c b608 e4bd
000000d0: 6817 f33d eaa3 dc3d 4b57 c6bd 0622 e63d
000000e0: b9ed 20bd 1e28 54bd a32e df3d fd1d 8ebd
000000f0: 018e 88bd 51ae b6bb ade0 4fbd beb7 49bd
00000100: 5bad d33d ab1d 4ebc 6186 aabd 9441 2ebd
00000110: 8c2c 423d 8086 5c3d b2b3 b5bd 86c1 f93d
00000120: 5329 993d a84e ff3c 878b 67bd a99d f1bd
00000130: 1042 4a3d 007f 903b 5b12 15bc 86b9 bcbd
00000140: f677 f73d c08c b03d 8281 9bbd 540d f33b
00000150: 0c10 f6bd f0e1 c6bd 7110 46bd da32 ee3c
00000160: e007 623c c841 203d f1c4 0dbd f010 24bb
00000170: f911 cf3d 18f9 fb3c 927d b9bd dfc4 c33a
00000180: 4821 bbbd b2a0 253c 56e9 f7bc 5cc8 4f3d
00000190: 27dd 943d 2192 8aba cde8 9cbd 3036 37bc
000001a0: 66b2 27bd 165e d23d 535c c3bd 22e6 77bd
000001b0: 5794 d0bd 613e c63d c895 e33d 18cc 2a3d
000001c0: c2d2 d83d 1668 ce3d 1049 db3d 52b8 febc
000001d0: 8b60 593d a855 493d 0828 98bd b166 30bc
000001e0: 457e 4e3d 4a7b 65bc 008f dd3d 6db4 aebd
000001f0: 0997 f93c f547 94bd 971c 2ebd 6ec0 a6bc
00000200: 7d2b 183d d3c7 ebbd 063b 5e3d c01e 77bb
00000210: 6d33 0b3d f8c7 b5bc 800d c9bd 8ce5 f93d
00000220: 68b8 efbc 684f eebd 540e 86bd fe3a ffbd
00000230: 356e 963d f6ca d2bd 1e9e a3bd 4a86 cd3d
00000240: 2886 c63c 764c c1bd 141a a73d 6f2e 65bc
00000250: 4038 543c 36bc a73d 72ac 053e 2ad9 85bd
00000260: e042 3e3c 480f b03d 00ce fa39 a550 f33d
00000270: ece7 68bd 649e 60bc b0e4 f43c 2260 d8bd
00000280: c04f 9c3c e84c 2abd b291 b93d d02c 363c
00000290: e40b bb3d 7027 673d 1ef5 c1bd 00ac 9db9
000002a0: 4002 733d 443f f1bd 485f 9d3d a432 4a3d
000002b0: 2c09 313d a0df d33c 629d 7d3c a096 e3bc
000002c0: 123e 8e3d b28e 21bd 863c de3d 6054 97bd
000002d0: d38d 013e e1ea abbd dc09 df3d cefa b93d
000002e0: a09b d43b 7231 86bd d04a e43c dc82 82bd
000002f0: dbb1 a0bc 0946 9dbd c21d d33c e146 043d
00000300: 9fc7 ebbc 04d9 003e 5a54 dabd b898 f93d
00000310: d89c e43d c0d2 b9bc 6821 8cbd a179 af3c
00000320: b803 563d 505d 3b3c cc32 943d a034 babc
00000330: 0928 f43d 00bf 6ebd 4877 b23d 946d 553d
00000340: c897 be3c ac8f 8e3d 607c e53d b879 d6bc
00000350: d68d b43d 1fee 2cbc a3ce dcbd 9049 d2bd
00000360: f0e6 c13c 3033 9dbc 526b 8d3d 91a8 e5bd
00000370: 5688 c7bd f8a1 e8bc bc63 383d 3feb a33d
00000380: 6897 bfbd 1812 503d 61ee 84bd 46f3 ad3d
00000390: 786e 41bd b60e c5bd 5740 8fbd 8c98 e93d
000003a0: 1442 fcbd e15a 6b3b 8081 1abb 6a62 3d3d
000003b0: bee7 e53d c41e c9bd 3b47 bf3d d02f b2bc
000003c0: f269 9a3d c509 88bb 80f7 69bc 8ad1 f33d
000003d0: 1e16 953d 6a83 903c c188 ff3c b88a c1bd
000003e0: c409 b8bd a04d 8a3d 344c 4abd 3649 243d
000003f0: 24ea ce3b abdd 81bb 115f d8bd 27f2 033e
-0.03936258 -0.007156073 0.06350743 0.037212312 -0.08803865 -0.09457052 -0.04711838 0.01876142
-0.016819326 0.07361542 0.05172232 -0.038222462 -0.06885601 -0.018964784 0.012112035 0.11611763
-0.070801064 -0.082180664 -0.07669372 -0.052062005 0.00435402 0.09311559 -0.09861518 0.11632585
-0.054022923 0.038179964 -0.078330725 -0.00039504052 -0.0503127 -0.017644465 0.11058557 -0.08564046
0.038837 -0.117568895 -0.092038706 0.01593417 -0.0629604 0.09578992 -0.015495915 -0.019624263
0.053683713 0.027419634 -0.045060992 -0.08114113 0.073237896 0.054983385 0.12016876 0.112221524
-0.014808787 0.059503183 0.02622728 -0.11134474 0.11869699 0.107734516 -0.096846186 0.11236958
-0.03928921 -0.05179607 0.10897567 -0.069393136 -0.0666771 -0.0055749794 -0.050751377 -0.049247496
0.10335799 -0.012580316 -0.08326412 -0.04254301 0.047405764 0.053839207 -0.08872165 0.12195115
0.07478585 0.031165436 -0.056529548 -0.117976494 0.04937941 0.004409671 -0.009098615 -0.09215073
0.120834276 0.08620596 -0.07593061 0.0074173603 -0.120147794 -0.09711063 -0.048355523 0.029076982
0.013795823 0.039125234 -0.034611646 -0.002503451 0.1011085 0.030758426 -0.09057154 0.0014935991
-0.09137207 0.0101091135 -0.03026263 0.050728187 0.07268744 -0.0010572114 -0.07661591 -0.011182353
-0.04094162 0.10271852 -0.09539094 -0.060522206 -0.101845436 0.096798666 0.11112553 0.041698545
0.10587074 0.100784466 0.10707295 -0.03109375 0.053070586 0.049153954 -0.0742951 -0.010766671
0.05041339 -0.014006445 0.10818291 -0.08530507 0.030467527 -0.07240287 -0.042507734 -0.02035543
0.03715085 -0.11512723 0.054255508 -0.0037707537 0.03398459 -0.02219008 -0.09817028 0.12201986
-0.029262736 -0.11636239 -0.065457016 -0.12462424 0.07345239 -0.10292618 -0.07989143 0.10035379
0.024233893 -0.09438412 0.08159271 -0.013988121 0.012952864 0.08190195 0.13054064 -0.065355614
0.011612624 0.08596665 0.00047837198 0.11880616 -0.056861803 -0.013709638 0.029894203 -0.10565211
0.019080997 -0.04157725 0.09060992 0.011119083 0.09133127 0.056434095 -0.094705805 -0.00030073524
0.059328318 -0.11779645 0.07684189 0.0493647 0.043221638 0.025863469 0.0154794175 -0.027781785
0.06945433 -0.039442725 0.10851388 -0.0738914 0.12651758 -0.08394409 0.108905524 0.0908104
0.0064882785 -0.065524 0.027867705 -0.06372616 -0.019616058 -0.07679374 0.025771026 0.032294158
-0.02878171 0.12582785 -0.1066062 0.12187332 0.11162728 -0.022683501 -0.06842309 0.021420302
0.05224964 0.011435822 0.07236251 -0.022730172 0.119216986 -0.05828762 0.08714157 0.052106455
0.023265734 0.06960997 0.11205363 -0.026181087 0.088161156 -0.010554819 -0.107816 -0.10267937
0.02366969 -0.019189447 0.06905235 -0.11213792 -0.09742801 -0.028397545 0.04501699 0.08003854
-0.0935505 0.050798506 -0.0649078 0.08493666 -0.04722449 -0.096219465 -0.06994694 0.11406049
-0.12317291 0.0035912322 -0.0023575723 0.046236433 0.11225842 -0.09820321 0.09339758 -0.021751314
0.07539739 -0.0041515552 -0.0142802 0.11905201 0.07279609 0.017640788 0.031193139 -0.094502866
-0.08986238 0.06753087 -0.04938908 0.040108882 0.006314533 -0.0039631925 -0.105650075 0.12885343

fc2.bias f4 [64]
00000000: bdd4 bd3d b6b3 ee3c 4ede 02bd e393 c4bd
00000010: fd75 eebd b4d0 9abd e0ef 0abd 80ff cdbd
00000020: 1c44 f8bd ea2c b93d 4e6a 0bbd 6141 f63d
00000030: ef44 063e 2fcd e23c 137f e73d daa5 8bbd
00000040: bf50 1f3a 1b11 eebb b689 1b3d 6529 b5bd
00000050: 1189 98bc 304c 80bd ba60 603d 2778 00bd
00000060: ae2c e9bd e4fe 133d 9b70 933c 1b01 9b3d
00000070: c3be 553d 28f2 26bd 65e2 053e c019 43bd
00000080: 5ce1 e7bd 87e2 af3c 2ed0 bd3d 165f 2b3d
00000090: 1aff afbd 07fa b93d 3b5a a13d 73ad e63d
000000a0: 8f2d b8bd 4a97 c1bd 2e68 793d 4a37 563d
000000b0: 6b0c fc3c 98f7 fabc 10b5 99bd 57db e43b
000000c0: e0c6 52bd ae46 a1bd 43ed 5b3d 575a e33c
000000d0: 0251 383c f473 66bd 056a 2cbd d2d1 90bd
000000e0: 4f72 93bc 5237 623d bc99 48bd 24a9 34bd
000000f0: cca8 f03d 9815 0fbd 825e 99bd 3bd4 13bd
0.09269092 0.029138427 -0.031950288 -0.0959852 -0.11643598 -0.07559338 -0.03392017 -0.100584984
-0.12122366 0.0904177 -0.034036927 0.12024189 0.13112234 0.02768573 0.11303534 -0.06818743
0.0006077401 -0.0072652227 0.03797313 -0.08845786 -0.018620046 -0.062645316 0.054779746 -0.031364586
-0.11385475 0.036131755 0.01799803 0.0756857 0.052183878 -0.040758282 0.13074644 -0.04763198
-0.11322281 0.021470321 0.09268223 0.041838728 -0.08593579 0.09080892 0.07878538 0.112635516
-0.089930646 -0.09452684 0.06089037 0.05229882 0.03076764 -0.03063564 -0.07505238 0.006984155
-0.051459193 -0.07874809 0.053693067 0.027753038 0.0112497825 -0.056262925 -0.042093296 -0.0707127
-0.017998843 0.05522854 -0.048974738 -0.044106618 0.117509454 -0.034932703 -0.07488729 -0.03609107

fc3.weight f4 [7, 64]
00000000: a23a a63d 2ff6 00be 25b3 a93d 4b1d c23d
00000010: 9f47 9dbd 15c5 d93d 2faa d5bc 9e11 dfbd
00000020: 1e54 c23d 3031 e63d 78bd 823d b6db f1bb
00000030: 5e1c c1bd 2928 813c b763 473d b09d 3fbc
00000040: 7ce9 84bd 4320 6b3d 7795 f03d ce9f 48bd
00000050: 98ac babd f058 21bd ab56 39bd 3f06 bd3d
00000060: c090 62bc 46c4 893c 79bd 9cbd bd1a 85bd
00000070: 488b 89bd b8ab a33d 522e 4d3d 8c37 e03d
00000080: c0b4 1ebc e2a2 85bd 8887 dfbd e3e7 d53d
00000090: 75dd cb3c 6930 54ba 61c7 a8bd e923 a23d
000000a0: 031b 0dbc 232c 273d 3a17 c03d 0ea2 3fbc
000000b0: 22f5 8bbc e210 da3d 8e8f c1bd f339 a03c
000000c0: 5898 8bbc dc46 f83d b0c0 4bbd 5c54 34bd
000000d0: 1080 35bc f859 88bc 7520 f0bd 0f68 08be
000000e0: 0934 b6bc 404a 19bd f48e 353d d0bf 93bc
000000f0: 6f6a 9ebd 5892 153d 9488 2ebd 68e8 a03d
00000100: a085 ce3d b793 3bbd acf5 4f3d 4273 a2bc
00000110: f32b cfbd a588 e0bd 923a 8ebd 2ee4 f1bd
00000120: 088f dfbd 433f 8cbd bb73 9f3d 6d32 df3c
00000130: d8e0 fbbd 8b0d bcbd 4efa 9c3c 64f8 6b3d
00000140: c071 14bd 392b 933d 2492 ef3d 6aff 513d
00000150: 918f 2fb9 e3b5 3d3d a24d a33d 0b3e 5c3d
00000160: 78c9 abbd 6a9b 5cbd b072 e83d dff2 8ebd
00000170: 1883 303d 428a 81bd 74fa 5a3d 301d 05bc
00000180: b88e 28bd fd1c 803c 51a7 6c3d 7dc8 1abb
00000190: 0ec8 d03d 2165 62bd 1c47 42bd 3938 8cbc
000001a0: 49c8 f3bc 0450 77bc 1d56 b13d 2985 1abc
000001b0: 4248 1f3d 16ba d1bd f369 dabd 7083 0ebd
000001c0: 3a22 d73d 6cf9 073d 8261 d83d 6f82 fdbd
000001d0: 00bd b4bc 58b5 903c ceef fc3c ba4a a1bd
000001e0: 007e 883d fc6d 1bbd 523f 81bd c897 d43c
000001f0: 0857 b8bd c86c aabd 00ee e03b b1d2 443d
00000200: 6992 08bd 95e3 f63d b249 193d a51e 993c
00000210: 19b4 8dbd 376a 4fbd e2fc aabd 68f4 84bc
00000220: 8091 95bb 9cbe ea3d b197 453d 90df a7bd
00000230: cb6e 4cbc 9557 d6bd c9e0 e53d 2078 babc
00000240: cf57 a8bd 7e41 05be fa19 23bc 8515 4e3d
00000250: b6f2 053d eea3 75bd 6fcc 07be aae9 e83d
00000260: d0d3 63bc cb60 00be 6f02 a13d 529d 09be
00000270: cfcd 883d 64d4 d2bd f370 f3bc baef dc3d
00000280: c440 c5bd f216 d8bb 16bd 97bc 49d7 de3d
00000290: 393a 17bd a430 e93d 03dc 863d 2169 1e3d
000002a0: dc10 b8bd dd78 e33d 3438 4ab9 2184 b03c
000002b0: 7b84 c0bb 84b3 e73d e771 ea3d b63e 72bd
000002c0: a617 d5bd 9c63 613d dfb7 343d 8adc ed3d
000002d0: 722b e83d a818 af3d 0652 0d3d a7b8 64bc
000002e0: 4932 b9bc b751 973d 80f2 a2bb 108b 78bd
000002f0: 0ab5 ec3d 4ccf 023d 2c64 d13d 7129 b13d
00000300: 865d a53d 0ab8 dd3d 0d32 afbc 00de 4a3d
00000310: bd1d c8bd df0d 49bd 7b74 26bd 8425 a8bd
00000320: 703b 643c 5f11 b73d 8bbc ab3c 6ea0 debd
00000330: 0fb5 bb3d 07bc 86bc 0cc7 3c3d 1233 bfbd
00000340: cd9a 86bd 222e 89bd ec45 5e3d c3f0 663c
00000350: 963b d73d cf0a 18bd f03d 153c 1ef0 fe3c
00000360: 4a19 9cbd 8929 0abc 9d16 8c3d 5b57 d8bd
00000370: 90ef 6bbd 405e 423b e9b8 a23d b093 c1bd
00000380: e019 86bd 30a3 9fbd 8338 a8bc d3ca 013d
00000390: d706 9e3d 2c68 47bd ec21 93bd 7719 6cbd
000003a0: aa09 f0bd 7e1d 013e efce 04bd ed3d fc3d
000003b0: 3988 f43d 3cae 673d b2ed c1bd 9a2a 5b3d
000003c0: 8ab5 b93d 00e6 adbd 6b36 b53d 395b 5abb
000003d0: e404 5f3d 38f2 fcbd 5e9b 9cbd 6386 973d
000003e0: b09b 473c 4346 79ba c8f8 fd3d e0ea cc3c
000003f0: 25d9 cebd fcdb 2b3d e0cc 0d3d c3e1 153d
0.08116652 -0.12593912 0.08286122 0.094782434 -0.07679676 0.106332935 -0.026082126 -0.10892032
0.094887 0.112398505 0.063837945 -0.007380928 -0.09429239 0.01576622 0.04867908 -0.0116953105
-0.06489846 0.057403814 0.11747258 -0.048980527 -0.09114951 -0.039391458 -0.04524867 0.09229707
-0.013828456 0.016817223 -0.076533265 -0.064992405 -0.06716019 0.07991737 0.050093003 0.10948095
-0.009686649 -0.06525208 -0.109145224 0.104446195 0.024885872 -0.0008094372 -0.082411535 0.079170056
-0.008612397 0.040813576 0.0937943 -0.011696352 -0.017084662 0.106477514 -0.09451209 0.019558882
-0.017040417 0.1212289 -0.049744308 -0.044025764 -0.011077896 -0.016644463 -0.11724941 -0.13320945
-0.02224161 -0.037424326 0.044325784 -0.0180358 -0.07735144 0.036516517 -0.04261072 0.07856828
0.10084081 -0.04579517 0.0507714 -0.01983035 -0.101158045 -0.10963563 -0.06944765 -0.118111
-0.10915953 -0.06848004 0.07785746 0.027245725 -0.12298745 -0.091822706 0.019162323 0.05760993
-0.036241293 0.071859784 0.11697796 0.051268972 -0.00016742783 0.04631604 0.07973792 0.053770106
-0.083880365 -0.053859152 0.1135 -0.06979918 0.04309377 -0.06325199 0.053461507 -0.008124635
-0.041151732 0.015638823 0.057776753 -0.0023618035 0.101944074 -0.055272225 -0.047431096 -0.017116653
-0.02975859 -0.015094761 0.08659003 -0.009431162 0.03888727 -0.10240571 -0.106647395 -0.034793317
0.10504575 0.03319685 0.10565473 -0.12378394 -0.022062778 0.017664596 0.030876067 -0.07875581
0.066646576 -0.037946686 -0.063109055 0.025951281 -0.09000975 -0.083215296 0.0068643093 0.048052493
-0.033342753 0.120551266 0.037423797 0.01869137 -0.069191165 -0.050638404 -0.08349015 -0.016229823
-0.004564464 0.11462137 0.048240367 -0.08196938 -0.012477587 -0.10465924 0.11224515 -0.022762358
-0.08219873 -0.13013265 -0.009954924 0.05031349 0.03270217 -0.05997079 -0.13261579 0.11372693
-0.0139054805 -0.12536924 0.07861792 -0.13438919 0.0667988 -0.102944165 -0.029716944 0.10787912
-0.09631494 -0.006594532 -0.01852278 0.10880906 -0.03692076 0.113862306 0.06584933 0.038674477
-0.08987591 0.11107037 -0.00019285158 0.021547379 -0.005875168 0.11313537 0.114475064 -0.059141837
-0.10404901 0.055026636 0.044120666 0.1161433 0.113364115 0.08549625 0.03450205 -0.01396004
-0.022606986 0.07388633 -0.004972756 -0.060679495 0.11557968 0.031935975 0.102241844 0.086504824
0.08074479 0.10826118 -0.02138617 0.049528122 -0.09771297 -0.049085494 -0.04063843 -0.082102805
0.013930187 0.0893886 0.020963928 -0.10870443 0.091653936 -0.01644708 0.046088263 -0.09335913
-0.06572495 -0.06698252 0.0542659 0.014095488 0.10509412 -0.037119683 0.009109005 0.031120356
-0.07622011 -0.008432754 0.06840251 -0.10563537 -0.05760151 0.0029658228 0.07945425 -0.09451997
-0.06547904 -0.077947974 -0.02053476 0.03168757 0.07716148 -0.04868333 -0.071842045 -0.057641473
-0.11720593 0.12608907 -0.03242391 0.12316499 0.11940045 0.056562647 -0.09469165 0.053507425
0.09067829 -0.08491135 0.0884827 -0.0033318533 0.054448023 -0.12350887 -0.076468214 0.07398679
0.012183115 -0.0009509066 0.12400967 0.02501434 -0.10100011 0.04195784 0.034619212 0.036592256

fc3.bias f4 [7]
00000000: 88ef 54bd 4d22 bd3d 99f1 6a3d 3f0f cabc
00000010: 5fc5 e8bb 4a3a e73a 1dea 58bc
-0.051986247 0.09235058 0.05735931 -0.024665473 -0.0071036066 0.0017641273 -0.013239411
