src/models/34x32_10robot_10humans_1pickup_8dropoff_2048shelves_30000episodes_1000steps(prioritized replay).pth (torch, 294088 bytes, 10 tensors)

conv1.weight f4 [16, 80, 3, 3]
00000000: dda0 cc3d d3a0 b93d ea41 f23c 48ee b03d
00000010: dd8c 933d 6f2c 863d 223f 583d 7b8b dc3d
00000020: a7b2 453d 2a56 963c e0fb 233b 9cad 1d3c
00000030: daf1 f43b e75f ae3a ccb8 703c 14d0 6dbc
00000040: 1a28 70ba aea9 48bb 92c3 7cbc 254d 383c
00000050: ef03 d5bb 2b15 963b e48c 0e3c 5b6a 1ebc
00000060: 7725 26bc f3b6 1c3c 06ad d73b b020 16bc
00000070: 738b 0d3a 3fa6 9c3b b71f a43c 7612 6a3c
00000080: 87aa 9c3b 129f de3b 83b3 993b ce2d 8ab7
00000090: dc11 d1bb 716f d93c dd28 a4bc a27f 853d
000000a0: a697 333d 1539 0a3d dc55 ae3d a88d b03c
000000b0: e114 6bbd 1a8d ddbc acea 35bc 38c6 3bbc
000000c0: 8657 48bd 0796 cb3b 9f03 c83b f1a2 eb3b
000000d0: cee9 89bc 20c6 833c 7fe3 503c 99d9 293d
000000e0: 5d44 203d f7a0 bc3c 817d 27bc c6aa 6b3d
000000f0: 45d9 3cbc 1aef d13c 973b 7d3d cdfd 19bd
00000100: 4ec9 9d3c a208 253a 4cdf 513b 22be ae3c
00000110: 76fb 8ebb 58c9 49bc 2d15 8cbc dba9 b9bc
00000120: ebfc 293c 7daf 2ebd 7f7e 5bbc 9d67 59bd
00000130: 39e7 d1bc 1acc 2abd 54d0 1abd a605 263c
00000140: c14a 623d b751 4dbc 7c16 0cbc 1473 67bc
00000150: 30d3 053c 1d4e 0c3d 1291 0abb 8aca 44bc
00000160: df72 753c 4bcf d7bc ff01 cc3d 3af0 7b3d
00000170: 45c0 083d dea0 933d 4934 3b3d 6106 bf3d
00000180: 477d cd3d 1341 ab3d a1ee 973d c238 eb3c
00000190: c57a 183b 1906 0b3d c0f0 2ebb 6167 4fbb
000001a0: 6bc5 af3c 5261 72bc 6dd3 563b 3dde febb
000001b0: 9428 91bb 0b82 b03b 9b84 9b3c 0ba8 853b
000001c0: ff40 79ba 1f47 b0bc a47a e4bb 0f52 993b
000001d0: a38a 2f3c 9ef4 d73b 50ac 72bb ef27 203c
000001e0: a663 b03c f142 ba3b 61b2 b8bb c50e c93b
000001f0: 2abc 31bc 8750 17bb dbdf 773d cf69 a8bc
00000200: f65f 1c3c d56b ad3d 38e7 7f3d d334 bebb
00000210: 59eb 383d d7b1 7abc 5969 c63b e288 76bc
00000220: 94f0 5dbc b22b 88ba 7836 91bd 0605 38bc
00000230: 1620 8b3c ea72 63bc f724 873b bb89 c03c
00000240: 9bf0 9a3a 16d4 403d f954 8e3c 22da 543d
00000250: 1adb e5bc 0f45 6d3c 289c f0bb a8ea fabb
00000260: 842f 5b3b 09db e8bc a8cb a0bc f53c 953c
00000270: 0736 e03c 404c b0bc 7766 f23c 8591 ef3c
00000280: 313b 913c 8a94 99bc 27e1 2abd 4d6d 36ba
00000290: 4801 b8bb e69e 6fbd d075 33bc 03b6 abbc
000002a0: 6f6b bcbc aafc 87bc d2f1 99bc da7e 96bc
000002b0: 0c18 3c3b 04da eabc ca2b 1e3b 871c 983c
000002c0: 49da 88bb 0653 2cbd 1fac 3cb7 2002 24bc
000002d0: 1b12 ab3d 1dff a33d 5bf9 3a3d e009 933d
000002e0: c3b3 d03d b90d ab3d 9fbf 923d 593b b53d
000002f0: 7f5d d83d 948a 873c 7adf 17bc 079c 9f3c
00000300: 6d73 0bbc 5166 16bc d0c8 943c a622 adbc
00000310: 54bf 863c cb20 b2bb abae 5b3b 8a28 7a3b
00000320: 01b5 723b fa0a 583c e31b fa39 821c cdbc
00000330: 5908 dbba 8ac1 033c e17c 223c 4943 853c
00000340: b693 09bc 7dbf 9a3b 622c d73c 55cf 023c
00000350: 7b80 0f3c 7be3 f33a ab16 37bc 3beb bebb
00000360: 77aa ac3d 3c30 7938 33a0 143d 778b 513d
00000370: 4ecd 7d3d b399 463d fc97 613d 485b 543b
00000380: d73e 6dbd 25a1 0cbc 1577 68bc 2616 443c
00000390: 1ce7 60bd e06d f5bb 6dab 9539 322d ecbc
000003a0: 71a2 90bc e3bc 2e3d 6fca 0bbd 4c68 6d3d
000003b0: bb3e ea3c dc64 a83d 2468 b2bc f5cd 563b
000003c0: 9bf8 58bc af7d 2cbd 322a fd3c 4fcc 9b39
000003d0: 2af5 60bc 6628 f4bc ee4f 013d 0dd6 88bc
000003e0: a481 233d 9d72 9bb9 a6bd 0b3b 6f6b 9dbc
000003f0: 921c 2dbd 9b56 88bc bc4e 2cbb ed72 5dbd
0.0999162 0.09063878 0.029572446 0.086391985 0.07204602 0.06551444 0.052794583 0.10768791
0.04826608 0.018351633 0.0025021955 0.009623911 0.00747512 0.0013303728 0.0146924965 -0.014514942
-0.0009161249 -0.0030618715 -0.015427487 0.011248861 -0.006500713 0.00458016 0.008700583 -0.009668912
-0.010140768 0.009565103 0.0065819053 -0.009163067 0.00053995027 0.0047805603 0.020034654 0.014286628
0.0047810706 0.006793865 0.004690589 -1.6472211e-05 -0.006380303 0.026542397 -0.020039016 0.06518485
0.043845795 0.033745844 0.0851247 0.021551922 -0.05739296 -0.027044822 -0.011103313 -0.011460833
-0.048911594 0.006212953 0.0061039473 0.007191055 -0.01683512 0.016085684 0.012749552 0.041467283
0.039127696 0.023025973 -0.010222794 0.05753591 -0.0115264105 0.025626708 0.061824407 -0.03759556
0.019261029 0.0006295537 0.0032023964 0.021330897 -0.0043634726 -0.0123160705 -0.017099941 -0.022664001
0.010375242 -0.042647827 -0.013396858 -0.05307733 -0.02562295 -0.041698553 -0.037796333 0.010133183
0.055247072 -0.012531689 -0.008550283 -0.014126558 0.008168027 0.034254182 -0.0021143598 -0.01201118
0.014981001 -0.026343962 0.09961318 0.061508395 0.033386488 0.07208417 0.04570416 0.093273886
0.100336604 0.08362021 0.07418562 0.028713588 0.0023266536 0.033941362 -0.002669379 -0.0031647312
0.02145644 -0.014793711 0.0032779828 -0.0077779577 -0.004429886 0.005386596 0.01898413 0.00407887
-0.00095082814 -0.021518288 -0.0069726277 0.0046789716 0.010714206 0.00659044 -0.0037028976 0.009775146
0.021531891 0.0056842496 -0.005636499 0.006135794 -0.010848084 -0.002308877 0.06051622 -0.020558266
0.009544363 0.08467833 0.062476367 -0.005804637 0.04514632 -0.015301189 0.006055039 -0.015047284
-0.013546128 -0.0010388999 -0.07090467 -0.011231666 0.016983073 -0.013882378 0.0041242796 0.023503175
0.0011820974 0.04707726 0.017374502 0.05196584 -0.028058577 0.014481797 -0.007342834 -0.0076573677
0.003344507 -0.028424757 -0.01962836 0.018217543 0.027369512 -0.021520734 0.029589875 0.029244194
0.01772842 -0.018747587 -0.04171863 -0.0006959036 -0.005615387 -0.058501147 -0.010953382 -0.020960813
-0.023000447 -0.016599972 -0.018792067 -0.018371034 0.0028700856 -0.028668411 0.0024134987 0.01856829
-0.0041764122 -0.042071365 -1.1245748e-05 -0.010010272 0.08353063 0.08007643 0.04564796 0.07179618
0.10190537 0.08352227 0.07165455 0.0884921 0.10564708 0.016545571 -0.00926959 0.01948358
-0.008511406 -0.009179668 0.018162161 -0.021134686 0.016448654 -0.005436038 0.0033520858 0.0038171136
0.0037034156 0.013186211 0.00047704493 -0.025038008 -0.0016710862 0.008041749 0.009917469 0.016267436
-0.008397033 0.004722534 0.02626628 0.007984002 0.0087586595 0.0018607223 -0.011174838 -0.0058263815
0.08430951 5.9411148e-05 0.03628559 0.051158395 0.061963372 0.048486423 0.055076584 0.003240304
-0.057921257 -0.008583342 -0.014188548 0.011968171 -0.054907903 -0.0074899048 0.00028547217 -0.028830145
-0.017655583 0.042660605 -0.034128603 0.057960793 0.028594365 0.082223624 -0.021778174 0.0032776569
-0.013242866 -0.04211205 0.03090391 0.00029716126 -0.013730327 -0.02980442 0.031570368 -0.01670363
0.039918557 -0.00029649297 0.0021322756 -0.019216267 -0.042263575 -0.01664286 -0.0026292047 -0.05406468

conv1.bias f4 [16]
00000000: a90a ba3d 69fd eb39 c438 cc3d ccbb be3d
00000010: 3fd3 30be 1c59 cd3d 9ac9 f03d 919d ba3d
00000020: e149 f7bc c6fa 37bd 84d9 e43d 96ed fe3c
00000030: 3866 073e 7bba e33d a9c7 dabb 86c3 3abd
0.090840645 0.00045011498 0.09971765 0.09313163 -0.17268084 0.10026762 0.117572024 0.09112085
-0.030186595 -0.04491689 0.111743 0.03111915 0.13222587 0.11119553 -0.0066766334 -0.045596622

conv2.weight f4 [32, 16, 3, 3]
00000000: 0da9 d5be 7084 b3be 60ef 55be e5df d0be
00000010: 7dc5 afbe 6c95 adbe 2c25 62be a38c 98be
00000020: 0fed cdbe 19bc a4be 23a5 adbe 33b4 18bd
00000030: a7af 7fbe 971c b8be 65fb 0cbf eeb0 ebbe
00000040: 29ac 7ebe 3e9e a9be 4608 ba3d bca7 b93d
00000050: 2772 133d 2a2f abbd 95e9 513e 20ff 793c
00000060: 650b 80be 901e 693e fc19 ab3d 3c06 71be
00000070: 19a0 52be 8df8 9dbe 0299 c2be efe5 c6be
00000080: f2fd a0be 2703 72be 84a8 57be b3be 3bbe
00000090: fc1a d43e f310 0e3f 5b02 f63e 7111 973e
000000a0: 81b6 b63e a8a4 003f bf12 b93e 69f1 b03e
000000b0: d1c3 8a3e 4bca d3be 6105 d93c 592d 5bbc
000000c0: 690a 69be 4455 a5bd 8806 8a3d 044e 85bd
000000d0: ac78 a9bd 501a 1fbe e99a 14be c65c 7ebe
000000e0: e9da bbbe 8270 b0be 5eb3 66be 16b3 cabe
000000f0: c5c1 a8be 2d34 80be 8d31 aebe da20 89be
00000100: efc2 64be a3ad 11be 4f56 7ebe f39e 8ebe
00000110: 6dd9 00be 751c e3bd 62d7 01be 996b b2be
00000120: 2153 533e 374f 6c3e 32a4 9d3e 639c 923e
00000130: 3ea1 473e d792 7a3e 0876 753e 5b8c 2f3e
00000140: a7e5 0e3e ca21 783e 010e 193e 5139 e63d
00000150: 2440 d13e 7d93 f83d 81a2 833e 6b23 863e
00000160: 1eaa 5c3e 52db a73e 6aa8 41be f05b ecbe
00000170: f66d 49be ef56 39be 5294 ecbe 2856 67be
00000180: cec2 36be db1c 7ebe 9d62 7dbe bfe1 963d
00000190: 8638 df3b 531c 9e3d e1e5 be3d 42e4 9a3d
000001a0: 16c6 97bc 988e 24bd aa36 5a3e 4e90 363c
000001b0: 44f9 7abe 7831 d7bd db04 06be 7772 72be
000001c0: 2333 36be 1453 7fbe b932 77be f506 45bd
000001d0: e917 70be dfda 823c 5299 783d 4095 00be
000001e0: 8f2a 2fbc 3ce0 9fbc 8b8b 03bd b109 1a3e
000001f0: 0773 303d 3580 c33d 28f1 013e 6187 b83d
00000200: 422e 0abc ca16 283e c56a 8f3d d054 e93c
00000210: fad6 e03d 8361 2c3e d63e 5c3b 2484 c73e
00000220: ed2b 873e cd24 e73d a6a8 953e 7ae8 b43e
00000230: e196 8b3e 380f 1f3d 39fe 2e3e d504 9d3e
00000240: aa73 263e aa1d b23c 8cdc b4bd f931 463e
00000250: 0a0c c63d 2f44 823d cf5f 263e ed01 933d
00000260: 4966 283d 2910 963d f0f9 32bd 46cc e3bc
00000270: 4c31 513d 43f6 a93d a790 ed3c a25a a2bd
00000280: 7d44 c4bd a9b1 be3d 196a 143e deda 2ebd
00000290: a8bf e83d 616a 683d 5fe2 d03d 8c4d 7e3d
000002a0: 7449 183d e251 36bc 754b 633c 6ca1 43bd
000002b0: ec29 923c 196a 243e 5bee e73d 219d 2e3e
000002c0: fffb 1b3d 9c55 f73d 1ad9 593d 02eb 013c
000002d0: 1634 5fbe e29a 883c 00d9 ffbe dc48 503d
000002e0: ac26 60bd 063d d6bb 1c50 823c ab37 a5bd
000002f0: 6db6 393d a539 f03d 9bfc 2f3a ca63 b5bc
00000300: 7758 30bd 818d 26bd f9f5 70bd 9fd7 083e
00000310: d554 c33c 2d1c c8bc 5e10 78bd 2421 f53d
00000320: ea11 df3d 12ed 2dbd a7f2 89bc 165d d03d
00000330: f41d a6bd f145 c43d 64ac a2bd fb52 223d
00000340: c136 d73d dfe0 f43d c9db 183e 9ef6 643c
00000350: 9f61 50bb fa7e 2c3e 81b3 cb3d 94af 423d
00000360: 6485 a23c 15a5 dcbd f6c4 0d3d ef92 9ebd
00000370: 66a4 e0bd 0512 a03d 5292 2dbd 6286 08be
00000380: 2001 c33d 0663 4ebd e719 233d d2d9 0a3e
00000390: 9084 723d 08b7 cfbb 9ff3 b9bd d23a b5bc
000003a0: 63a1 d23c 32b1 dfbd fa5a 86bd 2475 1b3e
000003b0: bfb5 443e 40bc 263e 2f44 e83d 28af 783d
000003c0: e363 5dbd a6fa c03c 598c 5cbd 1bb9 123d
000003d0: 6b72 793c b5f3 083e 5ee6 dc3d 6235 5dbd
000003e0: 5180 11bc 4a5d e8bd deac 78bd 8de1 0b3c
000003f0: f46d fa3d e997 c5bd 2866 113d 5650 7dba
-0.41730538 -0.3506198 -0.20892096 -0.40795818 -0.3433036 -0.33903062 -0.22084492 -0.29794797
-0.40219924 -0.32174757 -0.33915052 -0.037281226 -0.2496935 -0.35959312 -0.550711 -0.46033424
-0.24870361 -0.33128542 0.09083609 0.09065196 0.035997536 -0.08358605 0.2049926 0.01525858
-0.25008693 0.22765565 0.083545655 -0.23537534 -0.20568885 -0.30853692 -0.3800736 -0.388473
-0.31443745 -0.23634015 -0.21060377 -0.18334465 0.41426837 0.5549461 0.48048672 0.29505494
0.35686114 0.50251245 0.36147115 0.3455918 0.2710252 -0.41365275 0.026491823 -0.013377511
-0.22757877 -0.08072904 0.06739527 -0.06509021 -0.082749695 -0.15537381 -0.14512219 -0.24840078
-0.36690453 -0.34460837 -0.2252936 -0.39589757 -0.32960334 -0.25039807 -0.3402218 -0.26782876
-0.22339986 -0.14226393 -0.24837612 -0.27855644 -0.12582941 -0.11089412 -0.12679818 -0.34847715
0.2063718 0.23077093 0.30789334 0.2863494 0.19495103 0.24470077 0.23970807 0.17143385
0.13954793 0.2423164 0.14946748 0.11241401 0.40869248 0.12137506 0.25709918 0.26198897
0.2154927 0.32784516 -0.18911901 -0.46163893 -0.19670853 -0.18099569 -0.4620691 -0.2259146
-0.1784775 -0.24815695 -0.24744649 0.073672764 0.006812158 0.07720246 0.0932119 0.07563068
-0.018527072 -0.04017505 0.21309915 0.011142803 -0.2450915 -0.10507482 -0.1308779 -0.23676477
-0.17792945 -0.24934036 -0.24140443 -0.048102338 -0.23446621 0.015973506 0.060693093 -0.12556934
-0.010691299 -0.019516103 -0.0321155 0.1504276 0.04307845 0.09545938 0.1268965 0.090101965
-0.00843388 0.16414943 0.070027865 0.028482825 0.109785035 0.16834073 0.003360679 0.38968003
0.264007 0.11286316 0.2923023 0.35333616 0.2726355 0.038832873 0.17089166 0.3066775
0.1625506 0.02174266 -0.088311285 0.19355 0.09670265 0.06360661 0.16247486 0.07178102
0.04111317 0.07327301 -0.04369539 -0.027807366 0.051072404 0.08298924 0.02899964 -0.07927443
-0.095833756 0.0931123 0.14493598 -0.042689197 0.113646805 0.056742076 0.10199427 0.062085673
0.037179425 -0.011127921 0.013872971 -0.047761366 0.017842256 0.16056098 0.113247596 0.17052127
0.03808212 0.120768756 0.05318556 0.007929565 -0.21797213 0.016675416 -0.49970245 0.050850734
-0.05472438 -0.0065380363 0.01590734 -0.080672584 0.04533999 0.11729745 0.00067133614 -0.02214231
-0.043053117 -0.040662292 -0.058828328 0.13363503 0.023844162 -0.024427498 -0.060562484 0.11969212
0.10892089 -0.042462416 -0.016839338 0.10174005 -0.08111182 0.09583653 -0.07943037 0.039629918
0.1050849 0.11956953 0.14927591 0.013974814 -0.0031796468 0.16845313 0.09946347 0.047530726
0.019838996 -0.107736744 0.034611665 -0.07742869 -0.109688565 0.07815937 -0.04237587 -0.13332513
0.09521699 -0.050387405 0.039819624 0.13559654 0.059208453 -0.0063389577 -0.0907967 -0.022122774
0.02571172 -0.10922469 -0.06560321 0.15181404 0.19209956 0.16282749 0.1134113 0.060713917
-0.054050338 0.023557018 -0.053844783 0.03582106 0.015225033 0.13374217 0.107861266 -0.054005988
-0.008880691 -0.113459185 -0.060711734 0.008537662 0.12228003 -0.09648115 0.035497814 -0.0009663155

conv2.bias f4 [32]
00000000: 5ba7 f03c be12 693d f68e ac3d 604f 023e
00000010: 5e1a 523d b5ac 293e a9b0 893d a66b d83d
00000020: 6fd2 133e 9d52 033d 8f46 923c 6d58 243e
00000030: 9214 3b3e 9074 423d 08f5 ab3d 425c bc3d
00000040: fd10 1b3b 96f5 743d 4ee4 133d e12c 163e
00000050: 9ca5 093e c20d 4e3e 1788 483d 44d7 043c
00000060: 1811 323e b943 3c3e d0aa c13d 875d ef3c
00000070: ec34 8f3b c4e5 433e ede0 533d b843 f5bd
0.029376676 0.05690264 0.08425705 0.12725592 0.051294677 0.16569789 0.067231484 0.10567407
0.14435743 0.032061208 0.01785591 0.16049357 0.18269566 0.047474444 0.083963454 0.09197284
0.002366125 0.05980452 0.0361064 0.14665557 0.13442081 0.20122436 0.04895791 0.008107964
0.17389333 0.18385209 0.09456408 0.029219402 0.0043703225 0.19130617 0.051728178 -0.11975807

fc1.weight f4 [64, 800]
00000000: 7167 c3be b44c 0ebf bb8c adbe d211 05bf
00000010: ddd6 e7be 2e6c b4be 84e0 c4be 2d98 05bf
00000020: b009 f5be 18c6 20bf 7343 05bf 4ec2 ec3d
00000030: 5d3e 9dbe cb86 fabe 890e 00bf 3cec dabe
00000040: 42a1 ccbe 8d69 bdbe 9a90 f6be a793 22bf
00000050: 84c8 ffbe 33ec 3abf 653b 45bf 1eac 07bf
00000060: 1bd8 24bf 1bc4 9b3c db5f 473c bf16 34bd
00000070: 2a8a 2dbd 1d00 5f3c c124 e23c e072 263d
00000080: ff5a 2ebd 018c 01bd 3523 d73b 009b 993b
00000090: 974a b7bb 1b5a c23c f06a 39bd d7a6 8d3d
000000a0: 4813 cc3c 7d4b 04bd 9317 b03c de7c 38bd
000000b0: 48bc 733d c45d cd3a 412f 173a fa71 c1bc
000000c0: 77d6 29bd 6687 273c 8b9c 57bb 8230 f0bc
000000d0: 38e3 d0bb 437a 01be a8f2 c7bd a16c bcbc
000000e0: c5ae 1b3c 9cd2 9e3c 8321 0b3d b1e9 5bbd
000000f0: e7c1 c13c 471f cbba c90e 483d 1995 233c
00000100: 82c8 20bd 3e6c b0bc 24bb d83c 2c17 f73c
00000110: f88a 26bd b37a 9a3c 34d6 2fbd cc64 58bd
00000120: d0b8 cfbc ed72 2ebd 01e7 4ebb 4039 3ebf
00000130: 5154 5dbf 0d18 f2be a215 c4be bfa1 3dbe
00000140: b3b5 47bf 2e99 94be 0459 bebe 0f63 bcbe
00000150: f9da 423e 6e8d 393d 854d a0bd cc64 013c
00000160: 1cba e0bd 2d4c e9be c8d4 5bbd 8f90 e33d
00000170: c151 bbbc 9807 19be e0aa d2be bd55 0fbd
00000180: e53b 9dbc 864b af3c 8c6a 36bd 8806 92be
00000190: 176a 12bd 736e 88bb fc8a d0bc ed39 323d
000001a0: a3e4 cb3c a014 593d ab46 033d 836b d1bc
000001b0: b45e 353d aa3f 6b3d 4573 4f3d 3346 3d3d
000001c0: 45a7 b8bb 9e9f 863d b432 a93d 2e0f 7c3c
000001d0: c415 81bc b0f4 6e3d 7518 b8ba e6b4 e83c
000001e0: 9b1e 7f3d 669f a8ba 9980 083c 02fc 9bbc
000001f0: d421 d23d b6f2 903d ce45 f33d 13a0 1c3c
00000200: 0abb 5d3c a499 383d c925 3f3d 98b4 7e3d
00000210: 7cc6 bb3a 8ea3 743d 6f8b b73d 7add a33d
00000220: 6050 1fbc 98e3 e2bc 7a36 023d 181f 6f3d
00000230: 73ba 863d d7ee 30b9 ad92 283c 9289 7f3d
00000240: 7d03 cf3c 12c6 cb3c 8408 49bd 837d 083d
00000250: fdcf 013d a526 033d 7e5f b6bb 8bd6 3d3d
00000260: c454 0d3c cff1 1b3c 8226 e7bc 5c2b 303d
00000270: 21f6 663b d5f2 ee3c 9824 1b3d 3628 3e3d
00000280: 6855 543b 81c0 5e3c 3ae2 cf3c fbcf 13b9
00000290: 1015 963d b46f e13c 199f dcbc e834 953d
000002a0: 8063 6f3d ff6f af3d 52c0 88bc 81a8 a6bc
000002b0: 890f fc3c 03af 073d 913a 863c 28e6 87bd
000002c0: 4fb3 033d c062 833d f2fe b23d 9539 423d
000002d0: 89d9 81bd 2297 e3bc 05eb 833d cd5c b1bc
000002e0: cc8e 173c 5a31 903c f631 acbc 21da 0aba
000002f0: 2e80 b33b b459 d9bc 2a87 68bc 0400 c93c
00000300: f52c 2b3d 15cf 493a 58b2 ba3d 1ff2 a2bd
00000310: 3b81 7ebd ba68 9b3c 32c4 c73b 9e8e 543d
00000320: 14e8 173d a253 053d 5848 45bc 0104 a7bc
00000330: af22 413b 7987 8e3c fbad 2c3d 551b 67bb
00000340: 9328 ac3c e938 053d 90d1 6d3c 5bf8 31bd
00000350: d116 673c 2904 89bc 2169 343c 45b9 443d
00000360: f976 333d 1621 803d f8ba 183d 6e92 b63d
00000370: f9b4 803c e924 843c 4303 a4bc d3f9 9dbd
00000380: 1ada 043c 1e43 cfbd 50be 38bd 4056 c93c
00000390: da30 aabc 0747 4bbd 4545 47bc a133 bdbc
000003a0: e308 073d 801f 823d 664e 9bbc ccb8 193c
000003b0: 6601 e23c 5f6b bb3a e6eb 393c 54db 95bd
000003c0: c9f4 d4bd a209 de3c ffa6 6b3b 6abe 133d
000003d0: 84c0 9bbd a355 17bd 15aa 213d 73b1 673c
000003e0: 2b43 7a3a 62aa 1cbd c16c ff3c 7919 a03c
000003f0: 95d4 d83b bb6f 6a3d 9b28 aabd 0141 d43c
-0.38164857 -0.5558579 -0.3389643 -0.51980317 -0.45281115 -0.35238785 -0.38452542 -0.52185327
-0.47858953 -0.6280227 -0.52056044 0.11560498 -0.30711642 -0.48930964 -0.5002218 -0.42758358
-0.3996678 -0.3699459 -0.48157197 -0.6350655 -0.4995767 -0.7301666 -0.77043754 -0.52997005
-0.6439225 0.019014409 0.01216885 -0.043967005 -0.04236809 0.013610867 0.027605416 0.040636897
-0.04256725 -0.03162766 0.0065654763 0.004687667 -0.0055936086 0.023724606 -0.045268 0.06916588
0.024911538 -0.032298554 0.021495616 -0.045040958 0.05950573 0.0015668203 0.0005767234 -0.023613919
-0.041464295 0.010225153 -0.0032899703 -0.029320005 -0.006374743 -0.12644295 -0.0976308 -0.023001017
0.0095021175 0.019387536 0.033967506 -0.053689662 0.02365203 -0.0015496992 0.048842225 0.009984278
-0.03925372 -0.021535989 0.026456423 0.030162416 -0.040659875 0.018857336 -0.04292889 -0.052830502
-0.02535668 -0.04259007 -0.0031570795 -0.74306107 -0.8645678 -0.47283974 -0.38297755 -0.18518732
-0.78011626 -0.29023117 -0.3717729 -0.36794326 0.19028844 0.045300893 -0.07827286 0.007897567
-0.109729975 -0.4556593 -0.05366972 0.11111557 -0.022866132 -0.14944303 -0.41145992 -0.034993876
-0.019193599 0.021398317 -0.044535205 -0.28520608 -0.035745706 -0.004163557 -0.025456898 0.043512274
0.024889296 0.052998185 0.032049816 -0.02556396 0.04427977 0.05743376 0.05064704 0.046209525
-0.0056351745 0.06573413 0.08261624 0.0153844785 -0.015757449 0.05833882 -0.0014045375 0.028406572
0.062285047 -0.0012864887 0.008331441 -0.019041065 0.102603585 0.070775434 0.118785486 0.009559649
0.013533363 0.045068398 0.046666894 0.062183946 0.0014326121 0.05972629 0.08962142 0.08001228
-0.009723753 -0.027696416 0.031790234 0.058379263 0.06578531 -0.00016873643 0.0102888765 0.062387057
0.025270218 0.02487472 -0.049080387 0.033322822 0.031692494 0.032019276 -0.005565583 0.046347182
0.008626167 0.009518101 -0.028216604 0.0430101 0.003524192 0.029168526 0.037876695 0.046425067
0.003239954 0.013595701 0.025376428 -0.00014096491 0.07328236 0.027519085 -0.026931332 0.07285482
0.0584445 0.085662834 -0.016693268 -0.02034402 0.030769126 0.03312589 0.016385349 -0.06635696
0.032153424 0.064153194 0.08740033 0.047418196 -0.0634032 -0.027782027 0.06441311 -0.021650696
0.009250354 0.017601658 -0.021019917 -0.0005296786 0.0054779267 -0.026532032 -0.014192382 0.02453614
0.04179092 0.0007698399 0.091160476 -0.07956337 -0.062134963 0.018970836 0.0060963864 0.051893823
0.03708656 0.03255046 -0.012041174 -0.020387651 0.0029470136 0.017398583 0.04215811 -0.0035264094
0.021015441 0.032524977 0.014515296 -0.04344974 0.014104561 -0.016725617 0.011011393 0.04802825
0.043814633 0.06256311 0.037287682 0.08914648 0.015711294 0.016130881 -0.020021087 -0.07713666
0.00810864 -0.101202235 -0.04510337 0.02457726 -0.020775247 -0.049628284 -0.012162511 -0.023095908
0.03296746 0.063536644 -0.018958282 0.009382438 0.027588557 0.0014298967 0.0113477465 -0.07317224
-0.103982516 0.027104203 0.0035957692 0.036070265 -0.07605079 -0.036946904 0.039468843 0.014141428
0.0009546752 -0.038248427 0.031179788 0.019543396 0.0066171386 0.05723546 -0.08308526 0.025909903

fc1.bias f4 [64]
00000000: a6c3 243d 8aa6 10bd 84ca 0fbd 8883 c43d
00000010: 3e93 38bc 3847 c93d b925 953d bf8b d43b
00000020: 8ccb 6fbc 0c1f 89bc 57e8 0fbb 309f dcbc
00000030: 1912 bc3b 8065 363c ef4f 9cbb 8594 6bbb
00000040: 1d8e 083d be92 743d ca4b 0cbc f48d ed3c
00000050: 9dbf 5d3d 1d3d 353e 7de1 203d b114 073d
00000060: d4ae 7d3d b814 e43c ce62 e2bc 9546 213d
00000070: 221c 34bd 3d9f a33c 279c 333c 200e 953d
00000080: 8d40 cdbc 0140 573d 37ce 083e 3559 b43d
00000090: e1d0 b23d d6f8 87bc 5894 debc bb8c e83d
000000a0: 6dea 43bc 3c83 273d 0061 e5bc 0e4f 0f3e
000000b0: 20dc ad3a 892a 243d 1c1b afbb 43df 663a
000000c0: a35d 4fbc 1b0d 1e3e 91b8 e53c 22b3 da3d
000000d0: 407a 79bc 02fd bcbb 85de 4f3c bc85 8abc
000000e0: a2d3 d63c 9e8e af3c caca 183e 7b58 993c
000000f0: 3d43 903d 5c12 cdbb 5e23 9fbc dc38 fc3c
0.040225647 -0.035315074 -0.035105243 0.095954 -0.011265574 0.09828037 0.07282586 0.0064863856
-0.014635932 -0.016738437 -0.0021958554 -0.026931375 0.005739462 0.011132598 -0.004770271 -0.003594668
0.033338655 0.059710257 -0.008562991 0.028998353 0.054137815 0.17699094 0.039277542 0.032978717
0.061934307 0.02784191 -0.027635004 0.039373953 -0.043972142 0.019973392 0.010962523 0.07278085
-0.025055194 0.052551273 0.13359915 0.088060774 0.08731247 -0.016598146 -0.027170345 0.11354967
-0.011957747 0.04089664 -0.028000355 0.13995 0.0013264455 0.040079627 -0.005343808 0.00088070723
-0.012656602 0.15434687 0.02804211 0.10678698 -0.015226901 -0.0057674656 0.01268733 -0.016909473
0.026223961 0.02143031 0.14921108 0.018718949 0.07044075 -0.006258292 -0.019426044 0.030788831

fc2.weight f4 [64, 64]
00000000: dca8 043e 83f8 f8bd 1904 f3bd 83cb 14be
00000010: efa6 993d 8c87 e33b 64a7 7f3d 2c35 b13d
00000020: 1ff6 943d 6e2c 32bc b364 fb3d d069 793d
00000030: 3750 29bd 11d4 cebd a4e4 a43d cc19 a53d
00000040: e06c 9bbd d9c2 a0bd ad6e adbd 83e9 bd3d
00000050: 597f 8d3d dab2 d83d faba c0bd 6769 b4bc
00000060: ac23 283d 9f10 adbc 2175 d33d 2a9e 2abf
00000070: ff49 f8bb a0f3 b7bd c188 c7bd a68e 233d
00000080: 2afa a1bd 9c74 33bd 12d2 3e3d c513 f1bd
00000090: eb67 813d d990 373d 8e86 2f3d 9177 b2bd
000000a0: a140 b93d 2898 343e 8a75 0a3b 0802 143e
000000b0: 5323 c6bd 2e47 89bb c463 c33d 82d0 253d
000000c0: 3ca3 e53d acaa 703d be5d 893c e39b 933d
000000d0: be46 ff3c fa8f 9c3d 6b24 0fbe f299 afbc
000000e0: 4d81 c93d a807 573d 70cc 9cbd e5c0 eebd
000000f0: ef53 8f3d 032a 933d 7868 cd3d 4fb0 2dbd
00000100: a6b6 703d 3230 b03d 508a ddbc 69f2 723d
00000110: 3526 ebbd ac88 e8bd 9af8 c1bc e32f 783d
00000120: 67ee aa3b 2f40 f5bd fa77 5f3d fc71 bf3d
00000130: 669d bf3d 56a9 db3c 29dc 8fbd 4572 3abd
00000140: f3d9 0bbd 7be4 863d d49c 1bbd 65fd 573d
00000150: 0b1a 203d 6246 373d 015e 10bd d876 733d
00000160: 4be6 04bd f08c 53bd c4ad 45bb e6d0 c93e
00000170: cc1e 6abe e0fc 78bd 3426 193d b283 0abd
00000180: 845b bc3d f0aa dd3d cc0f a13d f1aa d5bd
00000190: 1fc2 cc3c 341e d73d b752 b93b 9a29 cc3d
000001a0: 2e05 c1bd ac3e 8cbd d843 d1bd d63d e6bd
000001b0: 686c 123d 8ee8 933d 817f b83d 5ee8 aebd
000001c0: 513f d6bd 8eac cb3c 8952 92bc 6030 583d
000001d0: 8b65 fa3d 5f24 45bd 88cb f23d 452e 9e3d
000001e0: 2919 0a3e f396 a0bc 607d 213c af35 55bd
000001f0: 552d d2bd 297f babd d01d b6bd e71d b4bd
00000200: fefb b8be 55a8 e33c fbd3 b53d 4641 5abc
00000210: dcc6 12be 32e6 7ebe a398 533e b6e9 bdbd
00000220: 900d d63d c0bc a93d 3724 7cbd eeed 60bc
00000230: 4ad2 c43d 980f b4bd 2894 87bd e0ab c7bd
00000240: 4a34 03bf 7ac4 143e f890 4b3c 45cc f63a
00000250: 5ed3 80bd ad9f d23d d386 edbb fdfd 963d
00000260: 8535 b7bc b45a 0e3e 60b9 b83c 681c e43d
00000270: 6071 9cbb c97c 93bd 2d7f adbd e259 1ebd
00000280: bec3 c23d 7b13 04bf 2b98 0e3e a310 b73d
00000290: 887e a9bd 0e03 bfbd 5395 c8be 6388 eabd
000002a0: f643 e83d 3e2b f73d 5afe ee3d 55ac b8bc
000002b0: 2110 d8bd f64c 983c d31a abbd 2436 89bd
000002c0: cd98 ed3d 2f19 ba3d 3fc7 c3bd 36b0 b83d
000002d0: 275d c63d 0ecc a8bd 3b78 efbe d7ee 29bd
000002e0: 9cea c6bd 8135 bd3d ddc7 eebd cf0f 9cbd
000002f0: 2fc3 8ebe 976d 933d f66a edbd 562e da3d
00000300: 93a8 293e f296 a03d 8ef5 0cbd 9635 29bd
00000310: f097 e43d 41fd d23d a135 26bc 51c9 99bd
00000320: 91f2 4a3c 818f 8dbd 7fef 513c a04e 773d
00000330: b44c bebd d0cf aabc 9771 b5bc 0a25 5f3d
00000340: 662b a73c a6dc b1bc b77f d63d f072 51bd
00000350: 334c 9f3d a216 5a3d 1c52 bbbc e1d6 92bd
00000360: 2fcc bdbd 2356 eb3d f029 a73d be89 9ebf
00000370: 4c23 93bd d6ed 27bd 95ca b73d 7494 803c
00000380: 9cc4 9c3d bdb0 323d 5cff 763d c9ed 483d
00000390: 8bb5 c53d f604 043e ca5f f5bc 0775 033d
000003a0: ba35 14bd 1fab 2a3e 816a 83bc ae73 213e
000003b0: 62ca cebd 5975 81bd d5c2 0f3d 1c92 e83e
000003c0: 61aa a9bd 1abe 2c3d dee9 77bd dbc8 053e
000003d0: dabb cb3d 3228 5dbd fbb5 8bbd 362a 09bd
000003e0: c804 843c 42fb b9bd 4029 21bd 90d7 dd3d
000003f0: c54b f63d a486 dcbc 652d a8bd 2150 e5bd
0.1295504 -0.12156775 -0.11866016 -0.14530759 0.07502543 0.0069436487 0.062415496 0.0865272
0.072735064 -0.010874851 0.12275066 0.060891926 -0.041336264 -0.10099042 0.08051422 0.08061561
-0.07589126 -0.07849664 -0.08468375 0.092730545 0.06909055 0.10580988 -0.09410663 -0.022022916
0.041049644 -0.02112609 0.10325075 -0.6664759 -0.0075771804 -0.08982015 -0.097428806 0.039930962
-0.07909043 -0.04381238 0.046587057 -0.11771349 0.06318649 0.044815872 0.04285293 -0.08714212
0.0904553 0.17636168 0.0021127188 0.144539 -0.09674706 -0.0041893935 0.09540513 0.04048205
0.11212775 0.058756515 0.016768333 0.072074674 0.031161662 0.07644649 -0.13978736 -0.021435712
0.09839115 0.052497536 -0.07656181 -0.116578855 0.06998431 0.071857475 0.100296915 -0.04240447
0.058767937 0.086029425 -0.027043492 0.05931321 -0.11481897 -0.11354193 -0.023678113 0.060592543
0.005216408 -0.11975133 0.054557778 0.09347913 0.09356193 0.026814144 -0.07024414 -0.045519132
-0.0341434 0.06586548 -0.03799136 0.05273189 0.039087337 0.044744857 -0.0352459 0.05943951
-0.032446187 -0.05164808 -0.0030163387 0.3941719 -0.2286331 -0.060788035 0.03738995 -0.033817
0.09197143 0.10823619 0.07864341 -0.10432995 0.024994908 0.10503808 0.0056556123 0.09968872
-0.09424816 -0.06847891 -0.10218018 -0.11242263 0.035747916 0.07222091 0.090086944 -0.08540414
-0.104612954 0.024862554 -0.017861621 0.05278051 0.12226399 -0.04813039 0.11855227 0.07723669
0.1348616 -0.019603228 0.009856552 -0.05205315 -0.10262553 -0.09106285 -0.08892405 -0.08794766
-0.36129755 0.027790228 0.08878323 -0.013321226 -0.14333671 -0.248925 0.20663695 -0.092730924
0.104518056 0.08287954 -0.061557975 -0.013728602 0.09610422 -0.08792037 -0.066200554 -0.097495794
-0.5125166 0.14528075 0.0124247 0.0018829188 -0.06290315 0.10284362 -0.0072487383 0.07372663
-0.022364387 0.13901788 0.022549331 0.111382306 -0.0047742575 -0.07201535 -0.084715225 -0.038659938
0.09509991 -0.51592225 0.13925235 0.0893872 -0.08276087 -0.093267545 -0.39176425 -0.11451795
0.113410875 0.12068795 0.116696075 -0.022543112 -0.10549951 0.018591385 -0.08354726 -0.0669978
0.1160141 0.09086835 -0.095594876 0.090179846 0.09685736 -0.08242045 -0.46771416 -0.04148754
-0.09712717 0.09238721 -0.11659215 -0.07620203 -0.27883288 0.07198637 -0.11592667 0.10653369
0.16568212 0.078412905 -0.034413867 -0.04131087 0.11161792 0.103022106 -0.010144622 -0.07509101
0.012386934 -0.06912137 0.012813448 0.060377717 -0.09291974 -0.020851046 -0.02214889 0.054478683
0.020406436 -0.021711659 0.104735784 -0.051135004 0.07778206 0.05324424 -0.022866301 -0.07169891
-0.092674606 0.11491039 0.08162296 -1.2385786 -0.07184467 -0.040998302 0.08974186 0.015695788
0.07654688 0.043625582 0.060302123 0.049054895 0.09653767 0.12892517 -0.029952902 0.032094028
-0.03618405 0.1666684 -0.016041996 0.15766785 -0.10097195 -0.063212104 0.035097916 0.45423973
-0.0828445 0.042173482 -0.060525768 0.13064902 0.09947939 -0.05399341 -0.068218194 -0.03348752
0.016115561 -0.09081127 -0.03934598 0.10832131 0.12026171 -0.02691967 -0.08211783 -0.11196924

fc2.bias f4 [64]
00000000: 8b58 833c 8c42 44bd 3d7b ed3d f66d 313e
00000010: b341 afbd 3fce 2f3e ecd1 003e cb21 6abc
00000020: c97c a43c e824 40bd 3f56 4e3e 3d9a c1bc
00000030: ab39 043e e1cc 893d 1317 143d 51b6 cfbc
00000040: 468f d03a ad58 273e eb32 af3c e114 c7bd
00000050: ed90 273e d8dd 16bb e81a 9a3d 7e33 c2bb
00000060: ae4a 353d 30d3 f93d 79a1 be3c dc60 7c3e
00000070: 8e1a 383e 9f81 b13d adec ce3d 4973 c83d
00000080: b76e acbd 56fc 3d3e 22f2 9dbc 1249 a13d
00000090: 87b3 df3d 6a1d 1d3d 60c4 423e 3f22 b13c
000000a0: 685d 2fbd 2f49 2c3d 6a46 1a3e 4fc5 9f3c
000000b0: 3b54 5dbd 0124 143e de43 20bd ef7c d3bd
000000c0: fb77 bbbd abc1 a03c 30d2 923d cabe e4bd
000000d0: 5b35 a43d 03a8 bd3b f028 9abd d132 b73d
000000e0: 66af 9cbd d2a4 7abd aaaf 843d 1eb3 083d
000000f0: d120 9abc 3b62 5abc bdf4 51bd d057 9d3d
0.016033432 -0.047915027 0.115957715 0.17327103 -0.08557453 0.1716852 0.12580079 -0.014290283
0.020079033 -0.046910197 0.20150088 -0.023633117 0.12912624 0.06728531 0.036154818 -0.02535549
0.001591184 0.16342421 0.021386584 -0.09720779 0.16363879 -0.0023020413 0.07524663 -0.0059265485
0.044260673 0.12198484 0.023270356 0.24646324 0.1797888 0.086673014 0.10103736 0.09787614
-0.08419555 0.1855329 -0.019280497 0.07875265 0.10922914 0.03835813 0.19020224 0.021622775
-0.04281369 0.04206198 0.15065923 0.019503264 -0.054035407 0.1446686 -0.039127223 -0.103265636
-0.09153744 0.019623598 0.07168996 -0.111692026 0.08017989 0.005787851 -0.075273395 0.08945239
-0.07650642 -0.06119234 0.06478818 0.033373944 -0.018814476 -0.013329084 -0.05125879 0.076827645

fc3.weight f4 [7, 64]
00000000: efa8 5cbe df40 183d 576e d73d 3b03 28be
00000010: 2eb4 0e3e 2e97 883b b920 0abe ea1b 643e
00000020: c574 b23b c059 90bc e8dc 8d3d b765 ea3d
00000030: 042e 3abe f3fe 3f3d 7f9f 963d ac36 9b3e
00000040: 03a1 03be 9e90 13be 8f10 023d 642c 543d
00000050: 189d 4ebd e203 01be f81f a6be 695b c0bd
00000060: 350a 533d e528 15be 61ad a4bd f063 19bd
00000070: 9582 2e3e 9768 ebbd 89af 72be 5bff 92be
00000080: 41fc a1be 43de cdbd 2888 cfbd 33b2 413d
00000090: 10c7 0cbd eebc b23d 8e71 a2bd ef4f 723c
000000a0: 960d 803d dd24 5abe c81e 09be 3e6a 89be
000000b0: be7c e93d 6991 093d d1d6 a93c d0be 63bd
000000c0: 526e 983e 86c6 293e e7d3 3bbd 586c b1bd
000000d0: 769f 6c3c 2ef6 443a 5668 8ebd 2006 8d3b
000000e0: 1098 d83d 47fd 73bd 0647 bebd 3d67 96bd
000000f0: c5f8 4cbd 0439 9f3d 57af 5a3d e576 8d3e
00000100: da3a 363b ca5d 113c fb21 1c3e 8c2d b8bc
00000110: dd5c c43d 396b 3fbe 8204 ecbd a678 a23a
00000120: 1b1e b9bd eeec 8f3d aefc 1abe 2bd3 863d
00000130: d500 45bd 7068 56bd ecd3 b2bc eabf 5dbd
00000140: e2a1 4b3e eaa4 dcbc eb29 bbbb aa50 ba3d
00000150: 2d4b 0dbe 25c5 f7bd b367 8b3e f3b8 b9bd
00000160: fdc7 603e a58f 053c a653 893d e7be 33be
00000170: 2cc7 3a3d 7b5d a1bd 16c6 a4bc f0ce e7be
00000180: fd38 aabd 0a17 8f3d 458a 1f3e 6ddd 1bbd
00000190: c10a 733d bb03 4c3b 8e6d 1bbe 0988 e3bd
000001a0: 509a c7bd 04a1 d5bd 38f2 99bd c149 673d
000001b0: 4c1c 343e 26b3 d33d 9811 a2bd e62e 843e
000001c0: c9af d63c 1815 bf3e 4550 fc3e 2c2c 65bd
000001d0: 8191 ce3d 746f 1ab8 d56c e5bb 3090 a93d
000001e0: 30a8 173c 11ef 4e3d f63a 733d 4bf1 923d
000001f0: 1d18 18be aa3c f73c 203d 81bd c268 313e
00000200: c9cb b03d 762d 06be e6d7 043f 7885 d23c
00000210: f8cc 993d 0d51 c2bc 35f7 733d 2a1c 583d
00000220: eacf 8b3d a052 363c a082 26be ac23 173e
00000230: b07b 3fbb 0b18 efbc cd3f 1dbd a1b0 a13e
00000240: b66a 02bc 97d3 e5bd 11a7 c9bd 2ace a5bd
00000250: f139 82bc 353e 863d 0304 633e 7d3e 7fbd
00000260: b005 b93e 5260 fabc 5595 d83d 830a 05be
00000270: 441b d23d 0eb2 5f3d 0b56 d0bd 0760 95bd
00000280: ab40 d23e 90e1 46be 8ffb a83e 8737 443e
00000290: 2e14 2dbe 3250 6cbd 7f5b 2b3d a265 e6bd
000002a0: a643 83bd 3b01 113d 782d 3bbe 491c 74be
000002b0: 159d 6c3e f1b6 c2bd 0c50 02be d0fa 81be
000002c0: b482 353c 06eb f7bd 64ba c7bd 24f6 4cbd
000002d0: 4966 0d3e 96c9 fe3e 979c 6ebd d16e 7a3d
000002e0: 3ca1 493d 2a02 8d3e 558a 473d 9e01 4fbc
000002f0: 3859 243e 90e4 b2bd cac4 963d 2c74 043e
00000300: 93e9 313d 1cba 833d a403 a43d 82d4 95bc
00000310: dec2 6cbd 5d6a c7bc 9322 dbbc dae3 0d3d
00000320: 2d73 1cbc acde 29bd 4866 ccbc 64a8 e13d
00000330: 73ee 29be 528c 2bbe 8774 ebbd b8d7 3b3e
00000340: 4522 843e 6db1 503d 1c53 db3d faeb afbd
00000350: a7c9 d0bd 0e7f 983d fee4 e9bb e0dd 17be
00000360: e097 19bd 3c39 d9bd a7ee dabd c8aa f5bd
00000370: b7b2 583e c922 12be bcc9 2dbb b1c0 4ebe
00000380: b20e 843e 683b 0c3d 7bfa 6a3e ae85 00bf
00000390: b1d9 02bd 4859 1e3c 7a32 e5bc 9697 46be
000003a0: e80d b43c fc2b 843d 7f98 d7bd d69c 443e
000003b0: 7d2a 2d3e df30 48be 05ed b23d e5a8 153e
000003c0: 1d28 61bc 62b3 f23e bb61 7fbe 1a27 80bd
000003d0: 9801 bc3e 7287 83bb 1a2b 053c 160c 38be
000003e0: 1cd9 143d ed24 38be f717 d3bd 176f ccbd
000003f0: ee11 d13e 54dc 30be 3461 953d aeee 423e
-0.21548818 0.03717124 0.105190925 -0.16407482 0.1393592 0.0041684126 -0.13489045 0.22276273
0.005446049 -0.017620921 0.069269 0.11445182 -0.18181616 0.046873998 0.0735464 0.3031515
-0.1285439 -0.14410636 0.031754073 0.051800147 -0.050442785 -0.12599137 -0.32446265 -0.09392435
0.051523406 -0.14566381 -0.08040882 -0.037448823 0.17042 -0.11494558 -0.23699774 -0.28710446
-0.31637767 -0.10052159 -0.101333916 0.047289085 -0.03436953 0.08727442 -0.07931815 0.0147895655
0.06252591 -0.21303125 -0.13390648 -0.2683887 0.11400746 0.03358594 0.020732315 -0.055601895
0.29771668 0.16579637 -0.045856383 -0.08663243 0.014442315 0.000751349 -0.06953494 0.0043037087
0.105758786 -0.059567716 -0.092908904 -0.0734391 -0.050041933 0.07774547 0.053389873 0.27629772
0.0027806074 0.008872459 0.15247338 -0.022482656 0.09588025 -0.18693246 -0.11524297 0.0012395575
-0.09038945 0.070276126 -0.15135452 0.06583246 -0.048096497 -0.052345693 -0.021829568 -0.0541381
0.19885972 -0.026934106 -0.005711784 0.09097417 -0.13798209 -0.12098149 0.27227554 -0.090684794
0.2195129 0.008151923 0.06705408 -0.17553292 0.0456001 -0.07879158 -0.020113986 -0.45275068
-0.08311651 0.06986816 0.1558009 -0.038052965 0.059336428 0.0031130153 -0.1517851 -0.11109931
-0.0974623 -0.10431102 -0.07516903 0.05646682 0.1758892 0.10336904 -0.07913512 0.2581703
0.026206868 0.3732078 0.4927999 -0.05595033 0.100863464 -3.682026e-05 -0.007001499 0.08279455
0.009256408 0.05052096 0.0593824 0.07174929 -0.14852948 0.030180294 -0.06310487 0.17325118
0.08632619 -0.1310328 0.51891935 0.025698408 0.07509798 -0.023720289 0.059561927 0.052761234
0.06826766 0.011128098 -0.16260767 0.14759701 -0.002921801 -0.02918627 -0.038390923 0.3158007
-0.007960012 -0.11221998 -0.098463185 -0.08095963 -0.01589677 0.06554834 0.22169499 -0.062315453
0.36137152 -0.030563507 0.10575358 -0.12992291 0.10259107 0.054613166 -0.101726614 -0.072937064
0.41064963 -0.19421983 0.33004424 0.19161807 -0.16902229 -0.057693668 0.041835304 -0.11249854
-0.06409387 0.035401564 -0.18279064 -0.23838915 0.23106797 -0.095075496 -0.12725848 -0.25386667
0.011078525 -0.12105374 -0.09752348 -0.050039425 0.1380855 0.49763173 -0.058254804 0.06114084
0.04922603 0.27540714 0.048715908 -0.012634663 0.16049659 -0.08735001 0.07361753 0.12934941
0.043435644 0.06431982 0.08008507 -0.018289808 -0.057803027 -0.02434271 -0.026749885 0.034641124
-0.009548944 -0.041472122 -0.024951115 0.11018446 -0.16594867 -0.16752747 -0.11496835 0.18344009
0.25807396 0.050950456 0.10709211 -0.08589931 -0.10194712 0.07446109 -0.0071378937 -0.14830732
-0.037498355 -0.1060662 -0.106900506 -0.119954646 0.21161924 -0.14271082 -0.0026517948 -0.20190693
0.25792462 0.03423634 0.22947113 -0.5020398 -0.031945888 0.009664841 -0.02797817 -0.19393763
0.021979287 0.06453702 -0.10527133 0.19200453 0.16910739 -0.19549893 0.08736614 0.1461521
-0.013742474 0.47402483 -0.24939625 -0.06257458 0.36719966 -0.004013949 0.008127952 -0.1797336
0.036339864 -0.17982836 -0.10307305 -0.09982126 0.40833992 -0.17271549 0.07293931 0.19036362

fc3.bias f4 [7]
00000000: c3d3 fabd c110 46be 1ea7 76bc a351 8abd
00000010: 73a8 d53c f3d9 b73d b29e 70be
-0.122474216 -0.19342329 -0.015054492 -0.06753852 0.0260813 0.089771174 -0.23498037
