src/models/v1.0.0-simpliest_env-10x10,1agent,0human,0shelf,1pickup,1dropoff.pth (torch, 252694 bytes, 10 tensors)

conv1.weight f4 [16, 10, 3, 3]
000000 e3 2c b5 3d e1 9d 38 3e bc b8 f4 3d 1f 0a 8a 3d
       0.08846452 0.18028976 0.11949298 0.06740212
000010 9d 49 2e 3e 60 45 bf 3e 47 9d 5a 3e 44 3c 8d 3e
       0.17020269 0.37357616 0.21349059 0.27585042
000020 ed 8d ee 3d 11 a5 39 bd b2 00 b9 bd bd bb 7f bd
       0.11648164 -0.045323435 -0.09033336 -0.0624349
000030 d6 b5 24 3d 22 88 62 3d d8 04 af bc f2 1e 27 3d
       0.040212475 0.055305608 -0.021364614 0.040800996
000040 59 57 85 3d a0 b1 b9 bc df 23 d6 bd e2 12 4e bd
       0.06510801 -0.022667706 -0.104560606 -0.050310977
000050 b0 25 7f bc b1 1e b7 3d d4 d5 26 bd 6d 68 8b bd
       -0.01557295 0.08941401 -0.040731266 -0.06807027
000060 b3 6e 5d bd 3a 08 5c 3d 3e 59 4e bd 5e fb a8 bd
       -0.05406065 0.053718783 -0.050378077 -0.082510695
000070 e8 04 98 3c da 81 06 3d 7c a3 1e bd 2d b7 51 bd
       0.018557027 0.03283868 -0.03873013 -0.05120008
000080 48 45 99 3c f0 e8 25 bd de 70 07 3d f4 e4 8d bd
       0.018709794 -0.04050535 0.033066623 -0.06928435
000090 0c 0e 9b 3c 10 a6 93 bd 6d f1 e4 3d d1 67 11 3e
       0.018927597 -0.07209408 0.11178861 0.14199759
0000a0 ac 3f c8 bd e1 e3 5a 3d eb c8 b1 bd a7 eb 92 3d
       -0.097777694 0.05343998 -0.086809 0.07173853
0000b0 39 80 72 bc 79 f5 46 3e b9 60 6c be a9 2e 2b be
       -0.0148010785 0.19429578 -0.23083772 -0.16717018
0000c0 0e c1 69 3e ad 98 29 be 17 1c 48 be 79 a7 82 3d
       0.22827551 -0.16562147 -0.19541965 0.06379599
0000d0 c1 70 49 bd 8d 2e 02 3e 7f 6f ba 3d 9f 9e d1 be
       -0.049179796 0.1271307 0.091032974 -0.4094133
0000e0 60 c9 05 3d 62 6a c6 3d 0e 11 e3 be 48 f5 b0 bd
       0.03266275 0.0968826 -0.4434895 -0.08640534
0000f0 74 7e 7e bc 18 25 27 be 8f 5b 92 bd c3 72 8f be
       -0.015533078 -0.16322744 -0.0714637 -0.28017244
000100 a5 0c 3c bd 40 06 6b 3d 18 00 c7 bd fd 2b 6b bd
       -0.045910496 0.057379007 -0.09716815 -0.057414997
000110 4c 42 cf bc 71 3a 7e bc 73 d6 98 bc f8 f1 8a bd
       -0.025300168 -0.015516863 -0.018656945 -0.06784433
000120 83 29 ca 3d ba 0f 60 be bd 04 3a 3e 03 0a 91 bc
       0.09871199 -0.21880999 0.1816587 -0.01770497
000130 b0 d9 2b be d5 31 ef 3d dc ce 85 3d ae 7e 08 3b
       -0.1678226 0.116794266 0.06533596 0.002082746
000140 2d ae e2 bc 43 0e 54 bf 33 3d 50 be fd 23 24 3e
       -0.027670944 -0.8283426 -0.20335846 0.16029353
000150 a9 c8 81 3e fa 4e c6 3e 87 e1 96 3c 3d 74 c5 3c
       0.25348404 0.3873213 0.018418087 0.024103278
000160 e4 f2 cc bc 4d 48 61 bd b4 0b 9e 3c af dd 78 3e
       -0.025018163 -0.055000592 0.01929269 0.24303316
000170 8b 24 6a 3e a1 74 d9 3d 74 ef 8e 3e 35 36 ab 3d
       0.22865503 0.10617948 0.27917063 0.083599485
000180 50 6a b7 3d 97 de 51 be 33 4d 14 3e cc fb d0 bd
       0.089558244 -0.20495068 0.14482574 -0.102042764
000190 04 70 f6 3c eb 14 cc 3d 5e 10 89 bd 47 6e b4 3d
       0.03008271 0.09964927 -0.06692575 0.08810096
0001a0 50 6b 22 bd 9b 89 79 bd 78 27 92 bc d7 97 be 3d
       -0.039653122 -0.060922246 -0.017841086 0.09306305
0001b0 b0 31 88 bd 78 12 38 bc 86 6a 77 3d 48 25 b3 bc
       -0.06650102 -0.011234872 0.060404323 -0.021868363
0001c0 62 ce 3c 3d 41 21 cb bd a1 2d 92 3d d7 1c 39 bd
       0.04609526 -0.09918452 0.07137609 -0.04519352
0001d0 5a 8e 7c 3d ac a7 a7 3c 92 fe 14 3d 40 ad b7 bb
       0.061659195 0.020465694 0.03637559 -0.00560537
0001e0 7e 42 8a bd 67 87 c3 bd 44 d8 a6 bd 22 03 71 bd
       -0.06750964 -0.0954731 -0.08146718 -0.05884088
0001f0 78 fc 49 3c 88 94 63 3c f6 b8 6d be 4a a6 0d bb
       0.01232826 0.013890393 -0.23215088 -0.0021614009
000200 58 d1 aa 3c b4 de 7a bc 80 0b 03 be 3b 7a fe bd
       0.020851776 -0.015311886 -0.12797356 -0.12425657
000210 e2 9c db 3d b9 bf 6f be e9 e2 1a 3e 12 e9 bc be
       0.107232824 -0.2341298 0.15125622 -0.3689657
000220 03 68 aa be 78 55 90 3d 8f 49 fe bd f4 53 a3 be
       -0.3328248 0.07047552 -0.12416374 -0.3189999
000230 af df 2a 3e 0b ff db bd ae d0 e7 3d 7a 15 80 3e
       0.16686891 -0.10742005 0.11319099 0.25016385
000240 fc 66 aa be e6 43 a1 be f5 59 37 bf 2a f8 db bd
       -0.33281696 -0.31497115 -0.7162164 -0.10740693
000250 44 e2 98 be 91 cb 68 be cf 13 84 3d f9 97 8d be
       -0.29860127 -0.22733904 0.06449091 -0.27655008
000260 32 29 80 bf b7 f0 18 bc 18 ef 6b bc 13 e8 59 3c
       -1.0012572 -0.009334735 -0.014400266 0.01329996
000270 19 e6 38 bd bd 82 f6 bd 1c f0 d0 3b fd ae 8d 3d
       -0.045141313 -0.12036655 0.0063762795 0.06918142
000280 44 e7 df 3c 43 de 0c be 92 31 b8 be 42 8a 78 bc
       0.027331956 -0.13756661 -0.3597532 -0.015169682
000290 68 2b c8 3d 1e 11 94 bd f7 b7 97 3c da fa 15 bd
       0.09773904 -0.07229827 0.018520338 -0.036616184
0002a0 52 cf e0 3d 5b 3e 75 be 97 c4 1f 3e 89 cd 79 3c
       0.10977043 -0.23949568 0.15602337 0.015246757
0002b0 fc eb 02 be 8f 1f 37 be ba 24 81 be 36 78 e2 3e
       -0.12785333 -0.17883132 -0.25223333 0.4423234
0002c0 2d 6f 06 3e 86 4a c3 bd 57 26 e6 bd f1 5a 5f 3d
       0.13128348 -0.095356986 -0.112377815 0.054530088
0002d0 50 64 93 bd 86 c9 9b 3e 9f 30 82 3e cd f2 41 3e
       -0.071968675 0.30427188 0.2542772 0.18940277
0002e0 a7 72 f2 3d 77 11 92 3e 19 12 27 3e 47 72 41 bf
       0.118382744 0.2852895 0.16315497 -0.75565
0002f0 a9 c7 13 3e 20 6b 28 3c 6c d5 0b bd 16 af ba bd
       0.14431633 0.010279447 -0.03413908 -0.09115426
000300 b3 8a 5d bd 04 a7 b2 3c a2 89 46 3d c0 33 5d bc
       -0.054087352 0.021808155 0.0484711 -0.013501108
000310 18 06 b4 bd ab 7a 8c 3d 36 11 2d 3d 73 27 8e 3d
       -0.08790225 0.068593346 0.04225274 0.06941118
000320 6e 43 10 3d 34 77 a5 3c d0 e0 8d bd e8 c4 08 bc
       0.035220556 0.020198442 -0.06927645 -0.008347727
000330 80 67 4f 3b 32 04 8a bd 45 42 42 bd f0 8b 22 bd
       0.0031647384 -0.067390814 -0.04742648 -0.039684236
000340 80 e5 ce ba 40 e7 aa bc 49 de 8b 3d c0 57 de bb
       -0.0015784949 -0.020862222 0.06829507 -0.006785363
000350 7c d4 d3 bc 2e d1 bb bd 7a f4 a9 bd 3c c7 8f bd
       -0.025858156 -0.09170757 -0.08298583 -0.07020423
000360 f1 c3 96 3d 52 d7 87 3d 22 a0 8f bd 98 94 bf 3d
       0.073615916 0.06632866 -0.07012965 0.09354514
000370 35 7d da bd 19 67 99 bc 65 bb fe bc fd cc c8 bd
       -0.106684126 -0.018725919 -0.031095216 -0.098047234
000380 cc 84 27 3e 31 bd 0f 3e 22 60 1a 3e 87 43 f0 3d
       0.16359252 0.14037015 0.15075734 0.1173163
000390 a2 f1 eb 3d 2d 1e 3b be cc 7c 11 3e 83 57 3e 3e
       0.11520697 -0.1827323 0.14207762 0.1858807
0003a0 48 96 b8 3d 89 32 61 be 38 18 9a 3e 2e a4 39 be
       0.09013039 -0.21991934 0.30096602 -0.18129036
0003b0 ce fb 38 be 3a ab 9e 3e 71 69 47 be c2 c7 fb bd
       -0.18064806 0.3099001 -0.19473816 -0.1229396
0003c0 e3 dd 41 bd a2 bd 38 be 4d 17 1b be d1 3b 2b bd
       -0.04733075 -0.18041089 -0.15145607 -0.041805092
0003d0 fb 09 e6 bd 8d f3 25 bc b5 19 6b bd f6 5e a1 bd
       -0.112323724 -0.010128868 -0.057397563 -0.078794405
0003e0 f4 e4 85 3d f9 0d 93 3d b6 4e be bd 82 14 4b bd
       0.0653781 0.071803994 -0.09292357 -0.049580105
0003f0 03 d5 37 3d f3 de 7b bd af 20 07 be fd 05 c1 3c
       0.04488088 -0.061491918 -0.13196062 0.023562426

conv1.bias f4 [16]
000000 22 c6 8b 3e 4c 7a 98 3e c6 0b 39 3e 0c f2 5d 3e
       0.272996 0.29780805 0.18070897 0.21674365
000010 f8 ea 50 3e 9a 43 08 3e 62 ba 77 3e b6 21 28 3e
       0.20402133 0.13307038 0.24192193 0.1641911
000020 fd 72 5b 3e a6 2e 49 3e a0 88 73 3d 00 31 40 3e
       0.21430583 0.19646701 0.059456468 0.18768692
000030 f3 c5 82 3e e3 51 7a 3e 51 71 7f 3e 1a f9 20 3e
       0.25541648 0.244453 0.2494557 0.15720025

conv2.weight f4 [32, 16, 3, 3]
000000 e3 47 5a 3d 04 07 d3 3d 50 de 54 3d 35 1c 38 3e
       0.053291213 0.103040725 0.051969826 0.1797951
000010 03 52 ad 3e 50 09 88 3e 74 cd 73 3e 71 34 e3 3e
       0.33851632 0.26569605 0.23808843 0.44375947
000020 64 be 3b 3e c9 dc 86 be d0 97 58 3e c9 b3 3c 3e
       0.18334347 -0.2634032 0.21151662 0.18427958
000030 ba 9e 07 be 51 cd b7 3e ce bb dd 3e 5d 61 16 be
       -0.13244143 0.3589883 0.43307346 -0.14685579
000040 f3 97 93 3e 8a 62 ec 3e 28 b0 91 bc 9b d5 92 bd
       0.28826866 0.4616893 -0.017784193 -0.07169648
000050 e7 0f 9f bc 5d 18 ed 3c f4 17 fa 3e a6 55 49 3e
       -0.019416763 0.028942281 0.488464 0.19661579
000060 9a a5 c3 3d a5 a0 0d 3f 7d db b3 3e d1 08 6e 3e
       0.0955307 0.5532325 0.35128394 0.2324555
000070 ca 06 85 3e 77 6c 9e 3e bd 09 3a bc 01 5e 6b 3e
       0.25981742 0.30942127 -0.011354861 0.22985078
000080 54 14 3f 3e 4d 02 2c bd 2b 66 d9 3d 43 1b 19 3d
       0.18660098 -0.04199438 0.1061519 0.037379514
000090 87 36 22 be bc 7b 2a be 74 e2 2b 3c a2 a5 92 3c
       -0.15841113 -0.16648763 0.010491002 0.017901246
0000a0 b3 dd fb 3d c7 4b 4c 3e 84 90 8e 3d bd 2f ab 3e
       0.12298145 0.19950782 0.06961158 0.3343486
0000b0 42 60 b4 3e 8b 19 8d 3d 29 08 2a 3e 11 cd 61 3d
       0.3522969 0.068896376 0.16604675 0.055127207
0000c0 b1 f7 b1 3d fb 7b 99 3e da 8d b8 3e a0 1d 71 3d
       0.086898215 0.29977402 0.36045724 0.058866143
0000d0 84 6f b5 3e 93 fc bd 3e 99 5d 8c bb a2 84 5d 3d
       0.35436642 0.3710676 -0.0042836186 0.054081567
0000e0 17 c9 8f 3e 6a cc c5 3d e1 62 4f 3e 18 21 c2 3e
       0.28083107 0.096581295 0.20252563 0.37915874
0000f0 57 98 b7 3d 20 6b f1 3d 7b 8e 5b 3e 05 a1 1f 3d
       0.089646034 0.117880106 0.2144107 0.03897192
000100 59 e3 be 3c bd ad 16 3e ec 63 ab bc 1d 74 38 3e
       0.023301767 0.14714713 -0.02092167 0.18013044
000110 c3 55 ba 3e d4 82 7c 3d 43 92 52 3e 56 28 94 3e
       0.36393556 0.061648205 0.20563607 0.28937024
000120 8f 67 1a 3e 0b b4 1a 3e 27 37 6e 3e 5a 5f 8b 3d
       0.15078567 0.15107743 0.23263226 0.06805296
000130 48 a5 a1 3e 74 db 8a 3e 8b 5c de 3d af 43 35 3e
       0.31571412 0.27120554 0.10857495 0.177016
000140 f9 05 c4 3d d6 49 5d 3e 1f 27 95 3e 29 1f ed 3d
       0.09571452 0.21610197 0.2913141 0.11578209
000150 7c 85 9f 3e a6 b4 ca 3e 2e 60 7c 3e dc 5d 80 3e
       0.31156528 0.3959095 0.24646065 0.2507161
000160 b3 ba 35 3e 2a cb 0c bd 91 19 6e 3e f1 ab 72 3e
       0.17747001 -0.03437344 0.2325194 0.23698403
000170 95 7d 2e 3e c2 ac 95 3d 8a 26 aa 3e 1f 78 40 3e
       0.17040093 0.073083416 0.33232528 0.18795823
000180 23 28 f4 3c 3c 87 e3 3d ec b8 6f be 19 21 06 3d
       0.029804295 0.11109778 -0.23410386 0.032746408
000190 b2 83 de 3d b6 07 70 3e 87 42 b7 3d e2 8f 34 3e
       0.10864963 0.23440441 0.08948236 0.17633012
0001a0 95 b2 a6 3e 62 84 1d 3c ee 85 29 3e f5 1b b5 3e
       0.32558122 0.009614082 0.16554996 0.35372892
0001b0 44 4b 46 3e 7f e2 8a bc db 19 d5 3c 93 62 3b 3e
       0.19364649 -0.016953705 0.026013305 0.18299322
0001c0 b0 53 7d 3d 5d f3 1e 3e e4 83 91 3d 1b b0 cb 3d
       0.06184739 0.15522523 0.07105234 0.09945699
0001d0 0b df a8 3d 21 31 d5 3d 8e da be 3d b7 b3 b5 3d
       0.08245667 0.10409761 0.0931903 0.088721685
0001e0 07 87 b4 3e c1 71 d5 3e 4c 2c 81 3e 50 30 94 3e
       0.35259268 0.4168835 0.25229108 0.2894311
0001f0 b9 31 ad 3e 17 e0 b6 3e 69 1f 8c bd ae fb a9 3d
       0.33826998 0.35717842 -0.068419285 0.08299957
000200 89 4e 9f 3d a6 5b 8e 3d 49 ad 5c 3e 68 10 28 3e
       0.07778651 0.06951074 0.21550478 0.16412508
000210 41 c1 b7 3c 20 d6 d8 3d 8d 31 8f 3e 16 d2 9f bd
       0.022431018 0.10587716 0.27967492 -0.078037426
000220 96 e6 d9 3b 73 93 16 3e 15 84 db bc ac 1f a2 3d
       0.0066498024 0.14704685 -0.02679638 0.07916197
000230 f6 6e 93 3e aa 84 fd bd 26 86 a8 bc 48 67 20 3e
       0.28795594 -0.12378819 -0.02057178 0.15664399
000240 f2 56 0f bd 6d b7 a9 3e 25 9a 37 3e 40 81 ab 3c
       -0.034995027 0.33147755 0.17929895 0.020935655
000250 fc 6c cc 3e 82 35 b9 3e 33 be 96 bc 40 5f 5b 3e
       0.39926898 0.36173636 -0.01840124 0.21423054
000260 50 34 72 3e f6 4c 98 be b2 89 57 3e a4 c1 b6 3e
       0.23652768 -0.29746217 0.2104862 0.3569461
000270 ca 62 a8 be 39 c0 c3 3e 2d fc fa 3e 95 c9 96 be
       -0.3288787 0.38232592 0.4902052 -0.2945067
000280 d6 0c 40 3e e7 ad db 3e 54 a1 c5 bb 55 6f 47 3e
       0.18754897 0.42906114 -0.0060311947 0.19476064
000290 ac cd df 3d d3 ee 0d bd 48 57 fb 3e 80 1b 85 3e
       0.10927901 -0.03465159 0.49090028 0.25997543
0002a0 c7 18 4d 3d 33 06 c0 3e 9f fa ac 3e 9d 96 bb 3d
       0.050072458 0.3750473 0.3378496 0.091595866
0002b0 68 65 8a 3e fc 76 b3 3e 9f 50 b8 bc 92 6f 23 3e
       0.27030492 0.35051715 -0.02249938 0.1596053
0002c0 aa 24 96 3e 66 c5 05 be 25 05 5d 3c 83 7c d5 3d
       0.29324847 -0.13063583 0.013489996 0.10424139
0002d0 f5 2c 4f bd 63 70 10 bd 01 0f 4a 3d 3c 72 00 3e
       -0.050579984 -0.03526343 0.049330715 0.12543577
0002e0 c9 7d b2 3e 1e 01 9d 3e 90 03 d8 bc 97 41 a9 3e
       0.3486159 0.30664915 -0.026368886 0.33057854
0002f0 cd a4 93 3e 8d 50 b6 3c 90 11 ab 3d 96 64 b3 3b
       0.2883667 0.022255206 0.08352959 0.0054746373
000300 5b fc 9f 3d 4f 14 f5 3e 55 0f 75 3e f8 3e 04 3e
       0.07811805 0.47867057 0.2393163 0.12914646
000310 d9 0b af 3e 0f a4 c4 3e 06 00 22 bc 7d 5e 84 3d
       0.34188727 0.38406417 -0.009887701 0.06463335
000320 86 41 5c 3e 33 76 8a bd 04 ea 8a 3e 63 95 a9 3e
       0.2150937 -0.06760826 0.27131665 0.33121786
000330 63 be 01 3e 89 c2 92 3d 81 41 12 3e 25 3a 91 3d
       0.12670283 0.07166011 0.142828 0.07091168
000340 9c 11 57 3e 1a eb 0a 3e b6 17 15 be c4 84 bc 3e
       0.21002811 0.13566247 -0.14559826 0.36820042
000350 bd 10 c6 3e bf ef 76 bd d7 58 bf 3e fb d2 7a 3e
       0.38684645 -0.060287233 0.37372467 0.24494545
000360 e3 de 6b 3e fd df 4b 3e ac 7f a6 3e 29 28 70 3e
       0.23034243 0.19909663 0.3251928 0.2345282
000370 86 65 ee 3e fa 7b 98 3e 45 5e da 3d fa 6d 98 3e
       0.4656183 0.29782087 0.10662512 0.29771405
000380 98 cd 20 3e b2 55 90 3e 01 82 c5 3e aa 07 a5 3e
       0.15703428 0.2819038 0.38575748 0.3223241
000390 87 03 94 3e 03 18 d1 3e 79 0c 7b 3e 8a d0 96 3d
       0.2890894 0.40838632 0.24516477 0.073639944
0003a0 4f 2d b3 3e 8d 28 0b 3e b1 ea 1f 3e ef c3 5e 3e
       0.34995505 0.13589688 0.15616871 0.2175443
0003b0 e1 52 d4 3d 54 b7 93 3e af 34 04 3f cb 13 f3 bc
       0.103673704 0.28850806 0.5164289 -0.029672524
0003c0 9d 01 89 3e e2 0f 98 3e d2 2d 41 be a9 55 cd bd
       0.26759043 0.29699618 -0.18865135 -0.10026104
0003d0 3f b5 57 3e ee 09 a8 3e eb 02 89 3c 28 e3 ad 3e
       0.21065234 0.32820076 0.016725024 0.3396237
0003e0 dd 3b f0 3e 04 25 21 3c d4 4f 5d 3e c5 b7 59 3e
       0.46920672 0.009835485 0.21612483 0.21261509
0003f0 a8 33 85 3d 58 29 51 3d 1d ac b8 3d be 4e cd 3d
       0.06503993 0.05106482 0.09017203 0.100247845

conv2.bias f4 [32]
000000 35 0b 46 3d db e9 a8 3c f2 9d b7 3d 1d 90 8c 3d
       0.04835053 0.020619323 0.089656726 0.06863425
000010 52 c0 ac 3d 05 67 39 3d f1 5f 99 3d dd fd 6e 3d
       0.0843512 0.045264263 0.074890025 0.05834757
000020 5c 53 16 3d 0a 24 b7 3d 80 75 ba 3d a6 d0 e6 3d
       0.03670059 0.08942421 0.091044426 0.11270265
000030 44 ef e4 3d 4b d8 06 3d b9 e3 3f 3d 40 bc e0 3d
       0.11178449 0.032921117 0.046848033 0.10973406
000040 c0 7f ae 3d 3c 5e 94 3d 4c 0b 02 3e 56 f9 f6 3d
       0.0852046 0.07244536 0.12699622 0.12059276
000050 34 2a 3d 3d 9b 52 d9 3d d8 7d 13 3e 20 4e bd 3d
       0.046182826 0.10611459 0.14403474 0.09243417
000060 ad 68 ad 3d 4b 7f 83 3d a2 9d 41 3d fe e2 fb 3d
       0.08467231 0.064207636 0.04726947 0.12299155
000070 d3 12 85 3d 57 09 02 3e 12 81 de 3c fd bb 69 3d
       0.06497731 0.12698875 0.027161155 0.057064045

fc1.weight f4 [64, 800]
000000 8b c0 08 3c c6 0a 0e 3d 79 e3 b0 bc cf dc 76 bc
       0.008346687 0.034678243 -0.021592842 -0.015067293
000010 fd 06 8d 3c 5f 4f f1 bc bc 39 b7 bc b1 8f 08 3d
       0.017215246 -0.029456792 -0.022366397 0.03334016
000020 5d 9f f9 bb d0 c6 56 bc 0e 6a 08 3c 60 92 1c bc
       -0.0076178745 -0.013108924 0.008326067 -0.009556383
000030 f0 13 5a bc 7b 36 8f bc 10 74 29 bc 54 8f 85 3c
       -0.0133104175 -0.017482033 -0.010342613 0.016303696
000040 a7 b0 e2 bc 6b 34 94 3c 39 1c d7 3c bb 5a 10 bd
       -0.027672125 0.018091401 0.026258575 -0.035242777
000050 86 ce 58 bc c1 2a 08 3d 4e 73 ae bb 06 ee 8d 3b
       -0.013232833 0.0332439 -0.005323804 0.004331353
000060 ec 52 13 3c 64 8c b7 3c bc 5c 66 bc 53 89 ff 3c
       0.008991938 0.02240581 -0.014060196 0.031193411
000070 44 d7 37 bb be 32 ea 3c a3 73 97 3c fe a6 d2 bc
       -0.0028051892 0.028588649 0.018487757 -0.025714394
000080 28 df d1 3c bf 59 60 bb 58 f0 bb 3c 98 28 fa bc
       0.025619105 -0.003423318 0.022941753 -0.030536935
000090 b9 bd 3e bc 85 11 82 bc 62 32 70 3b 64 ba e4 bb
       -0.011641913 -0.015877495 0.0036651124 -0.0069802273
0000a0 db eb 9c 39 46 25 6e 3c ce ee 33 bc d7 ef d4 3b
       0.00029930365 0.014535254 -0.010982228 0.0064983177
0000b0 03 49 25 3c a3 29 ed 3c d1 20 10 3d e2 81 c9 3c
       0.010088208 0.028950518 0.035187546 0.024598066
0000c0 98 33 9f 3c a0 f0 08 3d b6 c5 f6 3c 31 e7 40 3c
       0.019433782 0.033432603 0.030123573 0.01177387
0000d0 df 1d ed 3c 23 71 d5 bb 3f 8d 00 bc e1 df 78 3c
       0.028944908 -0.006513731 -0.007846176 0.015190096
0000e0 a5 1d 4f bb b7 fd ab 3c 88 4f 01 bd c9 e0 58 bc
       -0.0031603363 0.020995004 -0.031569988 -0.013237187
0000f0 86 85 52 bc cf 06 04 3d 9d ab 14 3c f1 90 51 3b
       -0.012849217 0.032233056 0.009074119 0.003197726
000100 97 12 98 bc 0c 04 9f 3c 00 f8 8a 3b 79 45 01 bd
       -0.018563552 0.01941111 0.0042409897 -0.031560395
000110 d9 c6 0d bd b9 8d 01 bd 0e 7b f7 3c 0d df d0 3c
       -0.034613464 -0.031629298 0.030210044 0.025496984
000120 76 0b af ba e8 59 de bc 57 a7 24 bb 14 5c bc 3b
       -0.0013354856 -0.02714248 -0.0025124156 0.0057482813
000130 b5 78 8e 3c 3e 98 24 3c 92 17 49 3c 9a 71 04 3d
       0.017391542 0.010046063 0.012273686 0.0323349
000140 5b 23 63 bc 74 00 8d bc f3 5a 86 3c f6 b9 9e 3c
       -0.01386341 -0.01721213 0.01640079 0.019375782
000150 da ef f6 bc 82 0f 83 3c b7 1f 07 bc 83 8b 6e 3c
       -0.030143667 0.015998606 -0.0082473075 0.014559629
000160 6a d6 45 bc 85 a8 f8 bc c0 6e da 3c ea 61 ac bc
       -0.012075046 -0.030353794 0.026664138 -0.021042783
000170 06 8e b1 3c 0f 82 f3 bb 51 6b 89 3c bf e3 de bb
       0.021674167 -0.0074312757 0.016774805 -0.006802052
000180 49 4a ba bb 6c 1d 01 bc e5 1a 0d bd 2c 8b 60 bc
       -0.005685125 -0.00788055 -0.034449477 -0.013705056
000190 3a e9 00 3d bd e0 7f bc eb a8 e3 3c 89 0b 75 3b
       0.031472422 -0.015617547 0.027790507 0.0037390909
0001a0 41 c2 d7 3c 94 09 b7 ba 60 dc ac bc c5 18 88 3c
       0.026337745 -0.0013964646 -0.021101177 0.016613374
0001b0 da a5 b5 bc d8 30 00 3c e7 d1 d2 3c 40 53 0b 3d
       -0.02217381 0.007824145 0.025734855 0.03401494
0001c0 0b 8b b7 3c 60 cf 0e 3b a2 4b 17 3c ab 55 b4 3c
       0.022405168 0.0021791086 0.009234341 0.022013506
0001d0 5d 10 b9 3a 7e 78 de bc b2 1f 0a bd 79 04 12 3c
       0.0014119257 -0.027157065 -0.033721633 0.008912199
0001e0 9d 06 9f 3c 59 e6 c4 3c 4f 8b b3 bb bc a1 82 3b
       0.019412333 0.02403562 -0.0054792534 0.0039865654
0001f0 0f 98 bb 3b 1c b8 fe 3c 02 27 f9 bc 97 74 84 3c
       0.005724914 0.03109365 -0.030414108 0.016168876
000200 e2 4e a3 3c 4f 07 a4 3c 92 0a e1 bc 99 41 06 bc
       0.019935075 0.020023016 -0.02747086 -0.008194351
000210 69 3c c9 bc 3e 26 49 3b 6a a3 c9 bc 84 d3 e4 3c
       -0.024564939 0.003069296 -0.024614055 0.02793289
000220 c8 4a 03 bc 6f cb 95 bc f1 e8 eb bc 4a 1c a4 bc
       -0.008013435 -0.018285481 -0.028797599 -0.02003302
000230 7c 9a e7 3c be 97 2d bc ea e6 96 bc a7 05 0e 3c
       0.028271906 -0.01059526 -0.018420655 0.00866834
000240 04 31 c7 bc 29 47 0e 3d 6d 5b d5 bc 8f 20 a4 bc
       -0.024315365 0.034735832 -0.026044572 -0.020035056
000250 78 4e 35 ba 57 1d 8f bb 08 82 e1 bc 67 28 66 bb
       -0.0006916295 -0.0043675113 -0.027527824 -0.0035119297
000260 78 6b f2 3c 96 4d a3 3c 82 17 0d bc 45 a0 e7 bc
       0.02959226 0.019934457 -0.008611562 -0.028274665
000270 cb 18 59 bb e0 f9 08 bc 2d 3d 99 3b 90 48 a4 bc
       -0.003312635 -0.008360356 0.004676482 -0.020054132
000280 13 54 9e bc d8 2e 43 bc 6c ae 0f 3b 5c ed 52 bc
       -0.0193272 -0.011913024 0.0021924032 -0.012873974
000290 be 0c ba bc 12 e5 6e 3a c3 6b 25 bc 65 95 59 3b
       -0.022711154 0.00091131136 -0.010096493 0.0033200618
0002a0 51 f1 ce 3c 48 3b ad ba 48 6e 6e 3c 1b 57 ba 3c
       0.025261553 -0.001321652 0.01455266 0.022746613
0002b0 f5 90 6c 3c 46 6b ee bc e1 be e4 bc 01 50 5c bc
       0.014438857 -0.029103886 -0.02792305 -0.013446809
0002c0 22 c6 ee 3b 3d ae e3 3c 5e 81 09 bd ad c2 10 bd
       0.007286803 0.027793044 -0.03357064 -0.035341907
0002d0 b0 8e 96 3c 3e 8f 96 bb 6b a5 8a bc ca 6c d0 3b
       0.018378586 -0.0045947125 -0.01692458 0.006360625
0002e0 fe 78 ba bb bc cd 08 3d f9 53 38 3b 15 0f 12 bd
       -0.005690693 0.03339933 0.0028126223 -0.035658915
0002f0 7b 25 fb bc d3 52 09 bd 87 75 49 3b 96 09 f7 3c
       -0.03065752 -0.033526253 0.0030740218 0.030155938
000300 ca 4d 6d bc 76 a7 ab bb c7 a3 2d bb 86 57 a2 bc
       -0.014483878 -0.0052384688 -0.0026495324 -0.019817125
000310 44 d7 cd ba 4d 1d c8 3c cc dc 8a bc 5c 15 56 3a
       -0.0015704413 0.024428034 -0.016950987 0.0008166635
000320 e2 c5 e1 3c 48 b5 4f bb 48 95 81 3c 6a ac a4 bb
       0.027560178 -0.0031693745 0.015818253 -0.005025436
000330 6c 89 f3 bc c4 48 0c bd 67 a6 c6 3c 75 c9 5a bc
       -0.029728614 -0.034249082 0.024249269 -0.013353695
000340 e1 92 dd 3c b2 46 a2 3c c6 2d da 3c 16 a6 05 3d
       0.027047576 0.0198091 0.026633155 0.032629095
000350 4d bb 18 39 b1 7f 05 bd 2b 7f db bc 45 19 9b 3c
       0.00014565625 -0.03259248 -0.026794037 0.018932948
000360 bc 55 a1 bc 3f a9 d5 bb 7e 4b f6 ba 90 9d 30 bc
       -0.019694202 -0.00652042 -0.0018790809 -0.010779753
000370 32 c6 e1 3b 9a dd 20 bc 9f 46 4f 3c 51 e4 0b bd
       0.006890082 -0.009818459 0.012651115 -0.034153286
000380 69 ce 0c bc e0 9b 91 3c 72 38 05 3d bc 3e 83 3c
       -0.008594134 0.017774522 0.032524534 0.016021125
000390 df 04 ab bc ab 61 8c bb 7f d7 50 bc f0 ba 0d 3d
       -0.020876346 -0.004284104 -0.012746691 0.034602106
0003a0 b1 5f 0b bd 40 73 44 ba 82 27 a1 3b dc 7b 84 3b
       -0.034026805 -0.000749398 0.00491804 0.0040430855
0003b0 a0 e1 55 bb 90 0b a8 3c 6a 2f 7d bc 87 d6 d2 bc
       -0.0032635704 0.020513326 -0.015453199 -0.02573706
0003c0 a0 9e e8 bb 56 3a e6 bc 03 23 6a bc 77 2e 23 ba
       -0.0070989877 -0.028103989 -0.014290574 -0.00062248803
0003d0 c7 f9 77 3c 43 ef cd 3c cd 70 d6 bc 29 93 ef bc
       0.015135235 0.025138503 -0.026176834 -0.029244976
0003e0 79 df e0 3c ac dd d3 3a 2c eb 0a bd 38 7a e0 3c
       0.02745031 0.0016164086 -0.033915684 0.027402028
0003f0 18 20 81 3c 1f c3 0a bd fe 03 54 3c f7 53 f7 3b
       0.015762374 -0.03387749 0.012940405 0.007547851

fc1.bias f4 [64]
000000 4c 48 10 3c 72 05 6a bc af 96 4f 3d 08 a3 a2 bc
       0.008806299 -0.014283525 0.050680812 -0.01985313
000010 33 5c a0 3c ae ac 0a 3d 70 f1 9f 3b cb 49 a5 3d
       0.019575214 0.033856086 0.0048810765 0.080707155
000020 c9 48 8c bc 56 c2 2c bc 84 60 81 bc 09 96 b1 3c
       -0.01712455 -0.01054438 -0.015793093 0.021677988
000030 1b 00 c9 3d 1d ef 92 3d f2 d5 f8 3c 8c ca fe 3c
       0.09814473 0.071745135 0.030375455 0.031102441
000040 d1 4d 12 3b 5a 61 96 3c 10 36 81 3d 3f 6a b0 bc
       0.0022324214 0.018356968 0.0630914 -0.021535037
000050 90 89 d7 bb 84 88 0c 3c 15 18 79 bc 3c 3f 3f 3a
       -0.006577678 0.00857747 -0.0152034955 0.00072954944
000060 80 6d a6 bc e0 d2 a1 3d 53 84 a6 3d 3d fe ab 3b
       -0.020315886 0.07901549 0.081307076 0.0052488134
000070 81 98 d4 3c 74 c1 33 3c 21 a4 67 ba d7 2b 22 bc
       0.025951626 0.010971416 -0.0008836408 -0.009898148
000080 e0 b8 0a bc bb 4e 66 3d 1d 56 f3 3c 42 28 90 bc
       -0.008466929 0.056227427 0.029704148 -0.017597321
000090 72 61 dc b9 30 40 00 3d e5 ac 24 bb 5b 02 99 3d
       -0.00042034272 0.031311214 -0.0025127467 0.074711524
0000a0 24 75 50 3c 89 1b fd 3c b1 0c 89 3c 18 e7 fc 3c
       0.012723241 0.030896919 0.016729685 0.030871913
0000b0 3c e2 49 3d f0 ec 85 bc 27 57 09 bb 43 e4 74 3d
       0.04928802 -0.016348332 -0.0020956488 0.059788
0000c0 f6 d8 a6 3c 6b f5 c3 3d b0 b2 b8 3d a6 f2 a0 3b
       0.020367127 0.09568294 0.09018457 0.0049117384
0000d0 50 51 d5 3c ab c0 ba 3b a0 e5 3c 3d 7c 37 37 3d
       0.02603975 0.0056992373 0.046117425 0.04473065
0000e0 6b 19 6e bb 15 1f 29 3d 28 dd 12 3c da 50 22 3c
       -0.0036331068 0.041289408 0.008963861 0.009906972
0000f0 02 b1 e8 3b 63 b0 4d 3d 40 0e 12 bc 2c df 12 3c
       0.007101179 0.050217044 -0.00891453 0.008964341

fc2.weight f4 [64, 64]
000000 f7 c2 e7 bd 48 47 e0 bc b4 8e fa bd a0 e3 12 bc
       -0.113164835 -0.02737774 -0.1223425 -0.008965403
000010 54 05 b8 bd a0 7e fb 3b 4c 9f 56 bd 7f 82 8a 3d
       -0.08985391 0.007675007 -0.05239801 0.067631714
000020 00 e5 47 3d 9c 36 07 bd 62 fa 7c 3d 6c 96 df 3d
       0.048802376 -0.033011064 0.06176222 0.109173626
000030 5a ef 4c 3d e1 cc e7 3d c8 23 d1 bd 14 39 99 3d
       0.05003295 0.113183744 -0.10211903 0.0748159
000040 19 0a 32 3b a0 b6 53 3c cf b0 8d bd b7 92 93 3d
       0.0027166663 0.012921959 -0.06918489 0.07205718
000050 f9 f6 5b bd bd b4 cd 3d 8c b4 fb bd c2 03 75 3d
       -0.05370233 0.10044239 -0.12290296 0.059818037
000060 bc 67 7c 3d 67 55 10 bd c5 17 94 3d 76 b6 cb 3d
       0.061622366 -0.035237696 0.07231096 0.09946911
000070 3e 84 11 3e 5a b0 b6 3d ca 48 d9 bd 51 c4 b3 3d
       0.14210603 0.08920355 -0.106095865 0.08777679
000080 43 2b 4e bb 10 46 08 be cf de 07 3e 20 f0 1c 3c
       -0.0031458891 -0.13307977 0.13268588 0.009578735
000090 ec 43 c0 3c 18 e0 a0 3d df da 98 bc 98 9d 6c bc
       0.023469888 0.078552425 -0.018659053 -0.01444187
0000a0 80 19 67 bb 63 e7 85 bc 31 dc ad bd 0b 19 19 3e
       -0.0035263002 -0.016345685 -0.08489264 0.1495096
0000b0 44 ce ba 3d 25 f7 26 3e 18 41 fc bd a3 de ac 3d
       0.09121373 0.16305216 -0.12317103 0.08440902
0000c0 f1 63 03 3e 9b e0 bc 3d 0d e8 30 3d 80 14 e3 3c
       0.12831093 0.092225276 0.04319005 0.027719736
0000d0 c8 c4 e3 3d 22 32 9d 3d 27 c3 31 3d ed 6f 95 bc
       0.111215174 0.07675578 0.043399002 -0.018241847
0000e0 23 a5 3c 3d 0b 1d ef 3c 75 ec 47 3d fc 8d 4a 3d
       0.046055924 0.029188653 0.048809487 0.049451813
0000f0 ab a0 80 bd 48 a4 1d 3c 60 ca b3 3d c2 ff 8c bd
       -0.06280645 0.009621687 0.08778834 -0.068847194
000100 3e 76 8c 3d 78 24 93 3d 00 75 6a bc f8 c5 82 3d
       0.068584904 0.0718469 -0.014310122 0.06385416
000110 32 96 ef 3d 34 c2 02 bd 38 3c f6 bc e4 f8 b4 bd
       0.11698569 -0.031923488 -0.030058011 -0.088365346
000120 76 4b 9d 3d e4 d8 60 3d ec 0f 2e bd 5e 6f 9b bd
       0.07680409 0.054894343 -0.042495653 -0.07589601
000130 34 34 23 3d fc 31 bb bd 62 78 dd bd 6c 27 15 3d
       0.039844707 -0.09140393 -0.10813977 0.03641455
000140 fa 64 82 bd 14 b8 02 3d 5c b9 dd bd 40 a7 f8 bc
       -0.06366916 0.03191383 -0.1082637 -0.030353189
000150 24 0c 24 3d 58 0f d3 3d 34 9c 7f 3d 78 2e a4 3c
       0.04005064 0.10305661 0.062404826 0.02004169
000160 40 06 82 bb 00 6b 84 3a f4 5d 36 3d 50 7a 19 bc
       -0.00396803 0.0010102689 0.044523194 -0.0093675405
000170 a0 ba d3 3b 00 e4 d6 39 a0 9b 2e bd 58 1f 26 bd
       0.0064614564 0.00040987134 -0.042628884 -0.040557235
000180 84 7a d9 3d 9a 19 b3 3d 34 ec 51 bd 2c a8 4a 3d
       0.10619071 0.087451175 -0.05125065 0.049476787
000190 60 ab 84 bd d8 95 d8 bc 1a 77 f9 bd 04 b1 6f bd
       -0.06478 -0.026438639 -0.1218092 -0.058518425
0001a0 c0 7d 39 3d 80 c6 51 bb 24 50 4f bd 46 94 d8 3d
       0.04528594 -0.0032009184 -0.050613537 0.10575156
0001b0 78 fa fb 3d 22 11 bc 3d 7c ee 02 3d 20 1d 94 bb
       0.123036325 0.09182955 0.031965718 -0.0045200735
0001c0 66 18 c3 bd 0c e6 aa 3d e8 b2 08 3d 7e 80 ab bd
       -0.09526138 0.08344659 0.033373743 -0.08374117
0001d0 1e 7e ce 3d 3a 07 c0 bd f8 91 fe bd ac 90 ec bd
       0.10082649 -0.09376378 -0.12430185 -0.115510315
0001e0 6e e0 c5 3d 30 cd fa bd f2 5a bf bd 94 61 c7 bd
       0.09661947 -0.12246168 -0.09343518 -0.097354084
0001f0 e2 71 87 bd 04 44 7f bd 78 f2 9e 3d 48 85 b4 bd
       -0.06613518 -0.062320724 0.07761091 -0.08814484
000200 d0 93 de 3c a0 be ab 3c a8 2b 8b 3c 48 7d bc bd
       0.027170092 0.02096492 0.01698859 -0.09203583
000210 ef 7d c3 bd 1e f4 e7 3d 28 7a 72 3d b1 a0 00 3e
       -0.09545504 0.113258585 0.05919853 0.12561299
000220 56 5d 84 3d 3d 7a ea bd 1c 0b f6 3d 14 db 93 bd
       0.06463115 -0.11449096 0.12013838 -0.0721952
000230 75 2f f4 bd b7 02 03 be b0 d6 aa 3c c0 c1 a6 3c
       -0.11923114 -0.12794004 0.020854324 0.02035606
000240 f2 1c 21 3c 00 54 f0 b9 15 cd 05 be 6b 9b eb 3d
       0.009833561 -0.00045838952 -0.13066514 0.11504253
000250 21 cb a6 bc 7e 1a b0 3c 28 f8 6c bd 2b 7d e0 3d
       -0.020360531 0.021497007 -0.057853848 0.10961374
000260 60 38 e2 3b 4d 22 a2 bd e1 41 24 be 52 69 de 3c
       0.006903693 -0.079166986 -0.16040756 0.02714983
000270 4d f5 8b 3d 54 4c 0f bd 00 a9 97 bd fb df 8b bd
       0.06833897 -0.0349849 -0.07405281 -0.0682983
000280 ec 70 f7 bd ab 2b 8a bd ef 54 79 3c 00 ea 75 ba
       -0.12082085 -0.0674661 0.015218004 -0.0009380877
000290 99 1e b0 bd 2d 4b fc 3d 53 86 37 3e 81 6d 84 bd
       -0.08599586 0.12319026 0.17922334 -0.06466199
0002a0 96 ff d8 bd dd f2 24 3e 0c 1f 09 3d da c7 1d 3e
       -0.10595624 0.1610827 0.033476874 0.15408269
0002b0 be f8 4b 3e 7a 98 3f 3e f8 3b ef bc 89 28 a3 bd
       0.19919106 0.18710509 -0.0292034 -0.07966716
0002c0 75 16 c8 3d 13 cd 20 be c8 57 3b bd b0 1f 82 3d
       0.09769908 -0.1570323 -0.04573801 0.063537
0002d0 70 13 5f bd 50 c9 b2 3d e5 d8 37 bd ad 7f 52 3e
       -0.054461896 0.087298036 -0.04488458 0.20556517
0002e0 ae bb 96 3d 31 94 e9 3d 81 f9 47 bd bc fe 20 bd
       0.07360016 0.114052184 -0.04882193 -0.039305434
0002f0 84 ad 19 3e b6 5f 2a bd c0 30 99 bc 14 c2 53 3e
       0.15007597 -0.041595183 -0.018700004 0.20679504
000300 c0 72 58 bd ac 44 5d 3d 56 c8 28 3e 70 88 5c 3c
       -0.05284381 0.05402057 0.16482672 0.013460264
000310 0a 0d 69 bd f0 b2 06 3c fe a8 b8 bd 73 cc 06 3d
       -0.0568972 0.008221373 -0.09016608 0.03290982
000320 e8 79 c9 3d 5d ff c3 3d 8f f6 ba 3d b4 55 eb 3d
       0.09837705 0.09570191 0.091290586 0.11490956
000330 86 14 e3 3d 40 64 0c be de f7 ce bd 3a 68 d0 bd
       0.11087899 -0.13710117 -0.10105871 -0.1017613
000340 e4 93 32 3d 26 d3 91 bd ca d2 26 3e 81 b1 85 3d
       0.04359807 -0.071203515 0.16291347 0.06527997
000350 e0 cd b8 3c 4f df 34 bd a8 b3 9f 3d c1 3c 9c bd
       0.022559106 -0.044158276 0.077979386 -0.076287754
000360 ea 4f c4 3d 55 1b de 3d ec 61 5a 3e cb a4 9d 3d
       0.09585555 0.10845057 0.21326417 0.076974474
000370 b8 cd 52 3e 36 47 af bd 88 f9 eb bd bb 2d f0 bd
       0.20586288 -0.08558504 -0.11522204 -0.117274724
000380 e4 62 52 bd 82 e1 13 3e 88 6f 5f bc f0 ab 4e bd
       -0.05136384 0.14441493 -0.013637431 -0.05045694
000390 7b 72 6c 3d b3 99 f8 3d 39 6a eb bc 35 0d 0d 3e
       0.057726365 0.12138691 -0.028737174 0.1377457
0003a0 38 2f 5a 3d cc 02 6f 3e a3 68 28 3c e3 0c c2 3c
       0.053267688 0.2334091 0.010278854 0.023687785
0003b0 e6 20 eb 3d 9d cd 3d bd ec f1 e6 bd 78 0b b5 3d
       0.11480884 -0.046338666 -0.11276612 0.08840078
0003c0 8d ba 05 3e d5 ff ba 3d 1b e2 b0 3d 9a 1d 97 3d
       0.13059445 0.09130827 0.08636876 0.07378693
0003d0 4c fe cc 3d bc d1 60 3d b1 33 2d 3b 3a d2 9f 3d
       0.10009441 0.05488752 0.0026428516 0.078037694
0003e0 51 6c 90 3d f2 6f 90 3d 63 cb 16 bd c8 eb b6 3c
       0.0705191 0.07052602 -0.03681506 0.022329226
0003f0 2d 5c b8 bc 74 25 9a bd 58 dc 1c bd 1f d0 a1 3d
       -0.02250489 -0.07526675 -0.038296074 0.07901024

fc2.bias f4 [64]
000000 ac fb 86 bd 76 81 a1 bd 8a d5 3e be 2d 13 9f bd
       -0.06590971 -0.07886021 -0.18636146 -0.07767329
000010 d9 f6 14 be 1b 10 e6 bc ca 8f c2 3d 08 2e a4 bd
       -0.1454729 -0.028083852 0.09500082 -0.08016592
000020 aa 90 80 3d c6 76 51 bd aa 18 73 bd e1 ad 4c bd
       0.062775925 -0.05113866 -0.059349693 -0.04997051
000030 05 6b 92 bc 5b 76 10 bd 31 9e ca bd 21 03 0d 3e
       -0.017873297 -0.035269123 -0.09893454 0.13770725
000040 80 78 9e bc cc 51 d2 bd 6f ad 13 be b8 b7 e3 3c
       -0.019344568 -0.10269508 -0.14421628 0.027797565
000050 a5 da d5 bc ed f3 5d bd 91 2f 4d 3e 67 7d d7 3c
       -0.026105234 -0.054187704 0.20037676 0.026304914
000060 26 b9 27 3e c5 6d c0 bb d9 f2 af 3d 54 6f 83 3d
       0.16379222 -0.0058724605 0.085912414 0.064177185
000070 80 4a bc bd 19 52 21 3d 9e 5d 62 3d 16 57 19 3e
       -0.09193897 0.039384935 0.05526506 0.14974627
000080 1a 90 82 3d bc 4b bc 3d 17 3e e7 bd 3f c4 39 3b
       0.063751414 0.09194133 -0.112911396 0.0028345732
000090 0a d7 94 3d 30 1c 96 bd 27 83 09 3e 69 71 c7 3d
       0.07267578 -0.07329595 0.13428937 0.09738428
0000a0 f8 ea 8b 3d 21 76 5f bd b2 17 e9 3d 30 34 82 bd
       0.06831926 -0.054556016 0.11381473 -0.0635761
0000b0 76 38 ba bd 67 8f ee 3d 7d 40 ab 3d 54 1e 6f 3d
       -0.090928 0.116484456 0.083619095 0.058378533
0000c0 d9 d0 f7 3d 32 42 89 bb d7 07 61 bd 17 6a af 3d
       0.121003814 -0.0041887993 -0.054939117 0.08565157
0000d0 3f 6f 41 3d 7f 8a c8 bd 0c 35 ed 3d 4f 41 df 3d
       0.047225233 -0.09792041 0.115823835 0.109011285
0000e0 d0 f6 80 bc 90 65 6a bd 71 4e ae bd 8c 16 8a 3d
       -0.01574269 -0.057225764 -0.08511055 0.06742582
0000f0 6e 8d 3e 3d 15 18 94 3d 52 b2 42 3d b3 24 0c bd
       0.046521597 0.07231156 0.04753334 -0.034214687

fc3.weight f4 [7, 64]
000000 58 b2 32 3d 00 2a 62 bb b6 3e 25 be 91 c5 ae 3c
       0.043627113 -0.0034509897 -0.16137204 0.021334441
000010 f4 e6 97 be ed 39 f1 bc ad 80 e1 bd 14 59 6b bd
       -0.2966839 -0.029446566 -0.11010871 -0.057458
000020 c0 8f c9 bc e8 0a a8 bc 8c 75 04 3e d6 61 b1 bd
       -0.024604678 -0.020513013 0.12935466 -0.08661239
000030 ae c3 32 3d ab 4c 02 bd 8c 27 4b 3d 48 67 ad ba
       0.043643646 -0.031811398 0.04959826 -0.0013229633
000040 60 55 f3 3c c3 b0 0d be e7 dd 8a 3e b6 69 0c 3e
       0.029703796 -0.1383696 0.27122423 0.137122
000050 0c 78 36 3d a5 8c 05 be 2c 8e 17 3e e5 77 38 3d
       0.04454808 -0.13041933 0.14800328 0.045036215
000060 f4 41 61 3c 0b c9 79 bd 24 37 01 bd 60 81 1c 3d
       0.013748635 -0.060982745 -0.031546727 0.03820932
000070 04 84 03 be 2a 15 98 3d 93 80 a3 3d c5 4d 6a bc
       -0.12843329 0.07425912 0.07983508 -0.014300768
000080 2a 2d 1a be 1d 60 b2 3d e5 3c 98 3c 00 33 14 be
       -0.15056291 0.087097384 0.018583724 -0.1447258
000090 c9 8d b7 bc 10 ec d1 3d 15 8f 18 3e 63 14 e4 3c
       -0.022406476 0.102501035 0.14898331 0.027841752
0000a0 a5 05 f0 3e c0 c0 0f 3e bd 9f 06 be 0a 98 db bd
       0.46879306 0.14038372 -0.13146873 -0.107223585
0000b0 41 14 85 3c 98 49 88 3d cc 6f 74 3d d2 98 90 bc
       0.01624501 0.06654662 0.05967693 -0.017650995
0000c0 21 f8 d2 3c ad 08 30 3d e5 fb 47 bc b0 9d 92 bd
       0.025753083 0.042977024 -0.012206052 -0.07158983
0000d0 40 c2 00 be e6 13 4d be 41 9b 2a bd 37 44 56 bc
       -0.125741 -0.20027122 -0.041651968 -0.013077787
0000e0 02 fb a3 bd c0 a9 11 3c fe 2f 03 be 41 9f fd 3e
       -0.0800686 0.008890569 -0.12811276 0.49535564
0000f0 28 03 22 be 93 68 ac 3d 5e 3b 4a 3d 2e 6c b3 3d
       -0.15821517 0.084183834 0.049373023 0.08760868
000100 15 7f 91 bc 44 aa 90 bd 78 c1 04 be a1 74 01 3e
       -0.017760793 -0.070637256 -0.12964427 0.12642147
000110 1b e5 1e 3e c8 bf 41 3e 15 12 97 bd 54 e9 94 bd
       0.15517084 0.18920815 -0.07376496 -0.07271066
000120 e4 5f 02 be 61 91 b2 bc 4c 08 16 3f 5b de 18 bd
       -0.12731892 -0.021797838 0.5860641 -0.03732143
000130 3f 7e 9a 3d f6 3e 44 bd 0b e8 9c bd a5 de e7 3d
       0.07543611 -0.047911607 -0.07661446 0.11321763
000140 0c 73 b2 bd 51 fb 08 3e 64 0f dc bd 0c 1e 0e 3e
       -0.0871335 0.1337712 -0.10745123 0.1387865
000150 a2 e2 b4 bc cc af 44 3d c6 8a a4 3d 2a 05 b4 bd
       -0.022080723 0.048019215 0.080342814 -0.087900475
000160 33 62 58 3d 1f eb 80 3d 76 50 dd bd f5 76 43 bd
       0.052828025 0.06294846 -0.10806362 -0.04772087
000170 29 2d a7 bd 2f 0d d5 3d 32 70 97 3e af 3b 86 bd
       -0.081629105 0.10402905 0.29577786 -0.065543525
000180 ae e0 6a bd bb cc 35 3b 1e 03 60 3d 99 5a 41 bc
       -0.057343177 0.0027740437 0.054690473 -0.011801385
000190 d6 d3 f0 bc ee 0c bd bd 3a 40 d1 bc 49 b8 e2 3d
       -0.029397886 -0.09230982 -0.02554332 0.11070306
0001a0 9f b1 af 3e fc 41 aa 3e 9b 5b c9 3c 56 05 e5 bd
       0.34315202 0.33253467 0.024579814 -0.111826584
0001b0 ec be fb bd 6e bc a0 bd 35 a2 8d 3b f0 ad a3 3d
       -0.12292275 -0.0784844 0.004322315 0.0799216
0001c0 19 b6 8f bd 0c e9 83 bd 2e 3e fa bc 64 3b 22 bd
       -0.07017154 -0.064409345 -0.030547228 -0.03960742
0001d0 c7 ae e1 3d 6a 97 c7 bd 99 57 70 bd 1d 18 91 bd
       0.11019664 -0.09745677 -0.05867729 -0.07084677
0001e0 c1 d8 3e 3d b0 72 e6 3d c0 db 56 bf ff 59 dc 3e
       0.04659343 0.11252344 -0.8392906 0.43037412
0001f0 9f 34 7a 3d 7f 4f 5e bd 0e 8e f8 3d b0 9c 0d be
       0.06108534 -0.054275032 0.1213647 -0.13829303
000200 68 04 b9 bc 28 b2 6c 3d 3d 0d 00 be 98 c4 37 bd
       -0.022585109 0.05778709 -0.1250505 -0.04486522
000210 02 7d 7b bc 30 f1 a0 3e c6 2e 9e 3d d0 61 8b 3c
       -0.015349628 0.3143401 0.07723765 0.017014414
000220 13 bb d5 3b 8a da 0c be 61 4f 97 3e c5 3f ca bc
       0.006522545 -0.13755241 0.2955275 -0.02468861
000230 28 e7 bb 3d ce e7 9a 3d 1e cb 37 3d 53 f8 ce bc
       0.09174949 0.075637445 0.044871442 -0.025264895
000240 20 53 c4 3d 45 64 aa be 08 40 8f bd 3f 1b 8b bd
       0.09586167 -0.33279625 -0.06994635 -0.06792306
000250 09 19 40 bd 9e fd a6 3d 3a a2 20 3c 2e 32 0e be
       -0.046898875 0.081538424 0.009804303 -0.1388633
000260 73 d5 83 bd 37 d1 57 bd 82 3e ac be e8 57 22 bd
       -0.064371966 -0.052689757 -0.3364144 -0.039634615
000270 5d fb 91 3c b6 40 d4 bd fa 5d 57 3e e8 1f a0 3d
       0.017820055 -0.10363905 0.21031943 0.07818586
000280 3a 6b 56 bb fd 83 6a 3d 43 1c 8f 3d 8d 1d fe bb
       -0.003271772 0.05725478 0.06987812 -0.0077549876
000290 3c e4 d1 3d d0 d5 58 3c 50 fd 5d bd b1 f9 c6 bc
       0.102486104 0.013234571 -0.054196656 -0.024288984
0002a0 2a 70 7d 3e 08 ee a7 3d 97 ff c3 3c e9 9e f7 bd
       0.24749818 0.08199698 0.023925586 -0.120908566
0002b0 46 6f 99 bd 71 d2 0d 3e 22 2f 35 3e 2c 1f 2a bd
       -0.07491927 0.13849808 0.17693761 -0.041533634
0002c0 60 4e ae 3d af 77 7f 3d 1f f6 16 3e da 1a d7 bc
       0.085110426 0.06237 0.14742325 -0.026257921
0002d0 04 6e 4f bd cb 1c 52 bd 58 cd e2 3c c9 23 b7 3d
       -0.05064203 -0.05129699 0.027685806 0.08942372
0002e0 de 2a 87 bc 88 1b db bc 82 e9 0f bf 44 5c aa 3e
       -0.016499933 -0.026746526 -0.5621568 0.33273518
0002f0 82 98 af bd b8 ef 96 bd 48 ba 08 be 52 dd 4b 3e
       -0.085740104 -0.073699415 -0.1335231 0.19908646
000300 57 d6 a2 3c d0 2a fb 3d 75 99 9a bb 5a 2a d2 3d
       0.019877596 0.12264025 -0.0047180005 0.10261984
000310 1a 68 2b be d1 24 97 3e 73 fb c9 3d 08 c8 4f 3d
       -0.1673893 0.29520276 0.09862413 0.050727874
000320 d5 4f a4 3d 4a 3f 48 bd 1b 8e 2c 3e a2 77 3a bd
       0.08023039 -0.048888482 0.16851084 -0.045524247
000330 55 f7 36 3d 75 cf ca bc 4b 4d 64 3e 1d 76 28 3d
       0.044669468 -0.024757126 0.2229511 0.041128267
000340 b0 06 17 bd de 26 51 3e 67 99 82 3b 35 85 cb be
       -0.036871612 0.20424983 0.003985572 -0.39750066
000350 f3 0c 3a 3d d0 ad a9 bd b6 0a 1e bd c3 20 f0 3d
       0.045422506 -0.08285105 -0.038584433 0.11724999
000360 8e 02 53 bd 43 7a cb 3e 7d a6 2b 3e 4e 30 92 ba
       -0.05151611 0.39741716 0.16762729 -0.0011153312
000370 31 ca 54 3c b1 9a 18 be d0 41 52 3e 39 18 90 3d
       0.012987659 -0.1490276 0.20532918 0.0703587
000380 16 d1 8b 3d f9 68 48 bd 46 a1 e6 bd 6a 07 ef bd
       0.06826989 -0.048928235 -0.11261229 -0.11671336
000390 ba 52 03 3d 44 c4 58 3d 09 b5 af bd 2c 65 0c bd
       0.032061316 0.05292155 -0.085794516 -0.034276173
0003a0 b4 9e 71 3e 60 c8 a3 bd b6 ae 07 bd c4 d1 2f bd
       0.23595697 -0.07997203 -0.0331256 -0.042924657
0003b0 0d fb 25 bd f8 ca fe 3d 97 4c 41 bc 2c e1 1d 3d
       -0.040522624 0.12441057 -0.011798046 0.03854482
0003c0 22 cb 1e bd 38 bc 15 3c 81 1b b5 bd 4c bd 1f bd
       -0.03876794 0.009139113 -0.088431366 -0.038998887
0003d0 5c d1 98 3d 44 52 88 3e 80 64 c9 3d 31 db 15 be
       0.07461807 0.26625264 0.09833622 -0.14634396
0003e0 3f 0c ea ba 22 f6 b0 3d dd 89 1b bf 5f e2 31 3f
       -0.0017856433 0.08640696 -0.6075724 0.6948604
0003f0 fa 4e df 3e ee 72 db 3d 7c f8 e5 3c 0e ab 84 be
       0.43614942 0.107152805 0.028072588 -0.25911754

fc3.bias f4 [7]
000000 23 12 e0 3c 63 b8 82 bc f1 00 a8 bc 47 ba d0 3d
       0.027352398 -0.015957063 -0.020508261 0.101917796
000010 6b 47 f2 bc 61 ed d7 3d ec 38 cc 3c
       -0.02957507 0.10543323 0.024929486
