src/models/v1.1.1.pth (torch, 250474 bytes, 10 tensors)

conv1.weight f4 [16, 9, 3, 3]
-0.21696466 -0.07799668 0.2799023 -0.074094884 -0.15105571 -0.2974773 -0.28469777 0.04444977
-0.12130766 0.077325344 -0.011731784 0.023346372 0.03400719 -0.08164067 -0.096360736 -0.00092007057
-0.030651344 -0.03815668 0.054289896 -0.022383412 -0.03162151 -0.06669048 0.09735983 0.067985095
0.07595752 -0.0934777 -0.028433587 -0.09320531 0.06477964 -0.063210264 0.065316826 0.07599025
-0.063128285 0.09753755 -0.028707134 0.07420202 -0.2873913 -0.30870908 -0.074456304 0.036186446
-0.3667661 -0.44418058 -0.3695751 0.30248842 -0.28384605 -0.0757222 0.13920622 -0.45262218
0.0448808 0.61791706 0.20825869 0.31463242 0.19251028 0.09184887 0.23755546 0.07801914
-0.1788496 0.0057216715 0.55436885 -0.0023961682 0.33532998 0.18231757 0.18052287 -0.067426905
-0.03543795 0.036261093 -0.044797942 0.11371741 0.00822926 0.031091336 -0.12175232 -0.05692374
-0.31088373 -0.18418616 -0.08515914 0.058540188 -0.31651264 -0.42170823 -0.3794259 0.32932088
-0.46272272 -0.11960712 0.10077332 -0.22639024 -0.07926109 0.1516916 -0.40324596 0.11113398
-0.24371058 0.16055717 0.023259401 -0.044231813 -0.031208754 -0.047151234 0.092652984 -0.03587487
0.061264582 -0.0933025 0.018410273 -0.06802223 0.06352595 0.09859342 -0.043843456 0.08946269
0.103228755 0.08034754 -0.026679622 0.08286227 -0.08137022 0.0055820676 0.0077822604 -0.057397645
-0.05755352 0.0110440655 0.0019485155 -0.028331943 0.038542457 -0.38352466 0.08444454 -0.17874204
-0.3518785 0.21064351 -0.38286594 -0.115477435 -0.4945723 -0.37593228 0.044303797 0.025251433
0.25644383 -0.041929174 0.14234431 0.4435464 -0.07080376 0.08975574 -0.20629539 0.1474074
0.26351932 -0.036080502 0.22946927 0.12967141 0.3410572 0.11279123 0.30049688 -0.26596448
-0.010845062 0.068330936 0.069423795 0.015350792 -0.07171549 -0.091403894 -0.03280878 0.0032797444
-0.017650034 -0.2903199 0.123715155 -0.3012699 -0.2755129 0.3678427 -0.40671358 -0.080822326
-0.5673862 -0.32681462 -0.043786224 -0.071661554 -0.30577293 0.015886748 0.044590123 0.015803056
-0.08806237 -0.06478383 -0.106250145 -0.04096582 -0.09156915 0.050543427 -0.010770467 0.06745378
0.10662494 -0.05297996 0.0929273 -0.052732814 0.026608957 0.017099062 0.04816079 -0.039876726
-0.07136408 -0.050031397 0.08995364 0.10365988 0.08769858 0.111064054 0.01004933 0.088612586
0.0753949 -0.043245528 -0.01582192 0.061460774 0.05179825 0.07918271 -0.020872712 0.22943935
-0.103590935 -0.031933673 -0.31125572 0.21663952 0.006271942 0.20399517 0.08861414 -0.34090343
-0.00049455307 0.04645582 -0.12688895 0.31084332 0.16604136 -0.24144128 0.12821294 0.1829508
-0.041780483 -0.14868462 0.13459302 0.063282385 0.2183603 0.11338096 0.024906173 0.17438178
0.21163024 -0.014830019 -0.009005115 -0.0018694457 -0.019422503 -0.044539087 0.04482668 -0.09986558
0.037540786 -0.087561846 -0.025635032 0.22597933 -0.26897123 -0.14517985 -0.37689036 0.24815188
0.063501164 0.23848754 0.21453713 0.03376164 -0.007003116 -0.14028876 0.025753789 -0.1961527
-0.03300255 -0.22015916 -0.10689008 -0.13034369 -0.04551016 0.0059261853 0.052338388 0.06376963
00000000: fc2b 5ebe b9bc 9fbd 5b4f 8f3e 0fbf 97bd
00000010: 59ae 1abe f24e 98be e8c3 91be f610 363d
00000020: 2770 f8bd c05c 9e3d ab36 40bc e440 bf3c
00000030: 204b 0b3d 3933 a7bd c758 c5bd e430 71ba
00000040: 8718 fbbc 2e4a 1cbd 155f 5e3d 6b5d b7bc
00000050: 8e85 01bd 0595 88bd 9764 c73d c53b 8b3d
00000060: 9e8f 9b3d 3d71 bfbd 8eed e8bc 6de2 bebd
00000070: 30ab 843d 6274 81bd d4c4 853d c7a0 9b3d
00000080: 6749 81bd c4c1 c73d 392b ebbc 3bf7 973d
00000090: f424 93be 1e0f 9ebe 8c7c 98bd 3d38 143d
000000a0: c4c8 bbbe a36b e3be f338 bdbe c3df 9a3e
000000b0: 4554 91be 3e14 9bbd 138c 0e3e 18be e7be
000000c0: eed4 373d d02f 1e3f c441 553e 8017 a13e
000000d0: 6a21 453e 431b bc3d bd41 733e 80c8 9f3d
000000e0: 5924 37be dc7c bb3b 1eeb 0d3f 0809 1dbb
000000f0: 5fb0 ab3e 75b1 3a3e fdda 383e 1e17 8abd
00000100: 6227 11bd 8386 143d 0c7e 37bd ace4 e83d
00000110: 05d4 063c 42b3 fe3c 4859 f9bd de28 69bd
00000120: 272c 9fbe 4c9b 3cbe ea67 aebd d6c7 6f3d
00000130: f20d a2be 24ea d7be 1d44 c2be bf9c a83e
00000140: fee9 ecbe 94f4 f4bd 3e62 ce3d d8d2 67be
00000150: a353 a2bd 0b55 1b3e 4176 cebe 369a e33d
00000160: 448f 79be 1969 243e 808a be3c 6b2c 35bd
00000170: 80a9 ffbc a721 41bd d9c0 bd3d 87f1 12bd
00000180: 92f0 7a3d 6215 bfbd 24d1 963c 3d4f 8bbd
00000190: e519 823d 59eb c93d 3295 33bd 3738 b73d
000001a0: 9969 d33d 408d a43d 398f dabc b2b3 a93d
000001b0: 6ea5 a6bd c7e9 b63b 5502 ff3b cb19 6bbd
000001c0: 3dbd 6bbd 2bf2 343c 5565 ff3a 6418 e8bc
000001d0: b2de 1d3d 585d c4be 42f1 ac3d 2708 37be
000001e0: 6b29 b4be efb2 573e 0107 c4be 6f7f ecbd
000001f0: 9538 fdbe 327a c0be e677 353d 18dc ce3c
00000200: 9b4c 833e edbd 2bbd b5c2 113e 8418 e33e
00000210: 9001 91bd dbd1 b73d 193f 53be f7f1 163e
00000220: 01ec 863e 26c9 13bd fef9 6a3e 95c8 043e
00000230: 0d9f ae3e 17ff e63d bada 993e 7f2c 88be
00000240: 7daf 31bc 17f1 8b3d 102e 8e3d e381 7b3c
00000250: 92df 92bd f731 bbbd 8062 06bd fbf0 563b
00000260: ce96 90bc cfa4 94be 5f5e fd3d 0c40 9abe
00000270: 0710 8dbe e155 bc3e c33c d0be 2d86 a5bd
00000280: 3940 11bf 3f54 a7be 2f59 33bd 4bc3 92bd
00000290: 458e 9cbe ed24 823c 22a4 363d 6975 813c
000002a0: 0b5a b4bd 62ad 84bd ad99 d9bd c7cb 27bd
000002b0: 9b88 bbbd a006 4f3d 9d76 30bc 3525 8a3d
000002c0: 2d5e da3d 8401 59bd ab50 be3d 5dfe 57bd
000002d0: 07fb d93c 5513 8c3c 4044 453d c755 23bd
000002e0: 5527 92bd b9ed 4cbd 9d39 b83d a24b d43d
000002f0: 509b b33d 8d75 e33d f2a5 243c 847a b53d
00000300: a468 9a3d 3922 31bd f99c 81bc 4bbe 7b3d
00000310: 672a 543d 8b2a a23d 40fd aabc 26f2 6a3e
00000320: 7c27 d4bd e2cc 02bd e95c 9fbe c0d6 5d3e
00000330: dd84 cd3b 1ce4 503e 557b b53d e58a aebe
00000340: e5a4 01ba 7548 3e3d 2def 01be db26 9f3e
00000350: bf06 2a3e 623c 77be 414a 033e 7457 3b3e
00000360: 0322 2bbd c840 18be c1d2 093e 329a 813d
00000370: d899 5f3e 4734 e83d 0808 cc3c 2391 323e
00000380: 99b5 583e 9cf9 72bc 318a 13bc 3008 f5ba
00000390: f11b 9fbc 9e6e 36bd 2e9c 373d 5386 ccbd
000003a0: 5ec4 193d a053 b3bd 8f00 d2bc 2067 673e
000003b0: 99b6 89be 07aa 14be c6f7 c0be 871b 7e3e
000003c0: e60c 823d 1436 743e 9faf 5b3e a549 0a3d
000003d0: 657a e5bb dba7 0fbe 9cf9 d23c 41dc 48be
000003e0: af2d 07bd 6771 61be 30e9 dabd d178 05be
000003f0: dd68 3abd 7230 c23b c760 563d a799 823d

conv1.bias f4 [16]
-0.1901012 -0.18565413 -0.14969233 -0.11016509 -0.21413904 -0.15539654 -0.08508491 -0.0143323
-0.04919151 -0.056947887 -0.08219944 -0.048774377 -0.072579555 -0.09096939 -0.03145383 -0.13922043
00000000: e4a9 42be 1e1c 3ebe f248 19be 3c9e e1bd
00000010: 4447 5bbe 4520 1fbe ff40 aebd 06d2 6abc
00000020: 097d 49bd 3042 69bd 2e58 a8bd a4c7 47bd
00000030: 97a4 94bd 294e babd bbd5 00bd cd8f 0ebe

conv2.weight f4 [32, 16, 3, 3]
-0.0032463514 0.07827856 0.0473218 0.09254903 0.15740271 -0.07598256 -0.13476135 0.17313142
-0.24537961 -0.3764198 -0.17569536 -0.06408903 0.14410342 0.16828477 0.122839816 0.23047116
0.069053516 -0.021443216 -0.079428755 0.08938989 0.102148324 0.14823163 0.20917715 -0.2696736
-0.07648172 -0.076779224 -0.07248463 0.090930454 0.12360499 0.15428258 -0.17995895 0.16434827
-0.12862031 -0.12323136 0.07575348 -0.084657386 -0.14764844 0.0594616 -0.0051595666 0.12537333
0.02975202 -0.017573845 -0.03840566 0.055124238 0.07850181 -0.14208211 -0.10167486 -0.11102206
-0.08308682 -0.11065364 -0.04471592 -0.14132364 0.16661951 0.07238878 -0.32237673 -0.033207618
-0.23012641 0.13535252 0.21252061 -0.13030212 0.2209376 -0.05486013 -0.1848294 -0.13240054
0.17129657 -0.1332515 0.18134895 0.39533895 0.24870853 0.23817208 0.26674578 -0.10728004
-0.007347279 -0.08285181 -0.04276933 0.029194685 0.2694945 0.13216837 -0.101540945 0.24849054
-0.16732478 0.09013126 -0.055589285 -0.089943 -0.051135056 -0.17669992 -0.068296045 0.13511094
0.23055266 0.01175337 -0.21107987 -0.057920188 -0.16590914 0.1694627 0.1792246 0.052971497
0.18381038 0.17504437 -0.19124873 -0.16333279 -0.11101592 -0.38899308 0.27984655 0.21349527
0.23585382 0.30295536 0.24405968 0.082422726 0.0037441445 0.067096926 -0.1130623 0.03254161
0.17337504 -0.2542267 0.030114898 0.14109138 0.1544622 -0.016368518 -0.07023505 0.04153138
0.06606789 0.36215177 -0.16693592 0.08254537 0.3064975 -0.006226041 -0.09972676 -0.32524005
-0.16013642 -0.086219795 0.12935308 -0.11556193 -0.0015225944 0.18321171 0.03315849 0.15788403
0.03304473 -0.002052672 0.076539814 0.041317206 0.011208933 -0.2015229 0.035689525 -0.4318002
-0.18128757 -0.076717824 0.015323333 0.2429986 -0.019941375 0.09736685 0.03269118 0.0055854702
-0.23673205 -0.054881364 0.14221615 -0.07031329 -0.038477443 0.177231 -0.008778844 -0.06388742
-0.21458277 -0.09450423 -0.06831379 0.0075106462 0.052939497 -0.13468903 0.05277912 -0.05834873
-0.11474018 -0.38718766 -0.10631185 -0.14596012 -0.05079047 0.09768291 -0.34678325 0.005323545
0.08507471 -0.18615434 -0.0380588 0.05755044 -0.16998062 -0.07430283 -0.088314325 0.28061995
0.059661794 -0.12182586 -0.12808828 0.07044803 -0.3159785 -0.09132732 -0.18445605 -0.07286409
0.09667663 0.07514062 0.18357709 0.0726259 0.04772681 0.13826786 0.10603326 0.049483426
0.12989996 -0.18089885 -0.07805529 0.11191959 -0.30820575 -0.24847403 -0.11084784 -0.2966283
0.10825872 0.29260448 -0.17967856 0.059913743 0.28308147 -0.6521734 -0.3940058 -0.16351137
-0.21936947 -0.053280592 0.036290858 -0.19900697 0.076897845 0.21013485 -0.13966122 -0.12917021
-0.12831683 -0.1699137 -0.10907323 0.048856363 -0.26398042 0.09369985 0.15780644 -0.051051863
-0.107154086 0.14489435 -0.071709536 0.07178337 0.1215104 -0.17226024 0.030359617 0.03382938
-0.20749643 -0.32389554 -0.16656595 -0.14201508 -0.28036198 0.01177086 0.1602593 0.16670878
0.23003748 -0.5076121 -0.32849935 0.03230381 -0.020571701 0.098740615 0.09943636 -0.13522537
00000000: bdc0 54bb 8250 a03d 81d4 413d 598a bd3d
00000010: 2d2e 213e bf9c 9bbd e1fe 09be 5d49 313e
00000020: cb44 7bbe 19ba c0be 7ce9 33be 1c41 83bd
00000030: d98f 133e d852 2c3e 7193 fb3d a200 6c3e
00000040: ee6b 8d3d afa9 afbc 8bab a2bd 0c12 b73d
00000050: 2433 d13d 08ca 173e 8932 563e a812 8abe
00000060: 73a2 9cbd 6d3e 9dbd d272 94bd bf39 ba3d
00000070: 9d24 fd3d 41fc 1d3e 2947 38be ea4a 283e
00000080: 0bb5 03be b960 fcbd a424 9b3d da60 adbd
00000090: 2731 17be 028e 733d 9511 a9bb de61 003e
000000a0: 82ba f33c 06f7 8fbc 414f 1dbd f4c9 613d
000000b0: 8fc5 a03d f97d 11be e93a d0bd 895f e3bd
000000c0: 6c29 aabd 609e e2bd 0a28 37bd 25b7 10be
000000d0: 4e9e 2a3e 9240 943d 900e a5be b604 08bd
000000e0: 42a6 6bbe da99 0a3e 019f 593e eb6d 05be
000000f0: 773d 623e 04b5 60bd eb43 3dbe 0294 07be
00000100: 5e68 2f3e 1573 08be 8ab3 393e de69 ca3e
00000110: 73ad 7e3e 62e3 733e e792 883e a3b5 dbbd
00000120: 72c1 f0bb 36ae a9bd e52e 2fbd b129 ef3c
00000130: 2ffb 893e 2557 073e b3f4 cfbd 4e74 7e3e
00000140: 3057 2bbe bd96 b83d 97b1 63bd 0934 b8bd
00000150: fe72 51bd d3f0 34be ccde 8bbd 865a 0a3e
00000160: ff15 6c3e 3591 403c 5225 58be b83d 6dbd
00000170: 16e4 29be a187 2d3e a786 373e a4f8 583d
00000180: ca38 3c3e d53e 333e b5d6 43be b640 27be
00000190: 515c e3bd 1a2a c7be 0c48 8f3e 819e 5a3e
000001a0: aa83 713e f71c 9b3e c8ea 793e 3fcd a83d
000001b0: 5260 753b 1d6a 893d 358d e7bd 5a4a 053d
000001c0: 3a89 313e 012a 82be 85b3 f63c 427a 103e
000001d0: 572b 1e3e 4517 86bc 65d7 8fbd cf1c 2a3d
000001e0: 9a4e 873d f56b b93e 40f1 2abe 8c0d a93d
000001f0: 3eed 9c3e d103 ccbb 8b3d ccbd dd85 a6be
00000200: cdfa 23be 0194 b0bd 2275 043e bcab ecbd
00000210: ca91 c7ba da9b 3b3e 32d1 073d 5aac 213e
00000220: e959 073d 1f86 06bb e8c0 9c3d 3b3c 293d
00000230: aca5 373c 055c 4ebe 2e2f 123d ea14 ddbe
00000240: 73a3 39be 3c1e 9dbd b80e 7b3c a0d4 783e
00000250: 185c a3bc 4568 c73d 30e7 053d 5206 b73b
00000260: e369 72be 48cb 60bd 1ca1 113e 6a00 90bd
00000270: 869a 1dbd 0b7c 353e 24d5 0fbc 68d7 82bd
00000280: 96bb 5bbe 6f8b c1bd 1ae8 8bbd de1b f63b
00000290: 16d7 583d eceb 09be eb2e 583d 14ff 6ebd
000002a0: e6fc eabd 763d c6be 07ba d9bd 9276 15be
000002b0: ab09 50bd fa0d c83d 938d b1be 2271 ae3b
000002c0: a63b ae3d 3e9f 3ebe 8be3 1bbd 03ba 6b3d
000002d0: 660f 2ebe 152c 98bd 24de b4bd 6bad 8f3e
000002e0: ed5f 743d d67f f9bd 9329 03be 0f47 903d
000002f0: efc7 a1be d109 bbbd 0ce2 3cbe c539 95bd
00000300: 66fe c53d 53e3 993d a2fb 3b3e e3bc 943d
00000310: 307d 433d 1796 0d3e f727 d93d 22af 4a3d
00000320: 7f04 053e 8c3d 39be 74db 9fbd 1936 e53d
00000330: 25cd 9dbe fa6f 7ebe 3104 e3bd aadf 97be
00000340: bfb6 dd3d 41d0 953e a8fd 37be 1d68 753d
00000350: 0ef0 903e d6f4 26bf 21bb c9be 866f 27be
00000360: 64a2 60be c03c 5abd b9a5 143d 7cc8 4bbe
00000370: 9e7c 9d3d 972d 573e 5a03 0fbe 3245 04be
00000380: 7d65 03be dbfd 2dbe c961 dfbd 9c1d 483d
00000390: 7128 87be b5e5 bf3d 0398 213e c21b 51bd
000003a0: 9a73 dbbd 2f5f 143e 73dc 92bd 2903 933d
000003b0: 72da f83d fd64 30be bbb4 f83c ad90 0a3d
000003c0: f279 54be a3d5 a5be 4490 2abe 676c 11be
000003d0: 9b8b 8fbe 91da 403c 041b 243e b5b5 2a3e
000003e0: f28e 6b3e def2 01bf 1131 a8be 0051 043d
000003f0: fc85 a8bc 8538 ca3d 4aa5 cb3d 8578 0abe

conv2.bias f4 [32]
0.007968831 -0.01960933 -0.08907605 -0.092439696 -0.09990863 0.011203023 -0.109920904 -0.058405526
-0.025760226 -0.112387456 -0.0039105103 -0.08492419 -0.042860657 -0.014209783 -0.06155804 0.032485746
-0.12880069 -0.05509498 -0.075202465 0.0022481298 0.04382244 -0.22116251 -0.029782385 0.14503248
0.10632201 0.15609044 -0.12530635 0.074018426 -0.09314224 -0.10329163 -0.049536005 0.072601
00000000: b38f 023c bfa3 a0bc 816d b6bd 0651 bdbd
00000010: e59c ccbd e28c 373c 361e e1bd a23a 6fbd
00000020: 1c07 d3bc 652b e6bd bd23 80bb bcec adbd
00000030: a88e 2fbd 26d0 68bc 4924 7cbd c60f 053d
00000040: 54e4 03be 46ab 61bd c003 9abd 5c55 133b
00000050: 297f 333d 6d78 62be 30fa f3bc 6583 143e
00000060: 5bbf d93d 2cd6 1f3e 4f50 00be f996 973d
00000070: 5cc1 bebd 908a d3bd 44e6 4abd d5af 943d

fc1.weight f4 [64, 800]
0.002237107 -0.01863025 -0.0017475504 0.012802749 -0.043557666 0.01757272 -0.016963497 -0.019747417
-0.007224627 0.0020914425 -0.022420786 0.0043387096 0.016117103 -0.0021805011 -0.036162846 -0.0210319
-0.0064606317 -0.041043192 0.018881535 -0.0018936953 -0.032827962 -0.011570532 0.004019869 -0.024099484
0.010116293 -0.01780145 -0.014981854 -0.030221617 -0.02859917 0.0035549423 -0.020946238 0.008869583
-0.005818244 -0.022297256 0.00375978 0.015537482 -0.009310709 -0.021525178 -0.008229609 -0.019677548
-0.043103762 -0.020144032 -0.029775389 0.027059734 -0.00452042 -0.042341083 0.002637167 -0.03658709
-0.020215305 0.025381869 -0.031011079 -0.019945567 0.017826915 0.025183234 0.011351626 0.011699402
0.025343308 -0.036964256 0.017350288 0.02365192 -0.008309217 -0.013694405 -0.02291662 -0.0028051874
-0.038134083 -0.041216448 0.024968527 -0.0013357822 0.019969838 -0.043282133 -0.0055488595 -0.03225199
-0.004669995 0.009916277 -0.033652347 -0.019688964 0.0003748583 -0.019330636 0.031067202 0.0138089685
-0.016073573 0.003738691 0.014438879 -0.0064875004 -0.020898115 -0.03323225 -0.023207253 -0.032923255
-0.0030730155 -0.020594979 0.031264447 -0.0313853 -0.024631483 0.012593369 0.020038804 -0.009498037
0.017057577 0.024968578 -0.018316364 -0.020068409 -0.0422134 -0.017693127 0.018821847 -0.02824795
-0.023276899 -0.033611603 -0.032459028 0.025102546 -0.042200733 0.00025918236 -0.00079843967 0.025210962
0.018206283 -0.03231319 -0.031340748 -0.005168163 0.015638888 0.013674461 -0.0044806367 0.0040094997
-0.04301551 0.017786525 -0.041315462 0.019255625 0.013759137 0.00027617777 0.017593082 0.013050289
0.018199187 -0.02553375 -0.04217528 0.02223924 -0.03205869 -0.018209053 -0.024238357 -0.026047537
-0.029981447 -0.002018597 0.018761853 0.01650436 0.019671954 0.010057605 0.008250269 -0.009479371
-0.002852763 0.014491851 -0.03233407 -0.015120284 -0.03143608 0.006993118 0.021774152 0.027029276
0.0065582837 0.005685875 -0.030507097 -0.008793347 -0.027669799 -0.04124061 -0.0003329224 0.015613399
0.0069773076 -0.039322704 -0.01031122 -0.026283292 0.012752032 -0.004546145 -0.008180454 -0.02298654
-0.040477242 0.018608185 -0.02821948 0.008964218 -0.0025019227 -0.011722063 -0.011943591 0.023608893
-0.0049987338 -0.014823672 -0.032595076 -0.0054963357 -0.032240044 -0.004056606 -0.01199354 -0.029686294
0.0038670993 -0.03336713 0.014102258 0.024620049 0.015195752 -0.019347593 -0.0051187775 -0.032101564
0.014429172 -0.03448628 -0.02860453 0.005360097 -0.035069708 -0.010475992 -0.0045517557 -0.042655144
-0.023102274 0.012328463 0.017483246 -0.035721775 -0.037347328 -0.03456589 -0.027539194 -0.018302312
-0.002566409 -0.006594535 0.016507257 0.013191293 0.02630631 -0.034198366 -0.03999598 0.024084616
-0.022488931 -0.012547484 -0.023506321 -0.012246666 0.011822327 0.022006731 -0.0061047855 0.0177465
0.0020995873 0.02134429 -0.0013639615 -0.025072638 -0.042707015 -0.008578627 -0.0026890456 -0.035546385
-0.016453154 -0.033221297 -0.03453161 0.017331025 -0.024276974 -0.0021133851 0.009715858 -0.0010482388
-0.040191602 -0.017179022 -0.032545216 -0.019379687 -0.0076685725 0.013221055 -0.015515781 -0.027337963
0.008865613 0.015870271 0.0051583988 -0.030957548 -0.02509135 -0.007217576 0.0010873539 -0.019643702
00000000: 6d9c 123b 779e 98bc 100e e5ba 9fc2 513c
00000010: 8669 32bd aaf4 8f3c 08f7 8abc 56c5 a1bc
00000020: 90bc ecbb 9510 093b ccab b7bc bc2b 8e3b
00000030: 0408 843c bde6 0ebb 7e1f 14bd 174b acbc
00000040: b5b3 d3bb e81c 28bd 73ad 9a3c df35 f8ba
00000050: 9d76 06bd 5492 3dbc 1bb9 833b 486c c5bc
00000060: cfbe 253c 59d4 91bc 7376 75bc 5393 f7bc
00000070: ce48 eabc 09fa 683b 7297 abbc ba51 113c
00000080: f8a6 bebb bca8 b6bc a466 763b ec90 7e3c
00000090: f28b 18bc 9255 b0bc 7bd5 06bc cf32 a1bc
000000a0: 928d 30bd 1905 a5bc 84eb f3bc 60ac dd3c
000000b0: 0820 94bb d86d 2dbd 52d4 2c3b 58dc 15bd
000000c0: 919a a5bc a3ed cf3c f20a febc e364 a3bc
000000d0: c009 923c 124d ce3c 2cfc 393c d9ae 3f3c
000000e0: c59c cf3c d567 17bd 3122 8e3c acc1 c13c
000000f0: 6223 08bc 7f5e 60bc a3bb bbbc 3cd7 37bb
00000100: 7c32 1cbd 94d2 28bd cc8a cc3c 6a15 afba
00000110: c997 a33c 9b48 31bd 35d3 b5bb aa1a 04bd
00000120: c206 99bb e177 223c 0bd7 09bd c04a a1bc
00000130: a188 c439 485b 9ebc a580 fe3c 033f 623c
00000140: baac 83bc d404 753b 0c91 6c3c 1995 d4bb
00000150: 8632 abbc 8a1e 08bd 231d bebc 89da 06bd
00000160: a564 49bb cdb6 a8bc 260f 003d df8d 00bd
00000170: f7c7 c9bc 6b54 4e3c 6b28 a43c a89d 1bbc
00000180: 55bc 8b3c e78a cc3c 330c 96bc 8166 a4bc
00000190: f5e7 2cbd 2df1 90bc 4630 9a3c 3f68 e7bc
000001a0: 32af bebc 52ac 09bd c2f3 04bd dba3 cd3c
000001b0: adda 2cbd dee2 8739 614e 51ba 3887 ce3c
000001c0: 5825 953c d65a 04bd 285f 00bd b259 a9bb
000001d0: 201d 803c d90a 603c 4ed2 92bb 1f62 833b
000001e0: 0831 30bd 0cb5 913c 673a 29bd f9bd 9d3c
000001f0: 016e 613c f4cb 9039 5e1f 903c e1d0 553c
00000200: 7616 953c 282c d1bc fdbf 2cbd 112f b63c
00000210: f94f 03bd 272b 95bc 858f c6bc a561 d5bc
00000220: a79b f5bc 704a 04bb 75b2 993c 2734 873c
00000230: 1427 a13c a7c8 243c 232c 073c 5d4f 1bbc
00000240: 6cf5 3abb 3b6f 6d3c bb70 04bd 11bb 77bc
00000250: 1ec3 00bd 8726 e53b b55f b23c 806c dd3c
00000260: dfe6 d63b 9450 ba3b 05ea f9bc f811 10bc
00000270: c6ab e2bc eaeb 28bd 178c aeb9 58cf 7f3c
00000280: e6a1 e43b d810 21bd 64f0 28bc 0f50 d7bc
00000290: e6ed 503c d4f7 94bb 5007 06bc 454e bcbc
000002a0: 77cb 25bd 3170 983c 8a2c e7bc a8de 123c
000002b0: 4cf7 23bb e50d 40bc 0daf 43bc 7067 c13c
000002c0: 6bcc a3bb fdde 72bc 6a82 05bd 9b1a b4bb
000002d0: 230e 04bd 47ed 84bb 8e80 44bc ac30 f3bc
000002e0: 296f 7d3b f9ab 08bd 280d 673c fcaf c93c
000002f0: 9af7 783c d87e 9ebc 6bbb a7bb ee7c 03bd
00000300: 5568 6c3c 7c41 0dbd 0c54 eabc c1a3 af3b
00000310: 41a5 0fbd 7fa3 2bbc e526 95bb 29b7 2ebd
00000320: fb40 bdbc 52fd 493c 0639 8f3c ff50 12bd
00000330: 83f9 18bd f694 0dbd e099 e1bc bbee 95bc
00000340: 3331 28bb f816 d8bb 3a3a 873c 4b20 583c
00000350: 5580 d73c 9613 0cbd d3d2 23bd 1a4d c53c
00000360: b53a b8bc f693 4dbc 5490 c0bc 3da6 48bc
00000370: 6fb2 413c 7647 b43c a70a c8bb 1c61 913c
00000380: 3b99 093b 38da ae3c f4c6 b2ba 2265 cdbc
00000390: 8ded 2ebd 5f8d 0cbc b33a 30bb 1699 11bd
000003a0: c4c8 86bc 0e13 08bd 0471 0dbd cbf9 8d3c
000003b0: 81e0 c6bc b880 0abb 432f 1f3c 0f65 89ba
000003c0: f39f 24bd 05bb 8cbc 224e 05bd 26c2 9ebc
000003d0: a648 fbbb 209d 583c e735 7ebc ddf3 dfbc
000003e0: 1341 113c 5f02 823c c907 a93b af9a fdbc
000003f0: 608c cdbc 6a81 ecbb 8b85 8e3a d4eb a0bc

fc1.bias f4 [64]
-0.021668782 0.060497142 0.24391176 -0.054832492 -0.13912818 0.532071 0.22510289 -0.019036418
0.0021015517 -0.009807119 -0.054432567 0.12551953 -0.08599939 -0.077528365 0.016166285 -0.0026464718
-0.045118798 0.13101086 -0.037248943 0.22720647 -0.023778612 0.038705785 0.09998531 -0.092351824
-0.075705856 0.08354156 0.06597452 -0.007209082 0.104020774 0.3118224 0.072495036 -0.026056495
-0.020597983 0.26986843 -0.013275349 0.2836951 0.041206688 -0.064455755 0.11492686 -0.0072513884
0.13499244 0.11186731 -0.011633709 0.19341078 -0.032338265 -0.052484207 0.57591975 -0.019134568
0.11413609 0.3336464 -0.057963442 -0.05029435 -0.065175466 0.07834854 0.06987021 0.13331077
-0.025454171 0.045602035 -0.016856117 0.015200163 0.17655815 0.2672302 0.18434072 -0.03578073
00000000: bb82 b1bc dacb 773d 01c4 793e 0998 60bd
00000010: 9e77 0ebe ce35 083f 5f81 663e 43f2 9bbc
00000020: 30ba 093b 0aae 20bc aff4 5ebd 3188 003e
00000030: 7320 b0bd 31c7 9ebd 286f 843c 6e70 2dbb
00000040: 7dce 38bd b627 063e 5992 18bd d0a8 683e
00000050: 5dcb c2bc f589 1e3d 19c5 cc3d f422 bdbd
00000060: ac0b 9bbd d617 ab3d a61d 873d 2a3a ecbb
00000070: d808 d53d 30a7 9f3e 4778 943d 6e74 d5bc
00000080: 1abd a8bc 322c 8a3e d980 59bc 7c40 913e
00000090: 58c8 283d 6101 84bd c65e eb3d 0e9d edbb
000000a0: 753b 0a3e b01a e53d 509b 3ebc 7a0d 463e
000000b0: 2175 04bd aef9 56bd 7a6f 133f 19c0 9cbc
000000c0: 2fc0 e93d b3d3 aa3e 136b 6dbd 7301 4ebd
000000d0: b77a 85bd 3375 a03d 1d18 8f3d 9e82 083e
000000e0: 4485 d0bc 33c9 3a3d d715 8abc 1b0a 793c
000000f0: a9cb 343e 66d2 883e d0c3 3c3e d18e 12bd

fc2.weight f4 [64, 64]
0.06242381 0.25883803 0.21729977 -0.09896533 0.3285448 0.14815162 0.48357567 0.033907477
0.123868905 0.090129636 0.018662445 -0.12565398 -0.05536854 0.26393723 -0.29483703 -0.6762462
-0.04209441 -0.09412772 -0.059753228 -0.14495367 -0.09625453 -0.28818548 -0.37729907 -0.0786494
0.0003525081 -0.11816636 -0.2501745 0.082757674 -0.1667392 0.056943446 -0.12218774 -0.051426638
0.029583635 -0.1893985 -0.063980125 0.25038943 0.028900448 0.06761297 0.20026752 0.10884785
-0.032101195 0.22710083 0.0135037545 0.3078752 0.025501262 0.11603682 0.5068026 0.070981696
0.56297725 -0.17345138 0.09945877 0.004132285 0.06805477 0.03606409 0.0021432962 0.42724875
-0.035184726 -0.35106224 -0.29174948 0.27520913 0.124556765 0.24601445 0.2375049 -0.2815654
-0.0822196 0.06334068 0.010127738 0.04014085 -0.059657216 -0.10110255 -0.042023372 0.06371112
-0.077507 0.020727718 0.03327015 -0.13503549 -0.07711177 -0.076668605 -0.1049649 -0.023008546
0.067686886 -0.077948876 0.08497609 -0.12900893 -0.12804054 -0.03548642 -0.07366035 -0.114868395
-0.08981449 -0.028828105 -0.01938142 0.12878294 0.05922332 -0.096662365 0.00295001 -0.011551046
-0.057747025 -0.06317613 0.10740171 -0.0788808 0.028307872 0.09581558 -0.024495805 -0.023093492
-0.109803036 -0.136878 0.08902055 0.026915496 -0.014370278 -0.008075083 -0.1044485 0.04223467
0.030783385 -0.04989819 0.060062543 -0.07604672 0.05254156 0.027700387 -0.10566942 0.057248134
-0.0181773 -0.055386472 0.109618954 0.09392796 0.055450104 0.09455793 -0.102629945 -0.019325523
-0.039594218 0.07180814 -0.18328698 0.03388963 0.075042054 0.19222783 -0.34267262 0.026289346
0.09096076 0.034592986 0.13735406 0.0771185 -0.15757202 0.3457627 0.33617714 0.15302868
0.09399895 0.58793896 0.017970249 0.5885734 -0.1232011 0.17137294 -0.2032305 -0.068802595
-0.036336962 0.13515475 0.04391182 0.03131435 0.078197874 0.47954854 0.021184098 0.009065136
0.040892832 -0.11357064 -0.033721194 -0.7256262 -0.21232785 -0.08602743 0.33415908 -0.009513589
-0.40451396 -0.27868772 -0.01356386 0.12695627 -0.10113284 -0.12684815 0.035719283 0.14937586
0.31015003 0.3569038 0.042246684 -0.0041021355 -0.06931411 0.011756287 -0.2846425 0.029035313
0.0063863397 -0.33373943 0.29751036 0.2791853 -0.5367397 0.34673297 0.2355919 -0.08793427
0.11624603 0.47609746 -0.41900897 -0.051619127 -0.065336935 -0.07049727 -0.117833994 -0.05140476
-0.123095654 -0.12020863 -0.050057363 -0.1539525 0.034761038 0.57119364 -0.024361406 0.122286946
0.11488823 -0.1965228 -0.013953671 -0.31211567 0.010921629 -0.3119247 -0.21108541 0.05009446
-0.0922112 -0.1586239 -0.27833894 -0.037480723 -0.2929619 -0.13242209 -0.076646216 0.023204017
0.114334755 -0.04419004 -0.12320331 -0.2590485 0.03739578 0.025305783 -0.24525975 -0.007649392
-0.10820058 -0.2889406 -0.07304855 -0.5282056 -0.11791085 -0.122196496 -0.38606644 -0.013886148
-0.35796767 0.22624336 -0.06405091 0.07700942 -0.006805343 -0.03483011 -0.22238941 -0.18280704
-0.04153359 0.15558113 0.11466484 -0.014281651 -0.09302809 -0.26111922 -0.27288163 -0.015273561
00000000: 1cb0 7f3d 6b86 843e d583 5e3e 56ae cabd
00000010: 0637 a83e 0fb5 173e 3b97 f73e 91e2 0a3d
00000020: fbae fd3d e395 b83d fce1 983c 70ab 00be
00000030: 1fca 62bd c822 873e e1f4 96be 791e 2dbf
00000040: 306b 2cbd 09c6 c0bd cdbf 74bd bc6e 14be
00000050: 1821 c5bd 0c8d 93be 582d c1be f012 a1bd
00000060: d6d0 b839 3401 f2bd df16 80be db7c a93d
00000070: aebd 2abe 883d 693d 913d fabd bda4 52bd
00000080: 6159 f23c aef1 41be 0308 83bd 0b33 803e
00000090: a2c0 ec3c ab78 8a3d ee12 4d3e 9feb de3d
000000a0: 8b7c 03bd 1f8d 683e da3e 5d3c d1a1 9d3e
000000b0: 06e8 d03c b6a4 ed3d d1bd 013f da5e 913d
000000c0: 471f 103f 3d9d 31be 0ab1 cb3d 1e68 873b
000000d0: 4d60 8b3d f0b7 133d 8b76 0c3b 59c0 da3e
000000e0: dc1d 10bd 6ebe b3be 3060 95be 36e8 8c3e
000000f0: 9e17 ff3d 36eb 7b3e 7c34 733e 5729 90be
00000100: c062 a8bd c2b8 813d d0ee 253c bb6a 243d
00000110: 205b 74bd db0e cfbd b320 2cbd fa7a 823d
00000120: fdbb 9ebd 2dcd a93c 4846 083d be46 0abe
00000130: c7ec 9dbd 6e04 9dbd d6f7 d6bd 6b7c bcbc
00000140: 6c9f 8a3d a9a3 9fbd f207 ae3d eb1a 04be
00000150: 0f1d 03be 355a 11bd 3ddb 96bd 1f40 ebbd
00000160: a9f0 b7bd eb28 ecbc c9c5 9ebc addf 033e
00000170: 2794 723d ebf6 c5bd f454 413b 9940 3dbc
00000180: 2588 6cbd 7d62 81bd 6df5 db3d 428c a1bd
00000190: e9e5 e73c f53a c43d 6dab c8bc 902e bdbc
000001a0: 6ae0 e0bd bf29 0cbe 6850 b63d e37d dc3c
000001b0: 5171 6bbc 5a4d 04bc 18e9 d5bd 43fe 2c3d
000001c0: 702d fc3c 0b62 4cbd 2404 763d 62be 9bbd
000001d0: d235 573d eceb e23c 3569 d8bd 057d 6a3d
000001e0: 90e8 94bc eddc 62bd e77f e03d 4d5d c03d
000001f0: a61f 633d 97a7 c13d a62f d2bd 8f50 9ebc
00000200: 8c2d 22bd 2510 933d 95af 3bbe dacf 0a3d
00000210: a6af 993d 5fd7 443e c972 afbe c15c d73c
00000220: a349 ba3d 60b1 0d3d 8ba6 0c3e 4ef0 9d3d
00000230: 8f5a 21be cf07 b13e 691f ac3e 8db3 1c3e
00000240: 8682 c03d 2b83 163f 5836 933c bfac 163f
00000250: dc50 fcbd 637c 2f3e a81b 50be 60e8 8cbd
00000260: 11d6 14bd 0266 0a3e e1dc 333d 7a43 003d
00000270: 3526 a03d 6387 f53e 468a ad3c f085 143c
00000280: 3e7f 273d b997 e8bd 3c1f 0abd a3c2 39bf
00000290: 796c 59be 262f b0bd e616 ab3e e2de 1bbc
000002a0: 741c cfbe 28b0 8ebe f43a 5ebc d300 023e
000002b0: bc1e cfbd 7be4 01be 624e 123d fcf5 183e
000002c0: fccb 9e3e 18bc b63e dc0a 2d3d 356b 86bb
000002d0: 8ef4 8dbd 719d 403c a9bc 91be 77db ed3c
000002e0: 8044 d13b e5df aabe 4753 983e 60f1 8e3e
000002f0: c667 09bf fc86 b13e 013f 713e e216 b4bd
00000300: 6612 ee3d 0cc3 f33e 5888 d6be 946e 53bd
00000310: 5fcf 85bd df60 90bd f352 f1bd cc8d 52bd
00000320: 9319 fcbd f12f f6bd f308 4dbd b9a5 1dbe
00000330: 9761 0e3d bf39 123f 9291 c7bc 9471 fa3d
00000340: 854a eb3d 463d 49be f09d 64bc a0cd 9fbe
00000350: a2f0 323c 98b4 9fbe c626 58be d92f 4d3d
00000360: 3ad9 bcbd 4e6e 22be 7182 8ebe 6385 19bd
00000370: 1aff 95be a899 07be b1f8 9cbd 5a16 be3c
00000380: 5728 ea3d 9e00 35bd 0452 fcbd 01a2 84be
00000390: 512c 193d 134e cf3c 5f25 7bbe c0a7 fabb
000003a0: 4498 ddbd 06f0 93be 7a9a 95bd 7b38 07bf
000003b0: 3e7b f1bd 2842 fabd 80aa c5be ba82 63bc
000003c0: 8a47 b7be 57ac 673e 202d 83bd 1db7 9d3d
000003d0: 5bff debb 04aa 0ebd 0dba 63be c531 3bbe
000003e0: 201f 2abd a950 1f3e 66d5 ea3d 96fd 69bc
000003f0: 8385 bebd 6bb1 85be 24b7 8bbe f53d 7abc

fc2.bias f4 [64]
0.504676 0.07281111 0.59069484 0.090718955 0.63041806 -0.107794814 0.40729833 0.7619865
0.3390071 0.25223058 0.20065019 0.11138902 0.3596498 0.20530762 0.26089227 0.59623986
0.24387428 0.57767504 -0.11380404 0.61781865 0.6425345 0.71198714 0.103514045 0.17010252
0.6701123 0.58622956 0.1937477 0.7369863 0.123725064 0.4575408 0.00938312 0.14490107
0.31230864 -0.17879336 0.1659975 -0.121964484 0.017386356 0.4131434 -0.056777727 -0.054027885
0.09258071 0.5260991 0.14762305 0.24808855 0.2554867 -0.01608627 0.6744152 0.45592394
0.091886126 0.07474782 -0.021318687 0.25205976 0.32626984 -0.19229597 0.29876187 0.35271835
0.24013141 0.2985387 0.46031842 1.1318371 0.20490012 0.35917696 0.4792197 0.43484133
00000000: 7232 013f fe1d 953d c737 173f dcca b93d
00000010: 1463 213f 87c3 dcbd 6889 d03e 8c11 433f
00000020: 5792 ad3e 5e24 813e 3e77 4d3e ed1f e43d
00000030: 0524 b83e 293c 523e ac93 853e 2da3 183f
00000040: 2eba 793e 83e2 133f 1812 e9bd 5d29 1e3f
00000050: 247d 243f ca44 363f 2cff d33d 5b2f 2e3e
00000060: 7b8c 2b3f 2413 163f cc65 463e 22ab 3c3f
00000070: 9163 fd3d ca42 ea3e a8bb 193c f260 143e
00000080: ebe6 9f3e 9b15 37be 40fb 293e 84c8 f9bd
00000090: d56d 8e3c 8887 d33e c38f 68bd 584c 5dbd
000000a0: f59a bd3d 6eae 063f 7f2a 173e ed0a 7e3e
000000b0: 27cf 823e 5ac7 83bc 79a6 2c3f dd6e e93e
000000c0: cb2e bc3d 6315 993d 87a4 aebc fa0d 813e
000000d0: d70c a73e 3ce9 44be 51f7 983e 8097 b43e
000000e0: 02e5 753e 11da 983e dbae eb3e 0ae0 903f
000000f0: 56d1 513e 0be6 b73e 495c f53e 86a3 de3e

fc3.weight f4 [7, 64]
0.07809166 -0.040920887 0.5749734 -0.48669738 0.30096254 -0.108890176 0.34326097 0.19374983
0.573487 -0.2013426 0.41080064 0.08696879 0.0190806 0.17019954 0.14579879 0.18370353
0.24594176 0.39178112 0.08912337 0.46495593 0.20335633 0.36502016 0.15891509 0.3040244
0.19587009 0.3212093 -0.5934488 0.40160105 -1.0310902e-05 -0.016280927 0.032804344 0.10141061
0.16191992 -0.020314075 -0.114885695 -0.08031049 -0.76918125 -0.056313563 0.0028379709 -0.019807497
0.20182236 0.21483338 -0.019645492 0.11272326 0.128687 -0.05743746 0.19439526 0.0890487
-0.10410639 -0.26393503 -0.050757214 1.036571 0.38565943 -0.09233213 0.28244707 0.055613913
0.42349854 0.14561398 0.111918755 0.49612647 0.4325697 0.21612784 0.16666526 0.20529756
-0.032095294 -0.13968371 0.124934934 -0.548381 0.19577917 0.0011359524 0.17554747 0.43081143
0.4546044 0.8155993 0.5021958 0.047925748 0.08602451 0.48050073 0.14842604 0.131114
-0.34940463 0.34730542 0.09584816 0.16156873 0.3256424 0.1105903 -0.7085619 -0.8715882
0.31742728 0.34827596 0.64714086 0.26312122 0.8490911 0.080182254 -0.0453234 0.83831215
-0.12545998 0.065758005 -0.10309191 -0.8023492 0.23604493 0.50822634 -0.04383126 -0.028658621
0.20097643 0.09634307 -0.05583111 0.1739824 -0.5210954 -0.076380014 0.5210543 0.08191226
-0.17246875 0.030005978 0.18942496 -0.09776076 0.030481126 -0.001426282 0.51548594 0.5628678
0.16736682 0.16000383 0.111868195 0.11165013 -0.08822326 -0.3461035 0.15470113 0.10530631
0.44679898 0.08574729 -0.23151274 -0.29561007 0.10724214 0.0039712423 0.08385734 -0.2338209
0.7031913 -0.32425085 -0.24429072 0.054012567 0.12760015 0.1094458 0.05963449 0.14215268
0.11587141 0.24040215 0.028464982 0.3244506 0.2739928 -0.39522249 -0.2698743 0.32667202
0.2762141 0.2805579 0.13268352 0.6642853 -0.15186992 0.12957747 -0.05819724 0.71906507
0.37113386 -0.11888969 0.7501958 0.23917215 0.028363613 0.074869126 -0.081449226 0.07539535
0.05426835 0.011121924 0.6009057 -0.025284585 0.2933015 -0.0137125775 0.3623299 -0.32077208
-0.05166794 0.56407464 0.11442639 0.04128662 0.14603505 -0.009546302 0.14920063 0.44561648
0.16720335 0.28100204 0.23146895 0.14756034 -0.3553811 0.2356351 0.12709352 0.29310584
0.5511011 -0.035884816 0.094637565 -0.23276643 0.1575443 0.11434722 0.3068044 0.0690558
-0.21486928 0.082061864 0.025181092 -0.8891333 0.22761187 -0.7356262 0.1093214 0.35692674
0.103773594 -0.13839711 -0.014910519 -0.09234383 0.27950892 -0.19631897 0.2974925 0.008812377
0.25218305 0.42788446 0.084712885 0.46758604 0.04639449 0.35639644 -0.0038309481 -0.06340583
0.016883362 -0.021902144 0.2607373 0.22614223 0.08077958 -0.48131293 0.11851455 0.09922799
-0.06901937 0.21120729 -0.024253268 0.81421465 0.28514457 -0.05763715 0.26457348 0.37732154
0.28510636 -0.19510274 -0.65460646 0.17931435 0.06784657 0.17394035 0.059333358 0.1213672
0.011487089 0.2093103 0.37140274 0.12319857 0.20842303 -0.11211468 0.15730047 0.12553333
00000000: 85ee 9f3d a99c 27bd 7531 133f 6630 f9be
00000010: c317 9a3e d001 dfbd e7bf af3e 5b66 463e
00000020: 0bd0 123f c12c 4ebe 7654 d23e b11c b23d
00000030: eb4e 9c3c ca48 2e3e 474c 153e c71c 3c3e
00000040: 28d8 7b3e 8997 c83e 5086 b63d b40e ee3e
00000050: a43c 503e ece3 ba3e a3ba 223e 16a9 9b3e
00000060: 2b92 483e 8c75 a43e 43ec 17bf a79e cd3e
00000070: fdfc 2cb7 945f 85bc d95d 063d 5eb0 cf3d
00000080: 56ce 253e b469 a6bc 3149 ebbd d479 a4bd
00000090: 10e9 44bf 0da9 66bd 40fd 393b 5543 a2bc
000000a0: 85aa 4e3e 48fd 5b3e 95ef a0bc 74db e63d
000000b0: 86c6 033e 8b43 6bbd 8d0f 473e 2a5f b63d
000000c0: bb35 d5bd 7e22 87be cce6 4fbd 5cae 843f
000000d0: 2775 c53e a118 bdbd e79c 903e 6acb 633d
000000e0: cdd4 d83e d51b 153e a935 e53d 4a04 fe3e
000000f0: c779 dd3e 9e50 5d3e 4caa 2a3e 8639 523e
00000100: 5b76 03bd 3f09 0fbe e3dd ff3d b262 0cbf
00000110: 567a 483e 3de4 943a b7c2 333e 5193 dc3e
00000120: e8c1 e83e 1ecb 503f e78f 003f ca4d 443d
00000130: 9e2d b03d 3104 f63e fffc 173e c042 063e
00000140: 2ae5 b2be 04d2 b13e 0a4c c43d 4672 253e
00000150: 9aba a63e 2b7d e23d 5064 35bf 6720 5fbf
00000160: d485 a23e 3a51 b23e 06ab 253f d3b7 863e
00000170: 095e 593f 9836 a43d 08a5 39bd a09b 563f
00000180: 9578 00be 22ac 863d da21 d3bd c266 4dbf
00000190: c3b5 713e 1f1b 023f 6888 33bd 7cc5 eabc
000001a0: c4cc 4d3e 844f c53d 29af 64bd 7128 323e
000001b0: 8266 05bf 206d 9cbd d163 053f 9dc1 a73d
000001c0: a69b 30be 19cf f53c 9ef8 413e cb36 c8bd
000001d0: 8eb3 f93c 15f2 baba e3f6 033f 1b18 103f
000001e0: 3562 2b3e 0bd8 233e 271b e53d d3a8 e43d
000001f0: 66ae b4bd 7a34 b1be f969 1e3e d6aa d73d
00000200: d6c2 e43e 469c af3d ad11 6dbe 345a 97be
00000210: c4a1 db3d 3221 823b 66bd ab3d bf6e 6fbe
00000220: 5804 343f 3504 a6be 5927 7abe 483c 5d3d
00000230: 9da9 023e 1f25 e03d 4c43 743d 7990 113e
00000240: fd4d ed3d fb2b 763e 652f e93c 641e a63e
00000250: c948 8c3e 9a5a cabe f72c 8abe 8e41 a73e
00000260: ef6b 8d3e 49a5 8f3e 30de 073e 9a0e 2a3f
00000270: ca83 1bbe f5af 043e 3b60 6ebd a614 383f
00000280: 4205 be3e 707c f3bd d50c 403f 8be9 743e
00000290: cf5a e83c fc54 993d dace a6bd e168 9a3d
000002a0: 7d48 5e3d bb38 363c f5d4 193f 9e21 cfbc
000002b0: 9d2b 963e b8aa 60bc 4e83 b93e 3d3c a4be
000002c0: c3a1 53bd 3267 103f 6258 ea3d 291c 293d
000002d0: 368a 153e 1868 1cbc 0dc8 183e d827 e43e
000002e0: 5b37 2b3e 80df 8f3e 3206 6d3e 0f1a 173e
000002f0: 83f4 b5be 544a 713e ce24 023e f811 963e
00000300: f614 0d3f f5fb 12bd 57d1 c13d 535a 6ebe
00000310: 4b53 213e e02e ea3d 7715 9d3e 216d 8d3d
00000320: b106 5cbe 0d10 a83d 9448 ce3c 3d9e 63bf
00000330: 1613 693e 0052 3cbf e6e3 df3d 1abf b63e
00000340: 4087 d43d f9b7 0dbe 404b 74bc c31e bdbd
00000350: cb1b 8f3e d707 49be f050 983e ca61 103c
00000360: 231e 813e ac13 db3e f37d ad3d 7067 ef3e
00000370: 2608 3e3d 9879 b63e a510 7bbb eada 81bd
00000380: fa4e 8a3c 206c b3bc 5c7f 853e d491 673e
00000390: c46f a53d a66e f6be c2b7 f23d 0b38 cb3d
000003a0: 075a 8dbd b946 583e caae c6bc 5f70 503f
000003b0: 78fe 913e ef14 6cbd 2d76 873e 4a30 c13e
000003c0: 76f9 913e 03c9 47be 4a94 27bf 2e9e 373e
000003d0: 24f3 8a3d 6b1d 323e 8907 733d 5e8f f83d
000003e0: 5834 3c3c 7055 563e 8028 be3e 884f fc3d
000003f0: d96c 553e 629c e5bd 6013 213e cf8b 003e

fc3.bias f4 [7]
0.6220866 0.53026253 0.22379369 0.43498045 0.26841384 0.21132599 0.7380098
00000000: 1141 1f3f 49bf 073f 2c2a 653e c2b5 de3e
00000010: 8a6d 893e d765 583e 36ee 3c3f
