src/models/v1.2.1.pth (torch, 251050 bytes, 10 tensors)

conv1.weight f4 [16, 10, 3, 3]
-0.20098656 0.08186734 0.03385525 0.05446921 0.1269628 0.10750202 -0.14340404 -0.039998993
0.01492579 0.080485344 0.06335689 -0.044905525 0.0233426 0.07843221 0.01989311 -0.058337484
-0.023109293 0.01422673 0.1802919 0.0036533487 -0.20090057 0.04285563 -0.077073954 -0.07019516
0.100048184 -0.28467348 0.109374955 -0.02845199 0.07228147 -0.0480967 0.043401077 0.072794795
0.09899765 0.084704295 0.037670348 0.10326976 0.0156713 0.037075046 0.12131648 -0.030004699
-0.14173914 0.010372285 -0.053199247 -0.009595171 0.08983843 -0.023138043 0.14592996 0.042292174
-0.26740485 -0.11610779 -0.5154424 0.108431414 -0.028857874 0.070933506 -0.17386153 -0.057324853
0.36207318 -0.19076698 -0.23618922 -0.335405 0.2469752 -0.13294749 0.10156411 -0.06260134
-0.048658032 0.076810785 -0.055706974 0.05368096 0.06806534 -0.07677004 0.04036773 -0.037385896
-0.008579427 -0.034851916 0.15251963 -0.06275809 0.0123872105 -0.0885424 0.14542937 -0.08485697
0.20952159 0.09661865 0.118538655 0.23430936 -0.09527521 -0.012421215 -0.058957204 -0.18036674
-0.13954279 0.10907171 0.1498829 0.27004707 -0.030554848 0.09363415 0.059112158 -0.020403571
-0.083452374 0.20229477 -0.15858892 0.04666976 -0.03997081 0.014762283 -0.054440662 0.049384415
0.0024683306 -0.09404071 0.05336825 -0.1025585 -0.0023996024 0.06134658 0.050553128 -0.076186575
0.11371167 -0.064354055 -0.05957248 0.16383141 0.10888621 -0.011911501 -0.08406621 0.05383105
0.09134814 -0.058013085 0.052000344 -0.032706734 0.035037115 -0.05519617 -0.11128833 -0.1643005
-0.13440382 -0.13300085 0.0747355 -0.020877942 -0.35686824 0.10227647 -0.15220292 -0.16901386
0.17914079 0.3134766 0.20472519 0.37917456 0.15395595 0.008089902 0.2050627 -0.2323202
-0.02422269 0.29932052 0.2648985 0.18004577 0.30920613 0.06906765 0.028234778 -0.1434845
0.13777135 -0.051894344 0.04210479 0.026028251 0.048204314 -0.10015243 0.02905558 0.12755865
0.019543923 -0.052070256 0.015174679 -0.08339541 -0.24293447 -0.009388988 0.0056445426 -0.10908223
-0.21859173 0.13552344 -0.040043905 0.24348477 0.013557924 0.12506871 0.27078265 0.33923224
0.4068893 0.097806275 -0.06504616 -0.029167622 -0.03386682 -0.18594365 -0.08391696 0.014003546
0.22216828 -0.085092366 0.094784684 -0.000585823 0.14439833 0.03198082 -0.01000001 0.08612066
0.05659749 -0.015226525 0.06784066 0.017893508 0.041792333 0.07750345 0.003399881 0.12649229
0.31311566 -0.22230205 0.0117018 -0.048724353 -0.10841058 0.2526383 0.21689712 -0.013528564
0.08165469 -0.021429941 0.10095516 0.048326492 0.03162008 0.03648184 0.0027435082 0.022590866
-0.22258754 0.015156337 -0.05654185 -0.15238641 0.0007494357 0.07556801 0.15071988 -0.07824931
-0.315539 -0.15641819 0.18036966 0.1723969 -0.13679045 -0.2643092 0.087192096 0.11718462
0.027807657 -0.407627 0.12182737 -0.1368938 0.11038169 -0.13835193 -0.32881042 -0.36913455
0.31559283 -0.16704033 -0.19069144 0.067552604 0.012615845 0.05711875 -0.005129851 0.072848424
0.0043911915 -0.033858214 -0.011037969 0.029868746 -0.13211653 0.0036299336 -0.12351363 -0.11275427
00000000: 6ccf 4dbe 10aa a73d cdab 0a3d 1b1b 5f3d
00000010: 8902 023e 052a dc3d 82d8 12be fcd5 23bd
00000020: 4d8b 743c 80d5 a43d 42c1 813d dbee 37bd
00000030: fb38 bf3c 11a1 a03d e0f6 a23c 49f3 6ebd
00000040: b34f bdbc 3b17 693c 719e 383e 056d 6f3b
00000050: e1b8 4dbe 6389 2f3d f3d8 9dbd 7bc2 8fbd
00000060: 10e6 cc3d b9c0 91be faff df3d 2614 e9bc
00000070: 4f08 943d 0c01 45bd 54c5 313d 7015 953d
00000080: 48bf ca3d 7279 ad3d 394c 1a3d 197f d33d
00000090: 1961 803c 01dc 173d c674 f83d 6acc f5bc
000000a0: 1124 11be 84f0 293c 74e7 59bd 1035 1dbc
000000b0: 36fd b73d fe8b bdbc aa6e 153e 8f3a 2d3d
000000c0: 4ae9 88be ecc9 edbd 08f4 03bf 4a11 de3d
000000d0: 5967 ecbc 9645 913d c208 32be 77cd 6abd
000000e0: a861 b93e 6b58 43be 96db 71be 34ba abbe
000000f0: 11e7 7c3e 6323 08be d800 d03d 2235 80bd
00000100: a54d 47bd f94e 9d3d ff2c 64bd 91e0 5b3d
00000110: d765 8b3d 9c39 9dbd a258 253d f421 19bd
00000120: ba90 0cbc e2c0 0ebd 1b2e 1c3e 5087 80bd
00000130: baf3 4a3c b855 b5bd 70eb 143e 7ec9 adbd
00000140: d48c 563e 00e0 c53d 65c4 f23d cbee 6f3e
00000150: a61f c3bd 5a82 4bbc 1c7d 71bd 0fb2 38be
00000160: 4ee4 0ebe fd60 df3d e77a 193e 9c43 8a3e
00000170: 294e fabc 43c3 bf3d 971f 723d 6425 a7bc
00000180: 14e9 aabd 5c26 4f3e 2265 22be ca28 3f3d
00000190: 6fb8 23bd 81dd 713c 2cfd 5ebd 5047 4a3d
000001a0: b7c3 213b 6a98 c0bd ab98 5a3d 310a d2bd
000001b0: a642 1dbb 8d46 7b3d cc10 4f3d b507 9cbd
000001c0: aae1 e83d 0fcc 83bd 4602 74bd 6cc3 273e
000001d0: bcff de3d 7528 43bc e82a acbd f27d 5c3d
000001e0: bc14 bb3d 219f 6dbd 50fe 543d 7ff7 05bd
000001f0: 1483 0f3d 6115 62bd 23eb e3bd 643e 28be
00000200: 28a1 09be 6031 08be ed0e 993d 3808 abbc
00000210: 6fb7 b6be 5376 d13d 15db 1bbe f811 2dbe
00000220: af70 373e 0180 a03e 7ba3 513e 2b23 c23e
00000230: a1a6 1d3e 828b 043c f5fb 513e 59e5 6dbe
00000240: aa6e c6bc 8a40 993e c7a0 873e eb5d 383e
00000250: 4450 9e3e 5773 8d3d 9f4c e73c 9aed 12be
00000260: ef13 0d3e 2a8f 54bd 1376 2c3d 3339 d53c
00000270: e371 453d b81c cdbd f805 ee3c bc9e 023e
00000280: 941a a03c 9f47 55bd 389f 783c 36cb aabd
00000290: d0c3 78be 45d4 19bc dbf5 b83b 8166 dfbd
000002a0: 83d6 5fbe a8c6 0a3e 1405 24bd 1254 793e
000002b0: 0e22 5e3c 0312 003e 06a4 8a3e d9af ad3e
000002c0: cb53 d03e a84e c83d ec36 85bd f0f0 eebc
000002d0: efb7 0abd 0368 3ebe a8dc abbd 216f 653c
000002e0: 1580 633e e844 aebd 791e c23d eb91 19ba
000002f0: 28dd 133e 52fe 023d 15d7 23bc 0760 b03d
00000300: c5d2 673d ad78 79bc 0bf0 8a3d 6895 923c
00000310: 702e 2b3d 21ba 9e3d 8ad0 5e3b 3287 013e
00000320: b250 a03e 26a3 63be e8b8 3f3c 3093 47bd
00000330: 5e06 debd cf59 813e 471a 5e3e e9a6 5dbc
00000340: 933a a73d d88d afbc 94c1 ce3d 00f2 453d
00000350: 0f84 013d fb6d 153d 6ecc 333b 7b10 b93c
00000360: fded 63be 4952 783c 6d98 67bd 2f0b 1cbe
00000370: c775 443a 67c3 9a3d 5056 1a3e 2d41 a0bd
00000380: 548e a1be 172c 20be d3b2 383e d088 303e
00000390: cc12 0cbe 8953 87be c591 b23d 7dfe ef3d
000003a0: e2cc e33c 7cb4 d0be a180 f93d e32d 0cbe
000003b0: cc0f e23d 21ac 0dbe d759 a8be 34ff bcbe
000003c0: 6295 a13e 9f0c 2bbe 9e44 43be 0559 8a3d
000003d0: b0b2 4e3c 5af5 693d 4f18 a8bb 8e31 953d
000003e0: fce3 8f3b e9ae 0abd 99d8 34bc 4daf f43c
000003f0: 8e49 07be 2ee4 6d3b b7f4 fcbd b6eb e6bd

conv1.bias f4 [16]
0.16631544 -0.05922809 0.06283745 0.15027042 0.1257243 0.23937456 0.18094791 -0.08866079
-0.018534651 0.23460147 -0.09556804 0.18031697 -0.08115952 0.11219447 0.04413925 -0.007523037
00000000: 984e 2a3e 2799 72bd ecb0 803d 7de0 193e
00000010: dfbd 003e 9b1e 753e 694a 393e ca93 b5bd
00000020: fbd5 97bc 5e3b 703e 2db9 c3bd 03a5 383e
00000030: f636 a6bd 37c6 e53d 5ccb 343d cf83 f6bb

conv2.weight f4 [32, 16, 3, 3]
-0.2748373 0.058306333 -0.2891446 0.10674848 -0.13159618 0.015879223 0.11129007 -0.052121077
0.00960807 -0.074016675 0.15840156 0.016861696 0.10538965 0.21275115 0.1481976 0.18543446
0.2251877 0.093544185 0.020185772 -0.03635365 0.16392578 0.079507746 0.0832354 0.01921246
0.09780825 0.16544178 -0.012335843 0.028492924 0.032767814 -0.015421117 -0.10012948 0.091344886
-0.039304852 0.047781486 0.103255846 -0.15984128 -0.07986281 -0.0010593676 0.14700028 0.07990042
-0.1017517 0.05015789 0.047773197 -0.0998297 0.013099954 0.19368851 0.14593592 0.042227022
0.037594788 0.16133158 -0.09269139 -0.10779673 0.13571638 0.08102925 -0.14588192 -0.069342874
0.09615104 0.13119546 -0.035795115 0.09972986 0.061923146 0.0117239095 -0.14191695 0.051425673
0.15416361 0.09404623 0.057219665 0.1835124 -0.25503805 0.019367134 0.06600745 -0.0803617
-0.013744402 0.016062714 -0.24824889 0.024478905 -0.29041305 0.08876356 -0.30293706 0.05496174
-0.038391918 -0.1256884 0.044249322 -0.16083777 0.13489738 -0.043165572 -0.06686038 -0.056857366
-0.13512133 -0.1750219 -0.037778918 -0.07592127 -0.024131827 0.13155788 -0.03137719 -0.12664631
0.054263018 0.09278368 -0.059143905 -0.38630483 -0.03710159 -0.20981836 -0.09522742 0.05256077
0.15208514 -0.15659712 0.14538497 0.12167256 -0.31064022 -0.19152237 0.1610851 0.023141975
0.21516204 0.10612925 -0.1756539 0.20443892 0.017249892 0.20123552 0.3523394 0.17716612
0.039087724 -0.11688136 0.010651404 -0.16413458 0.008573032 0.014747313 0.1208081 0.071262695
-0.06522255 -0.19243851 0.03188334 -0.11757488 -0.261748 0.06686154 0.068074346 0.006779817
-0.091018036 -0.022745335 -0.005063103 -0.1291576 -0.03937137 -0.04667782 0.077987164 -0.058207933
0.036574993 0.08799386 0.15291366 0.04180863 0.2316305 0.050405104 -0.022897381 -0.020570427
0.035588298 0.15626279 0.021712992 0.0039126193 -0.11733926 -0.08943748 -0.01840946 -0.074142106
0.0813727 0.066795886 -0.007617669 0.04109859 0.022816427 -0.060868375 0.025878217 0.16994657
-0.13444865 -0.11010926 0.059066415 -0.30374256 -0.16447394 0.07878614 0.0036796215 0.09049424
-0.0942588 0.12622215 0.10507816 0.12731414 -0.052805565 -0.10880822 -0.065464675 0.09343261
0.107881576 0.14078161 0.06365755 -0.08750132 0.06534827 -0.062432703 0.057193283 -0.06375934
0.18064469 0.09880377 0.053705215 0.070315786 0.19761246 0.14406823 0.22702304 -0.027648028
-0.06601923 0.16477841 0.045874037 0.12546384 0.13731806 0.06825296 0.06938027 -0.09246165
0.119525075 -0.010070469 -0.18549244 -0.1311124 -0.04852118 -0.08303559 -0.18062238 0.15958951
0.13540302 -0.021752829 0.21675637 -0.1394343 -0.1561661 -0.17108771 -0.08136516 -0.28716043
-0.043833893 0.1311691 0.15202554 -0.0023518614 0.030543221 0.18219581 0.045516398 -0.0011492701
0.057100933 0.02377449 -0.018648237 -0.10623576 0.060544606 -0.3262902 -0.34678692 -0.039048217
-0.17027842 -0.35013184 -0.0127211325 0.09490279 -0.03320341 -0.040009677 -0.036786232 0.016198056
-0.09351518 0.02029281 -0.05950684 0.029123392 0.042969104 -0.2308748 -0.24829918 -0.058187786
00000000: 79b7 8cbe 9fd2 6e3d c30a 94be f29e da3d
00000010: 26c1 06be 2515 823c 0cec e33d e97c 55bd
00000020: 2b6b 1d3c 0e96 97bd 0534 223e 8a21 8a3c
00000030: 87d6 d73d 70db 593e 1dc1 173e 88e2 3d3e
00000040: 9b97 663e 1894 bf3d a25c a53c 91e7 14bd
00000050: 29dc 273e f5d4 a23d 5277 aa3d 7363 9d3c
00000060: b14f c83d 9269 293e 471c 4abc fe69 e93c
00000070: 8b37 063d daa8 7cbc af10 cdbd 0713 bb3d
00000080: 20fe 20bd 85b6 433d cd77 d33d 6fad 23be
00000090: 1d8f a3bd 7ada 8aba 3e87 163e d5a2 a33d
000000a0: 3263 d0bd 5c72 4d3d d4ad 433d 8473 ccbd
000000b0: 31a1 563c 4856 463e 3a70 153e 3ef6 2c3d
000000c0: fefc 193d 1b34 253e fcd4 bdbd 88c4 dcbd
000000d0: 3cf9 0a3e aaf2 a53d 1262 15be a303 8ebd
000000e0: d6ea c43d 1a58 063e e69d 12bd 2b3f cc3d
000000f0: 20a3 7d3d a415 403c ad52 11be baa3 523d
00000100: 11dd 1d3e 4f9b c03d 2b5f 6a3d adea 3b3e
00000110: 5994 82be d3a7 9e3c ea2e 873d ad94 a4bd
00000120: 3330 61bc f495 833c f534 7ebe fc87 c83c
00000130: 05b1 94be abc9 b53d 911a 9bbe 901f 613d
00000140: d840 1dbd 76b4 00be c73e 353d a8b2 24be
00000150: 8a22 0a3e 62ce 30bd 18ee 88bd 45e3 68bd
00000160: 3f5d 0abe f138 33be 11be 1abd 9c7c 9bbd
00000170: 1cb0 c5bc 1cb7 063e 5e85 00bd 92af 01be
00000180: e642 5e3d 5f05 be3d e140 72bd bfc9 c5be
00000190: d6f7 17bd a0da 56be 9806 c3bd f649 573d
000001a0: 35bc 1b3e ff5a 20be ccdf 143e 772f f93d
000001b0: 3c0c 9fbe 711e 44be 7ef3 243e 3d94 bd3c
000001c0: 7053 5c3e 4b5a d93d 9ede 33be 7058 513e
000001d0: a54f 8d3c af10 4e3e d465 b43e 096b 353e
000001e0: 731a 203d 7f5f efbd 3a83 2e3c e512 28be
000001f0: e775 0c3c b79e 713c 3d6a f73d 2df2 913d
00000200: 6693 85bd 9a0e 45be 1b98 023d 19cb f0bd
00000210: d503 86be b4ee 883d 906a 8b3d 3a29 de3b
00000220: aa67 babd 6d54 babc 63e8 a5bb e441 04be
00000230: e043 21bd 3e31 3fbd bcb7 9f3d 716b 6ebd
00000240: a9cf 153d 2036 b43d 6695 1c3e 873f 2b3d
00000250: 8c30 6d3e 9575 4e3d 4a93 bbbc 5083 a8bc
00000260: 09c5 113d 5a03 203e 72df b13c 6e35 803b
00000270: 914f f0bd ff2a b7bd 70cf 96bc d1d7 97bd
00000280: bba6 a63d 48cc 883d a49d f9bb ff56 283d
00000290: 84e9 ba3c 1e51 79bd 8efe d33c 7906 2e3e
000002a0: e8ac 09be f780 e1bd a0ef 713d 2584 9bbe
000002b0: db6b 28be a15a a13d ce25 713b 0b55 b93d
000002c0: c20a c1bd 6140 013e 3833 d73d a35e 023e
000002d0: a64a 58bd d8d6 debd 5812 86bd 9959 bf3d
000002e0: 04f1 dc3d 0e29 103e e45e 823d e433 b3bd
000002f0: 50d5 853d 6fb9 7fbd 8143 6a3d 4294 82bd
00000300: ecfa 383e a259 ca3d 00fa 5b3d b901 903d
00000310: ec5a 4a3e 9f86 133e ba78 683e 1e7e e2bc
00000320: 1735 87bd acbb 283e 6ae6 3b3d 9879 003e
00000330: 1b9d 0c3e 35c8 8b3d 3e17 8e3d 895c bdbd
00000340: 90c9 f43d 9cfe 24bc bbf1 3dbe 5442 06be
00000350: 25be 46bd 900e aabd 13f5 38be 6f6b 233e
00000360: 17a7 0a3e fd32 b2bc 62f5 5d3e ddc7 0ebe
00000370: 02ea 1fbe 9e31 2fbe c7a2 a6bd b106 93be
00000380: 2b8b 33bd 3151 063e 95ac 1b3e b021 1abb
00000390: c735 fa3c 8a91 3a3e 676f 3a3d 1ba3 96ba
000003a0: abe2 693d b8c2 c23c 30c4 98bc 2292 d9bd
000003b0: 9ffd 773d 820f a7be 0e8e b1be 06f1 1fbd
000003c0: 775d 2ebe 7b44 b3be 4c6c 50bc 655c c23d
000003d0: 4d00 08bd 30e1 23bd 29ad 16bd c9b1 843c
000003e0: e384 bfbd 1b3d a63c 72bd 73bd 2e94 ee3c
000003f0: 5f00 303d 726a 6cbe 2442 7ebe 5156 6ebd

conv2.bias f4 [32]
0.008652683 0.146323 0.11496019 -0.06295192 0.062571384 0.14229509 -0.015013499 0.15371047
0.03495815 -0.004775536 0.12201892 0.08399939 0.06898953 0.06577532 0.056001704 0.043518096
0.010276612 0.02959735 0.088214725 0.09289619 -0.14073919 0.031911124 0.0890226 0.02446495
0.017128207 0.093540944 0.14145663 0.022903362 -0.003359684 0.06268279 0.041793328 0.09856072
00000000: fcc3 0d3c b2d5 153e 4070 eb3d f0ec 80bd
00000010: 6d25 803d ceb5 113e 2efb 75bc 4766 1d3e
00000020: 4730 0f3d 197c 9cbb 0ee5 f93d df07 ac3d
00000030: 624a 8d3d 36b5 863d 0b62 653d 0840 323d
00000040: 3c5f 283c 2476 f23c eca9 b43d 5c40 be3d
00000050: ef1d 10be 3db5 023d 7b51 b63d b86a c83c
00000060: 7450 8c3c 6592 bf3d 02da 103e d59f bb3c
00000070: 252e 5cbb d65f 803d 7b2f 2b3d 34da c93d

fc1.weight f4 [64, 800]
0.03245374 -0.027307445 -0.023835542 0.019815426 0.007628487 0.03519002 -0.030543137 0.028584989
0.015551631 -0.0069015836 0.033202782 0.024722273 -0.015858518 0.024604773 -0.03206215 0.01188659
-0.019980315 -0.026606403 -0.011733309 0.0013238989 -0.024847396 -0.0054541314 0.018293517 -0.042589705
-0.012219643 -0.024472676 0.061476085 -0.0075269924 0.039506976 0.017871425 0.0520141 0.009270194
-0.05884892 -0.03205033 0.027939636 0.03222026 0.031589635 -0.032577313 0.028466849 0.0130846035
-0.009920168 -0.007246859 0.031112637 -0.031221088 0.008310829 0.0060184924 0.04707946 -0.011683842
0.00046276947 -0.008963459 0.0008690354 0.026848262 0.012611967 -0.013190869 -0.027562136 0.00937675
0.01770843 -0.008580248 -0.0012867984 -0.027729228 -0.027645074 0.032986518 -0.02148012 -0.010304622
-0.019590888 -0.02735999 0.026141377 -0.028272524 0.016847786 -0.025918372 0.024054011 -0.001477349
0.0038610387 -0.00806829 0.012839854 -0.011476489 0.018728707 -0.006762632 0.009598825 -0.008476233
0.011267945 -0.039548405 -0.011969849 -0.02019531 -0.025113454 -0.035856374 -0.0071113924 -0.06041801
-0.031012293 0.022920137 -0.0096286 -0.039915305 0.0072104074 0.009425598 -0.020851497 -0.014709693
-0.006035215 -0.05562762 -0.0029276437 -0.006310454 0.00793018 -0.030521283 0.03403151 0.027771095
-0.006178114 -0.0019773524 -0.016642248 0.003914561 0.027932545 0.02062704 0.023984084 -0.025863158
-0.0035567537 -0.030487446 -0.018635882 -0.029566005 -0.0015815943 0.027941369 -0.010815258 -0.0020388316
0.020260261 -0.03354925 -0.021771766 -0.035891943 -0.016806655 -0.016831467 -0.007179836 0.015841095
0.020485995 0.030005649 -0.0039041478 -0.018494815 0.0008152236 0.0051235436 0.013109236 0.035915207
0.010329521 -0.028116614 0.028387569 0.00012127008 0.002272637 -0.013956589 0.010067251 -0.018016547
-0.005418572 0.0021668414 0.024177963 -0.020731235 0.030683352 0.014634994 0.013408755 -0.022606313
-0.029616633 -0.021889804 -0.0013267513 0.013211892 -0.02376501 -0.03969092 -0.053346623 -0.050689146
0.027720014 0.006829473 -0.010366076 -0.018530589 -0.06416441 0.01991522 -0.067964464 -0.05408133
-0.02149276 0.01242951 0.012017961 -0.024681319 -0.022185277 -0.014963339 -0.04248433 -0.016687283
-0.028028067 -0.016118621 -0.014020368 -0.009528038 -0.022309368 -0.017496588 -0.00784066 0.025458263
-0.020951623 -0.020689698 0.00033063575 -0.015414264 0.0076308637 0.0019412923 -0.024163244 -0.0001924324
-0.0045392304 -0.02530044 -0.021157622 -0.01680346 -0.007977949 -0.0017238304 0.009073254 0.013579312
-0.010173238 -0.026466751 0.0123895295 -0.006649544 -0.017967936 -0.011695509 0.029393636 0.003353185
0.01470165 0.018152848 0.038475294 0.0014619712 -0.034399748 -0.038926054 -0.031153547 -0.00032573892
-0.002171826 0.01017351 -0.026604807 0.019072376 0.021806749 -0.0030135133 -0.013131748 -0.006567393
-0.028843803 -0.033679776 0.014230825 0.004191783 -0.0017181154 -0.018901253 0.001664724 0.004182297
-0.029231148 -0.03165991 0.0022473582 -0.0057443255 -0.003950229 0.019610053 -0.0029688156 -0.038406264
0.020612985 -0.0018993506 0.015373436 -0.021938566 -0.013381422 -0.01133365 -0.032781597 -0.009630201
-0.040007263 -0.06170519 0.00056501717 0.004444166 -0.030147929 0.0008714915 0.021982884 0.026038663
00000000: 36ee 043d ddb3 dfbc c142 c3bc f653 a23c
00000010: 63f8 f93b 6923 103d 9a35 fabc 112b ea3c
00000020: 45cc 7e3c ae26 e2bb a4ff 073d 5d86 ca3c
00000030: b9e9 81bc f38f c93c 9a53 03bd f9bf 423c
00000040: c2ad a3bc acf5 d9bc 113d 40bc ad86 ad3a
00000050: c48c cbbc 92b8 b2bb 49dc 953c 8b72 2ebd
00000060: e634 48bc ec7a c8bc 59ce 7b3d fda4 f6bb
00000070: 11d2 213d 1867 923c bd0c 553d 03e2 173c
00000080: 910b 71bd 3547 03bd aae1 e43c 64f9 033d
00000090: 2264 013d ca6f 05bd 4f33 e93c ce60 563c
000000a0: 3388 22bc 0f77 edbb eedf fe3c 5ec3 ffbc
000000b0: 252a 083c c636 c53b 64d6 403d 966d 3fbc
000000c0: de9f f239 79db 12bc facf 633a e3f0 db3c
000000d0: 6ca2 4e3c 841e 58bc fdc9 e1bc f1a0 193c
000000e0: 4511 913c 2b94 0cbc caa9 a8ba 6828 e3bc
000000f0: ec77 e2bc df1c 073d 14f7 afbc b8d4 28bc
00000100: 127d a0bc 0f22 e0bc 7126 d63c c89b e7bc
00000110: 5e04 8a3c c452 d4bc eb0c c53c 9ba3 c1ba
00000120: 7b09 7d3b dc30 04bc 405e 523c e207 3cbc
00000130: f26c 993c 1299 ddbb 6444 1d3c e6df 0abc
00000140: 309d 383c 82fd 21bd 2f1d 44bc a270 a5bc
00000150: bbba cdbc 22de 12bd af06 e9bb e078 77bd
00000160: 7e0d febc 03c3 bb3c 47c1 1dbc 3b7e 23bd
00000170: 4845 ec3b d36d 1a3c c2d0 aabc ed00 71bc
00000180: 0ec3 c5bb cad9 63bd b6dd 3fbb edc7 cebb
00000190: 96ed 013c c507 fabc a064 0b3d 3580 e33c
000001a0: c771 cabb 7896 01bb 5355 88bc b845 803b
000001b0: cbd2 e43c 0afa a83c 457a c43c f9de d3bc
000001c0: 6d18 69bb cfc0 f9bc 47aa 98bc 6834 f2bc
000001d0: 804d cfba 4ce5 e43c 7b32 31bc eb9d 05bb
000001e0: d9f8 a53c f06a 09bd b45a b2bc 6e03 13bd
000001f0: 1cae 89bc 25e2 89bc d444 ebbb 2fc5 813c
00000200: 3fd2 a73c 68ce f53c bbdc 7fbb 7082 97bc
00000210: bbb4 553a 66e3 a73b 1fc8 563c d31b 133d
00000220: 273d 293c d054 e6bc 0c8d e83c 6152 fe38
00000230: 86f0 143b 2daa 64bc 1cf1 243c 7097 93bc
00000240: 478e b1bb 9101 0e3b dd10 c63c 8dd4 a9bc
00000250: a75b fb3c 9dc7 6f3c 65b0 5b3c e030 b9bc
00000260: 959e f2bc 3f52 b3bc 63e6 adba b176 583c
00000270: d7ae c2bc f292 22bd fd81 5abd 6c9f 4fbd
00000280: 1515 e33c c6c9 df3b 79d6 29bc 76cd 97bc
00000290: a168 83bd 3e25 a33c f430 8bbd 6284 5dbd
000002a0: 9611 b0bc 25a5 4b3c fbe6 443c 7a30 cabc
000002b0: e6bd b5bc cb28 75bc 0c04 2ebd c5b3 88bc
000002c0: 1e9b e5bc 330b 84bc b0b5 65bc 7d1b 1cbc
000002d0: 23c2 b6bc 0155 8fbc 1d76 00bc d98d d03c
000002e0: bda2 abbc 717d a9bc 2e59 ad39 1c8c 7cbc
000002f0: 530c fa3b f672 fe3a fff1 c5bc aec7 49b9
00000300: d3bd 94bb de42 cfbc c052 adbc 69a7 89bc
00000310: f2b5 02bc 26f2 e1ba fca7 143c c37b 5e3c
00000320: a7ad 26bc cdd0 d8bc 74fd 4a3c 6be4 d9bb
00000330: 7e31 93bc 859e 3fbc ecca f03c 1cc1 5b3b
00000340: 30df 703c 48b5 943c 4598 1d3d 9d9f bf3a
00000350: c0e6 0cbd ed70 1fbd b935 ffbc f0c7 aab9
00000360: 3255 0ebb cbae 263c 53f2 d9bc ac3d 9c3c
00000370: 11a4 b23c 5d7e 45bb 8b26 57bc 4933 d7bb
00000380: d749 ecbc cef3 09bd 6828 693c 395b 893b
00000390: 6332 e1ba cdd6 9abc de32 da3a a60b 893b
000003a0: 2976 efbc d2ad 01bd 6a48 133b e53a bcbb
000003b0: ec70 81bb 43a5 a03c 7690 42bb e34f 1dbd
000003c0: 90dc a83c a1f3 f8ba dde0 7b3c 82b8 b3bc
000003d0: c03d 5bbc c6b0 39bc ff45 06bd fec7 1dbc
000003e0: a8de 23bd 95be 7cbd a91d 143a 5ea0 913b
000003f0: caf8 f6bc ce74 643a 7315 b43c 094f d53c

fc1.bias f4 [64]
0.027422696 -0.012361546 0.06865222 0.10409983 0.07693583 -0.033559512 -0.018807257 0.012579124
0.1634784 0.09221285 0.079269014 0.016505092 -0.026527325 -0.02013217 -0.017097319 0.021834424
0.22729614 0.1402022 0.19737367 0.014699389 -0.023503648 0.11167466 -0.0077894265 -0.017763993
0.020737117 0.07325407 -0.0142128505 -0.037953865 -0.032336812 0.008864482 -0.03834888 0.024678554
0.009636575 0.02132965 -0.04027363 0.027282273 0.05796315 -0.009731001 0.07327998 -0.038732413
0.04478612 0.04979217 -0.0029851634 9.3997616e-05 -0.041193932 0.021035248 -0.033484146 0.047744334
-0.062101174 0.09026832 0.06762772 -0.014985444 -0.0011105281 -0.033029232 0.0660113 0.11050493
0.006648277 -0.033628084 0.0072192727 -0.031580087 -0.007946972 0.021480812 -0.01799771 0.0685995
00000000: 90a5 e03c 1588 4abc 8999 8c3d 4b32 d53d
00000010: 8890 9d3d b375 09bd ad11 9abc ac18 4e3c
00000020: e266 273e 17da bc3d cb57 a23d b035 873c
00000030: d54f d9bc 38ec a4bc ad0f 8cbc 1bde b23c
00000040: 52c0 683e 2a91 0f3e 531c 4a3e b5d5 703c
00000050: b98a c0bc afb5 e43d 723e ffbb cb85 91bc
00000060: e3e0 a93c 3b06 963d 04dd 68bc 8375 1bbd
00000070: 9b73 04bd 553c 113c b713 1dbd ae2a ca3c
00000080: bae2 1d3c 85bb ae3c f6f5 24bd 137f df3c
00000090: c56a 6d3d c76e 1fbc d013 963d e1a5 1ebd
000000a0: a771 373d e0f2 4b3d bba2 43bb 9620 c538
000000b0: f8ba 28bd 1d52 ac3c ac26 09bd 908f 433d
000000c0: cd5d 7ebd 99de b83d 6780 8a3d 8285 75bc
000000d0: 248f 91ba a949 07bd ef30 873d 6950 e23d
000000e0: cad9 d93b 9abd 09bd a68f ec3b 1f5a 01bd
000000f0: 0434 02bc 87f8 af3c ef6f 93bc e57d 8c3d

fc2.weight f4 [64, 64]
-0.05347486 0.0052459836 0.004400634 -0.0113865845 -0.131967 0.031074166 -0.11261661 0.10945526
-0.06758182 -2.393261e-05 0.06516794 0.0059838295 -0.123013556 0.013997048 -0.007801324 -0.03049925
-0.13393366 -0.09245946 -0.017862815 -0.054586247 0.0043333173 -0.04018537 0.05565858 0.010566801
0.09320803 -0.06156573 -0.09673531 -0.040004015 -0.053433627 -0.01489535 0.10483146 -0.0073708147
-0.028070241 0.06586261 -0.053703308 -0.08164717 0.052633855 0.12417719 -0.109358035 0.1107827
0.050553445 -0.120967224 0.022384316 -0.015883178 0.034055784 0.005286604 0.040289 -0.080993414
0.12295772 0.07609446 -0.11934391 0.058963135 -0.025579467 0.004973367 -0.056052994 -0.08116322
-0.10454203 0.063959345 0.0202723 0.119006455 0.12325446 0.019893367 -0.109633744 -0.029250752
-0.012627203 -0.101796925 0.03794776 0.20252743 0.14162418 -0.10926057 0.15695086 0.051799756
-0.022057656 0.11910735 0.14811507 -0.059738424 -0.0143895205 0.0097738 0.004011779 0.13212703
-0.09766897 -0.006663879 -0.08914444 -0.11189613 0.055876024 0.17281869 -0.123157814 -0.06483426
0.15022965 -0.1247475 -0.04727469 -0.0010714616 0.060642865 0.11417877 0.03988906 -0.073433146
0.042969983 -0.02031411 0.068224244 -0.045892134 0.14639406 0.058923323 -0.12517124 -0.04957014
0.058576357 0.17916682 0.22738689 0.018394178 0.07121508 -0.032030903 -0.084559225 0.0366859
0.031762 -0.08004301 0.14133692 -0.014956855 -0.023924418 -0.020912718 0.049253173 -0.04422837
0.015623051 0.07500162 0.009386837 -0.082352445 0.020642914 -0.055008568 0.057662353 0.04756627
-0.037570566 -0.0018463284 -0.049098946 -0.05385714 -0.054861143 -0.070996135 0.009050629 -0.06973183
-0.0535412 0.07816109 -0.075129494 -0.06297783 0.097345725 0.09314498 0.062197417 0.05789467
-0.098516315 -0.077012174 0.07571289 -0.09788307 -0.09249544 -0.083280385 -0.008379112 -0.02387382
0.043789014 -0.003694945 -0.038532406 0.11461763 -0.042503864 -0.08635526 -0.016381606 0.054756805
0.12491925 0.13398756 -0.050031736 0.012418345 0.0044232714 0.064904615 -0.011355566 0.06582348
0.016320126 -0.14929986 -0.13960844 0.045936182 -0.033051062 0.023199182 -0.043973327 -0.00918034
-0.05447959 -0.18466456 -0.020591144 -0.08761073 0.07171917 0.061289474 0.098002106 0.03065778
0.005337987 0.07825221 -0.10787701 0.01389049 -0.10770668 0.046195474 -0.09623639 0.07610047
-0.10536429 0.041646004 0.030578343 -0.053040598 -0.075532995 0.10453363 -0.07258398 -0.025080394
0.07821493 -0.0028953666 -0.1449974 0.082484014 -0.0046193604 -0.10821562 0.11946179 -0.024147619
-0.04235767 -0.11554992 -0.14245072 -0.103298195 -0.03699561 -0.09524197 0.11491962 0.08080575
0.0019261002 -0.086064175 0.076300494 0.10663271 -0.086395234 -0.021788497 0.031947494 0.08165317
-0.05032697 0.021943504 0.051655233 -0.02103817 -0.023625284 -0.0068958104 0.04659924 0.040751126
0.0498437 0.020410025 -0.0066402946 0.11360075 -0.008791041 0.11252314 0.032121584 -0.07900855
-0.04871101 0.02987889 0.070911355 0.11174729 -0.10395578 0.08632214 -0.1258002 -0.082764596
0.022325132 0.10922828 -0.0032050195 0.031934086 0.09001064 -0.031049835 -0.02962932 -0.15516484
00000000: 7408 5bbd 80e6 ab3b 3233 903b cc8e 3abc
00000010: 5b22 07be 408f fe3c 8aa3 e6bd 142a e03d
00000020: 5668 8abd e3c2 c8b7 c576 853d 0014 c43b
00000030: 88ee fbbd e053 653c 40a2 ffbb 90d9 f9bc
00000040: e825 09be 635b bdbd 0a55 92bc d495 5fbd
00000050: 80fe 8d3b 6a99 24bd 40fa 633d 6020 2d3c
00000060: dae3 be3d 592c 7cbd 2a1d c6bd 40db 23bd
00000070: 38dd 5abd a00b 74bc e0b1 d63d e086 f1bb
00000080: 90f3 e5bc fae2 863d 00f8 5bbd a236 a7bd
00000090: 9996 573d 9c50 fe3d 1bf7 dfbd 0ae2 e23d
000000a0: 2111 4f3d aabd f7bd 505f b73c 701d 82bc
000000b0: 147e 0b3d 403b ad3b 1406 253d e0df a5bd
000000c0: 42d1 fb3d 6ad7 9b3d 946a f4bd 5483 713d
000000d0: 088c d1bc a0f7 a23b d397 65bd e738 a6bd
000000e0: 221a d6bd 1efd 823d 1812 a63c a8b9 f33d
000000f0: d66c fc3d 6af7 a23c a887 e0bd 469f efbc
00000100: 54e2 4ebc e87a d0bd 1c6f 1b3d 5a63 4f3e
00000110: ee05 113e 01c4 dfbd bab7 203e fb2b 543d
00000120: 42b2 b4bc 8eee f33d 7aab 173e 47b0 74bd
00000130: 06c2 6bbc 4a22 203c 3e75 833b 4f4c 073e
00000140: ab06 c8bd ab5c dabb 5c91 b6bd cc29 e5bd
00000150: 42de 643d 62f7 303e 2a3a fcbd d3c7 84bd
00000160: cdd5 193e 9e7b ffbd 1ba3 41bd 4970 8cba
00000170: a764 783d 8fd6 e93d b662 233d 1e64 96bd
00000180: 4b01 303d c769 a6bc 27b9 8b3d 64f9 3bbd
00000190: 53e8 153e 9559 713d e42c 00be 0f0a 4bbd
000001a0: c3ed 6f3d 8277 373e 1cd8 683e 63af 963c
000001b0: 36d9 913d d632 03bd 632d adbd f443 163d
000001c0: df18 023d 97ed a3bd a0ba 103e 990d 75bc
000001d0: 24fd c3bc 2651 abbc b2bd 493d cf28 35bd
000001e0: d3f7 7f3c 739a 993d 3fcb 193c 66a8 a8bd
000001f0: 541b a93c aa50 61bd 5c2f 6c3d d9d4 423d
00000200: 98e3 19bd 8000 f2ba fa1b 49bd 4e99 5cbd
00000210: 14b6 60bd 6c66 91bd 1749 143c 90cf 8ebd
00000220: 044e 5bbd ec12 a03d 7edd 99bd 85fa 80bd
00000230: 325d c73d ccc2 be3d b8c2 7e3d f622 6d3d
00000240: ecc2 c9bd 8fb8 9dbd 5c0f 9b3d eb76 c8bd
00000250: 406e bdbd e88e aabd 8b48 09bc 0893 c3bc
00000260: 1c5c 333d e426 72bb 28d4 1dbd a6bc ea3d
00000270: 8818 2ebd 07db b0bd b832 86bc ac48 603d
00000280: aad5 ff3d 0934 093e 14ee 4cbd 5076 4b3c
00000290: 17f1 903b b6ec 843d b20c 3abc 76ce 863d
000002a0: c9b1 853c 10e2 18be 84f5 0ebe 9427 3c3d
000002b0: 8d60 07bd 360c be3c 601d 34bd 2369 16bc
000002c0: fe25 5fbd b518 3dbe c2ae a8bc 416d b3bd
000002d0: 80e1 923d ac0a 7b3d 54b5 c83d 0626 fb3c
000002e0: 48ea ae3b b242 a03d 9fee dcbd f094 633c
000002f0: 5295 dcbd 7737 3d3d 9617 c5bd 90da 9b3d
00000300: 3cc9 d7bd 0095 2a3d 6f7f fa3c 1941 59bd
00000310: 0bb1 9abd ba15 d63d e9a6 94bd 6675 cdbc
00000320: 262f a03d 31c0 3dbb 337a 14be 61ed a83d
00000330: 015e 97bb 27a0 ddbd 62a8 f43d 3ad1 c5bc
00000340: 3c7f 2dbd 70a5 ecbd 9ade 11be 018e d3bd
00000350: b588 17bd 390e c3bd fa5a eb3d 7c7d a53d
00000360: 3375 fc3a 6a42 b0bd 6f43 9c3d 4062 da3d
00000370: fcef b0bd ca7d b2bc 60db 023d c739 a73d
00000380: a723 4ebd ddc2 b33c 7094 533d 3e58 acbc
00000390: d089 c1bc 40f6 e1bb d8de 3e3d a7ea 263d
000003a0: e828 4c3d ed32 a73c d496 d9bb 83a7 e83d
000003b0: 4c08 10bc 8872 e63d ec91 033d 3ccf a1bd
000003c0: 3285 47bd 93c4 f43c f939 913d c3db e43d
000003d0: c5e6 d4bd aac9 b03d c5d1 00be 7c80 a9bd
000003e0: 32e3 b63c 14b3 df3d 4e0b 52bb 51cd 023d
000003f0: 8057 b83d 395c febc 30b9 f2bc 88e3 1ebe

fc2.bias f4 [64]
-0.103804745 0.08786369 0.021237664 0.12124878 0.026478011 0.027548807 0.24958292 -0.08904292
0.07166688 0.082431495 0.044274803 -0.03708026 0.11995928 -0.008799205 0.11097589 0.041495543
0.041966647 -0.19974463 0.3225862 0.0252947 0.0811793 -0.03241691 0.029007157 0.10464239
0.14309092 0.030208593 0.05540483 0.06051923 0.07298753 0.14070053 -0.07059726 0.044868972
-0.1357215 -0.095208235 0.05145558 0.14032064 -0.1921404 -0.016950782 0.037142184 0.21213652
0.19527324 0.14090349 0.09373197 -0.0031542836 -0.003149102 0.04748759 0.17353195 0.021502137
-0.13631637 0.0924692 0.044935606 0.16722481 0.04042976 -0.034946445 -0.08125807 0.09252441
0.05183764 0.08967906 0.014948273 0.07412964 0.15331976 0.11245776 0.05950162 0.012596867
00000000: 9597 d4bd e1f1 b33d 9cfa ad3c 4851 f83d
00000010: 6ae8 d83c 09ae e13c aa92 7f3e 225c b6bd
00000020: 16c6 923d d8d1 a83d 7f59 353d 79e1 17bd
00000030: 36ad f53d 8a2a 10bc 5447 e33d 3bf7 293d
00000040: 38e5 2b3d db89 4cbe 052a a53e d536 cf3c
00000050: 5541 a63d 98c7 04bd 6ba0 ed3c c04e d63d
00000060: 6d86 123e 0378 f73c 2df0 623d 03e3 773d
00000070: 7c7a 953d cd13 103e 4c95 90bd 87c8 373d
00000080: 94fa 0abe 89fc c2bd 16c3 523d 37b0 0f3e
00000090: 74c0 44be 5edc 8abc 6722 183d 513a 593e
000000a0: b5f5 473e 0149 103e 8cf6 bf3d 19b8 4ebb
000000b0: 2a61 4ebb 5982 423d 5cb2 313e 4025 b03c
000000c0: 8596 0bbe 7e60 bd3d 660e 383d fb3c 2b3e
000000d0: ad99 253d 0124 0fbd a26a a6bd 707d bd3d
000000e0: b553 543d a8a9 b73d 9ae9 743c 48d1 973d
000000f0: dbff 1c3e 4150 e63d f8b7 733d 1763 4e3c

fc3.weight f4 [7, 64]
0.003360043 -0.13067943 -0.09948815 -0.11684119 -0.16211087 -0.055097226 0.25194684 0.06385559
0.2904268 -0.012124233 -0.120115235 -0.09543734 -0.15597537 -0.1185963 0.17510246 -0.074653976
-0.042626917 -0.30618897 0.23387048 -0.076252215 -0.019448513 0.17319886 0.11332412 0.20955399
-0.2329423 0.17981446 0.12376754 -0.08691101 0.115169644 0.010920961 -0.017841859 0.07425238
0.0025334337 0.006645855 0.04376053 0.17902456 -0.17374241 -0.2633031 -0.045624238 0.09970305
0.19398366 0.14559343 -0.07407227 -0.16799958 0.082212366 0.17060871 0.239927 0.21163572
-0.037829276 -0.39660946 -0.06293784 -0.23394959 -0.16486362 0.026502077 0.0850055 -0.011341474
0.0718054 0.046092264 -0.11396962 0.016699398 -0.0022669437 0.1298021 -0.12527697 0.03334828
0.10836532 0.12123409 -0.025706753 -0.00927155 -0.047663707 0.080531806 0.36841547 0.27790868
0.1982423 0.08634114 0.07002904 -0.047437243 0.030570902 0.09722791 0.2407095 0.06349151
0.05438563 -0.012495729 0.24776432 0.12592573 -0.0059695826 0.18344304 0.17588292 0.023052322
0.11707063 0.0058882204 0.37795204 -0.23452361 0.034447033 0.17529242 -0.1101856 0.06239078
0.028375626 -0.0304467 0.04140634 0.22599645 0.21736395 0.1993218 -0.03893837 0.07757004
0.044889033 0.03999701 0.106723666 0.079717375 -0.110539116 -0.056468148 0.0039031417 -0.042169295
-0.110187694 -0.12609412 0.03465323 0.19868128 -0.16172177 0.15044756 -0.11444951 0.3055076
0.011459947 -0.08087308 0.22902693 0.012442246 0.031153891 -0.08989617 0.10745426 -0.040838126
0.12173368 0.015164649 -0.024454612 0.035481893 0.32863146 -0.07028698 -0.04000418 0.20453712
-0.04798266 -0.03742026 0.05078773 0.038740207 0.1680488 0.2120297 -0.044519845 0.07111781
0.1306522 0.0013941436 0.24186902 -0.10072083 0.010189177 0.2185031 0.06019227 -0.09379554
0.11791228 0.17833352 -0.025628049 0.039216485 0.010902266 0.21518633 -0.036683694 0.12107916
0.004527122 -0.03503692 0.016529623 0.20067987 -0.0068583884 -0.04443348 0.09770872 0.19491702
-0.13872822 0.094502166 0.060852982 0.2643151 0.008228754 0.08338226 0.065299526 0.2963289
-0.022247821 0.2390728 0.09033562 0.22037001 0.019829929 0.011685385 -0.037998345 0.17295732
0.0009932463 0.14385717 -0.10078725 0.079201736 0.08681348 -0.005594102 0.011237274 -0.113648966
-0.08900191 -0.20065759 0.0034213683 -0.11112992 -0.070773035 0.07672703 0.16176416 -0.22036766
0.079183534 0.014651077 0.0061550117 -0.13066575 0.16727711 -0.07456925 0.0027352923 -0.24553695
-0.067609645 -0.08286972 0.33021575 -0.16433936 -0.012436579 -0.19232588 0.2062754 0.192583
-0.09501485 0.20674178 -0.009318939 -0.06162412 0.13897331 -0.05093963 -0.106901795 0.25317103
0.005814442 -0.027237747 0.012868767 0.29024857 -0.49873078 0.15809421 -0.1261073 0.17186484
0.017841786 -0.082416765 -0.031511594 0.21091689 0.07433907 0.14634049 0.12549438 -0.012283087
0.006909758 0.027810393 -0.06005705 0.116923414 -0.05064739 -0.08003688 -0.1427145 -0.027383598
0.051751863 0.04068898 0.06353431 0.083169244 0.21624443 -0.047849182 -0.12458901 0.23051897
00000000: 2b34 5c3b d4d0 05be 71c0 cbbd 6f4a efbd
00000010: 6400 26be a1ad 61bd 2dff 803e b8c6 823d
00000020: d2b2 943e b8a4 46bc fafe f5bd a774 c3bd
00000030: 02b8 1fbe 9ee2 f2bd 0f4e 333e 2fe4 98bd
00000040: 9099 2ebd cdc4 9cbe be7b 6f3e 1f2a 9cbd
00000050: 7d52 9fbc 0b5b 313e 7a16 e83d 5295 563e
00000060: 6d88 6ebe 4821 383e d679 fd3d 66fe b1bd
00000070: 10de eb3d d5ed 323c 1729 92bc a211 983d
00000080: f707 263b 79c5 d93b 3e3e 333d 3752 373e
00000090: 88e9 31be aacf 86be 7be0 3abd 1d31 cc3d
000000a0: a7a3 463e 7216 153e 34b3 97bd 1508 2cbe
000000b0: f55e a83d 0db4 2e3e 6caf 753e 09b7 583e
000000c0: dff2 1abd 6510 cbbe 8ee5 80bd 7b90 6fbe
000000d0: 02d2 28be e21a d93c 5d17 ae3d 97d1 39bc
000000e0: b60e 933d 3ecb 3c3d e768 e9bd 2dcd 883c
000000f0: 0191 14bb d7ea 043e 9b48 00be 3598 083d
00000100: a3ee dd3d 9449 f83d f896 d2bc b3e7 17bc
00000110: 053b 43bd dced a43d f4a0 bc3e 0c4a 8e3e
00000120: 0800 4b3e a0d3 b03d 636b 8f3d 8e4d 42bd
00000130: d46f fa3c 6d1f c73d 8d7c 763e d607 823d
00000140: 77c3 5e3d e3ba 4cbc eeb5 7d3e adf2 003e
00000150: 7d9c c3bb 7ed8 3b3e a71a 343e 39d8 bc3c
00000160: bac2 ef3d f9f1 c03b ee82 c13e f526 70be
00000170: 5518 0d3d db7f 333e fda8 e1bd 798d 7f3d
00000180: 0074 e83c 5c6b f9bc b299 293d 9d6b 673e
00000190: a894 5e3e 041b 4c3e d77d 1fbd 0bdd 9e3d
000001a0: 90dd 373d e8d3 233d f091 da3d dd42 a33d
000001b0: 5562 e2bd 254b 67bd dacb 7f3b b6b9 2cbd
000001c0: 16aa e1bd d11e 01be 8cf0 0d3d 1b73 4b3e
000001d0: 649a 25be ed0e 1a3e 8164 eabd 7e6b 9c3e
000001e0: 80c2 3b3c c9a0 a5bd 0986 6a3e 90da 4b3c
000001f0: 7236 ff3c 7c1b b8bd fb10 dc3d e145 27bd
00000200: 824f f93d 2675 783c 0a55 c8bc 7655 113d
00000210: 6242 a83e 9ff2 8fbd 6cdb 23bd 2e72 513e
00000220: 7789 44bd fd45 19bd cb06 503d 0dae 1e3d
00000230: fc14 2c3e 501e 593e 715a 36bd 37a6 913d
00000240: b1c9 053e b2bb b63a 83ac 773e b946 cebd
00000250: 81f0 263c 47bf 5f3e 2b8c 763d e017 c0bd
00000260: fe7b f13d 109d 363e eaf1 d1bc 77a1 203d
00000270: 6b9f 323c ce59 5c3e a441 16bd 5af8 f73d
00000280: 4058 943b e082 0fbd 2269 873c 067f 4d3e
00000290: 55bc e0bb e1ff 35bd 821b c83d 5498 473e
000002a0: c50e 0ebe 5a8a c13d fa40 793d 4f54 873e
000002b0: e5d1 063c 51c4 aa3d c2bb 853d 6cb8 973e
000002c0: 1041 b6bc 80cf 743e e201 b93d ada8 613e
000002d0: 6072 a23c 0f74 3f3c 27a4 1bbd b91b 313e
000002e0: d12f 823a 4b4f 133e 8c69 cebd 8534 a23d
000002f0: 44cb b13d bb4e b7bb 8b1c 383c cac0 e8bd
00000300: a246 b6bd 2f79 4dbe 0939 603b 1598 e3bd
00000310: 74f1 90bd 1023 9d3d 81a5 253e 0fa8 61be
00000320: fa2a a23d 120b 703c fbaf c93b 3ecd 05be
00000330: b14a 2b3e c3b7 98bd 9742 333b 0a6e 7bbe
00000340: ed76 8abd 9ab7 a9bd 0a12 a93e 9448 28be
00000350: cbc2 4bbc 13f1 44be dc39 533e 7a34 453e
00000360: 2597 c2bd 1eb4 533e 77ae 18bc 9369 7cbd
00000370: 054f 0e3e 13a6 50bd 54ef dabd a29f 813e
00000380: 1387 be3b b221 dfbc 85d7 523c 769b 943e
00000390: a459 ffbe 73e3 213e 4622 01be 56fd 2f3e
000003a0: f028 923c 1fca a8bd 4d12 01bd 99fa 573e
000003b0: 153f 983d 48da 153e 9981 003e 003f 49bc
000003c0: 406b e23b 9fd2 e33c 62fe 75bd 8b75 ef3d
000003d0: a373 4fbd 60ea a3bd c023 12be 9153 e0bc
000003e0: c3f9 533d 7da9 263d 471e 823d a354 aa3d
000003f0: 2e6f 5d3e 81fd 43bd 8628 ffbd 2a0d 6c3e

fc3.bias f4 [7]
0.099656746 0.1671828 0.11287858 0.1847068 0.15671527 0.21458964 -0.24679199
00000000: d618 cc3d f831 2b3e e32c e73d c823 3d3e
00000010: f879 203e 63bd 5b3e 0ab7 7cbe
