src/models/v1.2.1_best.pth (torch, 251760 bytes, 10 tensors)

conv1.weight f4 [16, 10, 3, 3]
0	0xbe53c362	-0.20680001
1	0x3daf2608	0.08552176
2	0x3d1984d8	0.037480205
3	0x3d5ced6e	0.053937368
4	0x3df97540	0.12180567
5	0x3de4a70b	0.111646734
6	0xbe1b54c5	-0.15169056
7	0xbd3379cd	-0.04381733
8	0x3ca475fd	0.020075792
9	0x3da4d580	0.080485344
10	0x3d81c142	0.06335689
11	0xbd37eedb	-0.044905525
12	0x3cbf38fb	0.0233426
13	0x3da0a111	0.07843221
14	0x3ca2f6e0	0.01989311
15	0xbd6ef349	-0.058337484
16	0xbcbd4fb3	-0.023109293
17	0x3c69173b	0.01422673
18	0x3e368293	0.17823248
19	0x3b52c213	0.0032159134
20	0xbe50be97	-0.20385204
21	0x3d042506	0.03226187
22	0xbdb667d3	-0.08906522
23	0xbda040a4	-0.07824829
24	0x3dcb3fa4	0.09924248
25	0xbe90a671	-0.28251985
26	0x3de8a827	0.113601975
27	0xbce91426	-0.02845199
28	0x3d94084f	0.07228147
29	0xbd45010c	-0.0480967
30	0x3d31c554	0.043401077
31	0x3d951570	0.072794795
32	0x3dcabf48	0.09899765
33	0x3dad7972	0.084704295
34	0x3d1a4c39	0.037670348
35	0x3dd37f19	0.10326976
36	0x3c3651e5	0.011127924
37	0x3cf5f643	0.030024653
38	0x3dee4f06	0.11636166
39	0xbd078b8b	-0.033092063
40	0xbe0d50c0	-0.13800335
41	0xbce36a3a	-0.027760614
42	0xbd702a7e	-0.058634274
43	0xbc25d7e7	-0.010122276
44	0x3da20404	0.07910922
45	0xbcef8f8f	-0.029243259
46	0x3e157de0	0.14598799
47	0x3d73e877	0.059547868
48	0xbe929ab5	-0.28633657
49	0xbde840b6	-0.11340468
50	0xbf05545e	-0.5208186
51	0x3de68ee9	0.11257727
52	0xbd1bc599	-0.03803024
53	0x3d878af6	0.066183016
54	0xbe636263	-0.222055
55	0xbd0fbb10	-0.035090506
56	0x3eb86abc	0.36018932
57	0xbe3b4c36	-0.18290791
58	0xbe72ecc4	-0.23723131
59	0xbea69b60	-0.32540417
60	0x3e708b6f	0.2349069
61	0xbe05ce23	-0.13066916
62	0x3dba6a4c	0.09102306
63	0xbd70e954	-0.05881627
64	0xbd3b6777	-0.04575297
65	0x3da5178c	0.08061132
66	0xbd5fa81d	-0.054603685
67	0x3d601520	0.054707646
68	0x3d8eee03	0.06978991
69	0xbd9c2208	-0.076236784
70	0x3d266fd8	0.040634006
71	0xbd15e30e	-0.03659349
72	0xbc57010a	-0.013122806
73	0xbd2ba1be	-0.041902296
74	0x3e171b3e	0.14756486
75	0xbd86da04	-0.06584552
76	0x3c8414b1	0.016123148
77	0xbe01b72f	-0.12667535
78	0x3e0f5aaa	0.1399943
79	0xbdaeddce	-0.085384
80	0x3e4b903c	0.1987924
81	0x3dc571a5	0.096408166
82	0x3dea0ec1	0.11428595
83	0x3e660186	0.22461519
84	0xbdb9f794	-0.09080425
85	0xbc5c3513	-0.013440388
86	0xbd74eeb7	-0.05979797
87	0xbe2fbe09	-0.17162336
88	0xbe0a5366	-0.13508376
89	0x3ddb7a0c	0.10716638
90	0x3e16f5c7	0.14742194
91	0x3e88805e	0.26660436
92	0xbd11e142	-0.035615213
93	0x3dbb89af	0.091571204
94	0x3d811003	0.06301882
95	0xbc89007b	-0.016723862
96	0xbdb5987b	-0.08866974
97	0x3e4ace8c	0.19805354
98	0xbe25f5be	-0.16207024
99	0x3d3f28ca	0.04666976
100	0xbd23b86f	-0.03997081
101	0x3c71dd81	0.014762283
102	0xbd5efd2c	-0.054440662
103	0x3d4a4750	0.049384415
104	0x3b21c3b7	0.0024683306
105	0xbdc0986a	-0.09404071
106	0x3d5a98ab	0.05336825
107	0xbdd20a31	-0.1025585
108	0xbba0a11d	-0.0049020187
109	0x3d7c75c5	0.06163575
110	0x3d4e5be9	0.05038062
111	0xbd8e45f6	-0.06946938
112	0x3de4fc61	0.1118095
113	0xbd89436d	-0.067023136
114	0xbd84f0fc	-0.064912766
115	0x3e1e485b	0.15457289
116	0x3ddad4d4	0.10685125
117	0xbc432875	-0.011911501
118	0xbdac2ae8	-0.08406621
119	0x3d5c7df2	0.05383105
120	0x3dbb14bc	0.09134814
121	0xbd6d9f21	-0.058013085
122	0x3d54fe50	0.052000344
123	0xbd05f77f	-0.032706734
124	0x3d0f8314	0.035037115
125	0xbd621561	-0.05519617
126	0xbde6d1b4	-0.112704664
127	0xbe1baf6a	-0.15203634
128	0xbe0d8dce	-0.13823625
129	0xbe173108	-0.14764798
130	0x3d9dbe7d	0.077023484
131	0xbc505640	-0.012715876
132	0xbebf2e5c	-0.37340057
133	0x3daeb459	0.08530492
134	0xbe230ca0	-0.15922785
135	0xbe435b15	-0.19077714
136	0x3e24249c	0.1602959
137	0x3e9aa263	0.30202016
138	0x3e469b88	0.19395268
139	0x3ec83613	0.39103755
140	0x3e15759c	0.14595646
141	0x3b6b5a91	0.0035912136
142	0x3e516f30	0.20452571
143	0xbe7a6223	-0.24451499
144	0xbccf8f21	-0.025336804
145	0x3e938f45	0.28820243
146	0x3e814b72	0.25252873
147	0x3e2ee3a5	0.17079027
148	0x3e9af761	0.3026686
149	0x3d87520a	0.066074446
150	0xbc2348a0	-0.009966046
151	0xbe213602	-0.15743259
152	0x3e04d2ec	0.12971085
153	0xbd67f429	-0.056629334
154	0x3d21bcf1	0.03948683
155	0x3cc65ea7	0.024215056
156	0x3d3dbbf8	0.04632184
157	0xbdcdd609	-0.100505896
158	0x3cf2f691	0.029658588
159	0x3e0029f9	0.12516011
160	0x3c98d7ed	0.018657649
161	0xbd54f8fe	-0.05199527
162	0x3c616ada	0.013758386
163	0xbd91ad2f	-0.0711311
164	0xbe7cb076	-0.2467669
165	0xbcc4e70a	-0.02403595
166	0x3c01f756	0.007932505
167	0xbdceaf47	-0.10092025
168	0xbe70c46c	-0.23512429
169	0x3df2cb5a	0.118551925
170	0xbd40cb74	-0.047069028
171	0x3e737513	0.23775129
172	0x3c2c847f	0.010529636
173	0x3de8eb48	0.11373001
174	0x3e8690d1	0.2628236
175	0x3ea7ff8d	0.32812157
176	0x3ec82608	0.39091516
177	0x3dc1d33e	0.094641194
178	0xbd86751c	-0.065653056
179	0xbcd329b4	-0.025776722
180	0xbd0d2259	-0.034456585
181	0xbe398d48	-0.18120301
182	0xbdc1e5ad	-0.09467635
183	0x3a5d6068	0.00084448466
184	0x3e66e4d7	0.22548233
185	0xbdaa41d0	-0.08313334
186	0x3dcba45a	0.09943457
187	0xbc8441b3	-0.01614461
188	0x3e140078	0.14453304
189	0x3d02fe52	0.03198082
190	0xbc23d715	-0.01000001
191	0x3db06007	0.08612066
192	0x3d67d2c5	0.05659749
193	0xbc7978ad	-0.015226525
194	0x3d8af00b	0.06784066
195	0x3c929568	0.017893508
196	0x3d2b2e70	0.041792333
197	0x3d9eba21	0.07750345
198	0x3c99dfe0	0.01878351
199	0x3dec913d	0.115511395
200	0x3e9c73f5	0.30557218
201	0xbe6251fd	-0.22101589
202	0x3c8d8d02	0.017279152
203	0xbd2e86cc	-0.04260902
204	0xbdbcb1c5	-0.09213594
205	0x3e80b55f	0.25138375
206	0x3e4e4cfe	0.20146558
207	0xbc5da6e9	-0.013528564
208	0x3da73a93	0.08165469
209	0xbcaf8dd8	-0.021429941
210	0x3dcec194	0.10095516
211	0x3d45f200	0.048326492
212	0x3d01840f	0.03162008
213	0x3d156dfb	0.03648184
214	0x3b33cc6e	0.0027435082
215	0x3cb9107b	0.022590866
216	0xbe62174c	-0.220792
217	0x3c939443	0.018015033
218	0xbd4fb22b	-0.050707024
219	0xbe324d83	-0.17412381
220	0x3c846a54	0.016163982
221	0x3d9100a8	0.07080203
222	0x3e17f87f	0.14840887
223	0xbda4f81d	-0.08055136
224	0xbea45dc9	-0.32102802
225	0xbe1f7825	-0.15573175
226	0x3e1e1ada	0.1543993
227	0x3e2af42c	0.16694707
228	0xbdf977df	-0.12181067
229	0xbe861a64	-0.2619201
230	0x3d840816	0.06446855
231	0x3df2a186	0.118472144
232	0x3cd9d648	0.026591435
233	0xbede0f7d	-0.43371192
234	0x3e0c6aa4	0.13712555
235	0xbe1c2812	-0.1524966
236	0x3dc123b5	0.09430639
237	0xbe197844	-0.14987284
238	0xbea501f7	-0.32228062
239	0xbeb4428a	-0.35207015
240	0x3e8bea6a	0.2732728
241	0xbe1ee0ba	-0.15515414
242	0xbe44276e	-0.19155666
243	0x3d7fa2d8	0.06241116
244	0x3be43472	0.00696426
245	0x3d44c3ec	0.04803841
246	0xbb7c2665	-0.0038475033
247	0x3d95e2ef	0.07318675
248	0x3b40910d	0.0029383332
249	0xbd02be05	-0.031919498
250	0xbc1443d5	-0.009049376
251	0x3cf7677c	0.030200712
252	0xbe0572dd	-0.13032098
253	0x3bd49e77	0.006488617
254	0xbdf10199	-0.11767883
255	0xbe09b83e	-0.13449189

conv1.bias f4 [16]
0	0x3e263bad	0.16233702
1	0xbd76bf04	-0.06024076
2	0x3d8a35b1	0.06748522
3	0x3e18b95e	0.14914462
4	0x3df8a7c3	0.12141373
5	0x3e717cd8	0.2358278
6	0x3e374bec	0.17900056
7	0xbda3a377	-0.07990163
8	0xbc931738	-0.017955408
9	0x3e6b3a49	0.22971453
10	0xbdc231ed	-0.09482179
11	0x3e31dbac	0.17368954
12	0xbd97775a	-0.073958114
13	0x3ddcc423	0.107795976
14	0x3d294082	0.041321285
15	0xbc023f06	-0.007949596

conv2.weight f4 [32, 16, 3, 3]
0	0xbe871ebb	-0.26390633
1	0x3d71f120	0.059067845
2	0xbe8aee39	-0.27134874
3	0x3dc67137	0.09689563
4	0xbe06d9e1	-0.13169052
5	0x3cc0c3c3	0.023530846
6	0x3df17325	0.1178954
7	0xbd3990c6	-0.045304082
8	0x3c8f704b	0.0175096
9	0xbd9501df	-0.072757475
10	0x3e219fe0	0.15783644
11	0x3c5a623e	0.013329087
12	0x3dd31e04	0.103084594
13	0x3e556ad8	0.20841539
14	0x3e131fa6	0.14367542
15	0x3e3b1c4d	0.18272515
16	0x3e6120ce	0.2198517
17	0x3dae3363	0.08505895
18	0x3c8b722b	0.017022213
19	0xbd29ec7c	-0.041485295
20	0x3e18d2dd	0.14924188
21	0x3da76938	0.08174366
22	0x3da6a117	0.08136194
23	0x3c280125	0.010254179
24	0x3ddc0516	0.107431576
25	0x3e226d67	0.15862046
26	0xbcb36f3c	-0.021903627
27	0x3c9e6e42	0.019339684
28	0x3d14cece	0.036330037
29	0xbbc78281	-0.0060885553
30	0xbdc278d0	-0.094956994
31	0x3dbc0e95	0.09182469
32	0xbd0472c7	-0.032336023
33	0x3d5949b9	0.053048823
34	0x3dcb9787	0.09941011
35	0xbe211968	-0.15732348
36	0xbd948883	-0.072526
37	0xbc20858c	-0.009797465
38	0x3e14e5f6	0.14540848
39	0x3dacaf30	0.08431852
40	0xbdd6aa67	-0.104817204
41	0x3d3bbea0	0.04583609
42	0x3d2ccba2	0.042186387
43	0xbddc4cdd	-0.10756848
44	0x3b9dbb7c	0.0048136096
45	0x3e3be10c	0.18347567
46	0x3e15b0c1	0.14618208
47	0x3d11ef4e	0.03562861
48	0x3d223d81	0.039609436
49	0x3e2b412a	0.16724077
50	0xbdc899bd	-0.09794948
51	0xbdccba69	-0.099964924
52	0x3e0dbac3	0.13840775
53	0x3da069ab	0.078326546
54	0xbe14bf18	-0.14526021
55	0xbd91e716	-0.07124154
56	0x3db541d7	0.088504486
57	0x3e08a4ec	0.13344163
58	0xbd07543a	-0.03303931
59	0x3dc4609f	0.095887415
60	0x3d8a230c	0.06744966
61	0x3c1e769d	0.009671834
62	0xbe1415cc	-0.1446144
63	0x3d3a90cf	0.045548256
64	0x3e26d968	0.16293871
65	0x3d893148	0.06698853
66	0x3d862c25	0.06551389
67	0x3e324deb	0.17412536
68	0xbe81606a	-0.2526887
69	0x3cd19756	0.025584858
70	0x3d4783e5	0.04870977
71	0xbdb4d303	-0.0882931
72	0x3a834c77	0.0010017295
73	0x3cbc950a	0.023020286
74	0xbe82498d	-0.2544674
75	0x3cb48d4a	0.022040028
76	0xbe92dcfb	-0.2868422
77	0x3db68193	0.08911433
78	0xbe9333e4	-0.28750527
79	0x3d777957	0.060418453
80	0xbd25806b	-0.040405672
81	0xbdfa7934	-0.12230149
82	0x3d1d7b9f	0.038447972
83	0xbe1fc0a1	-0.15600826
84	0x3e07bd25	0.13255747
85	0xbd26dded	-0.04073899
86	0xbd7ca344	-0.06167914
87	0xbd61137c	-0.054950222
88	0xbe03fd3b	-0.12889569
89	0xbe28a576	-0.16469368
90	0xbcd25a5a	-0.025677849
91	0xbd914e40	-0.07095003
92	0xbd1808c5	-0.03711774
93	0x3dfd4360	0.123663664
94	0xbd2c51a9	-0.042070065
95	0xbe055c0b	-0.13023393
96	0x3d81dda5	0.063411035
97	0x3da6a343	0.081366085
98	0xbd7bc0e0	-0.061463237
99	0xbeca2736	-0.3948304
100	0xbd067079	-0.032822106
101	0xbe5df04b	-0.21673696
102	0xbdd2c6d8	-0.10291833
103	0x3d5b1b6f	0.05349296
104	0x3e161248	0.14655411
105	0xbe1d0457	-0.15333687
106	0x3e0e1732	0.13876036
107	0x3dee0330	0.11621702
108	0xbe9e51b0	-0.30921698
109	0xbe419146	-0.18903074
110	0x3e273a94	0.1633094
111	0x3cdabd68	0.026701644
112	0x3e66166b	0.2246949
113	0x3dc36a63	0.09541776
114	0xbe3d5cdf	-0.18492459
115	0x3e5176e5	0.20455511
116	0x3c503245	0.012707298
117	0x3e53b66c	0.20675057
118	0x3eae1056	0.33996838
119	0x3e3aa66a	0.18227544
120	0x3d112d35	0.035443503
121	0xbdead67a	-0.114666894
122	0x3b688add	0.003548316
123	0xbe181c09	-0.14854445
124	0x3be4ea31	0.0069859256
125	0x3be849b4	0.007088864
126	0x3e030df3	0.1279829
127	0x3da9c267	0.082890324
128	0xbd726e8a	-0.05918745
129	0xbe34c02b	-0.17651431
130	0x3d14fb66	0.036372565
131	0xbdf7b502	-0.120950714
132	0xbe812040	-0.25219917
133	0x3d800dcd	0.06252632
134	0x3d92975b	0.07157775
135	0x3cb9719c	0.022637181
136	0xbdaadb7b	-0.08342644
137	0xbc4d95f9	-0.012547963
138	0xbc52c0d0	-0.012863353
139	0xbe11be1a	-0.14232674
140	0xbd0ebdc5	-0.034848947
141	0xbd2a0f3e	-0.041518442
142	0x3daed14a	0.085360125
143	0xbd83fc60	-0.06444621
144	0x3d26b373	0.04069848
145	0x3da4923a	0.08035703
146	0x3e176ec0	0.14788342
147	0x3d34ca9c	0.044138536
148	0x3e6bf855	0.2304395
149	0x3d46cd45	0.048535604
150	0xbc9a2e09	-0.01882078
151	0xbc9690a1	-0.018379511
152	0x3d2984f2	0.041386552
153	0x3e1b3242	0.1515589
154	0x3c8bab45	0.017049441
155	0x3a3cbe4a	0.0007199986
156	0xbdea9bf2	-0.114555255
157	0xbdb7c993	-0.08973994
158	0xbc96d0a0	-0.018410027
159	0xbd9471c3	-0.07248261
160	0x3d9feea7	0.07809191
161	0x3d76d41b	0.060260873
162	0xbc728250	-0.014801577
163	0x3d1d9c0e	0.038478903
164	0x3ce60d17	0.028082414
165	0xbd7cfd16	-0.0617648
166	0x3cc50989	0.024052398
167	0x3e2a49a1	0.1662965
168	0xbe08a6e8	-0.1334492
169	0xbddd5545	-0.108072795
170	0x3d606198	0.054780573
171	0xbe9bfb1f	-0.30465028
172	0xbe228470	-0.15870833
173	0x3d9ded21	0.077112444
174	0xbaa33b0d	-0.0012453512
175	0x3db45a4c	0.08806285
176	0xbdb73b6d	-0.089468814
177	0x3dfaffbf	0.12255811
178	0x3dc6be83	0.09704306
179	0x3e067d0a	0.13133636
180	0xbd843735	-0.064558424
181	0xbde31e13	-0.110897206
182	0xbd83d995	-0.06437985
183	0x3db69463	0.08915021
184	0x3de14b81	0.11000729
185	0x3e12ba47	0.14328872
186	0x3d8ee207	0.06976705
187	0xbda36f20	-0.0798018
188	0x3d8d95c4	0.06913331
189	0xbd7980f6	-0.060914002
190	0x3d676906	0.056496643
191	0xbd8dd5c5	-0.06925539
192	0x3e345b42	0.17612937
193	0x3dbfc25e	0.093632445
194	0x3d46d792	0.048545428
195	0x3d8155b4	0.06315175
196	0x3e450a62	0.19242242
197	0x3e155a8d	0.14585324
198	0x3e622b27	0.22086774
199	0xbcf72a09	-0.030171411
200	0xbd824106	-0.063600585
201	0x3e27bf71	0.16381623
202	0x3d3398f5	0.043847043
203	0x3e00ccd4	0.12578136
204	0x3e0c2117	0.13684498
205	0x3d7cc318	0.061709493
206	0x3d83091f	0.06398224
207	0xbdc32159	-0.09527845
208	0x3dfa5eaa	0.12225087
209	0xbbdc4ce2	-0.0067230323
210	0xbe473194	-0.19452506
211	0xbdf8f19d	-0.12155459
212	0xbd37ccfe	-0.04487323
213	0xbdaffe4e	-0.08593427
214	0xbe2b6f91	-0.16741778
215	0x3e22ae0a	0.15886703
216	0x3e0c930d	0.1372797
217	0xbceabe32	-0.028655145
218	0x3e5a537e	0.21320912
219	0xbe175bf1	-0.14781167
220	0xbe2995d5	-0.16561063
221	0xbe2d9177	-0.16950022
222	0xbd9c518e	-0.07632743
223	0xbe8df420	-0.27725315
224	0xbd37f003	-0.044906627
225	0x3e05c978	0.13065135
226	0x3e1cb89a	0.15304795
227	0xbb096669	-0.0020965582
228	0x3cd5460d	0.02603438
229	0x3e3abd2f	0.1823623
230	0x3d3696b0	0.0445773
231	0xbc2c3238	-0.01051002
232	0x3d561724	0.052268162
233	0x3cc4d2c9	0.024026291
234	0xbcbfcb5d	-0.0234124
235	0xbdd73a70	-0.10509193
236	0x3d82ce3f	0.063869946
237	0xbea3340b	-0.31875643
238	0xbea974f0	-0.3309703
239	0xbcda8092	-0.026672635
240	0xbe2bb19c	-0.16766971
241	0xbeacdde1	-0.3376303
242	0xbc11a6db	-0.008889879
243	0x3dc54025	0.09631375
244	0xbd0fc34f	-0.03509837
245	0xbd3ac527	-0.045598175
246	0xbd1500e3	-0.0363778
247	0x3c52b235	0.012859871
248	0xbdd35e13	-0.103206776
249	0x3cb50d48	0.02210106
250	0xbd6c86b8	-0.057745665
251	0x3d1010ec	0.035172388
252	0x3d4df9ca	0.050287046
253	0xbe6a6802	-0.22891238
254	0xbe80c1b6	-0.2514779
255	0xbd473636	-0.048635684

conv2.bias f4 [32]
0	0x3c0b37fc	0.008497234
1	0x3e137c56	0.14402899
2	0x3de65d80	0.112483025
3	0xbd86771c	-0.06565687
4	0x3d70b87f	0.0587697
5	0x3e0ecebd	0.13946052
6	0xbc5beefc	-0.0134236775
7	0x3e19a1d4	0.15003139
8	0x3d044b61	0.03229845
9	0xbc1344a3	-0.008988532
10	0x3def9048	0.11697441
11	0x3da91152	0.08255257
12	0x3d84a2b3	0.06476345
13	0x3d888348	0.06665665
14	0x3d3fea51	0.04685432
15	0x3d376cc8	0.044781476
16	0x3bebaf0d	0.0071924985
17	0x3cddc9ca	0.02707376
18	0x3dacabf3	0.08431234
19	0x3db876dc	0.090070456
20	0xbe101def	-0.14073919
21	0x3cdea6e8	0.027179196
22	0x3db9aaaf	0.090657584
23	0x3ca2e2d0	0.019883543
24	0x3c8b7753	0.017024672
25	0x3dbe5a27	0.09294539
26	0x3e0ece97	0.13945995
27	0x3ca44264	0.020051189
28	0xbbcb7617	-0.0062091458
29	0x3d6fa74e	0.058509164
30	0x3d21ad40	0.039471865
31	0x3dc24f47	0.09487777

fc1.weight f4 [64, 800]
0	0x3d04ee36	0.03245374
1	0xbcdfb3dd	-0.027307445
2	0xbcc342c1	-0.023835542
3	0x3ca253f6	0.019815426
4	0x3bf9f863	0.007628487
5	0x3d102369	0.03519002
6	0xbcfa359a	-0.030543137
7	0x3cea2b11	0.028584989
8	0x3c7ecc45	0.015551631
9	0xbbe226ae	-0.0069015836
10	0x3d07ffa4	0.033202782
11	0x3cca865d	0.024722273
12	0xbc81e9b9	-0.015858518
13	0x3cc98ff3	0.024604773
14	0xbd03539a	-0.03206215
15	0x3c42bff9	0.01188659
16	0xbca3adc2	-0.019980315
17	0xbcd9f5ac	-0.026606403
18	0xbc403d11	-0.011733309
19	0x3aad86ad	0.0013238989
20	0xbccb8cc4	-0.024847396
21	0xbbb2b892	-0.0054541314
22	0x3c95dc49	0.018293517
23	0xbd2e728b	-0.042589705
24	0xbc4834e6	-0.012219643
25	0xbcc87aec	-0.024472676
26	0x3d7bce59	0.061476085
27	0xbbf6a4fd	-0.0075269924
28	0x3d21d211	0.039506976
29	0x3c926718	0.017871425
30	0x3d550cbd	0.0520141
31	0x3c17e203	0.009270194
32	0xbd710b91	-0.05884892
33	0xbd034735	-0.03205033
34	0x3ce4e1aa	0.027939636
35	0x3d03f964	0.03222026
36	0x3d016422	0.031589635
37	0xbd056fca	-0.032577313
38	0x3ce9334f	0.028466849
39	0x3c5660ce	0.0130846035
40	0xbc228833	-0.009920168
41	0xbbed770f	-0.007246859
42	0x3cfedfee	0.031112637
43	0xbcffc35e	-0.031221088
44	0x3c082a25	0.008310829
45	0x3bc536c6	0.0060184924
46	0x3d40d664	0.04707946
47	0xbc3f6d96	-0.011683842
48	0x39f29fde	0.00046276947
49	0xbc12db79	-0.008963459
50	0x3a63cffa	0.0008690354
51	0x3cdbf0e3	0.026848262
52	0x3c4ea26c	0.012611967
53	0xbc581e84	-0.013190869
54	0xbce1c9fd	-0.027562136
55	0x3c19a0f1	0.00937675
56	0x3c911145	0.01770843
57	0xbc0c942b	-0.008580248
58	0xbaa8a9ca	-0.0012867984
59	0xbce32868	-0.027729228
60	0xbce277ec	-0.027645074
61	0x3d071cdf	0.032986518
62	0xbcaff714	-0.02148012
63	0xbc28d4b8	-0.010304622
64	0xbca07d12	-0.019590888
65	0xbce0220f	-0.02735999
66	0x3cd62671	0.026141377
67	0xbce79bc8	-0.028272524
68	0x3c8a045e	0.016847786
69	0xbcd452c4	-0.025918372
70	0x3cc50ceb	0.024054011
71	0xbac1a39b	-0.001477349
72	0x3b7d097b	0.0038610387
73	0xbc0430dc	-0.00806829
74	0x3c525e40	0.012839854
75	0xbc3c07e2	-0.011476489
76	0x3c996cf2	0.018728707
77	0xbbdd9912	-0.006762632
78	0x3c1d4464	0.009598825
79	0xbc0adfe6	-0.008476233
80	0x3c389d30	0.011267945
81	0xbd21fd82	-0.039548405
82	0xbc441d2f	-0.011969849
83	0xbca570a2	-0.02019531
84	0xbccdbabb	-0.025113454
85	0xbd12de22	-0.035856374
86	0xbbe906af	-0.0071113924
87	0xbd7778e0	-0.06041801
88	0xbcfe0d7e	-0.031012293
89	0x3cbbc303	0.022920137
90	0xbc1dc147	-0.0096286
91	0xbd237e3b	-0.039915305
92	0x3bec4548	0.0072104074
93	0x3c1a6dd3	0.009425598
94	0xbcaad0c2	-0.020851497
95	0xbc7100ed	-0.014709693
96	0xbbc5c30e	-0.006035215
97	0xbd63d9ca	-0.05562762
98	0xbb3fddb6	-0.0029276437
99	0xbbcec7ed	-0.006310454
100	0x3c01ed96	0.00793018
101	0xbcfa07c5	-0.030521283
102	0x3d0b64a0	0.03403151
103	0x3ce38035	0.027771095
104	0xbbca71c7	-0.006178114
105	0xbb019678	-0.0019773524
106	0xbc885553	-0.016642248
107	0x3b8045b8	0.003914561
108	0x3ce4d2cb	0.027932545
109	0x3ca8fa0a	0.02062704
110	0x3cc47a45	0.023984084
111	0xbcd3def9	-0.025863158
112	0xbb69186d	-0.0035567537
113	0xbcf9c0cf	-0.030487446
114	0xbc98aa47	-0.018635882
115	0xbcf23468	-0.029566005
116	0xbacf4d80	-0.0015815943
117	0x3ce4e54c	0.027941369
118	0xbc31327b	-0.010815258
119	0xbb059deb	-0.0020388316
120	0x3ca5f8d9	0.020260261
121	0xbd096af0	-0.03354925
122	0xbcb25ab4	-0.021771766
123	0xbd13036e	-0.035891943
124	0xbc89ae1c	-0.016806655
125	0xbc89e225	-0.016831467
126	0xbbeb44d4	-0.007179836
127	0x3c81c52f	0.015841095
128	0x3ca7d23f	0.020485995
129	0x3cf5ce68	0.030005649
130	0xbb7fdcbb	-0.0039041478
131	0xbc978270	-0.018494815
132	0x3a55b4bb	0.0008152236
133	0x3ba7e366	0.0051235436
134	0x3c56c81f	0.013109236
135	0x3d131bd3	0.035915207
136	0x3c293d27	0.010329521
137	0xbce654d0	-0.028116614
138	0x3ce88d0c	0.028387569
139	0x38fe5261	0.00012127008
140	0x3b14f086	0.002272637
141	0xbc64aa2d	-0.013956589
142	0x3c24f11c	0.010067251
143	0xbc939770	-0.018016547
144	0xbbb18e47	-0.005418572
145	0x3b0e0191	0.0021668414
146	0x3cc610dd	0.024177963
147	0xbca9d48d	-0.020731235
148	0x3cfb5ba7	0.030683352
149	0x3c6fc79d	0.014634994
150	0x3c5bb065	0.013408755
151	0xbcb930e0	-0.022606313
152	0xbcf29e95	-0.029616633
153	0xbcb3523f	-0.021889804
154	0xbaade663	-0.0013267513
155	0x3c5876b1	0.013211892
156	0xbcc2aed7	-0.02376501
157	0xbd2292f2	-0.03969092
158	0xbd5a81fd	-0.053346623
159	0xbd4f9f6c	-0.050689146
160	0x3ce31515	0.027720014
161	0x3bdfc9c6	0.006829473
162	0xbc29d679	-0.010366076
163	0xbc97cd76	-0.018530589
164	0xbd8368a1	-0.06416441
165	0x3ca3253e	0.01991522
166	0xbd8b30f4	-0.067964464
167	0xbd5d8462	-0.05408133
168	0xbcb01196	-0.02149276
169	0x3c4ba525	0.01242951
170	0x3c44e6fb	0.012017961
171	0xbcca307a	-0.024681319
172	0xbcb5bde6	-0.022185277
173	0xbc7528cb	-0.014963339
174	0xbd2e040c	-0.04248433
175	0xbc88b3c5	-0.016687283
176	0xbce59b1e	-0.028028067
177	0xbc840b33	-0.016118621
178	0xbc65b5b0	-0.014020368
179	0xbc1c1b7d	-0.009528038
180	0xbcb6c223	-0.022309368
181	0xbc8f5501	-0.017496588
182	0xbc00761d	-0.00784066
183	0x3cd08dd9	0.025458263
184	0xbcaba2bd	-0.020951623
185	0xbca97d71	-0.020689698
186	0x39ad592e	0.00033063575
187	0xbc7c8c1c	-0.015414264
188	0x3bfa0c53	0.0076308637
189	0x3afe72f6	0.0019412923
190	0xbcc5f1ff	-0.024163244
191	0xb949c7ae	-0.0001924324
192	0xbb94bdd3	-0.0045392304
193	0xbccf42de	-0.02530044
194	0xbcad52c0	-0.021157622
195	0xbc89a769	-0.01680346
196	0xbc02b5f2	-0.007977949
197	0xbae1f226	-0.0017238304
198	0x3c14a7fc	0.009073254
199	0x3c5e7bc3	0.013579312
200	0xbc26ada7	-0.010173238
201	0xbcd8d0cd	-0.026466751
202	0x3c4afd74	0.0123895295
203	0xbbd9e46b	-0.006649544
204	0xbc93317e	-0.017967936
205	0xbc3f9e85	-0.011695509
206	0x3cf0caec	0.029393636
207	0x3b5bc11c	0.003353185
208	0x3c70df30	0.01470165
209	0x3c94b548	0.018152848
210	0x3d1d9845	0.038475294
211	0x3abf9f9d	0.0014619712
212	0xbd0ce6c0	-0.034399748
213	0xbd1f70ed	-0.038926054
214	0xbcff35b9	-0.031153547
215	0xb9aac7f0	-0.00032573892
216	0xbb0e5532	-0.002171826
217	0x3c26aecb	0.01017351
218	0xbcd9f253	-0.026604807
219	0x3c9c3dac	0.019072376
220	0x3cb2a411	0.021806749
221	0xbb457e5d	-0.0030135133
222	0xbc57268b	-0.013131748
223	0xbbd73349	-0.006567393
224	0xbcec49d7	-0.028843803
225	0xbd09f3ce	-0.033679776
226	0x3c692868	0.014230825
227	0x3b895b39	0.004191783
228	0xbae13263	-0.0017181154
229	0xbc9ad6cd	-0.018901253
230	0x3ada32de	0.001664724
231	0x3b890ba6	0.004182297
232	0xbcef7629	-0.029231148
233	0xbd01add2	-0.03165991
234	0x3b13486a	0.0022473582
235	0xbbbc3ae5	-0.0057443255
236	0xbb8170ec	-0.003950229
237	0x3ca0a543	0.019610053
238	0xbb429076	-0.0029688156
239	0xbd1d4fe3	-0.038406264
240	0x3ca8dc90	0.020612985
241	0xbaf8f3a1	-0.0018993506
242	0x3c7be0dd	0.015373436
243	0xbcb3b882	-0.021938566
244	0xbc5b3dc0	-0.013381422
245	0xbc39b0c6	-0.01133365
246	0xbd0645ff	-0.032781597
247	0xbc1dc7fe	-0.009630201
248	0xbd23dea8	-0.040007263
249	0xbd7cbe95	-0.06170519
250	0x3a141da9	0.00056501717
251	0x3b91a05e	0.004444166
252	0xbcf6f8ca	-0.030147929
253	0x3a6474ce	0.0008714915
254	0x3cb41573	0.021982884
255	0x3cd54f09	0.026038663

fc1.bias f4 [64]
0	0x3ce0a590	0.027422696
1	0xbc4a8815	-0.012361546
2	0x3d88b4ec	0.06675133
3	0x3dcd09ec	0.10011658
4	0x3d9b7b7f	0.075919144
5	0xbd0975b3	-0.033559512
6	0xbcb01b15	-0.021497289
7	0x3c50773f	0.012723743
8	0x3e21c3b1	0.15797307
9	0x3db79a90	0.08965027
10	0x3d9a2f49	0.0752855
11	0x3c8735b0	0.016505092
12	0xbcd94fd5	-0.026527325
13	0xbca4ec38	-0.02013217
14	0xbc8c0fad	-0.017097319
15	0x3cb2de1b	0.021834424
16	0x3e627427	0.22114621
17	0x3e0ee639	0.1395501
18	0x3e435447	0.19075118
19	0x3c70d5b5	0.014699389
20	0xbcc08ab9	-0.023503648
21	0x3ddd7bf5	0.108146586
22	0xbbff3e72	-0.0077894265
23	0xbc9185cb	-0.017763993
24	0x3cb6660b	0.022265455
25	0x3d92d9ce	0.07170449
26	0xbc68dd04	-0.0142128505
27	0xbd1b7583	-0.037953865
28	0xbd04739b	-0.032336812
29	0x3c113c55	0.008864482
30	0xbd1d13b7	-0.03834888
31	0x3cca2aae	0.024678554
32	0x3c1de2ba	0.009636575
33	0x3caebb85	0.02132965
34	0xbd24f5f6	-0.04027363
35	0x3cdf7f13	0.027282273
36	0x3d6c6ec5	0.057722826
37	0xbc1f6ec7	-0.009731001
38	0x3d923910	0.0713979
39	0xbd1ea5e1	-0.038732413
40	0x3d487290	0.04893738
41	0x3d480dd5	0.048841316
42	0xbb868122	-0.0041047493
43	0x38c52096	9.3997616e-05
44	0xbd28baf8	-0.041193932
45	0x3cac521d	0.021035248
46	0xbd0926ac	-0.033484146
47	0x3d42f2e9	0.04759494
48	0xbd7e5dcd	-0.062101174
49	0x3dae156d	0.085001804
50	0x3d86fb59	0.065909095
51	0xbc758582	-0.014985444
52	0xba918f24	-0.0011105281
53	0xbd0749a9	-0.033029232
54	0x3d857849	0.06517083
55	0x3dd8128f	0.10550415
56	0x3bd9d9ca	0.006648277
57	0xbd09bd9a	-0.033628084
58	0x3bec8fa6	0.0072192727
59	0xbd015a1f	-0.031580087
60	0xbc023404	-0.007946972
61	0x3cabb100	0.020958424
62	0xbc936fef	-0.01799771
63	0x3d8c8e2d	0.068630554

fc2.weight f4 [64, 64]
0	0xbd5b0874	-0.05347486
1	0x3babe680	0.0052459836
2	0x3b903332	0.004400634
3	0xbc3a8ecc	-0.0113865845
4	0xbe07225b	-0.131967
5	0x3cfe8f40	0.031074166
6	0xbde6a38a	-0.11261661
7	0x3de02a14	0.10945526
8	0xbd8a6856	-0.06758182
9	0xb7c8c2e3	-2.393261e-05
10	0x3d8576c5	0.06516794
11	0x3bc41400	0.0059838295
12	0xbdfbee88	-0.123013556
13	0x3c6553e0	0.013997048
14	0xbbffa240	-0.007801324
15	0xbcf9d990	-0.03049925
16	0xbe0925e8	-0.13393366
17	0xbdbd5b63	-0.09245946
18	0xbc92550a	-0.017862815
19	0xbd5f95d4	-0.054586247
20	0x3b8dfe80	0.0043333173
21	0xbd24996a	-0.04018537
22	0x3d63fa40	0.05565858
23	0x3c2d2060	0.010566801
24	0x3dbee3da	0.09320803
25	0xbd7c2c59	-0.06156573
26	0xbdc61d2a	-0.09673531
27	0xbd23db40	-0.040004015
28	0xbd5add38	-0.053433627
29	0xbc740ba0	-0.01489535
30	0x3dd6b1e0	0.10483146
31	0xbbf186e0	-0.0073708147
32	0xbce5f390	-0.028070241
33	0x3d86e2fa	0.06586261
34	0xbd5bf800	-0.053703308
35	0xbda736a2	-0.08164717
36	0x3d579699	0.052633855
37	0x3dfe509c	0.12417719
38	0xbddff71b	-0.109358035
39	0x3de2e20a	0.1107827
40	0x3d4f1121	0.050553445
41	0xbdf7bdaa	-0.120967224
42	0x3cb75f50	0.022384316
43	0xbc821d70	-0.015883178
44	0x3d0b7e14	0.034055784
45	0x3bad3b40	0.005286604
46	0x3d250614	0.040289
47	0xbda5dfe0	-0.080993414
48	0x3dfbd142	0.12295772
49	0x3d9bd76a	0.07609446
50	0xbdf46a94	-0.11934391
51	0x3d718354	0.058963135
52	0xbcd18c08	-0.025579467
53	0x3ba2f7a0	0.004973367
54	0xbd6597d3	-0.056052994
55	0xbda638e7	-0.08116322
56	0xbdd61a22	-0.10454203
57	0x3d82fd1e	0.063959345
58	0x3ca61218	0.0202723
59	0x3df3b9a8	0.119006455
60	0x3dfc6cd6	0.12325446
61	0x3ca2f76a	0.019893367
62	0xbde087a8	-0.109633744
63	0xbcef9f46	-0.029250752
64	0xbc4ee254	-0.012627203
65	0xbdd07ae8	-0.101796925
66	0x3ce6eb52	0.028188381
67	0x3e470114	0.19434005
68	0x3e0edd7e	0.1395168
69	0xbddfc401	-0.10926057
70	0x3e19e723	0.15029578
71	0x3d38867a	0.04505012
72	0xbcd0aecd	-0.025473977
73	0x3dc5cc97	0.09658163
74	0x3e0b3e29	0.13597931
75	0xbd74b047	-0.059738424
76	0xbc6bc206	-0.0143895205
77	0x3c20224a	0.0097738
78	0x3b83753e	0.004011779
79	0x3e074c4f	0.13212703
80	0xbdcebb09	-0.10094268
81	0x3bc3ecd8	0.0059791617
82	0xbdc272e2	-0.094945684
83	0xbde529cc	-0.11189613
84	0x3d64de42	0.055876024
85	0x3e2c8e9f	0.1685128
86	0xbdfc3a2a	-0.123157814
87	0xbd84c7d3	-0.06483426
88	0x3e266bb9	0.1625203
89	0xbdc8e3d9	-0.098090835
90	0xbd41a31b	-0.04727469
91	0xba8c7049	-0.0010714616
92	0x3d7864a7	0.060642865
93	0x3de9d68f	0.11417877
94	0x3d2362b6	0.03988906
95	0xbd96641e	-0.073433146
96	0x3d30014b	0.042969983
97	0xbca669c7	-0.02031411
98	0x3d8bb927	0.068224244
99	0xbd3bf964	-0.045892134
100	0x3de36d67	0.11104851
101	0x3d715995	0.058923323
102	0xbe01bfb9	-0.12670793
103	0xbd4b0a0f	-0.04957014
104	0x3d837c49	0.0642019
105	0x3e29d331	0.1658447
106	0x3e66d365	0.22541578
107	0x3c96af63	0.018394178
108	0x3d91d936	0.07121508
109	0xbd0332d6	-0.032030903
110	0xbdad2d63	-0.084559225
111	0x3c961657	0.0183212
112	0x3d0218df	0.031762
113	0xbdb2f058	-0.08737248
114	0x3e076947	0.13223754
115	0xbc750d99	-0.014956855
116	0xbcc3fd24	-0.023924418
117	0xbcab5126	-0.020912718
118	0x3d82ce8d	0.06387053
119	0xbd31420a	-0.04327587
120	0x3c7ff7d3	0.015623051
121	0x3d999a73	0.07500162
122	0x3c19cb3f	0.009386837
123	0xbda8a866	-0.082352445
124	0x3ca91b54	0.020642914
125	0xbd9a4a49	-0.075337
126	0x3d6c2f5c	0.057662353
127	0x3d8b726f	0.06808936
128	0xbd19e398	-0.037570566
129	0xbaf20080	-0.0018463284
130	0xbd491bfa	-0.049098946
131	0xbd5c994e	-0.05385714
132	0xbd60b614	-0.054861143
133	0xbd91666c	-0.070996135
134	0x3c144917	0.009050629
135	0xbd8ecf90	-0.06973183
136	0xbd5b4e04	-0.0535412
137	0x3da012ec	0.07816109
138	0xbd99dd7e	-0.075129494
139	0xbd80fa85	-0.06297783
140	0x3dc75d32	0.097345725
141	0x3dbec2cc	0.09314498
142	0x3d7ec2b8	0.062197417
143	0x3d6d22f6	0.05789467
144	0xbdc9c2ec	-0.098516315
145	0xbd9db88f	-0.077012174
146	0x3d9b0f5c	0.07571289
147	0xbdc876eb	-0.09788307
148	0xbdbd6e40	-0.09249544
149	0xbdaa8ee8	-0.083280385
150	0xbc09488b	-0.008379112
151	0xbcc39308	-0.02387382
152	0x3d335c1c	0.043789014
153	0xbb7226e4	-0.003694945
154	0xbd1dd428	-0.038532406
155	0x3deabca6	0.11461763
156	0xbd2e1888	-0.042503864
157	0xbdb0db07	-0.08635526
158	0xbc8632b8	-0.016381606
159	0x3d6048ac	0.054756805
160	0x3dffd5aa	0.12491925
161	0x3e093409	0.13398756
162	0xbd4cee14	-0.050031736
163	0x3c4b7650	0.012418345
164	0x3b90f117	0.0044232714
165	0x3d84ecb6	0.064904615
166	0xbc3a0cb2	-0.011355566
167	0x3d86ce76	0.06582348
168	0x3c85b1c9	0.016320126
169	0xbe18e210	-0.14929986
170	0xbe0ef584	-0.13960844
171	0x3d3c2794	0.045936182
172	0xbd07608d	-0.033051062
173	0x3cbe0c36	0.023199182
174	0xbd341d60	-0.043973327
175	0xbc166923	-0.00918034
176	0xbd5f25fe	-0.05447959
177	0xbe3d18b5	-0.18466456
178	0xbca8aec2	-0.020591144
179	0xbdb36d41	-0.08761073
180	0x3d92e180	0.07171917
181	0x3d7b0aac	0.061289474
182	0x3dc8b554	0.098002106
183	0x3cfb2606	0.03065778
184	0x3baeea48	0.005337987
185	0x3da042b2	0.07825221
186	0xbddcee9f	-0.10787701
187	0x3c6394f0	0.01389049
188	0xbddc9552	-0.10770668
189	0x3d3d3777	0.046195474
190	0xbdc51796	-0.09623639
191	0x3d9bda90	0.07610047
192	0xbdd7c93c	-0.10536429
193	0x3d2a9500	0.041646004
194	0x3cfa7f6f	0.030578343
195	0xbd594119	-0.053040598
196	0xbd9ab10b	-0.075532995
197	0x3dd615ba	0.10453363
198	0xbd94a6e9	-0.07258398
199	0xbccd7566	-0.025080394
200	0x3da02f26	0.07821493
201	0xbb3dc031	-0.0028953666
202	0xbe147a33	-0.1449974
203	0x3da8ed61	0.082484014
204	0xbb975e01	-0.0046193604
205	0xbddda027	-0.10821562
206	0x3df4a862	0.11946179
207	0xbcc5d13a	-0.024147619
208	0xbd2d7f3c	-0.04235767
209	0xbdeca570	-0.11554992
210	0xbe11de9a	-0.14245072
211	0xbdd38e01	-0.103298195
212	0xbd1788b5	-0.03699561
213	0xbdc30e39	-0.09524197
214	0x3deb5afa	0.11491962
215	0x3da57d7c	0.08080575
216	0x3afc7533	0.0019261002
217	0xbdb0426a	-0.086064175
218	0x3d9c436f	0.076300494
219	0x3dda6240	0.10663271
220	0xbdb0effc	-0.086395234
221	0xbcb27dca	-0.021788497
222	0x3d02db60	0.031947494
223	0x3da739c7	0.08165317
224	0xbd4e23a7	-0.05032697
225	0x3cb3c2dd	0.021943504
226	0x3d539470	0.051655233
227	0xbcac583e	-0.02103817
228	0xbcc189d0	-0.023625284
229	0xbbe1f640	-0.0068958104
230	0x3d3eded8	0.04659924
231	0x3d26eaa7	0.040751126
232	0x3d4c28e8	0.0498437
233	0x3ca732ed	0.020410025
234	0xbbd996d4	-0.0066402946
235	0x3de8a783	0.11360075
236	0xbc10084c	-0.008791041
237	0x3de67288	0.11252314
238	0x3d0391ec	0.032121584
239	0xbda1cf3c	-0.07900855
240	0xbd478532	-0.04871101
241	0x3cf4c493	0.02987889
242	0x3d9139f9	0.070911355
243	0x3de4dbc3	0.11174729
244	0xbdd4e6c5	-0.10395578
245	0x3db0c9aa	0.08632214
246	0xbe00d1c5	-0.1258002
247	0xbda9807c	-0.082764596
248	0x3cb6e332	0.022325132
249	0x3ddfb314	0.10922828
250	0xbb520b4e	-0.0032050195
251	0x3d02cd51	0.031934086
252	0x3db85780	0.09001064
253	0xbcfe5c39	-0.031049835
254	0xbcf2b930	-0.02962932
255	0xbe1ee388	-0.15516484

fc2.bias f4 [64]
0	0xbdd49795	-0.103804745
1	0x3dadcb7d	0.08486078
2	0x3cadfa9c	0.021237664
3	0x3df85148	0.12124878
4	0x3d025c81	0.0318265
5	0x3ce1ae09	0.027548807
6	0x3e793830	0.2433784
7	0xbdbc5151	-0.091951974
8	0x3d8eec1a	0.069786265
9	0x3da8d1d8	0.082431495
10	0x3d35597f	0.044274803
11	0xbd17e179	-0.03708026
12	0x3df0266e	0.1172608
13	0xbc0fd6b0	-0.008779213
14	0x3ddf5d65	0.109064855
15	0x3d31389b	0.043266874
16	0x3d415245	0.0471976
17	0xbe47eaa3	-0.195231
18	0x3ea11f7c	0.31469333
19	0x3cd3b92e	0.025845136
20	0x3da64155	0.0811793
21	0xbd1711e7	-0.036882307
22	0x3caaa689	0.020831363
23	0x3dc75721	0.097334154
24	0x3e10696c	0.14102715
25	0x3cbc73cb	0.023004433
26	0x3d58aa48	0.052896768
27	0x3d768916	0.06018933
28	0x3d886030	0.06658971
29	0x3e0e9746	0.13924894
30	0xbd90954c	-0.07059726
31	0x3d358120	0.044312596
32	0xbe0afa94	-0.1357215
33	0xbdc2fc89	-0.095208235
34	0x3d52c316	0.05145558
35	0x3e083085	0.13299759
36	0xbe43fd72	-0.1913965
37	0xbc87d769	-0.016582208
38	0x3d182267	0.037142184
39	0x3e52e340	0.20594501
40	0x3e412ec0	0.1886549
41	0x3e0fe2fc	0.14051431
42	0x3dbff68c	0.09373197
43	0xbc048ca9	-0.008090177
44	0xbb4e612a	-0.003149102
45	0x3d3853d2	0.045001812
46	0x3e2aa8bf	0.16665934
47	0x3c8dbc38	0.017301664
48	0xbe0b9685	-0.13631637
49	0x3dc30cc3	0.095239185
50	0x3d380e66	0.044935606
51	0x3e2aadbe	0.1666784
52	0x3d396c30	0.04526919
53	0xbd0f2401	-0.034946445
54	0xbdacbbbb	-0.08434244
55	0x3dc97209	0.098362036
56	0x3d5453b5	0.05183764
57	0x3db1ae66	0.08675842
58	0x3c924752	0.017856274
59	0x3d97d148	0.07412964
60	0x3e1856b1	0.1487682
61	0x3ddf44c8	0.10901791
62	0x3d73b7f8	0.05950162
63	0x3c36bd66	0.011153555

fc3.weight f4 [7, 64]
0	0x3b5c342b	0.003360043
1	0xbdebce10	-0.11513913
2	0xbdcbc071	-0.09948815
3	0xbdef4a6f	-0.11684119
4	0xbe23aca6	-0.15983829
5	0xbd61ada1	-0.055097226
6	0x3e7cdb64	0.24693066
7	0x3d87fbe7	0.066398434
8	0x3e91a8e6	0.28449172
9	0xbc46a4b8	-0.012124233
10	0xbdf5fefa	-0.120115235
11	0xbdc374a7	-0.09543734
12	0xbe1bdd44	-0.15221125
13	0xbdc6e855	-0.097122826
14	0x3e3090d8	0.17242754
15	0xbd7f2919	-0.062295053
16	0xbd644f21	-0.055739526
17	0xbe96b4e1	-0.29434875
18	0x3e6bbee1	0.23022033
19	0xbd87767b	-0.06614395
20	0xbc9f527d	-0.019448513
21	0x3e307172	0.17230776
22	0x3dda4edd	0.10659573
23	0x3e518003	0.20458989
24	0xbe79f1eb	-0.2440869
25	0x3e347e20	0.17626238
26	0x3df3443d	0.1187825
27	0xbd908069	-0.07055742
28	0x3de599eb	0.11210998
29	0x3bebccbd	0.0071960376
30	0xbc922917	-0.017841859
31	0x3d97a7f1	0.07405079
32	0x3b2607f7	0.0025334337
33	0x3bd9c579	0.006645855
34	0x3d333e3e	0.04376053
35	0x3e3198dc	0.17343467
36	0xbe2528c6	-0.16128835
37	0xbe7acb49	-0.2449161
38	0xbd3ae07b	-0.045624238
39	0x3dc5aef7	0.096525125
40	0x3e452b18	0.1925472
41	0x3e0f8557	0.14015709
42	0xbd97b334	-0.07407227
43	0xbe2704d6	-0.16310439
44	0x3da85ef5	0.082212366
45	0x3e2a093b	0.16605084
46	0x3e72ebbe	0.23722741
47	0x3e56f71f	0.20992707
48	0xbd1af2df	-0.037829276
49	0xbeb5f54d	-0.35538712
50	0xbd80e58e	-0.06293784
51	0xbe71592c	-0.23569173
52	0xbe211327	-0.15729962
53	0x3cd91ae2	0.026502077
54	0x3d7e3b5f	0.06206834
55	0xbd011045	-0.031509656
56	0x3d930eb6	0.0718054
57	0x3cd9c948	0.026585236
58	0xbdf2902c	-0.11843905
59	0x3c88cd2d	0.016699398
60	0xbbd20e71	-0.006410413
61	0x3de31afc	0.11089131
62	0xbe00489b	-0.12527697
63	0x3cf5215c	0.029923134
64	0x3dddeea3	0.10836532
65	0x3e043808	0.12911999
66	0xbcd296f8	-0.025706753
67	0xbc17e7b3	-0.00927155
68	0xbd6088ad	-0.054817844
69	0x3da4eddc	0.080531806
70	0x3ebb72df	0.36611077
71	0x3e8aef90	0.27135897
72	0x3e55787c	0.20846742
73	0x3db0d3a0	0.08634114
74	0x3d8f6b63	0.07002904
75	0xbd424d8e	-0.047437243
76	0x3cd5db3c	0.026105516
77	0x3dabf34e	0.08396016
78	0x3e75ae0d	0.23992176
79	0x3d63340e	0.055469565
80	0x3d10bd31	0.035336677
81	0xbc96b7b8	-0.01839815
82	0x3e7ab564	0.24483258
83	0x3df25070	0.118317485
84	0xbbc39c7d	-0.0059695826
85	0x3e37590c	0.17905062
86	0x3e318529	0.17335953
87	0x3cb4cb4d	0.022069598
88	0x3dde61ae	0.10858475
89	0x3b66d19d	0.0035220154
90	0x3ebec9b9	0.37263277
91	0xbe69f5d9	-0.2284769
92	0x3d03acf9	0.03214738
93	0x3e307f89	0.17236151
94	0xbde1a8fd	-0.1101856
95	0x3d9ce726	0.076612756
96	0x3ce87400	0.028375626
97	0xbcf96b5c	-0.0304467
98	0x3d2999b2	0.04140634
99	0x3e61b08e	0.22040007
100	0x3e450ab0	0.19242358
101	0x3e471a76	0.19443688
102	0xbd1f7dd7	-0.03893837
103	0x3d995741	0.074873455
104	0x3d4bf952	0.049798317
105	0x3cf404d6	0.029787462
106	0x3dda91f0	0.106723666
107	0x3d9e6a61	0.07735134
108	0xbde26255	-0.110539116
109	0xbd6dec2c	-0.05808656
110	0x3aa96589	0.0012923937
111	0xbd35bf5a	-0.04437194
112	0xbde1aa16	-0.110187694
113	0xbe0f2d37	-0.13982092
114	0x3d0df08c	0.03465323
115	0x3e4826f2	0.19546106
116	0xbe29db43	-0.16587548
117	0x3e1a0eed	0.15044756
118	0xbdf29079	-0.11843962
119	0x3e9bdeb3	0.30443344
120	0x3c3bc280	0.011459947
121	0xbda65a81	-0.08122731
122	0x3e6a1166	0.228582
123	0x3c4bda90	0.012442246
124	0x3cf1d9bc	0.02952277
125	0xbdc68d50	-0.09694922
126	0x3ddc10fb	0.10745426
127	0xbd1e8758	-0.038703293
128	0x3df94f82	0.12173368
129	0xbb851698	-0.0040615313
130	0xbcc8550a	-0.024454612
131	0x3d115576	0.035481893
132	0x3ea2a667	0.3176758
133	0xbd8ff29f	-0.07028698
134	0xbd297dbd	-0.04137968
135	0x3e42c0c0	0.19018841
136	0xbca71a24	-0.020398207
137	0xbd1945fd	-0.03742026
138	0x3d5006cb	0.05078773
139	0x3d1eae0d	0.038740207
140	0x3e290fe2	0.16509965
141	0x3e3d2cf1	0.18474175
142	0xbd55e47d	-0.052219857
143	0x3d919589	0.071086
144	0x3dcdf6ca	0.10056837
145	0x3b30b805	0.0026965153
146	0x3e763cd5	0.24046643
147	0xbdc22704	-0.09480098
148	0x3c26f081	0.010189177
149	0x3e52cbce	0.20585558
150	0x3d3a970d	0.04555421
151	0xbdc19ccd	-0.094537355
152	0x3de3732e	0.11105953
153	0x3e3550fe	0.17706677
154	0xbd2ae3f7	-0.04172131
155	0x3cdebafd	0.027188772
156	0x3c1e2dc7	0.009654469
157	0x3e59c343	0.21265893
158	0xbd1641a4	-0.036683694
159	0x3dfb767e	0.1227846
160	0x3b945840	0.004527122
161	0xbd0f82e0	-0.03503692
162	0x3c876922	0.016529623
163	0x3e37dcb9	0.17955293
164	0xbccd437c	-0.025056593
165	0xbd319134	-0.043351367
166	0x3dc81b82	0.09770872
167	0x3e465886	0.19369707
168	0xbe086874	-0.13321096
169	0x3dbde5b5	0.09272329
170	0x3d7940fa	0.060852982
171	0x3e84e3e0	0.25955105
172	0x3c06d1e5	0.008228754
173	0x3da0795c	0.078356475
174	0x3d832f91	0.06405557
175	0x3e973efa	0.29540235
176	0xbcb64110	-0.022247821
177	0x3e6a8ee7	0.22906075
178	0x3db901e2	0.09033562
179	0x3e5a1d01	0.21300127
180	0x3cb6a153	0.022293722
181	0x3c3f740f	0.011685385
182	0xbd54d630	-0.051962078
183	0x3e27ddae	0.16393158
184	0x3a822fd1	0.0009932463
185	0x3e1258fb	0.14291756
186	0xbdceff78	-0.101073205
187	0x3da23485	0.079201736
188	0x3dadeeb0	0.08492792
189	0xbd7cc457	-0.06171068
190	0x3c381c8b	0.011237274
191	0xbdd7dc6e	-0.105400905
192	0xbdb646a2	-0.08900191
193	0xbe26517d	-0.16242023
194	0x3b603909	0.0034213683
195	0xbde39815	-0.11112992
196	0xbd961452	-0.073280945
197	0x3d9d2310	0.07672703
198	0x3e2307dc	0.15920967
199	0xbe6d9063	-0.2319961
200	0x3db9fe8e	0.090817556
201	0x3c700b12	0.014651077
202	0x3bc9affb	0.0061550117
203	0xbe05cd3e	-0.13066575
204	0x3e29f081	0.16595651
205	0xbdad78f2	-0.08470334
206	0x3b110193	0.0022126182
207	0xbe8118cf	-0.2521424
208	0xbd941086	-0.07229714
209	0xbdb489eb	-0.08815368
210	0x3ea6cc8e	0.32577938
211	0xbe26e4ec	-0.16298264
212	0xbc4bc2cb	-0.012436579
213	0xbe52ead4	-0.20597392
214	0x3e4bb6f0	0.19894004
215	0x3e40b783	0.18820004
216	0xbdb620ac	-0.088929504
217	0x3e509440	0.20369053
218	0xbca46684	-0.020068415
219	0xbd898913	-0.06715598
220	0x3e09f327	0.13471662
221	0xbd5b2493	-0.053501677
222	0xbddaef54	-0.106901795
223	0x3e89288b	0.26788744
224	0x3bbe8713	0.005814442
225	0xbcdf21b2	-0.027237747
226	0x3c52d785	0.012868767
227	0x3e899aa5	0.26875797
228	0xbef71faa	-0.48266345
229	0x3e10e812	0.14151028
230	0xbe012246	-0.1261073
231	0x3e2b90ed	0.16754504
232	0xbb1bbf38	-0.0023765098
233	0xbda9a6f0	-0.08283794
234	0xbd01124d	-0.031511594
235	0x3e552ec9	0.20818628
236	0x3d983f15	0.07433907
237	0x3e106447	0.14100753
238	0x3df755d6	0.12076919
239	0xbca891da	-0.02057736
240	0x3be26b40	0.006909758
241	0x3cbb88e3	0.022892421
242	0xbd75fe62	-0.06005705
243	0x3df302dd	0.118657805
244	0xbd6c8300	-0.05774212
245	0xbda3ea60	-0.08003688
246	0xbe0e389a	-0.1388878
247	0xbca34082	-0.01992822
248	0x3d53f9c3	0.051751863
249	0x3d2eb2c5	0.042650957
250	0x3d84e216	0.06488435
251	0x3daa54a3	0.083169244
252	0x3e5b4e5c	0.2141661
253	0xbc87f92c	-0.016598307
254	0xbdff2886	-0.12458901
255	0x3e6ea61f	0.23305558

fc3.bias f4 [7]
0	0x3dbed940	0.09318781
1	0x3e290cf4	0.16508847
2	0x3de3cdc0	0.11123228
3	0x3e371a6e	0.17881176
4	0x3e1deaf6	0.15421662
5	0x3e5be9dc	0.21475929
6	0xbe7f11fa	-0.24909201
