src/models/v1.2.1_stage1.pth (torch, 251788 bytes, 10 tensors)

conv1.weight f4 [16, 10, 3, 3]
-0.27651727 0.10412102 0.07467735 0.039647397 -0.038823657 0.01841077 -0.11310555 0.10274819
0.03325522 -0.04846489 -0.057235856 -0.034230582 0.1032345 -0.061772674 0.072619 -0.0027931554
0.052063286 -0.07002946 -0.069648765 -0.06265575 0.05234805 -0.08048087 0.052460074 -0.0049857553
0.018066538 0.073220134 -0.023190115 0.07719748 -0.07943711 0.063973 0.057275135 -0.009404908
-0.024632916 0.0122122755 -0.06410121 -0.075004034 -0.31059316 -0.0112820845 -0.16532071 0.03976627
-0.103016734 0.020943847 -0.079976104 0.11061517 -0.05526806 -0.11109648 -0.06537222 -0.4141848
0.015880872 -0.03256077 0.10811726 -0.30255234 -0.2583654 0.21141341 -0.17134078 0.2462519
0.059339542 0.039105605 0.00154746 -0.3044139 -0.31461677 -0.14574736 0.06888386 -0.08750206
-0.078583084 -0.08984255 0.07171441 -0.028354423 -0.0055522136 0.06447721 0.08208763 0.08137963
-0.17195252 0.0102144675 -0.07908588 -0.14539567 -0.08174635 0.06327023 -0.08480405 0.09373929
-0.021447161 -0.1574038 0.071692385 -0.10169375 0.31765106 0.20790446 0.20179786 0.05779897
-0.08748075 -0.3093059 0.15065798 0.057796575 0.18683693 0.08612627 0.10581875 0.04918221
-0.10001953 -0.098511845 0.12811165 -0.06863489 -0.08375232 0.025319446 -0.040734783 0.08926515
-0.055911925 0.08811385 -0.04327587 0.024641775 -0.03807078 -0.029603604 -0.05338617 0.017862042
0.097695224 -0.028931173 0.016440792 0.055756524 -0.031483542 0.059455045 0.014397285 -0.089011304
-0.018723551 0.06666187 0.03764426 0.07869914 0.06443619 0.0037169652 -0.37729895 0.07309062
0.16698654 -0.16680123 -0.044788662 0.30541357 0.098248586 0.054654714 0.42194802 0.4174558
0.021362877 -0.22373092 -0.065635055 -0.13316594 -0.09923184 -0.05984843 -0.11459449 -0.14751902
0.29156074 0.15308318 -0.33353823 -0.2541373 -0.23618393 -0.22742407 -0.027202925 -0.5209601
-0.19278018 -0.0046839304 0.0016254341 0.068610445 0.063760094 -0.05284355 -0.009197749 -0.03746638
0.08862171 -0.013832823 -0.30501407 0.06901493 0.1974697 -0.1180924 -0.03355382 0.22904874
0.11074638 0.041725945 0.3915054 -0.2949021 -0.07979444 0.08756634 -0.2739275 0.102202825
0.12150534 -0.021280043 0.2275611 -0.037806172 -0.008657476 0.029976552 -0.047884338 0.10286409
0.004031895 -0.20426242 0.07376867 -0.058840808 -0.014713782 -0.067146674 -0.09985834 -0.013118091
-0.03864849 0.008739978 -0.051666986 -0.10292385 0.09874425 0.08692266 0.046544578 0.061649553
0.08704525 0.011909817 -0.09164488 -0.08928351 0.05230833 -0.01073331 -0.013982728 0.063036114
-0.0621769 -0.026286896 0.049996115 -0.10018401 0.011937826 -0.07645588 -0.08929462 -0.024596237
-0.01043889 0.06620523 0.26326588 0.089658394 0.21223097 0.14347139 -0.14903444 0.050076954
-0.19773693 0.021564798 -0.23121953 -0.12021927 0.2338199 -0.17462255 -0.10344863 0.054601904
-0.13032466 -0.68740946 -0.309531 0.253695 -0.11659407 -0.14256248 0.30250868 0.11165304
0.22270525 -0.37402958 -0.5151583 0.004301824 0.073900916 -0.10615416 0.046686642 -0.041771606
0.01967303 -0.017955694 0.016660178 0.068414845 0.13123302 -0.098994605 0.32960373 -0.025855517
00000000: ac93 8dbe 673d d53d 70f0 983d 4f65 223d
00000010: 8e05 1fbd 2fd2 963c e2a3 e7bd a56d d23d
00000020: a036 083d 1f83 46bd 2570 6abd 5e35 0cbd
00000030: 9c6c d33d 5805 7dbd 45b9 943d 5f0d 37bb
00000040: 5040 553d 9b6b 8fbd 03a4 8ebd a851 80bd
00000050: e96a 563d 28d3 a4bd 60e0 563d 8c5f a3bb
00000060: 4700 943c 70f4 953d 32f9 bdbc b619 9e3d
00000070: ecaf a2bd 4704 833d 5599 6a3d 0b17 1abc
00000080: f8ca c9bc ff15 483c 7f47 83bd b79b 99bd
00000090: 1106 9fbe 7ed8 38bc d549 29be f5e1 223d
000000a0: 70fa d2bd 6e92 ab3c 83ca a3bd 358a e23d
000000b0: c360 62bd 8d86 e3bd dfe1 85bd 0810 d4be
000000c0: 9a18 823c 715e 05bd 956c dd3d 24e8 9abe
000000d0: 7848 84be c27c 583e f573 2fbe 7529 7c3e
000000e0: 050e 733d 332d 203d 24d4 ca3a 24dc 9bbe
000000f0: 7315 a1be cc3e 15be fb12 8d3d 4834 b3bd
00000100: 2bf0 a0bd 5fff b7bd 01df 923d 8947 e8bc
00000110: 58ef b5bb a10c 843d 8f1d a83d 5daa a63d
00000120: 5214 30be 955a 273c c7f7 a1bd 9ae2 14be
00000130: a16a a7bd d393 813d bfad adbd 63fa bf3d
00000140: f5b1 afbc 762e 21be 75d3 923d d044 d0bd
00000150: 29a3 a23e e8e4 543e 19a4 4e3e 9dbe 6c3d
00000160: 1c29 b3bd 585d 9ebe 1646 1a3e 1abc 6c3d
00000170: 2e52 3f3e f862 b03d 80b7 d83d 4973 493d
00000180: 0ad7 ccbd 94c0 c9bd b32f 033e 7390 8cbd
00000190: 5686 abbd ba6a cf3c 84d9 26bd a6d0 b63d
000001a0: e703 65bd 0975 b43d 0a42 31bd 8cdd c93c
000001b0: 1bf0 1bbd 4283 f2bc 75ab 5abd 6b53 923c
000001c0: 6f14 c83d 1101 edbc d7ae 863c f460 643d
000001d0: e3f4 00bd 2287 733d 97e2 6b3c 8f4b b6bd
000001e0: 2262 99bc 0586 883d de30 1a3d 042d a13d
000001f0: 1ff7 833d 5498 733b 542d c1be 89b0 953d
00000200: 85fe 2a3e f1cd 2abe 5174 37bd 2b5f 9c3e
00000210: 8e36 c93d 9fdd 5f3d 9209 d83e c4bc d53e
00000220: 3301 af3c b819 65be ac6b 86bd a75c 08be
00000230: 103a cbbd a123 75bd 84b0 eabd 3a0f 17be
00000240: 7347 953e d6c1 1c3e 86c5 aabe 491e 82be
00000250: 33da 71be dbe1 68be abd8 debc a45d 05bf
00000260: 2b68 45be a87b 99bb 850c d53a a283 8c3d
00000270: a794 823d 7a72 58bd 28b2 16bc 5976 19bd
00000280: 4d7f b53d 11a3 62bc ce2a 9cbe b357 8d3d
00000290: 7f35 4a3e 6eda f1bd bb6f 09bd c18b 6a3e
000002a0: 00cf e23d d3e8 2a3d 6573 c83e 68fd 96be
000002b0: 446b a3bd fb55 b33d 3a40 8cbe b74f d13d
000002c0: cbd7 f83d 7c53 aebc c705 693e a5da 1abd
000002d0: 16d8 0dbc 6391 f53c 5e22 44bd 68aa d23d
000002e0: fd1d 843b 2b2a 51be 0714 973d 0f03 71bd
000002f0: 1312 71bc 3284 89bd 8882 ccbd 43ed 56bc
00000300: e14d 1ebd 2032 0f3c c3a0 53bd bdc9 d2bd
00000310: 6d3a ca3d 8204 b23d 87a5 3e3d 3e84 7c3d
00000320: c844 b23d 6521 433c 50b0 bbbd 46da b6bd
00000330: 4241 563d c4da 2fbc d017 65bc 1419 813d
00000340: 35ad 7ebd 9e57 d7bc bac8 4c3d 462d cdbd
00000350: df96 433c e794 9cbd 19e0 b6bd 0c7e c9bc
00000360: e107 2bbc 9c96 873d c9ca 863e d29e b73d
00000370: 1353 593e 2aea 123e 7c9c 18be 7e1d 4d3d
00000380: 8d7b 4abe a9a8 b03c d0c4 6cbe 8535 f6bd
00000390: 7c6e 6f3e 41d0 32be e0dc d3bd 3fa6 5f3d
000003a0: d473 05be 11fa 2fbf d97a 9ebe 50e4 813e
000003b0: dfc8 eebd e6fb 11be 6be2 9a3e 59aa e43d
000003c0: d80c 643e ce80 bfbe 6ae1 03bf 51f6 8c3b
000003d0: 5d59 973d 5a67 d9bd 7e3a 3f3d b418 2bbd
000003e0: 5629 a13c d217 93bc ed7a 883c 151d 8c3d
000003f0: f361 063e afbd cabd d2c1 a83e f3ce d3bc

conv1.bias f4 [16]
0.045496203 -0.03819456 -0.039077774 0.06618404 0.08326744 -0.128694 -0.004566309 -0.07910597
0.109260604 0.018182872 -0.025601957 0.00143461 0.15319595 0.07707916 -0.08499712 -0.04464679
00000000: 3a5a 3a3d e671 1cbd 0410 20bd 7f8b 873d
00000010: 1f88 aa3d 5cc8 03be faa0 95bb 5002 a2bd
00000020: 06c4 df3d 3ff4 943c 32bb d1bc 8609 bc3a
00000030: 66df 1c3e aedb 9d3d f812 aebd 8ddf 36bd

conv2.weight f4 [32, 16, 3, 3]
-0.1287381 -0.017333873 0.062120534 0.046211086 0.1549644 -0.026415743 -0.05604311 -0.0023644667
0.015358144 -0.048276234 -0.18351659 0.27918115 0.08238813 -0.27823824 -0.057356175 -0.0013962081
0.10017558 -0.020767331 0.102828115 -0.0080675 -0.07797471 0.1307513 -0.05703979 -0.0019622694
-0.14946876 0.06560303 0.04222946 0.14820707 0.18227129 0.24158575 0.04666985 0.01026187
0.060311973 -0.025030643 0.05325819 -0.02200215 -0.07468738 0.057494994 -0.074119635 -0.02052741
-0.037281234 0.018554047 0.036072966 -0.007354985 0.042194296 0.06828943 -0.15211295 0.15365319
0.021531584 0.046539806 0.093726784 -0.11623903 -0.042503055 -0.11210634 0.06853728 -0.054271925
0.03011331 -0.17687786 -0.045560107 -0.024786543 -0.03175033 -0.10255406 -0.030045928 -0.069882035
-0.03755669 0.17906606 -0.113625646 0.050906066 -0.058678895 -0.14600286 -0.034921248 0.033117034
0.17069219 -0.07605753 0.11917346 0.04295249 -0.012695282 -0.004922126 0.14000556 0.1003588
0.07498301 0.097118616 -0.10104991 0.02304316 0.046246324 -0.084976055 -0.13121596 -0.046990972
-0.05449777 -0.06993747 0.03468347 -0.002251615 0.046877585 -0.11843276 -0.023009181 -0.0045304685
-0.057912238 -0.06256317 -0.0046558995 0.056918375 0.16228074 0.025706824 0.00061186973 -0.17917876
-0.046177253 0.0070964 -0.0030607155 -0.02934779 -0.11253286 0.041128717 0.060782332 -0.08957683
0.004506064 0.010859154 0.0836822 0.002001979 -0.024124455 0.025368206 0.03468553 -0.052610092
0.044414856 0.073032774 0.0681972 0.13465522 -0.0045471657 0.18485923 0.093917415 0.124887876
-0.11285626 -0.048707124 -0.21846937 -0.21918155 -0.05856164 0.064997725 0.25601557 -0.12467633
0.035605926 -0.16029665 -0.051998973 0.10104576 -0.16277337 -0.10071882 -0.07192706 -0.0075584874
0.04684132 0.035174273 0.118348986 0.06357937 0.07105144 0.0489175 -0.1162545 -0.08314138
-0.052854333 0.01814955 -0.09777795 -0.11201892 -0.010572103 -0.085802756 -0.13804838 -0.09908825
-0.0768692 -0.012447985 0.07990444 0.007325414 -0.04788796 -0.004373026 -0.13735327 -0.09561958
-0.22368374 -0.07747507 -0.23212843 0.2133141 0.02265655 0.0805916 0.04776419 0.00950166
0.054485545 -0.025176981 0.05726771 0.22873862 -0.013384602 0.115586035 -0.04907488 0.012388797
0.08248839 0.07518965 -0.059921738 0.040161904 -0.020427713 0.0981269 0.06331424 -0.094772525
-0.18907748 -0.12735154 0.022217864 -0.36175737 -0.27931458 -0.34335 -0.25521493 0.12106731
-0.048765264 -0.0037272284 0.093671195 0.058497798 -0.07274361 -0.053690612 -0.13671649 0.11999466
-0.2217774 0.026502887 0.038859576 -0.13167709 0.0017481607 -0.23455434 -0.25226456 -0.19190216
0.12053136 0.102550425 0.12854536 0.10647703 0.21951534 0.20770219 0.1772275 0.064320795
0.23061343 -0.05867461 -0.17625163 -0.037725344 0.07926377 -0.11334396 -0.039090984 0.2057344
-0.06926341 -0.07744209 0.12209996 -0.1323033 0.12238823 0.11906579 -0.046730977 0.031266373
0.22495379 -0.012786231 0.043868992 -0.034000404 0.0055030463 -0.086124405 -0.08317398 -0.08918651
-0.059967753 -0.086654015 -0.1273452 -0.041964043 0.021431947 0.16326976 0.13260423 0.042162072
00000000: ecd3 03be c4ff 8dbc 1a72 7e3d d647 3d3d
00000010: fdae 1e3e d465 d8bc 768d 65bd 2bf5 1abb
00000020: baa0 7b3c 4dbd 45bd c6eb 3bbe d5f0 8e3e
00000030: 1cbb a83d 3e75 8ebe 4fee 6abd f800 b7ba
00000040: db28 cd3d 4020 aabc 8c97 d23d 8c2d 04bc
00000050: 34b1 9fbd abe3 053e 8ea2 69bd 6b99 00bb
00000060: 570e 19be e25a 863d ccf8 2c3d 98c3 173e
00000070: 53a5 3a3e 4162 773e e228 3f3d 6721 283c
00000080: b009 773d 100d cdbc 4325 5a3d da3d b4bc
00000090: b2f5 98bd df7f 6b3d 09cc 97bd 1929 a8bc
000000a0: 35b4 18bd a8fe 973c 3fc1 133d 1602 f1bb
000000b0: edd3 2c3d 54db 8b3d 7fc3 1bbe 4357 1d3e
000000c0: 0163 b03c 86a0 3e3d d4f3 bf3d bb0e eebd
000000d0: af17 2ebd 0298 e5bd 465d 8c3d 3d4c 5ebd
000000e0: 30b0 f63c 781f 35be 3c9d 3abd 260d cbbc
000000f0: a20c 02bd dd07 d2bd e122 f6bc 501e 8fbd
00000100: 0bd5 19bd 185d 373e 90b4 e8bd e182 503d
00000110: 4859 70bd c681 15be 9509 0fbd baa5 073d
00000120: efc9 2e3e 0dc4 9bbd 3711 f43d f3ee 2f3d
00000130: dfff 4fbc c949 a1bb 9e5d 0f3e ea88 cd3d
00000140: b190 993d 20e6 c63d 41f3 cebd 02c5 bc3c
00000150: c96c 3d3d ed07 aebd 7a5d 06be 9b79 40bd
00000160: 0e39 5fbd 603b 8fbd 4110 0e3d d58f 13bb
00000170: b602 403d e08c f2bd c07d bcbc 5374 94bb
00000180: 6235 6dbd 1f21 80bd 8490 98bb 3e23 693d
00000190: ec2c 263e 1e97 d23c e265 203a a37a 37be
000001a0: 5c24 3dbd eb88 e83b 4996 48bb c76a f0bc
000001b0: a177 e6bd 9676 283d e5f6 783d 0f74 b7bd
000001c0: 9ba7 933b 98ea 313c 9361 ab3d a233 033b
000001d0: a6a0 c5bc fcd0 cf3c 6a12 0e3d ae7d 57bd
000001e0: 5aec 353d 3592 953d f9aa 8b3d 0fe3 093e
000001f0: 6400 95bb bd4b 3d3e c657 c03d 37c5 ff3d
00000200: 2f21 e7bd 1f81 47bd 6fb6 5fbe 2171 60be
00000210: 55de 6fbd 871d 853d 7914 833e 4e56 ffbd
00000220: 85d7 113d ce24 24be e0fc 54bd 14f1 ce3d
00000230: 10ae 26be ab45 cebd 7f4e 93bd 30ad f7bb
00000240: afdc 3f3d e612 103d f460 f23d e735 823d
00000250: 6b83 913d b75d 483d d716 eebd 0746 aabd
00000260: c97d 58bd 5dae 943c ce3f c8bd 2d6a e5bd
00000270: 9d36 2dbc 5bb9 afbd 8e5c 0dbe c8ee cabd
00000280: 996d 9dbd a2f2 4bbc f0a4 a33d 070a f03b
00000290: 2a26 44bd 9a4b 8fbb 56a6 0cbe 33d4 c3bd
000002a0: 5a0d 65be 40ab 9ebd 13b3 6dbe 036f 5a3e
000002b0: 3b9a b93c 350d a53d 62a4 433d daac 1b3c
000002c0: 3c2c 5f3d f53f cebc 8c91 6a3d 753a 6a3e
000002d0: 174b 5bbc 5fb8 ec3d be02 49bd 61fa 4a3c
000002e0: acef a83d 08fd 993d 7f70 75bd cf80 243d
000002f0: 0558 a7bc c2f6 c83d e5aa 813d 1918 c2bd
00000300: 879d 41be 7168 02be 3d02 b63c 4338 b9be
00000310: 5202 8fbe 92cb afbe 88ab 82be 23f2 f73d
00000320: 16be 47bd 8444 74bb afd6 bf3d 639b 6f3d
00000330: 9afa 94bd b0ea 5bbd 68ff 0bbe c3bf f53d
00000340: 9d19 63be 951c d93c 382b 1f3d 5cd6 06be
00000350: 8a22 e53a 032f 70be d228 81be 0082 44be
00000360: 25d9 f63d f505 d23d 65a1 033e a110 da3d
00000370: a1c8 603e e2af 543e 207b 353e 9fba 833d
00000380: ed25 6c3e ca54 70bd 4f7b 34be e485 1abd
00000390: 0b55 a23d e120 e8bd de1d 20bd 0aac 523e
000003a0: fad9 8dbd f599 9ebd 8b0f fa3d 847a 07be
000003b0: aea6 fa3d c4d8 f33d fb68 3fbd 2b11 003d
000003c0: 495a 663e 577d 51bc f9af 333d 0244 0bbd
000003d0: e652 b43b fe61 b0bd 1f57 aabd 6ba7 b6bd
000003e0: bfa0 75bd a977 b1bd c866 02be 7de2 2bbd
000003f0: 0d92 af3c 3030 273e 67c9 073e 23b2 2c3d

conv2.bias f4 [32]
0.12287977 0.1362972 0.0681449 0.0087608 -0.12326097 0.034761235 -0.05742446 0.113723606
0.0148654 0.1257985 0.1328685 -0.15104432 0.053460006 0.1407777 0.08940949 0.09338704
-0.02485209 0.040438637 -0.05418621 0.05917228 0.07853511 -0.074741326 -0.019866934 -0.064646736
-0.16465311 0.076438814 0.10606309 0.1238296 0.1337775 0.06259037 -0.09869295 0.06365763
00000000: 64a8 fb3d 7e91 0b3e 8e8f 8b3d 7589 0f3c
00000010: 3f70 fcbd cc61 0e3d e935 6bbd ece7 e83d
00000020: 028e 733c 52d1 003e ae0e 083e 5dab 1abe
00000030: e1f8 5a3d 0828 103e 531c b73d b441 bf3d
00000040: 9c96 cbbc fca2 253d 5cf2 5dbd a25e 723d
00000050: 04d7 a03d fb11 99bd fbbf a2bc 8265 84bd
00000060: d39a 28be f48b 9c3d 9b37 d93d 609a fd3d
00000070: f8fc 083e 612f 803d 881f cabd ee5e 823d

fc1.weight f4 [64, 800]
-0.02779886 0.0011785926 -0.010392291 -0.042373046 -0.016881093 0.008777367 -0.050346684 -0.018925767
-0.033937573 -0.022658233 -0.041192643 -0.03888513 -0.041601267 -0.026446205 -0.011406452 -0.067686945
-0.06792353 0.0033273844 -0.024370255 0.010395496 -0.029370185 -0.010153302 -0.04510023 -0.048095774
-0.0484959 -0.04574362 0.0044356035 0.04502016 0.010297383 -0.030298451 -0.04017181 -0.016376905
0.0389268 0.047389578 0.020644512 -0.044535037 -0.048201934 0.05770135 0.009129062 -0.0035279146
0.01629664 -0.02574827 -0.021883024 -0.030311033 -0.063058645 -0.01979423 -0.054065812 -0.011679554
-0.045408808 -0.02808913 -0.04855319 -0.07205708 -0.013325035 -0.025727639 -0.029942663 -0.031566694
0.014180921 0.01124922 -0.05283811 -0.045413848 0.025970664 -0.015095547 -0.009740695 -0.039017014
-0.050576232 -0.022911191 -0.0064281854 -0.02454769 -0.006567489 -0.0039315135 0.0063205413 0.006397067
-0.007849608 -0.04578646 -0.006109206 -0.014876968 -0.010028974 -0.04924328 -0.05462395 -0.017542824
-0.0064946115 -0.016438805 -0.020412995 -0.011133747 -0.012001595 -0.001354773 -0.024391763 -0.08512274
-0.038309008 -0.0130125005 -0.010167924 0.0046694158 -0.019757543 -0.021503454 -0.051359132 -0.036553767
0.045439363 -0.002725836 -0.032158513 -0.040170904 -0.0146250585 -0.05120387 0.026783174 -0.042062048
-0.050474748 -0.05418593 -0.060173944 -0.034942925 -0.04242785 -0.06365794 0.06164519 0.0100321835
0.022292633 -0.07685555 -0.08571296 -0.014139595 -0.00993819 -0.013242919 -0.05644151 -0.0075407787
-0.027751502 -0.01810046 -0.027828034 -0.05284785 -0.0536681 -0.056878824 -0.05886479 -0.012478342
-0.04765906 -0.04311615 -0.029057287 0.0047505586 0.004998393 -0.00597916 -0.041636817 -0.07126652
-0.033701938 -0.0071076946 0.010547554 -0.04535381 -0.04815199 0.004448667 -0.031841014 -0.023698432
-0.034040138 -0.06703442 0.0068295533 -0.06687607 -0.012343969 -0.019357882 -0.04841972 -0.018408366
0.0025668757 -0.0021707728 -0.05267868 -0.03018827 -0.0033819154 -0.05011836 -0.05620226 -0.03308568
-0.07660893 -0.02961219 0.008518495 -0.006545596 -0.03809289 -0.007129377 -0.03295091 0.0037242502
-0.02907302 -0.09096609 0.0044937837 -0.04689281 -0.034582585 -0.011361835 -0.004368373 -0.019079672
0.0028119835 -0.033376675 -0.032903373 -0.055289697 -0.05844344 -0.04072854 0.0033682752 0.012645993
-0.0504954 -0.0314231 -0.027607895 0.013909366 -0.0418484 -0.04193783 -0.026620423 -0.0014672263
-0.036328387 -0.049391527 -0.05887955 -0.029116748 0.0022315406 -0.044484574 0.007798728 -0.026915526
-0.00093673903 -0.0313116 -0.0041868575 -0.033740032 -0.016941791 -0.059821334 -0.041081462 -0.032389615
-0.018307796 -0.046858087 -0.01454818 -0.021733537 -0.01244067 -0.0060727666 -0.013407447 -0.05699573
-0.020496141 -0.011174115 -0.01826562 -0.011166893 -0.01093563 -0.031184781 -0.050990924 0.006635752
0.008912192 0.011246389 -0.016026739 -0.07036866 -0.0022183629 -0.043266963 -0.052022822 -0.0544915
-0.0533621 -0.06629582 -0.00043553373 -0.017123189 -0.0033608146 -0.00538167 -0.016080594 -0.048646748
-0.026206793 -0.054289985 -0.00059243874 -0.0103441 -0.0055896007 -0.009924395 -0.035240576 -0.062388096
-0.017976286 -0.021046456 -0.053012002 -0.057720892 0.0022563448 -0.06243252 -0.050350282 -0.044312675
00000000: 6fba e3bc 017b 9a3a 6d44 2abc 5c8f 2dbd
00000010: 384a 8abc f2ce 0f3c 5338 4ebd 360a 9bbc
00000020: 2002 0bbd c29d b9bc 9eb9 28bd 0446 1fbd
00000030: 1766 2abd b6a5 d8bc 21e2 3abc 749f 8abd
00000040: 7e1b 8bbd 3f10 5a3b 21a4 c7bc df51 2a3c
00000050: be99 f0bc 095a 26bc 05bb 38bd 1300 45bd
00000060: a3a3 46bd a95d 3bbd 8a58 913b 0f67 383d
00000070: 5bb6 283c 7534 f8bc 328b 24bd dc28 86bc
00000080: b571 1f3d 931b 423d ae1e a93c 5f6a 36bd
00000090: 646f 45bd 4058 6c3d 1092 153c 9634 67bb
000000a0: 8880 853c 09ee d2bc 0744 b3bc d84e f8bc
000000b0: e424 81bd 8227 a2bc 1d74 5dbd 9a5b 3fbc
000000c0: 96fe 39bd 2d1b e6bc b6df 46bd aa92 93bd
000000d0: 3f51 5abc c5c2 d2bc 514a f5bc 144c 01bd
000000e0: 1857 683c a64e 383c c66c 58bd df03 3abd
000000f0: 6ec0 d43c 5053 77bc 7097 1fbc 4ed0 1fbd
00000100: 0629 4fbd 40b0 bbbc 87a3 d2bb 3d18 c9bc
00000110: 1734 d7bb edd3 80bb 8b1c cf3b 7d9e d13b
00000120: a49b 00bc 958a 3bbd bc2f c8bb 87be 73bc
00000130: 9150 24bc 52b3 49bd 5dbd 5fbd f8b5 8fbc
00000140: c0d0 d4bb acaa 86bc 2739 a7bc 526a 36bc
00000150: 57a2 44bc a392 b1ba 3cd1 c7bc d554 aebd
00000160: e8e9 1cbd 6232 55bc 5d97 26bc e601 993b
00000170: 92da a1bc 0328 b0bc f45d 52bd 67b9 15bd
00000180: a01e 3a3d f0a3 32bb a5b8 03bd 3f8a 24bd
00000190: f19d 6fbc 26bb 51bd 6368 db3c 4149 2cbd
000001a0: 9cbe 4ebd 11f2 5dbd f478 76bd 5020 0fbd
000001b0: d3c8 2dbd 185f 82bd ab7f 7c3d 075e 243c
000001c0: 0a9f b63c 7166 9dbd 478a afbd c3a9 67bc
000001d0: cad3 22bc d4f8 58bc 362f 67bd a318 f7bb
000001e0: 1e57 e3bc 6a47 94bc 9ef7 e3bc fd76 58bd
000001f0: 15d3 5bbd c5f9 68bd 351c 71bd f671 4cbc
00000200: 2636 43bd 8f9a 30bd 8c09 eebc 93aa 9b3b
00000210: 8fc9 a33b d4ec c3bb 5e8b 2abd 2ef4 91bd
00000220: 0b0b 0abd aae7 e8bb a6cf 2c3c ebc4 39bd
00000230: 053b 45bd 20c6 913b b96b 02bd 3723 c2bc
00000240: ac6d 0bbd 5849 89bd 72ca df3b 52f6 88bd
00000250: 5c3e 4abc 6c94 9ebc c253 46bd 24cd 96bc
00000260: 0739 283b 8643 0ebb 99c5 57bd 644d f7bc
00000270: 20a3 5dbb e948 4dbd 5734 66bd da84 07bd
00000280: 25e5 9cbd 4395 f2bc 2891 0b3c 707c d6bb
00000290: 4a07 1cbd 8d9d e9bb 89f7 06bd 8d12 743b
000002a0: 8b2a eebc 6e4c babd 9740 933b ad12 40bd
000002b0: 78a6 0dbd fd26 3abc 9224 8fbb f94c 9cbc
000002c0: 4149 383b fbb5 08bd b0c5 06bd 7377 62bd
000002d0: 6362 6fbd f8d2 26bd 48be 5c3b 2431 4f3c
000002e0: 44d4 4ebd 82b5 00bd f429 e2bc 1ce4 633c
000002f0: 3a69 2bbd 01c7 2bbd 1313 dabc f24f c0ba
00000300: 13cd 14bd c54e 4abd af2b 71bd 3f86 eebc
00000310: 0a3f 123b 7535 36bd 798c ff3b f37d dcbc
00000320: 7e8f 75ba 9840 00bd e831 89bb fd32 0abd
00000330: 83c9 8abc 3707 75bd 0945 28bd f9aa 04bd
00000340: 3bfa 95bc 44ee 3fbd 7d5b 6ebc 880a b2bc
00000350: f4d3 4bbc 0ffe c6bb e9aa 5bbc 5b74 69bd
00000360: 86e7 a7bc a313 37bc c8a1 95bc 58f5 36bc
00000370: 5b2b 33bc 3a77 ffbc dcdb 50bd b970 d93b
00000380: 7104 123c c642 383c 824a 83bc 721d 90bd
00000390: f461 11bb b338 31bd e215 55bd 7b32 5fbd
000003a0: 3892 5abd 1ac6 87bd 5958 e4b9 ee45 8cbc
000003b0: 1d41 5cbb b858 b0bb 73bb 83bc d041 47bd
000003c0: a1af d6bc 2d5f 5ebd e44d 1bba 4d7a 29bc
000003d0: f828 b7bb ee99 22bc 6c58 10bd a98a 7fbd
000003e0: 0143 93bc 9e69 acbc 1d23 59bd be6c 6cbd
000003f0: 2fdf 133b 3eb9 7fbd 193c 4ebd 3581 35bd

fc1.bias f4 [64]
-0.0015512333 0.100409925 0.0868793 -0.032021016 -0.021267565 -0.038103886 0.07996455 0.0137950955
-0.048389025 -0.0034885118 -0.06431422 -0.0013788437 0.097783804 0.011007962 -0.045821354 -0.04064294
0.1396043 -0.017699221 0.072452955 -0.015093351 0.1038821 0.007488577 -0.024254205 -0.043838825
-0.02695023 0.08787531 0.020489711 0.10785544 0.10687212 0.021715187 -0.03815331 0.11239859
-0.0080604255 0.045001402 -0.058413945 0.0014927663 -0.036228705 -0.011744233 0.021026626 -0.045903306
0.0074767573 -0.028261159 0.12711978 -0.0058573377 0.06423853 0.0068201004 0.018829985 -0.010609957
-0.022468714 0.11392918 0.1353164 0.12712082 -0.0026673116 -0.053469185 -0.01597103 -0.035425313
-0.03767847 0.0038448027 0.12383581 -0.015211684 -0.013634686 -0.02507189 0.03459395 -0.041437212
00000000: c152 cbba b8a3 cd3d c6ed b13d 7828 03bd
00000010: 5139 aebc d212 1cbd 74c4 a33d d304 623c
00000020: 9233 46bd 849f 64bb 2cb7 83bd 51ba b4ba
00000030: e042 c83d bd5a 343c 2caf 3bbd 3679 26bd
00000040: 6ef4 0e3e f5fd 90bc 3762 943d 1a4a 77bc
00000050: 23c0 d43d bd62 f53b c1b0 c6bc 5790 33bd
00000060: bbc6 dcbc f8f7 b33d 0ada a73c 50e3 dc3d
00000070: c5df da3d 0ce4 b13c a546 1cbd 3b31 e63d
00000080: e00f 04bc 6453 383d 7643 6fbd eda8 c33a
00000090: 8d64 14bd e26a 40bc 0840 ac3c 1b05 3cbd
000000a0: 96ff f43b f283 e7bc b02b 023e e9ee bfbb
000000b0: 7e8f 833d 267b df3b 5741 9a3c 63d5 2dbc
000000c0: 4f10 b8bc b453 e93d 6290 0a3e f62b 023e
000000d0: 10ce 2ebb 8102 5bbd add5 82bc 221a 11bd
000000e0: bd54 1abd 16f9 7b3b a19d fd3d 6d3a 79bc
000000f0: 0564 5fbc 9063 cdbc 63b2 0d3d 11ba 29bd

fc2.weight f4 [64, 64]
-0.09015435 -0.07074609 -0.20741877 0.09016371 0.03783773 -0.11843738 0.08065745 0.010030746
0.1140728 -0.14332603 0.0015342832 -0.10417366 -0.08243735 -0.26954636 0.021473646 0.06195736
-0.1336981 0.049278393 -0.034637 0.111466445 -0.06787817 -0.04210426 -0.10945563 -0.14941181
-0.0016470641 0.14227697 0.010159731 -0.21474724 -0.097525805 0.07247959 0.06109549 0.14970402
-0.042871997 0.0052955505 -0.059244156 -0.08796146 -0.021363989 0.07038818 -0.06569347 -0.09575746
-0.046455443 0.010188997 0.05572108 -0.11965409 0.16983478 -0.034647927 0.091445476 0.06343302
-0.04309933 -0.18894464 0.11527549 -0.07537245 0.12232159 0.06719654 -0.045549884 0.06988868
-0.050720945 -0.09862061 0.15682516 0.014161438 -0.123035 0.046414346 -0.080277584 0.098144114
0.001274315 0.1722405 -0.10747131 0.10618745 0.08657266 -0.06454712 0.1505416 0.016286893
0.10525337 0.06252802 -0.06834918 -0.06693396 -0.1386928 -0.24214712 -0.028114513 0.10759795
-0.057894547 0.029002255 0.016236547 0.0332759 0.008075749 0.008803441 -0.027004443 0.054685134
0.02816002 0.08365612 -0.116725825 -0.2460546 -0.09051897 0.05356324 0.118177846 0.32911927
-0.07823393 0.05060938 0.021508891 0.11342761 -0.05554236 0.0069882446 0.0046915854 -0.025421117
-0.08086021 -0.09395842 -0.061318636 0.10605122 0.101557046 0.010545824 0.07928541 -0.020392379
-0.05584287 -0.113187745 0.3563573 0.03520041 -0.04130386 0.124110155 0.05379737 0.057160456
0.11784087 -0.06732128 0.16487774 -0.05869846 0.013203554 -0.021592665 -0.10642732 0.096920475
-0.017082265 -0.078681625 -0.09499096 0.116795585 0.04585979 -0.06784332 0.15480638 0.09932263
-0.073733896 0.08161341 0.07133269 -0.06661394 -0.034570288 -0.0047873924 -0.023836002 0.04002835
0.069920585 -0.05657848 0.02968105 -0.020129673 0.025491944 0.016098037 -0.08695188 -0.063938625
0.0050970106 0.08506502 -0.015756143 0.1499369 0.07005585 -0.09029701 -0.10647951 0.120193854
0.015521859 0.11342158 0.08277673 0.03851583 -0.08351292 0.10059803 0.015257426 0.042665306
-0.09950005 -0.0038886778 0.0728513 0.07128949 0.07787094 0.030100428 0.027667332 -0.079825655
-0.08884004 0.2668497 0.12780306 0.14158325 -0.038103085 0.0169622 0.012148668 -0.040869582
0.07317724 0.032134406 0.21765843 -0.079191566 0.117692776 -0.06473091 0.01685321 -0.06057274
-0.03723516 0.020442398 0.037244532 -0.052032743 0.0449178 -0.006497142 0.11540694 -0.103258535
-0.09173595 -0.08640474 -0.068388104 0.08346713 0.12587102 0.05428837 -0.054055676 0.086837046
0.04680536 0.049193725 0.19060086 0.08459374 0.24719848 -0.0072105303 0.07296339 0.030333577
-0.09382997 -0.101990916 0.017413598 0.2149598 0.05570142 0.016884774 -0.038922306 0.117447875
0.052872524 0.15830094 -0.08744428 0.019328887 -0.05557865 0.11646345 0.10397099 -0.075083345
-0.09410339 -0.047294393 -0.06799353 0.07763561 0.14490551 -0.06052445 0.071044646 0.12024276
0.015896676 0.26262936 -0.11736605 0.10106615 0.0065159053 -0.068531424 0.08238852 0.09793222
0.037640333 0.07210278 0.047161046 0.047846496 0.015292708 0.05430189 0.12101732 -0.018022522
00000000: d8a2 b8bd 53e3 90bd 9665 54be c0a7 b83d
00000010: bcfb 1a3d 4c8f f2bd bc2f a53d 0058 243c
00000020: 009f e93d 0fc4 12be 001a c93a 0059 d5bd
00000030: ead4 a8bd fb01 8abe 80e9 af3c 00c7 7d3d
00000040: 28e8 08be 24d8 493d 87df 0dbd 8548 e43d
00000050: b603 8bbd 8475 2cbd 462a e0bd 69ff 18be
00000060: 4de2 d7ba 0eb1 113e 0075 263c b3e6 5bbe
00000070: 9cbb c7bd 2e70 943d 443f 7a3d 034c 193e
00000080: 8c9a 2fbd 4c86 ad3b 00aa 72bd 2325 b4bd
00000090: 8803 afbc ae27 903d 4c8a 86bd 7d1c c4bd
000000a0: 1048 3ebd c0ef 263c ca3b 643d 340d f5bd
000000b0: 2be9 2d3e fcea 0dbd c447 bb3d 2ce9 813d
000000c0: ec88 30bd b47a 41be 8e15 ec3d df5c 9abd
000000d0: be83 fa3d 579e 893d 8492 3abd cc21 8f3d
000000e0: c4c0 4fbd 9af9 c9bd c696 203e 6005 683c
000000f0: c6f9 fbbd f81c 3e3d 9368 a4bd c8ff c83d
00000100: ea06 a73a d05f 303e eb19 dcbd ce78 d93d
00000110: 024d b13d 4831 84bd 9427 1a3e 176c 853c
00000120: 148f d73d b10e 803d a8fa 8bbd ac14 89bd
00000130: 7c05 0ebe 6af5 77be 6850 e6bc 505c dc3d
00000140: d522 6dbd 2396 ed3c 8202 853c 4f4c 083d
00000150: 2550 043c 4f3c 103c 6c38 ddbc 85fd 5f3d
00000160: d8af e63c e653 ab3d f30d efbd bdf5 7bbe
00000170: 0262 b9bd 2165 5b3d 3a07 f23d 5282 a83e
00000180: 1c39 a0bd c84b 4f3d 6a33 b03c bc4c e83d
00000190: 6380 63bd a5fd e43b dfbb 993b f23f d0bc
000001a0: 0a9a a5bd 466d c0bd 4029 7bbd 6231 d93d
000001b0: 24fd cf3d 64c8 2c3c 6460 a23d eb0d a7bc
000001c0: 7ebb 64bd face e7bd 7774 b63e 4e2e 103d
000001d0: 3c2e 29bd 772d fe3d a25a 5c3d 1521 6a3d
000001e0: 8e56 f13d bddf 89bd b6d5 283e cc6d 70bd
000001f0: b853 583c 1ae3 b0bc 91f6 d9bd 3e7e c63d
00000200: 1bf0 8bbc d523 a1bd 9f8a c2bd 8632 ef3d
00000210: 7ad7 3b3d 70f1 8abd 9085 1e3e aa69 cb3d
00000220: cc01 97bd ee24 a73d e016 923d e46c 88bd
00000230: 9399 0dbd 8fdf 9cbb b843 c3bc c4f4 233d
00000240: 8632 8f3d d6be 67bd ac25 f33c fce6 a4bc
00000250: 7bd4 d03c 08e0 833c d413 b2bd 41f2 82bd
00000260: d304 a73b 9236 ae3d 0713 81bc 0f89 193e
00000270: 7179 8f3d a4ed b8bd ee11 dabd 3228 f63d
00000280: 654f 7e3c 9349 e83d d986 a93d c6c2 1d3d
00000290: d208 abbd 5706 ce3d 48fa 793c d1c1 2e3d
000002a0: afc6 cbbd 30d9 7ebb 1033 953d 3900 923d
000002b0: cd7a 9f3d 2c95 f63c 9aa6 e23c a27b a3bd
000002c0: c4f1 b5bd 86a0 883e cede 023e 33fb 103e
000002d0: fb11 1cbd 50f4 8a3c 350b 473c dd66 27bd
000002e0: f3dd 953d 5e9f 033d dae1 5e3e 302f a2bd
000002f0: e908 f13d a491 84bd be0f 8a3c 1f1b 78bd
00000300: e583 18bd d176 a73c b98d 183d 4920 55bd
00000310: bafb 373d fae5 d4bb 795a ec3d 3679 d3bd
00000320: 0fe0 bbbd f8f4 b0bd 100f 8cbd d1f0 aa3d
00000330: 55e4 003e 7b5d 5e3d 7c69 5dbd 9fd7 b13d
00000340: fab6 3f3d 5c7f 493d df2c 433e 7c3f ad3d
00000350: 9921 7d3e 5046 ecbb d46d 953d 1f7e f83c
00000360: ed29 c0bd 9de0 d0bd f6a6 8e3c 6c1e 5c3e
00000370: 2c27 643d f051 8a3c ff6c 1fbd 8388 f03d
00000380: dc90 583d a419 223e fd15 b3bd 9d57 9e3c
00000390: 70a6 63bd 6484 ee3d beee d43d 4cc5 99bd
000003a0: 47b9 c0bd c4b7 41bd 3140 8bbd 6bff 9e3d
000003b0: 1c62 143e 7ce8 77bd db7f 913d d641 f63d
000003c0: bf39 823c 5b77 863e 9d5d f0bd c5fb ce3d
000003d0: 6083 d53b 345a 8cbd 50bb a83d b090 c83d
000003e0: c02c 1a3d 9faa 933d f12b 413d b0fa 433d
000003f0: 448e 7a3c a96b 5e3d eed7 f73d f8a3 93bc

fc2.bias f4 [64]
-0.10378901 0.16489589 0.13773502 -0.05121809 0.07735757 -0.1489552 0.23772015 0.052325614
0.22528182 0.17290427 0.043517545 -0.046515595 -0.1424778 0.037248537 -0.10088409 0.07123847
0.09627184 0.10610259 0.029835772 -0.13177438 0.18113346 0.13634594 0.1334012 -0.009678827
0.06879611 0.15997297 -0.11290376 -0.16224502 0.0373166 -0.006130337 -0.07903218 0.17581579
0.01262589 -0.06628696 0.1606064 0.024075307 0.01913624 0.017882023 -0.009647771 -0.03521126
-0.012641354 -0.040345218 0.17177127 0.09733985 0.14540668 -0.018780291 0.1498896 0.16010958
0.27218497 0.13936256 -0.0770559 0.09481799 0.004928119 0.06739465 0.09343526 0.09912758
-0.098508075 0.14129038 -0.034826197 0.119297914 0.15156461 0.22765552 0.14514549 0.025605854
00000000: 558f d4bd 78da 283e 690a 0d3e 0fca 51bd
00000010: a56d 9e3d b687 18be e96c 733e 6253 563d
00000020: 47b0 663e d10d 313e 743f 323d 2387 3ebd
00000030: b3e5 11be ec91 183d 519c cebd 7ae5 913d
00000040: 2c2a c53d 514c d93d 266a f43c ddef 06be
00000050: 0d7b 393e 459e 0b3e 539a 083e f193 1ebc
00000060: fae4 8c3d f4cf 233e 163a e7bd 8f23 26be
00000070: 4bd9 183d fee0 c8bb a0db a1bd 0e09 343e
00000080: d2dc 4e3c 75c1 87bd 0176 243e 9439 c53c
00000090: 9bc3 9c3c 527d 923c af11 1ebc af39 10bd
000000a0: af1d 4fbc 0741 25bd cfe4 2f3e 1e5a c73d
000000b0: 7de5 143e 20d9 99bc a97c 193e c4f3 233e
000000c0: d45b 8b3e 0fb5 0e3e 7ccf 9dbd ef2f c23d
000000d0: 0f7c a13b 3506 8a3d fc5a bf3d 6703 cb3d
000000e0: 9abe c9bd 6dae 103e eaa5 0ebd 7752 f43d
000000f0: c133 1b3e 871e 693e 05a1 143e 5ec3 d13c

fc3.weight f4 [7, 64]
-0.095179126 0.20451126 0.068686575 -0.10295292 -0.048393134 0.02069503 0.072763056 -0.13654023
-0.07451374 0.19120905 0.0035782815 0.044055272 -0.08357675 -0.14073586 0.15845998 -0.078823365
0.2593657 0.11550183 0.039263323 -0.02876538 -0.09642049 0.09568643 -0.15909827 -0.2464151
-0.033851556 -0.18202129 -0.05127421 0.008739372 0.07664665 -0.035287354 0.021102834 -0.17084195
-0.05794344 0.03603848 0.11253626 0.0072714067 0.095156424 -0.09467107 0.07182222 -0.026010565
-0.12404879 -0.024756417 -0.020389242 -0.037000302 0.011273481 -0.2939308 0.062350303 -0.0533388
0.07061514 0.07270081 -0.035926342 -0.21825364 0.019524673 -0.14828308 0.074021794 -0.2501109
0.04263122 0.076314315 0.035220396 0.37800843 -0.074379474 0.00021439162 -0.23002708 0.22145543
0.2220338 0.0057732407 -0.079107985 -0.073192626 0.09539413 0.04567417 0.08716409 -0.13307007
0.26797852 0.22011945 0.14164804 0.12603697 -0.106700264 -0.11211198 -0.10185767 -0.012908582
-0.09247588 -0.3759487 0.018062618 -0.049520448 0.013947314 -0.09237407 -0.039146747 -0.1411445
-0.1394736 -0.14193277 -0.009490368 -0.12601973 -0.009984853 -0.081708424 0.112406015 -0.17848065
0.079180464 0.19465022 -0.0988173 0.04649577 0.18747446 -0.22698858 0.033914585 0.07184652
-0.08750045 0.12052517 -0.039271373 0.16067804 -0.022878123 0.12886548 -0.21821396 -0.24626274
0.09374657 -0.12400533 -0.30457515 0.02910887 -0.022039985 0.26533043 0.15675609 0.07608021
-0.1147954 -0.025708478 0.011594894 0.005778346 0.10694019 0.009492165 0.11204628 -0.04395927
-0.14614832 -0.15552256 -0.11838457 -0.058180925 -0.2945175 -0.05740187 0.051331155 -0.19756556
0.11918198 -0.018466802 -0.15775082 -0.22880246 0.023284566 -0.0016518675 -0.046358846 -0.059789654
0.1016884 0.22358473 -0.09361044 0.03534566 -0.026242733 -0.17586726 -0.12903911 0.12364648
-0.18764405 -0.010731164 -0.027370498 -0.07835034 0.13633274 0.03324542 -0.08941625 -0.0084020635
-0.037782583 0.097962305 0.29076183 -0.11077016 0.12188772 0.004074686 -0.035294168 0.024552839
0.007722868 -0.025184296 -0.25150585 -0.09713973 0.51450187 0.14582197 -0.093506284 0.031412136
0.283243 -0.13364655 -0.16093856 0.10013373 -0.06780855 -0.055548154 -0.117780775 -0.1615461
-0.04040801 0.0024290814 -0.050359543 0.20691906 0.12268468 0.09471208 -0.02288126 0.13510437
0.20963672 0.1240271 -0.12878047 -0.16088635 -0.080592684 -0.011444759 -0.15216905 -0.037507072
0.29934204 0.19711651 -0.1700976 -0.022261485 -0.05063933 0.016648753 -0.07679718 -0.11074673
0.1290337 0.065002754 0.035545442 0.012058519 0.015113701 -0.18908323 0.06909519 -0.00911802
0.21086419 -0.044038467 0.09512715 -0.025471687 0.15121071 0.019020356 -0.105164416 0.0937099
0.010095507 0.05582627 -0.09698953 0.12144826 0.14942247 0.04685198 0.21788315 0.024547068
-0.14185344 0.042714708 0.276411 -0.06657662 -0.029772809 0.263036 0.12188083 -0.035950124
0.11793983 0.0705621 0.047275916 -0.07552084 -0.07468978 -0.012952939 -0.13111287 0.06818707
0.056651864 -0.21014027 0.019202884 -0.07520507 -0.06187137 -0.1957068 -0.036187716 -0.14938025
00000000: 46ed c2bd 666b 513e 8cab 8c3d fbd8 d2bd
00000010: e137 46bd a088 a93c cc04 953d 34d1 0bbe
00000020: a99a 98bd 4ecc 433e 9a81 6a3b 4d73 343d
00000030: 492a abbd 101d 10be 5543 223e 256e a1bd
00000040: 95cb 843e 398c ec3d 94d2 203d 60a5 ebbc
00000050: 1b78 c5bd 3ff7 c33d a8ea 22be 3d54 7cbe
00000060: eea7 0abd ca63 3abe e804 52bd 952f 0f3c
00000070: ebf8 9c3d 7989 10bd dadf ac3c 31f1 2ebe
00000080: 1a56 6dbd 169d 133d 6979 e63d fb44 ee3b
00000090: 5fe1 c23d e8e2 c1bd 8717 933d 1c14 d5bc
000000a0: 4b0d febd f8cd cabc 5707 a7bc a18d 17bd
000000b0: 68b4 383c 197e 96be 0863 7f3d c979 5abd
000000c0: ac9e 903d 2ae4 943d 8027 13bd e27d 5fbe
000000d0: 35f2 9f3c 85d7 17be bd98 973d 890e 80be
000000e0: 139e 2e3d ae4a 9c3d 4343 103d 528a c13e
000000f0: 4454 98bd 50ce 6039 388c 6bbe 36c5 623e
00000100: d45c 633e 742d bd3b 5e03 a2bd 04e6 95bd
00000110: ff5d c33d d714 3b3d 1683 b23d 8543 08be
00000120: 7b34 893e fe66 613e 2f0c 113e d60f 013e
00000130: ab85 dabd f79a e5bd c19a d0bd 847e 53bc
00000140: ff63 bdbd 597c c0be 0ef8 933c f4d5 4abd
00000150: 4683 643c 9e2e bdbd 5758 20bd 2f88 10be
00000160: 2bd2 0ebe d356 11be 7d7d 1bbc 510b 01be
00000170: 8297 23bc bf56 a7bd 2035 e63d a2c3 36be
00000180: 5e29 a23d 6352 473e b960 cabd 5972 3e3d
00000190: 4ef9 3f3e b26f 68be 05ea 0a3d 4524 933d
000001a0: 7033 b3bd e6d5 f63d 05db 20bd c988 243e
000001b0: e76a bbbc 50f5 033e 7b73 5fbe 4d2c 7cbe
000001c0: 34fe bf3d 82f6 fdbd 46f1 9bbe ba75 ee3c
000001d0: 338d b4bc 64d9 873e ab84 203e f1cf 9b3d
000001e0: da19 ebbd 969a d2bc 83f8 3d3c 4858 bd3b
000001f0: 7503 db3d 0785 1b3c 8578 e53d a30e 34bd
00000200: e8a7 15be 4e41 1fbe 9c73 f2bd 1f4f 6ebd
00000210: ffca 96be 391e 6bbd 9e40 523d a04e 4abe
00000220: af15 f43d b147 97bc 6e89 21be 314b 6abe
00000230: 46bf be3c 7a83 d8ba c6e2 3dbd ffe5 74bd
00000240: 0242 d03d 65f3 643e d5b6 bfbd 9cc6 103d
00000250: 00fb d6bc 8c16 34be d422 04be 5e3a fd3d
00000260: c325 40be c4d1 2fbc 1838 e0bc 2576 a0bd
00000270: cf9a 0b3e 592c 083d de1f b7bd cfa8 09bc
00000280: e9c1 1abd 76a0 c83d bcde 943e 77db e2bd
00000290: 45a0 f93d f284 853b 9e90 10bd 0923 c93c
000002a0: 1d10 fd3b 4c4f cebc 60c5 80be 32f1 c6bd
000002b0: 65b6 033f 5b52 153e 3980 bfbd 03aa 003d
000002c0: 3a05 913e a4da 08be 14cd 24be ea12 cd3d
000002d0: 36df 8abd 7686 63bd 0c37 f1bd 576c 25be
000002e0: df82 25bd 3931 1f3b cf45 4ebd 97e2 533e
000002f0: 1b42 fb3d 68f8 c13d 7b71 bbbc cd58 0a3e
00000300: 02ab 563e ec01 fe3d 07df 03be 64bf 24be
00000310: c70d a5bd cc82 3bbc 34d2 1bbe 04a1 19bd
00000320: 5c43 993e e9d8 493e 112e 2ebe b85d b6bc
00000330: 306b 4fbd f762 883c d747 9dbd 2ecf e2bd
00000340: 6921 043e 2a20 853d 1998 113d 1891 453c
00000350: 759f 773c 099f 41be c781 8d3d bf63 15bc
00000360: c8ec 573e ae61 34bd 06d2 c23d 00aa d0bc
00000370: fbd6 1a3e 94d0 9b3c 7160 d7bd faea bf3d
00000380: a067 253c 16aa 643d 72a2 c6bd deb9 f83d
00000390: 3402 193e dde7 3f3d c31c 5f3e ef16 c93c
000003a0: 0742 11be 9ef5 2e3d be85 8d3e 5359 88bd
000003b0: 1be6 f3bc a8ac 863e a89c f93d 7040 13bd
000003c0: 708a f13d dd82 903d 64a4 413d acaa 9abd
000003d0: f5f6 98bd 9038 54bc 7442 06be aaa5 8b3d
000003e0: c90b 683d 032f 57be 5e4f 9d3c 1e05 9abd
000003f0: d56c 7dbd 5d67 48be 9239 14bd 23f7 18be

fc3.bias f4 [7]
0.04035239 -0.07435546 0.029723734 -0.13684942 0.17830649 0.2359417 -0.47609052
00000000: 8c48 253d ad47 98bd 307f f33c 4122 0cbe
00000010: fa95 363e b39a 713e 23c2 f3be
