src/models/v1.2.1_best.pth (torch, 251760 bytes, 10 tensors)

conv1.weight f4 [16, 10, 3, 3]
-0.1924107 0.06643678 -0.000118285636 0.059248865 -0.032461565 -0.0073272283 -0.06430417 0.14003374
0.03973212 -0.04846489 -0.057235856 -0.034230582 0.1032345 -0.061772674 0.072619 -0.0027931554
0.052063286 -0.07002946 -0.069648765 -0.06265575 0.05234805 -0.08048087 0.052460074 -0.0049857553
0.018066538 0.073220134 -0.023190115 0.07719748 -0.07943711 0.063973 0.057275135 -0.009404908
-0.024632916 0.0122122755 -0.06410121 -0.075004034 -0.30012497 -0.14579277 -0.21595676 0.06899188
-0.039502136 0.03008295 -0.07200977 -0.043086667 -0.07956611 -0.10785998 -0.0759524 -0.4020372
0.04315537 -0.058282975 0.101203375 -0.23378257 -0.16356738 0.14050671 -0.060058307 0.15969904
0.03336154 0.018426752 -0.030900946 -0.14218557 -0.20524505 -0.116486125 0.0495831 -0.103155546
-0.07852822 -0.07686333 0.0615276 -0.022332104 0.013155788 0.054174513 0.08815129 0.10042113
-0.16148461 -0.12429629 -0.12972255 -0.11616988 -0.018231738 0.07240945 -0.07683772 -0.05996254
-0.045745134 -0.106190704 0.02130897 -0.034936547 0.22985475 0.1836252 0.15450233 -0.008662514
-0.017264023 -0.23901883 0.14733857 0.12526797 0.13546108 0.03188833 0.09536328 0.073399514
-0.08127728 -0.035536647 0.15216458 -0.06863489 -0.08375232 0.025319446 -0.040734783 0.08926515
-0.055911925 0.08811385 -0.04327587 0.024641775 -0.03807078 -0.029603604 -0.05338617 0.017862042
0.097695224 -0.028931173 0.016440792 0.055756524 -0.031483542 0.059455045 0.014397285 -0.089011304
-0.018723551 0.06666187 0.03764426 0.07869914 0.06443619 0.0037169652 -0.3484423 0.026070481
0.14306197 -0.0925876 -0.0974206 0.31566605 0.0629164 0.055921685 0.4293685 0.271288
-0.037026055 -0.22016336 -0.102746636 -0.13466044 -0.0698597 -0.126821 -0.06370562 -0.1465343
0.23129211 0.13975354 -0.24033566 -0.16880551 -0.11848193 -0.3079738 -0.02571553 -0.2919893
-0.055222988 -0.019220002 0.009618523 0.06836522 0.044366844 -0.04652542 -0.015162316 -0.05850764
0.091473006 -0.02490507 -0.2761574 0.021994822 0.17354512 -0.043878652 -0.086185776 0.2393015
0.075414225 0.04299285 0.39892587 -0.19171658 -0.036178183 0.1266765 -0.23535615 0.08388231
0.11164733 -0.07018428 0.23728567 0.057897404 0.026086742 0.008833645 -0.071182184 0.06442487
-0.040084608 -0.0963367 0.11129699 -0.036322434 -0.008268469 -0.067146674 -0.09985834 -0.013118091
-0.03864849 0.008739978 -0.051666986 -0.10292385 0.09874425 0.08692266 0.046544578 0.061649553
0.08704525 0.011909817 -0.09164488 -0.08928351 0.05230833 -0.01073331 -0.013982728 0.063036114
-0.0621769 -0.026286896 0.049996115 -0.10018401 0.011937826 -0.07645588 -0.08929462 -0.024596237
-0.15369129 0.043906152 0.19423215 0.09528378 0.19041845 0.1845521 -0.056432847 0.059801795
-0.17804874 0.043406576 -0.24910443 -0.13401249 0.12221911 -0.19607797 -0.16605265 -0.02364842
-0.13906005 -0.5477264 -0.19470297 0.23794574 -0.20595247 0.02692624 0.2633102 0.17384093
0.26167682 -0.3849134 -0.33640763 0.02685903 0.08193723 -0.10751339 0.054310452 -0.04733543
0.005517811 -0.019751908 -0.0017055256 0.038803674 -0.012019164 -0.12129349 0.2605698 -0.020230044
00000000: 4f07 45be 0210 883d 1e10 f8b8 f0ae 723d
00000010: 6bf6 04bd 3f19 f0bb e8b1 83bd 0165 0f3e
00000020: 26be 223d 1f83 46bd 2570 6abd 5e35 0cbd
00000030: 9c6c d33d 5805 7dbd 45b9 943d 5f0d 37bb
00000040: 5040 553d 9b6b 8fbd 03a4 8ebd a851 80bd
00000050: e96a 563d 28d3 a4bd 60e0 563d 8c5f a3bb
00000060: 4700 943c 70f4 953d 32f9 bdbc b619 9e3d
00000070: ecaf a2bd 4704 833d 5599 6a3d 0b17 1abc
00000080: f8ca c9bc ff15 483c 7f47 83bd b79b 99bd
00000090: fba9 99be b34a 15be c523 5dbe 9d4b 8d3d
000000a0: fecc 21bd 8570 f63c dc79 93bd a57b 30bd
000000b0: 8ff3 a2bd b1e5 dcbd ef8c 9bbd d2d7 cdbe
000000c0: afc3 303d 21ba 6ebd b743 cf3d b364 6fbe
000000d0: 357e 27be fee0 0f3e b3ff 75bd 2588 233e
000000e0: 1ca6 083d b3f3 963c fb23 fdbc 1899 11be
000000f0: c22b 52be 4790 eebd a617 4b3d 3743 d3bd
00000100: 67d3 a0bd 866a 9dbd 5d04 7c3d d1f1 b6bc
00000110: 608b 573c 18e6 5d3d aa88 b43d 98a9 cd3d
00000120: 395c 25be 0e8f febd fdd5 04be 79ea edbd
00000130: ba5a 95bc 684b 943d 185d 9dbd 489b 75bd
00000140: 405f 3bbd 837a d9bd 2690 ae3c a019 0fbd
00000150: 0b5f 6b3e 3f08 3c3e dc35 1e3e 38ed 0dbc
00000160: 486d 8dbc 5ac1 74be ecdf 163e 3f46 003e
00000170: 4fb6 0a3e 569d 023d d34d c33d 7c52 963d
00000180: b474 a6bd e08e 11bd 08d1 1b3e 7390 8cbd
00000190: 5686 abbd ba6a cf3c 84d9 26bd a6d0 b63d
000001a0: e703 65bd 0975 b43d 0a42 31bd 8cdd c93c
000001b0: 1bf0 1bbd 4283 f2bc 75ab 5abd 6b53 923c
000001c0: 6f14 c83d 1101 edbc d7ae 863c f460 643d
000001d0: e3f4 00bd 2287 733d 97e2 6b3c 8f4b b6bd
000001e0: 2262 99bc 0586 883d de30 1a3d 042d a13d
000001f0: 1ff7 833d 5498 733b 0767 b2be c391 d53c
00000200: d67e 123e 919e bdbd 7484 c7bd fb9e a13e
00000210: 50da 803d 230e 653d 30d6 db3e 43e6 8a3e
00000220: a2a8 17bd 8172 61be d46c d2bd 6de4 09be
00000230: 9a12 8fbd 5ddd 01be 1878 82bd 160d 16be
00000240: d7d7 6c3e 8d1b 0f3e 8d1a 76be 5adb 2cbe
00000250: a7a6 f2bd beae 9dbe 60a9 d2bc 9f7f 95be
00000260: 8031 62bd 4473 9dbc 0297 1d3c 1103 8c3d
00000270: 02ba 353d 7091 3ebd 5d6b 78bc b5a5 6fbd
00000280: 3356 bb3d b805 ccbc 8164 8dbe 7c2e b43c
00000290: d0b5 313e 1aba 33bd 2b82 b0bd 740b 753e
000002a0: c672 9a3d 4519 303d 0340 cc3e 5a51 44be
000002b0: 932f 14bd 7cb7 013e 3401 71be 7dca ab3d
000002c0: 5ba7 e43d c7bc 8fbd 04fb 723e d425 6d3d
000002d0: ddb3 d53c feba 103c f7c7 91bd 30f1 833d
000002e0: c22f 24bd 2d4c c5bd adef e33d d5c6 14bd
000002f0: 7978 07bc 3284 89bd 8882 ccbd 43ed 56bc
00000300: e14d 1ebd 2032 0f3c c3a0 53bd bdc9 d2bd
00000310: 6d3a ca3d 8204 b23d 87a5 3e3d 3e84 7c3d
00000320: c844 b23d 6521 433c 50b0 bbbd 46da b6bd
00000330: 4241 563d c4da 2fbc d017 65bc 1419 813d
00000340: 35ad 7ebd 9e57 d7bc bac8 4c3d 462d cdbd
00000350: df96 433c e794 9cbd 19e0 b6bd 0c7e c9bc
00000360: 4061 1dbe f0d6 333d cbe4 463e 2424 c33d
00000370: 0efd 423e 3afb 3c3e 2126 67bd baf2 743d
00000380: 6952 36be 18cb 313d 3b15 7fbe 923a 09be
00000390: 034e fa3d aac8 48be b509 2abe 55ba c1bc
000003a0: c265 0ebe cc37 0cbf 3760 47be 0ca8 733e
000003b0: 34e5 52be 6b94 dc3c 98d0 863e 5b03 323e
000003c0: 81fa 853e 5f13 c5be 9f3d acbe 7807 dc3c
000003d0: b5ce a73d fb2f dcbd a374 5e3d cce2 41bd
000003e0: c1ce b43b c1ce a1bc f18b dfba 9af0 1e3d
000003f0: 07ec 44bc b968 f8bd 6869 853e 7ab9 a5bc

conv1.bias f4 [16]
0.043594275 -0.012221761 -0.026769716 0.07195147 0.11131807 -0.10794469 -0.015814189 -0.05653617
0.10266366 -0.00041510863 0.000939128 -0.00049485354 0.15289265 0.057421222 -0.090273544 -0.053351846
00000000: e98f 323d c83d 48bc 2a4c dbbc 4b5b 933d
00000010: bafa e33d 1b12 ddbd c28c 81bc 7992 67bd
00000020: 5341 d23d f0a2 d9b9 d02f 763a 0fb9 01ba
00000030: e48f 1c3e 8432 6b3d 56e1 b8bd 7787 5abd

conv2.weight f4 [32, 16, 3, 3]
-0.048254482 -0.07950359 0.02970323 0.052454107 0.09970382 0.011115254 0.02072852 0.051938962
-0.0020837223 -0.0028612793 -0.094907455 0.18225366 0.019369874 -0.15978248 -0.01881536 0.05112544
0.04266223 0.012569182 0.075502284 -0.031188918 -0.034074843 0.101524636 -0.092019975 0.026951693
-0.076131545 0.054508112 0.018973393 0.16222915 0.15913577 0.22411041 0.08257608 0.034016218
0.0434859 -0.020505361 0.09523597 0.012340494 0.0026755042 0.021345818 -0.062144775 -0.040869754
-0.022018138 -0.0028067199 0.03495115 -0.012634491 0.060066294 0.06906427 -0.10217642 0.12471805
0.053264264 -0.011353873 0.065831974 -0.056245238 0.010479455 -0.051682517 0.02727803 0.009983406
0.003040588 -0.058418132 0.05979775 -0.042942084 -0.08664599 -0.064253956 -0.025973063 -0.05267296
0.027558 0.091995895 -0.06788991 0.02056536 -0.0024549738 -0.15730132 0.0013676411 0.03523325
0.09913622 -0.016678005 0.06273389 -0.0031761713 0.01873101 0.01708679 0.031991463 0.055310637
0.09280176 0.13090225 -0.11149442 0.014297027 0.050438493 -0.10408711 -0.06423378 -0.071512096
-0.089316756 -0.094438806 0.04124279 -0.0030773191 0.08274087 -0.039738882 -0.027520955 -0.033886865
-0.0150947925 -0.10326518 0.040767074 -0.00621678 0.055708356 0.023298984 -0.013586219 -0.18997587
-0.0430977 -0.052843302 -0.018349191 0.014357051 -0.05724241 0.0040292633 0.080167085 -0.054979905
0.0047651497 0.025486356 0.051393844 0.004161422 -0.027801087 -0.028944815 -0.026150268 -0.07283904
0.020478528 0.026301151 0.017950505 0.09655823 0.027886739 0.11082332 0.031231578 0.04136233
-0.05586749 -0.034018584 -0.09954646 -0.1655777 -0.06262369 0.07355197 0.19488804 -0.060755488
-0.017748078 -0.11706979 -0.08813922 0.035451654 -0.0981844 -0.058915254 -0.002822884 -0.026227815
-0.003849882 0.011846904 0.09253939 0.07034232 0.04843481 0.069116384 -0.08789014 -0.07201701
-0.0651848 0.043027848 -0.064102255 -0.08167575 -0.014368471 -0.07330284 -0.12352975 -0.13988195
-0.10610737 -0.049576458 0.045157433 -0.015469994 -0.06661451 0.016646244 -0.15070526 -0.055608843
-0.24781223 -0.038578738 -0.108158246 0.21866897 0.02600956 0.065160684 0.061035383 0.03926571
0.11124754 0.015412149 0.09768672 0.17439449 -0.0290866 0.08695925 -0.049508933 0.026704269
0.07426805 0.05861103 -0.058428664 0.02190478 -0.017491424 0.1412012 0.086198635 -0.05953493
-0.110945895 -0.1336341 0.0563905 -0.3349198 -0.26600355 -0.22586997 -0.17156816 0.095664814
-0.03851023 -0.04086967 0.040836778 0.009592757 -0.06695407 -0.09168708 -0.08993589 0.112425014
-0.1442003 0.0077102934 0.0060168565 -0.114035055 0.00646335 -0.24568443 -0.18704893 -0.1688196
0.13505736 0.09139318 0.13409312 0.09968401 0.19977184 0.17367859 0.16485359 0.042868614
0.16073257 0.014943075 -0.12311817 -0.015294256 0.06322251 -0.08658122 -0.07411622 0.14625585
-0.043773796 -0.03003845 0.11552915 -0.12022841 0.09273946 0.048247922 -0.06365948 0.020135643
0.19235256 -0.01053752 0.07242434 0.020202592 0.029064205 -0.071541056 -0.04499553 -0.07643647
-0.02467331 -0.046467304 -0.07547741 -0.025115388 0.019457707 0.17003061 0.100585766 0.03552343
00000000: 7ea6 45bd c7d2 a2bd 3054 f33c 1eda 563d
00000010: 8431 cc3d c11c 363c dbce a93c f3bd 543d
00000020: 0f8f 08bb 4d84 3bbb d75e c2bd b4a0 3a3e
00000030: 92ad 9e3c 059e 23be ab22 9abc e968 513d
00000040: 97be 2e3d f8ee 4d3c f1a0 9a3d e77f ffbc
00000050: 1092 0bbd 26ec cf3d f874 bcbd ccc9 dc3c
00000060: dbea 9bbd e643 5f3d 176e 9b3c 661f 263e
00000070: 7df4 223e 337d 653e a61d a93d 9754 0b3d
00000080: 451e 323d dcfa a7bc 140b c33d c92f 4a3c
00000090: 8357 2f3b 6ddd ae3c 858b 7ebd 0b67 27bd
000000a0: 625f b4bc f2f0 37bb f028 0f3d e500 4fbc
000000b0: 1308 763d 9171 8d3d df41 d1bd 2d6c ff3d
000000c0: a12b 5a3d 9805 3abc ead2 863d 6861 66bd
000000d0: 05b2 2b3c 0cb1 53bd 2d76 df3c 7191 233c
000000e0: 9a44 473b da47 6fbd 7cee 743d 0ae4 2fbd
000000f0: 7473 b1bd 9497 83bd 76c5 d4bc 9abf 57bd
00000100: 51c1 e13c 5868 bc3d dd09 8bbd b078 a83c
00000110: a0e3 20bb 9913 21be 6c42 b33a be50 103d
00000120: ee07 cb3d 50a0 88bc a07a 803d 5027 50bb
00000130: c671 993c 99f9 8b3c 7b09 033d 688d 623d
00000140: d90e be3d 3d0b 063e 3057 e4bd 143e 6a3c
00000150: 9898 4e3d 9f2b d5bd 008d 83bd ef74 92bd
00000160: b4eb b6bd 2269 c1bd 33ee 283d d9ac 49bb
00000170: 0c74 a93d 3dc5 22bd a073 e1bc f4cc 0abd
00000180: 2650 77bc b27c d3bd 60fb 263d 21b6 cbbb
00000190: 722e 643d 83dd be3c bc98 5ebc 0989 42be
000001a0: 3787 30bd 3872 58bd 0b51 96bc d639 6b3c
000001b0: 0477 6abd e907 843b a42e a43d 9c32 61bd
000001c0: f924 9c3b c3c8 d03c 5a82 523d 8a5c 883b
000001d0: 1bbf e3bc ad1d edbc 1639 d6bc a22c 95bd
000001e0: 96c2 a73c 8375 d73c f00c 933c 52c0 c53d
000001f0: bb72 e43c 56f7 e23d 5ed9 ff3c 8c6b 293d
00000200: 4fd5 64bd 1257 0bbd 04df cbbd 338d 29be
00000210: d940 80bd 6aa2 963d bb90 473e bfda 78bd
00000220: 6b64 91bc 49c2 efbd 5682 b4bd c135 113d
00000230: e714 c9bd 1f51 71bd 2200 39bb b7db d6bc
00000240: 4d4e 7cbb 8419 423c 4b85 bd3d a20f 903d
00000250: 9463 463d e48c 8d3d bfff b3bd a77d 93bd
00000260: 9c7f 85bd f83d 303d 0b48 83bd 9e45 a7bd
00000270: bc69 6bbc cd1f 96bd 2afd fcbd 373d 0fbe
00000280: d24e d9bd af10 4bbd 00f7 383d dc75 7dbc
00000290: 306d 88bd b45d 883c 7b52 1abe 19c6 63bd
000002a0: 7dc2 7dbe bd04 1ebd 1282 ddbd c2ea 5f3e
000002b0: 0012 d53c f772 853d 3d00 7a3d 15d5 203d
000002c0: c0d5 e33d 3d83 7c3c fa0f c83d 7894 323e
000002d0: 0547 eebc b117 b23d e1c9 4abd e9c2 da3c
000002e0: d919 983d 1f12 703d e552 6fbd a771 b33c
000002f0: 2d4a 8fbc 0c97 103e e988 b03d e6da 73bd
00000300: 9a37 e3bd 61d7 08be baf9 663d 9c7a abbe
00000310: 9e31 88be 754a 67be 90af 2fbe eaeb c33d
00000320: e7bc 1dbd f566 27bd 7744 273d f02a 1d3c
00000330: 371f 89bd 70c6 bbbd 4f30 b8bd 163f e63d
00000340: 3ea9 13be a1a6 fc3b 0d29 c53b 368b e9bd
00000350: 82ca d33b b394 7bbe c189 3fbe 0cdf 2cbe
00000360: 7a4c 0a3e 592c bb3d b54f 093e 2127 cc3d
00000370: fd90 4c3e cdd8 313e 61cf 283e 0097 2f3d
00000380: 1497 243e cdd3 743c 6125 fcbd c294 7abc
00000390: ce7a 813d 7f51 b1bd 3fca 97bd 18c4 153e
000003a0: 274c 33bd 3213 f6bc 8c9a ec3d 503a f6bd
000003b0: 30ee bd3d 9d9f 453d e75f 82bd 81f3 a43c
000003c0: 12f8 443e 90a5 2cbc 3653 943d e87f a53c
000003d0: 0e18 ee3c 1e84 92bd 3c4d 38bd b98a 9cbd
000003e0: ae1f cabc 8054 3ebd e693 9abd c9be cdbc
000003f0: c565 9f3c 811c 2e3e e9ff cd3d 0481 113d

conv2.bias f4 [32]
0.1368793 0.13663328 0.05599914 0.025950382 -0.073641516 0.03431042 -0.061749607 0.12141077
0.031169329 0.124712855 0.13394098 -0.07645466 0.05188344 0.13093843 0.09213432 0.097183295
-0.012866255 0.0184372 -0.03720622 0.07172348 0.093465194 -0.0710084 -0.008311735 -0.071336806
-0.15015078 0.07507104 0.12145605 0.13049121 0.13685928 0.08144081 -0.099950135 0.08288515
00000000: 162a 0c3e 98e9 0b3e 5b5f 653d e595 d43c
00000010: 5dd1 96bd 1589 0c3d 28ed 7cbd 36a6 f83d
00000020: d256 ff3c 7469 ff3d d327 093e 4394 9cbd
00000030: bb83 543d b914 063e ebb0 bc3d 0908 c73d
00000040: fccc 52bc 9c09 973c 8d65 18bd c3e3 923d
00000050: ae6a bf3d da6c 91bd f12d 08bc 0819 92bd
00000060: 20c1 19be d8be 993d f3bd f83d 7d9f 053e
00000070: d724 0c3e 70ca a63d a8b2 ccbd b1bf a93d

fc1.weight f4 [64, 800]
-0.02779886 0.0011785926 -0.010392291 -0.042373046 -0.016881093 0.008777367 -0.050346684 -0.018925767
-0.033937573 -0.022658233 -0.041192643 -0.03888513 -0.041601267 -0.026446205 -0.011406452 -0.067686945
-0.06792353 0.0033273844 -0.024370255 0.010395496 -0.029370185 -0.010153302 -0.04510023 -0.048095774
-0.0484959 -0.04574362 0.0044356035 0.04502016 0.010297383 -0.030298451 -0.04017181 -0.016376905
0.0389268 0.047389578 0.020644512 -0.044535037 -0.048201934 0.05770135 0.009129062 -0.0035279146
0.01629664 -0.02574827 -0.021883024 -0.030311033 -0.063058645 -0.01979423 -0.054065812 -0.011679554
-0.045408808 -0.02808913 -0.04855319 -0.07205708 -0.013325035 -0.025727639 -0.029942663 -0.031566694
0.014180921 0.01124922 -0.05283811 -0.045413848 0.025970664 -0.015095547 -0.009740695 -0.039017014
-0.050576232 -0.022911191 -0.0064281854 -0.02454769 -0.006567489 -0.0039315135 0.0063205413 0.006397067
-0.007849608 -0.04578646 -0.006109206 -0.014876968 -0.010028974 -0.04924328 -0.05462395 -0.017542824
-0.0064946115 -0.016438805 -0.020412995 -0.011133747 -0.012001595 -0.001354773 -0.024391763 -0.08512274
-0.038309008 -0.0130125005 -0.010167924 0.0046694158 -0.019757543 -0.021503454 -0.051359132 -0.036553767
0.045439363 -0.002725836 -0.032158513 -0.040170904 -0.0146250585 -0.05120387 0.026783174 -0.042062048
-0.050474748 -0.05418593 -0.060173944 -0.034942925 -0.04242785 -0.06365794 0.06164519 0.0100321835
0.022292633 -0.07685555 -0.08571296 -0.014139595 -0.00993819 -0.013242919 -0.05644151 -0.0075407787
-0.027751502 -0.01810046 -0.027828034 -0.05284785 -0.0536681 -0.056878824 -0.05886479 -0.012478342
-0.04765906 -0.04311615 -0.029057287 0.0047505586 0.004998393 -0.00597916 -0.041636817 -0.07126652
-0.033701938 -0.0071076946 0.010547554 -0.04535381 -0.04815199 0.004448667 -0.031841014 -0.023698432
-0.034040138 -0.06703442 0.0068295533 -0.06687607 -0.012343969 -0.019357882 -0.04841972 -0.018408366
0.0025668757 -0.0021707728 -0.05267868 -0.03018827 -0.0033819154 -0.05011836 -0.05620226 -0.03308568
-0.07660893 -0.02961219 0.008518495 -0.006545596 -0.03809289 -0.007129377 -0.03295091 0.0037242502
-0.02907302 -0.09096609 0.0044937837 -0.04689281 -0.034582585 -0.011361835 -0.004368373 -0.019079672
0.0028119835 -0.033376675 -0.032903373 -0.055289697 -0.05844344 -0.04072854 0.0033682752 0.012645993
-0.0504954 -0.0314231 -0.027607895 0.013909366 -0.0418484 -0.04193783 -0.026620423 -0.0014672263
-0.036328387 -0.049391527 -0.05887955 -0.029116748 0.0022315406 -0.044484574 0.007798728 -0.026915526
-0.00093673903 -0.0313116 -0.0041868575 -0.033740032 -0.016941791 -0.059821334 -0.041081462 -0.032389615
-0.018307796 -0.046858087 -0.01454818 -0.021733537 -0.01244067 -0.0060727666 -0.013407447 -0.05699573
-0.020496141 -0.011174115 -0.01826562 -0.011166893 -0.01093563 -0.031184781 -0.050990924 0.006635752
0.008912192 0.011246389 -0.016026739 -0.07036866 -0.0022183629 -0.043266963 -0.052022822 -0.0544915
-0.0533621 -0.06629582 -0.00043553373 -0.017123189 -0.0033608146 -0.00538167 -0.016080594 -0.048646748
-0.026206793 -0.054289985 -0.00059243874 -0.0103441 -0.0055896007 -0.009924395 -0.035240576 -0.062388096
-0.017976286 -0.021046456 -0.053012002 -0.057720892 0.0022563448 -0.06243252 -0.050350282 -0.044312675
00000000: 6fba e3bc 017b 9a3a 6d44 2abc 5c8f 2dbd
00000010: 384a 8abc f2ce 0f3c 5338 4ebd 360a 9bbc
00000020: 2002 0bbd c29d b9bc 9eb9 28bd 0446 1fbd
00000030: 1766 2abd b6a5 d8bc 21e2 3abc 749f 8abd
00000040: 7e1b 8bbd 3f10 5a3b 21a4 c7bc df51 2a3c
00000050: be99 f0bc 095a 26bc 05bb 38bd 1300 45bd
00000060: a3a3 46bd a95d 3bbd 8a58 913b 0f67 383d
00000070: 5bb6 283c 7534 f8bc 328b 24bd dc28 86bc
00000080: b571 1f3d 931b 423d ae1e a93c 5f6a 36bd
00000090: 646f 45bd 4058 6c3d 1092 153c 9634 67bb
000000a0: 8880 853c 09ee d2bc 0744 b3bc d84e f8bc
000000b0: e424 81bd 8227 a2bc 1d74 5dbd 9a5b 3fbc
000000c0: 96fe 39bd 2d1b e6bc b6df 46bd aa92 93bd
000000d0: 3f51 5abc c5c2 d2bc 514a f5bc 144c 01bd
000000e0: 1857 683c a64e 383c c66c 58bd df03 3abd
000000f0: 6ec0 d43c 5053 77bc 7097 1fbc 4ed0 1fbd
00000100: 0629 4fbd 40b0 bbbc 87a3 d2bb 3d18 c9bc
00000110: 1734 d7bb edd3 80bb 8b1c cf3b 7d9e d13b
00000120: a49b 00bc 958a 3bbd bc2f c8bb 87be 73bc
00000130: 9150 24bc 52b3 49bd 5dbd 5fbd f8b5 8fbc
00000140: c0d0 d4bb acaa 86bc 2739 a7bc 526a 36bc
00000150: 57a2 44bc a392 b1ba 3cd1 c7bc d554 aebd
00000160: e8e9 1cbd 6232 55bc 5d97 26bc e601 993b
00000170: 92da a1bc 0328 b0bc f45d 52bd 67b9 15bd
00000180: a01e 3a3d f0a3 32bb a5b8 03bd 3f8a 24bd
00000190: f19d 6fbc 26bb 51bd 6368 db3c 4149 2cbd
000001a0: 9cbe 4ebd 11f2 5dbd f478 76bd 5020 0fbd
000001b0: d3c8 2dbd 185f 82bd ab7f 7c3d 075e 243c
000001c0: 0a9f b63c 7166 9dbd 478a afbd c3a9 67bc
000001d0: cad3 22bc d4f8 58bc 362f 67bd a318 f7bb
000001e0: 1e57 e3bc 6a47 94bc 9ef7 e3bc fd76 58bd
000001f0: 15d3 5bbd c5f9 68bd 351c 71bd f671 4cbc
00000200: 2636 43bd 8f9a 30bd 8c09 eebc 93aa 9b3b
00000210: 8fc9 a33b d4ec c3bb 5e8b 2abd 2ef4 91bd
00000220: 0b0b 0abd aae7 e8bb a6cf 2c3c ebc4 39bd
00000230: 053b 45bd 20c6 913b b96b 02bd 3723 c2bc
00000240: ac6d 0bbd 5849 89bd 72ca df3b 52f6 88bd
00000250: 5c3e 4abc 6c94 9ebc c253 46bd 24cd 96bc
00000260: 0739 283b 8643 0ebb 99c5 57bd 644d f7bc
00000270: 20a3 5dbb e948 4dbd 5734 66bd da84 07bd
00000280: 25e5 9cbd 4395 f2bc 2891 0b3c 707c d6bb
00000290: 4a07 1cbd 8d9d e9bb 89f7 06bd 8d12 743b
000002a0: 8b2a eebc 6e4c babd 9740 933b ad12 40bd
000002b0: 78a6 0dbd fd26 3abc 9224 8fbb f94c 9cbc
000002c0: 4149 383b fbb5 08bd b0c5 06bd 7377 62bd
000002d0: 6362 6fbd f8d2 26bd 48be 5c3b 2431 4f3c
000002e0: 44d4 4ebd 82b5 00bd f429 e2bc 1ce4 633c
000002f0: 3a69 2bbd 01c7 2bbd 1313 dabc f24f c0ba
00000300: 13cd 14bd c54e 4abd af2b 71bd 3f86 eebc
00000310: 0a3f 123b 7535 36bd 798c ff3b f37d dcbc
00000320: 7e8f 75ba 9840 00bd e831 89bb fd32 0abd
00000330: 83c9 8abc 3707 75bd 0945 28bd f9aa 04bd
00000340: 3bfa 95bc 44ee 3fbd 7d5b 6ebc 880a b2bc
00000350: f4d3 4bbc 0ffe c6bb e9aa 5bbc 5b74 69bd
00000360: 86e7 a7bc a313 37bc c8a1 95bc 58f5 36bc
00000370: 5b2b 33bc 3a77 ffbc dcdb 50bd b970 d93b
00000380: 7104 123c c642 383c 824a 83bc 721d 90bd
00000390: f461 11bb b338 31bd e215 55bd 7b32 5fbd
000003a0: 3892 5abd 1ac6 87bd 5958 e4b9 ee45 8cbc
000003b0: 1d41 5cbb b858 b0bb 73bb 83bc d041 47bd
000003c0: a1af d6bc 2d5f 5ebd e44d 1bba 4d7a 29bc
000003d0: f828 b7bb ee99 22bc 6c58 10bd a98a 7fbd
000003e0: 0143 93bc 9e69 acbc 1d23 59bd be6c 6cbd
000003f0: 2fdf 133b 3eb9 7fbd 193c 4ebd 3581 35bd

fc1.bias f4 [64]
-0.0015512333 0.11661107 0.07749908 -0.032021016 -0.021267565 -0.038103886 0.094969645 0.0137950955
-0.048389025 -0.0034885118 -0.06431422 -0.0013788437 0.06805164 0.02801257 -0.045821354 -0.04064294
0.11763864 -0.017699221 0.067049846 -0.015093351 0.09529674 0.029110258 -0.02425175 -0.017325144
-0.02695023 0.07659953 0.020489711 0.110997014 0.11142012 0.021715187 -0.03815331 0.11716188
-0.0080604255 0.07551051 -0.02702771 0.02595202 -0.036228705 -0.011744233 0.021026626 -0.020934323
0.0074767573 -0.028261159 0.0868208 -0.0058573377 0.0610729 0.0068201004 0.018829985 -0.010609957
-0.022468714 0.12568541 0.10741454 0.115306914 -0.0026673116 -0.021660214 -0.01597103 -0.035425313
-0.03767847 0.0038448027 0.110644 -0.015211684 -0.013634686 -0.02507189 0.02904852 -0.041437212
00000000: c152 cbba c9d1 ee3d d6b7 9e3d 7828 03bd
00000010: 5139 aebc d212 1cbd 727f c23d d304 623c
00000020: 9233 46bd 849f 64bb 2cb7 83bd 51ba b4ba
00000030: a95e 8b3d 9e7a e53c 2caf 3bbd 3679 26bd
00000040: 87ec f03d f5fd 90bc 6e51 893d 1a4a 77bc
00000050: f02a c33d a378 ee3c 9bab c6bc 76ed 8dbc
00000060: bbc6 dcbc 37e0 9c3d 0ada a73c 6752 e33d
00000070: 3b30 e43d 0ce4 b13c a546 1cbd 91f2 ef3d
00000080: e00f 04bc 41a5 9a3d 3769 ddbc 5599 d43c
00000090: 8d64 14bd e26a 40bc 0840 ac3c 757e abbc
000000a0: 96ff f43b f283 e7bc 1bcf b13d e9ee bfbb
000000b0: 9427 7a3d 267b df3b 5741 9a3c 63d5 2dbc
000000c0: 4f10 b8bc adb3 003e 28fc db3d 0826 ec3d
000000d0: 10ce 2ebb c370 b1bc add5 82bc 221a 11bd
000000e0: bd54 1abd 16f9 7b3b 5299 e23d 6d3a 79bc
000000f0: 0564 5fbc 9063 cdbc 29f7 ed3c 11ba 29bd

fc2.weight f4 [64, 64]
-0.09015435 -0.082631454 -0.16858181 0.09016371 0.03783773 -0.11843738 0.05066761 0.010030746
0.1140728 -0.14332603 0.0015342832 -0.10417366 -0.056488115 -0.29385 0.021473646 0.06195736
-0.12119461 0.049278393 -0.02980614 0.111466445 -0.12634222 -0.04210426 -0.10945563 -0.11759208
-0.0016470641 0.11895953 0.010159731 -0.183354 -0.09113035 0.07247959 0.06109549 0.13321173
-0.042871997 0.040083066 -0.059244156 -0.056288257 -0.021363989 0.07038818 -0.06569347 -0.12310435
-0.046455443 0.010188997 0.07415971 -0.11965409 0.12312623 -0.034647927 0.091445476 0.06343302
-0.04309933 -0.21850684 0.08957578 -0.09914526 0.12232159 0.10631701 -0.045549884 0.06988868
-0.050720945 -0.09862061 0.12081381 0.014161438 -0.123035 0.046414346 -0.102550596 0.098144114
0.001274315 0.16509116 -0.06384995 0.10618745 0.08657266 -0.06454712 0.1482225 0.016286893
0.10525337 0.06252802 -0.06834918 -0.06693396 -0.09915288 -0.18792006 -0.028114513 0.10759795
-0.046372995 0.029002255 0.05224715 0.0332759 0.09272597 0.008803441 -0.027026024 0.0016526969
0.02816002 0.070953295 -0.116725825 -0.14819138 -0.07876047 0.05356324 0.118177846 0.30007085
-0.07823393 0.057197735 0.051225975 0.08301642 -0.05554236 0.0069882446 0.0046915854 -0.065450564
-0.08086021 -0.09395842 -0.08352247 0.10605122 0.09834732 0.010545824 0.07928541 -0.020392379
-0.05584287 -0.05695608 0.2944066 0.032809008 -0.04130386 0.08904326 0.05379737 0.057160456
0.11784087 -0.06732128 0.1409915 -0.05869846 0.013203554 -0.021592665 -0.08512022 0.096920475
-0.017082265 -0.057263732 -0.076047644 0.116795585 0.04585979 -0.06784332 0.124942355 0.09932263
-0.073733896 0.08161341 0.07133269 -0.06661394 0.05952689 0.0013796273 -0.023836002 0.04002835
0.09875399 -0.05657848 0.022022597 -0.020129673 0.0382238 0.045833793 -0.08698089 -0.08354155
0.0050970106 0.10774599 -0.015756143 0.13285916 0.09071302 -0.09029701 -0.10647951 0.09216185
0.015521859 0.08226317 0.113414645 0.053895406 -0.08351292 0.10059803 0.015257426 0.070447825
-0.09950005 -0.0038886778 0.079464294 0.07128949 0.06917765 0.030100428 0.027667332 -0.079825655
-0.08884004 0.24239224 0.10582251 0.09371508 -0.038103085 -0.017347844 0.012148668 -0.040869582
0.07317724 0.032134406 0.2256516 -0.079191566 0.117692776 -0.06473091 0.019941723 -0.06057274
-0.03723516 0.04281229 0.026100582 -0.052032743 0.0449178 -0.006497142 0.10550038 -0.103258535
-0.09173595 -0.08640474 -0.068388104 0.08346713 0.1530698 0.046041623 -0.054055676 0.086837046
0.061916303 0.049193725 0.16115391 0.08459374 0.1870422 -0.038370937 0.0692644 0.061682716
-0.09382997 -0.066655695 0.017413598 0.16124965 0.065594316 0.016884774 -0.038922306 0.11975276
0.052872524 0.13849247 -0.05684051 0.047720484 -0.05557865 0.11646345 0.10397099 -0.047185097
-0.09410339 -0.047294393 -0.044333182 0.07763561 0.14518133 -0.06052445 0.071044646 0.12024276
0.015896676 0.22315931 -0.09839935 0.10258903 0.0065159053 -0.09721805 0.08238852 0.09793222
0.037640333 0.07210278 0.06023034 0.047846496 0.015292708 0.05430189 0.11588902 -0.018022522
00000000: d8a2 b8bd ae3a a9bd b6a0 2cbe c0a7 b83d
00000010: bcfb 1a3d 4c8f f2bd d788 4f3d 0058 243c
00000020: 009f e93d 0fc4 12be 001a c93a 0059 d5bd
00000030: 1560 67bd 8273 96be 80e9 af3c 00c7 7d3d
00000040: e134 f8bd 24d8 493d 022c f4bc 8548 e43d
00000050: db5f 01be 8475 2cbd 462a e0bd 1ed4 f0bd
00000060: 4de2 d7ba 0ea1 f33d 0075 263c 27c1 3bbe
00000070: 8da2 babd 2e70 943d 443f 7a3d a868 083e
00000080: 8c9a 2fbd 242e 243d 00aa 72bd 848e 66bd
00000090: 8803 afbc ae27 903d 4c8a 86bd 221e fcbd
000000a0: 1048 3ebd c0ef 263c 0ce1 973d 340d f5bd
000000b0: 9b29 fc3d fcea 0dbd c447 bb3d 2ce9 813d
000000c0: ec88 30bd 42c0 5fbe 8273 b73d ac0c cbbd
000000d0: be83 fa3d bcbc d93d 8492 3abd cc21 8f3d
000000e0: c4c0 4fbd 9af9 c9bd 3b6d f73d 6005 683c
000000f0: c6f9 fbbd f81c 3e3d 0c06 d2bd c8ff c83d
00000100: ea06 a73a a80d 293e c3c3 82bd ce78 d93d
00000110: 024d b13d 4831 84bd a4c7 173e 176c 853c
00000120: 148f d73d b10e 803d a8fa 8bbd ac14 89bd
00000130: aa10 cbbd 1e6e 40be 6850 e6bc 505c dc3d
00000140: 9cf1 3dbd 2396 ed3c 1c01 563d 4f4c 083d
00000150: 1de7 bd3d 4f3c 103c ae65 ddbc 4e9f d83a
00000160: d8af e63c f64f 913d f30d efbd 7bbf 17be
00000170: 2b4d a1bd 2165 5b3d 3a07 f23d e3a2 993e
00000180: 1c39 a0bd 2c48 6a3d 54d2 513d 8304 aa3d
00000190: 6380 63bd a5fd e43b dfbb 993b f20a 86bd
000001a0: 0a9a a5bd 466d c0bd d40d abbd 6231 d93d
000001b0: 526a c93d 64c8 2c3c 6460 a23d eb0d a7bc
000001c0: 7ebb 64bd c74a 69bd 76bc 963e bd62 063d
000001d0: 3c2e 29bd 505c b63d a25a 5c3d 1521 6a3d
000001e0: 8e56 f13d bddf 89bd 1360 103e cc6d 70bd
000001f0: b853 583c 1ae3 b0bc 8353 aebd 3e7e c63d
00000200: 1bf0 8bbc 608d 6abd debe 9bbd 8632 ef3d
00000210: 7ad7 3b3d 70f1 8abd c7e1 ff3d aa69 cb3d
00000220: cc01 97bd ee24 a73d e016 923d e46c 88bd
00000230: 78d2 733d 9cd4 b43a b843 c3bc c4f4 233d
00000240: 883f ca3d d6be 67bd bc68 b43c fce6 a4bc
00000250: 8f90 1c3d 37bc 3b3d 0923 b2bd d517 abbd
00000260: d304 a73b eea9 dc3d 0713 81bc 3b0c 083e
00000270: bfc7 b93d a4ed b8bd ee11 dabd 5abf bc3d
00000280: 654f 7e3c 9879 a83d f045 e83d 6ec1 5c3d
00000290: d208 abbd 5706 ce3d 48fa 793c f346 903d
000002a0: afc6 cbbd 30d9 7ebb 2dbe a23d 3900 923d
000002b0: 03ad 8d3d 2c95 f63c 9aa6 e23c a27b a3bd
000002c0: c4f1 b5bd ac35 783e 79b9 d83d b1ed bf3d
000002d0: fb11 1cbd 111d 8ebc 350b 473c dd66 27bd
000002e0: f3dd 953d 5e9f 033d 3711 673e 302f a2bd
000002f0: e908 f13d a491 84bd d35c a33c 1f1b 78bd
00000300: e583 18bd f15b 2f3d e3d0 d53c 4920 55bd
00000310: bafb 373d fae5 d4bb 9510 d83d 3679 d3bd
00000320: 0fe0 bbbd f8f4 b0bd 100f 8cbd d1f0 aa3d
00000330: 54be 1c3e 2496 3c3d 7c69 5dbd 9fd7 b13d
00000340: f39b 7d3d 5c7f 493d 8805 253e 7c3f ad3d
00000350: fe87 3f3e d82a 1dbd 7eda 8d3d 04a7 7c3d
00000360: ed29 c0bd c882 88bd f6a6 8e3c a11e 253e
00000370: 5056 863d f051 8a3c ff6c 1fbd ef40 f53d
00000380: dc90 583d f8d0 0d3e 98d1 68bd 8e76 433d
00000390: 70a6 63bd 6484 ee3d beee d43d 2945 41bd
000003a0: 47b9 c0bd c4b7 41bd b696 35bd 6bff 9e3d
000003b0: 6aaa 143e 7ce8 77bd db7f 913d d641 f63d
000003c0: bf39 823c e083 643e 9985 c9bd 331a d23d
000003d0: 6083 d53b 421a c7bd 50bb a83d b090 c83d
000003e0: c02c 1a3d 9faa 933d 17b4 763d b0fa 433d
000003f0: 448e 7a3c a96b 5e3d 3957 ed3d f8a3 93bc

fc2.bias f4 [64]
-0.129119 0.13727418 0.16087838 -0.0077820453 0.046946183 -0.14628246 0.19001873 0.094015844
0.16184363 0.07071227 0.05948685 -0.022354864 -0.12125536 0.05191588 -0.10392606 0.10932558
-0.06164625 0.038431674 0.06716262 -0.13177438 0.18737811 0.15861796 0.17880966 -0.035909988
0.06330101 0.18829899 -0.08130996 -0.13039479 -0.08857711 0.005430408 -0.05914138 0.16575143
0.04005334 -0.10472709 0.12722635 0.004420146 -0.11124029 0.020857923 -0.07451253 -0.03521126
0.03564692 -0.032996617 0.13036236 0.08696776 0.018002557 -0.06346209 0.15605044 0.15603286
0.15754427 0.14261149 -0.05304968 0.046345547 0.028482296 0.03451196 0.09981726 0.13547014
-0.098508075 0.13724062 -0.022602806 0.033661515 0.05663915 0.2053027 0.13191383 -3.6662736e-05
00000000: c537 04be 9a91 0c3e 4dbd 243e 8700 ffbb
00000010: a44a 403d 12cb 15be 4594 423e 618b c03d
00000020: 56ba 253e 98d1 903d 7ca8 733d 8c21 b7bc
00000030: bb54 f8bd bfa5 543d 30d7 d4bd 17e6 df3d
00000040: c780 7cbd 886a 1d3d 8e8c 893d ddef 06be
00000050: 0ce0 3f3e bf6c 223e e119 373e 5a16 13bd
00000060: f6a3 813d 73d1 403e d685 a6bd 3686 05be
00000070: ea67 b5bd 90f1 b13b 3b3e 72bd beba 293e
00000080: f90e 243d 287b d6bd a047 023e dfd6 903b
00000090: f3d1 e3bd 3cde aa3c 069a 98bd af39 10bd
000000a0: 8102 123d 7627 07bd b67d 053e 271c b23d
000000b0: 197a 933c 6af8 81bd b0cb 1f3e 14c7 1f3e
000000c0: 4953 213e bf08 123e 9f4a 59bd d4d4 3d3d
000000d0: b453 e93c 6a5c 0d3d fe6c cc3d afb8 0a3e
000000e0: 9abe c9bd ce88 0c3e 8529 b9bc a8e0 093d
000000f0: 74fe 673d df3a 523e 6b14 073e 50c6 19b8

fc3.weight f4 [7, 64]
-0.17603315 0.14503399 0.05812577 -0.08310326 0.06362555 0.037491236 0.06879771 -0.12658276
-0.106071554 0.042020213 0.0069944016 0.008099093 -0.08357675 -0.13129228 0.10259502 -0.06752402
0.07831991 0.092160225 0.07528965 -0.02876538 -0.103893615 0.098904595 -0.16454065 -0.15345731
-0.06950409 -0.15675566 -0.05127421 0.06148758 -0.023340616 -0.035287354 0.020864427 -0.1414684
-0.05238592 -0.03696344 0.1714214 0.0280221 0.008325532 -0.10169716 0.034593217 -0.026010565
-0.08774701 -0.024756417 -0.060038544 -0.046530098 0.15689163 -0.18864197 0.035958983 -0.08682676
0.07494557 0.038061004 -0.0663867 -0.17169638 0.013435827 -0.12149082 0.052732114 -0.20274763
0.04263122 0.08098914 0.037074737 0.26377827 -0.032942243 0.0028974677 -0.19300024 0.15864745
0.18995632 -0.037325125 -0.09187683 -0.09013518 0.042731214 0.030178366 0.06792132 -0.13784178
0.20676589 0.1068571 0.10934152 0.084364556 -0.106700264 -0.11023876 -0.033991896 -0.039481297
0.060876425 -0.28583354 0.011055474 -0.049520448 -0.010078129 -0.12743038 -0.05137333 -0.14256822
-0.14130613 -0.14188299 0.022102905 -0.07092998 0.050407875 -0.081708424 0.112533875 -0.13987306
0.105942465 0.13668111 -0.07360187 -0.046656232 0.068059266 -0.19036588 0.020858962 0.07184652
-0.07720742 0.12638842 -0.0705639 0.12934144 -0.02806088 0.034631357 -0.16798204 -0.1847191
0.050410043 -0.12993161 -0.24489762 0.0132135665 -0.032737363 0.20697322 0.12829524 0.03564061
-0.1147954 -0.04100533 0.014037804 -0.032589406 0.08835219 -0.0017778407 0.08046942 -0.098915756
-0.04324481 -0.1375325 -0.11873158 -0.052791163 -0.11068457 -0.05740187 0.035958335 -0.16688949
0.11302177 -0.09379996 -0.15921435 -0.17708562 0.05443276 -7.831622e-05 0.011239082 -0.054066785
0.027610691 0.18712175 -0.13099945 0.03534566 -0.04311863 -0.14866832 -0.12503089 0.11128331
-0.18673949 -0.018229643 -0.027370498 -0.10236081 -0.0261029 0.03324542 -0.089848265 -0.032697935
0.012449629 0.13533585 0.18665484 -0.040188503 0.11751841 0.019426351 -0.024274051 0.024552839
-0.0055111772 -0.05612928 -0.23856449 -0.102717884 0.17180414 0.117575444 -0.091479026 0.0072006295
0.21140401 -0.129184 -0.12924185 0.08957013 -0.06616604 -0.05524998 -0.12313593 -0.13692692
-0.04040801 0.013596436 -0.0517544 0.20203389 0.086455695 0.058512513 -0.03804419 0.1463292
0.1571593 0.1168277 -0.1219041 -0.1438839 -0.09968374 -0.011444759 -0.14408906 -0.0200958
0.21389964 0.024599962 -0.15343854 -0.033799615 -0.05063933 0.014112878 -0.06298051 -0.10395029
0.03996399 0.068562694 0.0136948805 0.012058519 0.006209859 -0.19535553 0.057144072 -0.036836594
0.19013883 -0.054088976 0.09512715 -0.0147204595 0.08056594 0.03537123 -0.10538607 0.056221545
-0.0034596927 -0.024658484 -0.09432264 0.0075108693 -0.083329685 0.047196135 0.027869396 0.024547068
-0.12698185 0.042714708 0.141072 -0.074685276 -0.00060783606 0.14101152 0.110648476 -0.03570362
0.08491229 0.06333181 0.046463445 -0.08422916 -0.065385155 -0.05110693 -0.120119564 0.043002248
0.056651864 -0.18021613 0.026582628 -0.0207794 -0.07827314 -0.15623733 -0.0675681 -0.14243047
00000000: 0942 34be ca83 143e 4a15 6e3d 0b32 aabd
00000010: 1d4e 823d 6990 193d d0e5 8c3d e99e 01be
00000020: 0b3c d9bd 631d 2c3d 4b31 e53b 0fb2 043c
00000030: 492a abbd 7c71 06be 561d d23d 094a 8abd
00000040: 3066 a03d 80be bc3d 7631 9a3d 60a5 ebbc
00000050: 2dc6 d4bd 7e8e ca3d 587d 28be ea23 1dbe
00000060: 2958 8ebd 8e84 20be e804 52bd 67da 7b3d
00000070: d234 bfbc 7989 10bd e0eb aa3c 18dd 10be
00000080: 9e92 56bd fa66 17bd 1789 2f3e 9a8e e53c
00000090: d067 083c 9a46 d0bd 9eb1 0d3d 1c14 d5bc
000000a0: b4b4 b3bd f8cd cabc faea 75bd 5896 3ebd
000000b0: 33a8 203e 5c2b 41be ba49 133d 3ad2 b1bd
000000c0: 107d 993d dbe5 1b3d c0f5 87bd 2dd1 2fbe
000000d0: f121 5c3c 2ed0 f8bd a1fd 573d 139d 4fbe
000000e0: 139e 2e3d a2dd a53d aedb 173d f20d 873e
000000f0: 72ee 06bd 71e3 3d3b dba1 45be 7a74 223e
00000100: e983 423e 3be2 18bd eb29 bcbd cb98 b8bd
00000110: ed06 2f3d 9f38 f73c 551a 8b3d 6526 0dbe
00000120: 70ba 533e e5d7 da3d 72ee df3d 53c7 ac3d
00000130: ab85 dabd dcc4 e1bd 163b 0bbd 24b7 21bd
00000140: 8f59 793d c658 92be 0522 353c f4d5 4abd
00000150: bd1e 25bc 1c7d 02be d76c 52bd 67fd 11be
00000160: 8eb2 10be c649 11be 2711 b53c bd43 91bd
00000170: 7d78 4e3d bf56 a7bd 2978 e63d e23a 0fbe
00000180: 5df8 d83d 22f6 0b3e 94bc 96bd 9b1a 3fbd
00000190: a862 8b3d 46ef 42be 6ae0 aa3c 4524 933d
000001a0: ec1e 9ebd f76b 013e ce83 90bd 1572 043e
000001b0: eedf e5bc 9cd9 0d3d 7c03 2cbe 0127 3dbe
000001c0: c37a 4e3d cb0c 05be 71c6 7abe b77d 583c
000001d0: 9d17 06bd caf0 533e d45f 033e e3fb 113d
000001e0: da19 ebbd 34f5 27bd d1fe 653c 787c 05bd
000001f0: fef1 b43d 6f06 e9ba 27cd a43d 5894 cabd
00000200: 7821 31bd 52d5 0cbe 8b29 f3bd 8c3b 58bd
00000210: 98ae e2bd 391e 6bbd 0c49 133d 14e5 2abe
00000220: f577 e73d 321a c0bd 1609 23be ef55 35be
00000230: e3f4 5e3d b33d a4b8 2024 383c 2275 5dbd
00000240: d12f e23c d89c 3f3e b824 06be 9cc6 103d
00000250: 299d 30bd 823c 18be 1908 00be 81e8 e33d
00000260: a338 3fbe 5556 95bc 1838 e0bc 8ba2 d1bd
00000270: c0d5 d5bc 592c 083d 5e02 b8bd 45ee 05bd
00000280: 87f9 4b3c 7b95 0a3e 7222 3f3e b39c 24bd
00000290: 7ead f03d 0324 9f3c 60da c6bc 0923 c93c
000002a0: 1b97 b4bb d1e7 65bd 404a 74be c15d d2bd
000002b0: 6ded 2f3e 65cb f03d 5b59 bbbd 42f3 eb3b
000002c0: 4b7a 583e cf48 04be fa57 04be 8b70 b73d
000002d0: 1082 87bd ce4d 62bd b12e fcbd 9236 0cbe
000002e0: df82 25bd 96c3 5e3c 6cfc 53bd f9e1 4e3e
000002f0: af0f b13d d1aa 6f3d 39d4 1bbd 52d7 153e
00000300: 5eee 203e 5c43 ef3d dba8 f9bd 4d56 13be
00000310: fd26 ccbd cc82 3bbc 158c 13be f29f a4bc
00000320: 8208 5b3e dc85 c93c fe1e 1dbe 7771 0abd
00000330: 306b 4fbd b339 673c edfb 80bd e4e3 d4bd
00000340: 48b1 233d 996a 8c3d 7e60 603c 1891 453c
00000350: 137c cb3b 480b 48be e70f 6a3d f8e1 16bd
00000360: c1b3 423e 678c 5dbd 06d2 c23d 152e 71bc
00000370: c1ff a43d 6ce1 103d a7d4 d7bd 9048 663d
00000380: 03bc 62bb 9700 cabc 3a2c c1bd bd1d f63b
00000390: c1a8 aabd bc50 413d 5c4e e43c ef16 c93c
000003a0: 8807 02be 9ef5 2e3d 2e75 103e 98f4 98bd
000003b0: 3057 1fba 5365 103e ab9b e23d f63d 12bd
000003c0: 7fe6 ad3d 1cb4 813d 7450 3e3d 5680 acbd
000003d0: a7e8 85bd 8055 51bd 3f01 f6bd 2023 303d
000003e0: c90b 683d 948a 38be d0c3 d93c 8f39 aabc
000003f0: ab4d a0bd aefc 1fbe 2561 8abd 4bd9 11be

fc3.bias f4 [7]
0.014401922 -0.099213846 -0.029495854 -0.15656056 0.11797417 0.1394576 -0.35948688
00000000: 0af6 6b3c a130 cbbd 4aa1 f1bc 6951 20be
00000010: 719c f13d f9cd 0e3e aa0e b8be
