src/models/v1.2.1_stage1.pth (torch, 251788 bytes, 10 tensors)

conv1.weight f4 [16, 10, 3, 3]
000000 10 b8 c8 bd 55 ec 88 3d 0e 23 2a 3d d1 18 28 3c
       -0.09800732 0.06685702 0.041537337 0.010259823
000010 ec 8a 6e 3d 26 03 cc 3d d0 ef 26 be 59 d9 29 bd
       0.058237955 0.09961538 -0.16302419 -0.041467045
000020 c5 72 77 3d 80 d5 a4 3d 42 c1 81 3d db ee 37 bd
       0.060412187 0.080485344 0.06335689 -0.044905525
000030 fb 38 bf 3c 11 a1 a0 3d e0 f6 a2 3c 49 f3 6e bd
       0.0233426 0.07843221 0.01989311 -0.058337484
000040 b3 4f bd bc 3b 17 69 3c 25 88 90 3d b2 8b 85 3d
       -0.023109293 0.01422673 0.070572175 0.065207854
000050 7f fa 9c bd 43 e9 66 bd 11 3c c9 bd 73 15 b5 bd
       -0.07664966 -0.0563748 -0.0982591 -0.08841982
000060 b6 e7 86 bc a7 33 bf bd 1a 22 6c 3d 26 14 e9 bc
       -0.01646791 -0.09336024 0.05764971 -0.02845199
000070 4f 08 94 3d 0c 01 45 bd 54 c5 31 3d 70 15 95 3d
       0.07228147 -0.0480967 0.043401077 0.072794795
000080 48 bf ca 3d 72 79 ad 3d 39 4c 1a 3d 19 7f d3 3d
       0.09899765 0.084704295 0.037670348 0.10326976
000090 94 3e 89 3d 34 4d cf bc f8 40 07 3e 91 48 5c 3c
       0.06701389 -0.025305368 0.13208377 0.013445036
0000a0 4a fe b6 bd bb 2f b3 bd 31 11 9d bd 38 79 81 3d
       -0.089352205 -0.08749338 -0.076692946 0.06321949
0000b0 4b 4e 88 3d fa 65 af bd 8d 47 cc 3d 86 10 78 3b
       0.06655558 -0.08564372 0.09974585 0.0037851646
0000c0 b6 2a 16 be 1f 2e 1e be a2 80 e9 be 09 99 cf 3d
       -0.1466473 -0.15447281 -0.45605952 0.10136611
0000d0 07 42 70 bd ed b5 da 3c d3 6d 36 be 3e 52 12 be
       -0.05865672 0.026698077 -0.17815332 -0.14289185
0000e0 83 33 e5 3e e3 f7 8b be 9d b9 1b be a9 e4 84 be
       0.44765863 -0.2733756 -0.15207525 -0.25955704
0000f0 93 dc 1e 3e 83 13 2e bd 06 3b a1 3d fd 40 8e bd
       0.1551383 -0.042499077 0.07872586 -0.06945989
000100 b2 ce 65 bd 97 90 a1 3d 7d c2 68 bd 65 f7 52 3d
       -0.056105323 0.078889064 -0.056826103 0.051505465
000110 58 18 9c 3d 95 5f 81 bd 67 90 43 3d f4 b5 3b bb
       0.07621831 -0.06317059 0.047745135 -0.0028642388
000120 6d 28 2f 3d bc 21 c7 bd b6 34 27 3e e3 2c 9e bc
       0.042763162 -0.09723231 0.16328701 -0.019308513
000130 2c a8 84 3d ab e1 3e be 5f b9 f9 3d 2b 4c 45 bc
       0.06477389 -0.18640773 0.1219356 -0.012042086
000140 47 b5 3e 3e 85 b6 a9 3d 90 63 c7 3d 4f e0 67 3e
       0.1862384 0.08286766 0.09735787 0.2264416
000150 3c e7 ac bd c6 1c 1f bd 98 c5 b2 bd f8 8e 11 be
       -0.08442542 -0.0388458 -0.08729094 -0.14214694
000160 c7 73 20 be f9 01 f4 3d 2f cf 11 3e 79 e4 71 3e
       -0.15669166 0.11914439 0.1423919 0.23622312
000170 41 8d 56 bd 2c fb 8a 3d 71 b1 d8 3c 38 a9 27 bb
       -0.052380804 0.067861885 0.026451798 -0.002558304
000180 22 27 80 bc 81 e1 15 3e fb 54 21 be ca 28 3f 3d
       -0.01564366 0.14636804 -0.15755074 0.04666976
000190 6f b8 23 bd 81 dd 71 3c 2c fd 5e bd 50 47 4a 3d
       -0.03997081 0.014762283 -0.054440662 0.049384415
0001a0 b7 c3 21 3b 6a 98 c0 bd ab 98 5a 3d 31 0a d2 bd
       0.0024683306 -0.09404071 0.05336825 -0.1025585
0001b0 d6 5a 35 3d 88 4c a8 3d 2c 71 ab 3d 34 d6 57 3d
       0.04427608 0.08217722 0.08371195 0.052694514
0001c0 89 0a d1 3d 0b 00 c6 3b 1f 75 b8 3d 9a 89 90 3d
       0.102070875 0.0060424856 0.09006714 0.070574954
0001d0 c3 4b 34 bb 75 28 43 bc e8 2a ac bd f2 7d 5c 3d
       -0.0027510978 -0.011911501 -0.08406621 0.05383105
0001e0 bc 14 bb 3d 21 9f 6d bd 50 fe 54 3d 7f f7 05 bd
       0.09134814 -0.058013085 0.052000344 -0.032706734
0001f0 14 83 0f 3d 61 15 62 bd 0e 95 c8 bd 0f be 1d be
       0.035037115 -0.05519617 -0.09794055 -0.15404533
000200 64 bf 11 be 26 f7 f1 bd 25 40 09 3e 63 ae e8 3b
       -0.14233166 -0.11814718 0.13403375 0.0071008666
000210 60 d0 a4 be 62 70 09 3e aa 36 2c be 85 c6 25 be
       -0.32190228 0.13421777 -0.16817728 -0.1618901
000220 6f 31 54 3e 7a f6 9c 3e 4b 62 0e 3e a3 f1 d2 3e
       0.20721982 0.30656797 0.13904683 0.4119998
000230 9b 6d f1 3d f6 98 f5 3b 08 0b 51 3e 44 85 1c be
       0.11788484 0.007495041 0.20414364 -0.15285212
000240 23 27 9d 3c dd 5b 97 3e 57 1b 51 3e ad 12 1c 3e
       0.0191837 0.29562274 0.20420586 0.15241499
000250 ba 09 9e 3e a3 83 e4 3d 8c 66 41 bd 61 f8 33 be
       0.30866796 0.1115792 -0.047216937 -0.17575218
000260 78 c3 a8 3d 97 fd b2 bd 97 6c 7f 3d ad 91 34 3d
       0.08240408 -0.08739775 0.06235942 0.04408424
000270 00 b3 f3 3c 7d b3 ac bd eb 8e 3e 3d 31 37 df 3d
       0.02974844 -0.08432672 0.046523016 0.10899199
000280 19 a2 f7 3c ed b7 1b bd 65 a7 e9 3c d1 ca 95 bd
       0.030228661 -0.038017202 0.028522203 -0.07314075
000290 00 71 80 be 8c 11 b3 3b d8 00 85 3d 8c 19 a6 bd
       -0.25086212 0.0054647382 0.064943016 -0.081103414
0002a0 65 08 3c be f7 7b 2b 3e 6e 74 65 bd 11 6f 32 3e
       -0.18362577 0.16746508 -0.05601924 0.17425181
0002b0 7e 00 23 bd 99 bc 8e 3d c7 af 55 3e e4 39 8f 3e
       -0.03979539 0.06969566 0.20867835 0.27973855
0002c0 cc 44 b1 3e c5 39 62 3d 10 6e bb bd bb 48 37 bd
       0.346228 0.055230875 -0.09151852 -0.044747096
0002d0 b0 c8 85 bc 35 d4 10 be 46 cf c7 bd 3f 82 3a bb
       -0.016331047 -0.1414345 -0.09756331 -0.002845898
0002e0 33 2b 8b 3e ef 31 0b be 1c 5c 06 3e e0 74 2c bd
       0.27181396 -0.13593267 0.13121074 -0.04210365
0002f0 4b 8d 0d 3e 52 fe 02 3d 15 d7 23 bc 07 60 b0 3d
       0.1382343 0.03198082 -0.01000001 0.08612066
000300 c5 d2 67 3d ad 78 79 bc 0b f0 8a 3d 68 95 92 3c
       0.05659749 -0.015226525 0.06784066 0.017893508
000310 70 2e 2b 3d 21 ba 9e 3d 3e 87 0f bc 47 d5 3c 3d
       0.041792333 0.07750345 -0.008760272 0.046101835
000320 d1 0f 7f 3d be 73 ce bd 87 d9 ce 3d 52 20 8b bd
       0.062270943 -0.1008067 0.10100084 -0.06793274
000330 49 30 fd 3c 38 52 c1 3d eb 6c 2a bd e9 a6 5d bc
       0.030906813 0.0943951 -0.04160778 -0.013528564
000340 93 3a a7 3d d8 8d af bc 94 c1 ce 3d 00 f2 45 3d
       0.08165469 -0.021429941 0.10095516 0.048326492
000350 0f 84 01 3d fb 6d 15 3d 6e cc 33 3b 7b 10 b9 3c
       0.03162008 0.03648184 0.0027435082 0.022590866
000360 d9 c4 a2 bd 42 5f eb bd cb 69 2f bd 5a 2b 95 bd
       -0.07947702 -0.11492778 -0.0428255 -0.07283659
000370 b0 62 3b be 46 7c 09 3e 9f 5c 27 3e 93 29 67 bd
       -0.18299365 0.13426313 0.16343926 -0.056436133
000380 c8 ac 7e be b1 45 1d be ce 81 fe 3d cd f3 59 3e
       -0.24870598 -0.15358616 0.12427102 0.21284409
000390 93 e8 48 bd b3 6b 72 be d6 ab e5 3d 45 d3 9b 3d
       -0.049049925 -0.23673896 0.11214416 0.07608656
0003a0 23 b2 10 3d 6c 5c 00 bf c6 2d 88 3e f9 4c 8f be
       0.035326134 -0.50141025 0.26597422 -0.27988413
0003b0 5e fe 2a bc 81 7f c3 bd 02 c8 ed be 63 9a b7 be
       -0.010436622 -0.09545804 -0.46441656 -0.35859975
0003c0 09 9b 66 3e 82 ca 49 be 33 4d 86 be 2e 05 b7 3d
       0.22520079 -0.19706157 -0.26230773 0.08936535
0003d0 18 e6 82 3d ca 47 a7 3d bc 56 d6 bc 0e 55 8c 3d
       0.06391543 0.081679896 -0.026164405 0.068521604
0003e0 b5 97 14 bc b0 1b a1 bd 21 72 23 bd 7a 6e 7b bc
       -0.009069373 -0.07866609 -0.039903764 -0.015346164
0003f0 2a 1f 34 3c 34 7d 01 be 64 dd e0 bd 0b 02 08 bd
       0.010993758 -0.12645417 -0.10979727 -0.033205073

conv1.bias f4 [16]
000000 b6 25 06 3e 8b 62 1e bd 53 4b 20 3d 8a 52 e6 3d
       0.13100323 -0.038668197 0.039134335 0.11246212
000010 9c bd d4 3d b2 e6 56 3e a3 55 20 3e 2d 2d 85 bc
       0.103877276 0.20986441 0.15657668 -0.016256893
000020 01 2f 3a bb b3 88 37 3e 6b eb 96 bd 8b 6b 0c 3e
       -0.0028409364 0.1792324 -0.07369121 0.137129
000030 29 9f d5 bd 17 bd 7f 3d f2 d2 01 3d a9 89 22 3d
       -0.10430748 0.06243619 0.031695314 0.039682064

conv2.weight f4 [32, 16, 3, 3]
000000 76 56 56 be 6d 8e 89 3d 80 ae 28 be 22 6b 76 3d
       -0.2093142 0.06716619 -0.16472816 0.060160764
000010 65 03 69 bd d1 12 82 3d 31 d0 db 3d c2 0c 14 bd
       -0.056888003 0.06351245 0.10733069 -0.03614498
000020 ca 0a 38 3c c8 b8 e0 bd 95 35 e4 3d fa 2e 4e 3b
       0.011233041 -0.10972744 0.111430325 0.0031461106
000030 3f ed 8f 3d ea 16 1d 3e 0c 9c f2 3d f7 54 09 3e
       0.07027673 0.15340772 0.1184617 0.13411318
000040 7f 06 2a 3e 95 70 7d 3d e8 82 8e bd 54 98 d2 bd
       0.1660404 0.061874945 -0.06958562 -0.102829605
000050 1e dd a8 3d 31 5b b2 3d b6 97 85 3d e9 e2 0b bb
       0.082453 0.087088 0.06523077 -0.0021344966
000060 ec 85 93 3d 17 9c a9 3d 65 e2 ad bd 88 df 3a bb
       0.07203278 0.08281725 -0.08490447 -0.0028514583
000070 12 68 5a 3c 56 be 68 3d bd 17 9c bd f6 7c 91 3d
       0.013330476 0.056822143 -0.07621715 0.071039125
000080 67 5d f1 bc 73 c8 80 3c dd 5b 9b 3d 6b 22 13 be
       -0.029463483 0.015720582 0.07585881 -0.14368598
000090 9a 61 5a 3c 73 54 a2 bc df ee d6 3d 51 82 c8 3d
       0.013328934 -0.01981566 0.1049478 0.09790481
0000a0 9b 36 98 bd 4e c0 5a 3c d5 71 ba bc ad 96 e7 bd
       -0.0743229 0.013351513 -0.022759357 -0.11308036
0000b0 b5 5a 23 bd 76 f3 14 3e a8 42 ff 3d 4b 24 88 3c
       -0.039881427 0.14545998 0.124638855 0.016618868
0000c0 5d f2 96 bd 66 73 ba 3d 21 87 f0 bd 06 e9 60 bd
       -0.07370446 0.09104042 -0.11744524 -0.05490973
0000d0 67 af c3 3d 94 2c 56 3d 63 8a 14 be 99 9d e1 bd
       0.0955494 0.052288607 -0.14505915 -0.110163875
0000e0 64 27 07 3d 17 96 59 3d 7b b8 42 bd 80 8a 8a 3d
       0.03299655 0.053121652 -0.047539216 0.06764698
0000f0 42 03 49 bc d2 0b e7 bc e6 2e 32 be e7 45 c7 3d
       -0.012268843 -0.028203879 -0.17400703 0.0973013
000100 bf 57 25 3e 1f 68 df 3c 2b 4d f5 3b 23 e6 05 3e
       0.16146754 0.027271328 0.007486006 0.13076071
000110 75 9a ef bd ea c6 23 3c 78 f9 25 bd 52 72 dc bd
       -0.11699382 0.009996155 -0.040521115 -0.10763992
000120 2e 0d 56 3d e5 01 be 3c e9 fa 59 be 7e 30 c8 bb
       0.052258663 0.023194263 -0.21287121 -0.0061092963
000130 ea 4d 7d be 95 73 e9 3d a1 15 83 be e4 fa 67 3d
       -0.24736753 0.11398999 -0.2560244 0.056635752
000140 8c d1 c8 bc 1d 1b a0 bd 4b 5a 6b 3d 15 2a bf bd
       -0.024513982 -0.078176714 0.057459157 -0.093341984
000150 d4 77 9b 3d 01 b4 53 bd cc e7 32 bd 4e 1c 05 bd
       0.07591215 -0.051685337 -0.04367809 -0.032497697
000160 ed 77 d5 bd 70 14 19 be 2e 7b 2e 3b 5b bf 79 bd
       -0.10423265 -0.14949203 0.0026623714 -0.060973506
000170 1c 2a 0e bd aa 48 36 3d 8a dc 33 bd c6 6a 92 bd
       -0.034708127 0.04450289 -0.043911494 -0.07149272
000180 09 1c 83 3c 1b 4b 9e 3d 61 4f 88 bd 0b 05 8f be
       0.01600458 0.07729169 -0.06655765 -0.27933535
000190 ff 0a 8a 3d f1 d5 fc bd 79 e4 58 be 4a cd 24 3d
       0.067403786 -0.123454936 -0.21180905 0.04023484
0001a0 55 81 1e 3e ed ae f2 bd fe 1a a7 3d 8b 47 02 3e
       0.15479024 -0.11849771 0.08159445 0.12722604
0001b0 bb 29 e8 bd d1 00 2c bd d8 cb 7d 3e 0e 34 18 bd
       -0.113360845 -0.041992966 0.24784791 -0.03715902
0001c0 61 eb 44 3e 3c 73 6b 3d c5 48 26 be 32 6d 31 3e
       0.19230415 0.057482943 -0.16238697 0.17326811
0001d0 ea 45 08 bd 30 ab df 3d b6 c8 52 3e 14 13 ef 3d
       -0.0332698 0.10921323 0.20584378 0.11673561
0001e0 8a 05 ac bc b2 7e 5c bd 7b 2f 1d bd 12 c6 8b be
       -0.020998735 -0.053831764 -0.03837536 -0.27299553
0001f0 28 5b 80 3b bf e4 2b bd 04 c0 05 3e d3 88 9c 3d
       0.0039171167 -0.041966196 0.1306153 0.07643285
000200 60 89 07 3d fb 20 a8 bd 14 59 42 3d 83 66 ce bd
       0.033089995 -0.082094155 0.047448233 -0.10078146
000210 c1 3e 3c be ad 18 2b 3b 49 89 ea 3c 28 1f 15 3c
       -0.18383314 0.0026107237 0.028629916 0.0091016665
000220 22 da 42 bd 83 1a ca 3c 0a 20 88 bd a8 f4 c4 bd
       -0.04757131 0.024670845 -0.06646736 -0.09616977
000230 48 74 9b 3c 92 7c 7d bd 1b 4b 96 3d 02 fe 53 bd
       0.018976346 -0.061886378 0.07338544 -0.051755913
000240 7b b4 87 3d 33 d1 0f 3e ff 2b d5 3d ee b7 f3 3c
       0.06626221 0.14044647 0.10408782 0.02975079
000250 59 9a 53 3e 3b c7 8e 3c 04 b5 b2 bc 7e 63 e4 bc
       0.20664348 0.017428985 -0.02181483 -0.027879473
000260 06 06 1b 3d 4c cc 2b 3e 74 4f 73 3d fc ec c4 bc
       0.03784754 0.16777152 0.059401944 -0.024038784
000270 0b 99 91 bd a3 b9 98 bd c9 16 a6 bc b2 7c 5b bd
       -0.07109269 -0.074572824 -0.020274537 -0.053585716
000280 cc 55 9c 3d d7 a6 ea 3c 75 9c cf bc 8f cd fd 3c
       0.07633552 0.028644009 -0.02534316 0.030981807
000290 d9 a7 8f 3c 0b c1 5d bd 67 c6 e6 3c 09 5b 08 3e
       0.01753609 -0.05413918 0.028170777 0.13315977
0002a0 d7 3e 09 be 14 fc 0a be a4 53 bc 3d 40 a8 79 be
       -0.13402878 -0.13572723 0.09195641 -0.24380589
0002b0 43 84 6b bd e5 41 c5 3d 32 d7 4e 3c 42 23 00 3e
       -0.05749918 0.09631709 0.012624549 0.1251345
0002c0 f0 e4 47 bd ed 41 ef 3d 35 56 01 3d b4 43 b5 3d
       -0.048802316 0.11682496 0.031576354 0.08850804
0002d0 a4 55 2d bc 47 78 c7 bd 65 3b e0 bc 9d f7 2a 3d
       -0.0105795 -0.09739738 -0.027372072 0.04174005
0002e0 f9 9d e2 3d b3 57 1f 3e ea ea 4e 3d 07 ce 01 be
       0.11065287 0.15560798 0.050517 -0.1267625
0002f0 af 6e 97 3d 2a 9e 6b bc fb 39 3a 3d 3a f3 97 bd
       0.07394158 -0.014380971 0.04546545 -0.07419439
000300 9a 92 a5 3d aa 03 1e 3d 7c 85 e8 3c c2 c5 63 3d
       0.08084603 0.038577713 0.028383963 0.05560852
000310 c4 ee 37 3e 52 c7 f3 3d 3f 61 4a 3e e4 74 b2 bc
       0.17962176 0.11903252 0.19763659 -0.021784253
000320 d0 94 ca bd bd d6 13 3e 23 f8 ae 3c c2 0d e5 3d
       -0.09891665 0.14437385 0.021358555 0.11184265
000330 2c 30 1c 3e aa 64 13 3c a5 f1 02 bc ff 63 41 bd
       0.15252751 0.008996168 -0.007992183 -0.047214504
000340 ae ee e6 3d d3 ab bf 3c d2 43 5e be 1b 1c 09 be
       0.11275993 0.023397362 -0.21705559 -0.13389628
000350 15 98 51 3d c6 64 f4 bd c5 d5 0d be b9 90 c9 3d
       0.051170427 -0.119332835 -0.13851078 0.09842057
000360 55 9c fd 3d 1c b4 4e 3a 34 72 3f 3e e3 10 db bd
       0.123833336 0.0007885115 0.18695909 -0.1069658
000370 e7 59 19 be 1a 3b f8 bd 81 d6 4d bd 4c 5c 22 be
       -0.14975701 -0.12120648 -0.050253395 -0.15855521
000380 b4 dc c5 bc c6 82 ee 3d de 40 38 3e 8c c6 55 3a
       -0.024153091 0.11646037 0.17993495 0.0008154891
000390 af 00 72 3b ca d9 e2 3d bc 04 57 3d f9 e5 27 3c
       0.0036926677 0.11076696 0.05249475 0.010247701
0003a0 15 dc 89 3a 51 33 88 3d fc 6f c2 bc fb 91 bf bd
       0.001051786 0.06650413 -0.023735039 -0.093540154
0003b0 e9 56 60 3d 18 43 6f be 7e 23 87 be de 47 aa bb
       0.054770384 -0.23365438 -0.26394266 -0.0051965555
0003c0 c6 3c 0e be db c9 94 be ed 6e 51 bd 28 2c 82 3d
       -0.1389037 -0.29060254 -0.051131178 0.063560784
0003d0 91 29 e7 bc f0 a7 7c bd ba 7f f7 bd 5f 72 37 bd
       -0.028218063 -0.061683595 -0.12084909 -0.044786807
0003e0 89 8c a3 bd ba 29 0f 3d 45 a3 11 bd 44 02 1f 3d
       -0.07985789 0.034951903 -0.035556097 0.03882052
0003f0 c7 12 4e 3d 2c 8a 6a be b2 b7 5a be 69 46 2b bc
       0.050310876 -0.22904271 -0.21359137 -0.010453799

conv2.bias f4 [32]
000000 f8 d9 b1 bb dd 06 fc 3d 71 5b ba 3d a4 65 98 bd
       -0.005427595 0.123059966 0.09099472 -0.074412614
000010 c0 13 25 3d ef d9 e7 3d d7 30 57 bc ad ab 03 3e
       0.04030204 0.113208644 -0.013134203 0.12858458
000020 29 a6 83 bc 55 ca 8f bc d7 7c ba 3d 88 c6 a7 3d
       -0.016070442 -0.017552534 0.091058426 0.08192164
000030 06 63 05 3d 62 ab 1e 3d 42 64 e0 3c f7 01 2b 3d
       0.03256514 0.038737662 0.027391557 0.04174992
000040 ff 71 2f 3a bf 20 a9 3c e7 94 8f 3d 9b 68 76 3d
       0.0006692707 0.020645497 0.07010823 0.060158353
000050 8b 51 00 be 1b 4d 42 bb 1a 16 9c 3d 9d 85 72 3c
       -0.12531106 -0.002964801 0.07621403 0.014802364
000060 0a 6d ad 3c 52 c5 98 3d 9d ed e7 3d dc 4b 95 3c
       0.021170158 0.07459511 0.11324618 0.01822465
000070 e0 81 a0 bc 8c 30 4d 3d 87 0b f1 3c 52 da a2 3d
       -0.01959318 0.050095126 0.029424442 0.079517975

fc1.weight f4 [64, 800]
000000 36 ee 04 3d dd b3 df bc c1 42 c3 bc f6 53 a2 3c
       0.03245374 -0.027307445 -0.023835542 0.019815426
000010 63 f8 f9 3b 69 23 10 3d 9a 35 fa bc 11 2b ea 3c
       0.007628487 0.03519002 -0.030543137 0.028584989
000020 45 cc 7e 3c ae 26 e2 bb a4 ff 07 3d 5d 86 ca 3c
       0.015551631 -0.0069015836 0.033202782 0.024722273
000030 b9 e9 81 bc f3 8f c9 3c 9a 53 03 bd f9 bf 42 3c
       -0.015858518 0.024604773 -0.03206215 0.01188659
000040 c2 ad a3 bc ac f5 d9 bc 11 3d 40 bc ad 86 ad 3a
       -0.019980315 -0.026606403 -0.011733309 0.0013238989
000050 c4 8c cb bc 92 b8 b2 bb 49 dc 95 3c 8b 72 2e bd
       -0.024847396 -0.0054541314 0.018293517 -0.042589705
000060 e6 34 48 bc ec 7a c8 bc 59 ce 7b 3d fd a4 f6 bb
       -0.012219643 -0.024472676 0.061476085 -0.0075269924
000070 11 d2 21 3d 18 67 92 3c bd 0c 55 3d 03 e2 17 3c
       0.039506976 0.017871425 0.0520141 0.009270194
000080 91 0b 71 bd 35 47 03 bd aa e1 e4 3c 64 f9 03 3d
       -0.05884892 -0.03205033 0.027939636 0.03222026
000090 22 64 01 3d ca 6f 05 bd 4f 33 e9 3c ce 60 56 3c
       0.031589635 -0.032577313 0.028466849 0.0130846035
0000a0 33 88 22 bc 0f 77 ed bb ee df fe 3c 5e c3 ff bc
       -0.009920168 -0.007246859 0.031112637 -0.031221088
0000b0 25 2a 08 3c c6 36 c5 3b 64 d6 40 3d 96 6d 3f bc
       0.008310829 0.0060184924 0.04707946 -0.011683842
0000c0 de 9f f2 39 79 db 12 bc fa cf 63 3a e3 f0 db 3c
       0.00046276947 -0.008963459 0.0008690354 0.026848262
0000d0 6c a2 4e 3c 84 1e 58 bc fd c9 e1 bc f1 a0 19 3c
       0.012611967 -0.013190869 -0.027562136 0.00937675
0000e0 45 11 91 3c 2b 94 0c bc ca a9 a8 ba 68 28 e3 bc
       0.01770843 -0.008580248 -0.0012867984 -0.027729228
0000f0 ec 77 e2 bc df 1c 07 3d 14 f7 af bc b8 d4 28 bc
       -0.027645074 0.032986518 -0.02148012 -0.010304622
000100 12 7d a0 bc 0f 22 e0 bc 71 26 d6 3c c8 9b e7 bc
       -0.019590888 -0.02735999 0.026141377 -0.028272524
000110 5e 04 8a 3c c4 52 d4 bc eb 0c c5 3c 9b a3 c1 ba
       0.016847786 -0.025918372 0.024054011 -0.001477349
000120 7b 09 7d 3b dc 30 04 bc 40 5e 52 3c e2 07 3c bc
       0.0038610387 -0.00806829 0.012839854 -0.011476489
000130 f2 6c 99 3c 12 99 dd bb 64 44 1d 3c e6 df 0a bc
       0.018728707 -0.006762632 0.009598825 -0.008476233
000140 30 9d 38 3c 82 fd 21 bd 2f 1d 44 bc a2 70 a5 bc
       0.011267945 -0.039548405 -0.011969849 -0.02019531
000150 bb ba cd bc 22 de 12 bd af 06 e9 bb e0 78 77 bd
       -0.025113454 -0.035856374 -0.0071113924 -0.06041801
000160 7e 0d fe bc 03 c3 bb 3c 47 c1 1d bc 3b 7e 23 bd
       -0.031012293 0.022920137 -0.0096286 -0.039915305
000170 48 45 ec 3b d3 6d 1a 3c c2 d0 aa bc ed 00 71 bc
       0.0072104074 0.009425598 -0.020851497 -0.014709693
000180 0e c3 c5 bb ca d9 63 bd b6 dd 3f bb ed c7 ce bb
       -0.006035215 -0.05562762 -0.0029276437 -0.006310454
000190 96 ed 01 3c c5 07 fa bc a0 64 0b 3d 35 80 e3 3c
       0.00793018 -0.030521283 0.03403151 0.027771095
0001a0 c7 71 ca bb 78 96 01 bb 53 55 88 bc b8 45 80 3b
       -0.006178114 -0.0019773524 -0.016642248 0.003914561
0001b0 cb d2 e4 3c 0a fa a8 3c 45 7a c4 3c f9 de d3 bc
       0.027932545 0.02062704 0.023984084 -0.025863158
0001c0 6d 18 69 bb cf c0 f9 bc 47 aa 98 bc 68 34 f2 bc
       -0.0035567537 -0.030487446 -0.018635882 -0.029566005
0001d0 80 4d cf ba 4c e5 e4 3c 7b 32 31 bc eb 9d 05 bb
       -0.0015815943 0.027941369 -0.010815258 -0.0020388316
0001e0 d9 f8 a5 3c f0 6a 09 bd b4 5a b2 bc 6e 03 13 bd
       0.020260261 -0.03354925 -0.021771766 -0.035891943
0001f0 1c ae 89 bc 25 e2 89 bc d4 44 eb bb 2f c5 81 3c
       -0.016806655 -0.016831467 -0.007179836 0.015841095
000200 3f d2 a7 3c 68 ce f5 3c bb dc 7f bb 70 82 97 bc
       0.020485995 0.030005649 -0.0039041478 -0.018494815
000210 bb b4 55 3a 66 e3 a7 3b 1f c8 56 3c d3 1b 13 3d
       0.0008152236 0.0051235436 0.013109236 0.035915207
000220 27 3d 29 3c d0 54 e6 bc 0c 8d e8 3c 61 52 fe 38
       0.010329521 -0.028116614 0.028387569 0.00012127008
000230 86 f0 14 3b 2d aa 64 bc 1c f1 24 3c 70 97 93 bc
       0.002272637 -0.013956589 0.010067251 -0.018016547
000240 47 8e b1 bb 91 01 0e 3b dd 10 c6 3c 8d d4 a9 bc
       -0.005418572 0.0021668414 0.024177963 -0.020731235
000250 a7 5b fb 3c 9d c7 6f 3c 65 b0 5b 3c e0 30 b9 bc
       0.030683352 0.014634994 0.013408755 -0.022606313
000260 95 9e f2 bc 3f 52 b3 bc 63 e6 ad ba b1 76 58 3c
       -0.029616633 -0.021889804 -0.0013267513 0.013211892
000270 d7 ae c2 bc f2 92 22 bd fd 81 5a bd 6c 9f 4f bd
       -0.02376501 -0.03969092 -0.053346623 -0.050689146
000280 15 15 e3 3c c6 c9 df 3b 79 d6 29 bc 76 cd 97 bc
       0.027720014 0.006829473 -0.010366076 -0.018530589
000290 a1 68 83 bd 3e 25 a3 3c f4 30 8b bd 62 84 5d bd
       -0.06416441 0.01991522 -0.067964464 -0.05408133
0002a0 96 11 b0 bc 25 a5 4b 3c fb e6 44 3c 7a 30 ca bc
       -0.02149276 0.01242951 0.012017961 -0.024681319
0002b0 e6 bd b5 bc cb 28 75 bc 0c 04 2e bd c5 b3 88 bc
       -0.022185277 -0.014963339 -0.04248433 -0.016687283
0002c0 1e 9b e5 bc 33 0b 84 bc b0 b5 65 bc 7d 1b 1c bc
       -0.028028067 -0.016118621 -0.014020368 -0.009528038
0002d0 23 c2 b6 bc 01 55 8f bc 1d 76 00 bc d9 8d d0 3c
       -0.022309368 -0.017496588 -0.00784066 0.025458263
0002e0 bd a2 ab bc 71 7d a9 bc 2e 59 ad 39 1c 8c 7c bc
       -0.020951623 -0.020689698 0.00033063575 -0.015414264
0002f0 53 0c fa 3b f6 72 fe 3a ff f1 c5 bc ae c7 49 b9
       0.0076308637 0.0019412923 -0.024163244 -0.0001924324
000300 d3 bd 94 bb de 42 cf bc c0 52 ad bc 69 a7 89 bc
       -0.0045392304 -0.02530044 -0.021157622 -0.01680346
000310 f2 b5 02 bc 26 f2 e1 ba fc a7 14 3c c3 7b 5e 3c
       -0.007977949 -0.0017238304 0.009073254 0.013579312
000320 a7 ad 26 bc cd d0 d8 bc 74 fd 4a 3c 6b e4 d9 bb
       -0.010173238 -0.026466751 0.0123895295 -0.006649544
000330 7e 31 93 bc 85 9e 3f bc ec ca f0 3c 1c c1 5b 3b
       -0.017967936 -0.011695509 0.029393636 0.003353185
000340 30 df 70 3c 48 b5 94 3c 45 98 1d 3d 9d 9f bf 3a
       0.01470165 0.018152848 0.038475294 0.0014619712
000350 c0 e6 0c bd ed 70 1f bd b9 35 ff bc f0 c7 aa b9
       -0.034399748 -0.038926054 -0.031153547 -0.00032573892
000360 32 55 0e bb cb ae 26 3c 53 f2 d9 bc ac 3d 9c 3c
       -0.002171826 0.01017351 -0.026604807 0.019072376
000370 11 a4 b2 3c 5d 7e 45 bb 8b 26 57 bc 49 33 d7 bb
       0.021806749 -0.0030135133 -0.013131748 -0.006567393
000380 d7 49 ec bc ce f3 09 bd 68 28 69 3c 39 5b 89 3b
       -0.028843803 -0.033679776 0.014230825 0.004191783
000390 63 32 e1 ba cd d6 9a bc de 32 da 3a a6 0b 89 3b
       -0.0017181154 -0.018901253 0.001664724 0.004182297
0003a0 29 76 ef bc d2 ad 01 bd 6a 48 13 3b e5 3a bc bb
       -0.029231148 -0.03165991 0.0022473582 -0.0057443255
0003b0 ec 70 81 bb 43 a5 a0 3c 76 90 42 bb e3 4f 1d bd
       -0.003950229 0.019610053 -0.0029688156 -0.038406264
0003c0 90 dc a8 3c a1 f3 f8 ba dd e0 7b 3c 82 b8 b3 bc
       0.020612985 -0.0018993506 0.015373436 -0.021938566
0003d0 c0 3d 5b bc c6 b0 39 bc ff 45 06 bd fe c7 1d bc
       -0.013381422 -0.01133365 -0.032781597 -0.009630201
0003e0 a8 de 23 bd 95 be 7c bd a9 1d 14 3a 5e a0 91 3b
       -0.040007263 -0.06170519 0.00056501717 0.004444166
0003f0 ca f8 f6 bc ce 74 64 3a 73 15 b4 3c 09 4f d5 3c
       -0.030147929 0.0008714915 0.021982884 0.026038663

fc1.bias f4 [64]
000000 90 a5 e0 3c 15 88 4a bc 1f df 51 3d 83 6e 98 3d
       0.027422696 -0.012361546 0.051238175 0.074429534
000010 c7 21 80 3d b3 75 09 bd 95 d9 03 bc 2c 6d 27 3c
       0.062564425 -0.033559512 -0.008047481 0.0102189
000020 c8 03 00 3e 8d 42 9a 3d 6d 58 58 3d b0 35 87 3c
       0.12501442 0.07532225 0.052818704 0.016505092
000030 d5 4f d9 bc 38 ec a4 bc ad 0f 8c bc 1b de b2 3c
       -0.026527325 -0.02013217 -0.017097319 0.021834424
000040 35 9b 3c 3e 50 ed d4 3d 6a 67 1d 3e b5 d5 70 3c
       0.18418582 0.10396826 0.1537148 0.014699389
000050 b9 8a c0 bc 76 f0 ba 3d 72 3e ff bb cb 85 91 bc
       -0.023503648 0.091278955 -0.0077894265 -0.017763993
000060 9b d2 de 3c 89 86 82 3d 04 dd 68 bc 83 75 1b bd
       0.027200034 0.06373317 -0.0142128505 -0.037953865
000070 9b 73 04 bd 55 3c 11 3c b7 13 1d bd ae 2a ca 3c
       -0.032336812 0.008864482 -0.03834888 0.024678554
000080 ba e2 1d 3c 85 bb ae 3c f6 f5 24 bd 13 7f df 3c
       0.009636575 0.02132965 -0.04027363 0.027282273
000090 c4 ff 2b 3d c7 6e 1f bc 66 82 81 3d e1 a5 1e bd
       0.041991964 -0.009731001 0.063237 -0.038732413
0000a0 73 43 50 3d ba 62 0e 3d d1 a3 09 3b 96 20 c5 38
       0.050845575 0.03476212 0.0021002183 9.3997616e-05
0000b0 f8 ba 28 bd 1d 52 ac 3c ac 26 09 bd 9f 23 16 3d
       -0.041193932 0.021035248 -0.033484146 0.036655065
0000c0 cd 5d 7e bd 82 16 6d 3d 9c e8 5c 3d 82 85 75 bc
       -0.062101174 0.057882793 0.05393277 -0.014985444
0000d0 24 8f 91 ba a9 49 07 bd a4 36 81 3d d9 0f bc 3d
       -0.0011105281 -0.033029232 0.0630925 0.0918271
0000e0 ca d9 d9 3b 9a bd 09 bd a6 8f ec 3b 1f 5a 01 bd
       0.006648277 -0.033628084 0.0072192727 -0.031580087
0000f0 04 34 02 bc 29 fc 9e 3a ef 6f 93 bc 40 84 46 3d
       -0.007946972 0.0012129593 -0.01799771 0.048465967

fc2.weight f4 [64, 64]
000000 74 08 5b bd 80 e6 ab 3b 32 33 90 3b cc 8e 3a bc
       -0.05347486 0.0052459836 0.004400634 -0.0113865845
000010 5b 22 07 be 40 8f fe 3c 8a a3 e6 bd 14 2a e0 3d
       -0.131967 0.031074166 -0.11261661 0.10945526
000020 56 68 8a bd e3 c2 c8 b7 c5 76 85 3d 00 14 c4 3b
       -0.06758182 -2.393261e-05 0.06516794 0.0059838295
000030 88 ee fb bd e0 53 65 3c 40 a2 ff bb 90 d9 f9 bc
       -0.123013556 0.013997048 -0.007801324 -0.03049925
000040 e8 25 09 be 63 5b bd bd 0a 55 92 bc d4 95 5f bd
       -0.13393366 -0.09245946 -0.017862815 -0.054586247
000050 80 fe 8d 3b 6a 99 24 bd 40 fa 63 3d 60 20 2d 3c
       0.0043333173 -0.04018537 0.05565858 0.010566801
000060 da e3 be 3d 59 2c 7c bd 2a 1d c6 bd 40 db 23 bd
       0.09320803 -0.06156573 -0.09673531 -0.040004015
000070 38 dd 5a bd a0 0b 74 bc e0 b1 d6 3d e0 86 f1 bb
       -0.053433627 -0.01489535 0.10483146 -0.0073708147
000080 90 f3 e5 bc fa e2 86 3d 00 f8 5b bd a2 36 a7 bd
       -0.028070241 0.06586261 -0.053703308 -0.08164717
000090 99 96 57 3d 9c 50 fe 3d 1b f7 df bd 0a e2 e2 3d
       0.052633855 0.12417719 -0.109358035 0.1107827
0000a0 21 11 4f 3d aa bd f7 bd 50 5f b7 3c 70 1d 82 bc
       0.050553445 -0.120967224 0.022384316 -0.015883178
0000b0 14 7e 0b 3d 40 3b ad 3b 14 06 25 3d e0 df a5 bd
       0.034055784 0.005286604 0.040289 -0.080993414
0000c0 42 d1 fb 3d 6a d7 9b 3d 94 6a f4 bd 54 83 71 3d
       0.12295772 0.07609446 -0.11934391 0.058963135
0000d0 08 8c d1 bc a0 f7 a2 3b d3 97 65 bd e7 38 a6 bd
       -0.025579467 0.004973367 -0.056052994 -0.08116322
0000e0 22 1a d6 bd 1e fd 82 3d 18 12 a6 3c a8 b9 f3 3d
       -0.10454203 0.063959345 0.0202723 0.119006455
0000f0 d6 6c fc 3d 6a f7 a2 3c a8 87 e0 bd 46 9f ef bc
       0.12325446 0.019893367 -0.109633744 -0.029250752
000100 54 e2 4e bc e8 7a d0 bd d1 ff ef 3c 5b 09 2c 3e
       -0.012627203 -0.101796925 0.029296787 0.16800444
000110 c5 f8 24 3e 01 c4 df bd 84 cf 21 3e 5e ce 38 3d
       0.16110523 -0.10926057 0.15801817 0.045118682
000120 95 04 0a bd 1b 00 8d 3d 2c 77 02 3e 47 b0 74 bd
       -0.033695776 0.06884786 0.12740773 -0.059738424
000130 06 c2 6b bc 4a 22 20 3c 3e 75 83 3b 4f 4c 07 3e
       -0.0143895205 0.0097738 0.004011779 0.13212703
000140 2f ab b4 bd 4d a4 dc bb 2f 0b c7 bd cc 29 e5 bd
       -0.08821713 -0.0067334534 -0.0971893 -0.11189613
000150 42 de 64 3d ef 1f 29 3e 2a 3a fc bd d3 c7 84 bd
       0.055876024 0.16516088 -0.123157814 -0.06483426
000160 84 f1 22 3e e3 85 7c bd 1b a3 41 bd 49 70 8c ba
       0.15912443 -0.06165112 -0.04727469 -0.0010714616
000170 a7 64 78 3d 8f d6 e9 3d b6 62 23 3d 1e 64 96 bd
       0.060642865 0.11417877 0.03988906 -0.073433146
000180 4b 01 30 3d c7 69 a6 bc 27 b9 8b 3d 64 f9 3b bd
       0.042969983 -0.02031411 0.068224244 -0.045892134
000190 b0 17 b6 3d 95 59 71 3d 58 52 b6 bd 0f 0a 4b bd
       0.08891237 0.058923323 -0.089024246 -0.04957014
0001a0 ac 61 ab 3d 0a a6 2d 3e 66 78 4f 3e 63 af 96 3c
       0.08368239 0.1695787 0.20260772 0.018394178
0001b0 36 d9 91 3d d6 32 03 bd 63 2d ad bd 40 af 41 3c
       0.07121508 -0.032030903 -0.084559225 0.011821568
0001c0 df 18 02 3d 7f 30 8e bd 5b 08 e7 3d 99 0d 75 bc
       0.031762 -0.06942844 0.112808906 -0.014956855
0001d0 24 fd c3 bc 26 51 ab bc 21 f1 0c 3c 4b 52 5b bd
       -0.023924418 -0.020912718 0.0086024115 -0.053545278
0001e0 d3 f7 7f 3c 73 9a 99 3d 3f cb 19 3c 66 a8 a8 bd
       0.015623051 0.07500162 0.009386837 -0.082352445
0001f0 54 1b a9 3c 62 e6 ab bd 5c 2f 6c 3d 87 c2 81 3d
       0.020642914 -0.083935514 0.057662353 0.06335931
000200 98 e3 19 bd 80 00 f2 ba fa 1b 49 bd 4e 99 5c bd
       -0.037570566 -0.0018463284 -0.049098946 -0.05385714
000210 14 b6 60 bd 6c 66 91 bd 17 49 14 3c 90 cf 8e bd
       -0.054861143 -0.070996135 0.009050629 -0.06973183
000220 04 4e 5b bd ec 12 a0 3d 7e dd 99 bd 85 fa 80 bd
       -0.0535412 0.07816109 -0.075129494 -0.06297783
000230 32 5d c7 3d cc c2 be 3d b8 c2 7e 3d f6 22 6d 3d
       0.097345725 0.09314498 0.062197417 0.05789467
000240 ec c2 c9 bd 8f b8 9d bd 5c 0f 9b 3d eb 76 c8 bd
       -0.098516315 -0.077012174 0.07571289 -0.09788307
000250 40 6e bd bd e8 8e aa bd 8b 48 09 bc 08 93 c3 bc
       -0.09249544 -0.083280385 -0.008379112 -0.02387382
000260 1c 5c 33 3d e4 26 72 bb 28 d4 1d bd a6 bc ea 3d
       0.043789014 -0.003694945 -0.038532406 0.11461763
000270 88 18 2e bd 07 db b0 bd b8 32 86 bc ac 48 60 3d
       -0.042503864 -0.08635526 -0.016381606 0.054756805
000280 aa d5 ff 3d 09 34 09 3e 14 ee 4c bd 50 76 4b 3c
       0.12491925 0.13398756 -0.050031736 0.012418345
000290 17 f1 90 3b b6 ec 84 3d b2 0c 3a bc 76 ce 86 3d
       0.0044232714 0.064904615 -0.011355566 0.06582348
0002a0 c9 b1 85 3c 10 e2 18 be 84 f5 0e be 94 27 3c 3d
       0.016320126 -0.14929986 -0.13960844 0.045936182
0002b0 8d 60 07 bd 36 0c be 3c 60 1d 34 bd 23 69 16 bc
       -0.033051062 0.023199182 -0.043973327 -0.00918034
0002c0 fe 25 5f bd b5 18 3d be c2 ae a8 bc 41 6d b3 bd
       -0.05447959 -0.18466456 -0.020591144 -0.08761073
0002d0 80 e1 92 3d ac 0a 7b 3d 54 b5 c8 3d 06 26 fb 3c
       0.07171917 0.061289474 0.098002106 0.03065778
0002e0 48 ea ae 3b b2 42 a0 3d 9f ee dc bd f0 94 63 3c
       0.005337987 0.07825221 -0.10787701 0.01389049
0002f0 52 95 dc bd 77 37 3d 3d 96 17 c5 bd 90 da 9b 3d
       -0.10770668 0.046195474 -0.09623639 0.07610047
000300 3c c9 d7 bd 00 95 2a 3d 6f 7f fa 3c 19 41 59 bd
       -0.10536429 0.041646004 0.030578343 -0.053040598
000310 0b b1 9a bd ba 15 d6 3d e9 a6 94 bd 66 75 cd bc
       -0.075532995 0.10453363 -0.07258398 -0.025080394
000320 26 2f a0 3d 31 c0 3d bb 33 7a 14 be 61 ed a8 3d
       0.07821493 -0.0028953666 -0.1449974 0.082484014
000330 01 5e 97 bb 27 a0 dd bd 62 a8 f4 3d 3a d1 c5 bc
       -0.0046193604 -0.10821562 0.11946179 -0.024147619
000340 3c 7f 2d bd 70 a5 ec bd 9a de 11 be 01 8e d3 bd
       -0.04235767 -0.11554992 -0.14245072 -0.103298195
000350 b5 88 17 bd 39 0e c3 bd fa 5a eb 3d 7c 7d a5 3d
       -0.03699561 -0.09524197 0.11491962 0.08080575
000360 33 75 fc 3a 6a 42 b0 bd 6f 43 9c 3d 40 62 da 3d
       0.0019261002 -0.086064175 0.076300494 0.10663271
000370 fc ef b0 bd ca 7d b2 bc 60 db 02 3d c7 39 a7 3d
       -0.086395234 -0.021788497 0.031947494 0.08165317
000380 a7 23 4e bd dd c2 b3 3c 70 94 53 3d 3e 58 ac bc
       -0.05032697 0.021943504 0.051655233 -0.02103817
000390 d0 89 c1 bc 40 f6 e1 bb d8 de 3e 3d a7 ea 26 3d
       -0.023625284 -0.0068958104 0.04659924 0.040751126
0003a0 e8 28 4c 3d ed 32 a7 3c d4 96 d9 bb 83 a7 e8 3d
       0.0498437 0.020410025 -0.0066402946 0.11360075
0003b0 4c 08 10 bc 88 72 e6 3d ec 91 03 3d 3c cf a1 bd
       -0.008791041 0.11252314 0.032121584 -0.07900855
0003c0 32 85 47 bd 93 c4 f4 3c f9 39 91 3d c3 db e4 3d
       -0.04871101 0.02987889 0.070911355 0.11174729
0003d0 c5 e6 d4 bd aa c9 b0 3d c5 d1 00 be 7c 80 a9 bd
       -0.10395578 0.08632214 -0.1258002 -0.082764596
0003e0 32 e3 b6 3c 14 b3 df 3d 4e 0b 52 bb 51 cd 02 3d
       0.022325132 0.10922828 -0.0032050195 0.031934086
0003f0 80 57 b8 3d 39 5c fe bc 30 b9 f2 bc 88 e3 1e be
       0.09001064 -0.031049835 -0.02962932 -0.15516484

fc2.bias f4 [64]
000000 95 97 d4 bd 42 1c b9 3d 9c fa ad 3c 48 51 f8 3d
       -0.103804745 0.09038593 0.021237664 0.12124878
000010 85 d7 47 bb 09 ae e1 3c 14 75 3b 3e b1 b3 ac bd
       -0.003049345 0.027548807 0.1830638 -0.08432711
000020 50 3a b4 3d d8 d1 a8 3d 7f 59 35 3d 79 e1 17 bd
       0.08800185 0.082431495 0.044274803 -0.03708026
000030 3c 49 ed 3d 84 93 05 3c e7 80 cd 3d de 65 16 3d
       0.11586234 0.008152846 0.10034352 0.036718242
000040 b1 f7 2c 3d f3 b2 1e be 59 6a 79 3e c8 e6 a8 3c
       0.042228404 -0.15497951 0.24356975 0.020617858
000050 55 41 a6 3d a8 32 1c bd fa c1 8b bc 3c 19 97 3d
       0.0811793 -0.038134247 -0.017060269 0.0737786
000060 3f 28 fd 3d 93 33 53 bc e6 9d e7 3c f6 d2 1a 3d
       0.12361192 -0.012890714 0.028273534 0.037798844
000070 4f e1 0d 3d 30 df db 3d 4c 95 90 bd 1c 86 8e 3d
       0.0346387 0.10735929 -0.07059726 0.06959173
000080 94 fa 0a be 89 fc c2 bd 16 c3 52 3d 72 ae fd 3d
       -0.1357215 -0.095208235 0.05145558 0.123867884
000090 41 ac 55 be 6d 14 de bc 67 22 18 3d 51 01 23 3e
       -0.20866491 -0.02710935 0.037142184 0.15918471
0000a0 10 0e 13 3e 93 7b 1a 3e 8c f6 bf 3d 0f 60 0b 3c
       0.14360833 0.15086202 0.09373197 0.008506789
0000b0 2a 61 4e bb cd 7d 4d 3d d6 75 08 3e c2 e1 23 3a
       -0.003149102 0.0501688 0.13326201 0.0006251597
0000c0 85 96 0b be 1a fc cf 3d 66 0e 38 3d 39 25 28 3e
       -0.13631637 0.101555064 0.044935606 0.1642045
0000d0 05 66 4c 3d 01 24 0f bd 11 01 95 bd 9a b7 80 3d
       0.04990198 -0.034946445 -0.07275594 0.06285019
0000e0 19 b9 56 3d e9 85 d9 3d 47 69 8e 3c 48 d1 97 3d
       0.052422617 0.106212445 0.017384185 0.07412964
0000f0 4a 86 07 3e 97 36 04 3e f8 b7 73 3d fb 6b 4d 3b
       0.13234821 0.1291145 0.05950162 0.003134488

fc3.weight f4 [7, 64]
000000 2b 34 5c 3b 6e 1b 0b be 71 c0 cb bd 6f 4a ef bd
       0.003360043 -0.13584682 -0.09948815 -0.11684119
000010 c6 1f 0d be a1 ad 61 bd 1a d8 5b 3e 4b 2d 53 3d
       -0.13781652 -0.055097226 0.21469155 0.051556867
000020 35 62 f7 3d b8 a4 46 bc fa fe f5 bd a7 74 c3 bd
       0.120792784 -0.012124233 -0.120115235 -0.09543734
000030 89 53 e9 bd 29 a2 10 bc 40 65 07 3e b3 98 32 bc
       -0.11392886 -0.0088277245 0.13222218 -0.010900664
000040 23 6f be bd 70 83 35 be c7 26 4c 3e 57 de 8a bc
       -0.092985414 -0.1772592 0.19936667 -0.016951723
000050 7d 52 9f bc 9c f5 1a 3e c1 36 62 3d ed 85 2f 3e
       -0.019448513 0.15132755 0.055228 0.17140932
000060 08 98 63 be 77 50 0e 3e f4 d1 b1 3d 94 03 c7 bd
       -0.22225964 0.13897882 0.086826235 -0.09717479
000070 e7 81 a9 3d 27 73 ba bc 17 29 92 bc 37 71 42 3d
       0.0827673 -0.022759987 -0.017841859 0.04747125
000080 f7 07 26 3b 79 c5 d9 3b 3e 3e 33 3d 53 82 01 3e
       0.0025334337 0.006645855 0.04376053 0.12647371
000090 6d f7 53 bd ad 56 1b be 7b e0 3a bd 39 39 86 3d
       -0.051749635 -0.15169783 -0.045624238 0.06553883
0000a0 4f 8b 33 3e 9b 67 fa 3d 34 b3 97 bd 26 ba e2 bd
       0.17533611 0.122267924 -0.07407227 -0.11070661
0000b0 f5 5e a8 3d 4a 56 e2 3d fa 39 57 3e ab 77 3f 3e
       0.082212366 0.110516146 0.2101821 0.18697993
0000c0 df f2 1a bd 85 28 60 bd 8e e5 80 bd 35 43 32 be
       -0.037829276 -0.054726142 -0.06293784 -0.1740845
0000d0 9b e3 02 be e2 1a d9 3c 2a 36 2a 3d c0 ba ce bc
       -0.12782137 0.026502077 0.04155556 -0.025235534
0000e0 b6 0e 93 3d ea d1 06 bd db d5 0b be 2d cd 88 3c
       0.0718054 -0.032915033 -0.13655798 0.016699398
0000f0 e3 c4 4b bd e0 6e 18 3c 9b 48 00 be 78 da a2 bc
       -0.049748313 0.009303778 -0.12527697 -0.019879565
000100 a3 ee dd 3d 0b c4 45 3d f8 96 d2 bc b3 e7 17 bc
       0.10836532 0.048282664 -0.025706753 -0.00927155
000110 07 dd e4 bd dc ed a4 3d 23 f8 a8 3e 60 c9 74 3e
       -0.1117497 0.080531806 0.33001813 0.23904943
000120 8b c7 2b 3e a0 d3 b0 3d 63 6b 8f 3d 8e 4d 42 bd
       0.16775338 0.08634114 0.07002904 -0.047437243
000130 12 37 4d bb e0 d4 8c 3c d9 df 5c 3e 1b fe d1 3c
       -0.0031313342 0.01719135 0.21569766 0.025633862
000140 87 40 4a 3c c8 b1 91 bd c7 e4 47 3e a6 87 94 3d
       0.012344486 -0.07113987 0.19520865 0.072524354
000150 7d 9c c3 bb aa 78 24 3e 2b 42 0a 3e 8f 98 d8 bc
       -0.0059695826 0.16061655 0.13501804 -0.026439933
000160 4a 0e d9 3c 4d 8f 97 bd c4 fe ae 3e 5a 7b c6 bd
       0.026496071 -0.07400379 0.34178746 -0.09691496
000170 78 16 89 bc 35 f6 0f 3e fd a8 e1 bd 52 d7 8e 3d
       -0.016734347 0.14058764 -0.1101856 0.06974663
000180 00 74 e8 3c 5c 6b f9 bc b2 99 29 3d c1 59 4b 3e
       0.028375626 -0.0304467 0.04140634 0.19858457
000190 5a 53 16 be 97 b9 28 3e d7 7d 1f bd d7 65 a0 3c
       -0.14680234 0.16477047 -0.03893837 0.019579811
0001a0 57 4f a1 bc 98 8c 80 bd f0 91 da 3d 51 a5 43 3d
       -0.019691152 -0.06276816 0.106723666 0.04776508
0001b0 55 62 e2 bd 42 12 ce bd d5 d9 60 bd dc a3 b9 bd
       -0.110539116 -0.10062076 -0.05489524 -0.09064457
0001c0 16 aa e1 bd c1 6c 10 be 8c f0 0d 3d b2 21 1f 3e
       -0.110187694 -0.14103986 0.03465323 0.15540197
0001d0 c2 5b 47 be ed 0e 1a 3e cb 0e 27 be 36 2d 67 3d
       -0.19468597 0.15044756 -0.16314237 0.0564396
0001e0 80 c2 3b 3c 5f 2d 2a be 4a d0 56 3e 90 da 4b 3c
       0.011459947 -0.1661887 0.20977893 0.012442246
0001f0 1f 51 89 bc b7 05 23 be fb 10 dc 3d 33 bb c4 bd
       -0.016762314 -0.15920149 0.10745426 -0.09606018
000200 82 4f f9 3d d5 82 cd bd 0a 55 c8 bc 76 55 11 3d
       0.12173368 -0.1003472 -0.024454612 0.035481893
000210 23 15 64 3e 9f f2 8f bd 33 d5 a5 bd fd 8a 0c 3e
       0.22273688 -0.07028698 -0.08097305 0.13724895
000220 b0 2b 82 3d fd 45 19 bd cb 06 50 3d 0d ae 1e 3d
       0.06355989 -0.03742026 0.05078773 0.038740207
000230 7a 0a f7 3d 6f 99 1e bd a3 2e c1 bd 08 d5 1f 3d
       0.12062545 -0.038720544 -0.094327234 0.03902152
000240 28 b3 09 be 35 bf 2f be 10 fd 4f 3e 0c c5 04 be
       -0.13447249 -0.17162783 0.2031138 -0.12965792
000250 81 f0 26 3c 5b 88 25 3e 5a 4e 31 3d e3 71 07 be
       0.010189177 0.16165297 0.043287612 -0.13227038
000260 7a 4c 1a 3d 9a 80 0e 3e ec 54 d4 bd 6a 6a 85 bc
       0.03767059 0.13916245 -0.1036776 -0.016286094
000270 9d e3 05 bd 1e 4b 1f 3e a4 41 16 bd 2f fb 2e 3e
       -0.032687772 0.15555999 -0.036683694 0.17088006
000280 40 58 94 3b e0 82 0f bd 22 69 87 3c 6e af 32 3e
       0.004527122 -0.03503692 0.016529623 0.17449734
000290 a6 a2 16 bd 25 6d c9 bd 82 1b c8 3d 86 7f 1c 3e
       -0.036776207 -0.09835271 0.09770872 0.15283021
0002a0 0b 82 e0 bd 51 ea 0f 3c fa 40 79 3d 05 8b 59 3e
       -0.10962304 0.008783893 0.060852982 0.21244438
0002b0 e5 d1 06 3c af eb 48 3d e9 05 ad 3c 09 2b 81 3e
       0.008228754 0.04905289 0.021120982 0.25228146
0002c0 10 41 b6 bc 05 09 83 bd e2 01 b9 3d 15 53 1a 3e
       -0.022247821 -0.06398205 0.09033562 0.15070756
0002d0 8b b1 9c bd 0f 74 3f 3c c7 5e 0b be c7 b5 64 3d
       -0.07651051 0.011685385 -0.13610373 0.05583742
0002e0 d1 2f 82 3a 22 bd c0 3d 64 0b 0d be 85 34 a2 3d
       0.0009932463 0.09411074 -0.13773876 0.079201736
0002f0 b9 4a 5e 3d 5a b4 12 be 8b 1c 38 3c 95 87 d0 bd
       0.05427048 -0.14326611 0.011237274 -0.1018211
000300 a2 46 b6 bd de 86 da bd 09 39 60 3b 15 98 e3 bd
       -0.08900191 -0.10670255 0.0034213683 -0.11112992
000310 04 ac c7 bd 10 23 9d 3d b2 33 03 3e 65 b0 7b be
       -0.09749606 0.07672703 0.12812689 -0.24579008
000320 94 ca 68 3d 12 0b 70 3c fb af c9 3b 3e cd 05 be
       0.05683382 0.014651077 0.0061550117 -0.13066575
000330 5d de 1b 3e 09 8b 9f bd 36 11 a7 bc 45 01 82 be
       0.15221544 -0.07790191 -0.020393949 -0.25391594
000340 c6 98 a4 bd 2e a3 a4 bd 5d 17 94 3e b1 a6 33 be
       -0.08036952 -0.080389366 0.28924075 -0.17544056
000350 cb c2 4b bc 79 8e 71 be b7 d4 1f 3e 68 84 27 3e
       -0.012436579 -0.23589505 0.15608488 0.16359103
000360 8f a2 a2 bd 90 10 37 3e 59 c1 de bc d1 c5 e7 bd
       -0.07941162 0.17877412 -0.027191805 -0.11317027
000370 47 0c da 3d a3 cb b1 bd 54 ef da bd 97 89 53 3e
       0.10646873 -0.08681419 -0.106901795 0.20657955
000380 13 87 be 3b b2 21 df bc 85 d7 52 3c 81 e1 45 3e
       0.005814442 -0.027237747 0.012868767 0.19324304
000390 4e 84 97 be 17 15 8d 3d 46 22 01 be 5d c1 07 3e
       -0.29593128 0.06888788 -0.1261073 0.13257356
0003a0 d1 ed 9e bd c6 e7 f8 bd 4d 12 01 bd 51 5f 45 3e
       -0.07760204 -0.12153582 -0.031511594 0.19274642
0003b0 15 3f 98 3d 0b 15 f3 3d 96 3f b4 3d e6 5a 9f bd
       0.07433907 0.11869248 0.088011906 -0.077810094
0003c0 40 6b e2 3b b2 dd b8 3b 62 fe 75 bd 75 c0 f1 3d
       0.006909758 0.0056416625 -0.06005705 0.118042864
0003d0 e9 55 2e be 60 ea a3 bd 18 15 ee bd 84 64 21 3e
       -0.1702496 -0.08003688 -0.11625117 0.15761
0003e0 18 29 5c 3d ce c3 09 3c 27 be 49 3d a3 54 aa 3d
       0.053750128 0.0084085 0.04925361 0.083169244
0003f0 5f cd 40 3e 86 d8 ab 3c 86 28 ff bd 1b 6e 66 3e
       0.18828343 0.02097727 -0.12458901 0.2250294

fc3.bias f4 [7]
000000 7d ab 49 3d 65 c5 ee 3d c7 15 ad 3d fd d4 1d 3e
       0.04923581 0.11658744 0.08451419 0.1541328
000010 f2 43 0f 3e c4 f8 4f 3e 65 e1 38 be
       0.13990763 0.2030974 -0.18054731
