src/models/v1_simplest_env_10x10_1agent_0human_0shelves_1pickup_1dropoff.pth (torch, 252652 bytes, 10 tensors)

conv1.weight f4 [16, 10, 3, 3]
00000000: 56c1 553e 41b9 2fbf 0f81 33bc d3bc 35bf
00000010: 5c95 843e 25b7 ab3e 09ce 623e b132 8a3d
00000020: 556f b93e 165b 403d 9915 6bbd 284b 32bc
00000030: 382b 49bc f39f c7bd aa39 4d3d de7c 033d
00000040: 4557 c93d 71ff 863d 22b9 263d 2e4b 2b3d
00000050: b5dd a23d aaca 4d3d 908a 103c e874 81bd
00000060: 2195 b33d 66bd 583d 34b1 16bd 0055 ceba
00000070: 203d 69bc ab5d 33bd 18fe 28bd 60a8 e2bc
00000080: 8e64 133d 964b 463d 9253 5e3d ddba cfbd
00000090: ec5c 393e c22a 76be 978f 7f3e d771 cdbe
000000a0: ff74 b9bd 55e4 c13b f1db 4dbd 18dc 48bc
000000b0: 8215 d3be 2df7 5d3e cb9c 74be f47c 98be
000000c0: b5e7 9dbe 4bd4 5abd fdac 913d e451 36be
000000d0: f46e a0bc ec9b 513d c1a1 77bd 102c 4abf
000000e0: 1350 f4bd b084 17be 5ff4 a13e ff12 19bc
000000f0: 618b fd3d 0bd1 073e 1d26 5fbe ecf3 273d
00000100: ae9d bc3d 8648 883b efbc 4a3e 27a4 953d
00000110: 4d82 833d d95c a43b 0784 c9bd 4cfe 01be
00000120: 10b5 1f3e 967d 92be f29b b03e 987e acbe
00000130: 1356 41bd a10f c93d 23b8 bc3d 66f8 bbbd
00000140: 82c3 e5be 3dde 2a3d e653 853e 5c06 923c
00000150: 01e7 943e f2ae 0cbd 8492 923b 9474 17be
00000160: e007 89bd 90ee 2fbe d55a 803e 8ff7 813e
00000170: 1883 af3d 7524 ae3d 0f6c 8abe 8b21 9f3d
00000180: b423 4d3d 41d2 0f3e be1a 00bd b677 423d
00000190: 3ca3 a53c 535e 833d 6267 6b3d 074b b13d
000001a0: 95a3 b23d d638 afbd 4014 fe3b 0b6f 41bd
000001b0: c298 023d 9cc7 aebd 7210 5f3d 11c5 64bd
000001c0: a48a f13c f0c0 9cbc b5e0 ad3d 200b 13bb
000001d0: 1c11 bd3c 8432 82bc 2b85 9bbd c078 d1bb
000001e0: 2c00 e83c 1488 d9bc d8b5 d6bc d956 b13d
000001f0: 1bf2 c83d b495 e7bc 1ee1 abbc 72e9 c3be
00000200: d078 2ebd 1f67 e2be 13d6 96be 3627 98be
00000210: a3d8 68be 0bde 67be 2272 aabe f7f7 c3bd
00000220: e0a6 58be 870a 553e b04b 40bc 1875 843d
00000230: f309 193c 6f22 e63e 88e6 a13e 460d 183f
00000240: d396 20be 9223 e33e 54f2 a9be 95d3 a83d
00000250: 23d2 2c3e 2aa3 4b3e 6cfc 303e 2c4f 1a3e
00000260: b2ff 503f 1e5c f53d 486c 8cbc d23e ed3d
00000270: 1def e63b 6d1f 933d 32ee 8b3d 6269 b33d
00000280: 759e 903d 44d4 773d fdfc 1cbd 1af2 a4be
00000290: f745 39bd a57b 8dbe c72f cabe 726e 17be
000002a0: 6a45 a1be 60fa c4be 93a4 bcbe 696b 9ebe
000002b0: afaa 17bd c73f c03d b844 87bd 0f30 983e
000002c0: 77a1 713e 553e eebd 9969 2b3e 5368 f2ba
000002d0: f7e1 413e 06e6 143e 0be6 6c3e b3ab a8be
000002e0: d924 053e 2c81 66be 5f01 923e 0e01 673e
000002f0: da31 7a3e cbb4 aebd 3cb1 de3c f478 cb3c
00000300: ffa5 a73d b889 683c 7b3f 843d 3767 7fbd
00000310: ec6f 9a3c 6b5b adbd 35bf 94bd 9ab4 3cbd
00000320: ce81 723d c126 65bd 7239 053d 9172 a7bd
00000330: 2a86 1d3d 64a9 d63c 0070 053b 6213 443d
00000340: 8000 803b 1670 94bd 2866 67bc f6d3 2f3d
00000350: e0b6 cebc a055 44bb c1db 813d e442 8e3c
00000360: 8649 2b3e 54c9 503e 74fc ed3c 25c4 643e
00000370: df79 07bc 5f67 76be 51fd 96bd b0cc 4abd
00000380: e655 a0be 1d58 f63d a961 753e 2a1d 053e
00000390: 5294 673e a75e f43d 822d 6a3d e740 37bd
000003a0: 6230 8cbc 35eb 47be 0df0 e23e 1781 ba3e
000003b0: fefb e13e 7ed4 863e 47bb 093e 4180 38bd
000003c0: 3d84 10bc a1f8 a9bd b6da 00bf 357b 9fbd
000003d0: 3bba 693d f5ec 1cbe f544 bebc eeac 973a
000003e0: 6a26 83bc c727 013e 6e40 8e3d 0b8d 143d
000003f0: 97ec 333e 6d7d e83d d3c7 ef3d 720f 6d3e
0.20874533 -0.6864205 -0.010956063 -0.7099125 0.25895202 0.33538166 0.22148909 0.0674795
0.36217752 0.046961866 -0.057393644 -0.010882176 -0.012278371 -0.09747305 0.05010382 0.032101505
0.098310985 0.0659169 0.0407039 0.041819744 0.079524435 0.050242104 0.008822098 -0.06321126
0.087686785 0.052915 -0.036790088 -0.0015741885 -0.014235765 -0.0437905 -0.041257948 -0.027668178
0.03598457 0.048411928 0.054278918 -0.10143063 0.18101853 -0.24039748 0.24957119 -0.40125915
-0.09055518 0.005917112 -0.05025858 -0.012259506 -0.41227347 0.21676321 -0.23887937 -0.29782832
-0.3084084 -0.053425115 0.07113073 -0.17804676 -0.019584157 0.05117409 -0.060456995 -0.78973484
-0.119293354 -0.1479671 0.31631753 -0.009342908 0.123801 0.13263337 -0.21791883 0.041004106
0.092097625 0.004159036 0.19798635 0.073067 0.06421337 0.005015951 -0.09839635 -0.12694663
0.15596414 -0.2861144 0.34493977 -0.33690333 -0.047201227 0.09817434 0.09214809 -0.091782376
-0.44875723 0.04171585 0.26040572 0.017825298 0.29082492 -0.03434653 0.0044730324 -0.14790565
-0.06690955 -0.17180848 0.250693 0.25384185 0.08569926 0.085030474 -0.27035567 0.0777007
0.050082877 0.14045049 -0.031275503 0.047477446 0.020219438 0.06414475 0.05747164 0.086568885
0.08722607 -0.085557625 0.007753879 -0.04722504 0.031883962 -0.08534166 0.054459043 -0.055852
0.029485054 -0.019134969 0.08490125 -0.002243705 0.023079447 -0.015893228 -0.07593759 -0.0063925683
0.028320394 -0.026554145 -0.026209757 0.08659143 0.09811803 -0.028269626 -0.020981368 -0.38264042
-0.042595685 -0.442193 -0.294602 -0.29717416 -0.2273889 -0.22643296 -0.332902 -0.0956878
-0.21157408 0.20804797 -0.011736795 0.06467646 0.009340751 0.44948146 0.31621194 0.59395254
-0.15682535 0.44363075 -0.33192694 0.08243481 0.16877036 0.19886461 0.17283791 0.15069264
0.8164016 0.119804606 -0.017141476 0.11584248 0.0070475475 0.07183728 0.068325415 0.087603346
0.07061473 0.060505167 -0.038327206 -0.3221596 -0.04523274 -0.27633396 -0.39489576 -0.14788225
-0.3149827 -0.3847227 -0.3684431 -0.30941322 -0.03702801 0.093871646 -0.06604904 0.29724166
0.2359675 -0.11632983 0.16739501 -0.0018494226 0.18933855 0.14540872 0.2313463 -0.32943496
0.13002338 -0.22510213 0.2851667 0.22558996 0.2443308 -0.08530577 0.027184121 0.024837948
0.08185958 0.014192991 0.064574204 -0.062354293 0.018852197 -0.08464702 -0.07263032 -0.046070673
0.059205823 -0.05594516 0.032525487 -0.08176149 0.038458027 0.026203819 0.0020360947 0.047870047
0.0039063096 -0.07247941 -0.014123477 0.04292675 -0.025233686 -0.0029958263 0.06340743 0.01736588
0.16727266 0.203893 0.029051043 0.22340448 -0.008268802 -0.2406287 -0.07372535 -0.04951161
-0.31315535 0.12028525 0.23963036 0.12999406 0.22615173 0.11932116 0.057172306 -0.04473963
-0.017112914 -0.19523318 0.4432377 0.36426613 0.44137567 0.26333994 0.13450347 -0.045044187
-0.008820591 -0.08299375 -0.50333726 -0.07787172 0.05706237 -0.15324767 -0.02322624 0.0011571923
-0.016009528 0.1261283 0.06945883 0.03626732 0.1757072 0.11352048 0.11708035 0.23150423

conv1.bias f4 [16]
00000000: 13fb 213e 7099 223e 5137 ab3d 2109 8c3e
00000010: 3920 333e ac31 ae3e e701 763d 178e 1d3e
00000020: 010d 393e 2a61 4d3e 804f 9c3e a91d 483e
00000030: dbcf 7f3e 4a4c 203e 8229 8f3d 3814 223e
0.15818433 0.15878844 0.0836016 0.27350715 0.1749276 0.34022272 0.060060408 0.15386234
0.18071367 0.20056596 0.30529404 0.19542564 0.24981634 0.15654102 0.06990339 0.15828025

conv2.weight f4 [32, 16, 3, 3]
00000000: a937 1bbd f8bd 503e 1ec6 5a3e 988e d73c
00000010: 56c2 7c3e c862 473e b335 bebc a2fe d13d
00000020: 8aaa 3abd 9e4a 9e3d 5fcf f23d 0e1c 23be
00000030: 941e 8e3d 1363 9abd e7dd 3abe bce7 3fbe
00000040: 2c12 09be 0b8b 6dbe 5b62 15bd 5abc 9b3d
00000050: 649e c8bd 53cf 213d 09ba 313e 0736 2bbe
00000060: 54b3 19be e379 19be de4c 2cbe e314 383e
00000070: 52d0 8a3e a83a 193e 0645 b23e 1858 4b3e
00000080: f90c 1e3e aa74 713e 34a4 6f3e f937 5d3e
00000090: 0fda 943e ad95 6f3e 51c0 483d 3e0e 1c3e
000000a0: 971a fa3c 2af7 0fbd 3015 ce3e f4d5 783e
000000b0: ab3e 903d c848 eb3d 024f 323e fde7 2f3e
000000c0: b306 ab3e 51df de3e 92c3 a63e 4c14 bb3e
000000d0: b06c c53e 5f7a 9f3e a446 393e 78d3 b53d
000000e0: 3830 4abd 06d9 943e 6c68 083e c52c 203d
000000f0: 4c38 843e 551e 553e 7417 ad3a b292 0e3c
00000100: fef5 053d 5974 803c b07b 783e c99d f63c
00000110: 618c 26be 8525 023e 9b8c 813e b981 d63b
00000120: 439e 183e 0386 8a3d 11e0 253e 0d29 9d3e
00000130: d880 673e b788 003d 3eb3 fb3e 8025 a23e
00000140: 474f f23d 073a 7cbe cfb2 613c b96d 2b3e
00000150: be9a 123e 17db b93e 3b67 f83e c6ba 803e
00000160: 73ef d23e bdd5 283f f7ba 773d 4dcf a73e
00000170: b7fd a53e 1619 8c3e 7a5d 9a3e 8a3d ce3e
00000180: a22a 793e 5258 073f 97a0 103f 7fe2 253e
00000190: bab3 923e d44c 063e 1e89 a43e 06b1 f43e
000001a0: e103 773e 9b7a 6e3e f7e1 8e3e 1745 6ebd
000001b0: aa1a 6ebb 8982 473e 953b 483e 5fec 173e
000001c0: 456d ec3d ef24 103e 4b60 fe3d 9a93 5b3e
000001d0: fd6d 163d a9e0 27bd 066a 903d c97a 02bd
000001e0: 1563 233e 4bca bdbd c0ec 6cbd 29f6 fa3a
000001f0: 4ff5 8ebc 51a8 ca3d fd00 4c3d b175 203e
00000200: 94d8 263d 525c 9dbc fc74 883d 42ad 78bd
00000210: 1eec 76be 0423 df3d 17eb 00be f951 cb3d
00000220: 4da0 393e ec77 b3bd abf1 6b3e a56d 863d
00000230: c795 db3c f106 a23d 35e6 953d 5aa7 29be
00000240: aafb fa3b 4efd eb3d be87 223e c42f 98bc
00000250: 6b07 843d a662 e73e 6eed 13be 0a45 943e
00000260: 8903 ba3e 264a 7f3d 94f1 a23d df71 553d
00000270: 4ab1 cdbd b387 da3d 0960 883d 7704 47bd
00000280: c97f 16bc 3031 b3bd 533d 90bd b7a6 113e
00000290: 531c 263e 5800 d3bd 1a27 2f3e ead9 4c3e
000002a0: 4d04 71be 88a4 233e a381 873e 8580 133e
000002b0: aeb7 f03d 6144 84bb 8345 2f3e bfbe 3d3e
000002c0: 7266 ad3d 9459 233e 10e1 a03e 2bd7 a13e
000002d0: 569f 9e3e 106e 2e3e cc21 19bd e858 bb3e
000002e0: 84bc e93d 6824 8ebd fbbc 8f3e 9f81 973e
000002f0: 6193 9dbd c089 2b3d 90b0 413e 6aec 4f3e
00000300: b22a 6e3e 03bb d63e e434 883e 75e0 803e
00000310: fcae d63e 0c95 c63e e6a2 033e 8309 d93d
00000320: c34a df39 d262 263e b391 4b3e 60a7 ac3c
00000330: 0033 4b3e 4b2a aa3e d87a 3d3e 2472 10bd
00000340: 6193 813d 9804 6a3d d9f4 3ebc bc2a ae3d
00000350: c3d1 1e3e cf62 1d3e 2b81 c73e 9297 913e
00000360: 3e5a 833d c37e 033e 0b48 96bd 3377 3c3e
00000370: 2535 733e ad53 3f3d d917 6f3e db8b b73e
00000380: 1347 ce3e 2ee3 39be e3ea fcbd e1ef d93d
00000390: e737 503e 20d2 b83e da2c a73e cf87 113c
000003a0: f6df b73e 8933 213f 1506 0f3d b0e7 6c3e
000003b0: 2f89 9c3e 5c62 8e3d d87c 583e df41 b63e
000003c0: 5da4 8a3c 6845 783e aa42 863e c431 86bd
000003d0: 8c2a 6d3e 7610 bc3d 3775 2d3e 1c4c ce3e
000003e0: eb54 743e ef86 a13d fe39 d03e d0a4 493e
000003f0: af71 80bd 05f7 9e3c 3bfa 123e 6d27 fb3c
-0.03789488 0.20384967 0.21364638 0.026313111 0.24683508 0.19471276 -0.023218965 0.102536455
-0.045572795 0.07729076 0.11855959 -0.15928671 0.06939426 -0.07538428 -0.18248712 -0.18740743
-0.13385838 -0.23197572 -0.036470752 0.076042846 -0.097958356 0.03950436 0.17356123 -0.16719829
-0.15009815 -0.14987902 -0.16826198 0.17976718 0.2711206 0.14963782 0.34818286 0.19857824
0.15434636 0.2357966 0.23402482 0.21603383 0.29072616 0.2339694 0.049011532 0.15239808
0.030530257 -0.035147823 0.4025054 0.24300367 0.07043203 0.11488491 0.17412952 0.1717834
0.3340355 0.43529752 0.32571083 0.36538923 0.38559484 0.3114805 0.18093354 0.08878225
-0.04936239 0.29071826 0.13321084 0.039105196 0.258242 0.20812352 0.0013205842 0.008701967
0.0327053 0.015680479 0.24265933 0.030104535 -0.16264488 0.12709625 0.25302586 0.006546226
0.14904122 0.06763842 0.16198756 0.30695382 0.22607744 0.03138038 0.49160188 0.31669235
0.11831527 -0.2463151 0.013775541 0.16741075 0.14316842 0.36299965 0.4851626 0.25142497
0.4119831 0.6595114 0.060481038 0.32775345 0.32420132 0.2736289 0.30149442 0.40281326
0.2433267 0.5286914 0.5649504 0.16199683 0.28652745 0.13115245 0.32135862 0.47791308
0.24122573 0.23288958 0.27906772 -0.058171358 -0.003633181 0.19483389 0.19553979 0.14836262
0.11544279 0.14076589 0.1242071 0.21443024 0.036725987 -0.040985737 0.07051472 -0.03185538
0.15955766 -0.092671 -0.05784297 0.0019146848 -0.017450957 0.09895385 0.04980563 0.15669896
0.04073389 -0.01920906 0.06662938 -0.060712107 -0.24113509 0.108953506 -0.1258968 0.099277444
0.18127556 -0.08763108 0.23041408 0.06563882 0.026804818 0.0791148 0.07319299 -0.16567746
0.007659395 0.115229234 0.15872094 -0.018577464 0.06446727 0.4519245 -0.14446041 0.28958923
0.36330822 0.062326573 0.079562336 0.05211055 -0.10043581 0.10670414 0.06658942 -0.048588242
-0.00918574 -0.08749616 -0.07042947 0.14223753 0.16221742 -0.103028 0.1710476 0.20005003
-0.23536797 0.15980732 0.26466092 0.14404495 0.11753784 -0.0040364717 0.1711636 0.18529795
0.084668055 0.1595214 0.3142171 0.31609473 0.3098094 0.17034173 -0.037385747 0.36591268
0.114129096 -0.06940538 0.28073868 0.2959108 -0.07694126 0.041879416 0.1891501 0.20305029
0.23258474 0.41939554 0.26602852 0.25171247 0.41930377 0.3878559 0.1285511 0.10597517
0.00042589576 0.16248634 0.19879799 0.021075904 0.19843674 0.33235392 0.18503892 -0.035265103
0.063269384 0.057133287 -0.011655056 0.08504245 0.15509705 0.15369724 0.38965735 0.2843595
0.06413697 0.12841325 -0.0733796 0.18404846 0.23750742 0.04671066 0.23348941 0.3584889
0.402886 -0.18153068 -0.123494886 0.106414564 0.20333825 0.36097813 0.32651407 0.008882477
0.35913056 0.6296926 0.03491791 0.23135257 0.30573413 0.06952354 0.21141374 0.3559713
0.016924078 0.24245226 0.26222736 -0.06552461 0.23160762 0.09182827 0.16939245 0.40292442
0.23860519 0.07887065 0.40669245 0.19691777 -0.062716834 0.019404897 0.14353268 0.030658448

conv2.bias f4 [32]
00000000: fcc7 593d b7c0 223d f026 fc3c c463 ef3d
00000010: 7def ac3d 9058 cd3d 0fc5 883d ba23 ba3d
00000020: 9050 e93d fbb7 bf3d 770e bb3d ecb3 a73d
00000030: f066 9c3c 55a6 503d b7aa fa3d 8896 a73d
00000040: cd44 ff3d 4dc1 f13d a9e1 963d 371c 383d
00000050: 83ae 913d 4f6e c03d 4313 8c3d 0355 bf3d
00000060: 763e 863d f186 9b3d 0f2f b33d 2526 493d
00000070: 310a 4d3d 7d8c ed3d 9263 5e3d 5867 f93d
0.053169236 0.03973457 0.030780286 0.11688951 0.08444116 0.100266576 0.06678211 0.090888456
0.11392319 0.09361263 0.09133618 0.08188614 0.019092053 0.050939877 0.122395925 0.081830084
0.124642946 0.11804447 0.0736726 0.044948783 0.071133636 0.0939604 0.068396114 0.093423866
0.06554882 0.075940974 0.0874921 0.049108643 0.050058547 0.11599062 0.054294176 0.121779144

fc1.weight f4 [64, 800]
00000000: 6c9e c23e b20c 9b3e e678 273e 42c8 af3c
00000010: 5777 5fbd 6e41 2e3e a368 023e 81fb a43d
00000020: b014 28bd d107 d1bd 99ab 9e3d 160c ad3c
00000030: 004f 343d 5348 85bd b213 18be 2869 b03d
00000040: aae8 783c 08eb 87bc b021 adbd 6d1a acbd
00000050: 3bdd a63e aa14 833e 88e5 063e 2693 923c
00000060: 57ae 17bd 9bb2 4d3e 7547 453e 37ff a53d
00000070: f270 c53b 9844 a3bc e44b c03d 8591 e43d
00000080: 46e8 ec3c f471 c1bd 1058 4fbd 1296 0cbd
00000090: 2759 743c b053 46bc 8481 f3bd dc0d 53be
000000a0: 7057 813d 3237 263d 7fc0 163d 3cc4 a53c
000000b0: 3907 153d 17f2 9b3e 8940 3b3e 2492 193e
000000c0: 375b a13d ffb0 783d 2218 4c3e 73e1 173e
000000d0: 3c59 273d 71d3 dfbb d494 59bd 2445 e93d
000000e0: f2cb 2a3e aee4 4f3d ae78 a2bd 67f5 fcbd
000000f0: bb71 653d 4bdd bb3d a070 283c 724b 0bbe
00000100: 1be8 27be 8fb8 173e 4d22 883d eb90 933d
00000110: 2c3e 65bd 74c2 a4bd 3226 de3e ac22 8d3e
00000120: be0f f03d ddc3 0f3e a824 e83d 7229 ef3d
00000130: 286a 1a3e f465 e33c a6a8 01bd 65cc 6cbd
00000140: 26ae debb 69d3 7cbb f78a 213c 5080 b1bd
00000150: 8823 9cbd 4a3e 90bd 9274 cebd 063e c0bd
00000160: 2731 1ebe 4f48 5dbe f36f 803d aaec 823c
00000170: ea73 dabc 16dc 99bd c319 41bd 09c0 343e
00000180: de12 333e 5579 ee3d bc0f 8f3c e5d0 1d3d
00000190: ec53 8b3d 86c0 943d e95b 13bd a416 41bd
000001a0: 54fa 06bd a91b 58bc 8789 143c cf6a be3b
000001b0: 1a70 dabd b067 28be 16ba 24be 3ee4 21be
000001c0: 066d d2bd e33e 6cbe c97c 61be 216f b93c
000001d0: 74c0 6abc 5886 31bd c994 08be c09f 27be
000001e0: 995e 4f3e d056 d13d 0c03 423d 1a99 553c
000001f0: 474b 303d 884c ed3d be70 0d3e 4af6 9a3d
00000200: 9c6d 673c f650 493b 1525 e3bc 9ca1 aa3c
00000210: 8806 123c 0a7b c4bd 4db3 edbd e08e fcbd
00000220: 7271 bcbd 64f0 9bbd c6ae 16be 61e3 53be
00000230: be78 5e3b 8359 813c 3e8b e03b 03f1 ecbd
00000240: 3619 b4bd 11f9 5b3e 00a9 313e 0364 ed3d
00000250: 3135 423d 3997 ee3d c121 843e 2610 593e
00000260: a227 bc3d def0 083d f7a6 b9bc 3114 073e
00000270: ac21 233e ecf2 8c3d 6a45 81bc 0f44 acbd
00000280: 5302 a43c b340 203d b911 b0bb 886f c4bd
00000290: 14ad 5fbe 707e a53a d5a4 d83c 6737 4e3d
000002a0: 5f42 353c 8e0b dbbd ceb0 833e 24f0 5a3e
000002b0: 37a0 da3d 718e 4a3d ec5e 9f3d a579 113e
000002c0: 73dd 113e 325d 873d 2326 04bd d292 0f3b
000002d0: 07a0 a93d 800c 5b3d c781 3b3c f812 7bbd
000002e0: a824 76bd b276 14be 76fb 00be cc69 94bd
000002f0: 8e2c 19be 4efd 6bbe c6cf 203d b752 853d
00000300: 80f1 0f3d 9e4e 913a 1ad5 86bd 49ce 8a3e
00000310: 3b6d 663e 6741 353e 55a7 e93d aac8 f33d
00000320: 3cc9 323e e1f4 2c3e 46c5 093e 60e1 553d
00000330: b261 09bd 0289 1e3e b7a4 1e3e e13c ad3d
00000340: 0009 8cbd 7e09 e6bd 4f09 b1bc 4205 c1bb
00000350: d50b b6bd 5e26 e1bd 450c 4fbe 23e4 c43c
00000360: fc3c 803d 5d7e e0bc 4075 c1bd 2ea8 a2bd
00000370: 4268 783e 9c69 3b3e ee2e d93d b2d0 c03d
00000380: 8954 e53d e91a a23d 2437 e03d 5bfc 583d
00000390: 068d f6bc c239 edbc 6dc9 803d d35d e03d
000003a0: ba17 193d 9475 6fbd 2ab5 f8bd 92ef e0bd
000003b0: d7fa b1bc 94a6 d7bd 10e2 1cbe 1655 2dbe
000003c0: afba 8c3c 49bd 283d 93cd 823c 1058 59bd
000003d0: 43e9 64bd 883f 973e 3199 1b3e e979 093e
000003e0: b9ec 0b3e 7b0d 1e3e 596f 9e3d 3455 1b3e
000003f0: 1bc0 cf3d 6a31 bc3c 7faa 62bd b811 423d
0.3801149 0.30283123 0.16354713 0.021457795 -0.05455717 0.17017147 0.12735228 0.08055783
-0.041035354 -0.10206569 0.077475734 0.021123927 0.044020653 -0.065079354 -0.14851263 0.08613807
0.01519219 -0.016591564 -0.08453691 -0.08403478 0.3259066 0.25601703 0.13173497 0.017892431
-0.037031498 0.20087664 0.1926554 0.08105319 0.006025427 -0.019930169 0.09389475 0.11160568
0.02891935 -0.09445563 -0.050621092 -0.034322806 0.014913834 -0.012104914 -0.118899375 -0.20610756
0.063155055 0.040579982 0.036804672 0.020235173 0.03638384 0.30458137 0.18286337 0.14997154
0.07878726 0.06071567 0.19931081 0.14832096 0.040856585 -0.0068306257 -0.05312045 0.11390141
0.16679361 0.050755195 -0.07933174 -0.12351494 0.056016665 0.09173068 0.010280758 -0.13602999
-0.16397135 0.14816497 0.06647167 0.07205375 -0.055967495 -0.080449015 0.43388516 0.27565515
0.117217526 0.1403956 0.113351166 0.11677827 0.15079558 0.027758576 -0.031654976 -0.057812113
-0.0067956625 -0.0038578159 0.009859792 -0.08667052 -0.076239645 -0.07043131 -0.10080828 -0.0938683
-0.15448438 -0.21609615 0.062713526 0.01598199 -0.0266666 -0.07512681 -0.04714371 0.1765138
0.17487666 0.11644236 0.017463557 0.038529295 0.06803116 0.072632834 -0.035976324 -0.047140732
-0.032953575 -0.013190188 0.009065992 0.0058110724 -0.10665913 -0.16445804 -0.16086611 -0.15809724
-0.10274701 -0.23070864 -0.22020258 0.022635998 -0.014328111 -0.04334101 -0.13338007 -0.16369534
0.2025093 0.10221636 0.047366187 0.013036991 0.04304054 0.11586863 0.13812539 0.07566507
0.014125254 0.0030718422 -0.027727643 0.020829014 0.00891269 -0.0959378 -0.116064645 -0.12331939
-0.092013255 -0.0761421 -0.14715108 -0.20692207 0.003394648 0.015789753 0.0068525365 -0.11569407
-0.08793871 0.2148173 0.17349625 0.11591341 0.04741401 0.11649937 0.25807002 0.21197566
0.09187247 0.033432834 -0.022662623 0.13191296 0.15930814 0.06882271 -0.01578017 -0.08411419
0.02002064 0.039124202 -0.0053732065 -0.095915854 -0.21843368 0.0012626182 0.026445786 0.050345805
0.011063187 -0.10695563 0.2572083 0.21380669 0.1067509 0.04945225 0.07781777 0.1420656
0.14244632 0.066095725 -0.032262933 0.002190758 0.08282476 0.053478718 0.011444516 -0.061297387
-0.060093552 -0.14498404 -0.12595925 -0.07246742 -0.14958403 -0.23045847 0.03926065 0.06509917
0.03514242 0.0011086052 -0.06583615 0.27110508 0.22502606 0.1770073 0.11408869 0.11903508
0.17459577 0.16890289 0.1345416 0.052216887 -0.033540435 0.15481952 0.15492521 0.08458877
-0.06837654 -0.11232279 -0.021610884 -0.0058905194 -0.088889755 -0.10993646 -0.20219524 0.024034565
0.06261632 -0.027404005 -0.09446192 -0.07942234 0.24258521 0.18302006 0.10604654 0.094148055
0.111977644 0.07915289 0.10948017 0.05297504 -0.030096542 -0.028958205 0.06288419 0.109553955
0.037376143 -0.05846174 -0.12143929 -0.109831944 -0.021726055 -0.10529819 -0.15320611 -0.16926989
0.017178861 0.04119614 0.015967166 -0.0530625 -0.05588652 0.29540658 0.15195157 0.13425411
0.13664521 0.1543483 0.07736082 0.15169221 0.10144063 0.022972781 -0.05533838 0.04738018

fc1.bias f4 [64]
00000000: dd34 423d 5ef2 9d3d ed24 803d 6696 30bc
00000010: 019a 843d d0cc 19bb b3ab 0a3d 3a91 3d3d
00000020: 301c 7abc b544 b9bc 5037 8f3d 645b 1c3c
00000030: d886 af3d e600 953b 57b8 863d b23b b93c
00000040: edb7 843c d78b d13c 3619 a23b f45b ae3c
00000050: 6a25 4c3c 1a1b 01bd 5fa1 433c dbd5 423d
00000060: 6bbc d6bc 8b3e 543d 2ff0 4d3d 6c43 943c
00000070: fd73 a7bc 7178 d73c 36f9 5a3d 97d2 6f3d
00000080: 5bf0 653d 5af6 c73b 65d9 8a3d 1a44 233d
00000090: a168 023d 4659 1b3c 8259 ba3c 4609 d5bc
000000a0: dacc 43bc cc45 de3c 7df7 8cbc a6f0 fd3c
000000b0: 3354 de3c d226 11bb 7987 d5bc 5891 b33c
000000c0: 345c 96bb 57a9 1cbb 19d3 5f3c 7916 9d3d
000000d0: 6e54 343d b851 363d 2413 303d b20e f0bc
000000e0: a383 06bd c579 b7bc 0bab a53d be76 32bc
000000f0: 2b39 cb3c bfe0 16bc 69ce 85bc 57e0 80bc
0.047413696 0.077122435 0.06257043 -0.010778045 0.064746864 -0.0023468025 0.03385515 0.046281077
-0.0152655095 -0.02261577 0.06992972 0.009543274 0.08570641 0.0045472262 0.06578129 0.022611473
0.016200984 0.025579376 0.004946853 0.021284081 0.012460092 -0.031519987 0.011940329 0.04756723
-0.026212892 0.051817458 0.050277885 0.018098556 -0.02044105 0.026302548 0.053460322 0.058550444
0.056137424 0.0061023654 0.06779746 0.03985987 0.031838063 0.009481734 0.022747759 -0.026005398
-0.011950696 0.027132891 -0.017207855 0.03099854 0.027139759 -0.0022148383 -0.026065575 0.021919891
-0.004588628 -0.0023904645 0.013661169 0.07670302 0.04402583 0.044511527 0.042987004 -0.029303882
-0.032840382 -0.022396931 0.080892645 -0.010892568 0.024807533 -0.009208857 -0.016333776 -0.015731974

fc2.weight f4 [64, 64]
00000000: 5f5d cbbc 1d8a 903d 3f97 34be 6034 cebc
00000010: 9594 163e b02e e13d bd9d 2e3e a782 22be
00000020: 280e ef3c 4496 d03b 3863 8a3d 7782 8c3c
00000030: 6146 013e 1499 4ebd 3e8e bf3c 78f2 553d
00000040: 44a9 493d 72b1 d9bc b4c6 41bd c086 0dbb
00000050: ec9a 513d a7d7 983d c6db b93d c4b0 98bd
00000060: e95d 1fbb 26b8 9fbd 0f83 253e b066 bbbc
00000070: 4048 8a3d a765 933d 80a7 d4bd 7f4d af3d
00000080: 904d 683d 75ff f13d 6009 c93d b7d9 fbbb
00000090: e61a ef3d b398 24bd 4717 06bd 1403 423d
000000a0: 786c 1e3d 3b3e 493e 64ce 4a3d 08f2 94bc
000000b0: a8e7 94bd 6a0c 083d ca12 a7bd 1684 98bd
000000c0: 7a14 b4bd 859a 023e 8212 01bd 9d26 49bd
000000d0: fddd 713e f3ec 173e 43f3 193e e3ff 2b3d
000000e0: 82b8 da3d 0568 8fbd db50 853e 5c90 8a3d
000000f0: 087a a43d 4706 933e fabb bcbd 90e7 5ebc
00000100: cc30 cabd c0d8 5d3c 1a8d fbbd 0052 153d
00000110: 7c94 b73d 16cb c63d 3a3c b4bd 48a4 b3bc
00000120: 4aa4 b63d de4d 8b3d e831 0fbd 360e c8bd
00000130: 825e a93d b8c5 e5bd 7055 f1bc cc99 c7bd
00000140: 1c08 a8bd 0a35 b73d fe5c fabd 9014 503d
00000150: 0ed2 8a3d a001 78bc ec18 dabd 386a 30bd
00000160: 04da 003d 60a8 9f3d d4c6 29bd b022 88bc
00000170: 203a 91bd 3470 cd3d 561d ae3d 02fb b33d
00000180: 00a5 60bd 44c3 663d 32d6 d1bd 1451 fcbd
00000190: b282 b6bd fab3 aabd 8064 1d3d b6bf b8bd
000001a0: d65b 843d da72 ca3d 00c2 cdbd 7081 e7bc
000001b0: a0ab 3ebc e8f8 bb3d 0042 b1ba 72f0 f53d
000001c0: f042 ca3d 083d 203d 361b 853d 5cbf 8cbd
000001d0: 2c22 5cbd 9646 d73d d8eb a7bd 825c 89bd
000001e0: 321c e1bd 3e7d a9bd a699 84bd 6cc6 a2bd
000001f0: 4013 233c fa75 b1bd e07f e5bc b0f4 1ebc
00000200: ef70 c53d c41d b2bc b952 443e 2116 d73d
00000210: 04c3 e53d b288 b23d bdaa dc3d 55ed 833e
00000220: 7e5d d2bd 6ca5 683d a23c cbbb 87e2 193d
00000230: aca3 193e a206 b33c 082c 193e 1d14 373e
00000240: 52a1 ecbd c4ff 1e3d 68bd e23d 0800 05bd
00000250: 8454 01bd 092b debd ddf7 a43d 9d05 29bc
00000260: 3234 7ebd 3061 b73d 4d43 c2bd 9751 c23d
00000270: 8371 89bc c92d 943b 40c0 893e 68a8 813e
00000280: 4b5d 3abe 8eda 74bd 2206 073d da01 e63d
00000290: 6400 d83d 0258 9ebd 68d6 2bbd b631 aa3d
000002a0: 8f89 28bd 6aa2 febb d0c5 7a3d ae54 f43d
000002b0: b21b abbb bb7e d53d ff75 ff3d e992 acbd
000002c0: b800 123d be36 373e 92bb 9dbc 9c14 1d3e
000002d0: 7b4a cebc b02e f23d 5221 abbc 34c7 12bc
000002e0: 98fa 0d3d 2694 e13d 402e 943c 5958 1b3a
000002f0: 6c3c a13d f005 47bb 94ab 123d 86d2 c13d
00000300: b4a8 c0bc 6bb3 ec3d ade1 e5bd e77f e13c
00000310: a097 81bd 90f6 40bd 2020 4b3d 62d1 a43d
00000320: 4c92 1b3d f44d a3bd 4f85 ba3d 081d 473d
00000330: 79ab 743b bc99 ac3d be89 75bd 684f 36bd
00000340: 5bdf b8bd cc39 803d d48b 813d 4e03 e83d
00000350: 574b 363d 5283 32bd fd61 c9bd 4f66 03be
00000360: c79e dd3d a6f2 993d bcaa 9b3d 9987 bc3d
00000370: f6d2 9e3d 26c2 bd3b 2662 00be cc2b a43d
00000380: 71fb 763c b6fa 453d 6619 edbd 20d6 133d
00000390: aadd 033d f932 06bd 6c7b 653d 70e0 9abc
000003a0: 209b ee3d 7436 d5bd d8fb aabc c658 f8bd
000003b0: f720 f73d 2efd e6bd cce3 e03d 1e2a fdbd
000003c0: 1c13 a63d a65d 07be c60e 36bd 32a6 6e3c
000003d0: 3c03 dcba 6f79 f73c 7939 af3c 710d 073b
000003e0: 8091 30bc ec77 dbbd 69ee d6bc 1538 e93d
000003f0: 0a1c 6cbd 0e1b df3d 7457 eb3d 4add e33d
-0.024824796 0.07057593 -0.17635821 -0.025171459 0.14705117 0.10995233 0.1705236 -0.15870152
0.029181555 0.0063655693 0.06757206 0.017152054 0.12624504 -0.050438955 0.023383256 0.05223319
0.04923369 -0.02657387 -0.04730864 -0.002159521 0.051173136 0.074630074 0.090751216 -0.0745559
-0.002431745 -0.077987954 0.16163276 -0.022876114 0.06752062 0.07197123 -0.103835106 0.08559703
0.056714594 0.11816303 0.09816241 -0.0076858657 0.11675052 -0.040184688 -0.032737043 0.047366217
0.038677663 0.19652645 0.049513236 -0.018181816 -0.072707474 0.033214964 -0.081578806 -0.074470684
-0.08792968 0.12754257 -0.03151179 -0.04910909 0.23619838 0.14836483 0.15034203 0.04199208
0.10679723 -0.07002262 0.2603825 0.067658156 0.08031088 0.28715727 -0.09215541 -0.0136050135
-0.098725885 0.013540447 -0.12282772 0.036455154 0.08963868 0.09706704 -0.0880055 -0.021928921
0.089180544 0.06801961 -0.034959704 -0.097683355 0.08269979 -0.112193525 -0.029459685 -0.09746131
-0.08204672 0.08945663 -0.12224768 0.05080086 0.06778346 -0.015137106 -0.10649285 -0.043070048
0.031457916 0.07795787 -0.041449383 -0.016618103 -0.070911646 0.10031167 0.08501689 0.0878811
-0.054844856 0.056338564 -0.10245933 -0.12320152 -0.08911647 -0.08335109 0.038425922 -0.09020941
0.06462829 0.098851874 -0.10046768 -0.028259963 -0.011637598 0.091783345 -0.0013523698 0.12008752
0.098760486 0.039120704 0.06499331 -0.068724364 -0.053743526 0.1051151 -0.081992805 -0.067070976
-0.10991706 -0.08275841 -0.064746186 -0.07948002 0.00995332 -0.0866508 -0.028015077 -0.009701893
0.09640681 -0.021742709 0.19172181 0.10502268 0.11218837 0.08717479 0.10774753 0.25767007
-0.102717385 0.056798384 -0.0062022964 0.03756955 0.15003842 0.021853749 0.14958203 0.17878766
-0.11554207 0.038818136 0.110712826 -0.032470733 -0.03157474 -0.10848052 0.08055089 -0.01031628
-0.062061496 0.08954084 -0.09485493 0.09488218 -0.01677776 0.0045220596 0.26904488 0.25323796
-0.18199651 -0.059778742 0.032964833 0.11230822 0.105469495 -0.0773163 -0.04195252 0.08310263
-0.04114681 -0.007770826 0.061223805 0.11930214 -0.0052218074 0.104245625 0.12473678 -0.084264584
0.035645217 0.17891976 -0.01925448 0.15339893 -0.025182 0.11825311 -0.020889912 -0.008958627
0.034662813 0.11014585 0.01808846 0.00059259456 0.07872853 -0.003036853 0.03580816 0.09463982
-0.023517944 0.11557659 -0.11224685 0.027526809 -0.06327748 -0.04711014 0.049591184 0.08047749
0.037981316 -0.07973853 0.09107458 0.04861167 0.003733365 0.0842776 -0.059945814 -0.04450932
-0.09026977 0.06261024 0.06325498 0.11328755 0.044505443 -0.043582268 -0.09833143 -0.12831996
0.108213 0.07516985 0.076009244 0.09205551 0.07755081 0.0057909666 -0.1253744 0.08016166
0.015074597 0.0483348 -0.1157711 0.036092877 0.032193817 -0.032763455 0.056025907 -0.018905848
0.116506815 -0.10410777 -0.020872042 -0.12126307 0.120668344 -0.11278759 0.10980949 -0.12361549
0.081091136 -0.13219318 -0.044447683 0.014565991 -0.0016785632 0.030209271 0.02138971 0.0020607377
-0.010776877 -0.10716233 -0.02623673 0.1138765 -0.057643928 0.10893832 0.1149129 0.11126192

fc2.bias f4 [64]
00000000: e152 71bd 88e0 89bc 6e35 4ebd fd46 a13d
00000010: 1cc8 bc3d 2cb0 a83b bfdf f13d 7e85 ebbd
00000020: 7266 d03d 8597 d63d 0d89 f33d 2b75 823d
00000030: 5c6e 9d3d 056f 7c3d f63f b5bc bdb7 073e
00000040: 0410 073e 0b58 2d3e a967 1dbd 8432 28bd
00000050: e428 76bd d413 b1bd 90bf febb 03d7 41bd
00000060: 2cd2 843d 182e 2d3d dfbe 0dbe 3933 a2bd
00000070: ad09 cabd 42f6 bebc 19dd 583d 2fee 2fbd
00000080: 845a abbd c070 e53d b592 b23c 8b14 e53d
00000090: d181 d63d 6f32 163d f8a8 013d 80c9 943d
000000a0: 3681 bf3d 7127 abbd 7de7 893d 1758 c23d
000000b0: 00c3 4abd a472 54bd 8110 cb3d 1902 05bd
000000c0: dc86 cf3d 71a1 d93d ff49 bb3d fcd1 91bd
000000d0: 5e4d e03d d880 a13d d7c0 6b3d 446d d03d
000000e0: 7a37 3b3d 7b16 04bd b1f5 853c 763f 233d
000000f0: 6266 b1bd 4eba a2bc 7e44 bdbd 5858 a5bd
-0.05891693 -0.016830698 -0.050343923 0.07874868 0.09217855 0.0051479544 0.11810254 -0.11500071
0.1017579 0.10478119 0.11891375 0.06370004 0.07687065 0.061629314 -0.022125226 0.13253684
0.13189703 0.16928117 -0.038428936 -0.0410638 -0.06009759 -0.0864636 -0.007774301 -0.04732419
0.064853996 0.042280287 -0.13842343 -0.07919926 -0.09865127 -0.023310784 0.05294523 -0.04295176
-0.08366874 0.11203146 0.021798471 0.11185559 0.10473979 0.03666919 0.03165528 0.072649956
0.09350817 -0.08357132 0.06733606 0.09489458 -0.049502373 -0.051867142 0.09915257 -0.032472704
0.10133144 0.10626496 0.09144973 -0.071201295 0.109522566 0.07885903 0.057556953 0.10177091
0.045707203 -0.032248 0.016352506 0.039855443 -0.08662106 -0.019864228 -0.092415795 -0.08073491

fc3.weight f4 [7, 64]
00000000: 5b0c 12be 0cea 2fbd 113d 043e 5b27 433d
00000010: df27 203e d93e 55be bd4b 9b3d 167b a7bd
00000020: eed9 8e3d 0c27 953d 3fba a23d b416 7b3f
00000030: 4656 9a3d 10cb 05bd 76aa 30be 0ca2 16be
00000040: 7e96 f5bd d797 3bbe 1867 b73e ab14 563d
00000050: c79a 683d a02e fa3c eac9 d73e ac61 9e3e
00000060: 12b6 3d3e cde2 a8bd 3c6a 49be 38e2 48be
00000070: 22c0 ecbc 061f 90bc ec47 14bd a5f4 853e
00000080: 4ae2 fa3d d571 9bbb 5e3d 02bd e57c c1bc
00000090: a586 b0bd 6e9e 3d3d 3a63 0b3e ae3f 3b3d
000000a0: 310d aa3d f8db aabd 04cc e13d 6d10 1ebd
000000b0: e0c8 3b3c 63cd c5bc 202f 2c3d 625c c13d
000000c0: 20f4 e83d b996 9b3d 46ac a43d c930 43bd
000000d0: 5b26 5f3d 56cc 193e eead aabd 88b7 6cbc
000000e0: 14e9 b03d 0320 8dbd 33da 35be d429 223e
000000f0: 209e 07bf 2afb b8bd fdeb 1c3f 28f3 f3bc
00000100: 3eba bb3d f075 70bc 4a46 a5bb 2bb8 61bd
00000110: 5d54 113d 6001 1e3d 1c42 b6bd ada8 5ebd
00000120: 2ed9 7c3d fded 28bd 7f80 103e cfa9 c83d
00000130: 1043 8ebd a637 33be bc93 23be 4893 cc3c
00000140: 0ef9 fcbc faac 93bd b95b 483e cf92 32be
00000150: ff76 e5be 002b eeba df91 4a3e 84f8 a03e
00000160: eb19 a73c 1849 6cbb 7d4d 57be 00ea 0f3e
00000170: e4c9 26bc 3a22 f4bd f6ed 923c 1dd7 013e
00000180: ccf5 3bbd 8bab 38bc 21e0 fb3c 3f9b 2dbc
00000190: 6490 7abd c0e0 89bd 22c3 d1bd 2992 7bbd
000001a0: 23fb 0a3c 2a9f 03be f8ae d93c e6cb 03be
000001b0: 3ace b2bd 49ad 103e 45ac abbb 3f13 d33d
000001c0: 547d ae3c c62c a83d 9848 b73d 2f50 33bd
000001d0: 5d39 683d 3bd3 283c 49ca 1e3e 748e 06be
000001e0: a7f8 d03c f628 37bd 4c38 9d3d ad56 60be
000001f0: 45b8 27bd 5d4a bcbd 9c11 bdbd fcb8 d93d
00000200: 9ccc 00be b0ca 273c dda1 743d 522e ec3d
00000210: bf6a 343e 256b 3ebc c40e 4e3c 51ef fdbd
00000220: 8582 d1bd 6222 c93d d4dd 18bd 76e4 5a3f
00000230: eba7 24bd 78da 04be 3321 edbd 6e5f f63d
00000240: 185e 123e e932 bb3d 1cbf 873e 93c8 103d
00000250: 2835 adbe a091 db3d b0f7 8d3e 901f 9f3e
00000260: 9838 18be 5b54 af3d d382 073d f353 a7bd
00000270: 2cff d3bc c190 f53d 2310 b6bd dacb 19bd
00000280: 8e27 c23d b29f c3bd a6a9 0f3d ae69 e5bb
00000290: 1964 2b3e 0824 b03d e69c 853d 564a dfbd
000002a0: 11f3 cebc c651 143e 5a19 0e3d 1b3b 9cbd
000002b0: 8890 0bbd a2f6 d43d c858 173e ebde 85bd
000002c0: 32d3 ccbd c38c 233d 7972 51be 3cff 01be
000002d0: f71e fabc c497 d2bd fef0 b4bd 4fc5 c93d
000002e0: f8b6 5e3d c452 563d 7090 f73d 23ce 6a3e
000002f0: 6e0d 9cbe 8249 dabd b858 d83d 0e8c f23d
00000300: f341 cbbb 04fc 3e3d c6cf 24be e9ae a3bd
00000310: 9683 dc3d 46c9 a93d 2945 b7bd 4a03 3dbd
00000320: 8c22 4dbd 27ba 8a3c 7092 813d c52f c33e
00000330: 4c1b 3bbe d4af 6ebe 7131 6fbd 878b 8d3d
00000340: a897 7aba 292f 9d3d 9e19 873e 167e b0bd
00000350: 410b 853c 2148 31bd c762 083f e8bb ea3e
00000360: 415f 85be 1437 b73d 042f 823e c29d 94bd
00000370: b999 4bbc 33c4 bd3d 6a99 31be 6851 6f3e
00000380: 10c0 123c 54c5 0f3e 5a92 cdbd 8cc9 5fbd
00000390: ad48 c23d 6826 93bd fb21 a9b9 cb83 c4bc
000003a0: c848 9a3c cd28 3c3d d568 02be 44c9 a23d
000003b0: 1c4b c33c 86b5 15be 6ccf 27be 0d74 043e
000003c0: a0a3 2c3d aa06 953c 12fc b3be 4300 c83d
000003d0: 01c2 8dbd 9513 103e 073d dcbd 8fb4 b93b
000003e0: 93a7 de3c c3b1 20be cc4e 2dbe 6de6 123e
000003f0: f73f 6e3e e802 3a3d d281 483f 8a95 ba3d
-0.14262526 -0.042947814 0.1291392 0.047644954 0.1564021 -0.20824756 0.07582805 -0.08177774
0.069751605 0.07282838 0.0794568 0.9808152 0.075359866 -0.03266436 -0.17252526 -0.14710253
-0.11991595 -0.18319641 0.35820842 0.052265804 0.056788232 0.03053981 0.42146236 0.30933893
0.18526486 -0.08246384 -0.19669431 -0.19617546 -0.02890021 -0.017592918 -0.036201403 0.2616321
0.122501925 -0.0047437944 -0.031796806 -0.023619125 -0.086194314 0.04629367 0.1361207 0.045715027
0.08303297 -0.08342737 0.11025241 -0.038589884 0.011461467 -0.024145788 0.04203713 0.09441449
0.11374688 0.075971074 0.08040671 -0.047653947 0.054479938 0.15019354 -0.08333956 -0.014448054
0.08638206 -0.068908714 -0.17759018 0.15836269 -0.52975655 -0.09032281 0.6129759 -0.029779032
0.09166382 -0.014676556 -0.0050437795 -0.055107277 0.035480846 0.03857553 -0.08899328 -0.05436008
0.061730556 -0.04124259 0.14111517 0.097980134 -0.06946385 -0.17501697 -0.15974325 0.024972573
-0.030880477 -0.07210727 0.1956624 -0.17438816 -0.4481735 -0.0018170774 0.19782208 0.31439602
0.0203981 -0.003605431 -0.21025653 0.14054108 -0.01017997 -0.11920591 0.017935734 0.12679715
-0.045888707 -0.011271368 0.030746521 -0.010596096 -0.061172858 -0.06732321 -0.10242297 -0.061418686
0.008482727 -0.12853685 0.02657269 -0.1287075 -0.08730741 0.14128603 -0.005239042 0.10306405
0.021299995 0.08211665 0.08949393 -0.04377764 0.05669533 0.0103042675 0.15506853 -0.13140279
0.025509192 -0.044716798 0.076767534 -0.21908064 -0.040947217 -0.09193871 -0.09231874 0.10630986
-0.12578052 0.010241196 0.059724677 0.115322724 0.17618845 -0.011622225 0.012576763 -0.123991616
-0.10229973 0.09821011 -0.037320927 0.85504854 -0.0401992 -0.12973964 -0.11578598 0.120299205
0.14293706 0.0914057 0.26512992 0.035347532 -0.33829618 0.10721135 0.27728033 0.31078768
-0.14865339 0.085610114 0.033083748 -0.08170309 -0.025878511 0.119905 -0.088897966 -0.037547924
0.09480201 -0.09551944 0.0350739 -0.0070011234 0.16737403 0.086006224 0.065240666 -0.1090285
-0.025262387 0.14484319 0.034692146 -0.07628461 -0.034073383 0.10398604 0.14779961 -0.06536659
-0.1000122 0.039929163 -0.20453824 -0.1269502 -0.030532343 -0.10282853 -0.08835028 0.09852087
0.05437371 0.052325025 0.12088096 0.22930197 -0.30478996 -0.10658552 0.10563797 0.118431196
-0.00620293 0.04662706 -0.16094884 -0.07992346 0.107672855 0.08290343 -0.08948738 -0.046145715
-0.050081775 0.016934467 0.06326759 0.38122383 -0.18272132 -0.2330926 -0.05839676 0.06911378
-0.00095593417 0.07675011 0.26386732 -0.08617799 0.016240718 -0.043281678 0.5327572 0.45846486
-0.26049235 0.08946052 0.25426495 -0.072566524 -0.012426787 0.09265938 -0.17343679 0.23370898
0.008956924 0.14040118 -0.1003768 -0.05463557 0.09486518 -0.0718506 -0.0003225951 -0.023988625
0.018833533 0.04593735 -0.12735303 0.079485446 0.023839526 -0.14620027 -0.16387719 0.12934895
0.042148232 0.018191654 -0.35153252 0.09765675 -0.06921769 0.1406997 -0.107538275 0.005667276
0.027179515 -0.1569281 -0.1692459 0.14345713 0.23266588 0.045412928 0.7832309 0.091105536

fc3.bias f4 [7]
00000000: 092a a23d a01f 753d 93ab ee3d 1b5d 88bd
00000010: 0708 a5bb faff f1bc 18ee b4bd
0.07918174 0.059844613 0.11653819 -0.066583835 -0.0050363573 -0.029541004 -0.08834475
