src/models/v2.0.0-simple_env-20x20,1agent,0human,0shelf,1pickup,1dropoff.pth (torch, 252652 bytes, 10 tensors)

conv1.weight f4 [16, 10, 3, 3]
0	0x3daf5d5b	0.08562728
1	0x3e5f081f	0.21780442
2	0x3e082b27	0.13297711
3	0x3dc9e8e6	0.09858875
4	0x3e622b11	0.22086741
5	0x3eac397e	0.33637613
6	0x3e771a34	0.2413109
7	0x3e850066	0.25976866
8	0x3d6f2b9f	0.05839121
9	0xbd39a511	-0.045323435
10	0xbdb900b2	-0.09033336
11	0xbd7fbbbd	-0.0624349
12	0x3d24b5d6	0.040212475
13	0x3d628822	0.055305608
14	0xbcaf04d8	-0.021364614
15	0x3d271ef2	0.040800996
16	0x3d855759	0.06510801
17	0xbcb9b1a0	-0.022667706
18	0xbdd623df	-0.104560606
19	0xbd4e12e2	-0.050310977
20	0xbc7f25b0	-0.01557295
21	0x3db71eb1	0.08941401
22	0xbd26d5d4	-0.040731266
23	0xbd8b686d	-0.06807027
24	0xbd5d6eb3	-0.05406065
25	0x3d5c083a	0.053718783
26	0xbd4e593e	-0.050378077
27	0xbda8fb5e	-0.082510695
28	0x3c9804e8	0.018557027
29	0x3d0681da	0.03283868
30	0xbd1ea37c	-0.03873013
31	0xbd51b72d	-0.05120008
32	0x3c994548	0.018709794
33	0xbd25e8f0	-0.04050535
34	0x3d0770de	0.033066623
35	0xbd8de4f4	-0.06928435
36	0xbb56d04c	-0.0032777963
37	0xbd395612	-0.0452481
38	0x3e368247	0.17823134
39	0x3dd66c9e	0.10469936
40	0xbdcbc4a3	-0.09949615
41	0x3d62ac13	0.055339884
42	0xbd2ec04a	-0.04266385
43	0x3d7b994d	0.061425496
44	0x3cb2fdd0	0.021849543
45	0x3e04f2de	0.12983271
46	0xbe47ecc0	-0.19523907
47	0xbe32fdad	-0.17479582
48	0x3e66261e	0.22475478
49	0xbe51e838	-0.2049874
50	0xbe9100ae	-0.2832083
51	0x3dc48674	0.095959574
52	0xbe021be5	-0.12705953
53	0x3db7bc55	0.08971468
54	0x3d575281	0.052568916
55	0xbf3748a1	-0.715952
56	0x3db8ba2c	0.090198845
57	0x3db0189b	0.08598443
58	0xbf0fead9	-0.56217724
59	0xbde87764	-0.11350897
60	0xbd599cdb	-0.053128105
61	0xbe633c43	-0.22190957
62	0xbbdfd8d3	-0.0068312674
63	0xbe845c49	-0.25851658
64	0xbcaa83c1	-0.020814778
65	0x3d967282	0.073460594
66	0xbdb50b33	-0.08840027
67	0xbd3e1838	-0.046409816
68	0xbcb5e7a4	-0.022205181
69	0xbd12e046	-0.035858415
70	0xbcc68d9c	-0.024237446
71	0xbd9cd612	-0.07658018
72	0x3d9caf75	0.07650653
73	0xbe449246	-0.19196424
74	0x3e7e0e41	0.24810125
75	0xbd614996	-0.055001818
76	0xbe2d9c2f	-0.1695411
77	0x3df3162a	0.11869462
78	0x3de037e7	0.109481625
79	0xbc06d644	-0.008229796
80	0x3c131f2b	0.008979599
81	0xbf53f426	-0.82794416
82	0xbe7ad29d	-0.24494405
83	0x3e267326	0.16254863
84	0x3e71ecc1	0.2362547
85	0x3ebe3834	0.37152255
86	0x3d03301d	0.032028306
87	0x3d8a5876	0.06755154
88	0xbd3ddf5e	-0.046355598
89	0xbd04f8c0	-0.03246379
90	0x3cc695c6	0.02424134
91	0x3e7e3493	0.24824743
92	0x3e66d82a	0.22543398
93	0x3de19706	0.110151336
94	0x3e757bf0	0.2397306
95	0x3de76519	0.1129858
96	0x3d921968	0.07133752
97	0xbe1c768b	-0.15279596
98	0x3df95c1a	0.1217577
99	0xbdd0fbcc	-0.102042764
100	0x3cf67004	0.03008271
101	0x3dcc14eb	0.09964927
102	0xbd89105e	-0.06692575
103	0x3db46e47	0.08810096
104	0xbd226b50	-0.039653122
105	0xbd79899b	-0.060922246
106	0xbc922778	-0.017841086
107	0x3dbe97d7	0.09306305
108	0xbd8831b0	-0.06650102
109	0xbc381278	-0.011234872
110	0x3d776a86	0.060404323
111	0xbcb32548	-0.021868363
112	0x3d3cce62	0.04609526
113	0xbdcb2141	-0.09918452
114	0x3d922da1	0.07137609
115	0xbd391cd7	-0.04519352
116	0x3d7c8e5a	0.061659195
117	0x3ca7a7ac	0.020465694
118	0x3d14fe92	0.03637559
119	0xbbb7ad40	-0.00560537
120	0xbd8a427e	-0.06750964
121	0xbdc38767	-0.0954731
122	0xbda6d844	-0.08146718
123	0xbd710322	-0.05884088
124	0x3c49fc78	0.01232826
125	0x3c639488	0.013890393
126	0xbe8137cc	-0.25237882
127	0x3d386c25	0.04502501
128	0xbc24f144	-0.010067288
129	0xb9ce1a08	-0.00039310777
130	0xbdb9ca00	-0.090717316
131	0xbdd9b1b5	-0.10629598
132	0x3d8e50b1	0.069489844
133	0xbe4383e0	-0.19093275
134	0x3e1dfb0d	0.154278
135	0xbec10bc4	-0.3770429
136	0xbeb230de	-0.34802908
137	0x3d8db5e5	0.06919459
138	0xbdcff7d9	-0.10154695
139	0xbe904234	-0.2817551
140	0x3dc5ec57	0.09664219
141	0xbd5bd4c6	-0.053669713
142	0x3ceaba7b	0.028653374
143	0x3e97f709	0.2968066
144	0xbec3d01d	-0.38244715
145	0xbe91ba13	-0.28462276
146	0xbf38106b	-0.7190005
147	0xbd615284	-0.055010334
148	0xbe8650f2	-0.2623363
149	0xbe5bbff1	-0.21459939
150	0x3c1acebd	0.009448704
151	0xbe468b34	-0.1938904
152	0xbf7fb2a0	-0.99881935
153	0xbcb597a4	-0.022167034
154	0xbd07e26f	-0.03317493
155	0xbc4c2114	-0.012459058
156	0xbd5226f3	-0.051306676
157	0xbdffe8d6	-0.12495582
158	0xbb4e5be0	-0.0031487867
159	0x3d88cc60	0.066796064
160	0x3cfa3e1b	0.030547192
161	0xbe12950e	-0.14314672
162	0xbec28c9c	-0.379979
163	0x3d0323f6	0.032016717
164	0x3d88d8f8	0.066820085
165	0xbd6b06d7	-0.05737957
166	0x3d6475b8	0.055776328
167	0xbc98d586	-0.018656503
168	0x3d938321	0.07202745
169	0xbe49027f	-0.19629858
170	0x3e22dcbb	0.15904514
171	0x3d0058e2	0.031334765
172	0xbe191fe6	-0.14953575
173	0xbe311068	-0.17291415
174	0xbe8a2fd4	-0.26989615
175	0x3ef2730b	0.47353396
176	0x3e0ca8c4	0.13736254
177	0xbddf76d8	-0.109113395
178	0xbded9b79	-0.1160192
179	0x3d6f73bb	0.05845998
180	0xbdb87812	-0.090072766
181	0x3e9aa044	0.30200398
182	0x3e81c410	0.25344896
183	0x3e349b4c	0.17637366
184	0x3e02956d	0.12752314
185	0x3e854a34	0.26033175
186	0x3e1af35b	0.15131895
187	0xbf37be5c	-0.7177484
188	0x3e3e635e	0.18592593
189	0x3c286b20	0.010279447
190	0xbd0bd56c	-0.03413908
191	0xbdbaaf16	-0.09115426
192	0xbd5d8ab3	-0.054087352
193	0x3cb2a704	0.021808155
194	0x3d4689a2	0.0484711
195	0xbc5d33c0	-0.013501108
196	0xbdb40618	-0.08790225
197	0x3d8c7aab	0.068593346
198	0x3d2d1136	0.04225274
199	0x3d8e2773	0.06941118
200	0x3d10436e	0.035220556
201	0x3ca57734	0.020198442
202	0xbd8de0d0	-0.06927645
203	0xbc08c4e8	-0.008347727
204	0x3b4f6780	0.0031647384
205	0xbd8a0432	-0.067390814
206	0xbd424245	-0.04742648
207	0xbd228bf0	-0.039684236
208	0xbacee580	-0.0015784949
209	0xbcaae740	-0.020862222
210	0x3d8bde49	0.06829507
211	0xbbde57c0	-0.006785363
212	0xbcd3d47c	-0.025858156
213	0xbdbbd12e	-0.09170757
214	0xbda9f47a	-0.08298583
215	0xbd8fc73c	-0.07020423
216	0x3e071729	0.13192429
217	0x3d193783	0.037406456
218	0xbe696134	-0.22790986
219	0x3dc3d0ac	0.095612854
220	0xbd2a86c9	-0.041632447
221	0xbd867004	-0.06564334
222	0x3c99711b	0.01873069
223	0xbc96c1ae	-0.0184029
224	0x3e30fd0b	0.17284028
225	0x3d93bca3	0.07213714
226	0x3de269d0	0.110553384
227	0x3e2dd2fe	0.16975018
228	0x3d985c2e	0.07439457
229	0xbda33480	-0.07968998
230	0x3e166b4a	0.14689365
231	0x3e63e15e	0.2225394
232	0x3dd9bc04	0.10631564
233	0xbe3c07a1	-0.18362285
234	0x3ea7bd61	0.32761672
235	0xbe851f36	-0.26000375
236	0xbecad1cd	-0.3961319
237	0x3e9e6308	0.3093493
238	0xbe3221f5	-0.17395766
239	0xbe4bb01e	-0.19891402
240	0xbe049d3d	-0.12950607
241	0xbe220937	-0.15823828
242	0xbde0c605	-0.10975269
243	0xbcb7d48f	-0.022440223
244	0xbdd66e60	-0.10470271
245	0x3bf39321	0.0074333106
246	0xbd49a9c4	-0.049234167
247	0xbda2b305	-0.079443015
248	0x3d9763a9	0.073920555
249	0x3d9cbc26	0.07653074
250	0xbdc9e5d8	-0.09858292
251	0xbd514e6e	-0.051100187
252	0x3dd3552c	0.103189796
253	0xbdb92ad6	-0.090413734
254	0xbe9458ac	-0.289739
255	0x3cd1f87e	0.025631186

conv1.bias f4 [16]
0	0x3e8d0507	0.27542898
1	0x3e9ea007	0.30981466
2	0x3e3277f7	0.17428575
3	0x3e6373cb	0.2221214
4	0x3e4df892	0.20114353
5	0x3df1f5ef	0.11814486
6	0x3e825150	0.25452662
7	0x3e1c0df8	0.15239704
8	0x3e5191dc	0.20465797
9	0x3e3d499d	0.18485112
10	0x3d21a9b8	0.039468497
11	0x3e33d3dc	0.17561287
12	0x3e85c0e5	0.2612373
13	0x3e70e48d	0.23524685
14	0x3e805885	0.25067535
15	0x3e1f08c6	0.1553069

conv2.weight f4 [32, 16, 3, 3]
0	0x3cdab150	0.026695877
1	0x3de50b76	0.111838266
2	0x3d58c204	0.052919403
3	0x3e2cf566	0.16890487
4	0x3eb39c5c	0.3508023
5	0x3e8e2feb	0.27770934
6	0x3e7e7a40	0.24851322
7	0x3ef1bf91	0.47216466
8	0x3e26ed19	0.16301383
9	0xbe9aab3e	-0.30208772
10	0x3e558088	0.20849812
11	0x3e074011	0.13208033
12	0xbe345dd4	-0.17613918
13	0x3eb3afbd	0.35095015
14	0x3ec9ac2e	0.39389175
15	0xbe168486	-0.14698991
16	0x3e9c42b6	0.30519646
17	0x3edded62	0.4334517
18	0x3c135abe	0.008993803
19	0xbd938d7f	-0.072047226
20	0xbdb75458	-0.08951634
21	0x3d26a5f7	0.04068562
22	0x3efbd075	0.49182478
23	0x3d4c79fb	0.049921017
24	0x3e139358	0.14411676
25	0x3f16078b	0.5860526
26	0x3e946722	0.28984934
27	0x3e68aed0	0.22722936
28	0x3e7251ec	0.23664063
29	0x3e976c7d	0.29574957
30	0xbcb89985	-0.022534141
31	0x3e5669de	0.20938823
32	0x3e458cf6	0.19292054
33	0xbd4b8c6e	-0.04969447
34	0x3df6d5c3	0.120524906
35	0x3dbf29db	0.09334155
36	0xbe3acfd7	-0.18243347
37	0xbe228d88	-0.15874302
38	0x3c0dc2ec	0.00865243
39	0x3bf0a096	0.007343362
40	0x3dfe7f24	0.12426594
41	0x3e4ccaeb	0.19999282
42	0x3d75323d	0.059862364
43	0x3eafa465	0.3430511
44	0x3eb09e89	0.34495953
45	0x3d864665	0.065563954
46	0x3e22dd08	0.15904629
47	0x3d38bfd7	0.045104828
48	0x3dba893f	0.09108209
49	0x3e926c0d	0.2859806
50	0x3eb10b1f	0.34578797
51	0x3d9063ea	0.07050307
52	0x3eaf2271	0.34205964
53	0x3ebb7a77	0.3661687
54	0xbcbd8136	-0.023132902
55	0x3d7371a6	0.059434555
56	0x3e89e0b9	0.26929262
57	0x3da0f310	0.078588605
58	0x3e6245dd	0.22096963
59	0x3ed083c7	0.40725538
60	0x3d80d954	0.06291452
61	0x3e0d75f2	0.13814524
62	0x3e78101f	0.242249
63	0x3d3de355	0.04635938
64	0x3ca189e5	0.019719074
65	0x3e0fe805	0.14053352
66	0xbc64e34f	-0.01397021
67	0x3e3314a6	0.17488346
68	0x3ebdee8a	0.37096053
69	0x3d56411e	0.052308194
70	0x3e271a1d	0.16318555
71	0x3e790393	0.2431777
72	0x3e096563	0.13417582
73	0x3e1447a6	0.14480457
74	0x3e9679dc	0.29389846
75	0x3d15c0a6	0.036560677
76	0x3e87c958	0.265208
77	0x3e8bfb81	0.2734032
78	0x3dd7d89a	0.1053936
79	0x3e1db0e0	0.15399504
80	0x3df1af6e	0.11801039
81	0x3e548748	0.2075473
82	0x3e8cb1b2	0.2747932
83	0x3d9c476d	0.07630811
84	0x3e9d06bd	0.30669203
85	0x3ec74a55	0.38923898
86	0x3e3fba06	0.18723306
87	0x3e7e1447	0.24812423
88	0x3e298303	0.16553883
89	0xbddf1900	-0.1089344
90	0x3e61cdcb	0.2205116
91	0x3e7082df	0.23487423
92	0x3e23d969	0.16000904
93	0x3d42db9f	0.04757273
94	0x3e9ddca7	0.30832407
95	0x3e1c2fe4	0.15252644
96	0x3ccd2621	0.025042595
97	0x3e12c517	0.14332996
98	0xbe5871e6	-0.21137199
99	0x3d3445c1	0.044011835
100	0x3dca32f1	0.098729976
101	0x3e6f925a	0.23395672
102	0x3d005497	0.03133067
103	0x3df60d97	0.12014311
104	0x3eab23b0	0.33425665
105	0xbcd5686b	-0.026050767
106	0x3e0c03bf	0.13673304
107	0x3ed606c4	0.41802037
108	0x3e349974	0.17636663
109	0xbd2214ec	-0.039570734
110	0xbc8273e7	-0.015924407
111	0x3e2f7e5a	0.17138043
112	0x3d46bfd7	0.048522796
113	0x3e13961c	0.14412731
114	0x3d383a07	0.044977214
115	0x3dccec01	0.10005952
116	0x3dc36554	0.09540811
117	0x3da5cba1	0.0809548
118	0x3d74f28c	0.059801623
119	0x3d9c047b	0.07618042
120	0x3ea9807e	0.33105844
121	0x3ec3aa02	0.38215643
122	0x3e7f3628	0.24923003
123	0x3e9557c1	0.29168513
124	0x3ead4a87	0.33845922
125	0x3eaeffe9	0.3417962
126	0xbd9d597d	-0.07683084
127	0x3d78ec23	0.060772073
128	0x3d7ca06c	0.061676428
129	0x3d4f3b19	0.05059347
130	0x3e2f9481	0.17146493
131	0x3e13eb03	0.14445119
132	0x3d1bfb84	0.03808166
133	0x3de2a384	0.110663444
134	0x3e90fdee	0.28318733
135	0xbd0e0cb4	-0.034680083
136	0x3a87de58	0.0010365946
137	0x3dd87962	0.10570027
138	0xbb245901	-0.0025077465
139	0x3d75d5e3	0.06001843
140	0x3e866e33	0.2625595
141	0xbdfef373	-0.12448778
142	0xbd672c6f	-0.05643886
143	0x3e1627b6	0.14663586
144	0xbd7ae0de	-0.061249606
145	0x3eb4cdab	0.35313162
146	0x3e54a97a	0.20767775
147	0x3c586d6e	0.013209684
148	0x3ec4d4be	0.3844356
149	0x3ecced18	0.40024638
150	0xbc713dbb	-0.01472419
151	0x3e58eabc	0.21183294
152	0x3e6ce1f0	0.23133063
153	0xbeac97f3	-0.33709678
154	0x3e5adc75	0.2137316
155	0x3ea373ae	0.31924194
156	0xbebad297	-0.36488792
157	0x3ec09ef0	0.3762126
158	0x3ef1d843	0.47235307
159	0xbea07f8b	-0.31347308
160	0x3e48f682	0.19625285
161	0x3ece8f7d	0.40343848
162	0x3c95ab2b	0.018270096
163	0x3e577f93	0.2104476
164	0x3d0f4c2d	0.034984756
165	0xbbdc0b52	-0.0067152167
166	0x3efd4c32	0.49472195
167	0x3e17306c	0.14764565
168	0x3d984804	0.07435611
169	0x3ebc7923	0.3681117
170	0x3e9d42a2	0.307149
171	0x3d85d338	0.065344274
172	0x3e82ca37	0.25544903
173	0x3eb9f981	0.3632317
174	0xbcd97522	-0.026545111
175	0x3e174928	0.14774
176	0x3e976eaa	0.29576617
177	0xbe261e18	-0.16222417
178	0x3ae6195f	0.0017555169
179	0x3e0bd8eb	0.13656966
180	0xbd8bfb35	-0.06835023
181	0xbcba21d0	-0.022721201
182	0x3d89af6d	0.06722913
183	0x3de47c14	0.111564785
184	0x3ebe4908	0.37165093
185	0x3e961eb8	0.29320312
186	0xbd563629	-0.052297745
187	0x3ea1e184	0.31617367
188	0x3e78979a	0.24276581
189	0x3cd6f1d4	0.02623836
190	0x3db3c117	0.08777063
191	0xb8316fef	-4.2304335e-05
192	0x3db152e2	0.08658387
193	0x3efd64e2	0.4949103
194	0x3e6f5ec5	0.23375995
195	0x3e115664	0.14193112
196	0x3eb703fe	0.35745233
197	0x3ec3c47f	0.38235852
198	0xbceac889	-0.028660076
199	0x3d9fa139	0.07794423
200	0x3e67a913	0.2262309
201	0xbdaaa5c3	-0.08332398
202	0x3e8ec90d	0.27887765
203	0x3eb3aee8	0.3509438
204	0x3d9e615c	0.077334136
205	0x3d95e090	0.073182225
206	0x3e262b02	0.16227344
207	0x3d9ac3ee	0.07556902
208	0x3e5e5a83	0.21714215
209	0x3e0831aa	0.13300195
210	0xbe170eed	-0.14751787
211	0x3eb4b0a5	0.3529102
212	0x3ec30e87	0.3809702
213	0xbda0f46f	-0.07859122
214	0x3eaf8a2c	0.34285104
215	0x3e61292e	0.21988365
216	0x3e561262	0.2090545
217	0x3e34bd8c	0.17650431
218	0x3eb2c10f	0.34912917
219	0x3e55c8dd	0.20877405
220	0x3ed8d4ca	0.42349845
221	0x3e85f103	0.2616044
222	0x3def6dd4	0.1169087
223	0x3e915647	0.28386137
224	0x3e21cbba	0.15800372
225	0x3e8f2257	0.27955887
226	0x3ec22413	0.37918147
227	0x3e977a8e	0.2958569
228	0x3e92ea1a	0.2869423
229	0x3ec70561	0.3887129
230	0x3e3c1fc5	0.18371494
231	0x3d909b1b	0.07060834
232	0x3eacd0fa	0.33753186
233	0x3da6981e	0.08134483
234	0x3e1033d7	0.14082275
235	0x3e436acc	0.19083709
236	0x3db11284	0.0864611
237	0x3e8fee42	0.28111464
238	0x3ef41e4f	0.47679374
239	0xbd88d0dc	-0.06680462
240	0x3e904ae5	0.2818214
241	0x3ea6a105	0.32544723
242	0xbe33a8be	-0.17544839
243	0xbdc579e6	-0.09642391
244	0x3e4e90c9	0.20172419
245	0x3e896759	0.2683666
246	0xbd25fc01	-0.040523533
247	0x3e9da6a8	0.3079121
248	0x3eef99c0	0.4679699
249	0xbbe11ba8	-0.006869752
250	0x3e566bd8	0.20939577
251	0x3e891b42	0.2677861
252	0x3d281d92	0.041043825
253	0x3c9ee18b	0.019394657
254	0x3da693c2	0.08133651
255	0x3db1fb98	0.08690566

conv2.bias f4 [32]
0	0x3d2bf79d	0.04198419
1	0x3c3fae12	0.011699216
2	0x3daed2d4	0.08536306
3	0x3d80f513	0.06296744
4	0x3d9ef04b	0.07760676
5	0x3d161813	0.036644053
6	0x3d954c6e	0.072899684
7	0x3d5edc2a	0.054409184
8	0x3cfab068	0.030601695
9	0x3da8a78e	0.082350835
10	0x3db03b9b	0.08605119
11	0x3dd76a3b	0.10518309
12	0x3dd10c72	0.10207452
13	0x3ccac602	0.02475262
14	0x3d2b08e1	0.041756514
15	0x3dcb10ff	0.09915351
16	0x3da1e28e	0.0790454
17	0x3d8df616	0.06931703
18	0x3e010978	0.12601268
19	0x3de70867	0.112808995
20	0x3d2b0a15	0.04175766
21	0x3dd6dc76	0.10491268
22	0x3e066685	0.13125046
23	0x3db9698a	0.09053333
24	0x3da874b2	0.08225383
25	0x3d6b51e4	0.057451144
26	0x3d27fdf0	0.041013658
27	0x3ddfdccf	0.10930788
28	0x3d7bc0e8	0.061463267
29	0x3df91257	0.12161701
30	0x3cb49527	0.022043778
31	0x3d3f615f	0.04672372

fc1.weight f4 [64, 800]
0	0x3c08c08b	0.008346687
1	0x3d0e0ac6	0.034678243
2	0xbcb0e379	-0.021592842
3	0xbc76dccf	-0.015067293
4	0x3c8d06fd	0.017215246
5	0xbcf14f5f	-0.029456792
6	0xbcb739bc	-0.022366397
7	0x3d088fb1	0.03334016
8	0xbbf99f5d	-0.0076178745
9	0xbc56c6d0	-0.013108924
10	0x3c086a0e	0.008326067
11	0xbc1c9260	-0.009556383
12	0xbc5a13f0	-0.0133104175
13	0xbc8f367b	-0.017482033
14	0xbc297410	-0.010342613
15	0x3c858f54	0.016303696
16	0xbce2b0a7	-0.027672125
17	0x3c94346b	0.018091401
18	0x3cd71c39	0.026258575
19	0xbd105abb	-0.035242777
20	0xbc58ce86	-0.013232833
21	0x3d082ac1	0.0332439
22	0xbbae734e	-0.005323804
23	0x3b8dee06	0.004331353
24	0x3c1352ec	0.008991938
25	0x3cb78c64	0.02240581
26	0xbc665cbc	-0.014060196
27	0x3cff8953	0.031193411
28	0xbb37d744	-0.0028051892
29	0x3cea32be	0.028588649
30	0x3c9773a3	0.018487757
31	0xbcd2a6fe	-0.025714394
32	0x3cd1df28	0.025619105
33	0xbb6059bf	-0.003423318
34	0x3cbbf058	0.022941753
35	0xbcfa2898	-0.030536935
36	0xbc3ebdb9	-0.011641913
37	0xbc821185	-0.015877495
38	0x3b703262	0.0036651124
39	0xbbe4ba64	-0.0069802273
40	0x399cebdb	0.00029930365
41	0x3c6e2546	0.014535254
42	0xbc33eece	-0.010982228
43	0x3bd4efd7	0.0064983177
44	0x3c254903	0.010088208
45	0x3ced29a3	0.028950518
46	0x3d1020d1	0.035187546
47	0x3cc981e2	0.024598066
48	0x3c9f3398	0.019433782
49	0x3d08f0a0	0.033432603
50	0x3cf6c5b6	0.030123573
51	0x3c40e731	0.01177387
52	0x3ced1ddf	0.028944908
53	0xbbd57123	-0.006513731
54	0xbc008d3f	-0.007846176
55	0x3c78dfe1	0.015190096
56	0xbb4f1da5	-0.0031603363
57	0x3cabfdb7	0.020995004
58	0xbd014f88	-0.031569988
59	0xbc58e0c9	-0.013237187
60	0xbc528586	-0.012849217
61	0x3d0406cf	0.032233056
62	0x3c14ab9d	0.009074119
63	0x3b5190f1	0.003197726
64	0xbc981297	-0.018563552
65	0x3c9f040c	0.01941111
66	0x3b8af800	0.0042409897
67	0xbd014579	-0.031560395
68	0xbd0dc6d9	-0.034613464
69	0xbd018db9	-0.031629298
70	0x3cf77b0e	0.030210044
71	0x3cd0df0d	0.025496984
72	0xbaaf0b76	-0.0013354856
73	0xbcde59e8	-0.02714248
74	0xbb24a757	-0.0025124156
75	0x3bbc5c14	0.0057482813
76	0x3c8e78b5	0.017391542
77	0x3c24983e	0.010046063
78	0x3c491792	0.012273686
79	0x3d04719a	0.0323349
80	0xbc63235b	-0.01386341
81	0xbc8d0074	-0.01721213
82	0x3c865af3	0.01640079
83	0x3c9eb9f6	0.019375782
84	0xbcf6efda	-0.030143667
85	0x3c830f82	0.015998606
86	0xbc071fb7	-0.0082473075
87	0x3c6e8b83	0.014559629
88	0xbc45d66a	-0.012075046
89	0xbcf8a885	-0.030353794
90	0x3cda6ec0	0.026664138
91	0xbcac61ea	-0.021042783
92	0x3cb18e06	0.021674167
93	0xbbf3820f	-0.0074312757
94	0x3c896b51	0.016774805
95	0xbbdee3bf	-0.006802052
96	0xbbba4a49	-0.005685125
97	0xbc011d6c	-0.00788055
98	0xbd0d1ae5	-0.034449477
99	0xbc608b2c	-0.013705056
100	0x3d00e93a	0.031472422
101	0xbc7fe0bd	-0.015617547
102	0x3ce3a8eb	0.027790507
103	0x3b750b89	0.0037390909
104	0x3cd7c241	0.026337745
105	0xbab70994	-0.0013964646
106	0xbcacdc60	-0.021101177
107	0x3c8818c5	0.016613374
108	0xbcb5a5da	-0.02217381
109	0x3c0030d8	0.007824145
110	0x3cd2d1e7	0.025734855
111	0x3d0b5340	0.03401494
112	0x3cb78b0b	0.022405168
113	0x3b0ecf60	0.0021791086
114	0x3c174ba2	0.009234341
115	0x3cb455ab	0.022013506
116	0x3ab9105d	0.0014119257
117	0xbcde787e	-0.027157065
118	0xbd0a1fb2	-0.033721633
119	0x3c120479	0.008912199
120	0x3c9f069d	0.019412333
121	0x3cc4e659	0.02403562
122	0xbbb38b4f	-0.0054792534
123	0x3b82a1bc	0.0039865654
124	0x3bbb980f	0.005724914
125	0x3cfeb81c	0.03109365
126	0xbcf92702	-0.030414108
127	0x3c847497	0.016168876
128	0x3ca34ee2	0.019935075
129	0x3ca4074f	0.020023016
130	0xbce10a92	-0.02747086
131	0xbc064199	-0.008194351
132	0xbcc93c69	-0.024564939
133	0x3b49263e	0.003069296
134	0xbcc9a36a	-0.024614055
135	0x3ce4d384	0.02793289
136	0xbc034ac8	-0.008013435
137	0xbc95cb6f	-0.018285481
138	0xbcebe8f1	-0.028797599
139	0xbca41c4a	-0.02003302
140	0x3ce79a7c	0.028271906
141	0xbc2d97be	-0.01059526
142	0xbc96e6ea	-0.018420655
143	0x3c0e05a7	0.00866834
144	0xbcc73104	-0.024315365
145	0x3d0e4729	0.034735832
146	0xbcd55b6d	-0.026044572
147	0xbca4208f	-0.020035056
148	0xba354e78	-0.0006916295
149	0xbb8f1d57	-0.0043675113
150	0xbce18208	-0.027527824
151	0xbb662867	-0.0035119297
152	0x3cf26b78	0.02959226
153	0x3ca34d96	0.019934457
154	0xbc0d1782	-0.008611562
155	0xbce7a045	-0.028274665
156	0xbb5918cb	-0.003312635
157	0xbc08f9e0	-0.008360356
158	0x3b993d2d	0.004676482
159	0xbca44890	-0.020054132
160	0xbc9e5413	-0.0193272
161	0xbc432ed8	-0.011913024
162	0x3b0fae6c	0.0021924032
163	0xbc52ed5c	-0.012873974
164	0xbcba0cbe	-0.022711154
165	0x3a6ee512	0.00091131136
166	0xbc256bc3	-0.010096493
167	0x3b599565	0.0033200618
168	0x3ccef151	0.025261553
169	0xbaad3b48	-0.001321652
170	0x3c6e6e48	0.01455266
171	0x3cba571b	0.022746613
172	0x3c6c90f5	0.014438857
173	0xbcee6b46	-0.029103886
174	0xbce4bee1	-0.02792305
175	0xbc5c5001	-0.013446809
176	0x3beec622	0.007286803
177	0x3ce3ae3d	0.027793044
178	0xbd09815e	-0.03357064
179	0xbd10c2ad	-0.035341907
180	0x3c968eb0	0.018378586
181	0xbb968f3e	-0.0045947125
182	0xbc8aa56b	-0.01692458
183	0x3bd06cca	0.006360625
184	0xbbba78fe	-0.005690693
185	0x3d08cdbc	0.03339933
186	0x3b3853f9	0.0028126223
187	0xbd120f15	-0.035658915
188	0xbcfb257b	-0.03065752
189	0xbd0952d3	-0.033526253
190	0x3b497587	0.0030740218
191	0x3cf70996	0.030155938
192	0xbc6d4dca	-0.014483878
193	0xbbaba776	-0.0052384688
194	0xbb2da3c7	-0.0026495324
195	0xbca25786	-0.019817125
196	0xbacdd744	-0.0015704413
197	0x3cc81d4d	0.024428034
198	0xbc8adccc	-0.016950987
199	0x3a56155c	0.0008166635
200	0x3ce1c5e2	0.027560178
201	0xbb4fb548	-0.0031693745
202	0x3c819548	0.015818253
203	0xbba4ac6a	-0.005025436
204	0xbcf3896c	-0.029728614
205	0xbd0c48c4	-0.034249082
206	0x3cc6a667	0.024249269
207	0xbc5ac975	-0.013353695
208	0x3cdd92e1	0.027047576
209	0x3ca246b2	0.0198091
210	0x3cda2dc6	0.026633155
211	0x3d05a616	0.032629095
212	0x3918bb4d	0.00014565625
213	0xbd057fb1	-0.03259248
214	0xbcdb7f2b	-0.026794037
215	0x3c9b1945	0.018932948
216	0xbca155bc	-0.019694202
217	0xbbd5a93f	-0.00652042
218	0xbaf64b7e	-0.0018790809
219	0xbc309d90	-0.010779753
220	0x3be1c632	0.006890082
221	0xbc20dd9a	-0.009818459
222	0x3c4f469f	0.012651115
223	0xbd0be451	-0.034153286
224	0xbc0cce69	-0.008594134
225	0x3c919be0	0.017774522
226	0x3d053872	0.032524534
227	0x3c833ebc	0.016021125
228	0xbcab04df	-0.020876346
229	0xbb8c61ab	-0.004284104
230	0xbc50d77f	-0.012746691
231	0x3d0dbaf0	0.034602106
232	0xbd0b5fb1	-0.034026805
233	0xba447340	-0.000749398
234	0x3ba12782	0.00491804
235	0x3b847bdc	0.0040430855
236	0xbb55e1a0	-0.0032635704
237	0x3ca80b90	0.020513326
238	0xbc7d2f6a	-0.015453199
239	0xbcd2d687	-0.02573706
240	0xbbe89ea0	-0.0070989877
241	0xbce63a56	-0.028103989
242	0xbc6a2303	-0.014290574
243	0xba232e77	-0.00062248803
244	0x3c77f9c7	0.015135235
245	0x3ccdef43	0.025138503
246	0xbcd670cd	-0.026176834
247	0xbcef9329	-0.029244976
248	0x3ce0df79	0.02745031
249	0x3ad3ddac	0.0016164086
250	0xbd0aeb2c	-0.033915684
251	0x3ce07a38	0.027402028
252	0x3c812018	0.015762374
253	0xbd0ac31f	-0.03387749
254	0x3c5403fe	0.012940405
255	0x3bf753f7	0.007547851

fc1.bias f4 [64]
0	0x3c10484c	0.008806299
1	0xbc6a0572	-0.014283525
2	0x3d49d268	0.049272925
3	0xbca2a308	-0.01985313
4	0x3c65c1c1	0.014023245
5	0x3d0aacae	0.033856086
6	0x3b9ff170	0.0048810765
7	0x3da80e75	0.082058825
8	0xbc8c48c9	-0.01712455
9	0xbc2cc256	-0.01054438
10	0xbc816084	-0.015793093
11	0x3cb19609	0.021677988
12	0x3dcb0dcd	0.09914742
13	0x3d96e403	0.073677085
14	0x3cf8d5f2	0.030375455
15	0x3cfeca8c	0.031102441
16	0x3b124dd1	0.0022324214
17	0x3c96615a	0.018356968
18	0x3d814a8c	0.06313047
19	0xbcb06a3f	-0.021535037
20	0xbbd78990	-0.006577678
21	0x3c23730a	0.009976158
22	0xbc791815	-0.0152034955
23	0x3a3f3f3c	0.00072954944
24	0xbca66d80	-0.020315886
25	0x3d9ad743	0.07560589
26	0x3da8ecf1	0.08248318
27	0x3bb22559	0.005436581
28	0x3ccd0627	0.025027348
29	0x3c33c174	0.010971416
30	0xba67a421	-0.0008836408
31	0xbc222bd7	-0.009898148
32	0xbc0ab8e0	-0.008466929
33	0x3d511848	0.051048547
34	0x3cfb51a1	0.030678572
35	0xbc902842	-0.017597321
36	0xb9dc6172	-0.00042034272
37	0x3d0ebbf7	0.034847226
38	0xbb0ab98f	-0.002116773
39	0x3d934534	0.07190934
40	0x3c507524	0.012723241
41	0x3d008f1d	0.031386483
42	0x3c890cb1	0.016729685
43	0x3ceed711	0.029155286
44	0x3d4e3118	0.05033979
45	0xbc798b2b	-0.015230934
46	0xbb095727	-0.0020956488
47	0x3d6fa811	0.05850989
48	0x3cb2bf51	0.021819742
49	0x3dbe8835	0.09303323
50	0x3db4abf0	0.08821857
51	0x3ba0f2a6	0.0049117384
52	0x3cd55150	0.02603975
53	0x3bbac0ab	0.0056992373
54	0x3d477f28	0.04870525
55	0x3d5aaff0	0.053390443
56	0xbb932d03	-0.00449145
57	0x3d32294d	0.04349642
58	0x3c03a199	0.008034133
59	0x3c2250da	0.009906972
60	0x3c13e8f2	0.009027706
61	0x3d4249aa	0.047433533
62	0xbc120e40	-0.00891453
63	0x3c0fcae1	0.008776397

fc2.weight f4 [64, 64]
0	0xbde7c2f7	-0.113164835
1	0xbce04748	-0.02737774
2	0xbdf90c22	-0.12160517
3	0xbc12e3a0	-0.008965403
4	0xbdc4e61c	-0.096142024
5	0x3bfb7ea0	0.007675007
6	0xbd569f4c	-0.05239801
7	0x3d97b751	0.07408012
8	0x3d47e500	0.048802376
9	0xbd07369c	-0.033011064
10	0x3d7cfa62	0.06176222
11	0x3ddf966c	0.109173626
12	0x3d704c95	0.058666784
13	0x3dfee919	0.124468036
14	0xbdd123c8	-0.10211903
15	0x3d993914	0.0748159
16	0x3b320a19	0.0027166663
17	0x3c53b6a0	0.012921959
18	0xbda45fa1	-0.08026052
19	0x3d9392b7	0.07205718
20	0xbd5bf6f9	-0.05370233
21	0x3db9d967	0.09074669
22	0xbdfbb48c	-0.12290296
23	0x3d7503c2	0.059818037
24	0x3d7c67bc	0.061622366
25	0xbd1d6987	-0.038430717
26	0x3d9f1914	0.07768455
27	0x3dcb73d1	0.099341996
28	0x3e1ce53d	0.15321822
29	0x3db6b05a	0.08920355
30	0xbdd948ca	-0.106095865
31	0x3db3c451	0.08777679
32	0xbb4e2b43	-0.0031458891
33	0xbe1c8092	-0.1528342
34	0x3e08172e	0.13290092
35	0x3c1cf020	0.009578735
36	0x3cc043ec	0.023469888
37	0x3da0c730	0.07850492
38	0xbc298bf0	-0.010348305
39	0xbc674f7b	-0.014118071
40	0xbb671980	-0.0035263002
41	0xbc71c5fe	-0.014756678
42	0xbdaddc31	-0.08489264
43	0x3e242edf	0.16033505
44	0x3dc01048	0.093781054
45	0x3e2ac87c	0.16678041
46	0xbdfc4118	-0.12317103
47	0x3dadc07f	0.08483981
48	0x3e041fa8	0.12902701
49	0x3db08939	0.08619923
50	0x3d4d320b	0.050096553
51	0x3ce31480	0.027719736
52	0x3de3c4c8	0.111215174
53	0x3d9d3222	0.07675578
54	0x3d4695f6	0.048482858
55	0xbc9c724c	-0.01909747
56	0x3d233111	0.039841715
57	0x3d199e7c	0.037504658
58	0x3d660f11	0.056166712
59	0x3d4a8dfc	0.049451813
60	0xbd7622ca	-0.06009177
61	0x3c4495b4	0.011998583
62	0x3db3ca60	0.08778834
63	0xbd9cefc4	-0.07662919
64	0x3d8c763e	0.068584904
65	0x3d932478	0.0718469
66	0xbc6a7500	-0.014310122
67	0x3d82c5f8	0.06385416
68	0x3def9632	0.11698569
69	0xbd02c234	-0.031923488
70	0xbcf63c38	-0.030058011
71	0xbdb4f8e4	-0.088365346
72	0x3d9d4b76	0.07680409
73	0x3d60d8e4	0.054894343
74	0xbd2e0fec	-0.042495653
75	0xbd9b6f5e	-0.07589601
76	0x3d233434	0.039844707
77	0xbdbb31fc	-0.09140393
78	0xbddd7862	-0.10813977
79	0x3d15276c	0.03641455
80	0xbd8264fa	-0.06366916
81	0x3d02b814	0.03191383
82	0xbdddb95c	-0.1082637
83	0xbcf8a740	-0.030353189
84	0x3d240c24	0.04005064
85	0x3dd30f58	0.10305661
86	0x3d7f9c34	0.062404826
87	0x3ca42e78	0.02004169
88	0xbb820640	-0.00396803
89	0x3a846b00	0.0010102689
90	0x3d365df4	0.044523194
91	0xbc197a50	-0.0093675405
92	0x3bd3baa0	0.0064614564
93	0x39d6e400	0.00040987134
94	0xbd2e9ba0	-0.042628884
95	0xbd261f58	-0.040557235
96	0x3dd97a84	0.10619071
97	0x3db3199a	0.087451175
98	0xbd51ec34	-0.05125065
99	0x3d4aa82c	0.049476787
100	0xbd84ab60	-0.06478
101	0xbcd895d8	-0.026438639
102	0xbdf9771a	-0.1218092
103	0xbd6fb104	-0.058518425
104	0x3d397dc0	0.04528594
105	0xbb51c680	-0.0032009184
106	0xbd4f5024	-0.050613537
107	0x3dd89446	0.10575156
108	0x3dfbfa78	0.123036325
109	0x3dbc1122	0.09182955
110	0x3d02ee7c	0.031965718
111	0xbb941d20	-0.0045200735
112	0xbdc31866	-0.09526138
113	0x3daae60c	0.08344659
114	0x3d08b2e8	0.033373743
115	0xbdab807e	-0.08374117
116	0x3dce7e1e	0.10082649
117	0xbdc0073a	-0.09376378
118	0xbdfe91f8	-0.12430185
119	0xbdec90ac	-0.115510315
120	0x3dc5e06e	0.09661947
121	0xbdfacd30	-0.12246168
122	0xbdbf5af2	-0.09343518
123	0xbdc76194	-0.097354084
124	0xbd8771e2	-0.06613518
125	0xbd7f4404	-0.062320724
126	0x3d9ef278	0.07761091
127	0xbdb48548	-0.08814484
128	0x3cde93d0	0.027170092
129	0x3cabbea0	0.02096492
130	0x3c9b621e	0.018967684
131	0xbdbc7d48	-0.09203583
132	0xbdbb0b26	-0.09132986
133	0x3de7f41e	0.113258585
134	0x3d727a28	0.05919853
135	0x3e011596	0.1260589
136	0x3d845d56	0.06463115
137	0xbdea7a3d	-0.11449096
138	0x3df60b1c	0.12013838
139	0xbd93db14	-0.0721952
140	0xbdf2f982	-0.11863996
141	0xbe0e8890	-0.13919282
142	0x3caad6b0	0.020854324
143	0x3ca6c1c0	0.02035606
144	0x3c211cf2	0.009833561
145	0xb9f05400	-0.00045838952
146	0xbe004122	-0.12524846
147	0x3deb9b6b	0.11504253
148	0xbca6cb21	-0.020360531
149	0x3cc0d1d7	0.02353756
150	0xbd6cf828	-0.057853848
151	0x3de07d2b	0.10961374
152	0x3be23860	0.006903693
153	0xbd7bbe93	-0.061461043
154	0xbe288d0b	-0.16460054
155	0x3cf3bb62	0.029752437
156	0x3d9e9829	0.07743866
157	0xbd0f4c54	-0.0349849
158	0xbd97a900	-0.07405281
159	0xbd8bdffb	-0.0682983
160	0xbdf770ec	-0.12082085
161	0xbd13bbe8	-0.036067873
162	0x3c3fe644	0.011712614
163	0xba75ea00	-0.0009380877
164	0xbdb01e99	-0.08599586
165	0x3e025ea9	0.12731422
166	0x3e3798db	0.17929403
167	0xbd6cb3dc	-0.057788715
168	0xbdd8ff96	-0.10595624
169	0x3e35fe33	0.1777275
170	0x3d091f0c	0.033476874
171	0x3e1ab29b	0.15107195
172	0x3e46ee95	0.1942695
173	0x3e4540e4	0.19263035
174	0xbcef3bf8	-0.0292034
175	0xbd9e1720	-0.077192545
176	0x3dd6494d	0.104632
177	0xbe17e2bc	-0.14832586
178	0xbd356824	-0.04428877
179	0x3d821fb0	0.063537
180	0xbd5f1370	-0.054461896
181	0x3db2c950	0.087298036
182	0xbd4c89ce	-0.04993611
183	0x3e5d8b5b	0.21635191
184	0x3da7323c	0.08163878
185	0x3ddbb523	0.107279085
186	0xbd83a88b	-0.064286314
187	0xbd20febc	-0.039305434
188	0x3e1895df	0.14900921
189	0xbd191594	-0.037374094
190	0xbc9930c0	-0.018700004
191	0x3e5a0aa2	0.21293119
192	0xbd5872c0	-0.05284381
193	0x3d5d44ac	0.05402057
194	0x3e2dac18	0.1696018
195	0x3c5c8870	0.013460264
196	0xbd2e9e14	-0.042631224
197	0x3c06b2f0	0.008221373
198	0xbdb8a8fe	-0.09016608
199	0x3d1f1541	0.03883863
200	0x3dc979e8	0.09837705
201	0x3dc3ff5d	0.09570191
202	0x3dbaf68f	0.091290586
203	0x3deb55b4	0.11490956
204	0x3de8610c	0.11346635
205	0xbe0f2042	-0.13977149
206	0xbdcef7de	-0.10105871
207	0xbdd0683a	-0.1017613
208	0x3d3293e4	0.04359807
209	0xbd91d326	-0.071203515
210	0x3e23dd3f	0.16002367
211	0x3d85b181	0.06527997
212	0x3cb8cde0	0.022559106
213	0xbd5cb22d	-0.05388086
214	0x3d9fb3a8	0.077979386
215	0xbd9c3cc1	-0.076287754
216	0x3dc44fea	0.09585555
217	0x3ddd5ca9	0.10808689
218	0x3e5c7d48	0.21532166
219	0x3d96ce0b	0.07363518
220	0x3e5a4205	0.21314247
221	0xbdaf4736	-0.08558504
222	0xbdebf988	-0.11522204
223	0xbdf02dbb	-0.117274724
224	0xbd5262e4	-0.05136384
225	0x3e10bb15	0.14133866
226	0xbc1f7494	-0.009732384
227	0xbd4eabf0	-0.05045694
228	0x3d6c727b	0.057726365
229	0x3e04ba2a	0.12961641
230	0xbcd97fc2	-0.026550177
231	0x3e1e292d	0.15445395
232	0x3d5a2f38	0.053267688
233	0x3e79cd02	0.2439461
234	0x3c2868a3	0.010278854
235	0x3cbaf219	0.02282052
236	0x3e00f680	0.12594032
237	0xbd218aaa	-0.03943888
238	0xbde6f1ec	-0.11276612
239	0x3db54fbb	0.08853098
240	0x3decf0b5	0.11569349
241	0x3dac969f	0.08427166
242	0x3d9f4f6d	0.07778821
243	0x3d971d9a	0.07378693
244	0x3dccfe4c	0.10009441
245	0x3d60d1bc	0.05488752
246	0x3c9caea8	0.019126251
247	0x3d9a4790	0.07533181
248	0x3d7d0000	0.061767578
249	0x3d80271e	0.06257461
250	0xbcc39c7f	-0.023878334
251	0x3cb6ebc8	0.022329226
252	0xbc2c51ee	-0.01051758
253	0xbda4804e	-0.08032285
254	0xbd1cdc58	-0.038296074
255	0x3d99ba5b	0.075062476

fc2.bias f4 [64]
0	0xbd76a2bb	-0.060213786
1	0xbda18176	-0.07886021
2	0xbe393b6c	-0.18089074
3	0xbda15931	-0.0787834
4	0xbe171a3f	-0.14756106
5	0xbcf62a7e	-0.030049559
6	0x3dc28fca	0.09500082
7	0xbda42e08	-0.08016592
8	0x3d7f9238	0.062395304
9	0xbd5240f7	-0.051331487
10	0xbd81acd9	-0.06331796
11	0xbd4cade1	-0.04997051
12	0xbc926b05	-0.017873297
13	0xbcea0246	-0.028565537
14	0xbdd10cae	-0.102074966
15	0x3e0c35cc	0.13692397
16	0xbc9e7880	-0.019344568
17	0xbdd38253	-0.10327592
18	0xbe11a600	-0.1422348
19	0x3cdae78d	0.02672174
20	0xbcc21607	-0.023692144
21	0xbd50f975	-0.05101915
22	0x3e4f8d14	0.20268661
23	0x3cc277be	0.023738738
24	0x3e2995bf	0.1656103
25	0xbc159e90	-0.0091320425
26	0x3dbfa414	0.09357467
27	0x3d836f54	0.064177185
28	0xbdb2e671	-0.087353595
29	0x3d1ed6f8	0.03877923
30	0x3d69059d	0.05689012
31	0x3e1c8d13	0.1528819
32	0x3d7f267e	0.06229257
33	0x3dbc4bbc	0.09194133
34	0xbde73e17	-0.112911396
35	0x3bdc515b	0.0067235655
36	0x3d94d70a	0.07267578
37	0xbd961c30	-0.07329595
38	0x3e0d33a7	0.13789235
39	0x3dc77169	0.09738428
40	0x3d7b9ba9	0.061427746
41	0xbd66cb7f	-0.056346413
42	0x3df507fd	0.11964414
43	0xbd8642b6	-0.06555693
44	0xbdb5794f	-0.088610284
45	0x3df05847	0.117355876
46	0x3db7b352	0.089697495
47	0x3d695176	0.056962453
48	0x3e015ce2	0.12633088
49	0xbb1b1c85	-0.0023668122
50	0xbd4a7110	-0.04942423
51	0x3db8679e	0.090041384
52	0x3d416f3f	0.047225233
53	0xbdca35c4	-0.09873536
54	0x3df03f6d	0.117308475
55	0x3de9b255	0.11410967
56	0xbc80f6d0	-0.01574269
57	0xbd6a6590	-0.057225764
58	0xbdb2d4e9	-0.08732016
59	0x3d83258f	0.06403648
60	0x3d347636	0.044058047
61	0x3d941815	0.07231156
62	0x3d3e079e	0.046393983
63	0xbd0ef424	-0.0349008

fc3.weight f4 [7, 64]
0	0x3d58797f	0.052850243
1	0xbb622a00	-0.0034509897
2	0xbe256dd3	-0.16155176
3	0x3c96fc26	0.01843078
4	0xbe9c4c54	-0.30526984
5	0xbcea3c37	-0.028593166
6	0xbde180ad	-0.11010871
7	0xbd6b5914	-0.057458
8	0xbd0540fc	-0.032532677
9	0xbcaf80cd	-0.021423722
10	0x3e22b9b6	0.15891156
11	0xbdb161d6	-0.08661239
12	0x3d32c3ae	0.043643646
13	0xbce7b1de	-0.028283056
14	0x3d8f15cc	0.06986579
15	0xba63d9e3	-0.00086918304
16	0x3cf35560	0.029703796
17	0xbe029f83	-0.12756161
18	0x3eab6059	0.33471945
19	0x3e16cb6e	0.1472604
20	0x3d3b0c7d	0.045666207
21	0xbe043164	-0.12909466
22	0x3e19b365	0.1500984
23	0x3d29c16b	0.041444223
24	0x3c5e14b5	0.013554742
25	0xbd703541	-0.058644537
26	0x3c0034bb	0.007825072
27	0x3d1c8160	0.03820932
28	0xbe0191ba	-0.12653247
29	0x3d9528be	0.072831616
30	0x3daf74ed	0.08567224
31	0xbc341641	-0.010991634
32	0xbe1b1379	-0.15144147
33	0x3db2601d	0.087097384
34	0x3c983ce5	0.018583724
35	0xbe14bb18	-0.14524496
36	0xbcb78dc9	-0.022406476
37	0x3dd1ec10	0.102501035
38	0x3e18f7d1	0.14938284
39	0x3ce41463	0.027841752
40	0x3ef19b1d	0.47188655
41	0x3e294b6d	0.16532679
42	0xbe097eac	-0.13427228
43	0xbdd5c9d7	-0.104388885
44	0x3c8d00e8	0.017212346
45	0x3d937fae	0.07202087
46	0x3d873568	0.06601983
47	0xbc9098d2	-0.017650995
48	0x3cffe59c	0.031237416
49	0x3d38bcde	0.045101993
50	0x3afc9023	0.001926903
51	0xbd90e5bc	-0.07075068
52	0xbe00c240	-0.125741
53	0xbe501092	-0.20318821
54	0xbd2d529f	-0.04231512
55	0xbc5b746b	-0.013394455
56	0xbda3fb02	-0.0800686
57	0x3c11a9c0	0.008890569
58	0xbe7a0735	-0.24416812
59	0x3ef6d522	0.48209482
60	0xbe679de1	-0.2261882
61	0x3dac6893	0.084183834
62	0x3d407451	0.046985928
63	0x3dd0c394	0.101935536
64	0xbc9e584b	-0.01932921
65	0xbd90aa44	-0.070637256
66	0xbe06195c	-0.13095611
67	0x3e04995f	0.12949131
68	0x3e12b9c1	0.14328672
69	0x3e39d786	0.18148622
70	0xbd971215	-0.07376496
71	0xbd94e954	-0.07271066
72	0xbe0696a3	-0.13143401
73	0xbc77c039	-0.015121513
74	0x3f13cccb	0.57734364
75	0xbd18de5b	-0.03732143
76	0x3d9a7e3f	0.07543611
77	0xbd3b8738	-0.04578325
78	0xbd90e870	-0.07075584
79	0x3df35847	0.11882072
80	0xbdb2730c	-0.0871335
81	0x3e20dcdd	0.15709253
82	0xbde29c19	-0.110649295
83	0x3e268997	0.16263424
84	0xbc9eb06c	-0.019371234
85	0x3d4b99a8	0.049707085
86	0x3dad33a3	0.084571145
87	0xbdaa8a85	-0.08327202
88	0x3d713742	0.05889059
89	0x3d898332	0.06714477
90	0xbe055111	-0.13019206
91	0xbd4376f5	-0.04772087
92	0xbdb629b1	-0.08894671
93	0x3de05f47	0.10955673
94	0x3e9168ff	0.28400418
95	0xbd88da6c	-0.06682286
96	0xbd5fa28f	-0.054598387
97	0x3b35ccbb	0.0027740437
98	0x3d60031e	0.054690473
99	0xbbcd6c6c	-0.0062690284
100	0xbcf0d3d6	-0.029397886
101	0xbdbd0cee	-0.09230982
102	0xbc9976e3	-0.018733447
103	0x3de2b849	0.11070306
104	0x3e97cc1c	0.2964791
105	0x3ec7e615	0.39042726
106	0x3cb41943	0.021984702
107	0xbdde8c2e	-0.10866581
108	0xbdf05a51	-0.117359765
109	0xbda2eb75	-0.07955066
110	0x3b31c1cb	0.0027123566
111	0x3da3adf0	0.0799216
112	0xbd91be3d	-0.07116363
113	0xbd8295ce	-0.06376229
114	0xbd09ec2f	-0.033672508
115	0xbd1c9312	-0.038226195
116	0x3de1aec7	0.11019664
117	0xbdbfd958	-0.09367627
118	0xbd664405	-0.056217212
119	0xbd90c0d7	-0.07068031
120	0x3d3ed8c1	0.04659343
121	0x3de672b0	0.11252344
122	0xbf490a00	-0.78530884
123	0x3ec4c583	0.3843194
124	0x3daf8df7	0.085719995
125	0xbd5e4f7f	-0.054275032
126	0x3e09d5f3	0.13460521
127	0xbdddac1b	-0.10823842
128	0xbc79e88a	-0.015253196
129	0x3d6cb228	0.05778709
130	0xbdff6077	-0.12469571
131	0xbd3c485e	-0.045967452
132	0x3cb64470	0.02224943
133	0x3ea30cd9	0.3184574
134	0x3d9e2ec6	0.07723765
135	0x3c8b61d0	0.017014414
136	0x3c3e4740	0.011613667
137	0xbe0e54c1	-0.13899519
138	0x3e938517	0.28812477
139	0xbcca3fc5	-0.02468861
140	0x3dbbe728	0.09174949
141	0x3d971cb0	0.073785186
142	0x3d86c7ff	0.06581115
143	0xbcd40501	-0.025881292
144	0x3dc45320	0.09586167
145	0xbeaf63fe	-0.34255975
146	0xbdccdd1b	-0.1000311
147	0xbd8c0a89	-0.06837947
148	0xbd24a247	-0.040193822
149	0x3daae734	0.0834488
150	0x3c5639ea	0.013075331
151	0xbe0a7b48	-0.1352359
152	0xbd7fe82a	-0.06247727
153	0xbd515852	-0.05110962
154	0xbeda2b27	-0.42611048
155	0xbd2257e8	-0.039634615
156	0x3c92f0ee	0.01793715
157	0xbdd2072b	-0.102552734
158	0x3e3cbd40	0.18431568
159	0x3dab33f0	0.08359516
160	0xbbbc2f10	-0.005742915
161	0x3d6a83fd	0.05725478
162	0x3d8f1c43	0.06987812
163	0xbc01d3a4	-0.007923994
164	0x3dd1e43c	0.102486104
165	0x3c58d5d0	0.013234571
166	0xbd515898	-0.05110988
167	0xbcc6f9b1	-0.024288984
168	0x3e4e2874	0.20132619
169	0x3ddcac37	0.10775035
170	0x3cae3855	0.021267096
171	0xbdf22a71	-0.11824501
172	0xbd8a2c86	-0.067467734
173	0x3e1350cb	0.14386289
174	0x3e39aa5d	0.18131395
175	0xbd2a1f2c	-0.041533634
176	0x3dba96bb	0.09110781
177	0x3d8a5732	0.067549124
178	0x3e24ae25	0.16082056
179	0xbcc8eae4	-0.024526067
180	0xbd4f6e04	-0.05064203
181	0xbd6a6a9e	-0.057230584
182	0x3cdcf1f9	0.02697085
183	0x3dbc703e	0.09201096
184	0xbc872ade	-0.016499933
185	0xbcdb1b88	-0.026746526
186	0xbec1435b	-0.377467
187	0x3e9f978b	0.31170306
188	0xbd17c385	-0.037051696
189	0xbd96efb8	-0.073699415
190	0xbe0d2779	-0.13784589
191	0x3e7066da	0.23476735
192	0x3ca549e2	0.020176832
193	0x3dfb2ad0	0.12264025
194	0x3abf84ab	0.0014611682
195	0x3dd07970	0.10179412
196	0xbe3e2c2f	-0.18571542
197	0x3e8f53e9	0.27993706
198	0x3dc9fb73	0.09862413
199	0x3d4fc808	0.050727874
200	0x3db7adbd	0.08968685
201	0xbd325dd5	-0.043546516
202	0x3e28d751	0.16488387
203	0xbd3a77a2	-0.045524247
204	0x3d36f755	0.044669468
205	0xbcd00d69	-0.02539702
206	0x3e7037f8	0.2345885
207	0x3d2559cb	0.040368836
208	0xbd1706b0	-0.036871612
209	0x3e523fef	0.20532201
210	0x3d3af472	0.045643277
211	0xbebfb6b6	-0.37444085
212	0x3d38162c	0.04494302
213	0xbdabd18d	-0.08389578
214	0xbd1be73e	-0.038062327
215	0x3df85284	0.121251136
216	0xbd4872b9	-0.048937533
217	0x3ecb7a43	0.39741716
218	0x3e0b343a	0.13594142
219	0xba92304e	-0.0011153312
220	0x3c973b5e	0.018460926
221	0xbe14ce4e	-0.14531824
222	0x3e5f61e9	0.21814694
223	0x3d8f823f	0.07007264
224	0x3d9192f2	0.07108106
225	0xbd4868f9	-0.048928235
226	0xbde6a146	-0.11261229
227	0xbde72557	-0.11286419
228	0x3d0352ba	0.032061316
229	0x3d58c444	0.05292155
230	0xbdaf1423	-0.08548763
231	0xbd0c652c	-0.034276173
232	0x3e770029	0.24121155
233	0xbd474f7e	-0.048659794
234	0xbd11afb5	-0.035567958
235	0xbd258d59	-0.040418003
236	0xbd109ce2	-0.035305865
237	0x3e05d032	0.13067701
238	0xbc2582c2	-0.010101976
239	0x3d1de12c	0.03854482
240	0xbd29f9c5	-0.041497964
241	0x3c193cce	0.009352876
242	0xbd924e2f	-0.071438186
243	0xbd262805	-0.04056551
244	0x3d98d15c	0.07461807
245	0x3e8831b2	0.26600415
246	0x3dd01fa7	0.10162287
247	0xbe0ff51c	-0.14058346
248	0xbaea0c3f	-0.0017856433
249	0x3db0f622	0.08640696
250	0xbf680b72	-0.90642464
251	0x3f31483b	0.6925084
252	0x3ed032dc	0.40663803
253	0x3ddb72ee	0.107152805
254	0x3cec1693	0.028819358
255	0xbe90b3bf	-0.28262135

fc3.bias f4 [7]
0	0x3cdfcfbf	0.02732074
1	0xbc82e7d2	-0.015979681
2	0xbc8c37f6	-0.017116528
3	0x3dca0372	0.098639384
4	0xbcf08def	-0.029364554
5	0x3ddb4947	0.10707336
6	0x3c173601	0.009229184
