src/models/v2.0.0-simple_env-20x20,1agent,0human,0shelf,1pickup,1dropoff.pth (torch, 252652 bytes, 10 tensors)

conv1.weight f4 [16, 10, 3, 3]
000000 61 64 9d 3d ad ff 5f 3e 4c 7e 1a 3e aa 0f 22 3d
       0.076851614 0.21874876 0.15087241 0.03956572
000010 4c a4 82 3e 79 31 ad 3e 56 4f 82 3e 50 47 a4 3e
       0.25515974 0.33826807 0.25451154 0.32085657
000020 1c ae 08 3d 11 a5 39 bd b2 00 b9 bd bd bb 7f bd
       0.03336917 -0.045323435 -0.09033336 -0.0624349
000030 d6 b5 24 3d 22 88 62 3d d8 04 af bc f2 1e 27 3d
       0.040212475 0.055305608 -0.021364614 0.040800996
000040 59 57 85 3d a0 b1 b9 bc df 23 d6 bd e2 12 4e bd
       0.06510801 -0.022667706 -0.104560606 -0.050310977
000050 b0 25 7f bc b1 1e b7 3d d4 d5 26 bd 6d 68 8b bd
       -0.01557295 0.08941401 -0.040731266 -0.06807027
000060 b3 6e 5d bd 3a 08 5c 3d 3e 59 4e bd 5e fb a8 bd
       -0.05406065 0.053718783 -0.050378077 -0.082510695
000070 e8 04 98 3c da 81 06 3d 7c a3 1e bd 2d b7 51 bd
       0.018557027 0.03283868 -0.03873013 -0.05120008
000080 48 45 99 3c f0 e8 25 bd de 70 07 3d f4 e4 8d bd
       0.018709794 -0.04050535 0.033066623 -0.06928435
000090 df e2 22 3d bd 1f 93 bd 3d fa 35 3e f6 04 16 3e
       0.039767142 -0.07183788 0.1777124 0.1465033
0000a0 19 fc f0 bd 2d 79 b5 3d 27 1e 10 bd 3c 76 9b 3c
       -0.11766834 0.08861003 -0.035185006 0.018977277
0000b0 22 2f 9a 3d f7 ac 2c 3e 45 cc 5e be 38 45 4e be
       0.07528521 0.16862856 -0.2175761 -0.20143592
0000c0 89 3b 85 3e a5 d5 7a be 9f 1a a8 be d4 28 37 3e
       0.26021984 -0.24495561 -0.3283281 0.17886668
0000d0 11 60 65 be 8d af a6 3c ac ff 1d 3d 23 86 49 bf
       -0.22399928 0.020347381 0.038573906 -0.787203
0000e0 7b 32 c8 3d 42 e0 f2 3d 2b 11 38 bf 0b 53 a8 bd
       0.097752534 0.1185918 -0.71901196 -0.08218964
0000f0 f6 e3 f3 bc 15 f6 41 be 1a 26 14 bd 9c 9f 7a be
       -0.029771786 -0.18941529 -0.03616915 -0.24474949
000100 38 d5 78 bc 37 41 8d 3d 4b 83 a1 bd 9e ff 32 bd
       -0.015187554 0.06897204 -0.0788637 -0.043700807
000110 0b c5 e2 bc 51 f3 19 bd 39 e7 f3 bc f7 39 b6 bd
       -0.027681848 -0.03758556 -0.029773341 -0.08897775
000120 62 d7 f4 3d f8 cc 5f be b7 86 7d 3e c5 3d 58 bc
       0.119551435 -0.21855533 0.24758421 -0.013198321
000130 0e 38 40 be d4 9c 1b 3e 13 89 ef 3d a0 94 4f bd
       -0.18771383 0.15196544 0.11696067 -0.05067885
000140 6f a7 7f 3d 74 04 5d bf 62 eb 63 be c8 b5 2d 3e
       0.062415536 -0.8633492 -0.2225776 0.16963875
000150 4d 34 6b 3e 90 fc b2 3e 57 03 09 3d b1 d3 a2 3c
       0.2296917 0.34958315 0.03345045 0.019876333
000160 11 02 32 bd d7 b2 86 bc 5d ba 7a 3d 48 41 4d 3e
       -0.043459002 -0.0164427 0.061212886 0.20044434
000170 8b 87 61 3e 47 d4 e3 3d 24 e8 32 3e cf ad f4 3d
       0.22024362 0.11124473 0.17471367 0.11947214
000180 d5 bf 9a 3d c2 aa fd bd 1a 11 c0 3d cc fb d0 bd
       0.0755612 -0.12386085 0.09378262 -0.102042764
000190 04 70 f6 3c eb 14 cc 3d 5e 10 89 bd 47 6e b4 3d
       0.03008271 0.09964927 -0.06692575 0.08810096
0001a0 50 6b 22 bd 9b 89 79 bd 78 27 92 bc d7 97 be 3d
       -0.039653122 -0.060922246 -0.017841086 0.09306305
0001b0 b0 31 88 bd 78 12 38 bc 86 6a 77 3d 48 25 b3 bc
       -0.06650102 -0.011234872 0.060404323 -0.021868363
0001c0 62 ce 3c 3d 41 21 cb bd a1 2d 92 3d d7 1c 39 bd
       0.04609526 -0.09918452 0.07137609 -0.04519352
0001d0 5a 8e 7c 3d ac a7 a7 3c 92 fe 14 3d 40 ad b7 bb
       0.061659195 0.020465694 0.03637559 -0.00560537
0001e0 7e 42 8a bd 67 87 c3 bd 44 d8 a6 bd 22 03 71 bd
       -0.06750964 -0.0954731 -0.08146718 -0.05884088
0001f0 78 fc 49 3c 88 94 63 3c 29 bf 83 be fd 5e 39 3d
       0.01232826 0.013890393 -0.2573178 0.045256604
000200 7f 4c 01 3d a4 1c 97 bc 5d 5d ee bd 2f 7b bf bd
       0.031567093 -0.018446274 -0.116389014 -0.09349667
000210 b2 3b 67 3d e4 93 1b be fe 96 11 3e d6 bf cc be
       0.056453414 -0.15193135 0.14217755 -0.3999011
000220 60 4d ca be f5 6f ee 3d ab 0c 2c be 8b 8e b8 be
       -0.39512157 0.11642448 -0.16801707 -0.36046252
000230 aa 60 a1 3d fe a8 f6 bd cb a3 8e bd 26 92 db 3e
       0.07879765 -0.120439515 -0.06964835 0.4288494
000240 6e ee ce be 5d 5e c6 be e2 6c 82 bf c1 d8 97 bd
       -0.40416282 -0.38743868 -1.0189478 -0.074143894
000250 a5 50 4d be f3 17 79 be f6 c1 e0 bb a9 4b a8 be
       -0.20050295 -0.24325542 -0.0068590594 -0.32870224
000260 67 73 91 bf 25 8f b5 bc dd 4c e7 bc 16 c8 8d bc
       -1.1363343 -0.022162983 -0.028234893 -0.017307322
000270 57 63 4a bd aa 1f e9 bd 01 c1 5d bb bc 9d 8c 3d
       -0.049411144 -0.113829926 -0.0033836963 0.06866023
000280 8b c1 2a 3d 46 0a 0f be f9 13 c5 be a0 16 04 3d
       0.041688483 -0.13968763 -0.384918 0.03224814
000290 9d 1d de 3d 9c 7c 9a bd c0 9d f6 3c 88 e2 bf bb
       0.10845492 -0.075432986 0.030104518 -0.005855862
0002a0 ff a0 71 3d 83 12 21 be ac 78 16 3e c1 15 06 3d
       0.05899143 -0.15729718 0.1469447 0.03273559
0002b0 ee 48 10 be 90 3f 4b be a7 75 4f be 97 21 f1 3e
       -0.1409032 -0.19848466 -0.20259725 0.4709594
0002c0 b8 88 26 3e b5 93 04 be 28 d5 ee bd 0d ee 53 3d
       0.16263092 -0.12946971 -0.1166175 0.051740695
0002d0 61 20 e5 bd 93 e3 a4 3e a0 1f 7c 3e 00 f3 25 3e
       -0.111878164 0.32204875 0.24621439 0.16205978
0002e0 0a 3b 0f 3e 59 12 69 3e 73 80 2c 3e 7b 71 6a bf
       0.13987365 0.22760905 0.16845874 -0.9157941
0002f0 20 8c 3a 3e 20 6b 28 3c 6c d5 0b bd 16 af ba bd
       0.18217516 0.010279447 -0.03413908 -0.09115426
000300 b3 8a 5d bd 04 a7 b2 3c a2 89 46 3d c0 33 5d bc
       -0.054087352 0.021808155 0.0484711 -0.013501108
000310 18 06 b4 bd ab 7a 8c 3d 36 11 2d 3d 73 27 8e 3d
       -0.08790225 0.068593346 0.04225274 0.06941118
000320 6e 43 10 3d 34 77 a5 3c d0 e0 8d bd e8 c4 08 bc
       0.035220556 0.020198442 -0.06927645 -0.008347727
000330 80 67 4f 3b 32 04 8a bd 45 42 42 bd f0 8b 22 bd
       0.0031647384 -0.067390814 -0.04742648 -0.039684236
000340 80 e5 ce ba 40 e7 aa bc 49 de 8b 3d c0 57 de bb
       -0.0015784949 -0.020862222 0.06829507 -0.006785363
000350 7c d4 d3 bc 2e d1 bb bd 7a f4 a9 bd 3c c7 8f bd
       -0.025858156 -0.09170757 -0.08298583 -0.07020423
000360 ff 4e 0f 3e 1b f6 4b 3d 03 78 80 be 92 b3 c8 3d
       0.13994978 0.04979525 -0.25091562 0.09799875
000370 d9 f7 3d bd 14 15 cb bd 83 32 d6 3c 33 e3 15 bd
       -0.046378944 -0.0991613 0.026147133 -0.036593627
000380 2c ef 2e 3e 07 32 9b 3d 93 c0 d5 3d 7b 6d 73 3e
       0.17083424 0.07577901 0.10437121 0.23772232
000390 82 74 86 3d 42 ce a6 bd 40 e1 f0 3d 36 a3 82 3e
       0.06565191 -0.08144809 0.11761713 0.25515145
0003a0 17 b7 96 3d d1 6d 87 be d2 ae ad 3e a1 43 70 be
       0.0735914 -0.2645097 0.3392244 -0.23463298
0003b0 d4 f6 2a bf 6d 01 84 3e eb 77 01 be f6 ff a0 be
       -0.6678288 0.25782338 -0.12643401 -0.31445283
0003c0 47 af e4 bd 97 91 2b be de c2 c3 bd e9 d9 b1 bc
       -0.11166244 -0.16754757 -0.09558652 -0.021710353
0003d0 5b a0 dd bd d1 f6 61 3b 00 eb 3d bd 1d 02 ab bd
       -0.10821601 0.003447939 -0.04636669 -0.083500125
0003e0 0c 1a 8c 3d bc d2 b8 3d 05 e3 b9 bd ce 5c 19 bd
       0.068409055 0.090245694 -0.09076504 -0.03744202
0003f0 23 c4 e3 3d 3f cb 9f bd e6 1f a0 be a2 83 e5 3c
       0.111213945 -0.07802438 -0.31274337 0.028016869

conv1.bias f4 [16]
000000 10 25 95 3e 5d 0f a5 3e 62 7b 2b 3e 7a 10 58 3e
       0.2912984 0.32238284 0.16746286 0.21100035
000010 86 70 51 3e 2f 86 f9 3d 91 29 89 3e 37 66 15 3e
       0.2045308 0.121837966 0.26789525 0.14589773
000020 2a a1 55 3e 26 41 3f 3e 07 7d 0a 3c b6 04 1e 3e
       0.2086226 0.18677196 0.00845266 0.15431485
000030 a0 6f 82 3e ca 6d 80 3e 4b 23 82 3e e4 eb 17 3e
       0.25475788 0.25083762 0.2541755 0.14836079

conv2.weight f4 [32, 16, 3, 3]
000000 f1 73 95 3c 1c c6 fd 3d 9a 63 b2 3d 12 7d 2b 3e
       0.018243762 0.12391302 0.08710404 0.1674693
000010 7c 1d be 3e 2c 7e a1 3e 8f 6d 80 3e 40 77 03 3f
       0.3713187 0.31541574 0.25083587 0.51353836
000020 02 9a 22 3e b2 2a a7 be 79 e4 7c 3e 57 5d 07 3e
       0.15879062 -0.3264976 0.2469653 0.132192
000030 8d a9 50 be 56 8f b6 3e 3a 88 d4 3e ea 46 22 be
       -0.20377178 0.35656232 0.41510183 -0.15847364
000040 14 68 a8 3e c2 55 f3 3e 88 a7 0e bb 62 2d e1 bd
       0.32891905 0.47526366 -0.0021767337 -0.10994984
000050 18 9c f7 bd 56 96 ad 3c 5d b6 f0 3e 50 df 79 3c
       -0.120903194 0.02118985 0.47014132 0.015250996
000060 e7 93 10 3e 4f b3 1b 3f 7a d5 a2 3e 3b 62 4f 3e
       0.1411892 0.6082048 0.31803495 0.20252316
000070 a7 21 72 3e e0 da a6 3e 6e 12 87 bd 21 0b 3e 3e
       0.2364565 0.32588863 -0.06595312 0.18558933
000080 ca 49 4f 3e e9 cc 8c bd 77 1b f3 3d 23 fe 08 3e
       0.20242992 -0.06875021 0.11870473 0.13378195
000090 d4 60 54 be 06 80 2e be 31 f8 46 3c 4f a1 07 3c
       -0.20740062 -0.17041025 0.012144134 0.008278205
0000a0 91 93 1a 3e 61 3a 55 3e 23 93 91 3d 89 4b c6 3e
       0.15095355 0.20823051 0.07108142 0.38729504
0000b0 a3 16 bb 3e d2 41 89 3d 12 c6 1d 3e a2 32 fa 3c
       0.36540708 0.06702007 0.15407589 0.030541722
0000c0 a8 47 b8 3d 43 2e 99 3e b4 a8 af 3e 75 30 96 3d
       0.08998042 0.29918107 0.34308398 0.07333461
0000d0 11 dc af 3e 39 75 ba 3e 12 f2 94 bd d5 08 93 3d
       0.34347585 0.3641756 -0.07272734 0.07179419
0000e0 b1 eb 90 3e 7c 2d 4e 3d bf e2 79 3e 6f 2b e3 3e
       0.28304818 0.050336346 0.24402903 0.44369075
0000f0 55 70 12 3d 2e 20 1e 3e d8 5c 94 3e e5 38 15 3d
       0.03575166 0.15441963 0.28977084 0.036431212
000100 d2 91 52 3c 3a d8 01 3e a8 71 3a bc 82 6f 39 3e
       0.012852149 0.1268014 -0.011379637 0.18108943
000110 b4 83 c8 3e 61 9d 2b 3d 9f 33 1d 3e 30 1e 7a 3e
       0.39162982 0.041898135 0.15351723 0.24425578
000120 49 3b 06 3e 31 b7 1e 3e c5 30 a0 3e 4e 33 74 3c
       0.13108553 0.1549957 0.31287208 0.01490481
000130 c3 42 8d 3e 60 d4 94 3e 27 d6 ad 3d 10 10 1b 3e
       0.27589998 0.2906828 0.08488112 0.15142846
000140 da 77 07 3e 54 29 59 3e 8f 44 90 3e 85 b7 be 3d
       0.13229313 0.21207172 0.28177306 0.09312347
000150 17 ff 98 3e f2 6e cc 3e 16 29 47 3e b4 db 73 3e
       0.29882118 0.39928395 0.19449267 0.23814279
000160 85 2d 0f 3e a6 9c 12 be 28 91 6c 3e 99 62 66 3e
       0.13982208 -0.14317569 0.23102248 0.2249855
000170 83 bb 07 3e 10 4d 4c 3d 1e 38 9b 3e 8e 27 12 3e
       0.13255124 0.04987818 0.30316252 0.14272901
000180 46 55 11 3d 2e 49 1a 3e 33 d4 61 be 9f 8b 8d bb
       0.035481714 0.15066978 -0.22053604 -0.0043196226
000190 b6 9a e9 3d 81 65 55 3e 69 7d bb bb 5c 54 fe 3d
       0.11406462 0.20839502 -0.005721737 0.12418434
0001a0 49 f4 c6 3e 87 16 30 bd 07 3d 1f 3e 36 17 03 3f
       0.3885825 -0.042990234 0.15550624 0.5120729
0001b0 25 46 2b 3e dd 2f 7f bd 3e a8 92 bc 44 ff 21 3e
       0.16725977 -0.062301505 -0.01790249 0.15820032
0001c0 f9 c1 e1 3c 07 2b 1c 3e f3 74 22 3d 90 df cd 3d
       0.027558314 0.15250789 0.039662313 0.10052407
0001d0 c1 5b c2 3d 26 c9 a0 3d b5 f5 90 3d e9 52 b7 3d
       0.09490157 0.07850866 0.07078115 0.08951361
0001e0 6f 3b ab 3e 42 82 cd 3e c9 4f 98 3e 9d e1 9b 3e
       0.33443782 0.4013844 0.2974837 0.30445567
0001f0 15 dd b7 3e a4 49 b0 3e 41 f3 d4 bd 33 fe 66 3d
       0.3591086 0.34431183 -0.103979595 0.056394767
000200 fa 37 08 3d cd da 8d 3c f0 1c 14 3e 45 c3 14 3e
       0.03325651 0.017316246 0.14464164 0.14527614
000210 70 37 a8 3c 8b 2e d7 3d 37 b1 97 3e 7d 00 f4 bc
       0.020534247 0.10506924 0.29627392 -0.02978539
000220 04 06 13 bb 9d f1 c9 3d 7c 7f 59 3b 0f 70 40 3d
       -0.0022434006 0.09860537 0.003318756 0.046981867
000230 87 37 8f 3e ea 0f 0e be df fb 86 bd cd bb 32 3e
       0.27972052 -0.13873258 -0.06591009 0.17454453
000240 28 f6 99 bd 0c ff c3 3e 4c 8c 87 3e c1 ea f9 3b
       -0.07517654 0.38280523 0.26474226 0.007626862
000250 7b 2e d0 3e e5 ff e8 3e 4f 09 80 bc 91 92 6f 3e
       0.40660462 0.45507732 -0.015629439 0.23395754
000260 1a a3 6b 3e 17 28 b0 be e3 d8 88 3e fe 85 b2 3e
       0.23011437 -0.34405586 0.2672797 0.34867853
000270 28 fa c8 be 86 15 cb 3e b8 94 09 3f 8c 5f b0 be
       -0.39253354 0.3966486 0.5374255 -0.34447896
000280 b3 1b 5d 3e 6f 0e e4 3e 38 75 8f bc b0 62 45 3e
       0.21592598 0.44542262 -0.017511949 0.19275928
000290 34 33 38 bb 6a 67 07 bd 77 d3 fc 3e 95 46 0e 3e
       -0.0028106691 -0.033057608 0.49380085 0.13894112
0002a0 1c 60 81 3d 91 aa b8 3e 8c c9 aa 3e 53 c5 c1 3c
       0.063171595 0.36067632 0.33356893 0.023653662
0002b0 73 70 80 3e 44 98 cf 3e 8c a6 7c bd 17 a9 08 3e
       0.25085792 0.40545857 -0.06168227 0.13345753
0002c0 60 3d 9b 3e fe 20 51 be 94 f7 8f bc 3d 42 1a 3e
       0.30320263 -0.20422742 -0.01757411 0.1506433
0002d0 9f b9 ba bd 87 a3 f5 bc e2 19 ba 3d 9e 88 f3 3d
       -0.09117436 -0.029985202 0.09086968 0.11891292
0002e0 63 6f d1 3e 3c e0 90 3e 0e 52 52 bd 21 ac a3 3e
       0.40905294 0.28296077 -0.051347785 0.3196726
0002f0 e7 db 6b 3e 63 d0 f0 3c 19 3f b1 3d 91 64 2e bc
       0.23033105 0.029396242 0.08654613 -0.010644094
000300 22 98 bb 3d 26 22 03 3f 7d e0 6e 3e 5e bb 19 3e
       0.091598764 0.5122398 0.23327823 0.15012881
000310 c5 80 bb 3e 95 cb c4 3e fe 7c 88 bd 46 1d c8 3d
       0.3662168 0.3843657 -0.06664465 0.097712085
000320 3c 1f 8b 3e 7c 15 ea bd 86 95 99 3e 9d bb cf 3e
       0.27172267 -0.11429879 0.2999689 0.40572825
000330 ff 00 1d 3d f2 1b b0 3d 1b bf 62 3e 88 8c 6e 3d
       0.038331028 0.0859908 0.22143213 0.05823949
000340 f1 57 53 3e ff c3 fa 3d 5e 47 24 be b6 d8 b7 3e
       0.20639016 0.122444145 -0.1604285 0.35907525
000350 a0 2f c8 3e 9c 21 b8 bd 02 b8 ad 3e 11 c6 5f 3e
       0.39098835 -0.089907855 0.3392945 0.218529
000360 9a 71 4f 3e 50 20 36 3e ab df b7 3e 10 b7 43 3e
       0.2025818 0.17785764 0.35912833 0.19112802
000370 bb f7 d8 3e 46 43 88 3e b4 77 c9 3d ee e0 95 3e
       0.42376503 0.26613826 0.09837285 0.2927317
000380 85 2d 2d 3e bc 9b 94 3e e0 05 cc 3e 78 aa a0 3e
       0.16911896 0.29025066 0.39848232 0.31380057
000390 6f 7a 91 3e 07 63 c7 3e 8a 1f 40 3e d7 c1 83 3d
       0.28413722 0.3894274 0.18762031 0.064334564
0003a0 01 c3 a5 3e ce 93 85 3d 3a 48 15 3e 28 33 30 3e
       0.3237534 0.06522332 0.14578333 0.17207015
0003b0 12 40 2d 3d de 74 97 3e f9 32 f1 3e 3e 50 ad bd
       0.04229743 0.2958135 0.47109202 -0.084625706
0003c0 23 5c a0 3e 3d e0 ab 3e 17 73 3f be 42 02 1d be
       0.31320295 0.33569518 -0.18696247 -0.15332893
0003d0 11 1b 5e 3e 26 84 6d 3e 58 f6 ac bd ad ed a4 3e
       0.21690013 0.23194942 -0.08445424 0.32212582
0003e0 13 ca 0d 3f 36 e5 da bc c5 a7 76 3e ba 56 b3 3e
       0.55386466 -0.026720624 0.24087436 0.35027105
0003f0 de 73 bc 3c 97 42 5a bc 7f be b2 3d cc 27 ab 3d
       0.023004469 -0.01332154 0.087277405 0.083572

conv2.bias f4 [32]
000000 d0 ae 21 3d 2e 55 c6 3b 03 12 9e 3d 5b fc 6a 3d
       0.039473355 0.0060526347 0.07718279 0.05736957
000010 eb 81 9a 3d 3c 39 04 3d 91 8b 98 3d 85 10 61 3d
       0.07544311 0.032281145 0.07448495 0.054947395
000020 32 7a c7 3c ca 5e a0 3d 81 93 ab 3d ea 85 ca 3d
       0.02435026 0.078305796 0.083777435 0.09888823
000030 6e 6f c6 3d 8f d9 9d 3c a8 ea 2b 3d 56 ce b8 3d
       0.09689222 0.01926878 0.041971833 0.090237305
000040 72 10 98 3d 06 9a 91 3d 8f 86 01 3e ac 1b df 3d
       0.07425012 0.07109456 0.12648986 0.1089395
000050 b4 5e 2d 3d 43 77 da 3d c9 11 00 3e d8 79 bd 3d
       0.042326644 0.106672786 0.12506784 0.092517555
000060 20 e5 aa 3d f7 88 66 3d 5d cb 1c 3d 35 06 d1 3d
       0.083444834 0.056282964 0.03827988 0.10206262
000070 8c 83 80 3d b8 29 f4 3d 58 8c 8d 3c 61 ad 23 3d
       0.062750906 0.1192202 0.017278835 0.03996027

fc1.weight f4 [64, 800]
000000 8b c0 08 3c c6 0a 0e 3d 79 e3 b0 bc cf dc 76 bc
       0.008346687 0.034678243 -0.021592842 -0.015067293
000010 fd 06 8d 3c 5f 4f f1 bc bc 39 b7 bc b1 8f 08 3d
       0.017215246 -0.029456792 -0.022366397 0.03334016
000020 5d 9f f9 bb d0 c6 56 bc 0e 6a 08 3c 60 92 1c bc
       -0.0076178745 -0.013108924 0.008326067 -0.009556383
000030 f0 13 5a bc 7b 36 8f bc 10 74 29 bc 54 8f 85 3c
       -0.0133104175 -0.017482033 -0.010342613 0.016303696
000040 a7 b0 e2 bc 6b 34 94 3c 39 1c d7 3c bb 5a 10 bd
       -0.027672125 0.018091401 0.026258575 -0.035242777
000050 86 ce 58 bc c1 2a 08 3d 4e 73 ae bb 06 ee 8d 3b
       -0.013232833 0.0332439 -0.005323804 0.004331353
000060 ec 52 13 3c 64 8c b7 3c bc 5c 66 bc 53 89 ff 3c
       0.008991938 0.02240581 -0.014060196 0.031193411
000070 44 d7 37 bb be 32 ea 3c a3 73 97 3c fe a6 d2 bc
       -0.0028051892 0.028588649 0.018487757 -0.025714394
000080 28 df d1 3c bf 59 60 bb 58 f0 bb 3c 98 28 fa bc
       0.025619105 -0.003423318 0.022941753 -0.030536935
000090 b9 bd 3e bc 85 11 82 bc 62 32 70 3b 64 ba e4 bb
       -0.011641913 -0.015877495 0.0036651124 -0.0069802273
0000a0 db eb 9c 39 46 25 6e 3c ce ee 33 bc d7 ef d4 3b
       0.00029930365 0.014535254 -0.010982228 0.0064983177
0000b0 03 49 25 3c a3 29 ed 3c d1 20 10 3d e2 81 c9 3c
       0.010088208 0.028950518 0.035187546 0.024598066
0000c0 98 33 9f 3c a0 f0 08 3d b6 c5 f6 3c 31 e7 40 3c
       0.019433782 0.033432603 0.030123573 0.01177387
0000d0 df 1d ed 3c 23 71 d5 bb 3f 8d 00 bc e1 df 78 3c
       0.028944908 -0.006513731 -0.007846176 0.015190096
0000e0 a5 1d 4f bb b7 fd ab 3c 88 4f 01 bd c9 e0 58 bc
       -0.0031603363 0.020995004 -0.031569988 -0.013237187
0000f0 86 85 52 bc cf 06 04 3d 9d ab 14 3c f1 90 51 3b
       -0.012849217 0.032233056 0.009074119 0.003197726
000100 97 12 98 bc 0c 04 9f 3c 00 f8 8a 3b 79 45 01 bd
       -0.018563552 0.01941111 0.0042409897 -0.031560395
000110 d9 c6 0d bd b9 8d 01 bd 0e 7b f7 3c 0d df d0 3c
       -0.034613464 -0.031629298 0.030210044 0.025496984
000120 76 0b af ba e8 59 de bc 57 a7 24 bb 14 5c bc 3b
       -0.0013354856 -0.02714248 -0.0025124156 0.0057482813
000130 b5 78 8e 3c 3e 98 24 3c 92 17 49 3c 9a 71 04 3d
       0.017391542 0.010046063 0.012273686 0.0323349
000140 5b 23 63 bc 74 00 8d bc f3 5a 86 3c f6 b9 9e 3c
       -0.01386341 -0.01721213 0.01640079 0.019375782
000150 da ef f6 bc 82 0f 83 3c b7 1f 07 bc 83 8b 6e 3c
       -0.030143667 0.015998606 -0.0082473075 0.014559629
000160 6a d6 45 bc 85 a8 f8 bc c0 6e da 3c ea 61 ac bc
       -0.012075046 -0.030353794 0.026664138 -0.021042783
000170 06 8e b1 3c 0f 82 f3 bb 51 6b 89 3c bf e3 de bb
       0.021674167 -0.0074312757 0.016774805 -0.006802052
000180 49 4a ba bb 6c 1d 01 bc e5 1a 0d bd 2c 8b 60 bc
       -0.005685125 -0.00788055 -0.034449477 -0.013705056
000190 3a e9 00 3d bd e0 7f bc eb a8 e3 3c 89 0b 75 3b
       0.031472422 -0.015617547 0.027790507 0.0037390909
0001a0 41 c2 d7 3c 94 09 b7 ba 60 dc ac bc c5 18 88 3c
       0.026337745 -0.0013964646 -0.021101177 0.016613374
0001b0 da a5 b5 bc d8 30 00 3c e7 d1 d2 3c 40 53 0b 3d
       -0.02217381 0.007824145 0.025734855 0.03401494
0001c0 0b 8b b7 3c 60 cf 0e 3b a2 4b 17 3c ab 55 b4 3c
       0.022405168 0.0021791086 0.009234341 0.022013506
0001d0 5d 10 b9 3a 7e 78 de bc b2 1f 0a bd 79 04 12 3c
       0.0014119257 -0.027157065 -0.033721633 0.008912199
0001e0 9d 06 9f 3c 59 e6 c4 3c 4f 8b b3 bb bc a1 82 3b
       0.019412333 0.02403562 -0.0054792534 0.0039865654
0001f0 0f 98 bb 3b 1c b8 fe 3c 02 27 f9 bc 97 74 84 3c
       0.005724914 0.03109365 -0.030414108 0.016168876
000200 e2 4e a3 3c 4f 07 a4 3c 92 0a e1 bc 99 41 06 bc
       0.019935075 0.020023016 -0.02747086 -0.008194351
000210 69 3c c9 bc 3e 26 49 3b 6a a3 c9 bc 84 d3 e4 3c
       -0.024564939 0.003069296 -0.024614055 0.02793289
000220 c8 4a 03 bc 6f cb 95 bc f1 e8 eb bc 4a 1c a4 bc
       -0.008013435 -0.018285481 -0.028797599 -0.02003302
000230 7c 9a e7 3c be 97 2d bc ea e6 96 bc a7 05 0e 3c
       0.028271906 -0.01059526 -0.018420655 0.00866834
000240 04 31 c7 bc 29 47 0e 3d 6d 5b d5 bc 8f 20 a4 bc
       -0.024315365 0.034735832 -0.026044572 -0.020035056
000250 78 4e 35 ba 57 1d 8f bb 08 82 e1 bc 67 28 66 bb
       -0.0006916295 -0.0043675113 -0.027527824 -0.0035119297
000260 78 6b f2 3c 96 4d a3 3c 82 17 0d bc 45 a0 e7 bc
       0.02959226 0.019934457 -0.008611562 -0.028274665
000270 cb 18 59 bb e0 f9 08 bc 2d 3d 99 3b 90 48 a4 bc
       -0.003312635 -0.008360356 0.004676482 -0.020054132
000280 13 54 9e bc d8 2e 43 bc 6c ae 0f 3b 5c ed 52 bc
       -0.0193272 -0.011913024 0.0021924032 -0.012873974
000290 be 0c ba bc 12 e5 6e 3a c3 6b 25 bc 65 95 59 3b
       -0.022711154 0.00091131136 -0.010096493 0.0033200618
0002a0 51 f1 ce 3c 48 3b ad ba 48 6e 6e 3c 1b 57 ba 3c
       0.025261553 -0.001321652 0.01455266 0.022746613
0002b0 f5 90 6c 3c 46 6b ee bc e1 be e4 bc 01 50 5c bc
       0.014438857 -0.029103886 -0.02792305 -0.013446809
0002c0 22 c6 ee 3b 3d ae e3 3c 5e 81 09 bd ad c2 10 bd
       0.007286803 0.027793044 -0.03357064 -0.035341907
0002d0 b0 8e 96 3c 3e 8f 96 bb 6b a5 8a bc ca 6c d0 3b
       0.018378586 -0.0045947125 -0.01692458 0.006360625
0002e0 fe 78 ba bb bc cd 08 3d f9 53 38 3b 15 0f 12 bd
       -0.005690693 0.03339933 0.0028126223 -0.035658915
0002f0 7b 25 fb bc d3 52 09 bd 87 75 49 3b 96 09 f7 3c
       -0.03065752 -0.033526253 0.0030740218 0.030155938
000300 ca 4d 6d bc 76 a7 ab bb c7 a3 2d bb 86 57 a2 bc
       -0.014483878 -0.0052384688 -0.0026495324 -0.019817125
000310 44 d7 cd ba 4d 1d c8 3c cc dc 8a bc 5c 15 56 3a
       -0.0015704413 0.024428034 -0.016950987 0.0008166635
000320 e2 c5 e1 3c 48 b5 4f bb 48 95 81 3c 6a ac a4 bb
       0.027560178 -0.0031693745 0.015818253 -0.005025436
000330 6c 89 f3 bc c4 48 0c bd 67 a6 c6 3c 75 c9 5a bc
       -0.029728614 -0.034249082 0.024249269 -0.013353695
000340 e1 92 dd 3c b2 46 a2 3c c6 2d da 3c 16 a6 05 3d
       0.027047576 0.0198091 0.026633155 0.032629095
000350 4d bb 18 39 b1 7f 05 bd 2b 7f db bc 45 19 9b 3c
       0.00014565625 -0.03259248 -0.026794037 0.018932948
000360 bc 55 a1 bc 3f a9 d5 bb 7e 4b f6 ba 90 9d 30 bc
       -0.019694202 -0.00652042 -0.0018790809 -0.010779753
000370 32 c6 e1 3b 9a dd 20 bc 9f 46 4f 3c 51 e4 0b bd
       0.006890082 -0.009818459 0.012651115 -0.034153286
000380 69 ce 0c bc e0 9b 91 3c 72 38 05 3d bc 3e 83 3c
       -0.008594134 0.017774522 0.032524534 0.016021125
000390 df 04 ab bc ab 61 8c bb 7f d7 50 bc f0 ba 0d 3d
       -0.020876346 -0.004284104 -0.012746691 0.034602106
0003a0 b1 5f 0b bd 40 73 44 ba 82 27 a1 3b dc 7b 84 3b
       -0.034026805 -0.000749398 0.00491804 0.0040430855
0003b0 a0 e1 55 bb 90 0b a8 3c 6a 2f 7d bc 87 d6 d2 bc
       -0.0032635704 0.020513326 -0.015453199 -0.02573706
0003c0 a0 9e e8 bb 56 3a e6 bc 03 23 6a bc 77 2e 23 ba
       -0.0070989877 -0.028103989 -0.014290574 -0.00062248803
0003d0 c7 f9 77 3c 43 ef cd 3c cd 70 d6 bc 29 93 ef bc
       0.015135235 0.025138503 -0.026176834 -0.029244976
0003e0 79 df e0 3c ac dd d3 3a 2c eb 0a bd 38 7a e0 3c
       0.02745031 0.0016164086 -0.033915684 0.027402028
0003f0 18 20 81 3c 1f c3 0a bd fe 03 54 3c f7 53 f7 3b
       0.015762374 -0.03387749 0.012940405 0.007547851

fc1.bias f4 [64]
000000 4c 48 10 3c 72 05 6a bc 77 14 48 3d 08 a3 a2 bc
       0.008806299 -0.014283525 0.04884764 -0.01985313
000010 fa dd 0c 3c ae ac 0a 3d 70 f1 9f 3b 6a ac b6 3d
       0.008597845 0.033856086 0.0048810765 0.08919604
000020 c9 48 8c bc 56 c2 2c bc 84 60 81 bc 09 96 b1 3c
       -0.01712455 -0.01054438 -0.015793093 0.021677988
000030 c4 b3 d1 3d 18 6b 99 3d f2 d5 f8 3c 8c ca fe 3c
       0.10239366 0.0749113 0.030375455 0.031102441
000040 d1 4d 12 3b 5a 61 96 3c b5 59 7d 3d 3f 6a b0 bc
       0.0022324214 0.018356968 0.06185313 -0.021535037
000050 90 89 d7 bb 2a c8 4d 3c 15 18 79 bc 8e a8 5b ba
       -0.006577678 0.01255993 -0.0152034955 -0.00083793036
000060 80 6d a6 bc 2e dc 8f 3d 6b 2e a5 3d 61 15 8c 3b
       -0.020315886 0.07024418 0.08065494 0.0042750095
000070 81 f4 bd 3c 74 c1 33 3c 21 a4 67 ba d7 2b 22 bc
       0.023187878 0.010971416 -0.0008836408 -0.009898148
000080 e0 b8 0a bc 97 42 59 3d 65 84 18 3d 42 28 90 bc
       -0.008466929 0.05304202 0.037235636 -0.017597321
000090 72 61 dc b9 dc 43 13 3d 17 25 f0 ba 7d d4 99 3d
       -0.00042034272 0.035953388 -0.00183216 0.07511232
0000a0 24 75 50 3c 3b 55 00 3d b1 0c 89 3c 8f 64 e5 3c
       0.012723241 0.031331282 0.016729685 0.028002052
0000b0 9c 71 4f 3d 78 f9 6c bc 27 57 09 bb 4a 2f 4e 3d
       0.050645456 -0.014463775 -0.0020956488 0.050338067
0000c0 e5 3e bb 3c 10 6d b9 3d ad 67 b6 3d a6 f2 a0 3b
       0.022857139 0.09054005 0.08906493 0.0049117384
0000d0 50 51 d5 3c ab c0 ba 3b c1 b4 3a 3d 05 1f 80 3d
       0.02603975 0.0056992373 0.045582537 0.062559165
0000e0 2d 83 7e bb 6a 44 35 3d 42 81 a3 3c da 50 22 3c
       -0.003883551 0.044254698 0.019959096 0.009906972
0000f0 3d 58 7e 3c b2 49 39 3d 40 0e 12 bc d3 3b 00 3c
       0.015523967 0.045236297 -0.00891453 0.007826763

fc2.weight f4 [64, 64]
000000 f7 c2 e7 bd 48 47 e0 bc 38 fe f5 bd a0 e3 12 bc
       -0.113164835 -0.02737774 -0.12011379 -0.008965403
000010 1a 1d c2 bd a0 7e fb 3b 4c 9f 56 bd 8c 32 97 3d
       -0.09478207 0.007675007 -0.05239801 0.07382688
000020 00 e5 47 3d 9c 36 07 bd 62 fa 7c 3d 6c 96 df 3d
       0.048802376 -0.033011064 0.06176222 0.109173626
000030 6b ab 4c 3d 91 92 f2 3d c8 23 d1 bd 14 39 99 3d
       0.049968164 0.118443616 -0.10211903 0.0748159
000040 19 0a 32 3b a0 b6 53 3c 16 69 ad bd b7 92 93 3d
       0.0027166663 0.012921959 -0.08467309 0.07205718
000050 f9 f6 5b bd 88 a3 b6 3d 8c b4 fb bd b0 e2 74 3d
       -0.05370233 0.0891791 -0.12290296 0.0597865
000060 bc 67 7c 3d 7e dd 1a bd 09 88 94 3d cc f2 cf 3d
       0.061622366 -0.037808888 0.07252509 0.10153732
000070 8b 57 23 3e 5a b0 b6 3d ca 48 d9 bd 51 c4 b3 3d
       0.15951364 0.08920355 -0.106095865 0.08777679
000080 43 2b 4e bb 44 d7 23 be 41 d3 04 3e 20 f0 1c 3c
       -0.0031458891 -0.16000086 0.12971212 0.009578735
000090 ec 43 c0 3c 61 b6 a1 3d e9 13 d7 bb 3d 35 b1 bc
       0.023469888 0.07896114 -0.006563653 -0.021631831
0000a0 80 19 67 bb 51 e1 35 bc 31 dc ad bd 2a 01 28 3e
       -0.0035263002 -0.011101083 -0.08489264 0.16406694
0000b0 86 27 c1 3d 20 e2 2e 3e 18 41 fc bd a4 d8 a9 3d
       0.094313666 0.17078447 -0.12317103 0.08293274
0000c0 94 05 06 3e 72 39 b8 3d a2 eb 56 3d 80 14 e3 3c
       0.13088065 0.08995332 0.05247081 0.027719736
0000d0 c8 c4 e3 3d 22 32 9d 3d 84 ad 44 3d fc fd e3 bc
       0.111215174 0.07675578 0.04801704 -0.02783107
0000e0 95 93 30 3d c8 c0 09 3d a4 2c 3f 3d fc 8d 4a 3d
       0.043109495 0.033631116 0.046673432 0.049451813
0000f0 c8 b9 7d bd 64 50 73 3c 60 ca b3 3d 5a 3c 8a bd
       -0.061944753 0.01485071 0.08778834 -0.067497924
000100 3e 76 8c 3d 78 24 93 3d 00 75 6a bc f8 c5 82 3d
       0.068584904 0.0718469 -0.014310122 0.06385416
000110 32 96 ef 3d 34 c2 02 bd 38 3c f6 bc e4 f8 b4 bd
       0.11698569 -0.031923488 -0.030058011 -0.088365346
000120 76 4b 9d 3d e4 d8 60 3d ec 0f 2e bd 5e 6f 9b bd
       0.07680409 0.054894343 -0.042495653 -0.07589601
000130 34 34 23 3d fc 31 bb bd 62 78 dd bd 6c 27 15 3d
       0.039844707 -0.09140393 -0.10813977 0.03641455
000140 fa 64 82 bd 14 b8 02 3d 5c b9 dd bd 40 a7 f8 bc
       -0.06366916 0.03191383 -0.1082637 -0.030353189
000150 24 0c 24 3d 58 0f d3 3d 34 9c 7f 3d 78 2e a4 3c
       0.04005064 0.10305661 0.062404826 0.02004169
000160 40 06 82 bb 00 6b 84 3a f4 5d 36 3d 50 7a 19 bc
       -0.00396803 0.0010102689 0.044523194 -0.0093675405
000170 a0 ba d3 3b 00 e4 d6 39 a0 9b 2e bd 58 1f 26 bd
       0.0064614564 0.00040987134 -0.042628884 -0.040557235
000180 84 7a d9 3d 9a 19 b3 3d 34 ec 51 bd 2c a8 4a 3d
       0.10619071 0.087451175 -0.05125065 0.049476787
000190 60 ab 84 bd d8 95 d8 bc 1a 77 f9 bd 04 b1 6f bd
       -0.06478 -0.026438639 -0.1218092 -0.058518425
0001a0 c0 7d 39 3d 80 c6 51 bb 24 50 4f bd 46 94 d8 3d
       0.04528594 -0.0032009184 -0.050613537 0.10575156
0001b0 78 fa fb 3d 22 11 bc 3d 7c ee 02 3d 20 1d 94 bb
       0.123036325 0.09182955 0.031965718 -0.0045200735
0001c0 66 18 c3 bd 0c e6 aa 3d e8 b2 08 3d 7e 80 ab bd
       -0.09526138 0.08344659 0.033373743 -0.08374117
0001d0 1e 7e ce 3d 3a 07 c0 bd f8 91 fe bd ac 90 ec bd
       0.10082649 -0.09376378 -0.12430185 -0.115510315
0001e0 6e e0 c5 3d 30 cd fa bd f2 5a bf bd 94 61 c7 bd
       0.09661947 -0.12246168 -0.09343518 -0.097354084
0001f0 e2 71 87 bd 04 44 7f bd 78 f2 9e 3d 48 85 b4 bd
       -0.06613518 -0.062320724 0.07761091 -0.08814484
000200 d0 93 de 3c a0 be ab 3c 9b 56 ad 3c 48 7d bc bd
       0.027170092 0.02096492 0.02115946 -0.09203583
000210 58 c4 c8 bd 1e f4 e7 3d 28 7a 72 3d c9 2a f8 3d
       -0.098030746 0.113258585 0.05919853 0.121175356
000220 56 5d 84 3d 3d 7a ea bd 1c 0b f6 3d 14 db 93 bd
       0.06463115 -0.11449096 0.12013838 -0.0721952
000230 0f 5f df bd 7a 6f 0b be b0 d6 aa 3c c0 c1 a6 3c
       -0.10906803 -0.13616744 0.020854324 0.02035606
000240 f2 1c 21 3c 00 54 f0 b9 c0 66 00 be 6b 9b eb 3d
       0.009833561 -0.00045838952 -0.12539196 0.11504253
000250 21 cb a6 bc a8 b5 aa 3c 28 f8 6c bd c6 7b e0 3d
       -0.020360531 0.020838574 -0.057853848 0.10961108
000260 60 38 e2 3b db 20 4e bd 12 12 27 be 14 2a 9b 3c
       0.006903693 -0.050324302 -0.16315487 0.018940963
000270 d1 25 a7 3d 54 4c 0f bd 00 a9 97 bd fb df 8b bd
       0.0816151 -0.0349849 -0.07405281 -0.0682983
000280 ec 70 f7 bd f6 0f a3 bc 49 29 7a 3c 00 ea 75 ba
       -0.12082085 -0.019905072 0.015268632 -0.0009380877
000290 99 1e b0 bd 73 ab 09 3e 09 c7 3f 3e 90 6e 64 bd
       -0.08599586 0.13444309 0.1872827 -0.055769503
0002a0 96 ff d8 bd 86 8f 39 3e 0c 1f 09 3d 3c 81 1b 3e
       -0.10595624 0.18121156 0.033476874 0.15186018
0002b0 65 8e 44 3e 2c 34 41 3e f8 3b ef bc 49 28 98 bd
       0.19194944 0.18867558 -0.0292034 -0.07429559
0002c0 09 18 d6 3d 11 00 1a be af f4 3d bd b0 1f 82 3d
       0.10453803 -0.15039088 -0.046375927 0.063537
0002d0 70 13 5f bd 50 c9 b2 3d c8 9f 5f bd 28 aa 61 3e
       -0.054461896 0.087298036 -0.05459574 0.22037566
0002e0 15 45 ac 3d 48 10 e1 3d 07 ec 65 bd bc fe 20 bd
       0.08411614 0.109894335 -0.056133296 -0.039305434
0002f0 e1 ae 21 3e 6b fc 2c bd c0 30 99 bc e2 ea 51 3e
       0.15789367 -0.042232912 -0.018700004 0.20499757
000300 c0 72 58 bd ac 44 5d 3d 49 66 30 3e 70 88 5c 3c
       -0.05284381 0.05402057 0.17226519 0.013460264
000310 2f b1 d1 bc f0 b2 06 3c fe a8 b8 bd dd 31 29 3d
       -0.025597183 0.008221373 -0.09016608 0.04130732
000320 e8 79 c9 3d 5d ff c3 3d 8f f6 ba 3d b4 55 eb 3d
       0.09837705 0.09570191 0.091290586 0.11490956
000330 74 9f d6 3d 18 bc 15 be de f7 ce bd 3a 68 d0 bd
       0.10479632 -0.14622533 -0.10105871 -0.1017613
000340 e4 93 32 3d 26 d3 91 bd d9 90 2b 3e 81 b1 85 3d
       0.04359807 -0.071203515 0.16754474 0.06527997
000350 e0 cd b8 3c 24 46 58 bd a8 b3 9f 3d 63 89 9c bd
       0.022559106 -0.052801266 0.077979386 -0.07643392
000360 ea 4f c4 3d 2b 63 d5 3d 38 f5 5d 3e bd bd a2 3d
       0.09585555 0.104193054 0.21675575 0.07946346
000370 52 f9 5b 3e 36 47 af bd 88 f9 eb bd bb 2d f0 bd
       0.21481827 -0.08558504 -0.11522204 -0.117274724
000380 e4 62 52 bd 55 1c 0a 3e 88 ea f0 bb f0 ab 4e bd
       -0.05136384 0.1348737 -0.007352177 -0.05045694
000390 7b 72 6c 3d 89 7c 05 3e 3b 64 04 bd 55 60 27 3e
       0.057726365 0.13035788 -0.03232215 0.16345342
0003a0 38 2f 5a 3d 58 2f 7b 3e a3 68 28 3c b0 c1 ba 3c
       0.053267688 0.24529779 0.010278854 0.022797436
0003b0 43 a6 09 3e 4d ef 06 bd ec f1 e6 bd 9f 71 b7 3d
       0.1344233 -0.03294306 -0.11276612 0.089572184
0003c0 66 f3 d4 3d 77 16 b3 3d 87 54 a2 3d 9a 1d 97 3d
       0.10397987 0.08744519 0.079262786 0.07378693
0003d0 4c fe cc 3d bc d1 60 3d f2 44 da 3c 28 e7 87 3d
       0.10009441 0.05488752 0.026644204 0.066358864
0003e0 0b c4 75 3d a5 29 5c 3d 49 8b c8 bc c8 eb b6 3c
       0.060001414 0.053750653 -0.024480479 0.022329226
0003f0 35 4d 2c bc c4 06 9b bd 58 dc 1c bd b3 30 ac 3d
       -0.0105164545 -0.0756965 -0.038296074 0.08407726

fc2.bias f4 [64]
000000 ce 1c 68 bd 76 81 a1 bd e2 bf 32 be ab 10 a2 bd
       -0.056668095 -0.07886021 -0.1745601 -0.079133354
000010 ef dd 16 be 1c 6e 08 bd ca 8f c2 3d 08 2e a4 bd
       -0.14733098 -0.033308133 0.09500082 -0.08016592
000020 ab fd 8f 3d 04 10 56 bd 97 17 7f bd e1 ad 4c bd
       0.07030805 -0.052261367 -0.062278356 -0.04997051
000030 05 6b 92 bc 6d 95 cd bc 46 87 cc bd db 98 0c 3e
       -0.017873297 -0.025095666 -0.09986739 0.13730185
000040 80 78 9e bc a8 32 d6 bd fe 19 15 be 81 40 cb 3c
       -0.019344568 -0.10458881 -0.14560696 0.024811031
000050 18 b2 b9 bc c3 bb 48 bd bb 7d 52 3e 7e a7 a6 3c
       -0.02266793 -0.04900719 0.20555775 0.020343538
000060 79 31 2b 3e 1a d9 3b bb ce 29 b9 3d 54 6f 83 3d
       0.16718091 -0.0028663338 0.09041177 0.064177185
000070 1a 71 9d bd 5f 4f 1d 3d d4 1d 7a 3d af b9 1d 3e
       -0.07687588 0.038405772 0.061063603 0.15402864
000080 1e be 7e 3d bc 4b bc 3d 7a ea e3 bd 67 b2 fb 3b
       0.06219303 0.09194133 -0.11128707 0.0076811793
000090 0a d7 94 3d 30 1c 96 bd 95 f4 0f 3e 69 71 c7 3d
       0.07267578 -0.07329595 0.14058144 0.09738428
0000a0 5a 27 6c 3d 53 7b 5e bd 71 88 fc 3d 02 55 8a bd
       0.057654716 -0.05431683 0.12330712 -0.06754495
0000b0 94 e6 b7 bd 69 75 ee 3d 90 f2 c0 3d 9d 13 68 3d
       -0.08979526 0.11643488 0.09421265 0.05665933
0000c0 0e 71 05 3e ca 7f f0 ba 0b 14 4a bd 76 94 be 3d
       0.13031408 -0.0018348631 -0.04933552 0.093056604
0000d0 3f 6f 41 3d ed 53 c2 bd a1 f6 ec 3d de f6 ec 3d
       0.047225233 -0.09488664 0.11570478 0.11570524
0000e0 d0 f6 80 bc 90 65 6a bd b1 61 b8 bd 15 2f 80 3d
       -0.01574269 -0.057225764 -0.09003008 0.0625898
0000f0 cb 18 19 3d 15 18 94 3d 21 c4 3b 3d 08 16 fa bc
       0.03737716 0.07231156 0.04584134 -0.030528083

fc3.weight f4 [7, 64]
000000 4f 55 64 3d 00 2a 62 bb 94 7f 1f be fb da aa 3c
       0.05574542 -0.0034509897 -0.15576011 0.020856371
000010 3f e5 89 be 17 12 2b bd ad 80 e1 bd 14 59 6b bd
       -0.26932713 -0.0417653 -0.11010871 -0.057458
000020 bb ee 14 bd 97 ea a3 bc e6 98 1e 3e d6 61 b1 bd
       -0.036360484 -0.020009322 0.15488014 -0.08661239
000030 ae c3 32 3d 1e c4 cd bc 75 ca 9a 3d 2b ba 98 3a
       0.043643646 -0.02511793 0.07558147 0.0011652162
000040 60 55 f3 3c 6b 76 03 be 0b 7a ba 3e 90 57 21 3e
       0.029703796 -0.12838142 0.36421236 0.15756059
000050 97 a6 41 3d f1 a5 01 be 3f e0 1a 3e 58 03 31 3d
       0.047278013 -0.12660958 0.15124606 0.04321608
000060 70 e9 54 3c 7c 31 04 3d 71 14 de ba 60 81 1c 3d
       0.012995109 0.032273754 -0.0016943348 0.03820932
000070 ae 4d 03 be 9a c1 95 3d 65 81 c4 3d 78 c6 22 bc
       -0.12822601 0.07312317 0.095949925 -0.009935014
000080 9c 02 1d be 1d 60 b2 3d 76 b9 46 3d 5c 94 16 be
       -0.15333027 0.087097384 0.048516713 -0.14705032
000090 c9 8d b7 bc 10 ec d1 3d 40 77 1b 3e 63 14 e4 3c
       -0.022406476 0.102501035 0.15182209 0.027841752
0000a0 60 fb 11 3f 73 b8 24 3e a3 d8 07 be 2c a5 d6 bd
       0.5702419 0.16085987 -0.13266234 -0.10480723
0000b0 27 08 91 3c 16 8f 95 3d 65 cd 8c 3d 63 1f 59 bc
       0.017704083 0.07302682 0.068751134 -0.013252112
0000c0 c5 5c 13 3d f1 58 41 3d cf 30 71 3b 59 85 89 bd
       0.035977144 0.04720396 0.0036802774 -0.06714887
0000d0 40 c2 00 be 5d 5c 4b be 03 6a 2b bd 7e 62 6e bc
       -0.125741 -0.19859453 -0.041849148 -0.01454985
0000e0 02 fb a3 bd c0 a9 11 3c 3a 11 93 be 1f 63 fc 3e
       -0.0800686 0.008890569 -0.2872408 0.49294373
0000f0 90 1b 5a be 93 68 ac 3d 46 23 44 3d d9 f7 dc 3d
       -0.21299577 0.084183834 0.047885202 0.10789461
000100 f1 59 97 bc 44 aa 90 bd 28 aa 0b be 45 64 07 3e
       -0.018475505 -0.070637256 -0.13639128 0.13221844
000110 a0 25 1b 3e 25 bf 34 3e 15 12 97 bd 54 e9 94 bd
       0.15151072 0.17651041 -0.07376496 -0.07271066
000120 56 68 0b be 79 c6 4b bc 1b aa 0d 3f 5b de 18 bd
       -0.1361402 -0.012437456 0.55337685 -0.03732143
000130 3f 7e 9a 3d 26 c0 2c bd 4b 76 a8 bd 72 0f 00 3e
       0.07543611 -0.042175435 -0.082256876 0.12505892
000140 0c 73 b2 bd aa 71 11 3e a5 82 f0 bd 40 69 27 3e
       -0.0871335 0.14203516 -0.117436685 0.16348743
000150 12 a5 86 bc 6d 27 5d 3d 2d f4 b7 3d a7 08 a8 bd
       -0.016436134 0.053992677 0.0898212 -0.08204775
000160 b1 cc 82 3d 28 a4 bb 3e ad c7 2d be f5 76 43 bd
       0.06386698 0.3664868 -0.16970702 -0.04772087
000170 dc 54 cd bd 5d 4b e7 3d 9c d5 91 3e 51 94 88 bd
       -0.10025951 0.11293671 0.28483284 -0.06668914
000180 cd 0c 54 bd bb cc 35 3b 32 38 8f 3d b0 77 12 bb
       -0.05177002 0.0027740437 0.0699314 -0.0022349171
000190 d6 d3 f0 bc ee 0c bd bd c8 ba 49 bc 49 b8 e2 3d
       -0.029397886 -0.09230982 -0.0123125985 0.11070306
0001a0 8c 77 b1 3e 12 0e d2 3e 3d 61 c8 3c aa c1 d6 bd
       0.3466152 0.4102636 0.02446043 -0.10486157
0001b0 70 4f ec bd 4a 3b ac bd b3 f6 0c 3b 83 3a 9e 3d
       -0.11538589 -0.08409746 0.002150935 0.07726004
0001c0 6e 9b 89 bd 09 b7 7d bd c7 39 2a bd cf 30 0d bd
       -0.06719099 -0.061942134 -0.041559007 -0.034470376
0001d0 c7 ae e1 3d 45 03 bc bd 94 7f 65 bd 4c f2 91 bd
       0.11019664 -0.09180311 -0.05602987 -0.071262926
0001e0 c1 d8 3e 3d b0 72 e6 3d 23 6e 3c bf 4e bf b7 3e
       0.04659343 0.11252344 -0.73605555 0.3588814
0001f0 60 43 d9 3d 7f 4f 5e bd 2d 99 13 3e e7 c5 1d be
       0.10608554 -0.054275032 0.144139 -0.15407525
000200 db 0a 32 bc 28 b2 6c 3d 39 71 f7 bd 41 f9 36 bd
       -0.010866846 0.05778709 -0.120821424 -0.0446713
000210 79 32 e6 3c e5 17 a8 3e c6 2e 9e 3d d0 61 8b 3c
       0.02810024 0.3283073 0.07723765 0.017014414
000220 ad 6b 52 3c 78 b9 0c be 00 a6 91 3e c5 3f ca bc
       0.012843055 -0.13742626 0.2844696 -0.02468861
000230 28 e7 bb 3d 42 30 9a 3d 88 66 93 3d 7c 7b be bc
       0.09174949 0.07528736 0.07197291 -0.023252241
000240 20 53 c4 3d 25 6b b2 be ab 35 f7 bd 2b 4d 52 bd
       0.09586167 -0.3484737 -0.12070783 -0.051343124
000250 fe 31 16 bd 46 e0 b0 3d a0 4a 7e 3c 5a e4 08 be
       -0.03666877 0.08636527 0.015520722 -0.13368359
000260 83 6f 76 bd 51 b5 8a be 3b 11 e1 be e8 57 22 bd
       -0.06016494 -0.27091458 -0.43958458 -0.039634615
000270 bb 95 c0 3c c8 1d cf bd 5e dc 3b 3e 3d a3 b2 3d
       0.023508897 -0.10113102 0.18345782 0.087225415
000280 a5 a3 e2 ba fd 83 6a 3d ef b8 70 3d f9 55 b7 bb
       -0.0017291202 0.05725478 0.058770116 -0.0055949655
000290 3c e4 d1 3d d0 d5 58 3c bb 48 4b bd b1 f9 c6 bc
       0.102486104 0.013234571 -0.049629908 -0.024288984
0002a0 73 a1 8c 3e bb 8e de 3d 3a 81 d0 3c 49 be e8 bd
       0.27466926 0.108670674 0.025452245 -0.11364419
0002b0 20 a6 86 bd 45 dc 13 3e eb c8 3b 3e 56 26 36 bd
       -0.065746546 0.14439495 0.18338363 -0.044470154
0002c0 c3 1a c2 3d 31 23 90 3d 4a d7 29 3e 1f 16 a8 bc
       0.09477761 0.07037962 0.16586033 -0.02051836
0002d0 04 6e 4f bd 9f 8d 5d bd b1 f9 e5 3c 5b 32 be 3d
       -0.05064203 -0.05409014 0.028073164 0.09286948
0002e0 de 2a 87 bc 88 1b db bc d1 05 a1 be c2 64 9a 3e
       -0.016499933 -0.026746526 -0.3144975 0.30154997
0002f0 6b 1e 77 bc b8 ef 96 bd 4f 00 0d be 37 76 7d 3e
       -0.015082936 -0.073699415 -0.13769649 0.24752127
000300 c1 48 b5 3c d0 2a fb 3d 83 6b 8d 3b b4 db d0 3d
       0.022129418 0.12264025 0.004315795 0.10198155
000310 21 c6 27 be 81 4a 87 3e 73 fb c9 3d 08 c8 4f 3d
       -0.16384174 0.2642403 0.09862413 0.050727874
000320 af c6 b9 3d 91 60 2c bd 0f 8d 29 3e a2 77 3a bd
       0.09071099 -0.04208428 0.16557716 -0.045524247
000330 55 f7 36 3d af ae bc bc ed 28 77 3e 14 88 2f 3d
       0.044669468 -0.023032514 0.24136706 0.042854384
000340 b0 06 17 bd 0b 40 51 3e 5e fa 7c 3d 52 68 b9 be
       -0.036871612 0.20434587 0.061762206 -0.36212403
000350 26 42 33 3d 7b 1f a6 bd c1 b7 1c bd de 61 f8 3d
       0.043764256 -0.08111473 -0.03826118 0.12128042
000360 a9 69 46 bd 3c 75 5c 3f 08 22 18 3e 4e 30 92 ba
       -0.04844061 0.86116385 0.14856732 -0.0011153312
000370 d1 35 7a 3c 26 f2 15 be cd dd 56 3e 00 23 92 3d
       0.01527162 -0.14643154 0.20983048 0.07135582
000380 99 fb 99 3d f9 68 48 bd 01 c9 da bd 39 dc e0 bd
       0.075186916 -0.048928235 -0.1068287 -0.10979504
000390 ba 52 03 3d 44 c4 58 3d 9f 08 af bd 2c 65 0c bd
       0.032061316 0.05292155 -0.08546566 -0.034276173
0003a0 f0 61 9d 3e 52 4b 1c bd 7e db 04 bd d0 bf 12 bd
       0.30738783 -0.03815777 -0.032435887 -0.035827458
0003b0 70 37 11 bd dc 0a 03 3e 2a 59 2f bc 14 61 24 3d
       -0.03545326 0.12797111 -0.010702411 0.040131643
0003c0 9e e7 1d bd f7 23 12 3c e1 f2 8d bd f1 02 15 bd
       -0.038550965 0.0089197075 -0.06931091 -0.03637976
0003d0 5c d1 98 3d fc b8 8a 3e 4d 33 ce 3d b7 a4 11 be
       0.07461807 0.27094257 0.100683786 -0.1422299
0003e0 3f 0c ea ba 22 f6 b0 3d a7 d8 7f bf 94 c9 32 3f
       -0.0017856433 0.08640696 -0.9993996 0.69838834
0003f0 ba 7c db 3e ee 72 db 3d 32 01 ff 3c 87 98 8b be
       0.42868596 0.107152805 0.0311285 -0.27264807

fc3.bias f4 [7]
000000 b1 b1 e6 3c cf 52 76 bc 77 c2 6a bc ba dd c5 3d
       0.028160902 -0.015034392 -0.014328591 0.096614316
000010 88 27 dd bc b4 30 e1 3d 2d 46 3f bb
       -0.026996389 0.109956175 -0.0029186115
