src/models/v2.0.0-simple_env-20x20,1agent,0human,0shelf,1pickup,1dropoff.pth (torch, 252652 bytes, 10 tensors)

conv1.weight f4 [16, 10, 3, 3]
00000000: 4c38 be3d 0d0d 5a3e a8f8 053e 3f6b d03d
00000010: ff0b 563e a7f6 af3e de8e 723e 4efe 823e
00000020: 77e8 8d3d 11a5 39bd b200 b9bd bdbb 7fbd
00000030: d6b5 243d 2288 623d d804 afbc f21e 273d
00000040: 5957 853d a0b1 b9bc df23 d6bd e212 4ebd
00000050: b025 7fbc b11e b73d d4d5 26bd 6d68 8bbd
00000060: b36e 5dbd 3a08 5c3d 3e59 4ebd 5efb a8bd
00000070: e804 983c da81 063d 7ca3 1ebd 2db7 51bd
00000080: 4845 993c f0e8 25bd de70 073d f4e4 8dbd
00000090: fd9d 23bc 7495 35bd a9fd 2d3e 476b d03d
000000a0: ac18 d0bd 6833 723d c523 2ebd 9cf4 8a3d
000000b0: 5998 a23c 09e5 053e 82a6 48be 9443 3abe
000000c0: b82d 613e 1d55 52be 5a50 8bbe 1c25 bc3d
000000d0: 87d5 dabd 285f db3d 6180 7e3d 0e22 29bf
000000e0: cfc3 a23d 12e2 a03d 45e5 0abf 8625 e3bd
000000f0: a7fe 48bd aede 55be 2ed7 6dbb affa 85be
00000100: 8f54 c9bc 6ee6 913d a7b6 b1bd d3be 41bd
00000110: 234e b3bc 0921 f7bc 69b8 babc bd69 98bd
00000120: 59f2 8e3d 07a2 43be a389 753e 104c 6dbd
00000130: 69c6 2fbe f3d9 fa3d f685 e03d 38b2 ecba
00000140: c7a8 e43b 94d3 55bf 9e8e 78be 2530 243e
00000150: 7366 723e de1e c03e 3c1e f73c 840b 7e3d
00000160: f1c4 41bd 2e29 1cbd 3bcf 883c 94cd 823e
00000170: 7ad4 6b3e fcf9 e33d f2f7 843e 659d db3d
00000180: 96a8 983d 39e1 25be 87bb 033e ccfb d0bd
00000190: 0470 f63c eb14 cc3d 5e10 89bd 476e b43d
000001a0: 506b 22bd 9b89 79bd 7827 92bc d797 be3d
000001b0: b031 88bd 7812 38bc 866a 773d 4825 b3bc
000001c0: 62ce 3c3d 4121 cbbd a12d 923d d71c 39bd
000001d0: 5a8e 7c3d aca7 a73c 92fe 143d 40ad b7bb
000001e0: 7e42 8abd 6787 c3bd 44d8 a6bd 2203 71bd
000001f0: 78fc 493c 8894 633c ca80 80be ffc9 313d
00000200: 0425 1dbc 053f abba a8d9 a0bd cde3 e3bd
00000210: 0c77 923d baee 3fbe 9f7e 1f3e e686 c3be
00000220: a4d4 afbe 597a 9e3d 14c4 d0bd 0d66 89be
00000230: 6d28 d53d 22c5 6ebd cda7 343d c6f9 993e
00000240: 02d2 b4be 6dfd 8dbe bdd2 37bf 5f7b 3cbd
00000250: bfe9 7dbe e1e8 60be 977c 663c 1734 2fbe
00000260: 8acb 7fbf 0b8d b8bc 1630 0ebd c8fe 35bc
00000270: 7a7a 55bd 896d 03be 9616 6dbb 177f 883d
00000280: 3164 e13c 685d 13be 9ad5 c1be c603 f93c
00000290: 98d2 893d 75c4 6ebd f72a 8b3d 5d9d c1bc
000002a0: 7ca9 973d 596d 45be 4d60 243e bb97 db3c
000002b0: 66ad 1abe 4e2d 33be 8f90 8bbe 2e3e f13e
000002c0: ec75 053e 7753 dbbd abe8 f2bd a8a4 773d
000002d0: 389d b6bd 330d 9a3e 2c77 813e 53c6 353e
000002e0: 6872 033e a99d 893e ebbe 1c3e 2928 34bf
000002f0: 57de 393e 206b 283c 6cd5 0bbd 16af babd
00000300: b38a 5dbd 04a7 b23c a289 463d c033 5dbc
00000310: 1806 b4bd ab7a 8c3d 3611 2d3d 7327 8e3d
00000320: 6e43 103d 3477 a53c d0e0 8dbd e8c4 08bc
00000330: 8067 4f3b 3204 8abd 4542 42bd f08b 22bd
00000340: 80e5 ceba 40e7 aabc 49de 8b3d c057 debb
00000350: 7cd4 d3bc 2ed1 bbbd 7af4 a9bd 3cc7 8fbd
00000360: 819a 033e d560 fb3c 2784 50be 0037 c43d
00000370: fae6 1fbd 4c4e 6dbd 4a22 503c 5fa6 9abc
00000380: 2860 2f3e 7646 9f3d a666 e33d e652 253e
00000390: 914c 9c3d 53eb bcbd 75ac 143e 29ac 593e
000003a0: 892c dd3d f24c 2dbe b804 a53e 78b4 91be
000003b0: 8862 bdbe d2c0 a93e 0628 33be a9f5 32be
000003c0: a2e0 f1bd b32b 27be bc5e eabd b922 cfbc
000003d0: 8a4f d5bd 7ea3 cb3b f969 4bbd 37cd 9ebd
000003e0: 5185 983d fd2c 993d d708 cabd 2ea1 56bd
000003f0: b65b cc3d 70ee c6bd 4eea 87be a990 d33c
0.092880815 0.21294041 0.13083136 0.101767056 0.20903014 0.34367868 0.23687312 0.25584644
0.06929105 -0.045323435 -0.09033336 -0.0624349 0.040212475 0.055305608 -0.021364614 0.040800996
0.06510801 -0.022667706 -0.104560606 -0.050310977 -0.01557295 0.08941401 -0.040731266 -0.06807027
-0.05406065 0.053718783 -0.050378077 -0.082510695 0.018557027 0.03283868 -0.03873013 -0.05120008
0.018709794 -0.04050535 0.033066623 -0.06928435 -0.009986398 -0.044331983 0.16991295 0.101767115
-0.10160956 0.059131056 -0.04251458 0.06784937 0.019848036 0.13075651 -0.19594768 -0.18189842
0.21990097 -0.2054028 -0.2720974 0.091867656 -0.10685258 0.10711509 0.06213415 -0.6606759
0.07947504 0.078556195 -0.5425609 -0.110911414 -0.04907098 -0.20885727 -0.0036291587 -0.2616782
-0.024576453 0.07124029 -0.08677416 -0.047301125 -0.021887844 -0.03016712 -0.022793012 -0.07442043
0.06979818 -0.19104777 0.23978285 -0.057933867 -0.17165531 0.12248602 0.10963051 -0.0018058484
0.0069781276 -0.8352597 -0.24273154 0.1603399 0.23671894 0.3752355 0.030165784 0.0620227
-0.04730696 -0.03812521 0.016700378 0.2554747 0.23030272 0.11131665 0.25970417 0.1072338
0.0745403 -0.16199197 0.12864505 -0.102042764 0.03008271 0.09964927 -0.06692575 0.08810096
-0.039653122 -0.060922246 -0.017841086 0.09306305 -0.06650102 -0.011234872 0.060404323 -0.021868363
0.04609526 -0.09918452 0.07137609 -0.04519352 0.061659195 0.020465694 0.03637559 -0.00560537
-0.06750964 -0.0954731 -0.08146718 -0.05884088 0.01232826 0.013890393 -0.25098258 0.04340553
-0.009591345 -0.0013065046 -0.07854015 -0.11127434 0.07151613 -0.1874341 0.15575646 -0.38188857
-0.3434192 0.0773818 -0.10193649 -0.2683567 0.10408101 -0.05829347 0.04410534 0.30073375
-0.35316473 -0.2773241 -0.71805936 -0.046016093 -0.24796198 -0.21963836 0.0140677905 -0.17109714
-0.9991995 -0.022528192 -0.034713827 -0.011108108 -0.052118756 -0.12834753 -0.0036176792 0.066648655
0.027513595 -0.143911 -0.37858278 0.030397307 0.06729621 -0.058292825 0.06795304 -0.023634607
0.074053735 -0.19279994 0.16052361 0.02680575 -0.15105209 -0.17497751 -0.27258727 0.47117752
0.13033265 -0.10709279 -0.11860784 0.060459763 -0.08916706 0.30088195 0.25286233 0.17751436
0.12836611 0.26878098 0.15307204 -0.7037378 0.18151222 0.010279447 -0.03413908 -0.09115426
-0.054087352 0.021808155 0.0484711 -0.013501108 -0.08790225 0.068593346 0.04225274 0.06941118
0.035220556 0.020198442 -0.06927645 -0.008347727 0.0031647384 -0.067390814 -0.04742648 -0.039684236
-0.0015784949 -0.020862222 0.06829507 -0.006785363 -0.025858156 -0.09170757 -0.08298583 -0.07020423
0.12851907 0.030685822 -0.20362912 0.09580803 -0.039038636 -0.057935998 0.012703488 -0.01887816
0.17126524 0.07777111 0.11103563 0.16144904 0.076317914 -0.09224572 0.14518912 0.2125708
0.1079951 -0.16923884 0.32230163 -0.28458 -0.36989236 0.33154923 -0.17495736 -0.17476524
-0.118104234 -0.16325264 -0.114438504 -0.025285112 -0.104155615 0.006214558 -0.04966161 -0.077539854
0.07447303 0.07479284 -0.09864967 -0.052399807 0.0997843 -0.09713447 -0.26545948 0.025825815

conv1.bias f4 [16]
00000000: 17cc 8c3e 5ca7 9d3e fdd7 323e 3211 653e
00000010: bcab 4c3e 096e f53d 09ec 813e edf8 1f3e
00000020: 3ffc 513e 3911 403e a02f 293d fee2 383e
00000030: 306f 863e 7cf7 703e c8d1 7f3e e613 1e3e
0.27499458 0.30791748 0.17465205 0.2236984 0.19987386 0.11983878 0.25375393 0.15622301
0.2050638 0.1875657 0.041305184 0.1805534 0.26256704 0.23531908 0.24982369 0.15437278

conv2.weight f4 [32, 16, 3, 3]
00000000: 32e6 ff3c c5d5 e03d 951f 4e3d 2b1e 303e
00000010: e4fa b23e ee66 8b3e 53fe 7d3e 25ef ed3e
00000020: 7991 2b3e 3346 98be e1fb 513e bb29 133e
00000030: b44b 2bbe 186a b53e 0a12 d03e 635c 15be
00000040: 806e 9b3e 69ba e33e aa84 1c3c 0fcc 8fbd
00000050: e300 95bd 87a5 303d 8c4d fc3e 3083 9e3d
00000060: 1a96 113e d85d 143f 0878 973e dc48 6a3e
00000070: 5abf 743e 6785 963e 3200 98bc 57e2 5c3e
00000080: 145d 443e cb0d 4bbd 52a8 f33d 0dcd ac3d
00000090: 5564 35be 2e56 26be e4cb ec3b 6aa8 053c
000000a0: c376 f23d 49e7 463e 7890 713d b6b0 ac3e
000000b0: 9060 b03e 0c2d 813d 4b6f 223e 0b9f 2a3d
000000c0: 7efb b73d ea6a 933e 1d8e b13e 9f49 8e3d
000000d0: da66 b03e ff5d bc3e fa41 9bbc cf80 663d
000000e0: ca15 8a3e ce00 a63d a552 5c3e c1d3 cd3e
000000f0: 9e15 853d 4d8f 093e 97db 743e 0a73 3e3d
00000100: ff32 b03c d71e 123e 955b 82bc c61c 333e
00000110: 78f2 bb3e ffad 5a3d 5549 2b3e c75a 7e3e
00000120: 485c 083e a7d6 143e 38ef 913e 1421 2c3d
00000130: 441d 8b3e 7030 8b3e 5cd9 de3d 006d 223e
00000140: 44f8 eb3d 229b 553e 2b24 8d3e 1e34 a23d
00000150: 126e 9e3e 446b c73e 0ded 453e eda4 7e3e
00000160: 52f0 2e3e 1136 c7bd 598d 613e 4c1f 713e
00000170: f2ec 2a3e 54f8 4a3d a340 9f3e 2b9e 1f3e
00000180: 84f9 cc3c fc91 0c3e ebfd 59be 56e7 493d
00000190: c737 d13d 722b 783e 9e24 223d 6772 ff3d
000001a0: 3500 a83e f409 c2bc d875 083e 833c ce3e
000001b0: 021c 363e bb1c 15bd 1851 0abc edac 313e
000001c0: 0eb6 533d 207e 153e 50cd 453d 1cef cf3d
000001d0: 9393 c33d f626 a73d b437 823d feec a63d
000001e0: f36a aa3e c593 c63e b4f3 7e3e b2f2 923e
000001f0: 79f9 ad3e 41b2 b33e 1211 98bd 8b96 813d
00000200: d9a6 843d 5bc1 653d ae05 383e 9f59 163e
00000210: 5a59 1a3d 4b8a e23d c711 913e 227b 19bd
00000220: fb4a 4f3b 5298 ec3d 45bf cebb 6ff4 813d
00000230: 54a0 883e c536 fdbd 62fc 57bd 3fb3 143e
00000240: 4db7 67bd 0041 b33e 4732 4c3e a099 863c
00000250: d264 c63e 9f2b c93e 1fdb 5fbc 9a8b 593e
00000260: a126 713e 150c abbe 9d81 533e 3fea a73e
00000270: d6a4 b7be 06fa c13e bd1c f73e 81a6 9dbe
00000280: 41b2 483e 44de d23e 2d6f b03c d510 593e
00000290: 446c 563d 4abd 9bbb 6664 fe3e 461e 293e
000002a0: 4e6d 9c3d 7b59 be3e 1d26 9e3e 3596 8d3d
000002b0: 3b8f 833e e7a1 b53e 2ea4 d5bc ffac 153e
000002c0: 3456 943e 6db0 22be a773 a03a 0eab 063e
000002d0: 373d 82bd 1ee7 ebbc 593f 803d 4bbf e63d
000002e0: ead5 b93e 4d31 973e 4e20 52bd 5827 a13e
000002f0: 52cb 7e3e d74b c43c 9580 b03d 2cf3 8439
00000300: f2b8 ae3d 6284 fd3e 2374 703e 1d08 113e
00000310: 92ba b63e 098f c43e 9b59 d8bc 4ed9 963d
00000320: 0540 643e e035 a8bd fa47 8c3e c919 b23e
00000330: c36a a93d c21e 933d 9d4b 243e fa23 9e3d
00000340: f2a2 5f3e 8f81 093e 1434 16be 060a b53e
00000350: 8cc1 c23e 6b5c 9cbd 0101 b13e 0c24 653e
00000360: 18a2 563e 8c91 363e a41f b23e 7bd4 5a3e
00000370: 3b42 db3e c116 873e fe42 f13d c179 913e
00000380: 3c4d 203e 95ca 8e3e f2f4 c13e 0b0f 983e
00000390: c7dd 933e bc44 c93e 1fd8 433e dd79 8f3d
000003a0: 1dd1 ae3e 72c8 b73d 8568 0f3e f4e8 463e
000003b0: 9a47 bc3d b47f 8e3e 11fc f43e ba24 87bd
000003c0: b2ed 8d3e 85a4 a23e 161e 36be 13be b0bd
000003d0: 72c9 4d3e 32a3 913e 59c4 efbc 52f9 9d3e
000003e0: 492a ec3e 3899 acbb d49d 503e 9a88 813e
000003f0: 771b 2e3d 861e c23c 3ea3 a53d 20d6 b23d
0.031237695 0.10978273 0.050323088 0.17199008 0.3495704 0.27226967 0.24804048 0.46471515
0.16754712 -0.29741058 0.2050624 0.14371388 -0.16728097 0.35432506 0.40638763 -0.14586024
0.30357742 0.44478157 0.009553114 -0.07021343 -0.0727556 0.04312661 0.49277914 0.07739866
0.14217415 0.57955694 0.29583764 0.22879356 0.2390112 0.29398653 -0.01855478 0.21570717
0.19176131 -0.0495737 0.11897339 0.08437548 -0.17714055 -0.16243812 0.007226454 0.008157829
0.11839058 0.19424166 0.058975667 0.3372857 0.3444867 0.0630742 0.15862767 0.04165558
0.08983515 0.28792506 0.34678736 0.06947636 0.3445347 0.36790463 -0.018952359 0.056275185
0.2696975 0.08105622 0.21515901 0.40200618 0.06498264 0.13433571 0.23911892 0.04649643
0.021508692 0.14269577 -0.01591281 0.17491445 0.36708426 0.05338859 0.16727193 0.24839316
0.13316453 0.14535008 0.28502822 0.042023733 0.27170765 0.27185392 0.10881302 0.15861893
0.11521962 0.2085996 0.27566656 0.07920097 0.30943352 0.38949025 0.19328709 0.24867602
0.17083862 -0.09727109 0.22026576 0.23547095 0.1669195 0.04955323 0.31104 0.1558768
0.025021322 0.13727564 -0.21288268 0.049292885 0.10215717 0.24235323 0.039585702 0.124729924
0.32812658 -0.023686387 0.13326204 0.40280542 0.17784122 -0.036404353 -0.008442186 0.17351122
0.051687293 0.14598894 0.048291504 0.10153028 0.09549632 0.08161728 0.06358281 0.081506714
0.3328472 0.38784614 0.24897653 0.28700787 0.33979395 0.35096934 -0.07425131 0.06327542
0.06477136 0.0560926 0.17970917 0.14682625 0.03768287 0.110615335 0.28333876 -0.037470944
0.0031630385 0.1155249 -0.006309422 0.0634545 0.2668482 -0.12363962 -0.052730925 0.14521502
-0.056571294 0.3501053 0.19941054 0.016430676 0.38748795 0.39291093 -0.013663082 0.2124466
0.23549892 -0.33407655 0.20654912 0.32795903 -0.35867947 0.37886065 0.48264113 -0.30791095
0.19599248 0.411852 0.021537388 0.21197827 0.052349344 -0.0047527896 0.49685973 0.16515455
0.07638036 0.37177643 0.30888453 0.06913415 0.25695214 0.35475084 -0.026079264 0.14616774
0.28972018 -0.15887614 0.0012241498 0.1315119 -0.06359332 -0.028796729 0.062620826 0.11266955
0.36296016 0.295298 -0.05130034 0.3147533 0.24882248 0.023961945 0.08618275 0.0002535818
0.08531369 0.49515063 0.23481803 0.14163251 0.35689217 0.38390377 -0.026409915 0.07365666
0.22290047 -0.08213401 0.27398664 0.34785298 0.08272316 0.07183601 0.16044469 0.07721706
0.21839502 0.13428329 -0.14668304 0.3535921 0.3803829 -0.07634815 0.34571078 0.22377032
0.20960271 0.17828959 0.34789765 0.21370117 0.42823967 0.26384547 0.11780356 0.28413203
0.15654463 0.27888933 0.3788219 0.29698977 0.2888014 0.39310253 0.19125412 0.070056655
0.34143916 0.08973779 0.14004715 0.19424802 0.091933444 0.27831805 0.4784856 -0.06598802
0.2772041 0.31766143 -0.17784914 -0.08630004 0.20096377 0.2844482 -0.02926843 0.3085428
0.4612601 -0.0052672885 0.20372707 0.2529953 0.04250666 0.023696195 0.080877766 0.08732247

conv2.bias f4 [32]
00000000: 3698 303d 6739 5b3c b3cc b13d dee6 823d
00000010: 2056 a13d 90ec 1b3d 2c10 963d cbfc 603d
00000020: 27b2 013d 0a7b ab3d 4046 b23d bdbc d93d
00000030: 1253 d43d 2e78 d43c 86b8 2d3d 8ed8 ce3d
00000040: 04bd a33d 788e 8e3d fce5 003e 6800 ea3d
00000050: 9901 2d3d 4165 d73d 6d3e 083e fdf8 b93d
00000060: 306d a93d e53b 6f3d da10 2c3d 0ad6 e33d
00000070: 8f79 7d3d 309c fa3d 4701 bb3c ab34 463d
0.04311391 0.013380385 0.086816214 0.06391691 0.07877755 0.0380674 0.07327303 0.054928582
0.03166404 0.08373077 0.087048054 0.10631702 0.10367407 0.025936212 0.042412303 0.10099898
0.07995036 0.069607675 0.12587732 0.11425859 0.04223785 0.105173595 0.13305064 0.09080694
0.08272779 0.05840673 0.04200826 0.11124809 0.061883505 0.12236822 0.022827758 0.04839007

fc1.weight f4 [64, 800]
00000000: 8bc0 083c c60a 0e3d 79e3 b0bc cfdc 76bc
00000010: fd06 8d3c 5f4f f1bc bc39 b7bc b18f 083d
00000020: 5d9f f9bb d0c6 56bc 0e6a 083c 6092 1cbc
00000030: f013 5abc 7b36 8fbc 1074 29bc 548f 853c
00000040: a7b0 e2bc 6b34 943c 391c d73c bb5a 10bd
00000050: 86ce 58bc c12a 083d 4e73 aebb 06ee 8d3b
00000060: ec52 133c 648c b73c bc5c 66bc 5389 ff3c
00000070: 44d7 37bb be32 ea3c a373 973c fea6 d2bc
00000080: 28df d13c bf59 60bb 58f0 bb3c 9828 fabc
00000090: b9bd 3ebc 8511 82bc 6232 703b 64ba e4bb
000000a0: dbeb 9c39 4625 6e3c ceee 33bc d7ef d43b
000000b0: 0349 253c a329 ed3c d120 103d e281 c93c
000000c0: 9833 9f3c a0f0 083d b6c5 f63c 31e7 403c
000000d0: df1d ed3c 2371 d5bb 3f8d 00bc e1df 783c
000000e0: a51d 4fbb b7fd ab3c 884f 01bd c9e0 58bc
000000f0: 8685 52bc cf06 043d 9dab 143c f190 513b
00000100: 9712 98bc 0c04 9f3c 00f8 8a3b 7945 01bd
00000110: d9c6 0dbd b98d 01bd 0e7b f73c 0ddf d03c
00000120: 760b afba e859 debc 57a7 24bb 145c bc3b
00000130: b578 8e3c 3e98 243c 9217 493c 9a71 043d
00000140: 5b23 63bc 7400 8dbc f35a 863c f6b9 9e3c
00000150: daef f6bc 820f 833c b71f 07bc 838b 6e3c
00000160: 6ad6 45bc 85a8 f8bc c06e da3c ea61 acbc
00000170: 068e b13c 0f82 f3bb 516b 893c bfe3 debb
00000180: 494a babb 6c1d 01bc e51a 0dbd 2c8b 60bc
00000190: 3ae9 003d bde0 7fbc eba8 e33c 890b 753b
000001a0: 41c2 d73c 9409 b7ba 60dc acbc c518 883c
000001b0: daa5 b5bc d830 003c e7d1 d23c 4053 0b3d
000001c0: 0b8b b73c 60cf 0e3b a24b 173c ab55 b43c
000001d0: 5d10 b93a 7e78 debc b21f 0abd 7904 123c
000001e0: 9d06 9f3c 59e6 c43c 4f8b b3bb bca1 823b
000001f0: 0f98 bb3b 1cb8 fe3c 0227 f9bc 9774 843c
00000200: e24e a33c 4f07 a43c 920a e1bc 9941 06bc
00000210: 693c c9bc 3e26 493b 6aa3 c9bc 84d3 e43c
00000220: c84a 03bc 6fcb 95bc f1e8 ebbc 4a1c a4bc
00000230: 7c9a e73c be97 2dbc eae6 96bc a705 0e3c
00000240: 0431 c7bc 2947 0e3d 6d5b d5bc 8f20 a4bc
00000250: 784e 35ba 571d 8fbb 0882 e1bc 6728 66bb
00000260: 786b f23c 964d a33c 8217 0dbc 45a0 e7bc
00000270: cb18 59bb e0f9 08bc 2d3d 993b 9048 a4bc
00000280: 1354 9ebc d82e 43bc 6cae 0f3b 5ced 52bc
00000290: be0c babc 12e5 6e3a c36b 25bc 6595 593b
000002a0: 51f1 ce3c 483b adba 486e 6e3c 1b57 ba3c
000002b0: f590 6c3c 466b eebc e1be e4bc 0150 5cbc
000002c0: 22c6 ee3b 3dae e33c 5e81 09bd adc2 10bd
000002d0: b08e 963c 3e8f 96bb 6ba5 8abc ca6c d03b
000002e0: fe78 babb bccd 083d f953 383b 150f 12bd
000002f0: 7b25 fbbc d352 09bd 8775 493b 9609 f73c
00000300: ca4d 6dbc 76a7 abbb c7a3 2dbb 8657 a2bc
00000310: 44d7 cdba 4d1d c83c ccdc 8abc 5c15 563a
00000320: e2c5 e13c 48b5 4fbb 4895 813c 6aac a4bb
00000330: 6c89 f3bc c448 0cbd 67a6 c63c 75c9 5abc
00000340: e192 dd3c b246 a23c c62d da3c 16a6 053d
00000350: 4dbb 1839 b17f 05bd 2b7f dbbc 4519 9b3c
00000360: bc55 a1bc 3fa9 d5bb 7e4b f6ba 909d 30bc
00000370: 32c6 e13b 9add 20bc 9f46 4f3c 51e4 0bbd
00000380: 69ce 0cbc e09b 913c 7238 053d bc3e 833c
00000390: df04 abbc ab61 8cbb 7fd7 50bc f0ba 0d3d
000003a0: b15f 0bbd 4073 44ba 8227 a13b dc7b 843b
000003b0: a0e1 55bb 900b a83c 6a2f 7dbc 87d6 d2bc
000003c0: a09e e8bb 563a e6bc 0323 6abc 772e 23ba
000003d0: c7f9 773c 43ef cd3c cd70 d6bc 2993 efbc
000003e0: 79df e03c acdd d33a 2ceb 0abd 387a e03c
000003f0: 1820 813c 1fc3 0abd fe03 543c f753 f73b
0.008346687 0.034678243 -0.021592842 -0.015067293 0.017215246 -0.029456792 -0.022366397 0.03334016
-0.0076178745 -0.013108924 0.008326067 -0.009556383 -0.0133104175 -0.017482033 -0.010342613 0.016303696
-0.027672125 0.018091401 0.026258575 -0.035242777 -0.013232833 0.0332439 -0.005323804 0.004331353
0.008991938 0.02240581 -0.014060196 0.031193411 -0.0028051892 0.028588649 0.018487757 -0.025714394
0.025619105 -0.003423318 0.022941753 -0.030536935 -0.011641913 -0.015877495 0.0036651124 -0.0069802273
0.00029930365 0.014535254 -0.010982228 0.0064983177 0.010088208 0.028950518 0.035187546 0.024598066
0.019433782 0.033432603 0.030123573 0.01177387 0.028944908 -0.006513731 -0.007846176 0.015190096
-0.0031603363 0.020995004 -0.031569988 -0.013237187 -0.012849217 0.032233056 0.009074119 0.003197726
-0.018563552 0.01941111 0.0042409897 -0.031560395 -0.034613464 -0.031629298 0.030210044 0.025496984
-0.0013354856 -0.02714248 -0.0025124156 0.0057482813 0.017391542 0.010046063 0.012273686 0.0323349
-0.01386341 -0.01721213 0.01640079 0.019375782 -0.030143667 0.015998606 -0.0082473075 0.014559629
-0.012075046 -0.030353794 0.026664138 -0.021042783 0.021674167 -0.0074312757 0.016774805 -0.006802052
-0.005685125 -0.00788055 -0.034449477 -0.013705056 0.031472422 -0.015617547 0.027790507 0.0037390909
0.026337745 -0.0013964646 -0.021101177 0.016613374 -0.02217381 0.007824145 0.025734855 0.03401494
0.022405168 0.0021791086 0.009234341 0.022013506 0.0014119257 -0.027157065 -0.033721633 0.008912199
0.019412333 0.02403562 -0.0054792534 0.0039865654 0.005724914 0.03109365 -0.030414108 0.016168876
0.019935075 0.020023016 -0.02747086 -0.008194351 -0.024564939 0.003069296 -0.024614055 0.02793289
-0.008013435 -0.018285481 -0.028797599 -0.02003302 0.028271906 -0.01059526 -0.018420655 0.00866834
-0.024315365 0.034735832 -0.026044572 -0.020035056 -0.0006916295 -0.0043675113 -0.027527824 -0.0035119297
0.02959226 0.019934457 -0.008611562 -0.028274665 -0.003312635 -0.008360356 0.004676482 -0.020054132
-0.0193272 -0.011913024 0.0021924032 -0.012873974 -0.022711154 0.00091131136 -0.010096493 0.0033200618
0.025261553 -0.001321652 0.01455266 0.022746613 0.014438857 -0.029103886 -0.02792305 -0.013446809
0.007286803 0.027793044 -0.03357064 -0.035341907 0.018378586 -0.0045947125 -0.01692458 0.006360625
-0.005690693 0.03339933 0.0028126223 -0.035658915 -0.03065752 -0.033526253 0.0030740218 0.030155938
-0.014483878 -0.0052384688 -0.0026495324 -0.019817125 -0.0015704413 0.024428034 -0.016950987 0.0008166635
0.027560178 -0.0031693745 0.015818253 -0.005025436 -0.029728614 -0.034249082 0.024249269 -0.013353695
0.027047576 0.0198091 0.026633155 0.032629095 0.00014565625 -0.03259248 -0.026794037 0.018932948
-0.019694202 -0.00652042 -0.0018790809 -0.010779753 0.006890082 -0.009818459 0.012651115 -0.034153286
-0.008594134 0.017774522 0.032524534 0.016021125 -0.020876346 -0.004284104 -0.012746691 0.034602106
-0.034026805 -0.000749398 0.00491804 0.0040430855 -0.0032635704 0.020513326 -0.015453199 -0.02573706
-0.0070989877 -0.028103989 -0.014290574 -0.00062248803 0.015135235 0.025138503 -0.026176834 -0.029244976
0.02745031 0.0016164086 -0.033915684 0.027402028 0.015762374 -0.03387749 0.012940405 0.007547851

fc1.bias f4 [64]
00000000: 4c48 103c 7205 6abc 480e 4c3d 08a3 a2bc
00000010: 06f9 7d3c aeac 0a3d 70f1 9f3b 38c7 a53d
00000020: c948 8cbc 56c2 2cbc 8460 81bc 0996 b13c
00000030: 839c c93d be52 953d f2d5 f83c 8cca fe3c
00000040: d14d 123b 5a61 963c 81e2 813d 3f6a b0bc
00000050: 9089 d7bb fca3 203c 1518 79bc 3c3f 3f3a
00000060: 806d a6bc ac29 9d3d 2d61 a93d fb17 b63b
00000070: 49d4 d23c 74c1 333c 21a4 67ba d72b 22bc
00000080: e0b8 0abc b176 4e3d 8772 f53c 4228 90bc
00000090: 7261 dcb9 a749 0d3d 5132 f9ba c9fb 913d
000000a0: 2475 503c f8bd 023d b10c 893c 3fee f13c
000000b0: c1ab 4d3d ecb4 78bc 2757 09bb 7d70 733d
000000c0: a25f b23c 8c09 c03d 0c5c b53d a6f2 a03b
000000d0: 5051 d53c abc0 ba3b c8b4 473d 1ac8 533d
000000e0: d362 87bb df78 2f3d b412 f53b da50 223c
000000f0: 7cbf 053c 0b6d 453d 400e 12bc 9ec7 153c
0.008806299 -0.014283525 0.049818307 -0.01985313 0.015501266 0.033856086 0.0048810765 0.080946386
-0.01712455 -0.01054438 -0.015793093 0.021677988 0.09844305 0.072911724 0.030375455 0.031102441
0.0022324214 0.018356968 0.0634203 -0.021535037 -0.006577678 0.009804722 -0.0152034955 0.00072954944
-0.020315886 0.07673964 0.08270488 0.005557058 0.025735991 0.010971416 -0.0008836408 -0.009898148
-0.008466929 0.05040616 0.029961837 -0.017597321 -0.00042034272 0.03449407 -0.0019012188 0.07128102
0.012723241 0.03191945 0.016729685 0.02953255 0.050212625 -0.015179854 -0.0020956488 0.05943345
0.021774117 0.09376821 0.08855447 0.0049117384 0.02603975 0.0056992373 0.04875639 0.051704504
-0.004131654 0.04283988 0.007479036 0.009906972 0.008163329 0.048199695 -0.00891453 0.009141831

fc2.weight f4 [64, 64]
00000000: f7c2 e7bd 4847 e0bc 04c9 fabd a0e3 12bc
00000010: 68c5 c3bd a07e fb3b 4c9f 56bd 4ca8 993d
00000020: 00e5 473d 9c36 07bd 62fa 7c3d 6c96 df3d
00000030: d401 6e3d bfaf fa3d c823 d1bd 1439 993d
00000040: 190a 323b a0b6 533c 5203 a2bd b792 933d
00000050: f9f6 5bbd c403 bd3d 8cb4 fbbd c203 753d
00000060: bc67 7c3d 56fd 1ebd caeb 9b3d de28 ce3d
00000070: 7ad0 1b3e 5ab0 b63d ca48 d9bd 51c4 b33d
00000080: 432b 4ebb b5e5 18be b9a7 083e 20f0 1c3c
00000090: ec43 c03c 4cc1 a03d fb21 45bc 430c 47bc
000000a0: 8019 67bb 6bbe 5ebc 31dc adbd 4ebf 223e
000000b0: 4542 bf3d 2756 2c3e 1841 fcbd f34c ab3d
000000c0: 9ed3 033e 8e2e b03d 4248 4b3d 8014 e33c
000000d0: c8c4 e33d 2232 9d3d 86e8 463d 5134 94bc
000000e0: 6bb8 273d 2771 113d 396c 613d fc8d 4a3d
000000f0: cd29 7abd a6ec 493c 60ca b33d 23c7 9abd
00000100: 3e76 8c3d 7824 933d 0075 6abc f8c5 823d
00000110: 3296 ef3d 34c2 02bd 383c f6bc e4f8 b4bd
00000120: 764b 9d3d e4d8 603d ec0f 2ebd 5e6f 9bbd
00000130: 3434 233d fc31 bbbd 6278 ddbd 6c27 153d
00000140: fa64 82bd 14b8 023d 5cb9 ddbd 40a7 f8bc
00000150: 240c 243d 580f d33d 349c 7f3d 782e a43c
00000160: 4006 82bb 006b 843a f45d 363d 507a 19bc
00000170: a0ba d33b 00e4 d639 a09b 2ebd 581f 26bd
00000180: 847a d93d 9a19 b33d 34ec 51bd 2ca8 4a3d
00000190: 60ab 84bd d895 d8bc 1a77 f9bd 04b1 6fbd
000001a0: c07d 393d 80c6 51bb 2450 4fbd 4694 d83d
000001b0: 78fa fb3d 2211 bc3d 7cee 023d 201d 94bb
000001c0: 6618 c3bd 0ce6 aa3d e8b2 083d 7e80 abbd
000001d0: 1e7e ce3d 3a07 c0bd f891 febd ac90 ecbd
000001e0: 6ee0 c53d 30cd fabd f25a bfbd 9461 c7bd
000001f0: e271 87bd 0444 7fbd 78f2 9e3d 4885 b4bd
00000200: d093 de3c a0be ab3c ba94 983c 487d bcbd
00000210: 6313 babd 1ef4 e73d 287a 723d ec73 023e
00000220: 565d 843d 3d7a eabd 1c0b f63d 14db 93bd
00000230: c9da f5bd e2e6 0ebe b0d6 aa3c c0c1 a63c
00000240: f21c 213c 0054 f0b9 679b 00be 6b9b eb3d
00000250: 21cb a6bc 5410 c73c 28f8 6cbd 2b7d e03d
00000260: 6038 e23b bb9d 82bd 9b4b 29be 5a94 003d
00000270: 5464 9c3d 544c 0fbd 00a9 97bd fbdf 8bbd
00000280: ec70 f7bd 584c 24bd 5d91 433c 00ea 75ba
00000290: 991e b0bd 71db 013e 37d3 363e 375e 6bbd
000002a0: 96ff d8bd e285 353e 0c1f 093d 66bd 1a3e
000002b0: 7bce 473e deae 463e f83b efbc 907f a0bd
000002c0: e094 d63d 2fd1 17be f40d 34bd b01f 823d
000002d0: 7013 5fbd 50c9 b23d 59ba 47bd c6b5 5c3e
000002e0: ae92 a63d c15f db3d 676c 84bd bcfe 20bd
000002f0: f06f 173e aa97 16bd c030 99bc eb61 5c3e
00000300: c072 58bd ac44 5d3d 4174 2c3e 7088 5c3c
00000310: 4053 3cbd f0b2 063c fea8 b8bd e756 1d3d
00000320: e879 c93d 5dff c33d 8ff6 ba3d b455 eb3d
00000330: d1e5 ea3d 82c2 0ebe def7 cebd 3a68 d0bd
00000340: e493 323d 26d3 91bd 1316 233e 81b1 853d
00000350: e0cd b83c 9ed1 59bd a8b3 9f3d c13c 9cbd
00000360: ea4f c43d 4d1c df3d a241 5c3e 1ac8 953d
00000370: 7734 593e 3647 afbd 88f9 ebbd bb2d f0bd
00000380: e462 52bd 7923 123e 14a9 27bc f0ab 4ebd
00000390: 7b72 6c3d 9b05 043e f93b dbbc 5d61 1d3e
000003a0: 382f 5a3d 50d6 793e a368 283c 0ecb b93c
000003b0: 8c77 fd3d 7ca2 23bd ecf1 e6bd 2851 b43d
000003c0: 272c f23d b138 ad3d b8e7 9f3d 9a1d 973d
000003d0: 4cfe cc3d bcd1 603d 7bc0 8e3c af15 9b3d
000003e0: aa37 7f3d 0d2a 823d 058b cabc c8eb b63c
000003f0: 6b92 45bc 26ec a3bd 58dc 1cbd cc16 973d
-0.113164835 -0.02737774 -0.12245372 -0.008965403 -0.09559137 0.007675007 -0.05239801 0.07502803
0.048802376 -0.033011064 0.06176222 0.109173626 0.058107212 0.12240552 -0.10211903 0.0748159
0.0027166663 0.012921959 -0.079107895 0.07205718 -0.05370233 0.09229234 -0.12290296 0.059818037
0.061622366 -0.03881582 0.076133326 0.100663885 0.15216246 0.08920355 -0.106095865 0.08777679
-0.0031458891 -0.14931376 0.13345231 0.009578735 0.023469888 0.078493685 -0.012032027 -0.0121489195
-0.0035263002 -0.013595204 -0.08489264 0.1589329 0.09338812 0.1682974 -0.12317103 0.08364286
0.12873694 0.086026296 0.049629457 0.027719736 0.111215174 0.07675578 0.048561595 -0.018091353
0.04094736 0.0355083 0.05503485 0.049451813 -0.06107502 0.012324488 0.08778834 -0.075575136
0.068584904 0.0718469 -0.014310122 0.06385416 0.11698569 -0.031923488 -0.030058011 -0.088365346
0.07680409 0.054894343 -0.042495653 -0.07589601 0.039844707 -0.09140393 -0.10813977 0.03641455
-0.06366916 0.03191383 -0.1082637 -0.030353189 0.04005064 0.10305661 0.062404826 0.02004169
-0.00396803 0.0010102689 0.044523194 -0.0093675405 0.0064614564 0.00040987134 -0.042628884 -0.040557235
0.10619071 0.087451175 -0.05125065 0.049476787 -0.06478 -0.026438639 -0.1218092 -0.058518425
0.04528594 -0.0032009184 -0.050613537 0.10575156 0.123036325 0.09182955 0.031965718 -0.0045200735
-0.09526138 0.08344659 0.033373743 -0.08374117 0.10082649 -0.09376378 -0.12430185 -0.115510315
0.09661947 -0.12246168 -0.09343518 -0.097354084 -0.06613518 -0.062320724 0.07761091 -0.08814484
0.027170092 0.02096492 0.018625606 -0.09203583 -0.09085729 0.113258585 0.05919853 0.12739533
0.06463115 -0.11449096 0.12013838 -0.0721952 -0.120046206 -0.13955262 0.020854324 0.02035606
0.009833561 -0.00045838952 -0.12559281 0.11504253 -0.020360531 0.024299778 -0.057853848 0.10961374
0.006903693 -0.06377741 -0.16532747 0.03139148 0.076363236 -0.0349849 -0.07405281 -0.0682983
-0.12082085 -0.04011187 0.011936513 -0.0009380877 -0.08599586 0.12681367 0.1785401 -0.057462897
-0.10595624 0.17726853 0.033476874 0.15111312 0.1951236 0.19402644 -0.0292034 -0.078368306
0.104776144 -0.14825891 -0.04395862 0.063537 -0.054461896 0.087298036 -0.0487617 0.21553716
0.08133446 0.10711623 -0.064659886 -0.039305434 0.14788795 -0.036765732 -0.018700004 0.21521728
-0.05284381 0.05402057 0.16841222 0.013460264 -0.04597783 0.008221373 -0.09016608 0.038412955
0.09837705 0.09570191 0.091290586 0.11490956 0.11469615 -0.13941386 -0.10105871 -0.1017613
0.04359807 -0.071203515 0.1592639 0.06527997 0.022559106 -0.053178422 0.077979386 -0.076287754
0.09585555 0.1089407 0.21509412 0.07313557 0.2121142 -0.08558504 -0.11522204 -0.117274724
-0.05136384 0.14271344 -0.010233182 -0.05045694 0.057726365 0.12892763 -0.026761996 0.15369172
0.053267688 0.2439816 0.010278854 0.022679832 0.123763174 -0.03994988 -0.11276612 0.08804542
0.11824828 0.08458079 0.07807869 0.07378693 0.10009441 0.05488752 0.017425766 0.07572495
0.062308945 0.06355677 -0.024724493 0.022329226 -0.012058835 -0.08004026 -0.038296074 0.07377395

fc2.bias f4 [64]
00000000: 4db4 78bd 7681 a1bd 52eb 39be 236c a0bd
00000010: 5447 17be 395b ecbc ca8f c23d 082e a4bd
00000020: fb94 7e3d 120d 50bd 5dfc 80bd e1ad 4cbd
00000030: 056b 92bc 24a9 efbc 8551 d1bd 432e 0c3e
00000040: 8078 9ebc 2255 d3bd ce10 11be 7cab da3c
00000050: ffaf c2bc bed2 53bd 72f3 4e3e b6ef c83c
00000060: a825 293e 909e 15bc d4c0 c03d 546f 833d
00000070: 9c98 b6bd c6e5 1f3d d368 673d 4a18 1c3e
00000080: bc54 7d3d bc4b bc3d 173e e7bd e447 d63b
00000090: 0ad7 943d 301c 96bd c791 0c3e 6971 c73d
000000a0: 2468 813d dcfa 66bd e0f0 f23d 0e72 85bd
000000b0: a6d5 b4bd 11b7 f03d ba5c b53d 7651 693d
000000c0: ae09 003e 66af 3dbb 01c8 50bd c2b1 b63d
000000d0: 3f6f 413d 246c cbbd 82ed f03d 63bb e83d
000000e0: d0f6 80bc 9065 6abd 2120 b3bd 2bc8 853d
000000f0: f0ec 3b3d 1518 943d 2748 403d 06eb 0fbd
-0.060718823 -0.07886021 -0.18156174 -0.078331254 -0.14773303 -0.028852092 0.09500082 -0.08016592
0.062153798 -0.050793715 -0.062981345 -0.04997051 -0.017873297 -0.029255457 -0.10220627 0.13689522
-0.019344568 -0.10318972 -0.14166567 0.026693098 -0.023765562 -0.05171465 0.20210055 0.024528366
0.16518271 -0.0091320425 0.09411779 0.064177185 -0.08915827 0.03903749 0.056496453 0.1524364
0.061848387 0.09194133 -0.112911396 0.0065393317 0.07267578 -0.07329595 0.13727485 0.09738428
0.063186914 -0.056391582 0.118623495 -0.06515895 -0.08829813 0.11753667 0.08855577 0.056962453
0.12503693 -0.0028943657 -0.05097199 0.08920623 0.047225233 -0.099327356 0.11764051 0.11363866
-0.01574269 -0.057225764 -0.087463625 0.0653232 0.045880258 0.07231156 0.04694381 -0.035136245

fc3.weight f4 [7, 64]
00000000: 816f 543d 002a 62bb f828 25be eb38 953c
00000010: 0c83 9fbe 2dab dbbc ad80 e1bd 1459 6bbd
00000020: b4f2 00bd 3b38 aebc 83c3 203e d661 b1bd
00000030: aec3 323d de51 edbc 757c 8b3d c485 9bba
00000040: 6055 f33c 35ca 02be a020 a73e b8c0 163e
00000050: b691 383d 1ea9 04be f412 193e 310e 293d
00000060: 8e51 5d3c 4135 70bd aeca cf3b 6081 1c3d
00000070: 491f 01be 33dc 943d 7621 a93d 2912 3bbc
00000080: 2998 19be 1d60 b23d e53c 983c 991d 14be
00000090: c98d b7bc 10ec d13d 8f37 183e 6314 e43c
000000a0: f978 ea3e 1c3d 293e 272e 09be 59f6 d4bd
000000b0: ff37 8a3c 3da2 913d b2b4 843d d298 90bc
000000c0: b0e2 f53c 28fc 353d 87b1 0939 fa84 91bd
000000d0: 40c2 00be 6340 4fbe 1f74 2dbd f306 5ebc
000000e0: 02fb a3bd c0a9 113c 0e4a 5cbe bbdd f73e
000000f0: eaf3 5ebe 9368 ac3d 5101 413d cb7b c63d
00000100: 390d 9dbc 44aa 90bd 2a15 07be e402 043e
00000110: c796 163e a5df 3e3e 1512 97bd 54e9 94bd
00000120: a9c5 06be 1dbe 87bc 554a 153f 5bde 18bd
00000130: 3f7e 9a3d 0874 3fbd a9db 8ebd 093b f13d
00000140: 0c73 b2bd ced1 1f3e 7c8a dfbd b0de 213e
00000150: 73d5 a1bc 4c84 483d a2cf ab3d 2526 acbd
00000160: c638 6d3d 3283 893d fb45 01be f576 43bd
00000170: cc52 b3bd eda6 de3d 7b11 913e 85a0 88bd
00000180: 6a05 66bd bbcc 353b 1e03 603d 65c4 00bc
00000190: d6d3 f0bc ee0c bdbd 7606 a2bc 49b8 e23d
000001a0: 7910 a13e 9022 c13e 6210 af3c 6c7b e1bd
000001b0: a8f3 f2bd f786 a1bd ec06 5c3b f0ad a33d
000001c0: 4a58 92bd 40e7 82bd 0a8d 01bd 0951 20bd
000001d0: c7ae e13d 7004 c3bd 4f19 68bd 1b73 91bd
000001e0: c1d8 3e3d b072 e63d 13c2 4ebf a956 ca3e
000001f0: 13a4 a13d 7f4f 5ebd b3a5 073e dcd9 e2bd
00000200: 6f9f 85bc 28b2 6c3d f080 01be 0fff 3bbd
00000210: f8fd a33c b560 a13e c62e 9e3d d061 8b3c
00000220: b667 383c b048 0fbe 6f3b 953e c53f cabc
00000230: 28e7 bb3d 50d6 963d 5e0b 7e3d e65d d6bc
00000240: 2053 c43d a2f8 aebe f067 c5bd 8558 91bd
00000250: 4484 27bd 9dfc a93d 23ed 4c3c 8596 0abe
00000260: db08 81bd 5258 51bd 872f d6be e857 22bd
00000270: 9c56 883c d5f1 d2bd bd89 3c3e 0c0f aa3d
00000280: 9c8f d7bb fd83 6a3d 431c 8f3d a45c 0dbc
00000290: 3ce4 d13d d0d5 583c b68c 52bd b1f9 c6bc
000002a0: 2f50 473e d184 df3d 195e a73c 6de3 f4bd
000002b0: b6d4 8bbd 3942 133e 6d8f 393e 2c1f 2abd
000002c0: 1ee8 b83d 5614 893d 5126 223e 1e55 cebc
000002d0: 046e 4fbd c5c4 6abd 50ee da3c ebc5 bb3d
000002e0: de2a 87bc 881b dbbc a1f9 c9be 2ee7 a43e
000002f0: 949c 22bd b8ef 96bd aaed 0cbe 6528 6a3e
00000300: 5741 a23c d02a fb3d 6c8d 163a 27c6 d03d
00000310: dc00 44be 4ed5 903e 73fb c93d 08c8 4f3d
00000320: 8750 b63d 5303 34bd 2444 293e a277 3abd
00000330: 55f7 363d d118 d2bc 8d4a 6f3e 81da 243d
00000340: b006 17bd cde1 533e f0fc 233d 3c7c c1be
00000350: bf54 383d 786c acbd 24b5 1bbd 784f f73d
00000360: 9e0a 49bd 437a cb3e 6ed8 063e 4e30 92ba
00000370: 9be2 9b3c 50f4 14be 6430 5e3e 233a 8f3d
00000380: ee98 913d f968 48bd 46a1 e6bd b548 e8bd
00000390: ba52 033d 44c4 583d dd6b afbd 2c65 0cbd
000003a0: 4a1a 6e3e fd91 55bd 2178 11bd 31ea 27bd
000003b0: bd88 13bd 1695 053e b700 28bc 2ce1 1d3d
000003c0: 7e8a 2bbd dcd4 173c 7139 96bd a418 28bd
000003d0: 5cd1 983d 36f5 873e 811c d03d 454d 10be
000003e0: 3f0c eaba 22f6 b03d 6c93 66bf 58c8 313f
000003f0: 8709 d13e ee72 db3d dbfe ea3c d69f 93be
0.05186415 -0.0034509897 -0.1612891 0.018215617 -0.31154668 -0.026815021 -0.11010871 -0.057458
-0.03148146 -0.021267047 0.15699582 -0.08661239 0.043643646 -0.028969701 0.06810848 -0.0011865427
0.029703796 -0.12772448 0.32642078 0.14721954 0.045060836 -0.12955138 0.14948636 0.0412733
0.013508214 -0.058644537 0.0063413 0.03820932 -0.1260959 0.07268562 0.08258335 -0.011417904
-0.1499945 0.087097384 0.018583724 -0.14464416 -0.022406476 0.102501035 0.14864944 0.027841752
0.4579542 0.16527218 -0.13396512 -0.103985496 0.016872404 0.071110226 0.064797774 -0.017650995
0.03001532 0.044429928 0.00013131472 -0.071054414 -0.125741 -0.20239405 -0.04234707 -0.0135514615
-0.0800686 0.008890569 -0.21512625 0.48411354 -0.21772733 0.084183834 0.047120396 0.096915804
-0.019171344 -0.070637256 -0.13191667 0.12891728 0.14705954 0.18640001 -0.07376496 -0.07271066
-0.13161339 -0.016570145 0.58316547 -0.03732143 0.07543611 -0.046741515 -0.069754906 0.11778838
-0.0871335 0.15607378 -0.10915086 0.15807605 -0.0197551 0.048954293 0.08389212 -0.08405713
0.05791547 0.06714477 -0.12624352 -0.04772087 -0.087560266 0.10871682 0.2833365 -0.06671242
-0.056157507 0.0027740437 0.054690473 -0.007859324 -0.029397886 -0.09230982 -0.019778471 0.11070306
0.3145788 0.37721682 0.021370117 -0.11009869 -0.1186288 -0.078870706 0.0033573462 0.0799216
-0.07145746 -0.06391764 -0.031628646 -0.03913978 0.11019664 -0.09522331 -0.05666476 -0.07102033
0.04659343 0.11252344 -0.80764884 0.3951924 0.07892623 -0.054275032 0.13246803 -0.1107671
-0.016311375 0.05778709 -0.12646842 -0.04589754 0.020018563 0.31519094 0.07723765 0.017014414
0.011255195 -0.13992572 0.29146907 -0.02468861 0.09174949 0.073650956 0.06202256 -0.026167821
0.09586167 -0.34174067 -0.09638965 -0.07096962 -0.040897623 0.08300135 0.01250771 -0.13533981
-0.06300517 -0.05110962 -0.41833135 -0.039634615 0.016642861 -0.10300032 0.18411918 0.08303651
-0.006578399 0.05725478 0.06987812 -0.008628044 0.102486104 0.013234571 -0.051403724 -0.024288984
0.19464181 0.109140046 0.020430611 -0.119574405 -0.06827681 0.1438073 0.18121119 -0.041533634
0.09028648 0.06693332 0.15834929 -0.025187071 -0.05064203 -0.05731656 0.026724964 0.09168609
-0.016499933 -0.026746526 -0.39448264 0.32207626 -0.039700106 -0.073699415 -0.13762537 0.22866972
0.019806547 0.12264025 0.00057431194 0.101940446 -0.19140953 0.2828774 0.09862413 0.050727874
0.08902078 -0.043948483 0.165299 -0.045524247 0.044669468 -0.025646599 0.23368283 0.040247444
-0.036871612 0.20691605 0.040036142 -0.37790096 0.045002695 -0.08419126 -0.038014546 0.12075704
-0.04908239 0.39741716 0.13168499 -0.0011153312 0.019028952 -0.14546323 0.21698147 0.069935106
0.07109247 -0.048928235 -0.11261229 -0.11341993 0.032061316 0.05292155 -0.08565495 -0.034276173
0.23252216 -0.05214118 -0.035514954 -0.040994827 -0.036019076 0.13045153 -0.010254077 0.03854482
-0.041880123 0.009267058 -0.07335175 -0.041039124 0.07461807 0.2655427 0.10161687 -0.14091976
-0.0017856433 0.08640696 -0.900687 0.69446325 0.4082758 0.107152805 0.028685978 -0.28832883

fc3.bias f4 [7]
00000000: 2335 df3c fa01 83bc 5feb 92bc 421a cb3d
00000010: f3d2 f8bc 9b22 da3d 2b62 3b3c
0.027247017 -0.015992153 -0.0179345 0.09917118 -0.030374026 0.10651132 0.011436979
