src/models/v2_simple_env_20x20_1agent_0human_0shelves_1pickup_1dropoff.pth (torch, 252624 bytes, 10 tensors)

conv1.weight f4 [16, 10, 3, 3]
0.17915265 -0.6387546 0.015199988 -0.6878508 0.22659247 0.2674108 0.24155857 0.0794845
0.44143385 0.046961866 -0.057393644 -0.010882176 -0.012278371 -0.09747305 0.05010382 0.032101505
0.098310985 0.0659169 0.0407039 0.041819744 0.079524435 0.050242104 0.008822098 -0.06321126
0.087686785 0.052915 -0.036790088 -0.0015741885 -0.014235765 -0.0437905 -0.041257948 -0.027668178
0.03598457 0.048411928 0.054278918 -0.10143063 0.21297634 -0.22463396 0.30972883 -0.5601587
-0.049536858 0.08813244 -0.06688355 -0.056020513 -0.4178475 0.24617326 -0.3480317 -0.31300184
-0.21886718 -0.15996289 0.01841499 -0.115242295 -0.20163128 0.11972514 -0.102081984 -0.8025058
-0.11239114 0.055186756 0.31772366 0.013452784 0.19319339 0.09276054 -0.16173345 0.045628034
0.10021393 0.011042762 0.19209693 0.052759457 0.05281724 0.0080908565 -0.10821803 -0.13331392
0.18792194 -0.27035096 0.40509742 -0.49580437 -0.006183044 0.18038943 0.075522564 -0.13554214
-0.45432815 0.040520173 0.31167054 0.047307692 0.29451677 -0.107391074 -0.0067629158 -0.18807454
-0.062834695 -0.21426742 0.29130018 0.228163 0.1417246 0.01346098 -0.24400207 -0.00814454
0.040236734 0.11573861 0.020888934 0.047477446 0.020219438 0.06414475 0.05747164 0.086568885
0.08722607 -0.085557625 0.007753879 -0.04722504 0.031883962 -0.08534166 0.054459043 -0.055852
0.029485054 -0.019134969 0.08490125 -0.002243705 0.023079447 -0.015893228 -0.07593759 -0.0063925683
0.028320394 -0.026554145 -0.026209757 0.08659143 0.09811803 -0.028269626 0.09597824 -0.5103566
0.10533243 -0.6215795 -0.7068954 -0.31297797 -0.20583256 -0.29278028 -0.37802166 -0.09032009
-0.33702236 0.16418882 -0.15747292 -0.016988639 -0.044747576 0.5334448 0.3530263 0.62797517
-0.22023124 0.5122202 -0.30430558 0.29074776 0.28939092 0.2635907 0.13340011 0.09559686
0.78999144 0.12547076 -0.010765814 0.12605843 0.0070291474 0.07385797 0.07428738 0.08939374
0.07360177 0.067012854 0.07863273 -0.44987148 0.10269525 -0.45572093 -0.80718684 -0.16368435
-0.29343012 -0.45107168 -0.41356274 -0.42579958 -0.11444116 0.055900097 -0.17338775 0.31160212
0.23837553 -0.1531516 0.20155066 -0.008581647 0.17029338 0.12954581 0.24486563 -0.24572645
0.106396265 -0.2844262 0.28230637 0.24068847 0.28175566 -0.08530577 0.027184121 0.024837948
0.08185958 0.014192991 0.064574204 -0.062354293 0.018852197 -0.08464702 -0.07263032 -0.046070673
0.059205823 -0.05594516 0.032525487 -0.08176149 0.038458027 0.026203819 0.0020360947 0.047870047
0.0039063096 -0.07247941 -0.014123477 0.04292675 -0.025233686 -0.0029958263 0.06340743 0.01736588
0.19130722 0.27309495 0.115889266 0.21920949 0.050044667 -0.16160962 -0.36239016 -0.10332163
-0.28832597 0.111303546 0.28269124 0.22029218 0.20176613 0.10246587 0.22639567 -0.2815194
0.0014960474 -0.22525924 0.4034104 0.36906198 0.46782014 0.3451805 0.15469319 0.006831082
0.13854797 -0.117195964 -0.46426177 -0.074999936 0.046269916 -0.1506315 -0.022904692 -0.008123951
-0.013811809 0.12834173 0.06705445 0.041017912 0.19974177 0.1827253 0.20391938 0.22730924
00000000: cb73 373e 6c85 23bf 5f09 793c fd16 30bf
00000010: db07 683e 12ea 883e 215b 773e c5c8 a23d
00000020: 9e03 e23e 165b 403d 9915 6bbd 284b 32bc
00000030: 382b 49bc f39f c7bd aa39 4d3d de7c 033d
00000040: 4557 c93d 71ff 863d 22b9 263d 2e4b 2b3d
00000050: b5dd a23d aaca 4d3d 908a 103c e874 81bd
00000060: 2195 b33d 66bd 583d 34b1 16bd 0055 ceba
00000070: 203d 69bc ab5d 33bd 18fe 28bd 60a8 e2bc
00000080: 8e64 133d 964b 463d 9253 5e3d ddba cfbd
00000090: 7816 5a3e 7206 66be c794 9e3e 9066 0fbf
000000a0: 29e7 4abd c87e b43d 3efa 88bd c475 65bd
000000b0: 1cf0 d5be d814 7c3e 3631 b2be c741 a0be
000000c0: b81e 60be 50cd 23be 08db 963c 2704 ecbd
000000d0: 6e78 4ebe 7432 f53d 5c10 d1bd 0571 4dbf
000000e0: 532d e6bd 820b 623d adac a23e 1169 5c3c
000000f0: 7dd4 453e 3df9 bd3d 749d 25be 76e4 3a3d
00000100: f63c cd3d b3ec 343c 0fb5 443e 4d1a 583d
00000110: e456 583d 838f 043c 6aa1 ddbd 7283 08be
00000120: 9c6e 403e 716b 8abe ee68 cf3e 12da fdbe
00000130: 229b cabb 02b8 383e 93ab 9a3d 8fcb 0abe
00000140: b39d e8be 7bf8 253d 4893 9f3e b6c5 413d
00000150: e7ca 963e daef dbbd 739b ddbb 9d96 40be
00000160: 7aaf 80bd eb68 5bbe 4c25 953e 90a3 693e
00000170: 4120 113e 718b 5c3c aedb 79be ad70 05bc
00000180: 46cf 243d 5d08 ed3d 451f ab3c b677 423d
00000190: 3ca3 a53c 535e 833d 6267 6b3d 074b b13d
000001a0: 95a3 b23d d638 afbd 4014 fe3b 0b6f 41bd
000001b0: c298 023d 9cc7 aebd 7210 5f3d 11c5 64bd
000001c0: a48a f13c f0c0 9cbc b5e0 ad3d 200b 13bb
000001d0: 1c11 bd3c 8432 82bc 2b85 9bbd c078 d1bb
000001e0: 2c00 e83c 1488 d9bc d8b5 d6bc d956 b13d
000001f0: 1bf2 c83d b495 e7bc 3d90 c43d bba6 02bf
00000200: 87b8 d73d d61f 1fbf 19f7 34bf a63e a0be
00000210: c5c5 52be 4ce7 95be 0e8c c1be bdf9 b8bd
00000220: 328e acbe 1d21 283e 9540 21be c22b 8bbc
00000230: 3c49 37bd d78f 083f ddbf b43e fbc2 203f
00000240: 4c84 61be dd20 033f f1cd 9bbe e4dc 943e
00000250: 0c2b 943e 5cf5 863e 0a9a 083e 49c8 c33d
00000260: e13c 4a3f 687b 003e 1963 30bc 7615 013e
00000270: c354 e63b d942 973d fb23 983d 1114 b73d
00000280: 86bc 963d 093e 893d 320a a13d 8e55 e6be
00000290: e351 d23d 4154 e9be cca3 4ebf df9c 27be
000002a0: 793c 96be def2 e6be 7fbe d3be 6702 dabe
000002b0: 2060 eabd 80f7 643d 8f8c 31be 508a 9f3e
000002c0: b718 743e c6d3 1cbe 4c63 4e3e 099a 0cbc
000002d0: 6361 2e3e a8a7 043e 0ebe 7a3e b79f 7bbe
000002e0: 49e6 d93d 50a0 91be 768a 903e 0a77 763e
000002f0: 4742 903e cbb4 aebd 3cb1 de3c f478 cb3c
00000300: ffa5 a73d b889 683c 7b3f 843d 3767 7fbd
00000310: ec6f 9a3c 6b5b adbd 35bf 94bd 9ab4 3cbd
00000320: ce81 723d c126 65bd 7239 053d 9172 a7bd
00000330: 2a86 1d3d 64a9 d63c 0070 053b 6213 443d
00000340: 8000 803b 1670 94bd 2866 67bc f6d3 2f3d
00000350: e0b6 cebc a055 44bb c1db 813d e442 8e3c
00000360: 0ae6 433e 1ad3 8b3e 5a57 ed3d 7478 603e
00000370: a3fb 4c3d fe7c 25be 348b b9be 4a9a d3bd
00000380: 769f 93be 1df3 e33d e8bc 903e 4694 613e
00000390: c89b 4e3e a0d9 d13d 44d4 673e 5023 90be
000003a0: 0517 c43a 5caa 66be cf8b ce3e b1f5 bc3e
000003b0: 1f86 ef3e 80bb b03e e467 1e3e 45d7 df3b
000003c0: 85df 0d3e 7004 f0bd b8b3 edbe 9199 99bd
000003d0: 8685 3d3d 253f 1abe 9fa2 bbbc 521a 05bc
000003e0: ed4a 62bc 046c 033e d853 893d 6602 283d
000003f0: 1b89 4c3e 571c 3b3e 3ed0 503e c1c3 683e

conv1.bias f4 [16]
0.16995303 0.15390332 0.067362376 0.26741797 0.18275283 0.36022875 0.050190445 0.13843408
0.16390544 0.21308589 0.3360765 0.21090396 0.23678817 0.1254227 0.063241094 0.16592269
00000000: 2b08 2e3e d598 1d3e 49f5 893d 02eb 883e
00000010: 8f23 3b3e e76f b83e 7f94 4d3d aac1 0d3e
00000020: d4d6 273e 3033 5a3e 3812 ac3e 35f7 573e
00000030: 9978 723e cf6e 003e 8c84 813d a3e7 293e

conv2.weight f4 [32, 16, 3, 3]
-0.061197434 0.20235531 0.2108822 0.013324246 0.25670326 0.18574421 -0.040518697 0.1112141
-0.058174696 0.06433412 0.117439486 -0.12287213 0.052464634 -0.06454957 -0.1605968 -0.24121737
-0.1636976 -0.28994444 -0.032089904 0.07292956 -0.16604017 0.06765742 0.118930876 -0.317834
-0.16377586 -0.29795942 -0.3322954 0.18436156 0.3069347 0.18397734 0.38266414 0.2266162
0.17672834 0.2522425 0.25588483 0.2564066 0.31261548 0.28060636 0.07194854 0.1931816
0.043396577 0.006999327 0.42617768 0.26447305 0.097128876 0.10775187 0.16169962 0.114488356
0.35085022 0.44323608 0.32807016 0.38697794 0.3906933 0.3312738 0.21959473 0.10223607
-0.037406456 0.3136128 0.08409052 0.02254341 0.27940437 0.21433422 -0.022914184 -0.0041923076
0.0046296967 -0.055810623 0.18947768 -0.20141384 -0.4043493 0.093021624 0.23401177 0.1329119
0.16311616 0.08001776 0.19753535 0.31414592 0.20684336 0.03411797 0.5025606 0.34553266
0.17530169 -0.25278047 0.0028770852 0.17001276 0.16362157 0.3884303 0.5369772 0.24685462
0.44573697 0.6941712 0.056428757 0.33185062 0.32783866 0.27116534 0.33562085 0.4312793
0.24316488 0.5649929 0.5638397 0.153604 0.2867786 0.12673537 0.3356635 0.5065629
0.23125823 0.24561884 0.27947053 -0.07443758 -0.027294815 0.17617735 0.15579575 0.14540115
0.11634756 0.1061645 0.10156819 0.19269338 0.057279058 -0.047402907 0.06954984 -0.048185382
0.16647966 -0.09788275 -0.052262694 0.011642197 0.0008181661 0.14900123 0.061856516 0.1415098
-0.018465836 -0.041856106 0.036840986 -0.13520636 -0.25534037 0.12539093 -0.15814182 0.08978227
0.18526134 -0.06633561 0.24325272 0.105612196 0.10382087 0.06736584 0.06311325 -0.12735385
0.00025680134 0.101697996 0.17786524 -0.041544486 0.059229646 0.49926773 -0.15622339 0.36614856
0.39858705 0.06777952 0.0983485 0.073195904 -0.121267915 0.11683011 0.10874477 -0.08549979
-0.006505882 -0.10851125 -0.008824374 0.15853007 0.16605315 -0.10593084 0.10373789 0.16631757
-0.16654971 0.13456212 0.2638085 0.13455182 0.10314995 -0.013425087 0.18121617 0.18606327
0.08041855 0.1571119 0.3469603 0.37594855 0.36550364 0.1821997 -0.040833842 0.41692764
0.09814847 -0.08250242 0.2983112 0.35218763 -0.09147155 0.02758993 0.1796725 0.13268043
0.25392124 0.44969738 0.28334373 0.26597875 0.44349977 0.4339464 0.17093009 0.13578302
0.035992447 0.16145797 0.118545435 0.021808509 0.20762052 0.43185964 0.22114897 -0.14890055
0.010365974 0.05984136 -0.06215679 -0.0015471847 0.12409284 0.11617566 0.44005305 0.46040502
0.0704294 0.12871726 -0.07264823 0.19602194 0.2133799 0.010461585 0.2443188 0.44217584
0.49668354 -0.1973681 -0.1444807 0.07258359 0.2022049 0.36369318 0.3230477 0.0070643243
0.3989466 0.6395355 0.0036047092 0.21706016 0.2889656 0.048383866 0.21112205 0.32709333
-0.0016533147 0.2176961 0.20398414 -0.06888818 0.23068891 0.030152762 0.17407191 0.42816025
0.18487154 0.05242275 0.39483076 0.11483333 -0.09580349 -0.02048199 0.099265724 0.029564613
00000000: 29aa 7abd 3b36 4f3e 81f1 573e f04d 5a3c
00000010: 9c6e 833e bb33 3e3e eff6 25bd 38c4 e33d
00000020: 9748 6ebd 9bc1 833d 1d84 f03d 62a4 fbbd
00000030: 28e5 563d 9132 84bd 7d73 24be b001 77be
00000040: 58a0 27be 9973 94be b470 03bd 185c 953d
00000050: 6f06 2abe f98f 8a3d 0892 f33d 23bb a2be
00000060: dcb4 27be 238e 98be 9f22 aabe 47c9 3c3e
00000070: 8c26 9d3e 8e64 3c3e 8eec c33e 140e 683e
00000080: 46f8 343e ee25 813e 5603 833e ba47 833e
00000090: 230f a03e a3ab 8f3e c259 933d 66d1 453e
000000a0: 9cc0 313d 9c5a e53b f633 da3e 0369 873e
000000b0: 81eb c63d 03ad dc3d 9694 253e df78 ea3d
000000c0: a4a2 b33e d7ef e23e d0f8 a73e f921 c63e
000000d0: f408 c83e b89c a93e 71dd 603e 2561 d13d
000000e0: 8337 19bd db91 a03e a737 ac3d f5ac b83c
000000f0: 170e 8f3e 6e7a 5b3e 87b6 bbbc a05f 89bb
00000100: b6b4 973b ae99 64bd 7006 423e 6e3f 4ebe
00000110: df06 cfbe 1f82 be3d c8a0 6f3e 0f1a 083e
00000120: ec07 273e 5ae0 a33d b546 4a3e bcd7 a03e
00000130: bfce 533e 49bf 0b3d d0a7 003f a8e9 b03e
00000140: 4982 333e 716c 81be 7b8d 3c3b d317 2e3e
00000150: 6a8c 273e 56e0 c63e 5677 093f 75c7 7c3e
00000160: a337 e43e 34b5 313f d721 673d 53e8 a93e
00000170: 78da a73e 2fd6 8a3e 7fd6 ab3e a4d0 dc3e
00000180: 3700 793e 60a3 103f cc57 103f 5e4a 1d3e
00000190: a5d4 923e ebc6 013e 16dc ab3e 1bae 013f
000001a0: f5ce 6c3e 8183 7b3e c316 8f3e bb72 98bd
000001b0: 6099 dfbc d667 343e ec88 1f3e 0ae4 143e
000001c0: a147 ee3d c66c d93d fc02 d03d 6a51 453e
000001d0: 729d 6a3d 8d29 42bd 2670 8e3d 095e 45bd
000001e0: a579 2a3e c076 c8bd 6811 56bd eabe 3e3c
000001f0: 337a 563a c793 183e 425d 7d3d f2e7 103e
00000200: aa45 97bc 4f71 2bbd 93e6 163d 8973 0abe
00000210: f9bb 82be 7b66 003e eeef 21be c4df b73d
00000220: 26b5 3d3e f7da 87bd 3e17 793e 354b d83d
00000230: 09a0 d43d 1af7 893d 8541 813d 0c69 02be
00000240: 4ba3 8639 0a47 d03d 4e22 363e 8d2a 2abd
00000250: c99a 723d 05a0 ff3e 06f9 1fbe d377 bb3e
00000260: 9a13 cc3e fdcf 8a3d f06a c93d bce7 953d
00000270: 505b f8bd a044 ef3d 94b5 de3d 841a afbd
00000280: 4b2f d5bb 253b debd 1b94 10bc b555 223e
00000290: d609 2a3e 45f2 d8bd 8874 d43d 274f 2a3e
000002a0: 028c 2abe a7ca 093e e811 873e f4c7 093e
000002b0: 4840 d33d e5f4 5bbc bb90 393e 5f87 3e3e
000002c0: 7bb2 a43d f1e1 203e c8a4 b13e 547c c03e
000002d0: 4b23 bb3e 8f92 3a3e 6341 27bd 8a77 d53e
000002e0: 1102 c93d 07f7 a8bd 3fbc 983e f051 b43e
000002f0: 7055 bbbd 4704 e23c 11fc 373e 61dd 073e
00000300: f701 823e bc3e e63e 6e12 913e 5e2e 883e
00000310: 6712 e33e 392e de3e 4c08 2f3e b40a 0b3e
00000320: d16c 133d 3d55 253e f3c7 f23d c2a7 b23c
00000330: 799a 543e b51c dd3e e074 623e 6379 18be
00000340: 0cd6 293c 371c 753d 1e98 7ebd e7ca caba
00000350: 6324 fe3d 81ed ed3d a24e e13e 35ba eb3e
00000360: 4a3d 903d 75ce 033e 98c8 94bd fab9 483e
00000370: 4380 5a3e 1167 2b3c b52e 7a3e df64 e23e
00000380: 4e4d fe3e dd1a 4abe c0f2 13be b5a6 943d
00000390: cd0e 4f3e fe35 ba3e 8266 a53e d97b e73b
000003a0: bb42 cc3e 99b8 233f fc3c 6c3b 0545 5e3e
000003b0: 4df3 933e 292e 463d 6130 583e c778 a73e
000003c0: 09b4 d8ba baeb 5e3e 38e1 503e 3f15 8dbd
000003d0: b739 6c3e ed02 f73c e83f 323e d237 db3e
000003e0: f74e 3d3e 3db9 563d 4227 ca3e bd2d eb3d
000003f0: 9f34 c4bd d9c9 a7bc d44b cb3d 7d31 f23c

conv2.bias f4 [32]
0.057329286 0.0424262 0.02566663 0.10623501 0.07793243 0.09136922 0.059463404 0.09218947
0.107294396 0.08417605 0.069140516 0.077528045 0.017006008 0.04447817 0.11543207 0.069390215
0.12467164 0.106493525 0.07597315 0.043712735 0.06549222 0.094194636 0.06893929 0.097108774
0.043186814 0.07107601 0.081186704 0.046623673 0.049022794 0.101736896 0.052749485 0.11121289
00000000: 1dd2 6a3d 18c7 2d3d d342 d23c be91 d93d
00000010: 0a9b 9f3d c91f bb3d e68f 733d d5cd bc3d
00000020: 2abd db3d 7e64 ac3d 8b99 8d3d 06c7 9e3d
00000030: 2f50 8b3c be2e 363d a667 ec3d 751c 8e3d
00000040: d853 ff3d 4719 da3d d097 9b3d 200c 333d
00000050: c920 863d 1ee9 c03d 0b30 8d3d f7e0 c63d
00000060: a8e4 303d 4d90 913d 3745 a63d 77f8 3e3d
00000070: 20cc 483d 6f5b d03d d80f 583d 95c3 e33d

fc1.weight f4 [64, 800]
0.44104263 0.33573273 0.17484635 0.03982667 -0.051009137 0.15685162 0.092448756 0.043476377
-0.05438278 -0.09504233 0.071204014 0.022705484 0.029623762 -0.08497468 -0.18167481 0.07501983
0.020264117 -0.021913122 -0.10991415 -0.08075569 0.29815242 0.24697329 0.11965206 -0.0039996193
-0.046593025 0.21163194 0.20524369 0.08914068 0.01741341 -0.019767277 0.09556351 0.10429463
0.0023860154 -0.10780645 -0.030487668 -0.044215977 0.020701377 -0.04051095 -0.14656253 -0.24532023
0.0585071 0.046947006 0.053096294 0.020115167 0.048817933 0.28490612 0.17675613 0.1353597
0.057977393 0.036304433 0.18200807 0.12469442 0.01652114 0.0011818324 -0.055884093 0.112147525
0.17786743 0.044955812 -0.094072826 -0.13490053 0.062293988 0.11212122 -0.011246579 -0.15343909
-0.1768849 0.13638684 0.059863668 0.06242275 -0.059121195 -0.06204937 0.4417624 0.2839647
0.09848559 0.12108141 0.09060046 0.11325211 0.14540765 0.03395795 -0.0067306138 -0.053242512
-0.0055173347 -0.02395663 -0.010443337 -0.08791524 -0.071825296 -0.07006422 -0.10232059 -0.11487122
-0.1749563 -0.24473493 0.05839566 0.025448587 -0.018273972 -0.0840854 -0.03789985 0.15723963
0.18085356 0.12095903 0.0018767216 0.026888214 0.06409431 0.049610883 -0.046787277 -0.026459219
-0.016191008 -0.006692697 0.011393515 -0.0036918176 -0.10798387 -0.16853175 -0.15692681 -0.15379559
-0.11828306 -0.24988706 -0.23949644 0.0124993045 -0.004544449 -0.033173703 -0.1450795 -0.16340381
0.19260637 0.1113505 0.058907017 0.00739632 0.038299832 0.11168558 0.12896916 0.0869835
0.050177958 0.02850561 -0.02598626 0.011146259 -0.005262802 -0.10857968 -0.12222555 -0.12523174
-0.09511902 -0.0842896 -0.154791 -0.21998815 -0.0013325252 0.016839104 0.005547922 -0.13130449
-0.09527331 0.19880313 0.17239286 0.118610345 0.04848328 0.112327196 0.24842624 0.1940746
0.08218775 0.027845344 -0.029913934 0.13404578 0.16291316 0.073671855 -0.0025502313 -0.07543218
0.026358478 0.045582145 -0.037025496 -0.12813233 -0.22994359 -0.018228596 0.03335372 0.052302197
0.0032570614 -0.10380019 0.23755348 0.21720827 0.08606898 0.024750432 0.0712376 0.1418568
0.149699 0.07973762 -0.012436515 0.013177708 0.09037309 0.050276045 -0.00081997475 -0.05939922
-0.05640477 -0.15064688 -0.13128847 -0.0936088 -0.17235279 -0.2522768 0.03624907 0.07816086
0.0452273 -0.020604486 -0.076364234 0.26834953 0.24980547 0.17859958 0.104353 0.12194173
0.16758126 0.16880375 0.15767552 0.09026975 -0.01734934 0.15846796 0.15392263 0.06268823
-0.07728174 -0.11051352 -0.018967908 -0.009674796 -0.117085174 -0.12408423 -0.20636247 0.020947997
0.0634439 -0.025770564 -0.10637422 -0.092428215 0.23436345 0.18425997 0.103369705 0.08551978
0.09093804 0.06735164 0.09528267 0.055686645 -0.0055982675 -0.015091329 0.072898455 0.11827398
0.035421014 -0.061969876 -0.12429435 -0.11590546 -0.029510172 -0.12844627 -0.17279235 -0.1859551
0.010387753 0.037115477 0.021106143 -0.060477715 -0.06016725 0.28912637 0.1504991 0.13504809
0.124136984 0.12961811 0.07297109 0.15799104 0.111808926 0.053758204 -0.050988708 0.04578117
00000000: 57d0 e13e 29e5 ab3e ec0a 333e 4a21 233d
00000010: f5ee 50bd b69d 203e c655 bd3d 4914 323d
00000020: 7ac0 5ebd 8ea5 c2bd 69d3 913d da00 ba3c
00000030: 88ad f23c 3407 aebd f608 3abe ffa3 993d
00000040: ef00 a63c 2683 b3bc ab1a e1bd 3d63 a5bd
00000050: 6fa7 983e 91e6 7c3e 240c f53d 3d0f 83bb
00000060: 54d8 3ebd 0bb6 583e 672b 523e 648f b63d
00000070: 91a6 8e3c fcee a1bc cdb6 c33d 6c98 d53d
00000080: b25e 1c3b a1c9 dcbd 46c1 f9bc d01b 35bd
00000090: ef95 a93c cfee 25bd 7d14 16be 3a35 7bbe
000000a0: 24a5 6f3d 814b 403d 807b 593d 90c8 a43c
000000b0: 50f5 473d 37df 913e 8fff 343e bc9b 0a3e
000000c0: b479 6d3d f5b3 143d 5360 3a3e ca5f ff3d
000000d0: 5757 873c b7e7 9a3a b8e6 64bd 9aad e53d
000000e0: e122 363e 9623 383d 41a9 c0bd 5d23 0abe
000000f0: fb27 7f3d cf9f e53d 9243 38bc 231f 1dbe
00000100: 5121 35be fea8 0b3e 9b33 753d ffae 7f3d
00000110: 1129 72bd 7b27 7ebd ae2e e23e d263 913e
00000120: d0b2 c93d 88f9 f73d bc8c b93d b9f0 e73d
00000130: bee5 143e 7e17 0b3d 7b8c dcbb d214 5abd
00000140: c2ca b4bb b240 c4bc 881a 2bbc e80c b4bd
00000150: 2419 93bd d47d 8fbd 758d d1bd 9a41 ebbd
00000160: bf27 33be cb9b 7abe 4a30 6f3d 8e79 d03c
00000170: 4cb3 95bc f734 acbd e03c 1bbd 6d03 213e
00000180: ad31 393e 5eb9 f73d 54fc f53a ac44 dc3c
00000190: e143 833d c834 4b3d 04a4 3fbd 01c1 d8bc
000001a0: 01a3 84bc 694e dbbb deab 3a3c 6cf2 71bb
000001b0: a626 ddbd 9693 2cbe 6cb1 20be 977c 1dbe
000001c0: 643e f2bd 65e2 7fbe 8e3e 75be e2c9 4c3c
000001d0: 9ae9 94bb 26e1 07bd b88f 14be 5453 27be
000001e0: 9b3a 453e bb0b e43d 7c48 713d d45c f23b
000001f0: 49e0 1c3d 69bb e43d 7e10 043e 6824 b23d
00000200: 6787 4d3d 9984 e93c 23e1 d4bc cc9e 363c
00000210: 9573 acbb 065f debd 6451 fabd c03c 00be
00000220: c3cd c2bd 07a0 acbd 8881 1ebe 9344 61be
00000230: 20a8 aeba 29f2 893c 58cb b53b af74 06be
00000240: a71e c3bd 0c93 4b3e c187 303e fbe9 f23d
00000250: 6796 463d cd0b e63d 7363 7e3e 7ebb 463e
00000260: 0d52 a83d eb1b e43c 110e f5bc 4c43 093e
00000270: b5d2 263e 45e1 963d c821 27bb 307c 9abd
00000280: bced d73c 58b4 3a3d 0ca8 17bd 1f35 03be
00000290: 5576 6bbe 2354 95bc e99d 083d d43a 563d
000002a0: 6c74 553b 3295 d4bd 3841 733e d86b 5e3e
000002b0: ef44 b03d 6bc1 ca3c 05e5 913d e942 113e
000002c0: b24a 193e 7a4d a33d 86c2 4bbc 50e7 573c
000002d0: 8715 b93d 41ee 4d3d 93f3 56ba 994c 73bd
000002e0: b008 67bd 2d43 1abe 7c70 06be f8b5 bfbd
000002f0: 407d 30be 6d2a 81be e879 143d cd12 a03d
00000300: 4340 393d bdca a8bc da64 9cbd 1c65 893e
00000310: 01cd 7f3e cfe2 363e 07b7 d53d 96bc f93d
00000320: 6c9a 2b3e e4da 2c3e b175 213e 59df b83d
00000330: 3420 8ebc 6d45 223e e59d 1d3e b062 803d
00000340: e445 9ebd ea54 e2bd 9662 9bbc 0983 1ebc
00000350: 5aca efbd df1f febd af50 53be 229b ab3c
00000360: e0ee 813d ca1c d3bc bada d9bd 014b bdbd
00000370: f9fc 6f3e a5ae 3c3e 7fb3 d33d ff24 af3d
00000380: b93d ba3d a8ef 893d 8f23 c33d ae17 643d
00000390: ac71 b7bb 9f41 77bc c94b 953d a139 f23d
000003a0: a015 113d 20d4 7dbd 098e febd d85f edbd
000003b0: 51bf f1bc 6b87 03be 7af0 30be 046b 3ebe
000003c0: 6531 2a3c 6606 183d cae6 ac3c 7bb7 77bd
000003d0: ef71 76bd 5f08 943e 701c 1a3e 0c4a 0a3e
000003e0: 883b fe3d 9cba 043e de71 953d 67c8 213e
000003f0: 14fc e43d 9031 5c3d 89d9 50bd 0985 3b3d

fc1.bias f4 [64]
0.042545423 0.0854514 0.062926844 -0.010778045 0.072445504 -0.0023468025 0.03990258 0.055430327
-0.0152655095 -0.02261577 0.06490955 0.0027555968 0.091568224 0.0045472262 0.07242186 0.019721001
0.016200984 0.025579376 0.004946853 0.021284081 0.012460092 -0.031519987 0.0053278063 0.046108395
-0.026212892 0.05468054 0.055766456 0.018098556 -0.02044105 0.026302548 0.0598482 0.069834396
0.05319667 0.0061023654 0.06971637 0.04504078 0.031838063 0.009481734 0.016390948 -0.026005398
-0.011950696 0.021078812 -0.017207855 0.03099854 0.027139759 0.0023796293 -0.026065575 0.021919891
-0.004588628 -0.002274113 0.013661169 0.08331529 0.04109838 0.05217024 0.048651554 -0.029303882
-0.032840382 -0.022396931 0.08244767 -0.010892568 0.024807533 -0.0128378635 -0.016333776 -0.015731974
00000000: 1c44 2e3d 2501 af3d cadf 803d 6696 30bc
00000010: 4f5e 943d d0cc 19bb e370 233d e90a 633d
00000020: 301c 7abc b544 b9bc 4cef 843d 3e97 343b
00000030: 1f88 bb3d e600 953b ea51 943d f08d a13c
00000040: edb7 843c d78b d13c 3619 a23b f45b ae3c
00000050: 6a25 4c3c 1a1b 01bd e194 ae3b 28dc 3c3d
00000060: 6bbc d6bc b4f8 5f3d 5e6b 643d 6c43 943c
00000070: fd73 a7bc 7178 d73c 6323 753d 5605 8f3d
00000080: c0e4 593d 5af6 c73b 75c7 8e3d ae7c 383d
00000090: a168 023d 4659 1b3c 4f46 863c 4609 d5bc
000000a0: dacc 43bc 79ad ac3c 7df7 8cbc a6f0 fd3c
000000b0: 3354 de3c 8ef3 1b3b 7987 d5bc 5891 b33c
000000c0: 345c 96bb 4909 15bb 19d3 5f3c 35a1 aa3d
000000d0: c656 283d 76b0 553d da46 473d b20e f0bc
000000e0: a383 06bd c579 b7bc 53da a83d be76 32bc
000000f0: 2b39 cb3c e755 52bc 69ce 85bc 57e0 80bc

fc2.weight f4 [64, 64]
-0.022001283 0.09633882 -0.19134314 -0.025171459 0.17390831 0.10995233 0.17544028 -0.17230341
0.029181555 0.0063655693 0.06419709 0.00838125 0.12906475 -0.050438955 0.041475132 0.03939606
0.04923369 -0.02657387 -0.04730864 -0.002159521 0.051173136 0.074630074 0.09626134 -0.08810022
-0.002431745 -0.0964007 0.16941096 -0.022876114 0.06752062 0.07197123 -0.1066586 0.09782602
0.0106571065 0.11816303 0.08037007 -0.021283556 0.11675052 -0.040184688 -0.041320506 0.047366217
0.038677663 0.1953062 0.049513236 -0.018181816 -0.072707474 0.035407282 -0.081578806 -0.074470684
-0.08792968 0.12102418 -0.03151179 -0.061043695 0.24761975 0.13814296 0.15776372 0.04199208
0.10679723 -0.07002262 0.2744845 0.067658156 0.08031088 0.28944498 -0.09215541 -0.0136050135
-0.098725885 0.013540447 -0.12282772 0.036455154 0.08963868 0.09706704 -0.0880055 -0.021928921
0.089180544 0.06801961 -0.034959704 -0.097683355 0.08269979 -0.112193525 -0.029459685 -0.09746131
-0.08204672 0.08945663 -0.12224768 0.05080086 0.06778346 -0.015137106 -0.10649285 -0.043070048
0.031457916 0.07795787 -0.041449383 -0.016618103 -0.070911646 0.10031167 0.08501689 0.0878811
-0.054844856 0.056338564 -0.10245933 -0.12320152 -0.08911647 -0.08335109 0.038425922 -0.09020941
0.06462829 0.098851874 -0.10046768 -0.028259963 -0.011637598 0.091783345 -0.0013523698 0.12008752
0.098760486 0.039120704 0.06499331 -0.068724364 -0.053743526 0.1051151 -0.081992805 -0.067070976
-0.10991706 -0.08275841 -0.064746186 -0.07948002 0.00995332 -0.0866508 -0.028015077 -0.009701893
0.08202826 -0.039993323 0.19001868 0.10502268 0.07843417 0.08717479 0.10388584 0.26303664
-0.102717385 0.056798384 -0.01028305 0.034843937 0.137207 0.021853749 0.13682576 0.18771945
-0.11554207 0.038818136 0.110712826 -0.032470733 -0.03157474 -0.10848052 0.07481938 -0.008583024
-0.062061496 0.10278522 -0.1151999 0.09488218 -0.01677776 0.0045220596 0.27286032 0.23292443
-0.17590332 -0.059778742 0.024639986 0.11242294 0.105469495 -0.0773163 -0.03791309 0.08310263
-0.04114681 -0.011226799 0.061223805 0.11930214 -0.0052218074 0.111309834 0.12473678 -0.084264584
0.035645217 0.18736102 -0.01925448 0.16559796 -0.035515316 0.119029686 -0.024772132 -0.008958627
0.034662813 0.11014585 -0.00020447225 0.00059259456 0.07872853 0.00023905232 0.03580816 0.09463982
-0.023517944 0.11557659 -0.11224685 0.027526809 -0.06327748 -0.04711014 0.049591184 0.08047749
0.037981316 -0.07973853 0.09107458 0.04861167 0.003733365 0.0842776 -0.059945814 -0.04450932
-0.09026977 0.06261024 0.06325498 0.11328755 0.044505443 -0.043582268 -0.09833143 -0.12831996
0.108213 0.07516985 0.076009244 0.09205551 0.07755081 0.0057909666 -0.1253744 0.08016166
0.015074597 0.0483348 -0.1157711 0.036092877 0.032193817 -0.032763455 0.056025907 -0.018905848
0.116506815 -0.10410777 -0.020872042 -0.12126307 0.120668344 -0.11278759 0.10980949 -0.12361549
0.081091136 -0.13219318 -0.044447683 0.014565991 -0.0016785632 0.030209271 0.02138971 0.0020607377
-0.010776877 -0.10716233 -0.02623673 0.1138765 -0.057643928 0.10893832 0.1149129 0.11126192
00000000: 093c b4bc 4a4d c53d 75ef 43be 6034 cebc
00000010: 0515 323e b02e e13d 9ea6 333e 4e70 30be
00000020: 280e ef3c 4496 d03b c479 833d 8351 093c
00000030: 8d29 043e 1499 4ebd d4e1 293d c35d 213d
00000040: 44a9 493d 72b1 d9bc b4c6 41bd c086 0dbb
00000050: ec9a 513d a7d7 983d aa24 c53d e36d b4bd
00000060: e95d 1fbb bb6d c5bd 117a 2d3e b066 bbbc
00000070: 4048 8a3d a765 933d d36f dabd 0259 c83d
00000080: 259b 2e3c 75ff f13d 1099 a43d da5a aebc
00000090: e61a ef3d b398 24bd b13f 29bd 1403 423d
000000a0: 786c 1e3d 59fe 473e 64ce 4a3d 08f2 94bc
000000b0: a8e7 94bd 3a07 113d ca12 a7bd 1684 98bd
000000c0: 7a14 b4bd 86db f73d 8212 01bd f408 7abd
000000d0: 0890 7d3e 5975 0d3e d08c 213e e3ff 2b3d
000000e0: 82b8 da3d 0568 8fbd 3b89 8c3e 5c90 8a3d
000000f0: 087a a43d 2232 943e fabb bcbd 90e7 5ebc
00000100: cc30 cabd c0d8 5d3c 1a8d fbbd 0052 153d
00000110: 7c94 b73d 16cb c63d 3a3c b4bd 48a4 b3bc
00000120: 4aa4 b63d de4d 8b3d e831 0fbd 360e c8bd
00000130: 825e a93d b8c5 e5bd 7055 f1bc cc99 c7bd
00000140: 1c08 a8bd 0a35 b73d fe5c fabd 9014 503d
00000150: 0ed2 8a3d a001 78bc ec18 dabd 386a 30bd
00000160: 04da 003d 60a8 9f3d d4c6 29bd b022 88bc
00000170: 203a 91bd 3470 cd3d 561d ae3d 02fb b33d
00000180: 00a5 60bd 44c3 663d 32d6 d1bd 1451 fcbd
00000190: b282 b6bd fab3 aabd 8064 1d3d b6bf b8bd
000001a0: d65b 843d da72 ca3d 00c2 cdbd 7081 e7bc
000001b0: a0ab 3ebc e8f8 bb3d 0042 b1ba 72f0 f53d
000001c0: f042 ca3d 083d 203d 361b 853d 5cbf 8cbd
000001d0: 2c22 5cbd 9646 d73d d8eb a7bd 825c 89bd
000001e0: 321c e1bd 3e7d a9bd a699 84bd 6cc6 a2bd
000001f0: 4013 233c fa75 b1bd e07f e5bc b0f4 1ebc
00000200: 6ffe a73d 0ad0 23bd 4294 423e 2116 d73d
00000210: 18a2 a03d b288 b23d 19c2 d43d bdac 863e
00000220: 7e5d d2bd 6ca5 683d 3d7a 28bc 84b8 0e3d
00000230: fe7f 0c3e a206 b33c 0d1c 0c3e 8739 403e
00000240: 52a1 ecbd c4ff 1e3d 68bd e23d 0800 05bd
00000250: 8454 01bd 092b debd e73a 993d d09f 0cbc
00000260: 3234 7ebd 0f81 d23d eded ebbd 9751 c23d
00000270: 8371 89bc c92d 943b 59b4 8b3e be83 6e3e
00000280: 0020 34be 8eda 74bd ccd9 c93c 003e e63d
00000290: 6400 d83d 0258 9ebd c24a 1bbd b631 aa3d
000002a0: 8f89 28bd 9cf0 37bc d0c5 7a3d ae54 f43d
000002b0: b21b abbb 69f6 e33d ff75 ff3d e992 acbd
000002c0: b800 123d 91db 3f3e 92bb 9dbc 8392 293e
000002d0: 8278 11bd d6c5 f33d edee cabc 34c7 12bc
000002e0: 98fa 0d3d 2694 e13d 9a67 56b9 5958 1b3a
000002f0: 6c3c a13d 1eaa 7a39 94ab 123d 86d2 c13d
00000300: b4a8 c0bc 6bb3 ec3d ade1 e5bd e77f e13c
00000310: a097 81bd 90f6 40bd 2020 4b3d 62d1 a43d
00000320: 4c92 1b3d f44d a3bd 4f85 ba3d 081d 473d
00000330: 79ab 743b bc99 ac3d be89 75bd 684f 36bd
00000340: 5bdf b8bd cc39 803d d48b 813d 4e03 e83d
00000350: 574b 363d 5283 32bd fd61 c9bd 4f66 03be
00000360: c79e dd3d a6f2 993d bcaa 9b3d 9987 bc3d
00000370: f6d2 9e3d 26c2 bd3b 2662 00be cc2b a43d
00000380: 71fb 763c b6fa 453d 6619 edbd 20d6 133d
00000390: aadd 033d f932 06bd 6c7b 653d 70e0 9abc
000003a0: 209b ee3d 7436 d5bd d8fb aabc c658 f8bd
000003b0: f720 f73d 2efd e6bd cce3 e03d 1e2a fdbd
000003c0: 1c13 a63d a65d 07be c60e 36bd 32a6 6e3c
000003d0: 3c03 dcba 6f79 f73c 7939 af3c 710d 073b
000003e0: 8091 30bc ec77 dbbd 69ee d6bc 1538 e93d
000003f0: 0a1c 6cbd 0e1b df3d 7457 eb3d 4add e33d

fc2.bias f4 [64]
-0.056999672 -0.016830698 -0.047839325 0.07874868 0.09924285 0.014218293 0.11810254 -0.10387088
0.1017579 0.10478119 0.12050091 0.055251013 0.08025011 0.070892446 -0.020721976 0.13631904
0.13758816 0.17588727 -0.048968293 -0.04086936 -0.057515316 -0.0864636 -0.0051609413 -0.04343646
0.06786127 0.042280287 -0.13996683 -0.07519202 -0.088169 -0.023310784 0.058402654 -0.03162524
-0.08366874 0.10743813 0.021798471 0.109645575 0.108787596 0.03666919 0.03415747 0.072649956
0.09350817 -0.08220799 0.065754905 0.09489458 -0.049502373 -0.043327037 0.10203415 -0.030871699
0.10142984 0.10626496 0.094343364 -0.0699459 0.115155846 0.07978313 0.06576091 0.10177091
0.054919373 -0.029353727 0.023238033 0.030136146 -0.08074121 -0.019864228 -0.097128175 -0.08073491
00000000: 7d78 69bd 88e0 89bc 2bf3 43bd fd46 a13d
00000010: d63f cb3d d8f3 683c bfdf f13d 42ba d4bd
00000020: 7266 d03d 8597 d63d 2ec9 f63d e34e 623d
00000030: 2b5a a43d 0f30 913d 22c1 a9bc 3897 0b3e
00000040: e9e3 0c3e cb1b 343e fa92 48bd a166 27bd
00000050: 2e95 6bbd d413 b1bd 1d1d a9bb 6eea 31bd
00000060: d9fa 8a3d 182e 2d3d 7753 0fbe 46fe 99bd
00000070: f391 b4bd 42f6 bebc 9f37 6f3d 7889 01bd
00000080: 845a abbd 8608 dc3d b592 b23c dc8d e03d
00000090: 08cc de3d 6f32 163d b4e8 0b3d 80c9 943d
000000a0: 3681 bf3d aa5c a8bd 82aa 863d 1758 c23d
000000b0: 00c3 4abd b177 31bd 48f7 d03d a5e6 fcbc
000000c0: 73ba cf3d 71a1 d93d 1837 c13d cc3f 8fbd
000000d0: d4d6 eb3d 5665 a33d a8ad 863d 446d d03d
000000e0: 23f3 603d 3a77 f0bc b05d be3c 14e0 f63c
000000f0: a65b a5bd 4eba a2bc 23eb c6bd 5858 a5bd

fc3.weight f4 [7, 64]
-0.14723855 -0.042947814 0.13328697 0.047644954 0.16044177 -0.20574835 0.07582805 -0.072315216
0.069751605 0.07282838 0.087215014 0.92013603 0.07249763 -0.03615056 -0.1764201 -0.1406817
-0.108304136 -0.1877498 0.46956128 0.052708294 0.06512319 0.03053981 0.43031248 0.6040452
0.18059552 -0.08246384 -0.18281636 -0.19603412 -0.023066191 -0.017592918 -0.03676991 0.24691208
0.122501925 -0.0015023543 -0.031796806 -0.0055381283 -0.081578255 0.04629367 0.13630421 0.045715027
0.08303297 -0.07799669 0.11025241 -0.038589884 0.011461467 -0.02037907 0.050257247 0.09654613
0.11209196 0.075971074 0.17854887 -0.04509792 0.05474136 0.15156206 -0.09328876 -0.014448054
0.097799346 -0.06619519 -0.17789644 0.1678062 -0.6257692 -0.09032281 0.74296284 -0.029779032
0.10319961 -0.014676556 0.0006825277 -0.055107277 0.04317859 0.047816005 -0.08899328 -0.049129006
0.061730556 -0.04124259 0.15019071 0.1974201 -0.06438127 -0.16607754 -0.15497425 0.031625446
-0.032006726 -0.06816801 0.30687135 -0.17010391 -0.4393603 -0.0018170774 0.34695995 0.04802164
0.026917458 -0.003605431 -0.20749165 0.14914852 -0.0032138047 -0.11920591 0.021793848 0.41359642
-0.045888707 -0.0012836998 0.030746521 -0.025710005 -0.055233303 -0.06732321 -0.09384379 -0.061418686
0.008482727 -0.12236572 0.02657269 -0.1287075 -0.08730741 0.14601447 -0.0053110705 0.11308293
0.032523174 0.08211665 0.05877451 -0.03197933 0.06543136 0.021414272 0.16645211 -0.13140279
0.032068804 -0.041509185 0.08053447 -0.25511268 0.07901023 -0.09193871 0.10973984 0.10630986
-0.12370674 0.010241196 0.067771986 0.115322724 0.18576844 -0.009365529 0.012576763 -0.114787206
-0.10229973 0.09821011 -0.02827812 0.869044 -0.037942566 -0.12695053 -0.114022754 0.12511624
0.15459757 0.09461153 0.60567236 0.04226152 -0.335353 0.10721135 0.46602404 0.4401954
-0.13694948 0.085610114 0.0492242 -0.08179855 -0.020049715 0.119905 -0.089283355 0.22115998
0.09480201 -0.08655571 0.0350739 -0.017651243 0.17534117 0.086006224 0.072477765 -0.1090285
-0.025262387 0.15234067 0.034692146 -0.07628461 -0.034073383 0.109225854 0.1539956 -0.057928607
-0.09242878 0.039929163 -0.03316454 -0.12373486 -0.026132377 -0.094699755 -0.08775769 0.09852087
0.06390383 0.0574871 0.123224616 0.46329466 -0.57762897 -0.10658552 0.33220738 0.118431196
-0.002716942 0.04662706 -0.15916173 -0.07992346 0.10988306 0.09428279 -0.08948738 -0.036210317
-0.050081775 0.016934467 0.07160143 0.47810888 -0.19312845 -0.22785395 -0.058084007 0.07756149
0.00070174964 0.07209685 0.3133505 -0.09348929 0.013289164 -0.043281678 0.57115906 0.7209471
-0.26223397 0.08946052 0.26162678 -0.058051653 0.001137962 0.09265938 -0.17245527 0.3633248
0.008956924 0.14547354 -0.1003768 -0.03415799 0.09561306 -0.0718506 -0.0047445665 -0.023988625
0.018833533 0.04569437 -0.12577365 0.079485446 0.023839526 -0.1396947 -0.16205548 0.13510282
0.04293417 0.018191654 -0.3637272 0.10625754 -0.06199873 0.14398962 -0.106567696 0.005667276
0.03897701 -0.1593163 -0.16205372 0.010984122 0.14382997 0.045412928 0.7791709 0.091105536
00000000: b4c5 16be 0cea 2fbd 617c 083e 5b27 433d
00000010: d94a 243e b2af 52be bd4b 9b3d 001a 94bd
00000020: eed9 8e3d 0c27 953d c99d b23d 098e 6b3f
00000030: a379 943d 9c12 14bd 78a7 34be dd0e 10be
00000040: 8fce ddbd 7c41 40be 566a f03e a7e4 573d
00000050: 4f5f 853d a02e fa3c eb51 dc3e b5a2 1a3f
00000060: 08ee 383e cde2 a8bd 3634 3bbe 2bbd 48be
00000070: 4ff5 bcbc 061f 90bc 0c9c 16bd 85d6 7c3e
00000080: 4ae2 fa3d a5ea c4ba 5e3d 02bd 3079 b5bb
00000090: 8012 a7bd 6e9e 3d3d 5593 0b3e ae3f 3b3d
000000a0: 310d aa3d bbbc 9fbd 04cc e13d 6d10 1ebd
000000b0: e0c8 3b3c 02f2 a6bc 8bda 4d3d fab9 c53d
000000c0: 7890 e53d b996 9b3d 84d5 363e 99b8 38bd
000000d0: 7a38 603d 1633 1b3e 2d0e bfbd 88b7 6cbc
000000e0: 064b c83d 5891 87bd 7c2a 36be 63d5 2b3e
000000f0: 6932 20bf 2afb b8bd d032 3e3f 28f3 f3bc
00000100: 515a d33d f075 70bc a9eb 323a 2bb8 61bd
00000110: 08dc 303d b7da 433d 1c42 b6bd 7f3b 49bd
00000120: 2ed9 7c3d fded 28bd 98cb 193e 7f28 4a3e
00000130: 54da 83bd 3b10 2abe 92b1 1ebe af89 013d
00000140: 7c19 03bd ab9b 8bbd 3e1e 9d3e b82f 2ebe
00000150: d5f3 e0be 002b eeba bca4 b13e 57b2 443d
00000160: 0082 dc3c 1849 6cbb b178 54be 64ba 183e
00000170: b29e 52bb 3a22 f4bd 0389 b23c e9c2 d33e
00000180: ccf5 3bbd d141 a8ba 21e0 fb3c ca9d d2bc
00000190: 513c 62bd c0e0 89bd 2c31 c0bd 2992 7bbd
000001a0: 23fb 0a3c e19a fabd f8ae d93c e6cb 03be
000001b0: 3ace b2bd d184 153e 7d08 aebb 0698 e73d
000001c0: 0537 053d c62c a83d 8abd 703d c2fc 02bd
000001d0: e000 863d fc6c af3c 6c72 2a3e 748e 06be
000001e0: 945a 033d 8905 2abd 42ef a43d 219e 82be
000001f0: 1ed0 a13d 5d4a bcbd 48bf e03d fcb8 d93d
00000200: f659 fdbd b0ca 273c 0acc 8a3d 522e ec3d
00000210: 153a 3e3e e071 19bc c40e 4e3c 8e15 ebbd
00000220: 8582 d1bd 6222 c93d 84a7 e7bc ab79 5e3f
00000230: aa69 1bbd 52ff 01be c384 e9bd 791e 003e
00000240: d34e 1e3e b1c3 c13d 580d 1b3f 6a1a 2d3d
00000250: 63b3 abbe a091 db3d b49a ee3e 4b61 e13e
00000260: 7c3c 0cbe 5b54 af3d 519f 493d 0086 a7bd
00000270: 4d3f a4bc c190 f53d 31da b6bd c377 623e
00000280: 8e27 c23d 1f44 b1bd a6a9 0f3d 5799 90bc
00000290: a38c 333e 0824 b03d 396f 943d 564a dfbd
000002a0: 11f3 cebc 31ff 1b3e 5a19 0e3d 1b3b 9cbd
000002b0: 8890 0bbd ceb1 df3d 06b1 1d3e 8c46 6dbd
000002c0: 4d4b bdbd c38c 233d 8ad7 07bd b468 fdbd
000002d0: 9113 d6bc f2f1 c1bd 4eba b3bd 4fc5 c93d
000002e0: 03e0 823d 9877 6b3d 305d fc3d f534 ed3e
000002f0: 7edf 13bf 8249 dabd 1617 aa3e 0e8c f23d
00000300: b90e 32bb 04fc 3e3d 4bfb 22be e9ae a3bd
00000310: 5f0a e13d 5617 c13d 2945 b7bd 4551 14bd
00000320: 8c22 4dbd 27ba 8a3c c5a3 923d b0ca f43e
00000330: 77c3 45be 8c52 69be 7fe9 6dbd 8fd8 9e3d
00000340: 9ff5 373a 83a7 933d 7a6f a03e 5077 bfbd
00000350: cbba 593c 2148 31bd 7b37 123f fd8f 383f
00000360: 8843 86be 1437 b73d f2f3 853e 92c7 6dbd
00000370: ab27 953a 33c4 bd3d 1d98 30be b505 ba3e
00000380: 10c0 123c 04f7 143e 5a92 cdbd 40e9 0bbd
00000390: c8d0 c33d 6826 93bd 4f78 9bbb cb83 c4bc
000003a0: c848 9a3c 052a 3b3d cfca 00be 44c9 a23d
000003b0: 1c4b c33c 210c 0fbe dff1 25be 6558 0a3e
000003c0: bedb 2f3d aa06 953c 743a babe 8e9d d93d
000003d0: 61f2 7dbd 0472 133e 2a40 dabd 8fb4 b93b
000003e0: 5ba6 1f3d d023 23be 69f1 25be bff6 333c
000003f0: 2a48 133e e802 3a3d be77 473f 8a95 ba3d

fc3.bias f4 [7]
0.07818768 0.06838949 0.12385952 -0.06765573 0.0015081769 -0.024769831 -0.105281144
00000000: dd20 a03d ca0f 8c3d 0faa fd3d 168f 8abd
00000010: 05ae c53a 1aea cabc a49d d7bd
