src/models/v3.0.0-simple_env_multiple_agent-10x10,2agent,0human,0shelf,1pickup,1dropoff.pth (torch, 253502 bytes, 10 tensors)

conv1.weight f4 [16, 10, 3, 3]
00000000: cfe9 e63d c3c9 bf3d add1 073e 539e 0b3e
00000010: 5d30 b33e 3e4a ae3e 285d 853e ad39 1d3e
00000020: 8343 9bbd ab7a 493d caaf 353d 14c9 993d
00000030: 8686 313d 94c5 113e d573 02bd e369 243e
00000040: 96af 593e 8c8f 53bd df23 d6bd e212 4ebd
00000050: b025 7fbc b11e b73d d4d5 26bd 6d68 8bbd
00000060: b36e 5dbd 3a08 5c3d 3e59 4ebd 5efb a8bd
00000070: e804 983c da81 063d 7ca3 1ebd 2db7 51bd
00000080: 4845 993c f0e8 25bd de70 073d f4e4 8dbd
00000090: 1c8c 033e 1854 25bd b5e2 b53d 8e5f 6c3e
000000a0: e5f3 0dbe c95c a43d cb6b 043b 8d79 59bd
000000b0: 16b6 4f3c c5b1 453e f871 27be 96db b5be
000000c0: c19c a73e a69e 8fbe 17d9 debe 8c63 893e
000000d0: 4307 80be 4222 c43d 9342 c43d 78af 61bf
000000e0: 3e68 ae3d 3c18 723d 6c9c 5fbf 6562 07bc
000000f0: ae61 cbbd dd0f 49be 9a8f b1bd df77 6abe
00000100: 1f82 2ebb 93b7 643d 9cb7 a8bd 626f 18bd
00000110: c5de 28bd ffbd d9bc 1acf 98bc 14a5 d0bd
00000120: c43e 553e c491 3fbe 407d 223e 95ac 913d
00000130: 61ae 55be 640e 133e fbdd 1d3e 9964 fbbd
00000140: 58c6 48b9 bbec 70bf dfcd c4be 26e0 fd3d
00000150: 4db1 833e 5233 853e c5fb 02be 9b63 0dbd
00000160: 2e0b c0bd 8111 5cbe 5e43 203d df0b 303e
00000170: 040d 8a3e d160 7f3d 11f9 423e 625d 2c3d
00000180: 81e0 c93d 8c5b 5cbc de81 513d f2ea a13e
00000190: 03cd 343d 0739 ad3b 650a df3b 3c06 d93e
000001a0: 9ca7 f8bd 1474 2ebd eca5 b1bd d0c8 c03d
000001b0: b031 88bd 7812 38bc 866a 773d 4825 b3bc
000001c0: 62ce 3c3d 4121 cbbd a12d 923d d71c 39bd
000001d0: 5a8e 7c3d aca7 a73c 92fe 143d 40ad b7bb
000001e0: 7e42 8abd 6787 c3bd 44d8 a6bd 2203 71bd
000001f0: 78fc 493c 8894 633c 22f1 7abe 0069 f5bc
00000200: 96d1 c53c 5c76 b2bd f932 7dbe 0581 ffbd
00000210: 9816 8f3d 93f5 3cbd 2cd9 3d3e 6ca6 cbbe
00000220: f874 cbbe 09d4 233e 47e7 51be 5ca8 76be
00000230: 19ab 583d 48c7 3b3d eeec 16be 0a38 cb3e
00000240: a26b cfbe 396c c6be 907e 56bf 8184 0cbe
00000250: 079c abbe 9e27 b9be 9f25 a13d c908 b7be
00000260: b378 99bf 8e0c 183c 2b0c 0bbc 8fec bebb
00000270: 5d74 fd3a 56de a4bd f68d d13c 3579 bd3d
00000280: 71de 5a3d 0a12 f2bd 77cd bebe a5fc 2fbd
00000290: 63eb ce3d 0896 13be ce60 cebd ce08 18bd
000002a0: 3e49 943d 23f0 52bd daba 423e db1e c93d
000002b0: 54be 59be 9adf 50be beb0 79be 2222 e33e
000002c0: aa07 173e 9186 e1bd ce9c a1be 86d1 ecbc
000002d0: f4b0 ebbd e77f 983e 2569 863e 79a6 243e
000002e0: ee0e 063e 8476 5a3e 9cb7 643e 9ae2 92bf
000002f0: 745a f93d bd8b 94be 00cb 3cbe 6e58 00be
00000300: d517 a2be 58fa be3e 3d9c eebd 1d97 2bbe
00000310: 895a bd3e fe08 f63d 3611 2d3d 7327 8e3d
00000320: 6e43 103d 3477 a53c d0e0 8dbd e8c4 08bc
00000330: 8067 4f3b 3204 8abd 4542 42bd f08b 22bd
00000340: 80e5 ceba 40e7 aabc 49de 8b3d c057 debb
00000350: 7cd4 d3bc 2ed1 bbbd 7af4 a9bd 3cc7 8fbd
00000360: b8e3 9d3d 6c42 043e e580 70be 9326 9e3d
00000370: a6b8 9abd fffa f9bc e0b3 1d3d d5fa c7bc
00000380: 1526 cd3d 5234 7f3d 6115 303e 1b5b 7e3e
00000390: 2d90 303d 1d48 3fbc 8642 32bc 7598 883e
000003a0: fba4 56bb 5bec dcbe 90b6 9f3e 3081 56be
000003b0: b67a 2abf 3075 3b3e 9194 a1bd 55f7 7dbe
000003c0: 61ac 13be bf51 a3bd 477c 94bd 783e f23c
000003d0: 949a 83bd aa52 b1bb af67 e6bc 8732 a1bd
000003e0: 60b3 3c3d b76b b03d 3113 d7bd 4e05 47bd
000003f0: 1314 463d 2c9a af3a 8de8 97be 9534 ed3b
0.11275064 0.09364655 0.13263579 0.13634615 0.34997836 0.34041017 0.26047635 0.15354033
-0.07581236 0.04918925 0.0443571 0.07509056 0.043341182 0.14235526 -0.031848747 0.16056018
0.21258387 -0.05165057 -0.104560606 -0.050310977 -0.01557295 0.08941401 -0.040731266 -0.06807027
-0.05406065 0.053718783 -0.050378077 -0.082510695 0.018557027 0.03283868 -0.03873013 -0.05120008
0.018709794 -0.04050535 0.033066623 -0.06928435 0.12846416 -0.0403634 0.088811316 0.23083326
-0.1386257 0.0802551 0.0020205851 -0.053094435 0.01267769 0.19306095 -0.1635207 -0.35519093
0.3273678 -0.28050727 -0.43525 0.2683376 -0.2500554 0.09576847 0.095830105 -0.8815837
0.08515976 0.059105143 -0.87348056 -0.008263205 -0.0993074 -0.19634958 -0.08669968 -0.2289729
-0.0026627851 0.055839133 -0.08238146 -0.037215598 -0.041228075 -0.026579855 -0.018653441 -0.10187736
0.20824724 -0.18707949 0.15868092 0.071129955 -0.20867302 0.14360958 0.1541671 -0.12275047
-0.00019147375 -0.9411122 -0.38438317 0.123962685 0.25721207 0.26015717 -0.12791355 -0.03451882
-0.09377132 -0.21491052 0.039126746 0.17192028 0.26963055 0.06234819 0.19040324 0.042081244
0.09857274 -0.013449561 0.05114924 0.31624562 0.044140827 0.005286339 0.006806659 0.4238757
-0.12141344 -0.04259117 -0.08674225 0.09413302 -0.06650102 -0.011234872 0.060404323 -0.021868363
0.04609526 -0.09918452 0.07137609 -0.04519352 0.061659195 0.020465694 0.03637559 -0.00560537
-0.06750964 -0.0954731 -0.08146718 -0.05884088 0.01232826 0.013890393 -0.24506047 -0.029957294
0.02414779 -0.087139815 -0.24726476 -0.124757804 0.06986731 -0.046132635 0.18539876 -0.39775407
-0.39737678 0.15998854 -0.20498382 -0.24087662 0.052897546 0.045844346 -0.14738819 0.39691192
-0.40511805 -0.38754442 -0.8378687 -0.13722421 -0.33517477 -0.36163038 0.07868504 -0.3574889
-1.198996 0.009280337 -0.008486788 -0.00582654 0.0019337047 -0.0805022 0.025580388 0.09251634
0.053434793 -0.11819847 -0.37266132 -0.04296555 0.1010349 -0.14412701 -0.10077058 -0.03711777
0.07240532 -0.051498543 0.1901659 0.09820338 -0.2126401 -0.20397797 -0.24383828 0.4436198
0.14749017 -0.11011995 -0.31564945 -0.028908502 -0.115083605 0.29785082 0.26252094 0.1607913
0.13091633 0.21334273 0.22335666 -1.1475403 0.12175456 -0.29012862 -0.18436813 -0.12533733
-0.31658807 0.37300372 -0.11650894 -0.16756864 0.36983135 0.12013434 0.04225274 0.06941118
0.035220556 0.020198442 -0.06927645 -0.008347727 0.0031647384 -0.067390814 -0.04742648 -0.039684236
-0.0015784949 -0.020862222 0.06829507 -0.006785363 -0.025858156 -0.09170757 -0.08298583 -0.07020423
0.077094495 0.12915963 -0.2348667 0.07722201 -0.0755475 -0.030515192 0.03850162 -0.024411598
0.10017029 0.062305756 0.17195655 0.24839441 0.043106247 -0.011674908 -0.010880118 0.26678815
-0.0032752145 -0.43149075 0.31193972 -0.20947719 -0.6659349 0.18306422 -0.07889665 -0.24801381
-0.14421226 -0.07974576 -0.072502665 0.029570803 -0.06425968 -0.0054114657 -0.028125612 -0.078709655
0.046069503 0.08614295 -0.10501707 -0.048589043 0.048358988 0.0013397387 -0.2966961 0.0072389343

conv1.bias f4 [16]
00000000: 2da1 a33e 7ebe bf3e b273 6e3e bb52 4c3e
00000010: 7362 4e3e b07c 9e3d c84c 993e f84e 3b3e
00000020: a063 2d3e ef6a 483e 4482 513c ab22 2f3e
00000030: 9483 873e 3ff1 9a3e 0d0d 8b3e 3408 b73d
0.31958905 0.37450022 0.23286322 0.19953434 0.20154743 0.07738626 0.29941392 0.18291843
0.16932535 0.19572042 0.012787405 0.17103069 0.26467574 0.3026218 0.27158394 0.089371115

conv2.weight f4 [32, 16, 3, 3]
00000000: 6452 d93a a5c4 233e 3bb3 953e 148a 493e
00000010: dcb0 ef3e e52a f13e aaaa 8d3e 8ca5 063f
00000020: 8f31 7f3e 3ac9 acbe 975a 8b3e 073c 2d3d
00000030: 320e 0abe 9e1c e33e ef24 f13e d1c0 66be
00000040: 567b fb3e 1b66 233f bdea 72be 52cc aebd
00000050: 3601 d4bd 038f e2bd 4e21 093f ab51 ef3c
00000060: 42fe 04bd 012f 303f 5099 d73e 4af4 813e
00000070: 3596 7e3e 8628 053f 654c 20be 343d 8c3d
00000080: 52c4 993e f876 15be 80b8 763e 4b3e ec3e
00000090: e41d 91be d69c 8dbd 518f f93d 1f63 5bbd
000000a0: 36ff 783e 0851 df3e 7eda 1abd 9581 c73e
000000b0: 699e 193f a938 003e c06a d93d c3ad 30bc
000000c0: dce9 e93d 4e13 883e e7b1 b43e 2fed f23d
000000d0: 3ba2 fb3e 02d6 f93e b425 45be fb37 8d3c
000000e0: ccc1 dd3e 2131 fabc 0796 603e 06bb 053f
000000f0: 6afb a03c 0a68 bb3d 7df0 b23e fd5b 79bd
00000100: c2f7 22bd 2255 423e ee64 a7bd 14af 543e
00000110: 1470 033f 7b7c 4ebc ed7c 343e d776 8e3e
00000120: 2767 a03d d48c c13d 756c bc3e 3221 afbd
00000130: c721 973e ac37 df3e 40cf 313d 66cf 863e
00000140: 41e0 663e e2e6 363e fc9e a73e c4be 133e
00000150: 83d8 8b3e dc5d f73e 0df1 b83e bc73 1b3e
00000160: 5c73 86bb 763e 06be c6b7 923e 78b4 823e
00000170: 5059 3d3e a8bf 4c3d b479 be3e b86d 3a3e
00000180: de24 2cbb d325 243e 0c9e a8be 764f f5bd
00000190: af1a 933c 97b5 1a3e 04c0 0bbd 2a91 c53d
000001a0: 9e4b e83e b6a7 64bd 2316 3e3e 5d2e 1c3f
000001b0: 25a1 a63d 2e0b a4bd 05e5 75bd c54b 1e3e
000001c0: d3a3 71bd 447d 323c 92e9 923d 3633 623d
000001d0: ef68 413e aee0 3b3d 26eb fa3d 5325 2f3e
000001e0: fc27 b53e 9176 ec3e ac66 d03e 9704 b43e
000001f0: f501 b53e a54a e43e 383a 7bbe 5f38 6d39
00000200: 7b89 ca3d 1f4c 0bb9 9e80 be3d a9b3 913e
00000210: 57f8 b83c 2b21 023e 9415 023f d80e bdbc
00000220: 380a a13c 8775 033e 87ef 54bd 4d02 823c
00000230: 9c69 cb3e 4892 8fbe 553e bebd fbd5 853e
00000240: 62ac b3bd 2cd5 e83e 6173 e43e 598b 613d
00000250: 8825 113f 4779 133f 26f7 a8bc 0c4b 863e
00000260: 1fe5 853e 7bb1 9abe 3f59 b83e 5c1f a33e
00000270: 1b7b afbe 2891 f03e ebe0 2f3f b4ba bbbe
00000280: 7bb4 b23e 866c 213f 605d 8fbe bb6e 773e
00000290: de3f 833d 6cda 83bd b7e2 073f 43d7 8d3e
000002a0: f6e0 4cbd 9a59 aa3e 7ab8 ea3e a161 b7bd
000002b0: 6a0d 093e 1360 303f 48ca 53be 4891 6ebd
000002c0: ce47 eb3e c1f1 babe fe25 613d 7efd d33e
000002d0: 6f31 3ebe 3ebc 993d f260 8b3e 2c63 243d
000002e0: 92ab 013f 799d 113f 58c3 4cbe 2ad5 bc3e
000002f0: 486b c93e c2c1 c63d 156d 513d 5db4 e6bd
00000300: d77f dd3d 7954 1a3f 0e9c 653e 3dc3 4b3e
00000310: 95b6 e83e a2e1 e83e 3b4e 50be 8f5b b33d
00000320: bb28 e73e 8c7c 7dbe 7686 b23e 8c7b 003f
00000330: 6f2e 603c 7c36 b83d 01c3 973e 156e 1cbd
00000340: 2f12 093e e92a 703e 7059 89be bc1b 9d3e
00000350: 4a67 083f d957 12be 8595 b03e a8d5 953e
00000360: 36dc 033e 1739 b73d ada9 eb3e 826f cf3d
00000370: c66f de3e 95d5 d03e 8e52 6e3d b2e3 d43e
00000380: 3414 933e 6e07 a23e ffa8 fd3e 9b23 003f
00000390: d818 653e a5cf 053f f643 c83e 21e9 3dbc
000003a0: 47bd 903e dbe3 813d 702c 473e b3a9 2e3e
000003b0: 6b3a ec3c 830e a33e e613 023f 3975 84bd
000003c0: 23b3 a53e 47fe 9f3e 57b1 64be 909e b8be
000003d0: 7005 d53d e129 e13d 080e 1fbe b895 943e
000003e0: c651 113f 0829 95bd c535 633e 57b7 d13e
000003f0: 2744 9bbd 3a3d 38bd f5b6 bd3d 5490 4f3d
0.001658034 0.15992983 0.29238304 0.19681579 0.4681462 0.47103038 0.2766927 0.52596354
0.24921249 -0.33747274 0.27217552 0.042293575 -0.13481978 0.4435777 0.4709849 -0.22534491
0.49117535 0.63827676 -0.23722358 -0.08535065 -0.103517935 -0.110624336 0.53566444 0.029213747
-0.03246904 0.6882172 0.42109156 0.2538169 0.24861987 0.5201496 -0.15654142 0.06847611
0.30032593 -0.14596164 0.24093819 0.46141276 -0.28343117 -0.0691468 0.121855386 -0.053561326
0.24316105 0.4361651 -0.037806027 0.3896605 0.6000734 0.12521614 0.10616064 -0.0107836155
0.11421558 0.26577228 0.3529198 0.118616454 0.4914721 0.48796088 -0.19252664 0.017238608
0.43311918 -0.030541005 0.21932231 0.522385 0.019651134 0.09150703 0.34949103 -0.060878742
-0.03978706 0.18977788 -0.08173548 0.20769912 0.5134289 -0.012602921 0.1762578 0.27825043
0.07832175 0.09450689 0.36801496 -0.085512534 0.29517958 0.43597162 0.04341054 0.26330107
0.22546484 0.17861512 0.32738483 0.1442824 0.27313623 0.48313797 0.36121407 0.15180868
-0.0041031074 -0.13109764 0.28655833 0.25528312 0.18491101 0.049987465 0.37202227 0.18205917
-0.0026267092 0.16030054 -0.3293308 -0.119780466 0.01795706 0.15108334 -0.034118667 0.096468285
0.4537019 -0.055824004 0.18563132 0.61008245 0.08136205 -0.08009945 -0.060032863 0.15458591
-0.058994126 0.010894123 0.07173456 0.05522462 0.18887685 0.045868568 0.12251882 0.17104082
0.35382068 0.4618421 0.40703332 0.35159752 0.35353056 0.445882 -0.24533927 0.00022623081
0.098895036 -0.0001328443 0.093018755 0.28457382 0.022579355 0.12707965 0.50814176 -0.023078367
0.019658193 0.12837802 -0.051986244 0.015870238 0.3972901 -0.2804129 -0.09289233 0.26139817
-0.08773114 0.45475137 0.44619277 0.055064533 0.56697893 0.5760693 -0.020625662 0.2622913
0.26151368 -0.30213532 0.3600559 0.31859863 -0.3427361 0.46985745 0.6870257 -0.3666588
0.3490332 0.6305622 -0.28000927 0.24163334 0.06408666 -0.06438145 0.53080314 0.27703294
-0.050019227 0.33271486 0.4584387 -0.08954168 0.13384023 0.688966 -0.20682633 -0.05824402
0.4595322 -0.3651257 0.054967873 0.41404337 -0.18573545 0.075066075 0.272224 0.04013364
0.5065242 0.5688091 -0.19996393 0.3688138 0.39339662 0.09704925 0.05112942 -0.1126487
0.10815399 0.60285145 0.22422811 0.19898696 0.454518 0.45484644 -0.20342343 0.08757698
0.45148262 -0.24754542 0.3486821 0.5018852 0.013682946 0.08994767 0.29640964 -0.03819092
0.13385843 0.23453869 -0.26826048 0.30685222 0.53282607 -0.14291324 0.34489074 0.2926457
0.12876973 0.08946436 0.4602789 0.1012869 0.4344465 0.4078795 0.0581842 0.41579968
0.2872635 0.31646293 0.49542996 0.5005433 0.22372758 0.52269965 0.3911435 -0.011591227
0.28269407 0.06342288 0.19450545 0.17056923 0.02883645 0.3184701 0.5081161 -0.06467671
0.32363233 0.31248686 -0.22333275 -0.36058474 0.10401428 0.10994316 -0.15532696 0.29020476
0.567654 -0.07283217 0.2218848 0.4096019 -0.075813584 -0.044980265 0.09263412 0.05067475

conv2.bias f4 [32]
00000000: a3e0 2d3d 86c8 b5bc f734 40b9 32db ccbb
00000010: 30c1 9c3d 397c 3e3c 39ee d23d d6e5 8e3d
00000020: 364a abbc eee0 803d 1afd b73d ca1f 453d
00000030: fe1b a53d d86d 4abc 79f8 373d 81c7 b73d
00000040: 0fd8 803d c681 b03d cb8e 133e f28a ed3d
00000050: f8f3 533d 518a 123e fe70 bc3d 1dcf ef3d
00000060: 1c39 e03d 4250 903d 478f 043d 7389 913d
00000070: 34f2 a13d 1fd7 d93d bec7 313d 4b86 cc3b
0.04245056 -0.022190344 -0.00018330278 -0.006251716 0.07654035 0.011626297 0.102993436 0.069774315
-0.02090941 0.06292902 0.08983822 0.04812602 0.0806198 -0.01235529 0.044914696 0.08973599
0.0629121 0.08618502 0.1440994 0.11598767 0.05174634 0.14310576 0.09201239 0.117094256
0.10948393 0.07046558 0.032363202 0.071062945 0.07907525 0.10636734 0.04340338 0.006241595

fc1.weight f4 [64, 800]
00000000: 8bc0 083c c60a 0e3d 79e3 b0bc cfdc 76bc
00000010: fd06 8d3c 5f4f f1bc bc39 b7bc b18f 083d
00000020: 5d9f f9bb d0c6 56bc 0e6a 083c 6092 1cbc
00000030: f013 5abc 7b36 8fbc 1074 29bc 548f 853c
00000040: a7b0 e2bc 6b34 943c 391c d73c bb5a 10bd
00000050: 86ce 58bc c12a 083d 4e73 aebb 06ee 8d3b
00000060: ec52 133c 648c b73c bc5c 66bc 5389 ff3c
00000070: 44d7 37bb be32 ea3c a373 973c fea6 d2bc
00000080: 28df d13c bf59 60bb 58f0 bb3c 9828 fabc
00000090: b9bd 3ebc 8511 82bc 6232 703b 64ba e4bb
000000a0: dbeb 9c39 4625 6e3c ceee 33bc d7ef d43b
000000b0: 0349 253c a329 ed3c d120 103d e281 c93c
000000c0: 9833 9f3c a0f0 083d b6c5 f63c 31e7 403c
000000d0: df1d ed3c 2371 d5bb 3f8d 00bc e1df 783c
000000e0: a51d 4fbb b7fd ab3c 884f 01bd c9e0 58bc
000000f0: 8685 52bc cf06 043d 9dab 143c f190 513b
00000100: 9712 98bc 0c04 9f3c 00f8 8a3b 7945 01bd
00000110: d9c6 0dbd b98d 01bd 0e7b f73c 0ddf d03c
00000120: 760b afba e859 debc 57a7 24bb 145c bc3b
00000130: b578 8e3c 3e98 243c 9217 493c 9a71 043d
00000140: 5b23 63bc 7400 8dbc f35a 863c f6b9 9e3c
00000150: daef f6bc 820f 833c b71f 07bc 838b 6e3c
00000160: 6ad6 45bc 85a8 f8bc c06e da3c ea61 acbc
00000170: 068e b13c 0f82 f3bb 516b 893c bfe3 debb
00000180: 494a babb 6c1d 01bc e51a 0dbd 2c8b 60bc
00000190: 3ae9 003d bde0 7fbc eba8 e33c 890b 753b
000001a0: 41c2 d73c 9409 b7ba 60dc acbc c518 883c
000001b0: daa5 b5bc d830 003c e7d1 d23c 4053 0b3d
000001c0: 0b8b b73c 60cf 0e3b a24b 173c ab55 b43c
000001d0: 5d10 b93a 7e78 debc b21f 0abd 7904 123c
000001e0: 9d06 9f3c 59e6 c43c 4f8b b3bb bca1 823b
000001f0: 0f98 bb3b 1cb8 fe3c 0227 f9bc 9774 843c
00000200: e24e a33c 4f07 a43c 920a e1bc 9941 06bc
00000210: 693c c9bc 3e26 493b 6aa3 c9bc 84d3 e43c
00000220: c84a 03bc 6fcb 95bc f1e8 ebbc 4a1c a4bc
00000230: 7c9a e73c be97 2dbc eae6 96bc a705 0e3c
00000240: 0431 c7bc 2947 0e3d 6d5b d5bc 8f20 a4bc
00000250: 784e 35ba 571d 8fbb 0882 e1bc 6728 66bb
00000260: 786b f23c 964d a33c 8217 0dbc 45a0 e7bc
00000270: cb18 59bb e0f9 08bc 2d3d 993b 9048 a4bc
00000280: 1354 9ebc d82e 43bc 6cae 0f3b 5ced 52bc
00000290: be0c babc 12e5 6e3a c36b 25bc 6595 593b
000002a0: 51f1 ce3c 483b adba 486e 6e3c 1b57 ba3c
000002b0: f590 6c3c 466b eebc e1be e4bc 0150 5cbc
000002c0: 22c6 ee3b 3dae e33c 5e81 09bd adc2 10bd
000002d0: b08e 963c 3e8f 96bb 6ba5 8abc ca6c d03b
000002e0: fe78 babb bccd 083d f953 383b 150f 12bd
000002f0: 7b25 fbbc d352 09bd 8775 493b 9609 f73c
00000300: ca4d 6dbc 76a7 abbb c7a3 2dbb 8657 a2bc
00000310: 44d7 cdba 4d1d c83c ccdc 8abc 5c15 563a
00000320: e2c5 e13c 48b5 4fbb 4895 813c 6aac a4bb
00000330: 6c89 f3bc c448 0cbd 67a6 c63c 75c9 5abc
00000340: e192 dd3c b246 a23c c62d da3c 16a6 053d
00000350: 4dbb 1839 b17f 05bd 2b7f dbbc 4519 9b3c
00000360: bc55 a1bc 3fa9 d5bb 7e4b f6ba 909d 30bc
00000370: 32c6 e13b 9add 20bc 9f46 4f3c 51e4 0bbd
00000380: 69ce 0cbc e09b 913c 7238 053d bc3e 833c
00000390: df04 abbc ab61 8cbb 7fd7 50bc f0ba 0d3d
000003a0: b15f 0bbd 4073 44ba 8227 a13b dc7b 843b
000003b0: a0e1 55bb 900b a83c 6a2f 7dbc 87d6 d2bc
000003c0: a09e e8bb 563a e6bc 0323 6abc 772e 23ba
000003d0: c7f9 773c 43ef cd3c cd70 d6bc 2993 efbc
000003e0: 79df e03c acdd d33a 2ceb 0abd 387a e03c
000003f0: 1820 813c 1fc3 0abd fe03 543c f753 f73b
0.008346687 0.034678243 -0.021592842 -0.015067293 0.017215246 -0.029456792 -0.022366397 0.03334016
-0.0076178745 -0.013108924 0.008326067 -0.009556383 -0.0133104175 -0.017482033 -0.010342613 0.016303696
-0.027672125 0.018091401 0.026258575 -0.035242777 -0.013232833 0.0332439 -0.005323804 0.004331353
0.008991938 0.02240581 -0.014060196 0.031193411 -0.0028051892 0.028588649 0.018487757 -0.025714394
0.025619105 -0.003423318 0.022941753 -0.030536935 -0.011641913 -0.015877495 0.0036651124 -0.0069802273
0.00029930365 0.014535254 -0.010982228 0.0064983177 0.010088208 0.028950518 0.035187546 0.024598066
0.019433782 0.033432603 0.030123573 0.01177387 0.028944908 -0.006513731 -0.007846176 0.015190096
-0.0031603363 0.020995004 -0.031569988 -0.013237187 -0.012849217 0.032233056 0.009074119 0.003197726
-0.018563552 0.01941111 0.0042409897 -0.031560395 -0.034613464 -0.031629298 0.030210044 0.025496984
-0.0013354856 -0.02714248 -0.0025124156 0.0057482813 0.017391542 0.010046063 0.012273686 0.0323349
-0.01386341 -0.01721213 0.01640079 0.019375782 -0.030143667 0.015998606 -0.0082473075 0.014559629
-0.012075046 -0.030353794 0.026664138 -0.021042783 0.021674167 -0.0074312757 0.016774805 -0.006802052
-0.005685125 -0.00788055 -0.034449477 -0.013705056 0.031472422 -0.015617547 0.027790507 0.0037390909
0.026337745 -0.0013964646 -0.021101177 0.016613374 -0.02217381 0.007824145 0.025734855 0.03401494
0.022405168 0.0021791086 0.009234341 0.022013506 0.0014119257 -0.027157065 -0.033721633 0.008912199
0.019412333 0.02403562 -0.0054792534 0.0039865654 0.005724914 0.03109365 -0.030414108 0.016168876
0.019935075 0.020023016 -0.02747086 -0.008194351 -0.024564939 0.003069296 -0.024614055 0.02793289
-0.008013435 -0.018285481 -0.028797599 -0.02003302 0.028271906 -0.01059526 -0.018420655 0.00866834
-0.024315365 0.034735832 -0.026044572 -0.020035056 -0.0006916295 -0.0043675113 -0.027527824 -0.0035119297
0.02959226 0.019934457 -0.008611562 -0.028274665 -0.003312635 -0.008360356 0.004676482 -0.020054132
-0.0193272 -0.011913024 0.0021924032 -0.012873974 -0.022711154 0.00091131136 -0.010096493 0.0033200618
0.025261553 -0.001321652 0.01455266 0.022746613 0.014438857 -0.029103886 -0.02792305 -0.013446809
0.007286803 0.027793044 -0.03357064 -0.035341907 0.018378586 -0.0045947125 -0.01692458 0.006360625
-0.005690693 0.03339933 0.0028126223 -0.035658915 -0.03065752 -0.033526253 0.0030740218 0.030155938
-0.014483878 -0.0052384688 -0.0026495324 -0.019817125 -0.0015704413 0.024428034 -0.016950987 0.0008166635
0.027560178 -0.0031693745 0.015818253 -0.005025436 -0.029728614 -0.034249082 0.024249269 -0.013353695
0.027047576 0.0198091 0.026633155 0.032629095 0.00014565625 -0.03259248 -0.026794037 0.018932948
-0.019694202 -0.00652042 -0.0018790809 -0.010779753 0.006890082 -0.009818459 0.012651115 -0.034153286
-0.008594134 0.017774522 0.032524534 0.016021125 -0.020876346 -0.004284104 -0.012746691 0.034602106
-0.034026805 -0.000749398 0.00491804 0.0040430855 -0.0032635704 0.020513326 -0.015453199 -0.02573706
-0.0070989877 -0.028103989 -0.014290574 -0.00062248803 0.015135235 0.025138503 -0.026176834 -0.029244976
0.02745031 0.0016164086 -0.033915684 0.027402028 0.015762374 -0.03387749 0.012940405 0.007547851

fc1.bias f4 [64]
00000000: 4c48 103c 7205 6abc 5b36 3e3d 08a3 a2bc
00000010: 7ab0 973b aeac 0a3d 70f1 9f3b 1308 a73d
00000020: c948 8cbc c26d 3ebc 8460 81bc 0996 b13c
00000030: af9d b33d a53c 933d f2d5 f83c 8cca fe3c
00000040: d14d 123b 5a61 963c d6ff 833d 3f6a b0bc
00000050: 9089 d7bb ebb5 2f3d 1518 79bc 8ea8 5bba
00000060: 806d a6bc 3226 f63c 3d2f 593d b24d 7b3c
00000070: 8dfb 053d 74c1 333c 21a4 67ba d72b 22bc
00000080: e0b8 0abc 624a 143d 6094 383d 4228 90bc
00000090: 7261 dcb9 9fef 793d ad48 9d3c b43e 513d
000000a0: 2475 503c 49c8 2d3d b10c 893c 6388 d43c
000000b0: f076 e33d ed80 8b3b 2757 09bb 5698 193d
000000c0: 081e 7f3d ccb2 663d 7e5a bf3d a6f2 a03b
000000d0: 5051 d53c abc0 ba3b 6053 213d c4a6 b83d
000000e0: 538b 103d 863a 893d 0215 fe3c da50 223c
000000f0: 5ef9 243d b78a 0d3c 400e 12bc 9a7e 153d
0.008806299 -0.014283525 0.046438556 -0.01985313 0.004629192 0.033856086 0.0048810765 0.08155837
-0.01712455 -0.011622848 -0.015793093 0.021677988 0.0877031 0.071893014 0.030375455 0.031102441
0.0022324214 0.018356968 0.06445281 -0.021535037 -0.006577678 0.0428981 -0.0152034955 -0.00083793036
-0.020315886 0.03004751 0.053023566 0.015338348 0.0327106 0.010971416 -0.0008836408 -0.009898148
-0.008466929 0.03620375 0.045063376 -0.017597321 -0.00042034272 0.061019536 0.019199694 0.05108519
0.012723241 0.042427335 0.016729685 0.02594394 0.1110667 0.0042573125 -0.0020956488 0.037498794
0.0622845 0.056322858 0.09343432 0.0049117384 0.02603975 0.0056992373 0.039386153 0.09016183
0.03528912 0.067006156 0.031015877 0.009906972 0.040276878 0.008639029 -0.00891453 0.03649769

fc2.weight f4 [64, 64]
00000000: f7c2 e7bd 4847 e0bc f488 00be a0e3 12bc
00000010: ef94 93bd a07e fb3b 4c9f 56bd e0ae 803d
00000020: 00e5 473d 7d12 05bd 62fa 7c3d 6c96 df3d
00000030: b2e8 093d d821 f13d c823 d1bd 1439 993d
00000040: 190a 323b a0b6 533c aa51 afbd b792 933d
00000050: f9f6 5bbd 7329 bb3d 8cb4 fbbd b0e2 743d
00000060: bc67 7c3d c2e8 4dbd 2aa4 843d e161 0a3e
00000070: 9778 203e 5ab0 b63d ca48 d9bd 51c4 b33d
00000080: 432b 4ebb 14f8 f8bd fa54 da3d 20f0 1c3c
00000090: ec43 c03c 8c89 443d a4cc b5bc cc9d 09bd
000000a0: 8019 67bb afb8 63bc 31dc adbd e6ee 313e
000000b0: b596 9c3d 5b7d 2c3e 1841 fcbd c5f4 d23d
000000c0: b57c ed3d a4e6 d13d 5cc3 1e3d 8014 e33c
000000d0: c8c4 e33d 2232 9d3d b8ec 1b3d ad3a 50bd
000000e0: 59d6 123d ff40 d43c 10c1 0b3d fc8d 4a3d
000000f0: 9fa8 c1bd 99d8 0e3d 60ca b33d 5f10 8cbd
00000100: 3e76 8c3d 7824 933d 569e 94bc f8c5 823d
00000110: 12c1 e73d 34c2 02bd 383c f6bc e0d1 bcbd
00000120: 764b 9d3d e4d8 603d ec0f 2ebd 5e6f 9bbd
00000130: b7b3 133d 96f4 c2bd 6278 ddbd 6c27 153d
00000140: fa64 82bd 14b8 023d 278a e5bd 40a7 f8bc
00000150: 240c 243d 773e cb3d 349c 7f3d 782e a43c
00000160: 4006 82bb 92ad 38bb ecc3 263d de09 58bc
00000170: b956 2c3b 00e4 d639 a09b 2ebd 581f 26bd
00000180: 847a d93d 714c ab3d 6f81 61bd 2ca8 4a3d
00000190: 60ab 84bd 7a1e f8bc b0ae 00be 3971 7fbd
000001a0: c07d 393d 189d e6bb 2450 4fbd adc0 d03d
000001b0: d721 f43d 6f35 b43d 7cee 023d 4a86 08bc
000001c0: b9f1 cabd 5214 a33d 991a f23c 7e80 abbd
000001d0: 1e7e ce3d 3a07 c0bd c535 03be 8030 f1bd
000001e0: d3fb bd3d 744c 01be 232e c7bd 9461 c7bd
000001f0: 6469 8fbd 8475 87bd 78f2 9e3d c65c bcbd
00000200: d093 de3c a0be ab3c e283 193d 487d bcbd
00000210: 2379 0abe 1ef4 e73d 287a 723d afd5 e23d
00000220: 565d 843d bf93 eebd 1c0b f63d 14db 93bd
00000230: 1e88 7abd 5e05 a6bd b0d6 aa3c c0c1 a63c
00000240: f21c 213c 0054 f0b9 2172 2cbe 6b9b eb3d
00000250: 21cb a6bc a9ab 783c 28f8 6cbd c67b e03d
00000260: 6038 e23b 1efe 7abd 7bea 2ebe c939 4cbd
00000270: 5e75 883d 544c 0fbd 00a9 97bd fbdf 8bbd
00000280: ec70 f7bd 866c 2bbd 0f5e 2b3d 00ea 75ba
00000290: 991e b0bd f8b5 393e 7907 6f3e 468c 47bd
000002a0: 96ff d8bd bd9f 273e 0c1f 093d 2034 263e
000002b0: 768d 5a3e 11e9 2b3e f83b efbc 3e3d b6bd
000002c0: 5038 213e 88db 2abe fbff 64bd b01f 823d
000002d0: 7013 5fbd 50c9 b23d 9bb0 8fbd 75bb 8c3e
000002e0: e2f6 c53d a86a 2b3e 0252 26bb bcfe 20bd
000002f0: 6e7f 583e 18d6 adbd c030 99bc 290e 2b3e
00000300: c072 58bd ac44 5d3d d9fe 2c3e 7088 5c3c
00000310: 47fc 3d3c f0b2 063c fea8 b8bd 7afa 3d3d
00000320: e879 c93d 493d c63d 8ff6 ba3d b455 eb3d
00000330: 6a29 e73d c296 0ebe def7 cebd 3a68 d0bd
00000340: e493 323d 26d3 91bd dfbe 0f3e 81b1 853d
00000350: e0cd b83c 4a5b 89bd a8b3 9f3d 6389 9cbd
00000360: ea4f c43d dea2 a33d 3453 5e3e 90d1 a53d
00000370: bcb4 453e 3647 afbd 88f9 ebbd bb2d f0bd
00000380: e462 52bd 8260 193e c485 46bc f0ab 4ebd
00000390: 7b72 6c3d 3ec0 013e ff2e 8bbd 3627 703e
000003a0: 382f 5a3d c696 813e a368 283c d009 243c
000003b0: 8940 053e f45e 0bbd ecf1 e6bd 9967 a33d
000003c0: f228 863d 744c c23d dcc3 5c3d 9a1d 973d
000003d0: 4cfe cc3d bcd1 603d c846 413d 1a1a 093d
000003e0: 349d c6bb dee8 f43b 6d98 90bc c8eb b63c
000003f0: 9e89 16bd a64f 4fbd 58dc 1cbd 4e57 6d3d
-0.113164835 -0.02737774 -0.12552243 -0.008965403 -0.07206141 0.007675007 -0.05239801 0.06283355
0.048802376 -0.032488335 0.06176222 0.109173626 0.03366918 0.11774033 -0.10211903 0.0748159
0.0027166663 0.012921959 -0.08560498 0.07205718 -0.05370233 0.09138765 -0.12290296 0.0597865
0.061622366 -0.050270803 0.06476624 0.135139 0.15671001 0.08920355 -0.106095865 0.08777679
-0.0031458891 -0.12156692 0.10660739 0.009578735 0.023469888 0.047982737 -0.022192307 -0.033597752
-0.0035263002 -0.0138990125 -0.08489264 0.17376289 0.076459326 0.16844694 -0.12317103 0.10300592
0.115960516 0.10249069 0.038760528 0.027719736 0.111215174 0.07675578 0.03806755 -0.050837208
0.03584895 0.025909899 0.034119666 0.049451813 -0.0945599 0.034874532 0.08778834 -0.0683906
0.068584904 0.0718469 -0.018141907 0.06385416 0.11316122 -0.031923488 -0.030058011 -0.09219718
0.07680409 0.054894343 -0.042495653 -0.07589601 0.03606006 -0.09519307 -0.10813977 0.03641455
-0.06366916 0.03191383 -0.11207991 -0.030353189 0.04005064 0.099240236 0.062404826 0.02004169
-0.00396803 -0.0028179628 0.04071419 -0.013185946 0.0026296808 0.00040987134 -0.042628884 -0.040557235
0.10619071 0.083641894 -0.055055078 0.049476787 -0.06478 -0.03028797 -0.12566638 -0.062363837
0.04528594 -0.00703777 -0.050613537 0.10193 0.11920517 0.08799254 0.031965718 -0.008332798
-0.09909386 0.0796286 0.029553698 -0.08374117 0.10082649 -0.09376378 -0.1281348 -0.11776829
0.09276547 -0.12626821 -0.09725597 -0.097354084 -0.070025235 -0.06614211 0.07761091 -0.09197383
0.027170092 0.02096492 0.03747929 -0.09203583 -0.13522772 0.113258585 0.05919853 0.11075913
0.06463115 -0.11649274 0.12013838 -0.0721952 -0.061164968 -0.081064925 0.020854324 0.02035606
0.009833561 -0.00045838952 -0.16840412 0.11504253 -0.020360531 0.015177646 -0.057853848 0.10961108
0.006903693 -0.0612775 -0.17081635 -0.049859796 0.06663011 -0.0349849 -0.07405281 -0.0682983
-0.12082085 -0.041851543 0.04183775 -0.0009380877 -0.08599586 0.18135822 0.23342694 -0.04871776
-0.10595624 0.16369529 0.033476874 0.16230822 0.21343026 0.16788127 -0.0292034 -0.088984
0.15744138 -0.16685307 -0.055908184 0.063537 -0.054461896 0.087298036 -0.07016107 0.27486768
0.0966623 0.16739905 -0.002537847 -0.039305434 0.2114236 -0.08488101 -0.018700004 0.1670462
-0.05284381 0.05402057 0.16894092 0.013460264 0.011595792 0.008221373 -0.09016608 0.04638145
0.09837705 0.09679658 0.091290586 0.11490956 0.11287196 -0.13924697 -0.10105871 -0.1017613
0.04359807 -0.071203515 0.14037655 0.06527997 0.022559106 -0.06706865 0.077979386 -0.07643392
0.09585555 0.07990049 0.21711427 0.080966115 0.19307226 -0.08558504 -0.11522204 -0.117274724
-0.05136384 0.14978221 -0.012116853 -0.05045694 0.057726365 0.12670991 -0.06796073 0.23452458
0.053267688 0.25310344 0.010278854 0.010012105 0.130129 -0.0340261 -0.11276612 0.07978744
0.065507784 0.094872385 0.053897724 0.07378693 0.10009441 0.05488752 0.047186643 0.033472158
-0.0060612205 0.007474049 -0.017650807 0.022329226 -0.036752336 -0.050613068 -0.038296074 0.05794459

fc2.bias f4 [64]
00000000: 7787 1fbd 6a03 a9bd a572 d6bd 56f5 d5bd
00000010: b873 0cbe 6bfd afbd 3baa d83d 082e a4bd
00000020: 10fd 773d a248 633c 8605 debd e1ad 4cbd
00000030: 056b 92bc d25d 39bc 23c2 e8bd 359c e23d
00000040: c80a c5bc 767f 86bd 9cbd 27be f19e 753a
00000050: d393 71bc 7c1c 3cbd 6a65 383e 163e f23c
00000060: c67c 3a3e 3bd2 113d 5dde 0d3e 546f 833d
00000070: d388 f6bc 9fa7 4e3d da07 de3c 2422 063e
00000080: 32da 9b3d bc4b bc3d 807f f2bd 8c3e 483d
00000090: 0ad7 943d c92b 9bbd fef7 163e 6971 c73d
000000a0: 8683 383d 8295 b4bd dbe8 1b3e cf1c c13b
000000b0: 83a6 3ebd 2ea3 903d 80ea 4e3d 90f7 863d
000000c0: 4c89 003e 2196 f7bc 12b2 74bd 02e0 183e
000000d0: 3f6f 413d d274 a4bd eb7b d43d f6cf 043e
000000e0: 4a3b b6bc efc6 87bd fbbd 94bd da24 683d
000000f0: 56f7 a0b7 1518 943d 6f59 4a3d 015a bebc
-0.03894755 -0.08252604 -0.104710855 -0.10447185 -0.13716018 -0.085932575 0.10579344 -0.08016592
0.060544074 0.0138722975 -0.10840897 -0.04997051 -0.017873297 -0.011313872 -0.11365154 0.110649504
-0.024052992 -0.0656728 -0.16380924 0.00093696924 -0.014744717 -0.045925602 0.18007436 0.02957062
0.1821166 0.035600882 0.13854356 0.064177185 -0.03009454 0.050452825 0.027103353 0.13098961
0.07609977 0.09194133 -0.11840725 0.048887774 0.07267578 -0.07576711 0.14743039 0.09738428
0.045047306 -0.08817579 0.15225546 0.005893327 -0.046545517 0.07062374 0.050516605 0.065901875
0.12552375 -0.030222954 -0.059740134 0.14929202 0.047225233 -0.08030094 0.10375198 0.12969956
-0.022245068 -0.066297404 -0.072627984 0.05667577 -1.9188661e-05 0.07231156 0.049401697 -0.023236277

fc3.weight f4 [7, 64]
00000000: 2594 563d 002a 62bb 664c 45be ca4c f43c
00000010: ba58 83be 2f08 8abc 1bbe f7bd 1459 6bbd
00000020: e266 91bd 67f5 53bd 335b 9b3e d661 b1bd
00000030: aec3 323d 5a57 e4bc affa db3d 2346 903c
00000040: 1f69 e63c 5178 41be 6f29 de3e 3f38 713e
00000050: c1e6 173d 8d62 f3bd f42c 1f3e 140d 033d
00000060: 9b00 cd3b dba4 f13e 6a87 62bd 6081 1c3d
00000070: ca3b 38be c2cb 6c3d 617a 7c3e a8af e9bb
00000080: eb2b 05be 1d60 b23d 271e c43e 74a3 39be
00000090: c98d b7bc 5c40 2a3e c7b6 1b3e 6314 e43c
000000a0: 8eeb 6a3f 825a 623e 9e7b e9bd 5a3e f8bd
000000b0: c66d b5bc 9f23 4e3d c33d 943d ca28 d43e
000000c0: 0036 5e3d 7d34 3f3d baf8 223c 981a 4fbd
000000d0: 40c2 00be efa9 2bbe 9cde 73bd 54d3 38bd
000000e0: fa84 9dbd 201f a13e dfa8 35bf 7f3f 443f
000000f0: 266d 8a3e 9368 ac3d 6e63 583d 2ded 0f3e
00000100: b37a c5bc efea 8dbd cc83 25be 286b 083e
00000110: 570a 4d3e 30b2 503e a3e2 023c 54e9 94bd
00000120: f7d8 17be 4b75 313b 59cf 1a3f 5bde 18bd
00000130: 3f7e 9a3d b63f 39bd 84fa 9dbd fe61 0c3e
00000140: 0c73 b2bd aacc 2e3e 463f 7abc ab8e b13e
00000150: fc9e 90bc 3227 673d c3d1 cc3d 4f8e bebd
00000160: b921 9e3d c93e db3e 334d 6bbe f576 43bd
00000170: 86b5 0dbe af4a 013e 4225 b33e 99e6 b3bd
00000180: 7040 a2bd bbcc 353b 280f 873d 2ae1 913b
00000190: d6d3 f0bc 3a62 aebe bee6 08b9 49b8 e23d
000001a0: 63d0 093f bdde 1e3f 357c c53c c621 d9bd
000001b0: 3645 00be 98d7 e4bd 44c9 c7bb 9f86 f73e
000001c0: bfb0 91bd 53d5 88bd 31eb 98bd 25d9 1ebd
000001d0: c7ae e13d c9d3 f8bd fbed 84bd fcaf a0bd
000001e0: 93f5 3e3d 6c7e 873e 57c1 11bf b619 c93e
000001f0: 2e23 da3e 7f4f 5ebd 3bff 2d3e b127 b2bd
00000200: 5aae 90bc 28b2 6c3d 22ec 25be 5313 0bbd
00000210: 9645 13be d94d ce3e 0574 693e d061 8b3c
00000220: 4711 90bc 8081 44be 6211 c23e c53f cabc
00000230: 28e7 bb3d 25f4 8c3d 8b0f 3aba 10c6 05bc
00000240: 2053 c43d 228e 00bf 4cb7 d0bd a43b 3e3e
00000250: 63cd fcbc 3fca c33d b137 9c3c 308e 09be
00000260: b0c9 75bd 2d22 37be 18d1 21bf e857 22bd
00000270: 6eb1 0bbc 0bab e2bd e703 c73e 38b8 e93d
00000280: 6520 e33c fd83 6a3d a44a dc3e a546 dbbc
00000290: 3ce4 d13d 6219 f13c 6236 58bd b1f9 c6bc
000002a0: a597 b23e f2c3 873e e44c 123d 5301 06be
000002b0: cabb c6bd bd4a 073e f473 493e ef7a dbbd
000002c0: 87da d83d d221 9c3d ef4a 0c3e 71ef 54bc
000002d0: 046e 4fbd 1067 f2bc 1a46 6b3c a821 933d
000002e0: ed50 74bc b96e 213e ca50 c4be d137 fd3e
000002f0: abf2 91bd b8ef 96bd 710a 12be b8e5 ad3e
00000300: bdb3 733c d02a fb3d f0a8 07bd 13e8 d33d
00000310: b9b8 b4bd acc9 973e 02d4 9a3e 08c8 4f3d
00000320: 80eb 533d 125b 99bd b7b3 f43e a277 3abd
00000330: 55f7 363d f74e afbc 85a2 8b3e d5b4 403d
00000340: b006 17bd 6e85 e93d bdc7 653e 7503 0abe
00000350: 7771 203d 422a b0bd b355 03bd dd3a da3d
00000360: cc67 62bd 0301 7c3f 71ca a0bd 4e30 92ba
00000370: e918 6ebb a91c 24be a35b b53e 0bfb 893d
00000380: 3f85 933d f968 48bd d853 dbbd 60c9 15be
00000390: ba52 033d ea19 db3e e45a acbd 2c65 0cbd
000003a0: b8b5 db3e cb9d 293d c828 56bd bba9 84bd
000003b0: bcef 83bd 184d 073e 808e 5abb ca1d b43e
000003c0: c679 22bd 72a6 0b3b 7a60 ebbd 0138 52bd
000003d0: 5cd1 983d da57 8a3e b382 ba3d 382d 28be
000003e0: 6905 4fb9 bb3f 8b3e 97df 55bf 267a 413f
000003f0: d155 253f ee72 db3d b978 223d efb2 1bbe
0.052387375 -0.0034509897 -0.19267425 0.029821772 -0.2565363 -0.016849605 -0.120968066 -0.057458
-0.070997015 -0.051747706 0.30343017 -0.08661239 0.043643646 -0.027873684 0.107411735 0.017611569
0.028126298 -0.18893553 0.43390986 0.23556612 0.0370853 -0.118840314 0.15544492 0.031994894
0.0062561757 0.47196087 -0.055304922 0.03820932 -0.17991558 0.057811506 0.24656059 -0.0071315356
-0.13005035 0.087097384 0.38304254 -0.18128759 -0.022406476 0.16626114 0.15206443 0.027841752
0.9176568 0.22104838 -0.11400531 -0.121212676 -0.02214707 0.05032694 0.072383426 0.4143737
0.054250717 0.046680916 0.009946996 -0.05056247 -0.125741 -0.16764043 -0.05953847 -0.045123413
-0.07691379 0.3146906 -0.709608 0.7665939 0.270364 0.084183834 0.0528292 0.14055319
-0.02410636 -0.06929576 -0.16163558 0.13322127 0.20023476 0.20380473 0.007988605 -0.07271066
-0.1482886 0.0027077969 0.6047264 -0.03732143 0.07543611 -0.045226775 -0.07713798 0.13709256
-0.0871335 0.1707026 -0.015273875 0.3467916 -0.017653935 0.056433864 0.100009464 -0.09304487
0.07721276 0.4282134 -0.22978668 -0.04772087 -0.13838777 0.12626146 0.34989363 -0.087842174
-0.07922447 0.0027740437 0.06594688 0.0044518905 -0.029397886 -0.34059316 -0.00013055929 0.11070306
0.538336 0.6205862 0.024107078 -0.10602145 -0.12526402 -0.11173934 -0.006096991 0.48344895
-0.0711379 -0.06681313 -0.07466734 -0.038781304 0.11019664 -0.1214977 -0.06490704 -0.07846066
0.046620917 0.2646364 -0.5693564 0.39277428 0.42604965 -0.054275032 0.16991894 -0.08698977
-0.017661262 0.05778709 -0.16203359 -0.033953976 -0.14382014 0.40293768 0.22798164 0.017014414
-0.017586363 -0.19190025 0.37903887 -0.02468861 0.09174949 0.068825044 -0.0007097653 -0.008164898
0.09586167 -0.5021688 -0.10191211 0.18577439 -0.030859655 0.0956006 0.019069524 -0.13433146
-0.060006797 -0.17884131 -0.63209677 -0.039634615 -0.008526189 -0.1106778 0.38870165 0.1141209
0.027725408 0.05725478 0.43025696 -0.026767084 0.102486104 0.029431049 -0.05278624 -0.024288984
0.3488132 0.26516682 0.03571786 -0.13086443 -0.09703787 0.13212104 0.19673139 -0.10716807
0.10588556 0.07623638 0.1370046 -0.01299654 -0.05064203 -0.02959016 0.014359975 0.07184154
-0.014911872 0.15764894 -0.38342887 0.49456647 -0.07126363 -0.073699415 -0.14261796 0.33964324
0.014874396 0.12264025 -0.033120096 0.10346999 -0.088242956 0.2964605 0.30239874 0.050727874
0.051738262 -0.074880734 0.47793362 -0.045524247 0.044669468 -0.021399958 0.2727243 0.047047455
-0.036871612 0.11402403 0.22439475 -0.13477881 0.03917071 -0.0860181 -0.03206415 0.106557585
-0.05527477 0.98439044 -0.07851113 -0.0011153312 -0.0036330766 -0.16026558 0.35421476 0.06737336
0.07203149 -0.048928235 -0.10709351 -0.146276 0.032061316 0.42793208 -0.084157735 -0.034276173
0.42912078 0.04141025 -0.052284986 -0.06477686 -0.0644221 0.13213003 -0.0033349097 0.35178977
-0.039666913 0.0021308926 -0.11493011 -0.05132294 0.07461807 0.2702015 0.0910696 -0.164235
-0.00019743074 0.2719706 -0.83544296 0.7557701 0.6458407 0.107152805 0.03966591 -0.15204976

fc3.bias f4 [7]
00000000: 6daf c63a eea4 3fbd 8340 81bd 14ee 873d
00000010: a57e b5bc 9a02 143e e5c1 0ebd
0.0015158482 -0.04678815 -0.06311133 0.06637207 -0.022155115 0.14454117 -0.03485288
