src/models/v3.0.0-simple_env_multiple_agent-20x20,2agent,0human,0shelf,1pickup,1dropoff.pth (torch, 253502 bytes, 10 tensors)

conv1.weight f4 [16, 10, 3, 3]
00000000: c1ef d73d e493 293e c5b2 2a3e dfcb ab3d
00000010: 80b7 ac3e ff14 ab3e 8330 993e 10b7 873e
00000020: 3079 68bd 8958 52bd 161e f03d e30b 393d
00000030: 3fe5 363d 1e55 1c3e 4443 e9bd e8cf 1a3d
00000040: ed23 5d3e 7643 febd df23 d6bd e212 4ebd
00000050: b025 7fbc b11e b73d d4d5 26bd 6d68 8bbd
00000060: b36e 5dbd 3a08 5c3d 3e59 4ebd 5efb a8bd
00000070: e804 983c da81 063d 7ca3 1ebd 2db7 51bd
00000080: 4845 993c f0e8 25bd de70 073d f4e4 8dbd
00000090: 86de c53d 6032 8bbd 540c 2a3e 61b0 563e
000000a0: d95f 27be 9e7c b23d 0b2c e9bc 09c3 cabd
000000b0: 9525 113d d723 393e 51c3 3cbe 21a9 92be
000000c0: fea1 9e3e 1382 90be d076 b6be 1020 863e
000000d0: 81ee 9ebe dbfe 9f3d e769 ab3d c989 5dbf
000000e0: dbd8 af3d 9412 073e 8660 67bf 3ff7 1fbd
000000f0: 0bd9 c5bd 7e42 8abe bcc8 49bd 7614 6ebe
00000100: d60d dfba bedc 8b3d e10a b4bd 9859 35bd
00000110: aa0f 1ebd 54c8 edbc 1efc 9ebc 10ce b8bd
00000120: 31a2 343e 1ad6 5bbe 9598 713e eb9b 4c3d
00000130: 551a 6fbe 351e 1a3e c54c fd3d a2b5 2cbe
00000140: c9de b83c e605 61bf 9fce 83be c4f5 e43d
00000150: ab8e 5b3e 42f2 923e dcf0 91bd 5a19 93bd
00000160: 02d7 51bd add2 19be d803 9b3d b260 283e
00000170: 73f4 5a3e 972f 8f3d bd54 283e af8c 803d
00000180: ac5d ed3d 8aac 87bd 28d1 9e3d 14b8 4c3e
00000190: fd0d 9fbc 3187 9f3c 2bb2 93bc e1ce 973e
000001a0: 4693 dbbd d38d c8bd c4c8 bebd 4b4a 103e
000001b0: b031 88bd 7812 38bc 866a 773d 4825 b3bc
000001c0: 62ce 3c3d 4121 cbbd a12d 923d d71c 39bd
000001d0: 5a8e 7c3d aca7 a73c 92fe 143d 40ad b7bb
000001e0: 7e42 8abd 6787 c3bd 44d8 a6bd 2203 71bd
000001f0: 78fc 493c 8894 633c 1a40 71be cfdc 5abc
00000200: ce3d a73b cf1e 8abd 855a 54be 93ee c3bd
00000210: e7c3 8a3d 215b 92bd 61f2 293e 82b3 babe
00000220: 2672 f8be ea46 0f3e b971 74be 5430 95be
00000230: cf85 c53d bd9f ffbc 9687 28be 78f7 cf3e
00000240: fde3 e9be 7ad9 f4be 42c2 7bbf d4ff afbd
00000250: 01b9 aebe fea0 99be 16af 2b3d 8700 babe
00000260: 1d8b 93bf 4a25 05bc d226 6dbc 401a babc
00000270: dd7b c2bc 8b51 b7bd 7c8b b43b cbe7 9f3d
00000280: 8afc 603d efc6 0dbe b9f4 b9be b9fe d7bc
00000290: 3eeb a73d fed3 febd 5b61 79bd f78e 03bc
000002a0: 8df6 8f3d 5058 9dbd 0fd4 2e3e bd83 6a3d
000002b0: 2e35 73be e13f 80be d118 92be f22d f73e
000002c0: dee7 243e 448a f1bd 7b26 86be e71e b8bc
000002d0: 3172 a8bd 47d2 9d3e a444 933e d3ee 2b3e
000002e0: dcd4 233e 6782 3e3e 7700 4e3e 663d 8dbf
000002f0: 9f5f 3e3e 49c9 64be 1dea 3ebe 8fd5 a8bd
00000300: d477 63be 928c 923e af12 04be 5b8f 3dbe
00000310: 25eb 813e 8d61 813d 3611 2d3d 7327 8e3d
00000320: 6e43 103d 3477 a53c d0e0 8dbd e8c4 08bc
00000330: 8067 4f3b 3204 8abd 4542 42bd f08b 22bd
00000340: 80e5 ceba 40e7 aabc 49de 8b3d c057 debb
00000350: 7cd4 d3bc 2ed1 bbbd 7af4 a9bd 3cc7 8fbd
00000360: 9d0c c83d 52cb b03d c5c3 6bbe a00b 873d
00000370: 7e31 8bbd bf5c 8dbd 2bc0 f83c 34cb 2dbd
00000380: 21b2 9c3d 686d da3d 5052 243e 91ba 893e
00000390: 482a 633d 88b5 13bd 9b26 883d 0f50 8e3e
000003a0: d2c7 683d fa8d cbbe 92db b63e ca32 69be
000003b0: 15a4 2abf b749 5c3e e705 5dbd 8bd5 6bbe
000003c0: b33d 20be e054 2bbe b63c e2bd ce96 a33a
000003d0: b929 a3bd 8382 30bc 541d 1dbd 877d 95bd
000003e0: 0cab 4b3d acdb c23d dbd8 aabd c4f1 06bd
000003f0: 2133 8d3d dff5 29bd e489 95be d872 84bb
0.10543776 0.16560322 0.16669758 0.08388495 0.3373375 0.33414456 0.29919824 0.26506853
-0.0567562 -0.051353965 0.117244884 0.04517735 0.04465222 0.15266845 -0.11389783 0.03779593
0.21595736 -0.12415211 -0.104560606 -0.050310977 -0.01557295 0.08941401 -0.040731266 -0.06807027
-0.05406065 0.053718783 -0.050378077 -0.082510695 0.018557027 0.03283868 -0.03873013 -0.05120008
0.018709794 -0.04050535 0.033066623 -0.06928435 0.096615836 -0.06796718 0.16606265 0.2096572
-0.16345157 0.08715175 -0.028463384 -0.09900481 0.03543623 0.18080078 -0.18433882 -0.2864466
0.30982965 -0.2822424 -0.35637522 0.26196337 -0.3104134 0.07812282 0.08369809 -0.8653837
0.08586284 0.1319068 -0.9038166 -0.03905415 -0.09660538 -0.27003855 -0.0492637 -0.23249993
-0.0017017673 0.068292126 -0.087911375 -0.044274896 -0.038589157 -0.029026188 -0.019407328 -0.09023678
0.17639996 -0.21468392 0.23593362 0.049953382 -0.23349889 0.15050586 0.12368158 -0.16866162
0.02256717 -0.87899625 -0.25743577 0.111796886 0.21441142 0.28700453 -0.071260184 -0.0718257
-0.051230438 -0.15021773 0.075690925 0.16443136 0.21382312 0.06991499 0.16438575 0.06276833
0.11590132 -0.06624706 0.07754737 0.19992095 -0.01941585 0.019473644 -0.018029293 0.29650024
-0.107214496 -0.09792676 -0.09315637 0.1409084 -0.06650102 -0.011234872 0.060404323 -0.021868363
0.04609526 -0.09918452 0.07137609 -0.04519352 0.061659195 0.020465694 0.03637559 -0.00560537
-0.06750964 -0.0954731 -0.08146718 -0.05884088 0.01232826 0.013890393 -0.23559609 -0.013358309
0.0051038032 -0.067441575 -0.20737655 -0.09566989 0.06775647 -0.07146288 0.16596366 -0.3646508
-0.48524588 0.13991895 -0.23871507 -0.29138434 0.096446626 -0.031204099 -0.16457972 0.4061849
-0.45681754 -0.4782217 -0.9834329 -0.08593717 -0.34125522 -0.3000564 0.04191502 -0.36328527
-1.1526829 -0.008126566 -0.0144745875 -0.022717595 -0.023740703 -0.089511 0.005509792 0.07807883
0.05492834 -0.13845418 -0.3631952 -0.026366578 0.08199166 -0.12442778 -0.06088386 -0.008029691
0.07029448 -0.0768286 0.17073081 0.05725454 -0.23750755 -0.25048736 -0.28534558 0.4827724
0.16104075 -0.1179395 -0.26201233 -0.022475673 -0.08224905 0.3082449 0.28763306 0.16790323
0.15999168 0.18604432 0.20117365 -1.1034362 0.18591164 -0.22342409 -0.18643995 -0.08243858
-0.2221368 0.28622872 -0.12897752 -0.18511717 0.25374714 0.063174345 0.04225274 0.06941118
0.035220556 0.020198442 -0.06927645 -0.008347727 0.0031647384 -0.067390814 -0.04742648 -0.039684236
-0.0015784949 -0.020862222 0.06829507 -0.006785363 -0.025858156 -0.09170757 -0.08298583 -0.07020423
0.09768031 0.0863253 -0.23023899 0.06594014 -0.06796549 -0.069024555 0.03036507 -0.042430118
0.07651163 0.10665399 0.16047025 0.2690015 0.055460244 -0.036061794 0.066479884 0.27795455
0.05683119 -0.39756757 0.35714394 -0.2277328 -0.6665662 0.21512495 -0.053960707 -0.23030679
-0.15648536 -0.16731596 -0.11046736 0.0012480856 -0.07966942 -0.010773304 -0.038358048 -0.07299333
0.04972367 0.09514555 -0.08342143 -0.03294541 0.06894518 -0.041494247 -0.29206765 -0.0040420108

conv1.bias f4 [16]
00000000: 7217 a03e ee9f b83e bbfc 693e ee07 483e
00000010: 94ea 613e 9bb3 9b3d a315 953e 1d6b 203e
00000020: 32cc 2b3e f19b 473e 80e2 7b3a fe81 083e
00000030: d44c 773e 384b 8f3e b21d 8b3e 53d9 f93d
0.31267887 0.36059517 0.22850315 0.19534275 0.2206214 0.076026164 0.2911807 0.1566586
0.16777113 0.1949308 0.0009608641 0.13330838 0.24150401 0.27987075 0.27171093 0.121996544

conv2.weight f4 [32, 16, 3, 3]
00000000: 384b 1bbd dfb2 313e bded 5c3e 3edf 053e
00000010: d245 e73e 1d2c ce3e 790c 6f3e 1420 0d3f
00000020: 0182 593e d225 b3be 3914 8d3e 2f77 fb3d
00000030: a89a 32be d3b4 de3e 72b4 ed3e ddab 4bbe
00000040: b526 dc3e 2f60 1b3f 3e81 dcbd fed6 f4bd
00000050: b9b6 ffbd a3d1 0fbd 2777 fc3e 5930 0e3d
00000060: 34fe a53d 9b29 273f 833a c83e 79bb 5e3e
00000070: 6ef7 723e ba67 d73e 4fbd 0abe 984e 093e
00000080: 52f4 9f3e 53df 12be a101 2b3e 501d b13e
00000090: fb68 83be 6b48 03be e294 993d 9ec9 9dbc
000000a0: 047f 4c3e 1cbb a83e 45f4 c53c 9cb7 c83e
000000b0: eb0a 053f 7143 c13d f00d f63d f9d3 16bd
000000c0: 2bb6 cc3d e298 883e 46bf a43e d65f dd3d
000000d0: 1260 c93e 4a7a d23e 43f6 1cbe 6cc9 753d
000000e0: 13f4 c23e 4735 a9bc 1de3 673e 7913 053f
000000f0: e328 803c c47b 033e b144 ba3e 3289 25bc
00000100: 8188 a8bc 2ec6 4d3e cf10 31bd 00d0 433e
00000110: 3832 ea3e 50fb 2bbc c6dd 123e 6583 8b3e
00000120: 7782 f83d 54e2 143e 7150 aa3e e446 08bd
00000130: b561 953e 2eb7 bf3e 8c77 2d3d ffb8 383e
00000140: 387a 4e3e b108 5e3e 7193 a63e b2de 193e
00000150: 7a62 8d3e ab63 ed3e 6508 a23e 32fc 423e
00000160: 08d0 cf3d 00ce f5bd aaf1 823e 491b 6e3e
00000170: 2f06 133e 1cb5 6a3d 22f2 be3e 2216 1b3e
00000180: b018 8f3c dcfd 383e b985 8cbe 3616 a1bd
00000190: 34e5 a23d e840 4b3e 547f debc b87e da3d
000001a0: 28d4 e63e fba2 6cbd 5cdd 143e 2233 123f
000001b0: 8f62 083e fc84 91bd 4ec4 35bd 6c97 193e
000001c0: dc36 7abb 7780 ac3d 3937 8e3d f9f3 da3d
000001d0: 207b 223e ebe0 e93c 2f33 a93d f215 1c3e
000001e0: b276 a93e c729 db3e e0d8 b03e 970c ad3e
000001f0: 0341 bf3e 6b50 d93e cb75 47be cb05 193d
00000200: c99d ad3d 93a3 27bd 3164 bb3d ca06 5a3e
00000210: f91a b33b 661c c33d 5a18 ce3e 2d54 25bd
00000220: 7fd0 afbc 72f7 223e 0b33 08bd c072 ba3c
00000230: 300a cb3e db26 78be 6dc6 ddbd c662 7f3e
00000240: d4d6 02be d07d e33e 05b5 cd3e 7800 abbb
00000250: 7dd1 fb3e 7b08 0d3f 563e 1fbd 77b4 893e
00000260: ff92 8f3e 2797 b5be 2804 aa3e 849b bc3e
00000270: 8a26 cabe 25bc e83e 3a7f 213f 0f7b c8be
00000280: 195f 923e a22f 123f c6e9 11be 453c 563e
00000290: 9355 bc3b fe0a 80bd f214 063f 5079 623e
000002a0: c500 a53c 00c1 b23e 75c4 d93e 9c8a 3bbd
000002b0: bfa4 3d3e 84db 163f c5f6 20be 5245 633d
000002c0: c3fe f13e 88c3 a3be cfef 923c bf95 b03e
000002d0: cfe0 16be 3ed1 3c3c 629a 383e 0aae a43d
000002e0: f37b ee3e 5788 df3e 2b9b 0bbe d8f0 ad3e
000002f0: 2e37 af3e 3cfd 803d 1d30 753d 6787 a8bd
00000300: b168 d83d 853b 083f cd13 573e 1827 323e
00000310: 981b c63e e830 cb3e cc42 24be d52b c53d
00000320: 7b1a ce3e 28d4 5abe 5ef4 9a3e ef6e fd3e
00000330: 8ea5 06bb 4027 a73d 68ba 943e 3f8c af3a
00000340: cfc5 3b3e 6010 563e a77a 64be 9593 b53e
00000350: 371b ef3e 3035 17be 775a a83e d28e 843e
00000360: 060d 383e 7f74 163e 6410 ce3e d7a7 1c3e
00000370: 269e e13e 7f83 ac3e 5dee 693d 514d af3e
00000380: 12a4 773e 40c3 9f3e bb4f e93e b6a9 d63e
00000390: 6c44 7f3e 7322 ed3e 8d87 973e 2966 523c
000003a0: dd6d a53e f145 a83d f9f6 313e 67cc 2b3e
000003b0: aab9 293c 6b16 a63e d274 043f 792a a9bd
000003c0: b854 ac3e 8a67 b33e 73e6 46be d0e8 88be
000003d0: b784 2b3e 493b 463e 5226 03be c33e 9d3e
000003e0: a087 1a3f 7ebd 94bd c0c6 653e a7b3 d13e
000003f0: ceac 28bc 2630 59bd 2cba bd3d 8546 893d
-0.03791353 0.1735339 0.21575065 0.13073441 0.45170456 0.4026803 0.23344602 0.5512707
0.21240999 -0.34989792 0.2755449 0.12278592 -0.17441809 0.43497333 0.4642673 -0.1988978
0.4299828 0.6069364 -0.107668385 -0.11955069 -0.124860235 -0.035112035 0.49309656 0.034714077
0.08105126 0.6529786 0.3910714 0.21751203 0.237272 0.42071325 -0.13548778 0.13408887
0.3124109 -0.14343004 0.1669984 0.34592676 -0.2566603 -0.12820594 0.074991 -0.019261178
0.19970328 0.32955253 0.024164328 0.39202583 0.51969784 0.094366916 0.12014377 -0.036823247
0.09995683 0.2667914 0.3217718 0.10809295 0.39331108 0.41108924 -0.15328316 0.060006544
0.3807684 -0.020655287 0.2264523 0.5198284 0.015644496 0.12840182 0.36380532 -0.010103511
-0.020572903 0.20095131 -0.04322892 0.19122314 0.4574144 -0.010496929 0.14342412 0.27248684
0.12134259 0.14539462 0.33264497 -0.03327073 0.29176107 0.37444443 0.042350337 0.1803932
0.2016381 0.21683003 0.32534364 0.15026358 0.27614194 0.46365103 0.3164703 0.19041517
0.10147101 -0.12002182 0.25575 0.23252596 0.14357828 0.057301626 0.37294108 0.15145162
0.017467827 0.1806559 -0.27445772 -0.078655645 0.07953873 0.19848979 -0.027160324 0.10668701
0.45083737 -0.057772618 0.14537567 0.5710927 0.13318847 -0.07105443 -0.044376664 0.14999169
-0.0038179671 0.0842294 0.06944127 0.10691065 0.15867281 0.028549632 0.082617156 0.15242746
0.3309837 0.4280531 0.34540462 0.33798668 0.37354288 0.42444167 -0.19478528 0.03735904
0.08477361 -0.04092748 0.09149969 0.21291652 0.005465862 0.09526901 0.40252954 -0.04036348
-0.021461723 0.15914705 -0.033251803 0.022759795 0.3965621 -0.24233572 -0.10828862 0.24940023
-0.12777263 0.44431925 0.4017717 -0.0052185617 0.49183264 0.55091065 -0.038877808 0.26895496
0.28041837 -0.35466883 0.33206296 0.368374 -0.39482528 0.45456043 0.6308476 -0.39156386
0.2858818 0.5710393 -0.14249334 0.20921429 0.005747506 -0.062520966 0.5237571 0.2211659
0.020141969 0.34912872 0.42532697 -0.045786485 0.18519877 0.58928704 -0.15719135 0.05548603
0.4726468 -0.31985116 0.017936615 0.34489247 -0.14734195 0.011524497 0.18027642 0.08041008
0.4657894 0.43658707 -0.1363341 0.33972812 0.34221786 0.062983006 0.059860338 -0.08228951
0.10566843 0.5321582 0.21003647 0.17397726 0.38692927 0.3968575 -0.16041106 0.09627501
0.40254578 -0.21369994 0.30264562 0.49498698 -0.0020545456 0.08161783 0.29048467 0.0013393237
0.18337177 0.20904684 -0.22312413 0.3546416 0.4670045 -0.14766383 0.3288152 0.25890213
0.17973718 0.14692877 0.4024688 0.15298401 0.4406597 0.33694074 0.057112087 0.34238675
0.24183682 0.3120365 0.45568642 0.41926354 0.24928445 0.46315345 0.29595605 0.01284174
0.32310382 0.08216465 0.17379369 0.16777192 0.010359207 0.3243898 0.51740754 -0.08260054
0.33658385 0.35039932 -0.19423847 -0.26740122 0.16749845 0.19358553 -0.12807587 0.30711946
0.603632 -0.07262705 0.22439098 0.40957376 -0.010295106 -0.053024434 0.09264025 0.06702904

conv2.bias f4 [32]
00000000: 38ae 393d 9927 a6ba 3f44 283d 5798 013d
00000010: 22ce a63d 6f5e be3c 5d4d bd3d 4e03 813d
00000020: cff5 07bb dbf0 a23d a7f9 bc3d 2a29 913d
00000030: d2f6 c13d 2215 b9ba 09dd 3c3d 1882 a53d
00000040: a640 973d 6da8 a13d 1306 0e3e 1472 ee3d
00000050: b3b3 463d 65d0 023e 635f ef3d 4c31 de3d
00000060: 548b cb3d cb96 7f3d b16b 053d 9cac b13d
00000070: 9f0c 953d 8008 de3d 369e 183d efed a53c
0.045332164 -0.0012676596 0.04108071 0.031639423 0.081447855 0.023238389 0.092432715 0.062994584
-0.0020745879 0.07956096 0.09227305 0.070879295 0.09470905 -0.0014120678 0.046109233 0.08081454
0.073853776 0.07893453 0.13869505 0.116428524 0.04851122 0.12774809 0.116881154 0.108492464
0.09938684 0.062399667 0.032573406 0.08675501 0.07277798 0.10841465 0.037260257 0.020255057

fc1.weight f4 [64, 800]
00000000: 8bc0 083c c60a 0e3d 79e3 b0bc cfdc 76bc
00000010: fd06 8d3c 5f4f f1bc bc39 b7bc b18f 083d
00000020: 5d9f f9bb d0c6 56bc 0e6a 083c 6092 1cbc
00000030: f013 5abc 7b36 8fbc 1074 29bc 548f 853c
00000040: a7b0 e2bc 6b34 943c 391c d73c bb5a 10bd
00000050: 86ce 58bc c12a 083d 4e73 aebb 06ee 8d3b
00000060: ec52 133c 648c b73c bc5c 66bc 5389 ff3c
00000070: 44d7 37bb be32 ea3c a373 973c fea6 d2bc
00000080: 28df d13c bf59 60bb 58f0 bb3c 9828 fabc
00000090: b9bd 3ebc 8511 82bc 6232 703b 64ba e4bb
000000a0: dbeb 9c39 4625 6e3c ceee 33bc d7ef d43b
000000b0: 0349 253c a329 ed3c d120 103d e281 c93c
000000c0: 9833 9f3c a0f0 083d b6c5 f63c 31e7 403c
000000d0: df1d ed3c 2371 d5bb 3f8d 00bc e1df 783c
000000e0: a51d 4fbb b7fd ab3c 884f 01bd c9e0 58bc
000000f0: 8685 52bc cf06 043d 9dab 143c f190 513b
00000100: 9712 98bc 0c04 9f3c 00f8 8a3b 7945 01bd
00000110: d9c6 0dbd b98d 01bd 0e7b f73c 0ddf d03c
00000120: 760b afba e859 debc 57a7 24bb 145c bc3b
00000130: b578 8e3c 3e98 243c 9217 493c 9a71 043d
00000140: 5b23 63bc 7400 8dbc f35a 863c f6b9 9e3c
00000150: daef f6bc 820f 833c b71f 07bc 838b 6e3c
00000160: 6ad6 45bc 85a8 f8bc c06e da3c ea61 acbc
00000170: 068e b13c 0f82 f3bb 516b 893c bfe3 debb
00000180: 494a babb 6c1d 01bc e51a 0dbd 2c8b 60bc
00000190: 3ae9 003d bde0 7fbc eba8 e33c 890b 753b
000001a0: 41c2 d73c 9409 b7ba 60dc acbc c518 883c
000001b0: daa5 b5bc d830 003c e7d1 d23c 4053 0b3d
000001c0: 0b8b b73c 60cf 0e3b a24b 173c ab55 b43c
000001d0: 5d10 b93a 7e78 debc b21f 0abd 7904 123c
000001e0: 9d06 9f3c 59e6 c43c 4f8b b3bb bca1 823b
000001f0: 0f98 bb3b 1cb8 fe3c 0227 f9bc 9774 843c
00000200: e24e a33c 4f07 a43c 920a e1bc 9941 06bc
00000210: 693c c9bc 3e26 493b 6aa3 c9bc 84d3 e43c
00000220: c84a 03bc 6fcb 95bc f1e8 ebbc 4a1c a4bc
00000230: 7c9a e73c be97 2dbc eae6 96bc a705 0e3c
00000240: 0431 c7bc 2947 0e3d 6d5b d5bc 8f20 a4bc
00000250: 784e 35ba 571d 8fbb 0882 e1bc 6728 66bb
00000260: 786b f23c 964d a33c 8217 0dbc 45a0 e7bc
00000270: cb18 59bb e0f9 08bc 2d3d 993b 9048 a4bc
00000280: 1354 9ebc d82e 43bc 6cae 0f3b 5ced 52bc
00000290: be0c babc 12e5 6e3a c36b 25bc 6595 593b
000002a0: 51f1 ce3c 483b adba 486e 6e3c 1b57 ba3c
000002b0: f590 6c3c 466b eebc e1be e4bc 0150 5cbc
000002c0: 22c6 ee3b 3dae e33c 5e81 09bd adc2 10bd
000002d0: b08e 963c 3e8f 96bb 6ba5 8abc ca6c d03b
000002e0: fe78 babb bccd 083d f953 383b 150f 12bd
000002f0: 7b25 fbbc d352 09bd 8775 493b 9609 f73c
00000300: ca4d 6dbc 76a7 abbb c7a3 2dbb 8657 a2bc
00000310: 44d7 cdba 4d1d c83c ccdc 8abc 5c15 563a
00000320: e2c5 e13c 48b5 4fbb 4895 813c 6aac a4bb
00000330: 6c89 f3bc c448 0cbd 67a6 c63c 75c9 5abc
00000340: e192 dd3c b246 a23c c62d da3c 16a6 053d
00000350: 4dbb 1839 b17f 05bd 2b7f dbbc 4519 9b3c
00000360: bc55 a1bc 3fa9 d5bb 7e4b f6ba 909d 30bc
00000370: 32c6 e13b 9add 20bc 9f46 4f3c 51e4 0bbd
00000380: 69ce 0cbc e09b 913c 7238 053d bc3e 833c
00000390: df04 abbc ab61 8cbb 7fd7 50bc f0ba 0d3d
000003a0: b15f 0bbd 4073 44ba 8227 a13b dc7b 843b
000003b0: a0e1 55bb 900b a83c 6a2f 7dbc 87d6 d2bc
000003c0: a09e e8bb 563a e6bc 0323 6abc 772e 23ba
000003d0: c7f9 773c 43ef cd3c cd70 d6bc 2993 efbc
000003e0: 79df e03c acdd d33a 2ceb 0abd 387a e03c
000003f0: 1820 813c 1fc3 0abd fe03 543c f753 f73b
0.008346687 0.034678243 -0.021592842 -0.015067293 0.017215246 -0.029456792 -0.022366397 0.03334016
-0.0076178745 -0.013108924 0.008326067 -0.009556383 -0.0133104175 -0.017482033 -0.010342613 0.016303696
-0.027672125 0.018091401 0.026258575 -0.035242777 -0.013232833 0.0332439 -0.005323804 0.004331353
0.008991938 0.02240581 -0.014060196 0.031193411 -0.0028051892 0.028588649 0.018487757 -0.025714394
0.025619105 -0.003423318 0.022941753 -0.030536935 -0.011641913 -0.015877495 0.0036651124 -0.0069802273
0.00029930365 0.014535254 -0.010982228 0.0064983177 0.010088208 0.028950518 0.035187546 0.024598066
0.019433782 0.033432603 0.030123573 0.01177387 0.028944908 -0.006513731 -0.007846176 0.015190096
-0.0031603363 0.020995004 -0.031569988 -0.013237187 -0.012849217 0.032233056 0.009074119 0.003197726
-0.018563552 0.01941111 0.0042409897 -0.031560395 -0.034613464 -0.031629298 0.030210044 0.025496984
-0.0013354856 -0.02714248 -0.0025124156 0.0057482813 0.017391542 0.010046063 0.012273686 0.0323349
-0.01386341 -0.01721213 0.01640079 0.019375782 -0.030143667 0.015998606 -0.0082473075 0.014559629
-0.012075046 -0.030353794 0.026664138 -0.021042783 0.021674167 -0.0074312757 0.016774805 -0.006802052
-0.005685125 -0.00788055 -0.034449477 -0.013705056 0.031472422 -0.015617547 0.027790507 0.0037390909
0.026337745 -0.0013964646 -0.021101177 0.016613374 -0.02217381 0.007824145 0.025734855 0.03401494
0.022405168 0.0021791086 0.009234341 0.022013506 0.0014119257 -0.027157065 -0.033721633 0.008912199
0.019412333 0.02403562 -0.0054792534 0.0039865654 0.005724914 0.03109365 -0.030414108 0.016168876
0.019935075 0.020023016 -0.02747086 -0.008194351 -0.024564939 0.003069296 -0.024614055 0.02793289
-0.008013435 -0.018285481 -0.028797599 -0.02003302 0.028271906 -0.01059526 -0.018420655 0.00866834
-0.024315365 0.034735832 -0.026044572 -0.020035056 -0.0006916295 -0.0043675113 -0.027527824 -0.0035119297
0.02959226 0.019934457 -0.008611562 -0.028274665 -0.003312635 -0.008360356 0.004676482 -0.020054132
-0.0193272 -0.011913024 0.0021924032 -0.012873974 -0.022711154 0.00091131136 -0.010096493 0.0033200618
0.025261553 -0.001321652 0.01455266 0.022746613 0.014438857 -0.029103886 -0.02792305 -0.013446809
0.007286803 0.027793044 -0.03357064 -0.035341907 0.018378586 -0.0045947125 -0.01692458 0.006360625
-0.005690693 0.03339933 0.0028126223 -0.035658915 -0.03065752 -0.033526253 0.0030740218 0.030155938
-0.014483878 -0.0052384688 -0.0026495324 -0.019817125 -0.0015704413 0.024428034 -0.016950987 0.0008166635
0.027560178 -0.0031693745 0.015818253 -0.005025436 -0.029728614 -0.034249082 0.024249269 -0.013353695
0.027047576 0.0198091 0.026633155 0.032629095 0.00014565625 -0.03259248 -0.026794037 0.018932948
-0.019694202 -0.00652042 -0.0018790809 -0.010779753 0.006890082 -0.009818459 0.012651115 -0.034153286
-0.008594134 0.017774522 0.032524534 0.016021125 -0.020876346 -0.004284104 -0.012746691 0.034602106
-0.034026805 -0.000749398 0.00491804 0.0040430855 -0.0032635704 0.020513326 -0.015453199 -0.02573706
-0.0070989877 -0.028103989 -0.014290574 -0.00062248803 0.015135235 0.025138503 -0.026176834 -0.029244976
0.02745031 0.0016164086 -0.033915684 0.027402028 0.015762374 -0.03387749 0.012940405 0.007547851

fc1.bias f4 [64]
00000000: 4c48 103c 7205 6abc c437 3a3d 08a3 a2bc
00000010: 07b1 323c aeac 0a3d 70f1 9f3b 7734 cd3d
00000020: c948 8cbc c26d 3ebc 8460 81bc 0996 b13c
00000030: 0616 c03d d8bc 913d f2d5 f83c 8cca fe3c
00000040: d14d 123b 5a61 963c 3a39 813d 3f6a b0bc
00000050: 9089 d7bb b7ba df3c 1518 79bc 8ea8 5bba
00000060: 806d a6bc b653 473d 06b2 8b3d 5a0c 633c
00000070: 8770 e33c 74c1 333c 21a4 67ba d72b 22bc
00000080: e0b8 0abc 1540 3e3d 27e2 203d 4228 90bc
00000090: 7261 dcb9 1442 283d 0d77 093c 403b 8e3d
000000a0: 2475 503c 8c21 2b3d b10c 893c 845b ed3c
000000b0: 2019 a03d df96 f53a 2757 09bb 9fc2 2e3d
000000c0: 848c 1b3d 6817 a23d b0af c93d a6f2 a03b
000000d0: 5051 d53c abc0 ba3b 8da7 2d3d 7323 9b3d
000000e0: e81b 8e3c 7886 633d ce53 c23c da50 223c
000000f0: 9d5a c23c ca80 0e3d 400e 12bc 5b9c d53c
0.008806299 -0.014283525 0.04546334 -0.01985313 0.010906464 0.033856086 0.0048810765 0.100197725
-0.01712455 -0.011622848 -0.015793093 0.021677988 0.09379201 0.07116097 0.030375455 0.031102441
0.0022324214 0.018356968 0.06309743 -0.021535037 -0.006577678 0.027310712 -0.0152034955 -0.00083793036
-0.020315886 0.048663817 0.06821065 0.013857925 0.027763618 0.010971416 -0.0008836408 -0.009898148
-0.008466929 0.046447832 0.039278176 -0.017597321 -0.00042034272 0.041078642 0.0083902 0.06944895
0.012723241 0.04178004 0.016729685 0.028974302 0.07817292 0.001873698 -0.0020956488 0.042666074
0.037975803 0.07914621 0.09847963 0.0049117384 0.02603975 0.0056992373 0.042396117 0.07575121
0.017347291 0.05554816 0.023721602 0.009906972 0.023724848 0.03479079 -0.00891453 0.026075533

fc2.weight f4 [64, 64]
00000000: f7c2 e7bd 4847 e0bc 37d1 f4bd a0e3 12bc
00000010: 80ea acbd a07e fb3b 4c9f 56bd d63b 573d
00000020: 00e5 473d 7d12 05bd 62fa 7c3d 6c96 df3d
00000030: bd35 293d fad1 fe3d c823 d1bd 1439 993d
00000040: 190a 323b a0b6 533c 9de4 a8bd b792 933d
00000050: f9f6 5bbd 6183 a43d 8cb4 fbbd b0e2 743d
00000060: bc67 7c3d 0612 1bbd a87c 9c3d 1c34 c83d
00000070: 1e24 233e 5ab0 b63d ca48 d9bd 51c4 b33d
00000080: 432b 4ebb 2577 21be 15a1 ea3d 20f0 1c3c
00000090: ec43 c03c 07ba 7b3d 7954 3ebc ae0b 0ebd
000000a0: 8019 67bb 3712 e2bc 31dc adbd e48c 303e
000000b0: 16f1 b33d bb2d 233e 1841 fcbd 63e6 c43d
000000c0: 98e1 ef3d 220c c13d 52b5 3d3d 8014 e33c
000000d0: c8c4 e33d 2232 9d3d a3e9 173d c6ec 3ebd
000000e0: ef92 153d 7762 1f3d 3e16 453d fc8d 4a3d
000000f0: 28e3 8fbd 6458 5a3c 60ca b33d 09d3 a3bd
00000100: 3e76 8c3d 7824 933d 803b 8fbc f8c5 823d
00000110: 9415 e93d 34c2 02bd 383c f6bc 3d79 bbbd
00000120: 764b 9d3d e4d8 603d ec0f 2ebd 5e6f 9bbd
00000130: eb3e 163d 0db1 c1bd 6278 ddbd 6c27 153d
00000140: fa64 82bd 14b8 023d 1e3a e4bd 40a7 f8bc
00000150: 240c 243d f18e cc3d 349c 7f3d 782e a43c
00000160: 4006 82bb 19d8 0dbb 4e5d 293d 707f 4dbc
00000170: 8e64 573b 00e4 d639 a09b 2ebd 581f 26bd
00000180: 847a d93d eb9a ac3d d2ea 5ebd 2ca8 4a3d
00000190: 60ab 84bd d990 f2bc 7bf5 ffbd 3a9d 7cbd
000001a0: c07d 393d dce8 d0bb 2450 4fbd 9b13 d23d
000001b0: 027b f53d 0391 b53d 7cee 023d 3329 fcbb
000001c0: 1f96 c9bd 3065 a43d 7162 f73c 7e80 abbd
000001d0: 1e7e ce3d 3a07 c0bd 2389 02be c893 efbd
000001e0: 2161 bf3d 0ba6 00be c3d9 c5bd 9461 c7bd
000001f0: 0fb1 8dbd ca22 86bd 78f2 9e3d 0506 bbbd
00000200: d093 de3c a0be ab3c ecf9 e93c 487d bcbd
00000210: b145 fbbd 1ef4 e73d 287a 723d 53f8 ee3d
00000220: 565d 843d bf93 eebd 1c0b f63d 14db 93bd
00000230: 634d 9ebd 2c66 cebd b0d6 aa3c c0c1 a63c
00000240: f21c 213c 0054 f0b9 e779 12be 6b9b eb3d
00000250: 21cb a6bc d72b c03c 28f8 6cbd c67b e03d
00000260: 6038 e23b 063c 47bd db20 2bbe c5e8 02bc
00000270: fa7d a83d 544c 0fbd 00a9 97bd fbdf 8bbd
00000280: ec70 f7bd 02e6 78bc b035 0d3d 00ea 75ba
00000290: 991e b0bd 852a 293e 8188 613e afdf 6dbd
000002a0: 96ff d8bd 93c3 3a3e 0c1f 093d 148a 2c3e
000002b0: 265f 503e 7271 383e f83b efbc 00d7 8dbd
000002c0: 12a1 043e c732 27be 48cf 4ebd b01f 823d
000002d0: 7013 5fbd 50c9 b23d f083 7ebd 38a6 823e
000002e0: f6a6 d03d 25d9 183e cdcc 81bc bcfe 20bd
000002f0: 2f45 463e 710d 8cbd c030 99bc 7b27 3d3e
00000300: c072 58bd ac44 5d3d 7a0e 2f3e 7088 5c3c
00000310: 4439 2cbc f0b2 063c fea8 b8bd 22c1 1d3d
00000320: e879 c93d 493d c63d 8ff6 ba3d b455 eb3d
00000330: 4b97 e73d fedf 0ebe def7 cebd 3a68 d0bd
00000340: e493 323d 26d3 91bd 562a 263e 81b1 853d
00000350: e0cd b83c 8a7a 67bd a8b3 9f3d 6389 9cbd
00000360: ea4f c43d 2e52 c43d 54ca 5d3e 5912 993d
00000370: 597c 4f3e 3647 afbd 88f9 ebbd bb2d f0bd
00000380: e462 52bd 711a 1d3e 190e 2f3a f0ab 4ebd
00000390: 7b72 6c3d 9b4b 013e ad04 44bd f567 463e
000003a0: 382f 5a3d 03cb 743e a368 283c 6442 853c
000003b0: 6c29 053e b01d 22bd ecf1 e6bd 0d08 b63d
000003c0: ccfc b03d 5293 b83d f421 893d 9a1d 973d
000003d0: 4cfe cc3d bcd1 603d af6b cb3c 90cd 583d
000003e0: abdd 0f3d 7793 193d 9de0 a1bc c8eb b63c
000003f0: b0a3 a5bc 1833 89bd 58dc 1cbd 9e73 8a3d
-0.113164835 -0.02737774 -0.11953967 -0.008965403 -0.08443165 0.007675007 -0.05239801 0.0525473
0.048802376 -0.032488335 0.06176222 0.109173626 0.041311014 0.124423936 -0.10211903 0.0748159
0.0027166663 0.012921959 -0.082467295 0.07205718 -0.05370233 0.08032871 -0.12290296 0.0597865
0.061622366 -0.037858985 0.07640964 0.09775564 0.15931746 0.08920355 -0.106095865 0.08777679
-0.0031458891 -0.15768106 0.11456505 0.009578735 0.023469888 0.061456706 -0.01161682 -0.034679107
-0.0035263002 -0.027596576 -0.08489264 0.17241246 0.08786218 0.15935414 -0.12317103 0.09614255
0.117129505 0.09426142 0.0463155 0.027719736 0.111215174 0.07675578 0.037088048 -0.046612523
0.03651708 0.038912263 0.048116915 0.049451813 -0.070257485 0.013326738 0.08778834 -0.07999236
0.068584904 0.0718469 -0.017484426 0.06385416 0.11381069 -0.031923488 -0.030058011 -0.09153984
0.07680409 0.054894343 -0.042495653 -0.07589601 0.036681097 -0.09457598 -0.10813977 0.03641455
-0.06366916 0.03191383 -0.111438975 -0.030353189 0.04005064 0.099882014 0.062404826 0.02004169
-0.00396803 -0.0021643697 0.041348748 -0.0125425905 0.0032866332 0.00040987134 -0.042628884 -0.040557235
0.10619071 0.08427986 -0.05442316 0.049476787 -0.06478 -0.029610084 -0.124979936 -0.06167338
0.04528594 -0.0063754153 -0.050613537 0.10257646 0.119863525 0.088655494 0.031965718 -0.007695341
-0.098430865 0.080271125 0.030198308 -0.08374117 0.10082649 -0.09376378 -0.12747626 -0.11698109
0.09344698 -0.1256334 -0.096606754 -0.097354084 -0.06918537 -0.06549604 0.07761091 -0.091320075
0.027170092 0.02096492 0.028561555 -0.09203583 -0.12269152 0.113258585 0.05919853 0.11668458
0.06463115 -0.11649274 0.12013838 -0.0721952 -0.07729604 -0.100780815 0.020854324 0.02035606
0.009833561 -0.00045838952 -0.14304315 0.11504253 -0.020360531 0.023458404 -0.057853848 0.10961108
0.006903693 -0.048641227 -0.16711752 -0.007990067 0.08227153 -0.0349849 -0.07405281 -0.0682983
-0.12082085 -0.015191557 0.03447503 -0.0009380877 -0.08599586 0.16520126 0.22024728 -0.05807465
-0.10595624 0.18238668 0.033476874 0.16849548 0.20348796 0.18012026 -0.0292034 -0.069257736
0.12952068 -0.16327964 -0.050490648 0.063537 -0.054461896 0.087298036 -0.062137544 0.2551744
0.10188095 0.14926584 -0.015844727 -0.039305434 0.19362329 -0.06838501 -0.018700004 0.18472092
-0.05284381 0.05402057 0.17095366 0.013460264 -0.0105117 0.008221373 -0.09016608 0.038514264
0.09837705 0.09679658 0.091290586 0.11490956 0.11308154 -0.13952634 -0.10105871 -0.1017613
0.04359807 -0.071203515 0.16227087 0.06527997 0.022559106 -0.056513347 0.077979386 -0.07643392
0.09585555 0.09585987 0.21659213 0.07474203 0.20262279 -0.08558504 -0.11522204 -0.117274724
-0.05136384 0.15342118 0.0006677821 -0.05045694 0.057726365 0.12626497 -0.04785602 0.19375594
0.053267688 0.23905568 0.010278854 0.01626701 0.13004082 -0.039579093 -0.11276612 0.08888254
0.08641967 0.09012474 0.06695929 0.07378693 0.10009441 0.05488752 0.024831621 0.052930415
0.03512351 0.03749415 -0.019760424 0.022329226 -0.020219654 -0.066991985 -0.038296074 0.067603335

fc2.bias f4 [64]
00000000: 2ac7 48bd cd9d a7bd dbf7 0bbe f770 bebd
00000010: 416b 06be f51e 59bd 80ed da3d 082e a4bd
00000020: a4a0 843d d846 ccbc 9052 b4bd e1ad 4cbd
00000030: 056b 92bc cbf4 8abc 5a9d d6bd ae0e 013e
00000040: 3d13 b8bc c784 bebd d557 1cbe ebf3 6d3c
00000050: f464 aebc 5d9f 31bd c0c2 473e 090b a13c
00000060: e7fd 323e 8938 113d 42b2 db3d 546f 833d
00000070: 6fa5 5abd fbcd 293d 63c2 253d 7856 143e
00000080: aafa 963d bc4b bc3d 7222 dbbd 1b7d d93c
00000090: 0ad7 943d 536e 92bd e266 133e 6971 c73d
000000a0: 66ed 573d 9a92 8dbd d9de 103e 6507 02bd
000000b0: d4ad 99bd f9de bb3d 7c2f 9e3d a20f 863d
000000c0: ba08 093e d00d 61bc 5974 68bd 035c 013e
000000d0: 3f6f 413d fe46 b0bd ce5a d73d ad7a f83d
000000e0: 4a3b b6bc 4861 53bd d55b 99bd f832 873d
000000f0: 4626 843c 1518 943d 01ff 363d f75c 9ebc
-0.049018063 -0.08184395 -0.13668768 -0.0929889 -0.13126852 -0.05300804 0.10689831 -0.08016592
0.06475952 -0.024936125 -0.0880481 -0.04997051 -0.017873297 -0.01696243 -0.10479231 0.12603256
-0.022470111 -0.09302669 -0.1526788 0.014523487 -0.021288373 -0.04336487 0.19507885 0.019658582
0.17479669 0.035454307 0.10727359 0.064177185 -0.053380426 0.041456204 0.040468585 0.1448611
0.07372029 0.09194133 -0.10699929 0.026548913 0.07267578 -0.07149949 0.14394715 0.09738428
0.052716635 -0.06912728 0.1414751 -0.031745333 -0.07503858 0.09173388 0.07723901 0.065459505
0.13382235 -0.013736203 -0.056751583 0.12632756 0.047225233 -0.08607291 0.105153665 0.121327735
-0.022245068 -0.051606447 -0.07488219 0.066015184 0.016131531 0.07231156 0.044676784 -0.019331438

fc3.weight f4 [7, 64]
00000000: 6712 523d 002a 62bb 68f4 3dbe 3d6b ca3c
00000010: 72d8 91be a4df 81bd d72e f5bd 1459 6bbd
00000020: 83e0 62bd 815d 15bd 99a0 0f3e d661 b1bd
00000030: aec3 323d f128 f6bc 6910 043e ccf7 403c
00000040: 1f69 e63c 6fe2 09be aba8 e13e b43e 5f3e
00000050: 9d6f 3e3d db89 fabd a242 233e d8ca 1f3d
00000060: 67e7 773c 92e3 c63e 655f c4bd 6081 1c3d
00000070: dd18 2bbe edf9 913d 6c5b 1f3e 9d34 71bc
00000080: 75e6 28be 1d60 b23d 5105 b33e 5c21 2dbe
00000090: c98d b7bc 5ec5 f73d 48fc 233e 6314 e43c
000000a0: b172 553f 1e19 6a3e f358 06be db4f f8bd
000000b0: 880b beb9 747e 753d 8fdb 923d edd1 933e
000000c0: 4d73 3e3d 11a6 493d 68a2 b93c 40a2 82bd
000000d0: 40c2 00be 99a1 52be d180 5abd e2dc edbc
000000e0: fa84 9dbd 7099 b83d 80d8 1cbf 69ca 3a3f
000000f0: a6bb 013e 9368 ac3d e6ad 603d bf88 b63d
00000100: c9fc c3bc efea 8dbd d02e 1cbe 6525 0a3e
00000110: db94 083e 8385 3b3e 704c 8ebd 54e9 94bd
00000120: fa5f 0fbe f7e7 cfbb b294 153f 5bde 18bd
00000130: 3f7e 9a3d bc6f 25bd 45d2 9bbd 8503 093e
00000140: 0c73 b2bd b11e ec3d 50ab 94bd af6f 7d3e
00000150: ec9f 8bbc 464a 6e3d 374e c73d 3fa7 b6bd
00000160: e548 913d e872 9f3e c63f 6bbe f576 43bd
00000170: 3492 fdbd 993e fa3d 4492 ab3e 3f33 9ebd
00000180: 1970 82bd bbcc 353b b2f0 4d3e 44e5 b13a
00000190: d6d3 f0bc 887a a1be e050 88bb 49b8 e23d
000001a0: 9996 cd3e 271c 043f cff9 f83c ace8 d8bd
000001b0: 908c fabd ae1e d3bd 90cf 42ba b885 843e
000001c0: 361b 87bd 8666 80bd 3586 7bbd f0bb 08bd
000001d0: c7ae e13d 2d51 dfbd eb6c 7cbd c380 94bd
000001e0: 93f5 3e3d d6fc 173e d759 31bf fdaa c93e
000001f0: 0999 5d3e 7f4f 5ebd 8f5e 203e b378 03be
00000200: 2a82 15bc 28b2 6c3d 8909 0ebe 9098 1dbd
00000210: 037b 6f3c b68b b93e 92de e53d d061 8b3c
00000220: 1009 fcbb 0f67 22be ade1 9c3e c53f cabc
00000230: 28e7 bb3d 363c 993d fa24 453d e148 77bc
00000240: 2053 c43d db76 c7be 7593 c5bd 0fee a13d
00000250: 8007 fdbc 9f9c b93d 24c0 973c c720 06be
00000260: a3f4 74bd 01de 17be b2f6 f9be e857 22bd
00000270: 024e 463c de36 dabd aaf9 863e f62f ca3d
00000280: 275f 0b3c fd83 6a3d 01d2 1a3e f9c8 95bc
00000290: 3ce4 d13d 4536 ef3d 2530 45bd b1f9 c6bc
000002a0: 0e9d cb3e aad2 503e 7ed9 d83c 16b5 f9bd
000002b0: 4176 9dbd 3eb5 113e 498e 423e 3a3a 8ebc
000002c0: 4b54 cf3d bfa4 953d 648b 183e a7f0 86bc
000002d0: 046e 4fbd 9809 23bd 9cbc b73c 8e7d a43d
000002e0: ed50 74bc d5a4 4d3d 865a 8ebe f4a5 c23e
000002f0: a08e 52bb b8ef 96bd e11e 0abe 7adb 8b3e
00000300: 5f14 ac3c d02a fb3d d9c9 47bc 9e34 cb3d
00000310: 1e21 f6bd 92af 913e eba7 583e 08c8 4f3d
00000320: 0b23 9d3d fc91 7cbd a025 a93e a277 3abd
00000330: 55f7 363d fcc7 cebc 5471 863e f263 2a3d
00000340: b006 17bd 888d 2e3e a697 393e 1857 70be
00000350: 08d5 273d 80bf acbd 4ff3 15bd 6962 ed3d
00000360: c60d 51bd f1fc 743f d0a8 a03d 4e30 92ba
00000370: 1cfd 783c c999 1fbe bb08 913e c220 9a3d
00000380: 5d4b aa3d f968 48bd f1a9 95bd 062e 01be
00000390: ba52 033d 7130 963e 55b1 b2bd 2c65 0cbd
000003a0: 671f cd3e 0e8b 8c3c 6762 32bd 9646 40bd
000003b0: aa33 43bd 16f7 0c3e 1102 b2bb 5ded 3b3e
000003c0: 214a 22bd 2b39 f73b 4524 83bd db1a 32bd
000003d0: 5cd1 983d a648 8c3e 2ab1 ca3d b3a5 19be
000003e0: 6905 4fb9 e9b6 223e fccd 63bf 03d7 3b3f
000003f0: af05 f93e ee72 db3d 1116 f43c fc85 3dbe
0.05128708 -0.0034509897 -0.18550265 0.024709338 -0.28485447 -0.06341484 -0.119718246 -0.057458
-0.055389892 -0.036466125 0.14026107 -0.08661239 0.043643646 -0.03004882 0.12896885 0.011777829
0.028126298 -0.13465284 0.44073996 0.21801263 0.04649316 -0.12233325 0.15943387 0.039011806
0.015130854 0.38845497 -0.095885076 0.03820932 -0.16708703 0.07127748 0.15562218 -0.014722017
-0.16494162 0.087097384 0.34964994 -0.16907257 -0.022406476 0.12098192 0.16014206 0.027841752
0.8337813 0.22861144 -0.13119869 -0.12124606 -0.00036248215 0.05993505 0.07170784 0.28871098
0.04649668 0.04923064 0.02266045 -0.06378603 -0.125741 -0.20569457 -0.053345505 -0.02903599
-0.07691379 0.09013641 -0.6126785 0.72965103 0.12669238 0.084183834 0.054853342 0.08912801
-0.023924248 -0.06929576 -0.15252233 0.13490827 0.13338034 0.1831265 -0.06948173 -0.07271066
-0.14001456 -0.006344791 0.58430016 -0.03732143 0.07543611 -0.04038976 -0.07608465 0.13380249
-0.0871335 0.115292914 -0.07259238 0.24749635 -0.01704403 0.0581763 0.09731715 -0.089186184
0.07093982 0.31142354 -0.22973546 -0.04772087 -0.12381402 0.12218971 0.3351003 -0.07724618
-0.06369037 0.0027740437 0.20111349 0.0013572355 -0.029397886 -0.31538796 -0.0041600317 0.11070306
0.4015396 0.5160546 0.030392556 -0.10591254 -0.122338414 -0.10308586 -0.0007431442 0.2588327
-0.06596987 -0.06269555 -0.061407287 -0.033382356 0.11019664 -0.10904155 -0.06162731 -0.07251122
0.046620917 0.14842543 -0.6927771 0.39388266 0.2164041 -0.054275032 0.15661071 -0.12839012
-0.009125272 0.05778709 -0.13870825 -0.038475573 0.014616731 0.36239403 0.112240925 0.017014414
-0.00769151 -0.15859626 0.30640927 -0.02468861 0.09174949 0.074821874 0.048130967 -0.015093059
0.09586167 -0.38957867 -0.09647266 0.07906734 -0.030887365 0.09063076 0.018524237 -0.13098441
-0.059803616 -0.14830782 -0.48821026 -0.039634615 0.012103559 -0.10654996 0.26362354 0.09872429
0.008506573 0.05725478 0.15119173 -0.018284308 0.102486104 0.11680273 -0.048141617 -0.024288984
0.3976826 0.20392862 0.026470896 -0.121927425 -0.07688571 0.14229295 0.1899959 -0.017361749
0.101234995 0.073068134 0.14896923 -0.016472174 -0.05064203 -0.03980407 0.022428803 0.0803176
-0.014911872 0.050206024 -0.2780344 0.38017237 -0.0032128468 -0.073699415 -0.13488342 0.27315885
0.021005807 0.12264025 -0.01219412 0.09922145 -0.12018035 0.28454262 0.21157806 0.050727874
0.076726995 -0.06166266 0.33036518 -0.045524247 0.044669468 -0.025241844 0.26258337 0.04159922
-0.036871612 0.17046177 0.18124256 -0.23470724 0.040974647 -0.08434963 -0.03660899 0.11591036
-0.051038526 0.9569846 0.078446984 -0.0011153312 0.015197065 -0.15586008 0.28326973 0.07525779
0.08315156 -0.048928235 -0.073078044 -0.12615213 0.032061316 0.29333833 -0.0872523 -0.034276173
0.4006302 0.01715615 -0.043550875 -0.046942316 -0.047656693 0.13766131 -0.0054323752 0.18352266
-0.039621476 0.0075446567 -0.06403402 -0.043482643 0.07461807 0.27399176 0.098970726 -0.15004615
-0.00019743074 0.15890087 -0.8898618 0.73374957 0.4863715 0.107152805 0.029795678 -0.18508142

fc3.bias f4 [7]
00000000: ec23 703c 29dd f8bc e718 08bd 5984 a53d
00000010: 9d50 a2bc e18c 083e cfb8 83bc
0.014657002 -0.030378895 -0.033226874 0.08081884 -0.01981383 0.13334991 -0.016079335
