src/models/v3_simple_env_multiple_agents_10x10_2agent_0human_0shelves_1pickup_1dropoff.pth (torch, 253488 bytes, 10 tensors)

conv1.weight f4 [16, 10, 3, 3]
00000000: a205 283e 0381 28bf 2ef0 843c fa9d 2cbf
00000010: 50c2 433e e76e 393e 2d64 3a3e 1281 083e
00000020: 151d c13e 6dcc 0c3d 09ee d33e 3345 3fbe
00000030: cb29 d93e e6b8 19be 60a9 9e3d a54f 59be
00000040: 169b d8bd 0df8 a43d 22b9 263d 2e4b 2b3d
00000050: b5dd a23d aaca 4d3d 908a 103c e874 81bd
00000060: 2195 b33d 66bd 583d 34b1 16bd 0055 ceba
00000070: 203d 69bc ab5d 33bd 18fe 28bd 60a8 e2bc
00000080: 8e64 133d 964b 463d 9253 5e3d ddba cfbd
00000090: bed3 653e 79fe 33bc de6a 953e 1dbe 49bf
000000a0: efcc bcbd 844a 0e3d 4ea3 43be 3cfb abbd
000000b0: 9a21 d9be e126 823e dbb8 c0be 78a3 98be
000000c0: 60ed b5be 488f 4bbe fbda c83d de56 72be
000000d0: dc9b 5dbe 8d7d 4a3e 8fc5 bdbd f16c 52bf
000000e0: cb9e 0ebd ec09 283e 2cb3 a03e fe29 1f3d
000000f0: 4880 2c3e 6a96 463e 75eb 01be 740e 3d3d
00000100: b4fc c13d 9176 983b 0764 493e c76e 563d
00000110: 4c28 6b3d c566 733c 3259 cfbd 6e15 03be
00000120: e22b 4c3e a643 68bd 053f c63e 7744 39bf
00000130: 2605 48bd b40b 023e 5441 47bd 156c 27be
00000140: 31cf ebbe 650d 1d3c 416e a03e 3f76 f13c
00000150: 89f8 513e 0135 11bd 5be6 b5bd cbe9 aabe
00000160: a03f a4bd 7ef1 82be f4d1 853e fb5d 8f3e
00000170: 075d 003d 4507 a43d fbef 27be d623 0ebd
00000180: bd07 133d e484 823d 9c2e 04bd f27c 153f
00000190: f071 82be b731 ee3e ad7e 1ebe e33f bf3c
000001a0: 22d1 6a3e 0639 15bf 90be 083d 895d 213e
000001b0: c298 023d 9cc7 aebd 7210 5f3d 11c5 64bd
000001c0: a48a f13c f0c0 9cbc b5e0 ad3d 200b 13bb
000001d0: 1c11 bd3c 8432 82bc 2b85 9bbd c078 d1bb
000001e0: 2c00 e83c 1488 d9bc d8b5 d6bc d956 b13d
000001f0: 1bf2 c83d b495 e7bc 766b 0f3e 4b20 0dbf
00000200: c481 323e bcc2 37bf 2fdb 32bf a9f9 7bbe
00000210: bdae d0bd fe38 92be 270f 84be d319 7cbd
00000220: 1565 74be ccf3 6c3e 0607 73be 5b0c a0bd
00000230: 23a4 893d e860 0a3f 4c81 ba3e a40e 193f
00000240: bfe0 b9bd 4d9d e63e 4cc5 eabe fa5d 773e
00000250: b7d7 e53e ea7c b33e da3a 203e 8c4b 363d
00000260: 9ce1 393f ab2a f93d 7164 dcbc 5471 dc3d
00000270: d576 8a3c ebd5 863d de79 903d e6a6 ae3d
00000280: 32a9 703d 18af 673d 8950 fb3d 3348 fbbe
00000290: 81ce 2f3e a04c 0dbf e287 4cbf 0235 c6bd
000002a0: 040a 42be 9044 e3be c141 96be ab2b 10bf
000002b0: 606d 20be c1e6 5bbd 0aef 15be bf6b 123e
000002c0: 29a2 2b3e ba5f a0be cbee 233e 8f30 54be
000002d0: 7260 7b3e 8877 f13d 0480 6a3e fc34 94be
000002e0: 10cb e73c bea7 f3be 9aa0 9d3e 7507 463e
000002f0: 38c5 803e c50b bbbe 42c9 00bf c78f 133d
00000300: e07f 93be 0533 d83d 373c 4f3c 2fed 99be
00000310: b8d5 00bd ccbd fcbc 35bf 94bd 9ab4 3cbd
00000320: ce81 723d c126 65bd 7239 053d 9172 a7bd
00000330: 2a86 1d3d 64a9 d63c 0070 053b 6213 443d
00000340: 8000 803b 1670 94bd 2866 67bc f6d3 2f3d
00000350: e0b6 cebc a055 44bb c1db 813d e442 8e3c
00000360: cea1 173e 9efb 8f3e 2cce d13d 760f ec3d
00000370: fb44 aebd 55d6 12be 89e6 8ebe c4bd 193c
00000380: af0e d4be fbef c43d eeca 713e f2dd ec3d
00000390: 3266 d63d dec7 093d 9518 533e 7857 68be
000003a0: 734f 823c 6210 abbd cc5e a23e 2d9a bb3e
000003b0: e494 f13e 436e cc3e 8ca2 193e c080 d2bd
000003c0: a7ae 673e 2a07 4ebd 4aee f0be c315 e9bd
000003d0: 2e6e d13c e4c7 0dbe 2d4d 62bd 6c56 c4bc
000003e0: 1f53 7f3b 081a d93d 15f4 643d f2f5 393d
000003f0: df44 203e 926c 433e f70b 433e 9aa5 fc3d
0.16408399 -0.65821856 0.016227808 -0.67428553 0.19117093 0.18108712 0.18202277 0.13330486
0.377175 0.034374643 0.41392544 -0.18678741 0.42414698 -0.1501194 0.077471495 -0.21221788
-0.10576455 0.080551244 0.0407039 0.041819744 0.079524435 0.050242104 0.008822098 -0.06321126
0.087686785 0.052915 -0.036790088 -0.0015741885 -0.014235765 -0.0437905 -0.041257948 -0.027668178
0.03598457 0.048411928 0.054278918 -0.10143063 0.22444054 -0.010985964 0.29183096 -0.78805715
-0.092187755 0.034739032 -0.19105265 -0.083975285 -0.42408448 0.25420287 -0.37641034 -0.29812217
-0.35532665 -0.19878876 0.09807392 -0.2366595 -0.21641487 0.19774456 -0.09266197 -0.8219748
-0.034819406 0.16410035 0.31386697 0.038858406 0.1684581 0.19393316 -0.12687476 0.04615636
0.094720274 0.004652806 0.19667064 0.05235174 0.057411477 0.014856045 -0.101244345 -0.12801144
0.19938615 -0.05670514 0.38719955 -0.72370094 -0.048833035 0.12699777 -0.048646286 -0.16349824
-0.46056512 0.009585713 0.31334117 0.02947533 0.20504965 -0.03545094 -0.088818274 -0.33381495
-0.08019948 -0.2557487 0.26136744 0.2800139 0.031338718 0.08009199 -0.16400139 -0.034702145
0.03589605 0.06373003 -0.032271013 0.58393776 -0.25477552 0.46522304 -0.1547801 0.023345893
0.2293134 -0.58290136 0.03338486 0.15758337 0.031883962 -0.08534166 0.054459043 -0.055852
0.029485054 -0.019134969 0.08490125 -0.002243705 0.023079447 -0.015893228 -0.07593759 -0.0063925683
0.028320394 -0.026554145 -0.026209757 0.08659143 0.09811803 -0.028269626 0.14005837 -0.551274
0.17432314 -0.71781516 -0.698657 -0.24606957 -0.10189579 -0.28559107 -0.2579281 -0.061548065
-0.23866685 0.23139876 -0.23733148 -0.078148566 0.0672076 0.5405412 0.3642677 0.59787965
-0.0907607 0.45041886 -0.4585365 0.24156943 0.4489114 0.3505624 0.1564745 0.04450564
0.7260988 0.121663414 -0.026903363 0.10763803 0.016902367 0.0658377 0.07054494 0.08527927
0.058755107 0.056563467 0.1227122 -0.4907852 0.17168619 -0.55195045 -0.7989484 -0.09678079
-0.18949133 -0.44388247 -0.2934704 -0.5631663 -0.15666723 -0.05368686 -0.14641967 0.14298914
0.16761078 -0.31323034 0.16009061 -0.20721649 0.2454851 0.11790377 0.22900397 -0.28946674
0.02829507 -0.47588915 0.30786592 0.19338782 0.25150466 -0.36532417 -0.50307095 0.03602579
-0.28808498 0.10556606 0.012648634 -0.3006377 -0.031453818 -0.030852221 -0.07263032 -0.046070673
0.059205823 -0.05594516 0.032525487 -0.08176149 0.038458027 0.026203819 0.0020360947 0.047870047
0.0039063096 -0.07247941 -0.014123477 0.04292675 -0.025233686 -0.0029958263 0.06340743 0.01736588
0.14807817 0.28121656 0.10244402 0.115263864 -0.08509251 -0.14339574 -0.2791026 0.009383623
-0.41417453 0.09616085 0.23612568 0.1156577 0.10468711 0.033637874 0.20614846 -0.22689617
0.015907025 -0.08352734 0.3171295 0.36641064 0.47183907 0.39927873 0.15003413 -0.10278463
0.22625218 -0.0502998 -0.470568 -0.11381104 0.025565233 -0.13845783 -0.05524938 -0.02396699
0.0038959456 0.10600668 0.055896837 0.045400567 0.15651272 0.19084385 0.19047533 0.123362735

conv1.bias f4 [16]
00000000: 99fc 473e 602f 153e 4ead c93d 66fb 883e
00000010: 70e0 203e ed71 c23e afe7 593d 06c1 1f3e
00000020: 5cf5 1f3e 9704 4d3e 6918 aa3e 3a0b 873e
00000030: 2cc1 5f3e b20c 253e a2e9 f23c 4d85 3a3e
0.19529952 0.14568853 0.09847508 0.26754302 0.15710616 0.37977543 0.053199466 0.15600976
0.15620941 0.20021282 0.33221748 0.26375753 0.21851033 0.16118124 0.02965242 0.18214913

conv2.weight f4 [32, 16, 3, 3]
00000000: 8daf 15bd e3e8 453e 63e0 823e 4931 1d3d
00000010: d341 a93e cf09 c83e 32dc bbbc e881 143e
00000020: 2e5c 75bd 080b 903d fe56 be3d 0fd0 1fbe
00000030: cdd9 803d 8bcf 1abd 803f 44be b5f7 a3be
00000040: a302 2ebe a16a d3be 5cb8 4cbc 8e72 283e
00000050: 1f65 0bbe b4c1 313e cc0f ea3d 92d9 04bf
00000060: 9d65 15be 139a c4be d128 a7be 3bc0 3b3e
00000070: 3b94 c23e cfeb 8e3e 2aae d63e cc58 b83e
00000080: 0786 583e ed84 c43e 845e c53e c5a1 743e
00000090: 72d0 f03e 1714 a33e d816 aabd 6c4d 613e
000000a0: c7db 683d bc21 323d 2c27 523e e0a8 d63d
000000b0: 30fe b13d 8513 aa3c c788 f23d b2d7 e33d
000000c0: 1aa5 8c3e a014 d53e 18c4 b63e df63 9c3e
000000d0: 69b6 bc3e 8a9d d33e 9428 4e3e 2619 a83d
000000e0: dac4 88bd 5798 893e 1675 ba3d 0d20 0b3e
000000f0: 4e86 893e 298a 533e 2ef2 2e3e 20a4 e43c
00000100: 1766 db3c 3da3 56be 5ba7 6e3e a97e 9fbe
00000110: 1c20 f4be 5213 143e 5dcf c63e 053b af3e
00000120: 9088 313e 04be 8a3d 0d4c 3e3e cd1f 9d3e
00000130: de24 403e 90fb 893d dfcd 0c3f 689d d83e
00000140: fb12 783e 11bf 4dbe 123c e93c 6852 4a3e
00000150: dc35 673e aa4b cd3e 234d 1a3f 946c 653e
00000160: a7fb f13e 135d 463f 2ee1 173e 078a 923e
00000170: 8ba2 a03e 239d 753e 0c3a a63e a5bc 0d3f
00000180: f3a9 743e ae8b 1d3f d30e 233f b3d1 b23e
00000190: aa8c cd3e 4942 833e a8e7 c23e 7949 153f
000001a0: d139 b53e 4d67 523e 02b6 cb3e 5f03 6bbd
000001b0: b5c7 d6bd 58d8 4b3e ff88 3d3e 7f3b 923e
000001c0: 1cd5 3d3e 16b6 313d 1fec 513e c22e 6b3e
000001d0: e04c 253d b649 32bd e17e e23d e905 2abd
000001e0: d2cc 6f3e 90a5 a3bd 3d69 fdbd 4f7f 283d
000001f0: 91a8 64bd 1f25 a83d 85df 403d 6c94 653e
00000200: 3441 b73b 718f b8bd 4c10 86bd c11a 86be
00000210: b6c3 a4be bebf 163e 5735 74be 4da1 603d
00000220: 6c10 a33e 38c4 fbbd f59d cd3e de18 e03d
00000230: 89ea 2abe 87f6 343e a7c2 7f3d 762b 18be
00000240: 7ecd 5abc 7955 b43d c5a5 5a3e d57e 7fbd
00000250: 0ef9 1f3d 5904 0d3f 122f 3ebe dbee a63e
00000260: 2463 f53e d778 983d 9d2d cc3d cc8d b63d
00000270: 605a 38be f3e4 1a3e a621 c23c 81ab 40be
00000280: 23c4 09be 2222 89be 86c5 e4bc 0f9d 2a3e
00000290: c2bc 5d3e df34 cabd 81b2 1b3d 8b4f 203e
000002a0: ea83 50be b379 343e 8418 b03e 673a eb3d
000002b0: 7ec4 2e3e 9d3c 973d 4b03 bc3d 7264 413e
000002c0: 741b 203e 6129 233e fee9 f13e 121c e93e
000002d0: 1f28 053f 7aaf 863e d7bc edbc a6b1 de3e
000002e0: 9798 063e 6642 263d eba7 823e 6965 283e
000002f0: fb87 8fbe 5a49 793d e1cd 5e3e 8427 053e
00000300: baa3 693e 54cc e93e 4b37 973e 8efe 5a3e
00000310: 2ada d63e 039e fc3e 2214 303e e921 013e
00000320: dec2 d73c 37e2 ca3d 07c1 c03d 7c81 ba3d
00000330: 3538 363e 8f71 f13e f956 b13e bd2f 02be
00000340: 0136 8c3c fa94 63bc 694e c2bd 3b28 87bd
00000350: 6fb3 ef3d c283 123e 5984 253f 15d7 083f
00000360: e1fd ee3d d6be e33d 705c 0fbe 12fd 5f3e
00000370: c932 543e 67d3 293d d6e4 6d3e 99d9 f43e
00000380: feba ed3e 8da8 a7bd 8b4f 08be d0fe 903d
00000390: fefd 913e f538 aa3e f90c a23e eeca f83c
000003a0: 082a e33e ada8 1e3f 7939 363e 0dbc 9b3e
000003b0: a0f8 ad3e b6ad 2f3d c130 813e bae2 a33e
000003c0: 3d7f a83d c3b7 8c3e 76d6 c63c 46d9 9e3d
000003d0: 9ceb ad3e 1caf 403e aaa7 203e 937c 053f
000003e0: 05a7 073f b33f 443b bb0d ff3e 08d4 813e
000003f0: 03f5 20be f13e e5bd 414b 983c baa9 083e
-0.03654437 0.1932712 0.25561818 0.03837708 0.33058032 0.39069983 -0.022932146 0.1450268
-0.059902363 0.07033354 0.09293936 -0.15606712 0.06291542 -0.037795585 -0.19164848 -0.32024923
-0.16993193 -0.4129229 -0.012495127 0.16449949 -0.13612793 0.17359048 0.11428794 -0.51894486
-0.14589544 -0.383988 -0.32648328 0.18335049 0.38003716 0.27914283 0.41929752 0.36005247
0.21144877 0.38382664 0.38548672 0.23889835 0.4703403 0.31851265 -0.08305138 0.2200219
0.05685022 0.043489203 0.20522755 0.10481429 0.086910605 0.02076126 0.118424945 0.11125125
0.27469712 0.41617298 0.35696483 0.30544946 0.36857918 0.4133113 0.20132667 0.08207922
-0.066781715 0.2687404 0.091043636 0.13586445 0.2686028 0.20658173 0.17084572 0.027910292
0.026782079 -0.20960708 0.23306029 -0.31151322 -0.47680748 0.14460495 0.3883008 0.34224716
0.1733725 0.06774524 0.18583699 0.30688325 0.18764064 0.06737435 0.55001634 0.4230759
0.2422599 -0.20092417 0.028471027 0.19757998 0.2257914 0.4009679 0.6027395 0.224047
0.47262308 0.7748577 0.14831993 0.28620932 0.3137401 0.23985724 0.3246616 0.55365974
0.23892955 0.6154126 0.63694495 0.34925613 0.4014638 0.2563651 0.38067365 0.58315235
0.35395673 0.20547219 0.39787298 -0.05737626 -0.1048731 0.19906747 0.18509291 0.28561017
0.18538326 0.04338654 0.2050023 0.22967055 0.040356517 -0.043527327 0.110593565 -0.041509543
0.23417976 -0.07990563 -0.12373588 0.041137036 -0.05582482 0.08210205 0.047088165 0.224199
0.0055924896 -0.09011734 -0.06546077 -0.26192287 -0.32180566 0.14721581 -0.23848473 0.05484133
0.31848466 -0.12293285 0.40159574 0.10942243 -0.1669103 0.17672168 0.062441494 -0.14860329
-0.013354657 0.08805365 0.21352299 -0.062376816 0.039055876 0.5508476 -0.18572643 0.32604107
0.479272 0.07444923 0.099696375 0.08913764 -0.18003225 0.151264 0.023697685 -0.18815424
-0.13453726 -0.26783854 -0.027926218 0.16661476 0.21654037 -0.098733656 0.03801203 0.15655343
-0.20362821 0.1762455 0.34393704 0.11485749 0.17067143 0.07384608 0.091803156 0.18885973
0.15635473 0.15933754 0.47248834 0.45529228 0.52014345 0.26305753 -0.02902071 0.4349491
0.13144146 0.040590666 0.25518736 0.16444935 -0.28033432 0.06086097 0.21758224 0.13003355
0.22816363 0.45663702 0.29534373 0.21386167 0.4196332 0.49339303 0.1719518 0.12610592
0.026338037 0.09906428 0.09411817 0.091067284 0.17794879 0.4715695 0.34636667 -0.12713523
0.017115595 -0.013890499 -0.09487612 -0.0659947 0.11704146 0.14308074 0.6465507 0.5345319
0.11669517 0.111203834 -0.14000106 0.21873882 0.20722498 0.041461375 0.23231825 0.47822264
0.46431726 -0.081864454 -0.13311593 0.070798516 0.28514093 0.3324658 0.31650522 0.030370202
0.44368005 0.6197613 0.17795362 0.3041691 0.33978748 0.042890273 0.2523251 0.32008916
0.08227394 0.2748395 0.024272185 0.07756285 0.33968818 0.18816799 0.15688959 0.5214321
0.52989227 0.0029945194 0.49815163 0.2535708 -0.15718465 -0.11193646 0.018590571 0.13345996

conv2.bias f4 [32]
00000000: ee99 983d 0a74 553d 93bc 34bb 86e3 f33d
00000010: 4808 cd3d e598 da3d 8064 353d ca7b ea3d
00000020: fa5c e03d 8ad7 b53d de1c 533d 0f2b 723d
00000030: 97a2 1e3c b628 253d f0a4 8f3d efb1 bd3c
00000040: ca33 123e d74d 7b3d 54b8 c63d 41c2 803d
00000050: a0e5 023d 093e cf3d 0436 c43d 3ac7 ee3d
00000060: 202b 9f3c 2571 043d e045 9e3d bd69 873c
00000070: 5892 983d 284c 5c3d cd4f 4b3d af29 5e3d
0.07451235 0.052112617 -0.002757822 0.11908631 0.10011345 0.106736936 0.044285297 0.11449392
0.10955234 0.088790014 0.0515412 0.059123095 0.009682319 0.040322028 0.07013881 0.023156134
0.14277568 0.06135353 0.097031265 0.06287051 0.03195727 0.10119254 0.09580615 0.11659093
0.019429743 0.032334466 0.07728171 0.016529912 0.07449788 0.053783566 0.04963665 0.05423897

fc1.weight f4 [64, 800]
00000000: fba6 b83e 0530 893e b232 c33d 28dd b23c
00000010: f738 9cbd 0f13 df3d 31a0 383d f2fc cc3c
00000020: 2d37 62bd 4220 25be d0ef 243d 65b8 17bc
00000030: 7da1 4cbd d1b2 1bbe 56b2 6ebe 3907 4d3e
00000040: d68c 84bb b7e9 6ebd 9886 20be 49f4 87bc
00000050: cd26 d73e 3792 723e b52d 76bc 5c0a c7bd
00000060: 7ebd 0f3c d7d4 5a3e c5f3 4d3e c136 a93d
00000070: 8206 8abc 0281 9dbd 9c93 913d c766 cb3d
00000080: c07f c13c c9f5 f9bd 8a62 69bd 7643 78bd
00000090: f7ba 753c fa1f aabd ffdb 61be 0070 a2be
000000a0: 20e0 903d 5b06 06bb c42a ba3d 23f8 603d
000000b0: 1238 d13d d0db 9d3e 9763 f83d d3b3 0f3e
000000c0: eb9a adbc d2df eb3c 1e35 323e 09f1 023e
000000d0: e985 3e3d 7f4e b13c 1c05 90bd 35ea d83d
000000e0: 6a11 333e 82e6 843d 4600 c7bd 475a 66be
000000f0: 11f9 aa3d a234 0d3e 1f69 91bd 28b9 30be
00000100: 84b7 57be 2018 183e 0ed6 8f3d ff43 9c3d
00000110: e667 10be aa71 3bbd 9d27 ef3e 8379 783e
00000120: f81e da3c 3b10 ea3d 2728 0a3e eb4c f63d
00000130: 42f8 2d3e 1909 513d 6c24 5e3c 3ce8 97bd
00000140: 3a02 27bc 22fe dfbb 4c83 ca3c fb80 93bd
00000150: ec5d 03be 6963 88bd f0e5 c3bd 4fa1 1cbe
00000160: d437 29be 96ab 86be 641c 8d3d 4be9 a6bc
00000170: 99b4 7bbc a2da 12bd f1f6 9b3d 1d96 563e
00000180: 1cf5 b33d 3aa4 b93d c424 e13c b769 d03d
00000190: ef8a b63d bcc7 c23d 38ac 05bc f4fd dbba
000001a0: b938 00bd 2e1c be3a f521 353d 4fa0 553d
000001b0: 607f 9fbd 672d 54be ef05 21be 395c 13be
000001c0: 9ea9 08be 5e51 53be 07fe 57be c872 65bb
000001d0: 2931 acbc a1c3 4bbc cb3d f6bd 3e9b c3bd
000001e0: 0ed0 633e f723 613d bb9a 4d3d 6d52 043d
000001f0: 863e fc3d 282b 113e 50cc 283e 5310 fc3d
00000200: 1e60 773d 1072 673b c822 d0bc 34c8 9e3c
00000210: e259 323d 4392 b8bd 5c3d 2bbe 4ad5 08be
00000220: 4262 bfbd fb74 a3bd a809 00be cc83 55be
00000230: cf09 75bc 45a4 6bbc d3fd dd3c 8dae f3bd
00000240: fcd5 11bd 2b7e 543e f822 033e 633a 653d
00000250: 7d49 6d3d 79f6 1a3e ebf6 603e 1723 233e
00000260: b439 893d e723 a03c 323f bbbd d0c8 123e
00000270: 1129 253e 62f9 883d 2300 923a 44c1 17be
00000280: 8cad de3c c2a3 923d e230 96bd 14cf 4ebe
00000290: 7027 aabe c10d 6fbc 6cbd 823c 16e8 9f3d
000002a0: 66c7 26bc ed9d 8cbd c06c 803e b6d0 0c3e
000002b0: 1d6d 223d 7660 0f3d 68a2 0a3e c6d8 153e
000002c0: 6ed9 293e 160b ad3d 9e4f 8abc fe54 b3bc
000002d0: c74b 8f3d ea0a 3c3d 9461 273c 6b98 8abd
000002e0: 1122 d2bd 9b89 36be 0ae6 10be 5746 c5bd
000002f0: f4b9 2cbe 6227 96be 6e20 123d 2724 2a3d
00000300: c3e6 8b3d fb85 9f3b 84f1 0ebd d8b6 a03e
00000310: 4e89 603e 9415 4f3e a6f1 c53d a1f8 2b3e
00000320: e106 3f3e 78b1 253e aab6 413e 8805 b93d
00000330: 16bf 30bd 3d13 3e3e 1ebd f13d 4449 923d
00000340: 3315 d6bd c9db 1fbe 4da1 aabb 5de0 0dbd
00000350: 5b28 17be 0e8c 1abe 9e74 72be ba50 0a3d
00000360: 2d78 4a3c 4322 023c e793 b0bd c9d5 02bc
00000370: bdc4 953e b678 8d3d 71de 6c3d abd5 183e
00000380: 20b1 263e bb57 ba3d b07e fa3d 3367 d63d
00000390: 2964 e93b c4de 30bd 3bbf bc3d 391c 013e
000003a0: ef94 ac3d 9ca0 8ebd 498f 31be 6df8 dfbd
000003b0: 02da 1dbd ceb8 09be cb25 22be 9772 34be
000003c0: 972b 1c3c 0a56 b5bc 5197 1c3d bf50 5dbd
000003d0: 9f31 4e3c e2b2 b03e d752 3a3d cde9 993d
000003e0: 2b11 3a3e 3797 483e 6400 d13d 9819 313e
000003f0: fd61 203e ea12 9c3d f2f0 9fbd 7d2e 803d
0.36064896 0.26794448 0.09531154 0.021833971 -0.07628053 0.10892307 0.045074645 0.025022957
-0.0552284 -0.16125587 0.040267766 -0.009260272 -0.049958695 -0.15204932 -0.23310217 0.20022286
-0.0040451093 -0.058328357 -0.15676343 -0.016595976 0.4202179 0.23688589 -0.015025546 -0.09718773
0.008773206 0.21370254 0.20112522 0.082623966 -0.016848806 -0.07690622 0.071082324 0.099317126
0.023620486 -0.12205083 -0.05697874 -0.06061121 0.014998189 -0.0830688 -0.22056578 -0.31726074
0.070739985 -0.0020450565 0.09090188 0.05492414 0.10215773 0.30831766 0.1212837 0.14033441
-0.021192035 0.02879325 0.17403075 0.1278726 0.046514425 0.021643875 -0.070322245 0.105915464
0.17487112 0.064892784 -0.09716849 -0.22495376 0.08348287 0.13789609 -0.071001284 -0.17258132
-0.210661 0.14852953 0.070232496 0.07630157 -0.14102134 -0.045762695 0.4670991 0.24265103
0.026626095 0.11428877 0.1349188 0.1202639 0.16989234 0.051034067 0.013558488 -0.07417342
-0.010193402 -0.006835715 0.02472081 -0.072023354 -0.12828797 -0.06659586 -0.095653415 -0.1529591
-0.16525203 -0.26302785 0.06890181 -0.020374915 -0.015362882 -0.035853036 0.0761546 0.20955701
0.08786985 0.09064527 0.027483352 0.101764135 0.08913218 0.095107526 -0.008158736 -0.0016784058
-0.031304095 0.0014504248 0.044221837 0.052154835 -0.07787967 -0.20720445 -0.1572492 -0.14390649
-0.13345954 -0.20636508 -0.21092997 -0.0035011042 -0.021019535 -0.012436778 -0.12023505 -0.095510945
0.22247335 0.05496594 0.05019639 0.03230517 0.12316613 0.14176619 0.16484189 0.12307801
0.0603944 0.003531579 -0.02540721 0.019382574 0.04354275 -0.09012272 -0.16722625 -0.13362613
-0.09344913 -0.07981297 -0.12503684 -0.20851058 -0.014955952 -0.014382427 0.027098572 -0.11898527
-0.035604462 0.20751254 0.12806308 0.055963885 0.057931412 0.15133084 0.21969192 0.15931354
0.06700459 0.01954837 -0.09142913 0.14334416 0.16128947 0.06688191 0.0011138957 -0.14819819
0.027182363 0.071601406 -0.073335424 -0.20196182 -0.33233213 -0.0145906815 0.015959464 0.07807939
-0.010179376 -0.068660595 0.2508297 0.13751492 0.03965484 0.0350041 0.13538516 0.14633474
0.16586849 0.0844938 -0.016883668 -0.021891113 0.06996875 0.045908846 0.0102161355 -0.06767353
-0.10260404 -0.1782593 -0.14150253 -0.09632557 -0.1686781 -0.29326922 0.03567546 0.041538384
0.06831124 0.0048682666 -0.034898296 0.313895 0.21927378 0.20223075 0.096652314 0.16794063
0.18654968 0.1618098 0.18917337 0.09034258 -0.043150984 0.18562026 0.11803649 0.071428806
-0.10453262 -0.15611185 -0.005207217 -0.034637798 -0.14761488 -0.15092489 -0.23677298 0.033768393
0.012357754 0.007942739 -0.0862196 -0.007985541 0.29251662 0.069077894 0.057829324 0.14925258
0.16278505 0.090987645 0.12231195 0.104689024 0.0071225357 -0.043181196 0.09216162 0.12608422
0.08426844 -0.069642276 -0.17339815 -0.10936055 -0.038537987 -0.13449404 -0.1583473 -0.17621838
0.009531877 -0.022135753 0.038230244 -0.054032084 0.012585073 0.34511477 0.04548916 0.07515297
0.18170612 0.19588934 0.10205153 0.1729492 0.1566238 0.07620795 -0.078096285 0.06258867

fc1.bias f4 [64]
00000000: 258d a63b deda 963d 2dca 2a3d 6696 30bc
00000010: 63a8 853d d0cc 19bb ba50 883d 2c7d ac3d
00000020: 301c 7abc b544 b9bc 632e 5b3d 3342 e4bc
00000030: 2afd bb3d e600 953b 3869 903d e757 b73c
00000040: edb7 843c d78b d13c 3619 a23b f45b ae3c
00000050: 6a25 4c3c 1a1b 01bd 1ad5 3cbb b785 673d
00000060: 6bbc d6bc 293e 4c3d 2a36 a33d 6c43 943c
00000070: fd73 a7bc 7178 d73c 0e7d 9b3d d686 ae3d
00000080: 9283 c53c 5af6 c73b daa0 8a3d 6964 673d
00000090: a168 023d 4659 1b3c cf6b b3bc 4609 d5bc
000000a0: dacc 43bc 03bb 233c 7df7 8cbc a6f0 fd3c
000000b0: 3354 de3c 6138 3e3d 7987 d5bc 5891 b33c
000000c0: 345c 96bb 4c06 cf3c 19d3 5f3c f2b4 c03d
000000d0: 1b33 153d 8070 ae3d 827b 803d b20e f0bc
000000e0: a383 06bd c579 b7bc 07dd b53d b3c6 4bbc
000000f0: 2b39 cb3c cf19 cf3b 69ce 85bc 57e0 80bc
0.0050827437 0.07365964 0.041696716 -0.010778045 0.06526258 -0.0023468025 0.06656022 0.08422312
-0.0152655095 -0.02261577 0.053511035 -0.027863597 0.091791466 0.0045472262 0.07051319 0.022380782
0.016200984 0.025579376 0.004946853 0.021284081 0.012460092 -0.031519987 -0.0028813542 0.056524005
-0.026212892 0.049863968 0.07969315 0.018098556 -0.02044105 0.026302548 0.07592212 0.08521812
0.02411059 0.0061023654 0.06768961 0.056492243 0.031838063 0.009481734 -0.021901993 -0.026005398
-0.011950696 0.009993318 -0.017207855 0.03099854 0.027139759 0.046440486 -0.026065575 0.021919891
-0.004588628 0.025271557 0.013661169 0.094095126 0.03642569 0.085175514 0.06273557 -0.029303882
-0.032840382 -0.022396931 0.08880048 -0.01243751 0.024807533 0.0063202153 -0.016333776 -0.015731974

fc2.weight f4 [64, 64]
00000000: e2e4 84bc 93fd e13d 659d 49be 6034 cebc
00000010: ba16 493e b02e e13d 7cc5 303e 85ac 21be
00000020: 280e ef3c 4496 d03b acf3 7f3d ed4a 313a
00000030: 8f0f 0f3e 1499 4ebd cb72 3a3d 7ad6 c03c
00000040: 44a9 493d 72b1 d9bc b4c6 41bd c086 0dbb
00000050: ec9a 513d a7d7 983d f2e2 c23d 3cb4 cdbd
00000060: e95d 1fbb cfce c4bd cd98 423e b066 bbbc
00000070: 4048 8a3d a765 933d 1a7d debd 5cb5 da3d
00000080: f41f c83c 75ff f13d 9f92 913d b2e2 80bc
00000090: e61a ef3d b398 24bd 888c 6dbd 1403 423d
000000a0: 786c 1e3d b22f 423e 64ce 4a3d 08f2 94bc
000000b0: a8e7 94bd d85a d93c ca12 a7bd 1684 98bd
000000c0: 7a14 b4bd b327 d53d 8212 01bd e3ff 91bd
000000d0: ab2b 7b3e 1cf0 103e 3561 0f3e e3ff 2b3d
000000e0: 82b8 da3d 0568 8fbd f22e 893e b499 8c3d
000000f0: 087a a43d bdd8 8f3e fabb bcbd 90e7 5ebc
00000100: cc30 cabd c0d8 5d3c 1a8d fbbd 0052 153d
00000110: 7c94 b73d 16cb c63d 3a3c b4bd 48a4 b3bc
00000120: 4aa4 b63d de4d 8b3d e831 0fbd 360e c8bd
00000130: 825e a93d b8c5 e5bd 7055 f1bc cc99 c7bd
00000140: 1c08 a8bd 0a35 b73d fe5c fabd 9014 503d
00000150: 0ed2 8a3d a001 78bc ec18 dabd 386a 30bd
00000160: 04da 003d 60a8 9f3d d4c6 29bd b022 88bc
00000170: 203a 91bd 3470 cd3d 561d ae3d 02fb b33d
00000180: 00a5 60bd 44c3 663d 32d6 d1bd 1451 fcbd
00000190: b282 b6bd fab3 aabd 8064 1d3d b6bf b8bd
000001a0: d65b 843d da72 ca3d 00c2 cdbd 7081 e7bc
000001b0: a0ab 3ebc e8f8 bb3d 0042 b1ba 72f0 f53d
000001c0: f042 ca3d 083d 203d 361b 853d 5cbf 8cbd
000001d0: 2c22 5cbd 9646 d73d d8eb a7bd 825c 89bd
000001e0: 321c e1bd 3e7d a9bd a699 84bd 6cc6 a2bd
000001f0: 4013 233c fa75 b1bd e07f e5bc b0f4 1ebc
00000200: 076f 993d 6d32 adbd 1026 4b3e 2116 d73d
00000210: c973 de3c b288 b23d 7cb3 e63d ae06 873e
00000220: 7e5d d2bd 6ca5 683d bc57 a2bc d126 133d
00000230: aff4 0c3e a206 b33c 9150 f83d 56d6 463e
00000240: 52a1 ecbd c4ff 1e3d 68bd e23d 0800 05bd
00000250: 8454 01bd 092b debd 6aa8 8d3d a3bb a2bc
00000260: 3234 7ebd 74cb ec3d e9a8 1dbe 9751 c23d
00000270: 8371 89bc c92d 943b ca45 8d3e dbda 543e
00000280: 4767 7cbe 8eda 74bd 00fb c53c eac1 d33d
00000290: 6400 d83d 0258 9ebd 36d7 51bc b631 aa3d
000002a0: 8f89 28bd 0895 dabc d0c5 7a3d ae54 f43d
000002b0: b21b abbb 4c1e f33d ff75 ff3d e992 acbd
000002c0: b800 123d eee5 4e3e 92bb 9dbc 842a 2e3e
000002d0: e4c3 29bd 2aaa d43d d07f 71bc 34c7 12bc
000002e0: 98fa 0d3d 2694 e13d a674 033c 0ff8 273a
000002f0: 6c3c a13d 19b7 2d3c 94ab 123d 86d2 c13d
00000300: b4a8 c0bc 6bb3 ec3d ade1 e5bd e77f e13c
00000310: a097 81bd 90f6 40bd 2020 4b3d 62d1 a43d
00000320: 4c92 1b3d f44d a3bd 4f85 ba3d 081d 473d
00000330: 79ab 743b bc99 ac3d be89 75bd 684f 36bd
00000340: 5bdf b8bd cc39 803d d48b 813d 4e03 e83d
00000350: 574b 363d 5283 32bd fd61 c9bd 4f66 03be
00000360: c79e dd3d a6f2 993d bcaa 9b3d 9987 bc3d
00000370: f6d2 9e3d 26c2 bd3b 2662 00be cc2b a43d
00000380: 71fb 763c b6fa 453d 6619 edbd 20d6 133d
00000390: aadd 033d f932 06bd 6c7b 653d 70e0 9abc
000003a0: 209b ee3d 7436 d5bd d8fb aabc c658 f8bd
000003b0: f720 f73d 2efd e6bd cce3 e03d 1e2a fdbd
000003c0: 1c13 a63d a65d 07be c60e 36bd 32a6 6e3c
000003d0: 3c03 dcba 6f79 f73c 7939 af3c 710d 073b
000003e0: 8091 30bc ec77 dbbd 69ee d6bc 1538 e93d
000003f0: 0a1c 6cbd 0e1b df3d 7457 eb3d 4add e33d
-0.016222421 0.110346936 -0.19688947 -0.025171459 0.19637576 0.10995233 0.17262834 -0.15788467
0.029181555 0.0063655693 0.062488243 0.0006763179 0.13970779 -0.050438955 0.04551963 0.02353977
0.04923369 -0.02657387 -0.04730864 -0.002159521 0.051173136 0.074630074 0.09515943 -0.100441426
-0.002431745 -0.09609758 0.19003601 -0.022876114 0.06752062 0.07197123 -0.10863705 0.10679123
0.024429299 0.11816303 0.07108044 -0.015733097 0.11675052 -0.040184688 -0.05799535 0.047366217
0.038677663 0.18963507 0.049513236 -0.018181816 -0.072707474 0.026532575 -0.081578806 -0.074470684
-0.08792968 0.10407963 -0.03151179 -0.07128885 0.24528377 0.14154094 0.14001925 0.04199208
0.10679723 -0.07002262 0.2679363 0.06865254 0.08031088 0.28095046 -0.09215541 -0.0136050135
-0.098725885 0.013540447 -0.12282772 0.036455154 0.08963868 0.09706704 -0.0880055 -0.021928921
0.089180544 0.06801961 -0.034959704 -0.097683355 0.08269979 -0.112193525 -0.029459685 -0.09746131
-0.08204672 0.08945663 -0.12224768 0.05080086 0.06778346 -0.015137106 -0.10649285 -0.043070048
0.031457916 0.07795787 -0.041449383 -0.016618103 -0.070911646 0.10031167 0.08501689 0.0878811
-0.054844856 0.056338564 -0.10245933 -0.12320152 -0.08911647 -0.08335109 0.038425922 -0.09020941
0.06462829 0.098851874 -0.10046768 -0.028259963 -0.011637598 0.091783345 -0.0013523698 0.12008752
0.098760486 0.039120704 0.06499331 -0.068724364 -0.053743526 0.1051151 -0.081992805 -0.067070976
-0.10991706 -0.08275841 -0.064746186 -0.07948002 0.00995332 -0.0866508 -0.028015077 -0.009701893
0.0749188 -0.084568836 0.19838738 0.10502268 0.02715482 0.08717479 0.11264703 0.26372284
-0.102717385 0.056798384 -0.019817226 0.03592569 0.13765214 0.021853749 0.12124742 0.194177
-0.11554207 0.038818136 0.110712826 -0.032470733 -0.03157474 -0.10848052 0.06916888 -0.019864863
-0.062061496 0.11562243 -0.15396465 0.09488218 -0.01677776 0.0045220596 0.27592307 0.20786612
-0.24648772 -0.059778742 0.024167538 0.103397205 0.105469495 -0.0773163 -0.012807658 0.08310263
-0.04114681 -0.026682392 0.061223805 0.11930214 -0.0052218074 0.11871013 0.12473678 -0.084264584
0.035645217 0.20204899 -0.01925448 0.17008406 -0.04144658 0.10384019 -0.0147399455 -0.008958627
0.034662813 0.11014585 0.008023417 0.0006407508 0.07872853 0.010602736 0.03580816 0.09463982
-0.023517944 0.11557659 -0.11224685 0.027526809 -0.06327748 -0.04711014 0.049591184 0.08047749
0.037981316 -0.07973853 0.09107458 0.04861167 0.003733365 0.0842776 -0.059945814 -0.04450932
-0.09026977 0.06261024 0.06325498 0.11328755 0.044505443 -0.043582268 -0.09833143 -0.12831996
0.108213 0.07516985 0.076009244 0.09205551 0.07755081 0.0057909666 -0.1253744 0.08016166
0.015074597 0.0483348 -0.1157711 0.036092877 0.032193817 -0.032763455 0.056025907 -0.018905848
0.116506815 -0.10410777 -0.020872042 -0.12126307 0.120668344 -0.11278759 0.10980949 -0.12361549
0.081091136 -0.13219318 -0.044447683 0.014565991 -0.0016785632 0.030209271 0.02138971 0.0020607377
-0.010776877 -0.10716233 -0.02623673 0.1138765 -0.057643928 0.10893832 0.1149129 0.11126192

fc2.bias f4 [64]
00000000: e404 4cbd 88e0 89bc 5747 37bd fd46 a13d
00000010: 18f8 843d 2141 bf3c bfdf f13d ee8f 83bd
00000020: 7266 d03d 8597 d63d 8dfb a73d ae78 5f3d
00000030: 00b1 d63d c382 fd3d e913 263d 967c 023e
00000040: 5f3b 1f3e 44b1 493e c484 9fbd e1d7 603a
00000050: 8a52 cabc d413 b1bd 8f41 713b 9b59 32bd
00000060: f528 9b3d 182e 2d3d 0c49 ffbd ac9e 8dbd
00000070: a340 94bd 42f6 bebc 2c46 b83d cc54 1dbd
00000080: 845a abbd 95c4 cc3d b592 b23c c3c7 ec3d
00000090: 4954 dc3d 6f32 163d 3159 263d 80c9 943d
000000a0: 3681 bf3d d709 69bd 82aa 863d 1758 c23d
000000b0: edc6 50bd 0fef 7bbd e05e d63d 9c4b 90bd
000000c0: e58d b03d 71a1 d93d 1834 bc3d 1e27 48bd
000000d0: 6c7d db3d bf97 823d e37b 873d 446d d03d
000000e0: 8b25 063d 32dd b23b 4bbd 0e3d 9422 cc3c
000000f0: d175 61bd 4eba a2bc ecc2 8dbd 5858 a5bd
-0.04980935 -0.016830698 -0.04474577 0.07874868 0.06492633 0.023346486 0.11810254 -0.06423937
0.1017579 0.10478119 0.082022764 0.05455845 0.10482979 0.123784564 0.04054633 0.12742838
0.15549992 0.19696528 -0.07788995 0.00085770903 -0.02469756 -0.0864636 0.0036812758 -0.043542486
0.07576171 0.042280287 -0.124651045 -0.0691503 -0.07238891 -0.023310784 0.08997759 -0.038410947
-0.08366874 0.099984325 0.021798471 0.11561539 0.107582636 0.03666919 0.040612403 0.072649956
0.09350817 -0.05689415 0.065754905 0.09489458 -0.05097096 -0.06150728 0.10467315 -0.07045671
0.08620814 0.10626496 0.091896236 -0.04886543 0.10717282 0.063765995 0.066154264 0.10177091
0.032750648 0.0054584974 0.034848493 0.024918832 -0.055044 -0.019864228 -0.06921944 -0.08073491

fc3.weight f4 [7, 64]
00000000: 32e3 0dbe 0cea 2fbd f784 043e 5b27 433d
00000010: 1126 273e 8db7 4cbe bd4b 9b3d 207f c4bd
00000020: eed9 8e3d 0c27 953d c574 b43d 392f 453f
00000030: a4fb 823d deac 9fbd 75cb 54be 94e7 08be
00000040: 48e2 e0bd ce77 26be 0b9e 683f db06 143d
00000050: 40e8 073d a02e fa3c 4822 dd3e ade7 313f
00000060: dc93 2b3e cde2 a8bd 199b 46be 9a77 4dbe
00000070: fc8c 2abd 061f 90bc 4ba9 60bd e593 be3e
00000080: 4ae2 fa3d f5cd 38bb 5e3d 02bd ac14 333c
00000090: dcdc a2bd 6e9e 3d3d 2486 083e ae3f 3b3d
000000a0: 310d aa3d 978a a6bd 04cc e13d 6d10 1ebd
000000b0: e0c8 3b3c 0c6f 99bc 7efd 263d 3d87 cd3d
000000c0: 6fcf ed3d b996 9b3d e7c0 9fbd be3a 76bd
000000d0: 2ab6 3a3d aae3 1e3e b5fa a6bd 88b7 6cbc
000000e0: 4e19 b63d e201 92bd 564f 35be 42ee 8f3e
000000f0: 04f3 6fbf 2afb b8bd 950a 523f 28f3 f3bc
00000100: 2d4f cc3d f075 70bc 49a2 5e3a 2bb8 61bd
00000110: 0349 443d 7c6a 2c3d 1c42 b6bd 9614 b7bd
00000120: 2ed9 7c3d fded 28bd 0f5d 1b3e 99a5 443f
00000130: 75c4 87bd 4383 63be ab2e 63be 3c28 053d
00000140: 5747 30bd a711 97bd 371c 6a3f b80a 46be
00000150: 05fa 06bf 002b eeba cf74 203f 8c8d 3d3e
00000160: 42cb a2ba 1849 6cbb ddb0 75be 066a 163e
00000170: 78fb bbbc 3a22 f4bd 62c8 893a a542 f83e
00000180: ccf5 3bbd 9122 51bc 21e0 fb3c f815 97bd
00000190: c80e 6ebd c0e0 89bd fdc6 c6bd 2992 7bbd
000001a0: 23fb 0a3c 9367 04be f8ae d93c e6cb 03be
000001b0: 3ace b2bd 7bfd 203e 9903 193b 9f34 ee3d
000001c0: 7869 003d c62c a83d fe61 7fbd 6a1c 6bbd
000001d0: b643 783d 00b2 b43c 3977 353e 748e 06be
000001e0: b642 d23c 7ba7 3ebd 56c8 ae3d 78a0 d9bc
000001f0: d982 7fbd 5d4a bcbd 99bd 643e fcb8 d93d
00000200: 7a15 0fbe b0ca 273c a6b0 9a3d 522e ec3d
00000210: 79b9 3b3e 74f7 88bc c40e 4e3c bdd6 febd
00000220: 8582 d1bd 6222 c93d a6b2 90bc e18b 533f
00000230: d987 2bbd c5c6 22be 08a5 26be fd0a 003e
00000240: 8a90 393e ae3f 933d a153 443f 2cc9 ca3c
00000250: 17f7 bbbe a091 db3d 7a1f 193f 8b9c 143f
00000260: 614e 02be 5b54 af3d 9ee3 3e3d 00ef a5bd
00000270: 772a e3bc c190 f53d 95d2 a6bd a1e1 6d3e
00000280: 8e27 c23d ce2c ccbd a6a9 0f3d 51db a63b
00000290: 9117 2e3e 0824 b03d 0884 813d 564a dfbd
000002a0: 11f3 cebc 7905 173e 5a19 0e3d 1b3b 9cbd
000002b0: 261a 05bd 5204 fd3d d545 353e 9e3c 6ebd
000002c0: 303c d3bd c38c 233d c540 a7bd e883 22be
000002d0: ce90 9fbc 2ce8 d7bd b7f5 aabd 4fc5 c93d
000002e0: e0c4 983d 9e2a 8c3d 66fe 083e f690 0f3f
000002f0: 0370 0bbf 8249 dabd 34f5 0f3f 0e8c f23d
00000300: d6d0 203c 04fc 3e3d f732 2fbe e9ae a3bd
00000310: 1d64 f93d c988 d83d 2945 b7bd 4fd0 86bd
00000320: 8c22 4dbd 27ba 8a3c fb24 883d a11c 6b3f
00000330: 46e2 62be b0f9 96be 6a26 bcbd 181b b13d
00000340: 2edb 62bc 048d d23d 6e99 1f3f ac09 e0bd
00000350: 2eb3 d6bc 2148 31bd be69 fb3e bbf0 483f
00000360: c35f a2be 1437 b73d 5bf1 7c3e f153 86bd
00000370: ccbc 9cbc 33c4 bd3d 6ce8 67be 6da2 3f3f
00000380: 10c0 123c 8b76 1b3e 5a92 cdbd 3817 25bd
00000390: 5ff2 da3d 6826 93bd ba12 ce3a cb83 c4bc
000003a0: c848 9a3c a6b7 223d cfca 00be 44c9 a23d
000003b0: 1c4b c33c 7613 1bbe 98ed 42be 5c21 123e
000003c0: 3492 553d aa06 953c 868e c5be 6bce d93d
000003d0: 1bfd 94bd 7053 203e 7af2 bbbd 8fb4 b93b
000003e0: 135c cf3c 4ecb 35be dff6 36be d374 c33c
000003f0: bd7c 3ebe e802 3a3d 07d0 433f 8a95 ba3d
-0.138562 -0.042947814 0.12941347 0.047644954 0.16323115 -0.19991894 0.07582805 -0.0959456
0.069751605 0.07282838 0.088113345 0.7702518 0.06395653 -0.07796644 -0.20780738 -0.1336959
-0.1098066 -0.1625664 0.90866154 0.03613935 0.033180475 0.03053981 0.43190217 0.69494134
0.16755623 -0.08246384 -0.19395103 -0.20065156 -0.04163836 -0.017592918 -0.05484895 0.3722221
0.122501925 -0.0028198932 -0.031796806 0.0109302215 -0.07952282 0.04629367 0.1333242 0.045715027
0.08303297 -0.08131903 0.11025241 -0.038589884 0.011461467 -0.01872971 0.040769093 0.1003556
0.116118304 0.075971074 -0.07800465 -0.060114615 0.04558388 0.15516534 -0.08153287 -0.014448054
0.08891545 -0.07129265 -0.17706046 0.28111464 -0.9373019 -0.09032281 0.82047397 -0.029779032
0.09976039 -0.014676556 0.00084928103 -0.055107277 0.047921192 0.04209374 -0.08899328 -0.08939473
0.061730556 -0.04124259 0.15172218 0.7681518 -0.06629268 -0.22218041 -0.22185771 0.032509074
-0.043036785 -0.07376414 0.914493 -0.19340026 -0.5272525 -0.0018170774 0.62678236 0.18511027
-0.0012420195 -0.003605431 -0.23993249 0.14688882 -0.022947058 -0.11920591 0.0010511989 0.48488346
-0.045888707 -0.012764589 0.030746521 -0.07377237 -0.058119565 -0.06732321 -0.09705923 -0.061418686
0.008482727 -0.12930135 0.02657269 -0.1287075 -0.08730741 0.15721695 0.0023348092 0.116311304
0.031350583 0.08211665 -0.062349312 -0.057400145 0.06061145 0.022057533 0.17721261 -0.13140279
0.025666576 -0.04654644 0.08534305 -0.026565775 -0.062380645 -0.09193871 0.22337951 0.10630986
-0.13973036 0.010241196 0.07553224 0.115322724 0.18332471 -0.016719557 0.012576763 -0.12443302
-0.10229973 0.09821011 -0.017663311 0.82635313 -0.0418776 -0.15896137 -0.16273892 0.12504192
0.18121544 0.0718988 0.7669011 0.02475413 -0.36711952 0.10721135 0.59813654 0.58051366
-0.12725212 0.085610114 0.04660379 -0.08102226 -0.02773021 0.119905 -0.08145634 0.23230602
0.09480201 -0.09969483 0.0350739 0.0050920625 0.17001177 0.086006224 0.06324011 -0.1090285
-0.025262387 0.14748181 0.034692146 -0.07628461 -0.03249564 0.1235434 0.1770242 -0.058163278
-0.10314214 0.039929163 -0.08166651 -0.1587063 -0.019478228 -0.1054233 -0.08347648 0.09852087
0.07459426 0.06844066 0.13378295 0.5608057 -0.5446779 -0.10658552 0.56233525 0.118431196
0.009815415 0.04662706 -0.17109285 -0.07992346 0.12177298 0.10572965 -0.08948738 -0.065827005
-0.050081775 0.016934467 0.066476785 0.9184056 -0.22156629 -0.2948737 -0.091870144 0.08647746
-0.013846202 0.10280803 0.6234349 -0.10939345 -0.026208486 -0.043281678 0.49104112 0.78492326
-0.31713685 0.08946052 0.24701445 -0.06558979 -0.019132994 0.09265938 -0.22647256 0.7485722
0.008956924 0.1518194 -0.1003768 -0.040305346 0.1069076 -0.0718506 0.0015722134 -0.023988625
0.018833533 0.039725922 -0.12577365 0.079485446 0.023839526 -0.15144143 -0.19035947 0.14270538
0.052141383 0.018191654 -0.385853 0.10635074 -0.072748385 0.15656829 -0.09177108 0.005667276
0.02531246 -0.17753336 -0.17867611 0.023859417 -0.18602271 0.045412928 0.764893 0.091105536

fc3.bias f4 [7]
00000000: 68a6 623d b8fe cf3c 1c34 dd3d dccf b4bd
00000010: 735b 483b 7a78 56bc 0293 14be
0.05533448 0.025390014 0.10800955 -0.088287085 0.0030572086 -0.013090247 -0.14509204
