src/models/v4.0.0-simple_env_multiple_drop_pickup-10x10,2agent,0human,0shelf,4pickup,8dropoff.pth (torch, 253586 bytes, 10 tensors)

conv1.weight f4 [16, 10, 3, 3]
000000 0d 4e 0b 3e 77 c3 3c 3e 8b 7e c9 3d 5d f4 04 3e
       0.13603993 0.18433939 0.09838589 0.12983842
000010 58 69 c2 3e e9 e8 9b 3e b8 5b 7a 3e 85 ba 18 3e
       0.37970996 0.30451134 0.2444905 0.14914902
000020 f4 b7 92 bd b9 7d 66 3e e0 38 6f 3e ce 4b 98 3d
       -0.071639925 0.22508897 0.2336154 0.074363336
000030 97 db 8a 3d 21 22 5b 3e 91 e8 9d 3c 51 92 28 3d
       0.06780165 0.21399738 0.019275935 0.041155163
000040 b3 72 73 3e 25 4d 06 bd df 23 d6 bd e2 12 4e bd
       0.23774223 -0.032788415 -0.104560606 -0.050310977
000050 b0 25 7f bc b1 1e b7 3d d4 d5 26 bd 6d 68 8b bd
       -0.01557295 0.08941401 -0.040731266 -0.06807027
000060 b3 6e 5d bd 3a 08 5c 3d 3e 59 4e bd 5e fb a8 bd
       -0.05406065 0.053718783 -0.050378077 -0.082510695
000070 e8 04 98 3c da 81 06 3d 7c a3 1e bd 2d b7 51 bd
       0.018557027 0.03283868 -0.03873013 -0.05120008
000080 48 45 99 3c f0 e8 25 bd de 70 07 3d f4 e4 8d bd
       0.018709794 -0.04050535 0.033066623 -0.06928435
000090 62 89 96 3e b1 19 69 be 73 ce 2f 3e fc ca b6 3e
       0.2940169 -0.22763707 0.17168598 0.3570174
0000a0 53 ed 8c be 24 fd 70 bd 28 3f 17 3e 49 cd 8e be
       -0.27524814 -0.058835164 0.14770186 -0.27890995
0000b0 af e9 51 3e 84 96 b0 3d 32 ff b9 bd cd 08 79 be
       0.204993 0.086224586 -0.09081878 -0.24319763
0000c0 dd b5 49 3e 30 39 bb bd e3 54 8c be 99 5a 3e 3e
       0.19698282 -0.09141767 -0.27408513 0.18589248
0000d0 9e a1 26 be da c4 cd 3d 49 a3 8a 3e 26 72 cd be
       -0.1627259 0.10047312 0.27077702 -0.4012615
0000e0 ce 41 2f 3e 67 c6 91 3d 15 48 11 bf d1 eb 1d be
       0.17114946 0.0711792 -0.56750613 -0.15421988
0000f0 63 85 8d 3c df 50 22 be 84 d5 2d bc 39 e2 5a be
       0.017275518 -0.15851162 -0.010609988 -0.2137536
000100 fe fc 2c 3d 43 65 ec 3d 40 7b 7a bd 67 53 76 3c
       0.04223346 0.11542752 -0.061152697 0.015034533
000110 c0 1c a8 3c 87 83 56 bd 79 e4 d7 bc 7a 1c c9 bd
       0.020521522 -0.052371528 -0.026354061 -0.098198846
000120 30 e3 36 3e f9 1a 9f bd 2e 53 15 3e c6 02 9b 3a
       0.17860103 -0.077688165 0.14582512 0.0011826388
000130 f0 04 a0 bd cf 40 bc 3d 5d 64 ad 3d 63 ee 9f bd
       -0.07813442 0.09192049 0.084664084 -0.078091405
000140 ea 9d be bc b3 b5 64 bf fa 8f 09 bf fa 51 01 be
       -0.023268659 -0.8933975 -0.53735316 -0.12628928
000150 79 53 a3 3e ad c1 af 3e 97 2f 49 bd f1 cc da 3c
       0.31899622 0.3432745 -0.04911765 0.026709052
000160 53 13 fc 3b 4f 0e 07 be 93 a1 55 3d 73 ea 51 3e
       0.0076927333 -0.13189052 0.052156042 0.20499592
000170 9e 45 43 3e 39 96 29 3e 62 54 1d 3e a6 65 e0 bc
       0.19069526 0.16561212 0.1536422 -0.02739222
000180 bb 1b 62 3d b3 51 c0 3d 4d f3 8c 3d 6a 74 99 3e
       0.055202227 0.09390583 0.068823434 0.2997163
000190 41 63 8e 3d f0 7d 9d 3b 1b a6 81 bd a0 da f1 3e
       0.06952525 0.0048062727 -0.0633051 0.4723711
0001a0 84 08 03 be ea 77 8a bd a6 ab dd bd b9 68 00 3e
       -0.12796217 -0.06761153 -0.10823755 0.12539949
0001b0 b0 31 88 bd 78 12 38 bc 86 6a 77 3d 48 25 b3 bc
       -0.06650102 -0.011234872 0.060404323 -0.021868363
0001c0 62 ce 3c 3d 41 21 cb bd a1 2d 92 3d d7 1c 39 bd
       0.04609526 -0.09918452 0.07137609 -0.04519352
0001d0 5a 8e 7c 3d ac a7 a7 3c 92 fe 14 3d 40 ad b7 bb
       0.061659195 0.020465694 0.03637559 -0.00560537
0001e0 7e 42 8a bd 67 87 c3 bd 44 d8 a6 bd 22 03 71 bd
       -0.06750964 -0.0954731 -0.08146718 -0.05884088
0001f0 78 fc 49 3c 88 94 63 3c 3e 2d a4 be d2 fd 8b be
       0.01232826 0.013890393 -0.32065767 -0.27342087
000200 0d bc 67 3d 5f bb 06 bb 41 f1 f3 be 3b 8f e3 bd
       0.056575824 -0.002055846 -0.47645 -0.111113034
000210 fe 19 e1 3d e1 93 0f be 78 9f 97 3e 32 50 d3 bc
       0.10991286 -0.14021255 0.29613853 -0.025795076
000220 57 7e 2c be 9d c9 0a 3e 75 be 05 be 4b 28 0f be
       -0.1684507 0.13553472 -0.13060935 -0.13980214
000230 a8 6b fc 3d 54 b8 a9 3c b3 dc 2f bd 69 f6 45 3e
       0.12325221 0.020717777 -0.042935085 0.1933228
000240 13 61 d6 be 49 e7 b0 be f9 e0 23 bf 56 46 27 be
       -0.41870937 -0.34551457 -0.64015156 -0.16335425
000250 5b af 99 be 67 e6 88 be 7d 08 aa 3d b9 59 0c bf
       -0.30016598 -0.26738283 0.083024 -0.54824406
000260 9e 13 70 bf 65 da d3 3b c9 b9 ba bb 4c 5b 99 bc
       -0.93779933 0.0064652436 -0.005698417 -0.018720292
000270 95 30 65 3c 3c 6d 7d bd db 58 99 3c b5 bf cc 3d
       0.013988634 -0.061871752 0.018719127 0.09997503
000280 36 92 84 3d 0b 50 0f be a9 f3 fc bd a5 70 22 bc
       0.064732 -0.13995378 -0.12351162 -0.009914552
000290 86 89 72 3d 99 02 be bd 96 4a d2 bd d7 c5 17 3d
       0.059213184 -0.09277839 -0.102681324 0.03705391
0002a0 43 d3 72 3d ed e2 40 3d a3 9b c3 3d ce 2f 01 be
       0.059283506 0.047091413 0.0955117 -0.12615892
0002b0 45 d5 df bd 39 d4 63 be f2 56 b2 be 9c 59 d8 3e
       -0.1092935 -0.22248925 -0.3483196 0.42255867
0002c0 dd 53 a4 bd 25 a3 88 bd 71 10 6a be 51 52 39 be
       -0.08023808 -0.06671742 -0.22857834 -0.18097807
0002d0 61 83 8e bd a3 5a 9c 3e 62 c4 49 3e e0 ce 0c 3e
       -0.06958652 0.305379 0.1970382 0.13750792
0002e0 86 42 db 3d 46 23 65 3e 20 c2 57 3e 99 98 98 bf
       0.10706048 0.22376737 0.21070147 -1.1921569
0002f0 96 08 0b be 8a 6c ff be 7c 2c 91 be f6 c8 cd bd
       -0.13577494 -0.49887496 -0.2835425 -0.10048096
000300 18 c0 b9 be b2 af c6 3e 4a ba 76 be 7d a8 1e be
       -0.36279368 0.3880592 -0.24094501 -0.1549396
000310 12 b9 d7 3e 8f 67 12 3e 36 11 2d 3d 73 27 8e 3d
       0.42133385 0.14297317 0.04225274 0.06941118
000320 6e 43 10 3d 34 77 a5 3c d0 e0 8d bd e8 c4 08 bc
       0.035220556 0.020198442 -0.06927645 -0.008347727
000330 80 67 4f 3b 32 04 8a bd 45 42 42 bd f0 8b 22 bd
       0.0031647384 -0.067390814 -0.04742648 -0.039684236
000340 80 e5 ce ba 40 e7 aa bc 49 de 8b 3d c0 57 de bb
       -0.0015784949 -0.020862222 0.06829507 -0.006785363
000350 7c d4 d3 bc 2e d1 bb bd 7a f4 a9 bd 3c c7 8f bd
       -0.025858156 -0.09170757 -0.08298583 -0.07020423
000360 b0 93 fd 3d c0 52 43 3e bd 96 1b bf 97 01 6d 3e
       0.12381685 0.19074535 -0.60776883 0.23145138
000370 5f fc 9b 3c 90 4d b1 be 49 c4 6c 3d 71 a7 7a 3e
       0.019041238 -0.34629488 0.05780438 0.24477936
000380 0a 1d 6a 3d 14 44 a2 3c c8 01 1b 3e 9c 7f 06 3e
       0.0571566 0.019807853 0.15137398 0.13134617
000390 d7 80 ca bb fb 29 bb 3c 5f d3 a5 bd fc 37 a3 3d
       -0.0061799097 0.022847166 -0.080969565 0.079696625
0003a0 ec e1 1d 3d fb cb b4 be 4b 8a 46 3e b3 83 93 bd
       0.038545534 -0.35311875 0.19388692 -0.07202854
0003b0 4e d0 eb be d2 8c 45 3e da ad 04 be 65 65 75 be
       -0.4605736 0.19292 -0.12956944 -0.2396446
0003c0 9c 99 32 bd 8e d6 40 3d 30 75 b7 bd 6e 00 17 3d
       -0.043603525 0.047079615 -0.089578986 0.036865644
0003d0 bf 16 b7 bd 27 40 03 bd 8c ef 11 3c b0 e0 13 bd
       -0.08939885 -0.032043602 0.00890721 -0.03610295
0003e0 c2 f8 c0 3d 02 8e f8 3d d7 e8 9c bd 1a 5a f7 bc
       0.09422447 0.12136461 -0.07661598 -0.030194331
0003f0 b6 39 b6 3c d2 41 9e bd 22 23 a9 be a9 85 53 bd
       0.022244316 -0.07727398 -0.33034617 -0.05164114

conv1.bias f4 [16]
000000 fb be c0 3e 11 5a f6 3e 7c b4 7c 3e 63 a6 80 3e
       0.37645707 0.4811559 0.24678224 0.25126943
000010 71 bf 9f 3d 4f 23 d1 3b 51 d5 c9 3e ed cd 67 3e
       0.078001864 0.006382383 0.3942056 0.22637148
000020 6a a8 86 3d b7 20 58 3e 33 ab 4f 3b 96 b4 30 3e
       0.06575091 0.2110623 0.0031687736 0.17256388
000030 7a 0e 99 3e 4b 00 ad 3e 55 4a 9e 3e e8 80 10 3e
       0.29893857 0.33789286 0.30916086 0.14111674

conv2.weight f4 [32, 16, 3, 3]
000000 11 55 9d 3d 62 2f 3e 3e 5b b1 ad 3e f8 64 81 3e
       0.07682241 0.18572763 0.33924374 0.25272346
000010 8d 98 e4 3e de 91 02 3f 45 a0 9a 3e 5e 15 00 3f
       0.44647637 0.51003826 0.302004 0.50032604
000020 6e dc 6e 3e 81 66 a4 be ad 0d f5 3d 7c 10 c1 bd
       0.23326275 -0.32109454 0.11965499 -0.09426972
000030 17 f2 c0 bd 62 19 ad 3e b9 22 f6 3e 1c 7f 9f be
       -0.09421175 0.33808428 0.48073366 -0.31151664
000040 29 8d a2 3e f3 7c df 3e 9c 99 90 be ae b8 42 bd
       0.31748322 0.43650016 -0.28242195 -0.047539406
000050 e1 bb 0b be c4 76 5d bd a6 03 22 3f 06 17 49 3d
       -0.13645889 -0.05406834 0.6328682 0.049094222
000060 24 ab 14 bd d8 9b 2e 3f 38 7f c9 3e 44 f4 6a 3e
       -0.036296025 0.6820655 0.39354873 0.22944742
000070 37 0d ae 3d d9 96 bb 3e e6 c4 f7 bd 07 74 a9 bc
       0.08498614 0.36638525 -0.12098102 -0.020685209
000080 78 57 e5 3c aa e9 32 bd cb 8d 9f 3e cd 29 06 3f
       0.02799581 -0.04367987 0.31162867 0.5240753
000090 0a 11 86 be 41 2b 94 bd 2d 5f 4f 3e df 06 3e bd
       -0.26184875 -0.072348125 0.2025115 -0.04639327
0000a0 40 68 ea 3d 38 75 85 3e 7c 6b 94 bd ff d9 9a 3e
       0.11445665 0.26065993 -0.072470635 0.30244443
0000b0 c9 5d f6 3e 58 9f 06 3e b4 4a ad 3d c8 ce a4 bd
       0.48118427 0.13146722 0.08461514 -0.08047253
0000c0 10 79 05 3e da bf 83 3e 77 ac 12 3f 18 fc 08 3e
       0.13034463 0.2573231 0.5729441 0.13377416
0000d0 ed f8 02 3f d2 92 11 3f 60 99 5f be 22 20 19 3e
       0.5116108 0.56864655 -0.21835852 0.14953664
0000e0 fa 57 07 3f 70 9c 73 bc 4a d4 9f 3e 71 4c 00 3f
       0.52868617 -0.014868841 0.3121665 0.5011664
0000f0 b9 91 2a bd cf 84 0e 3e e1 97 a2 3e 07 ad 6d bd
       -0.04164288 0.1391785 0.317565 -0.05802634
000100 31 17 7b 3d 32 8b bc 3e 89 32 c7 bd af 1a 52 3e
       0.061301414 0.36824948 -0.09726436 0.20517991
000110 62 71 0d 3f 79 00 c2 bc 2c 53 8a 3e 28 0f aa 3e
       0.55251133 -0.023681866 0.2701658 0.33214688
000120 21 8b ff 3d b7 48 2f 3e a0 84 99 3e a5 0d c6 bc
       0.124777086 0.17117582 0.29983997 -0.024176428
000130 5d 6b cf 3e 06 ef db 3e bf b9 8d 3d 58 5b 9a 3e
       0.405116 0.42955798 0.06920194 0.30147815
000140 a9 04 6e 3e f4 3a 10 3e ef af c5 3e 46 1d 9a 3e
       0.23243965 0.14084989 0.3861079 0.3010046
000150 70 83 6e 3e 8a 73 ca 3e 23 c9 94 3e cf 59 c3 3d
       0.23292327 0.39541274 0.29059705 0.09538614
000160 5b 2f e5 bd 57 fc b8 be 3b ff 67 3e 61 5b 61 3e
       -0.11190673 -0.3613002 0.22655956 0.22007515
000170 88 0c fb 3d c2 b0 6f 3d c0 aa d3 3e d6 c2 8e 3e
       0.122582495 0.05851818 0.4134121 0.27883023
000180 a5 75 d6 bc 29 f1 61 3e 2d 3b 92 be 51 19 47 bd
       -0.026179144 0.22064652 -0.28560773 -0.048608128
000190 df 27 82 bc ea 40 dc bb 57 a9 ed 3c 85 76 c0 3d
       -0.015888153 -0.0067216055 0.029011412 0.09397606
0001a0 32 7c ba 3e 4b ae 97 bd 4c 69 b9 3d d8 b7 e2 3e
       0.36422879 -0.074062906 0.09053287 0.44280887
0001b0 49 3f fb 3d e0 a1 fd bc 8f 35 a3 3b fd 14 56 3e
       0.1226793 -0.030960977 0.00498075 0.20906444
0001c0 a5 e6 12 be 8f da db bd cd 84 aa 3d ab de 21 bd
       -0.14345796 -0.10735046 0.08326111 -0.039518993
0001d0 30 48 51 3e 1b 3e 64 bd ba 7b 85 3e f4 00 c5 3d
       0.20437694 -0.05572329 0.26070958 0.096193224
0001e0 b4 e4 aa 3e c2 04 e7 3e 38 9a c4 3e 0a d8 ba 3e
       0.33377612 0.45120817 0.3839891 0.3649295
0001f0 10 7e 8d 3e f2 b0 d2 3e 73 eb 5a be ce 56 73 3d
       0.2763524 0.41150624 -0.21378879 0.059408955
000200 f3 32 83 3d a9 d5 51 3d 01 8c 1f 3e 02 07 a7 3e
       0.06406202 0.051229153 0.15580751 0.32622534
000210 05 c5 dd 3c 21 52 73 3d 81 8a fd 3e fb 56 95 39
       0.027071485 0.059404496 0.49519733 0.000284843
000220 67 4e 8c 3c da 0b a1 3d b4 21 9b bc c2 5e fc 3b
       0.017127229 0.07863589 -0.01893697 0.0077017257
000230 5f 99 ee 3e 03 07 84 be 8e 3d 40 bd 1d 03 95 3e
       0.46601388 -0.257866 -0.046933703 0.29103938
000240 86 b1 f5 bc 22 14 f3 3e cc a7 d7 3e fc 03 01 3e
       -0.029991876 0.47476298 0.42120206 0.12599176
000250 e7 63 1a 3f 87 00 0f 3f 41 1b fe 39 b2 13 85 3e
       0.6030869 0.5586018 0.0004846696 0.2599159
000260 05 2c 26 3e a4 ea 55 be a2 72 67 3e a7 f0 13 3e
       0.1622773 -0.2089029 0.22602323 0.1444727
000270 de ee 96 be 7e 09 b4 3e ea 37 19 3f 26 98 a0 be
       -0.29479116 0.35163492 0.59850943 -0.3136608
000280 01 dc 9b 3e 06 6a 08 3f 82 c6 87 be 73 05 ae 3e
       0.30441287 0.5328678 -0.26518637 0.33988532
000290 6a 45 1d 3d f1 28 99 3d a5 f4 0a 3f 9b 22 a6 3e
       0.038396277 0.07478512 0.5427955 0.32448277
0002a0 bd 17 07 3d 7f c6 82 3e db d4 c5 3e e5 2f 45 be
       0.032981623 0.25542066 0.38638958 -0.19256552
0002b0 43 88 dc bc 98 f7 01 3f c8 17 8d be 6e 50 53 be
       -0.026920443 0.50768423 -0.27557206 -0.2063615
0002c0 40 a3 25 3e 43 80 95 be 6c ac 47 bd 09 7e a8 3e
       0.16175556 -0.29199418 -0.04874842 0.32908657
0002d0 8c 1c 6a bd b1 1b 4e 3a 47 fb 78 3e cb a9 30 3e
       -0.05715613 0.00078624027 0.24314605 0.17252271
0002e0 ba 38 fc 3e e3 ca eb 3e e3 bf c8 be bf 12 4c 3e
       0.4926203 0.46053228 -0.39208898 0.19929026
0002f0 22 95 85 3e c5 ee b8 3d 00 f2 a9 3d 24 52 2f be
       0.26090342 0.09029917 0.08298111 -0.17121178
000300 f2 ef a6 3d f7 35 16 3f a6 86 6f 3e f5 85 84 3e
       0.08151235 0.58676094 0.23391208 0.2588345
000310 e5 8a 09 3f 01 64 fd 3e c8 5b 56 be 92 4d 63 3e
       0.5372756 0.4949036 -0.2093345 0.2219756
000320 f5 ed 06 3f 38 75 4e be 0f 77 ff 3e 0f ec 02 3f
       0.52706844 -0.20161903 0.49895522 0.51141447
000330 1e 74 a0 bd c2 3b 1c 3e 59 d1 ad 3e e3 f1 dd bd
       -0.078346476 0.15257171 0.33948782 -0.10837152
000340 c6 7d 04 3e 09 82 a3 3e 5c 2b a4 be 77 d1 a4 3e
       0.12938604 0.31935146 -0.3206433 0.3219106
000350 6f 61 16 3f dd 4a 38 be 74 4c b6 3e 7d d5 a1 3e
       0.5874242 -0.17997308 0.35605204 0.3160819
000360 4f 50 2d 3e 05 61 16 3e 12 5b e5 3e 44 9d 08 3e
       0.16925167 0.14685448 0.44796044 0.13341242
000370 aa ac e1 3e 3f f3 d4 3e 98 28 dc 3d a6 7e d7 3e
       0.44077045 0.41591832 0.1074993 0.42088813
000380 09 82 8e 3e db c4 bc 3e 0e d0 29 3f 65 75 31 3f
       0.27833584 0.3686894 0.6633309 0.69319755
000390 e1 45 f6 3d be 9f 06 3f 3a 46 8a 3e 94 71 56 bd
       0.12025047 0.525875 0.27006704 -0.05235441
0003a0 94 71 a7 3e 39 74 83 bc 81 9b d0 3d 70 00 32 3e
       0.3270384 -0.01604663 0.1018591 0.1738298
0003b0 27 8e 35 3d d1 0d 98 3e 00 56 16 3f 0f 73 d3 3d
       0.04432502 0.2969804 0.58724976 0.1032468
0003c0 28 51 a5 3e 53 12 a3 3e cd ee 36 be 48 01 9d be
       0.3228848 0.31849918 -0.17864533 -0.3066504
0003d0 f5 45 06 3d 74 09 f5 bc 11 83 09 be 31 84 79 3e
       0.03278156 -0.029911734 -0.13428904 0.24366833
0003e0 e6 8a e9 3e f9 d6 e4 bd 70 bc f8 3d 1a b3 8e 3e
       0.45613784 -0.11173815 0.121453166 0.2787102
0003f0 de ea b1 bd 9a f7 de bc 7b 64 4a 3e 1f f4 92 3d
       -0.086873755 -0.027217675 0.19764893 0.07175469

conv2.bias f4 [32]
000000 ce 9a e3 3d 42 f3 85 3c 75 4c d8 bd 6b d5 46 bd
       0.11113511 0.016351346 -0.10561458 -0.048543375
000010 d9 6b a0 3d a4 cc 3d 3d 29 0f 10 3e 65 95 14 3e
       0.0783307 0.04633774 0.14068283 0.14510114
000020 ae c5 26 bd 87 f9 f5 3d 66 08 bc 3d 31 fb 21 bd
       -0.040715866 0.12010484 0.091812894 -0.039546195
000030 78 76 61 3d 68 4e 65 3b ad bb be 3d 12 f6 a6 bc
       0.05504462 0.003498936 0.0931314 -0.020381007
000040 e2 b4 e8 3c 09 52 1b 3e c3 fe 12 3e 92 2e 06 3e
       0.028406564 0.15168013 0.14354996 0.13103703
000050 1c b9 f3 3d 4b e8 3a 3e f3 f6 8f 3d 16 d5 15 3e
       0.11900541 0.18252675 0.07029524 0.14632067
000060 71 fa 3b 3e b1 fe 02 3e 02 d3 b5 3d 23 30 d1 bd
       0.18357255 0.1279247 0.08878137 -0.102142595
000070 68 79 09 3e d8 75 06 3e 52 ec 8e 3d 9b 59 37 3d
       0.13425219 0.13130891 0.06978668 0.04476319

fc1.weight f4 [64, 800]
000000 8f 21 e0 3b 3e df 07 3d dc 3b bd bc b9 c0 87 bc
       0.006839938 0.033171885 -0.023099832 -0.01657139
000010 3b cf 80 3c b1 ad fd bc c4 97 c3 bc 1f 60 02 3d
       0.015723815 -0.030966612 -0.023876078 0.03182995
000020 5f 82 15 bc a2 3d 6f bc 69 60 df 3b 88 4d 35 bc
       -0.009125321 -0.014602097 0.006816913 -0.011065848
000030 83 cf 72 bc f2 8f 9b bc 6b c1 41 bc ce 5a 72 3c
       -0.014819982 -0.018989537 -0.0118259 0.014792157
000040 05 0e ef bc 22 d9 87 3c 05 c3 ca 3c 8b 73 16 bd
       -0.02918149 0.01658303 0.024751196 -0.036731284
000050 e3 88 71 bc dc 00 02 3d 55 9a df bb c2 b3 39 3b
       -0.014742109 0.0317391 -0.0068238177 0.0028335904
000060 ff 4b f6 3b 68 33 ab 3c 15 0d 7f bc 55 31 f3 3c
       0.0075163837 0.020898536 -0.015567084 0.02968661
000070 17 3f 8d bb 3a 02 de 3c 97 13 8b 3c cc 05 df bc
       -0.0043104994 0.027100671 0.016977115 -0.027224444
000080 61 7f c5 3c 52 98 a1 bb 78 c6 af 3c c6 44 03 bd
       0.02410859 -0.004931488 0.021456942 -0.03204801
000090 e6 7e 57 bc 82 71 8e bc fb 5a 0d 3b 68 b1 0a bc
       -0.013152814 -0.01738811 0.002156912 -0.0084651485
0000a0 3b fc 9e ba bf 63 55 3c 60 a7 4c bc 79 90 a3 3b
       -0.0012129614 0.01302427 -0.012491077 0.0049915877
0000b0 96 15 0d 3c 7d c8 e0 3c d4 f3 09 3d 8d 2d bd 3c
       0.0086111035 0.02743935 0.0336798 0.02309301
0000c0 be e7 92 3c 98 f0 02 3d d9 72 ea 3c 06 32 28 3c
       0.017932769 0.03196773 0.028619217 0.010265833
0000d0 a9 c2 e0 3c 21 6d 03 bc 24 03 19 bc 5e 27 60 3c
       0.027436571 -0.008021624 -0.009339128 0.013681261
0000e0 74 0a 99 bb dd a0 9f 3c aa 7d 07 bd f6 66 71 bc
       -0.0046704356 0.019485885 -0.033078827 -0.01473402
0000f0 d7 44 6b bc 63 ac fb 3c 0e f3 f7 3b be f7 dd 3a
       -0.014359674 0.030721849 0.007566816 0.0016934795
000100 c3 05 a4 bc a4 a0 92 3c 6b d0 32 3b c8 71 07 bd
       -0.020022279 0.017898865 0.0027284871 -0.033067495
000110 71 db 13 bd b9 8d 01 bd 2b 1c eb 3c fc 81 c4 3c
       -0.036097948 -0.031629298 0.028699955 0.023987763
000120 21 02 3a bb 05 34 ea bc 57 a7 24 bb e1 11 8b 3b
       -0.0028382617 -0.028589258 -0.0025124156 0.0042440747
000130 53 23 82 3c 34 e9 0b 3c 93 71 30 3c f1 b0 fc 3c
       0.015885985 0.008539487 0.010769266 0.030846091
000140 40 dd 7b bc 17 5e 99 bc f4 fc 73 3c 60 60 92 3c
       -0.015372574 -0.018721623 0.014891852 0.01786822
000150 89 97 01 bd 94 64 6d 3c 53 dd 1f bc c6 d5 55 3c
       -0.031638656 0.014489312 -0.009757358 0.013051456
000160 93 7d 5e bc 78 5c 02 bd 82 0c ce 3c 04 c3 b8 bc
       -0.013579744 -0.031826466 0.025152449 -0.022553928
000170 4c 38 a5 3c 5b 53 12 bc ae 0c 7c 3c 1d 2e 08 bc
       0.020168446 -0.008931006 0.015383882 -0.0083117755
000180 c5 b1 eb bb b5 b7 19 bc 31 33 13 bd 8a 32 76 bc
       -0.0071928226 -0.009382178 -0.03593749 -0.015026698
000190 d4 73 f5 3c 7a 4b 8c bc 6b 4c d7 3c a5 44 12 3b
       0.029962458 -0.017125834 0.026281556 0.0022318747
0001a0 52 8c cb 3c a9 9e 3e bb 7a 3e b9 bc 2e 6c 77 3c
       0.024847183 -0.0029086268 -0.022612799 0.015101476
0001b0 51 00 c2 bc 18 ec cf 3b 05 70 c6 3c c0 22 05 3d
       -0.023681791 0.0063452832 0.024223337 0.032503843
0001c0 24 29 ab 3c 06 53 2f 3a 8d f1 fd 3b d7 f0 a7 3c
       0.02089364 0.00066880917 0.0077497424 0.020500584
0001d0 bd 62 ce b8 5b d6 ea bc e4 4e 10 bd f3 49 f3 3b
       -9.841237e-05 -0.028666666 -0.035231486 0.007424587
0001e0 56 a2 92 3c 9d 88 b8 3c 53 e9 e4 bb 25 b6 22 3b
       0.017899673 0.02252608 -0.006985822 0.0024827805
0001f0 34 57 8b 3b e6 61 f2 3c 73 be 02 bd 56 35 70 3c
       0.004252339 0.029587697 -0.031919908 0.014661154
000200 d8 fa 96 3c c0 c2 97 3c 6e 68 ed bc 22 fd 1e bc
       0.018430158 0.018525481 -0.02898046 -0.009703906
000210 b0 9a d5 bc 3c eb cc 3a bb e6 d5 bc 1c 76 d8 3c
       -0.026074737 0.001563407 -0.026110997 0.026423506
000220 15 0b 1c bc bc 2b a2 bc e6 42 f8 bc 90 4e b0 bc
       -0.009524127 -0.019796245 -0.030305337 -0.021521837
000230 e1 39 db 3c 56 53 46 bc a3 43 a3 bc 2b a6 ea 3b
       0.026760997 -0.01210483 -0.019929713 0.007160922
000240 16 66 d3 bc 4e 17 08 3d f8 b6 e1 bc bf 76 b0 bc
       -0.025805514 0.03322535 -0.027553067 -0.021540998
000250 6f c6 0f bb 37 ea bf bb 0e d9 ed bc 46 6e a4 bb
       -0.0021938344 -0.005856778 -0.029034164 -0.0050180284
000260 60 15 e6 3c 82 f7 96 3c 0a 9d 25 bc e4 fe f3 bc
       0.028086364 0.018428568 -0.010108242 -0.029784627
000270 32 07 9e bb 0a b8 21 bc c3 b1 4f 3b d5 90 b0 bc
       -0.004822635 -0.0098705385 0.0031691648 -0.021553436
000280 2e b0 aa bc 44 ee 5b bc 34 95 32 3a eb a5 6b bc
       -0.020835962 -0.013423506 0.0006812394 -0.01438282
000290 a5 54 c6 bc 19 3b 1d ba de 27 3e bc b6 2b ed 3a
       -0.024210284 -0.0005997881 -0.011606185 0.0018094692
0002a0 a3 92 c2 3c c7 0f 39 bb af b7 55 3c 76 01 ae 3c
       0.023751562 -0.0028238164 0.013044282 0.021240931
0002b0 28 e8 53 3c 2f be fa bc 77 fe f0 bc c8 fb 74 bc
       0.012933768 -0.030608265 -0.029418213 -0.014952607
0002c0 28 6f bd 3b b3 56 d7 3c 76 ac 0f bd b4 e1 16 bd
       0.005781073 0.026286459 -0.03507658 -0.03683634
0002d0 95 31 8a 3c db 05 c8 bb f1 03 97 bc f1 ff 9e 3b
       0.016869346 -0.0061042137 -0.018434497 0.004852288
0002e0 a3 89 eb bb 82 9f 02 3d 53 bb aa 3a 81 3e 18 bd
       -0.0071880384 0.0318904 0.0013025798 -0.037168983
0002f0 54 c0 03 bd 00 6e 0f bd 49 d3 cc 3a a8 a9 ea 3c
       -0.03216584 -0.035017014 0.0015626933 0.028645352
000300 af 01 83 bc 89 0d dd bb 0e c6 87 bb 94 b2 ae bc
       -0.015992014 -0.0067459983 -0.004143483 -0.021325387
000310 cc 88 49 bb a0 ce bb 3c 2c 25 97 bc 07 b9 2d ba
       -0.0030751703 0.022925675 -0.018450342 -0.00066269975
000320 99 70 d5 3c 47 45 99 bb 76 72 6a 3c 79 0f d6 bb
       0.026054667 -0.004677448 0.014309516 -0.006532606
000330 81 cd ff bc fe 77 12 bd b3 45 ba 3c 2e 8a 73 bc
       -0.031225922 -0.035758965 0.022738313 -0.014864488
000340 c7 33 d1 3c 7b f5 95 3c b7 ce cd 3c 4e ea fe 3c
       0.025537385 0.01830553 0.025122983 0.031117585
000350 99 df b2 ba ab ac 0b bd b5 be e7 bc e6 b5 8e 3c
       -0.001364696 -0.034100216 -0.028289178 0.01742072
000360 66 b9 ad bc bb 93 03 bc bb da 5d bb c3 c9 48 bc
       -0.021206569 -0.008030827 -0.0033852297 -0.012255135
000370 50 4d b0 3b 8f 96 39 bc 62 97 36 3c b8 07 12 bd
       0.00538031 -0.0113274 0.011144491 -0.035651892
000380 ce b4 24 bc e7 47 85 3c 64 20 fe 3c 45 d8 6d 3c
       -0.010052873 0.016269637 0.031021304 0.014516895
000390 e8 52 b7 bc de f4 bc bb 9b 8c 69 bc a7 8f 07 3d
       -0.0223784 -0.005766495 -0.014254714 0.033095982
0003a0 da 8c 11 bd 4e 91 13 bb d4 fa 62 3b a6 1e 26 3b
       -0.035534717 -0.0022517028 0.0034634368 0.0025347858
0003b0 98 5e 9c bb 14 b1 9b 3c 0e eb 8a bc c9 ce de bc
       -0.0047720186 0.019005336 -0.016957786 -0.027198212
0003c0 b1 0c 0d bc 95 8e f2 bc 65 62 81 bc 39 4a 0b bb
       -0.008608983 -0.029609004 -0.015793988 -0.0021253957
0003d0 89 76 60 3c 04 93 c1 3c 5d c0 e2 bc c6 de fb bc
       0.013700136 0.023629673 -0.027679617 -0.030745875
0003e0 fd 9d d4 3c 83 94 19 39 b0 17 11 bd ab 22 d4 3c
       0.025954241 0.00014646542 -0.03542298 0.025895437
0003f0 d2 8d 69 3c 5d ee 10 bd 8c 7f 3b 3c 4c d5 c5 3b
       0.014255004 -0.03538357 0.011443984 0.00603739

fc1.bias f4 [64]
000000 e6 a3 f0 3b 72 05 6a bc ac d8 ad 3b 08 a3 a2 bc
       0.007343757 -0.014283525 0.0053053703 -0.01985313
000010 ab c4 c6 bc ae ac 0a 3d 70 f1 9f 3b c0 27 c6 3d
       -0.0242637 0.033856086 0.0048810765 0.096755505
000020 c9 48 8c bc c2 6d 3e bc 84 60 81 bc 09 96 b1 3c
       -0.01712455 -0.011622848 -0.015793093 0.021677988
000030 c0 56 6f 3d 0c d0 95 3d f2 d5 f8 3c 8c ca fe 3c
       0.05843234 0.073150724 0.030375455 0.031102441
000040 d1 4d 12 3b 5a 61 96 3c 47 cc a6 3d 3f 6a b0 bc
       0.0022324214 0.018356968 0.081444316 -0.021535037
000050 4e b6 fc bb d9 21 bf 3d 15 18 79 bc 8e a8 5b ba
       -0.007712162 0.09332628 -0.0152034955 -0.00083793036
000060 80 6d a6 bc 63 ff a0 3b 8b 1f 22 3d 62 42 75 3d
       -0.020315886 0.004913257 0.039580863 0.05987776
000070 a9 d9 94 3d 74 c1 33 3c 21 a4 67 ba d7 2b 22 bc
       0.07268078 0.010971416 -0.0008836408 -0.009898148
000080 e0 b8 0a bc 5e 86 b4 3c be ea b0 3d 42 28 90 bc
       -0.008466929 0.022036728 0.086385235 -0.017597321
000090 72 61 dc b9 53 7f d6 3d f3 ee fd 3c ef cf 30 3d
       -0.00042034272 0.10473504 0.030997729 0.04316705
0000a0 24 75 50 3c 97 94 8e 3d b1 0c 89 3c 44 09 9a 3d
       0.012723241 0.06961935 0.016729685 0.075212985
0000b0 5f 93 1e 3e 0d f1 c8 3c 27 57 09 bb 15 f9 4a 3d
       0.15485905 0.024529004 -0.0020956488 0.04955395
0000c0 49 a9 00 3e fe 17 21 3d a5 3d ea 3d a6 f2 a0 3b
       0.12564577 0.03932952 0.11437539 0.0049117384
0000d0 50 51 d5 3c ab c0 ba 3b e3 ef 94 3d 2b 8a e4 3d
       0.02603975 0.0056992373 0.07272317 0.11159166
0000e0 fc c5 97 3d 3b d9 16 3e 9e 8d 82 3d da 50 22 3c
       0.074108094 0.14731304 0.063746676 0.009906972
0000f0 e2 0e 3c 3d e4 36 b1 bc 40 0e 12 bc 8d 7d a2 3d
       0.04591263 -0.02163262 -0.00891453 0.07934103

fc2.weight f4 [64, 64]
000000 e4 44 e8 bd 48 47 e0 bc d2 19 05 be a0 e3 12 bc
       -0.11341265 -0.02737774 -0.12998131 -0.008965403
000010 36 ec e2 bc a0 7e fb 3b 4c 9f 56 bd 70 89 48 3d
       -0.027700525 0.007675007 -0.05239801 0.048959196
000020 00 e5 47 3d 7d 12 05 bd 62 fa 7c 3d 6c 96 df 3d
       0.048802376 -0.032488335 0.06176222 0.109173626
000030 75 85 06 3c 49 d7 ce 3d c8 23 d1 bd 14 39 99 3d
       0.00821053 0.10099656 -0.10211903 0.0748159
000040 19 0a 32 3b a0 b6 53 3c a1 d4 bb bd b7 92 93 3d
       0.0027166663 0.012921959 -0.09171415 0.07205718
000050 5d 75 60 bd eb 6c 0a 3e 8c b4 fb bd b0 e2 74 3d
       -0.054799426 0.13518111 -0.12290296 0.0597865
000060 bc 67 7c 3d 43 0b 93 bd c6 35 eb 3b ae e5 2d 3e
       0.061622366 -0.071798824 0.007178041 0.16982147
000070 9e fc 03 3e 5a b0 b6 3d ca 48 d9 bd 51 c4 b3 3d
       0.12889335 0.08920355 -0.106095865 0.08777679
000080 43 2b 4e bb 27 0c 67 be e5 52 0e bd 20 f0 1c 3c
       -0.0031458891 -0.2256323 -0.034747023 0.009578735
000090 ec 43 c0 3c 44 53 2a 3d 1c ef 04 bd 86 b0 4d bd
       0.023469888 0.041583315 -0.032454595 -0.050217174
0000a0 80 19 67 bb fa aa 06 bc 31 dc ad bd 85 47 3c 3e
       -0.0035263002 -0.008219475 -0.08489264 0.18386658
0000b0 71 00 e0 3d 69 3e 52 3e 18 41 fc bd cd a1 cd 3d
       0.10937584 0.2053162 -0.12317103 0.10040627
0000c0 3c 35 28 3e 8d 69 e2 3d fd 65 68 3d 80 14 e3 3c
       0.16426557 0.110552885 0.05673789 0.027719736
0000d0 c8 c4 e3 3d 22 32 9d 3d e8 a5 cc 3c 37 8f aa bd
       0.111215174 0.07675578 0.024981454 -0.08328097
0000e0 4d 7f 89 3d 87 00 09 3d 4b 0e 2f 3d fc 8d 4a 3d
       0.06713734 0.03344777 0.04273824 0.049451813
0000f0 84 7a d6 bd eb 9f 80 3d 60 ca b3 3d 86 11 16 bd
       -0.10472587 0.06280502 0.08778834 -0.036637805
000100 3e 76 8c 3d 78 24 93 3d 56 9e 94 bc f8 c5 82 3d
       0.068584904 0.0718469 -0.018141907 0.06385416
000110 12 c1 e7 3d 34 c2 02 bd 38 3c f6 bc e0 d1 bc bd
       0.11316122 -0.031923488 -0.030058011 -0.09219718
000120 76 4b 9d 3d e4 d8 60 3d ec 0f 2e bd 5e 6f 9b bd
       0.07680409 0.054894343 -0.042495653 -0.07589601
000130 b7 b3 13 3d 96 f4 c2 bd 62 78 dd bd 6c 27 15 3d
       0.03606006 -0.09519307 -0.10813977 0.03641455
000140 fa 64 82 bd 14 b8 02 3d 27 8a e5 bd 40 a7 f8 bc
       -0.06366916 0.03191383 -0.11207991 -0.030353189
000150 24 0c 24 3d 77 3e cb 3d 34 9c 7f 3d 78 2e a4 3c
       0.04005064 0.099240236 0.062404826 0.02004169
000160 40 06 82 bb 92 ad 38 bb ec c3 26 3d de 09 58 bc
       -0.00396803 -0.0028179628 0.04071419 -0.013185946
000170 b9 56 2c 3b 00 e4 d6 39 a0 9b 2e bd 58 1f 26 bd
       0.0026296808 0.00040987134 -0.042628884 -0.040557235
000180 84 7a d9 3d 71 4c ab 3d 6f 81 61 bd 2c a8 4a 3d
       0.10619071 0.083641894 -0.055055078 0.049476787
000190 60 ab 84 bd 7a 1e f8 bc b0 ae 00 be 39 71 7f bd
       -0.06478 -0.03028797 -0.12566638 -0.062363837
0001a0 c0 7d 39 3d 18 9d e6 bb 24 50 4f bd ad c0 d0 3d
       0.04528594 -0.00703777 -0.050613537 0.10193
0001b0 d7 21 f4 3d 6f 35 b4 3d 7c ee 02 3d 4a 86 08 bc
       0.11920517 0.08799254 0.031965718 -0.008332798
0001c0 b9 f1 ca bd 52 14 a3 3d 99 1a f2 3c 7e 80 ab bd
       -0.09909386 0.0796286 0.029553698 -0.08374117
0001d0 1e 7e ce 3d 3a 07 c0 bd c5 35 03 be 80 30 f1 bd
       0.10082649 -0.09376378 -0.1281348 -0.11776829
0001e0 d3 fb bd 3d 74 4c 01 be 23 2e c7 bd 94 61 c7 bd
       0.09276547 -0.12626821 -0.09725597 -0.097354084
0001f0 64 69 8f bd 84 75 87 bd 78 f2 9e 3d c6 5c bc bd
       -0.070025235 -0.06614211 0.07761091 -0.09197383
000200 15 0b dd 3c a0 be ab 3c 06 e1 3c 3d 48 7d bc bd
       0.026982823 0.02096492 0.046113037 -0.09203583
000210 08 e0 c2 bd 1e f4 e7 3d 28 7a 72 3d f4 6c da 3d
       -0.09515387 0.113258585 0.05919853 0.106653124
000220 56 5d 84 3d bf 93 ee bd 1c 0b f6 3d 14 db 93 bd
       0.06463115 -0.11649274 0.12013838 -0.0721952
000230 34 1c c8 bd ec 53 ab bd b0 d6 aa 3c c0 c1 a6 3c
       -0.09771004 -0.08365616 0.020854324 0.02035606
000240 f2 1c 21 3c 00 54 f0 b9 3a ed 07 be 6b 9b eb 3d
       0.009833561 -0.00045838952 -0.13274089 0.11504253
000250 63 16 c2 bc a3 8f 9c 3d 28 f8 6c bd c6 7b e0 3d
       -0.023692315 0.07644584 -0.057853848 0.10961108
000260 60 38 e2 3b 65 10 90 bd 8b 9d 28 be 13 f6 89 bc
       0.006903693 -0.07034377 -0.16466348 -0.01684097
000270 5b ec 4b 3d 54 4c 0f bd 00 a9 97 bd fb df 8b bd
       0.049785953 -0.0349849 -0.07405281 -0.0682983
000280 ec 70 f7 bd 91 9c 41 be 35 db 4e 3c 00 ea 75 ba
       -0.12082085 -0.18907382 0.012625505 -0.0009380877
000290 99 1e b0 bd 8b 9f 2c 3e b6 0b 60 3e b4 1a a9 bd
       -0.08599586 0.16857736 0.21879467 -0.08257046
0002a0 96 ff d8 bd 28 ea 18 3e 0c 1f 09 3d 3e 1a 11 3e
       -0.10595624 0.14933074 0.033476874 0.14170167
0002b0 cf 97 77 3e 35 ed 33 3e f8 3b ef bc 70 31 86 bd
       0.24179004 0.17570956 -0.0292034 -0.06552398
0002c0 91 ba 2b 3e 33 fc 0b be b4 ed 47 bd b0 1f 82 3d
       0.16770388 -0.13670425 -0.048810676 0.063537
0002d0 70 13 5f bd 50 c9 b2 3d 9d 90 45 bd fd e0 80 3e
       -0.054461896 0.087298036 -0.048233617 0.25171652
0002e0 40 0c d5 3d cf 19 28 3e fa 9a a1 bc bc fe 20 bd
       0.10402727 0.16416095 -0.019727219 -0.039305434
0002f0 37 13 47 3e 59 6e 85 bd c0 30 99 bc f0 ce 5a 3e
       0.19440924 -0.06515188 -0.018700004 0.21368003
000300 f4 1d 59 bd ac 44 5d 3d 5b e0 28 3e 70 88 5c 3c
       -0.05300708 0.05402057 0.16491835 0.013460264
000310 8a a9 ac 3c f0 b2 06 3c fe a8 b8 bd de f0 a1 3c
       0.021076936 0.008221373 -0.09016608 0.019768175
000320 e8 79 c9 3d 49 3d c6 3d 8f f6 ba 3d b4 55 eb 3d
       0.09837705 0.09679658 0.091290586 0.11490956
000330 44 c5 06 3e b0 70 18 be de f7 ce bd 3a 68 d0 bd
       0.13161188 -0.14886737 -0.10105871 -0.1017613
000340 e4 93 32 3d 26 d3 91 bd ee bc 12 3e 81 b1 85 3d
       0.04359807 -0.071203515 0.14329883 0.06527997
000350 22 c9 cb 3c 05 93 5d bd a8 b3 9f 3d 63 89 9c bd
       0.024876181 -0.054095287 0.077979386 -0.07643392
000360 ea 4f c4 3d 0d 08 cf 3d 65 40 48 3e d1 3e 95 3d
       0.09585555 0.101089574 0.19555815 0.07287372
000370 c7 fb 55 3e 36 47 af bd 88 f9 eb bd bb 2d f0 bd
       0.20896827 -0.08558504 -0.11522204 -0.117274724
000380 e4 62 52 bd 4d 42 06 3e eb 5a 97 bc f0 ab 4e bd
       -0.05136384 0.13111229 -0.01847597 -0.05045694
000390 7b 72 6c 3d 14 f7 0b 3e 40 16 72 bd d4 0d 51 3e
       0.057726365 0.13668472 -0.05910325 0.20415431
0003a0 38 2f 5a 3d 94 36 a4 3e a3 68 28 3c d6 bf 7e bb
       0.053267688 0.3207289 0.010278854 -0.0038871667
0003b0 f1 ce f0 3d 1b 42 ec bc ec f1 e6 bd db 4d d1 3d
       0.11758221 -0.028840115 -0.11276612 0.10219928
0003c0 89 df 5d 3c 6a fe 9f 3d 36 e8 7c 3d 9a 1d 97 3d
       0.013542064 0.078121975 0.06174489 0.07378693
0003d0 4c fe cc 3d bc d1 60 3d 4e e7 14 bd 00 92 dc 3c
       0.10009441 0.05488752 -0.0363534 0.026925087
0003e0 00 d9 13 3d 81 be 86 bd d3 c7 fb bc c8 eb b6 3c
       0.03609562 -0.065793045 -0.030734932 0.022329226
0003f0 43 73 d3 bc b6 11 56 bd 58 dc 1c bd ec d0 50 3d
       -0.025811797 -0.052262984 -0.038296074 0.050980493

fc2.bias f4 [64]
000000 74 3c 09 3d 6a 03 a9 bd 08 40 5b bd eb fb f4 bd
       0.03350492 -0.08252604 -0.05352786 -0.11962112
000010 a1 20 32 bd db be eb bd 65 58 b6 3d 08 2e a4 bd
       -0.04348815 -0.11511012 0.08903579 -0.08016592
000020 75 f9 39 3b 11 7b 90 3d 8d a1 2c be e1 ad 4c bd
       0.0028377448 0.07054723 -0.16858502 -0.04997051
000030 86 7f 85 bd 16 34 68 3d 7a d2 c7 bd d8 6e d0 3d
       -0.06518464 0.056690298 -0.09756942 0.10177392
000040 c8 0a c5 bc 6d d1 e3 bc d4 ad 52 be 66 e5 2e bd
       -0.024052992 -0.027809823 -0.20574123 -0.04269924
000050 7b e8 2b 3d 30 89 d5 bb ca 91 2f 3e db e9 15 3d
       0.041969758 -0.006516598 0.17145458 0.036599975
000060 be 67 57 3e 00 d7 35 3d c9 19 24 3e 54 6f 83 3d
       0.21035668 0.044394493 0.16025461 0.064177185
000070 75 9d c0 bc a0 4b 14 3d b6 01 22 bc 59 08 2e 3e
       -0.023512581 0.036204934 -0.009888103 0.16995372
000080 54 f2 d4 3d bc 4b bc 3d ae 7f 00 be 58 02 d9 3d
       0.10397783 0.09194133 -0.12548706 0.1059615
000090 0a d7 94 3d c7 9b 04 be d2 09 2a 3e 69 71 c7 3d
       0.07267578 -0.1295005 0.16605309 0.09738428
0000a0 0a 62 00 3d 8c 14 21 be 95 98 6c 3e dd 48 a3 3d
       0.031343497 -0.15730494 0.2310508 0.07972882
0000b0 bf 7f 7f bb ae 44 6c 3d 5b 93 81 3d 7c e2 17 3d
       -0.0038986055 0.057682686 0.06326934 0.037081227
0000c0 c0 c6 2b 3e d3 36 8b bc 69 40 96 bc c1 b8 79 3e
       0.16775036 -0.016993916 -0.01834126 0.24386884
0000d0 1d ca 3f 3d f3 8d 6b bd 5f e5 04 3e 63 52 25 3e
       0.04682361 -0.05750842 0.12978123 0.1614471
0000e0 4a 3b b6 bc 99 df c1 bd 7d 65 92 bd db c3 c1 3c
       -0.022245068 -0.09466476 -0.071482636 0.023652961
0000f0 49 93 7e bc 15 18 94 3d 7b 58 25 3d b2 a8 09 3c
       -0.015538045 0.07231156 0.040367585 0.0084020365

fc3.weight f4 [7, 64]
000000 93 83 92 3d 00 2a 62 bb 46 51 28 be f6 1e e8 3c
       0.07154002 -0.0034509897 -0.16437253 0.028335076
000010 7a 59 9f bd 23 19 1a bd a5 ef ec 3d 14 59 6b bd
       -0.07780738 -0.03762163 0.11569146 -0.057458
000020 a7 37 9b bd 1b e7 8b bc bf 42 e0 3e d6 61 b1 bd
       -0.07578974 -0.017077973 0.43800923 -0.08661239
000030 5f 3d 39 3e 1e bc 58 bc 59 73 c8 3d 21 32 80 3c
       0.18089817 -0.013228444 0.09787626 0.015648903
000040 1f 69 e6 3c 67 d8 63 be 00 ae 93 3e a9 90 aa 3e
       0.028126298 -0.2225052 0.2884369 0.33313492
000050 b2 e0 3a 3d 5c 85 ff bd 12 64 17 3e 38 cb 32 3d
       0.045624442 -0.12476608 0.14784268 0.043650836
000060 80 5d f6 3b 6f e8 9d 3e 8d 99 b6 bd 60 81 1c 3d
       0.0075184703 0.30841395 -0.08916006 0.03820932
000070 2e 66 39 be 5a 90 5a 3d 53 17 5a 3e 3f 76 47 bc
       -0.18105385 0.05336032 0.2129796 -0.012174188
000080 25 cf 80 be 1d 60 b2 3d 5a 9c 6b 3e 36 04 2b be
       -0.2515804 0.087097384 0.23008862 -0.16700825
000090 c9 8d b7 bc 42 10 28 3f dc 0c 1d 3e 63 14 e4 3c
       -0.022406476 0.6564981 0.15336937 0.027841752
0000a0 e6 ff 21 3f 9c ed 81 3e 6a 5b e3 bd f5 55 b7 bd
       0.63281095 0.25376594 -0.1110142 -0.08951942
0000b0 c7 b2 5c bc 9e 11 5b 3d 88 7b 74 3d d4 dc fd 3e
       -0.013470358 0.053483598 0.05968812 0.4958254
0000c0 25 8a 5c 3d 70 3f 3a 3d 3b be 11 bc 39 46 24 bd
       0.053842682 0.045470655 -0.008895452 -0.040106032
0000d0 40 c2 00 be 43 3e f4 bd 3b 3e 4a bd 21 02 42 bd
       -0.125741 -0.11925938 -0.049375754 -0.04736531
0000e0 fa 84 9d bd f5 e2 f8 3e 0b 11 1f bf 1c 45 1a 3f
       -0.07691379 0.48610654 -0.6213538 0.602617
0000f0 6a b6 fd 3d 93 68 ac 3d 48 15 8c 3d 0e 60 72 3e
       0.12388308 0.084183834 0.068399966 0.23669454
000100 e7 19 90 bd ef ea 8d bd 24 a6 33 be e3 03 0d 3e
       -0.070361905 -0.06929576 -0.17543846 0.13771014
000110 34 d7 9a 3d 1a 28 7c 3e d7 74 e3 bd 54 e9 94 bd
       0.07560578 0.24624673 -0.1110627 -0.07271066
000120 43 3a 0b be 6d 47 f2 bc 75 3d 63 3f 5b de 18 bd
       -0.13596444 -0.029575074 0.8876565 -0.03732143
000130 a1 82 12 bf f8 b5 a6 bd 76 b0 ad bd 35 94 0d 3e
       -0.57230574 -0.081401765 -0.08480923 0.13826068
000140 0c 73 b2 bd 59 dd 32 3e d8 3e db 3c 2e 3e fc 3e
       -0.0871335 0.1746725 0.026763365 0.4926619
000150 6c 9d 0e bd 03 48 6c 3d 0f c5 be 3d cf 57 b6 bd
       -0.034818098 0.057685863 0.0931493 -0.08903467
000160 2d 07 af 3d d0 53 00 3f 4f 5f bb be f5 76 43 bd
       0.085462905 0.5012789 -0.36596152 -0.04772087
000170 5c 52 a5 bd 7b 8b 06 3e 64 13 95 3e 27 13 90 bd
       -0.080723494 0.13139145 0.29116356 -0.07034903
000180 ab 99 b0 3c bb cc 35 3b 8e 24 8f 3e e5 59 55 3c
       0.02155765 0.0027740437 0.27957577 0.013021921
000190 d6 d3 f0 bc fa 19 35 be d1 23 93 bc 49 b8 e2 3d
       -0.029397886 -0.1768569 -0.017961415 0.11070306
0001a0 28 d9 10 3f ac f6 1e 3f 8d 66 0b 3d e5 b6 f6 bd
       0.56581354 0.6209514 0.034033347 -0.12046603
0001b0 f4 16 12 be d1 ff c7 bd be af b7 3b 9f db fb 3e
       -0.14266568 -0.0976559 0.005605667 0.49190995
0001c0 c5 d8 d0 bd dd d5 88 bd df 46 41 bd da 80 33 bd
       -0.101975955 -0.06681416 -0.04718673 -0.043824054
0001d0 62 e2 e3 3d 2d 1e f9 bd 12 d7 59 bd 3c 4e 91 bd
       0.111271635 -0.12163959 -0.053183623 -0.07095
0001e0 93 f5 3e 3d 43 0b c3 3e 96 92 da be 80 76 db 3e
       0.046620917 0.3809453 -0.4268996 0.42863846
0001f0 d8 13 ba 3e 7f 4f 5e bd e8 8d 20 3e af b0 ed 3d
       0.36343265 -0.054275032 0.15679133 0.11605965
000200 a1 c4 e2 bc 28 b2 6c 3d 3e 21 41 be 66 cd 19 bd
       -0.02768165 0.05778709 -0.18860337 -0.0375494
000210 16 6e 70 bd 51 af d5 3e 75 8f ab 3e d0 61 8b 3c
       -0.058698736 0.41735318 0.33507887 0.017014414
000220 f8 14 bf ba 9e 4d 5f be 58 bf b3 3e c5 3f ca bc
       -0.0014578393 -0.21806952 0.3510692 -0.02468861
000230 3f 78 af 3e ee dc 74 3d 7a 5a ec 3c ca a0 3d bc
       0.34271428 0.059781007 0.028851736 -0.01157398
000240 20 53 c4 3d 52 a0 01 bf 32 d6 85 3d eb 4a 94 3e
       0.09586167 -0.50635254 0.06534995 0.28963408
000250 b8 7f 01 bd f0 34 c3 3d ea 9f bf 3c 8d 0a 16 be
       -0.031615943 0.095315814 0.023391683 -0.14652462
000260 c3 ba 66 bd 0f 26 9c 3e e9 e4 0e bf e8 57 22 bd
       -0.056330454 0.30497786 -0.5581804 -0.039634615
000270 ac c0 f1 3d 47 d0 dc bd a4 22 f9 3e e2 32 fb 3d
       0.11804327 -0.10781913 0.4865924 0.122655645
000280 26 c1 3a 3d fd 83 6a 3d 4d e5 e0 3e 13 4f 32 bd
       0.045594357 0.05725478 0.43924943 -0.043532442
000290 3c e4 d1 3d 36 c4 4f 3e 2a 8c 53 bd b1 f9 c6 bc
       0.102486104 0.20289692 -0.051647343 -0.024288984
0002a0 56 28 6a 3f b7 52 de 3e 33 be ec 3c d3 f8 18 be
       0.914678 0.4342248 0.028899288 -0.14938669
0002b0 cc 41 c7 bd fe 7f 0b 3e 18 96 58 3e 7a 08 b0 3e
       -0.09729347 0.13623044 0.21151006 0.34381467
0002c0 c6 c9 de 3d 72 9b af 3d 79 fb 1b 3e 22 ba c8 bc
       0.10878329 0.08574571 0.15232648 -0.024502818
0002d0 04 6e 4f bd bc 1c 80 bd 5e 80 0e 3c bc b9 aa 3d
       -0.05064203 -0.06255481 0.008697597 0.08336207
0002e0 ed 50 74 bc 53 ba 56 3d 45 a3 37 bd d1 e1 d4 3e
       -0.014911872 0.052423786 -0.04483344 0.41578534
0002f0 dc 86 29 3e b8 ef 96 bd 5b 02 25 be 77 bd a2 3e
       0.16555351 -0.073699415 -0.1611418 0.31785175
000300 01 ab a8 3c d0 2a fb 3d 64 68 d1 bc c6 63 d8 3d
       0.020589354 0.12264025 -0.025562473 0.10565905
000310 31 cd 86 be a4 e3 8d 3e 58 53 c1 3e 08 c8 4f 3d
       -0.26328424 0.2771274 0.377589 0.050727874
000320 30 97 a5 3d 72 95 36 bd 99 14 43 3f a2 77 3a bd
       0.08085477 -0.044576116 0.76203305 -0.045524247
000330 c0 78 8b 3e ec 71 f6 bc dd e4 9d 3e c6 f4 2c 3d
       0.27240562 -0.030083619 0.3083867 0.04222562
000340 b0 06 17 bd 87 e6 ab 3d 09 32 d0 3e 76 41 2c be
       -0.036871612 0.08393579 0.40663174 -0.16821846
000350 d0 14 12 3d ce a0 c0 bd 03 2c 29 bd b7 8a e7 3d
       0.03566438 -0.09405671 -0.04130174 0.11305755
000360 46 84 7f bd 76 81 22 3f 91 61 b6 3d 4e 30 92 ba
       -0.062382005 0.6347879 0.08905328 -0.0011153312
000370 ee 27 54 3d ca 96 1e be a8 9e d9 3e ad 5a 2e 3d
       0.051795892 -0.15487209 0.42503858 0.042566944
000380 b5 f0 6c 3b f9 68 48 bd d8 d2 d8 3c d8 a0 08 be
       0.0036154215 -0.048928235 0.026467726 -0.13342607
000390 ba 52 03 3d e4 89 a8 bd 6c 40 b1 bd 2c 65 0c bd
       0.032061316 -0.082294255 -0.086548656 -0.034276173
0003a0 36 ae fb 3d b3 72 ff 3c c3 ce 2e bd b8 29 6b bd
       0.122890875 0.031182623 -0.042677652 -0.057412833
0003b0 36 99 7a bd f2 bc f8 3d 1d f8 31 bc 39 2f 1d 3e
       -0.06118127 0.121454135 -0.0108623775 0.15350045
0003c0 ca 91 2f bd 70 aa f1 ba d9 3c f2 bd 3b 69 5c bd
       -0.042863645 -0.0018437635 -0.11828012 -0.053811293
0003d0 5c d1 98 3d c9 7b 81 3e 99 7e be 3d 0a 68 20 be
       0.07461807 0.25289753 0.0930149 -0.15664688
0003e0 69 05 4f b9 3b c1 8a 3e ba 44 ea be 74 2f 2b 3f
       -0.00019743074 0.27100548 -0.4575556 0.6686928
0003f0 8d 2d 14 3f ee 72 db 3d fb a7 24 3d 6c 53 0a bd
       0.57882005 0.107152805 0.04019926 -0.033770964

fc3.bias f4 [7]
000000 fc 50 16 bd 07 f0 a4 bd 35 66 90 bd 77 16 3f 3d
       -0.036698326 -0.08053594 -0.070507444 0.046652284
000010 e9 cc 66 b9 98 d8 40 3e 16 72 10 be
       -0.00022010844 0.18832624 -0.1410602
