src/models/v4.0.0-simple_env_multiple_drop_pickup-10x10,2agent,0human,0shelf,4pickup,8dropoff.pth (torch, 253586 bytes, 10 tensors)

conv1.weight f4 [16, 10, 3, 3]
000000 ee 3c 1a 3e 58 1c 4d 3e d8 bd a5 3d 36 4d 1d 3e
       0.15062305 0.20030344 0.080928504 0.15361485
000010 24 08 9c 3e a1 f7 92 3e 45 68 88 3e ae 9a 34 3e
       0.3047496 0.2870455 0.2664205 0.1763713
000020 c6 a2 bd bd f9 b0 33 3e 8a fb 0c 3e ce b2 a0 3d
       -0.09259562 0.17547978 0.1376783 0.07846604
000030 33 e0 c2 3c 45 24 f5 3d 9e 71 a6 3c b3 c4 6f 3d
       0.023788547 0.119698085 0.020317849 0.058537196
000040 8e f9 79 3e b7 20 07 bb df 23 d6 bd e2 12 4e bd
       0.24411604 -0.0020618865 -0.104560606 -0.050310977
000050 b0 25 7f bc b1 1e b7 3d d4 d5 26 bd 6d 68 8b bd
       -0.01557295 0.08941401 -0.040731266 -0.06807027
000060 b3 6e 5d bd 3a 08 5c 3d 3e 59 4e bd 5e fb a8 bd
       -0.05406065 0.053718783 -0.050378077 -0.082510695
000070 e8 04 98 3c da 81 06 3d 7c a3 1e bd 2d b7 51 bd
       0.018557027 0.03283868 -0.03873013 -0.05120008
000080 48 45 99 3c f0 e8 25 bd de 70 07 3d f4 e4 8d bd
       0.018709794 -0.04050535 0.033066623 -0.06928435
000090 f2 b9 8a 3e fe 15 7f be cf 62 3c 3e 20 ab a0 3e
       0.2709499 -0.24910733 0.18397067 0.31380558
0000a0 ce 6b c1 be f4 17 9b bd e0 50 fe 3d 42 99 a3 be
       -0.3777756 -0.07572928 0.124177694 -0.31952864
0000b0 fd a2 42 3e d5 b0 06 3e 50 79 1d be 91 76 80 be
       0.19007488 0.13153394 -0.15378308 -0.2509046
0000c0 a2 40 6e 3e 9c ff 22 be fe b6 98 be de 31 6a 3e
       0.23266843 -0.1591782 -0.29827112 0.22870585
0000d0 44 07 71 be a0 6c c0 3d 26 f9 76 3e 1a 76 10 bf
       -0.23537928 0.093957186 0.2411848 -0.5643021
0000e0 74 2a 28 3e 21 21 d9 3d 88 6b 35 bf 4a 9d 22 be
       0.16422445 0.10602022 -0.70867205 -0.15880314
0000f0 3f 1e 19 3d 20 25 81 be 6c ba f4 3c c6 30 59 be
       0.03738236 -0.25223637 0.02987405 -0.21210012
000100 5a 23 e0 3c c6 84 ef 3d 64 90 77 bd e7 72 a5 bb
       0.027360607 0.116952464 -0.060440436 -0.005049098
000110 00 59 ab 3c a1 5e 24 bd 6a 08 f0 bc 69 e1 a3 bd
       0.020916462 -0.040129308 -0.029300887 -0.08001978
000120 9a 22 45 3e cd 53 10 be 40 1d 39 3e 97 28 d1 3c
       0.1925148 -0.14094467 0.18077564 0.02553205
000130 90 25 05 be c7 6a c2 3d 37 df d3 3d 95 ea 12 be
       -0.1300261 0.094930224 0.10345309 -0.14347298
000140 c9 ff 24 bd 45 02 54 bf 76 64 03 bf d7 91 c0 bd
       -0.040283 -0.82815963 -0.51325166 -0.09402817
000150 9b 01 99 3e 59 b9 93 3e 40 88 a3 bd 1a 02 29 3d
       0.29884037 0.28852347 -0.07984972 0.04126177
000160 0b a4 e8 bc 07 81 f4 bd 12 02 3a 3d 47 64 1c 3e
       -0.028398534 -0.119386725 0.04541213 0.15272628
000170 3f d0 59 3e c4 13 11 3e 19 40 31 3e 83 d2 17 bd
       0.21270846 0.14167696 0.17309608 -0.037065994
000180 77 e3 8c 3d c0 de bf 3c 59 cd b6 3d 51 58 8c 3e
       0.06879323 0.023421645 0.08925886 0.2741113
000190 07 90 a4 3d 73 48 5a bb a4 96 cf bc e9 3e d8 3e
       0.080352835 -0.0033307343 -0.025340386 0.42235497
0001a0 f1 d6 b4 bd 40 e7 38 bd b3 a5 ed bd d2 63 ca 3d
       -0.08830059 -0.045142412 -0.1160387 0.098823205
0001b0 b0 31 88 bd 78 12 38 bc 86 6a 77 3d 48 25 b3 bc
       -0.06650102 -0.011234872 0.060404323 -0.021868363
0001c0 62 ce 3c 3d 41 21 cb bd a1 2d 92 3d d7 1c 39 bd
       0.04609526 -0.09918452 0.07137609 -0.04519352
0001d0 5a 8e 7c 3d ac a7 a7 3c 92 fe 14 3d 40 ad b7 bb
       0.061659195 0.020465694 0.03637559 -0.00560537
0001e0 7e 42 8a bd 67 87 c3 bd 44 d8 a6 bd 22 03 71 bd
       -0.06750964 -0.0954731 -0.08146718 -0.05884088
0001f0 78 fc 49 3c 88 94 63 3c 94 3f d5 be 89 ee 62 be
       0.01232826 0.013890393 -0.4165007 -0.22161306
000200 56 38 7c 3d 29 eb 1f bd b8 f6 05 bf 1e 83 f7 bd
       0.061577164 -0.039042626 -0.5232959 -0.120855555
000210 c9 b2 fd 3d 1b d1 5e be f0 9e 91 3e df 78 d5 bd
       0.12387616 -0.21759455 0.28441572 -0.10423445
000220 eb a7 3e be 33 f1 1c 3e 95 4a 0a be aa 0c 13 be
       -0.18618743 0.15326385 -0.13505013 -0.143603
000230 d0 40 bd 3d 59 1e 69 3d 7c 4c ab bd eb 0c 82 3e
       0.09240878 0.056913707 -0.083641976 0.2540048
000240 29 b7 01 bf 23 89 d3 be 37 ef 23 bf aa 6d 38 be
       -0.50670105 -0.41315565 -0.6403689 -0.18010584
000250 e5 91 c2 be 26 ab 92 be d5 c2 1a 3e a6 49 14 bf
       -0.38001934 -0.286462 0.15113385 -0.5792488
000260 9a af 7a bf ec 62 b6 3c c1 7f 6d 3b cb 50 19 bc
       -0.97924197 0.022263967 0.0036239477 -0.009357641
000270 f4 e1 a9 3c 6a d2 7e bd 34 f8 b2 3c 24 aa e0 3d
       0.020737626 -0.062212385 0.021846868 0.10969952
000280 aa 00 8d 3d 1d 33 07 be d4 95 54 be fb ef ef bb
       0.06884892 -0.13203092 -0.2076028 -0.007322309
000290 94 bb a3 3d 6a dd f1 bd 70 5d 8c bd 46 e1 8a ba
       0.07994762 -0.118098095 -0.06853759 -0.0010595701
0002a0 1f 76 ac 3d e6 7b 09 bd 0a 82 ed 3d 4f f3 bc bd
       0.08420967 -0.033565424 0.115970686 -0.09226095
0002b0 eb 54 f6 bd a4 0e 61 be 3a f1 95 be b3 84 ce 3e
       -0.120279156 -0.21978241 -0.29285604 0.40335616
0002c0 3c ca 8e bd 1e 26 b7 bd d1 34 67 be d5 11 42 be
       -0.06972167 -0.08942817 -0.22578742 -0.18952115
0002d0 f1 7b a8 bd 7f 1a 9c 3e 52 3a 24 3e 3c 6f 08 3e
       -0.08226765 0.30488965 0.16037872 0.13323683
0002e0 50 a1 05 3e b1 6f 49 3e 72 75 58 3e 8b a5 98 bf
       0.13049817 0.19671513 0.21138552 -1.192552
0002f0 cd 50 53 bd 58 9a b1 be 2e 28 6f be 5d a9 2f be
       -0.05159073 -0.34688067 -0.23355171 -0.1715445
000300 f3 b7 95 be 42 af b7 3e 9c d2 65 be 42 01 30 be
       -0.29241905 0.358759 -0.22443622 -0.1718798
000310 cb 27 c1 3e 41 c3 11 3e 36 11 2d 3d 73 27 8e 3d
       0.37725672 0.1423464 0.04225274 0.06941118
000320 6e 43 10 3d 34 77 a5 3c d0 e0 8d bd e8 c4 08 bc
       0.035220556 0.020198442 -0.06927645 -0.008347727
000330 80 67 4f 3b 32 04 8a bd 45 42 42 bd f0 8b 22 bd
       0.0031647384 -0.067390814 -0.04742648 -0.039684236
000340 80 e5 ce ba 40 e7 aa bc 49 de 8b 3d c0 57 de bb
       -0.0015784949 -0.020862222 0.06829507 -0.006785363
000350 7c d4 d3 bc 2e d1 bb bd 7a f4 a9 bd 3c c7 8f bd
       -0.025858156 -0.09170757 -0.08298583 -0.07020423
000360 eb 9c ce 3d 2e 0e 3e 3e 42 12 15 bf f2 8b 3d 3e
       0.100885235 0.18560097 -0.58230984 0.18510416
000370 54 a1 c5 3a 5c 92 95 be e7 d3 82 3d f4 8f 6f 3e
       0.0015077987 -0.29213226 0.063880734 0.23394758
000380 85 c1 4a 3d c3 b3 88 3d 3b 2d 32 3e 99 52 31 3e
       0.04950096 0.06674912 0.17400067 0.17316665
000390 ea 7d c9 3b 82 12 21 3c 67 8e c3 bd 7f 94 dd 3d
       0.0061490433 0.009831073 -0.095486455 0.10819339
0003a0 3d 63 6d 3d dd b0 c6 be fb c7 8b 3e 26 50 2f bd
       0.05795597 -0.3880681 0.2730101 -0.042801045
0003b0 f4 9d 0f bf 27 f5 78 3e b9 e9 0f be ff e9 9d be
       -0.5610039 0.24312268 -0.14054002 -0.30842587
0003c0 64 6f 74 bd 10 cf b1 3c 37 9c 24 bd 61 6e 19 3d
       -0.059676543 0.02170518 -0.04018804 0.03745878
0003d0 f6 db ae bd 70 bd 9b bc 64 3b b3 3b cc 13 2b bd
       -0.08538048 -0.01901123 0.0054697264 -0.041766927
0003e0 91 6c c1 3d af 05 eb 3d 29 9b ab bd 8d 2a db bc
       0.094445355 0.114756934 -0.08379204 -0.026753688
0003f0 f0 e9 13 3d d1 f4 97 bd 69 85 9f be ed 6f f0 bc
       0.036111772 -0.07419742 -0.3115647 -0.029350245

conv1.bias f4 [16]
000000 3f 09 bf 3e 47 ae ee 3e c0 6f 6e 3e 39 43 77 3e
       0.37311742 0.46617338 0.23284817 0.24146737
000010 71 97 02 3e c4 8a 60 3c 45 10 cc 3e 4b d6 72 3e
       0.12753083 0.013704959 0.39856163 0.23714559
000020 46 65 c2 3d 33 a1 80 3e 91 6f 38 3a 53 f2 0d 3e
       0.094919726 0.25122985 0.00070356677 0.1386197
000030 f1 cc 98 3e 9b e2 b1 3e 94 75 9c 3e 95 78 05 3e
       0.29843858 0.347432 0.30558455 0.1303428

conv2.weight f4 [32, 16, 3, 3]
000000 28 2a 78 3d 03 dc 29 3e 9b 96 aa 3e 1a 6b 78 3e
       0.06058708 0.16587834 0.33318028 0.24259606
000010 cb 75 ec 3e ba aa 03 3f bc fc 96 3e ad 59 03 3f
       0.4618362 0.51432383 0.29489696 0.5130871
000020 a2 46 62 3e 63 10 9d be 9a b9 15 3e c6 11 6e bd
       0.22097257 -0.30676565 0.14621583 -0.05812242
000030 a5 91 bb bd 3b 69 ac 3e d2 5a 03 3f 11 9e 97 be
       -0.09158639 0.33674034 0.51310456 -0.29612783
000040 52 2f ab 3e 50 55 04 3f 35 e4 7f be 14 14 c4 bd
       0.3343454 0.51692677 -0.24989398 -0.09574142
000050 bc fb 24 be 87 ce 5c bd e4 52 14 3f e6 ca 90 3d
       -0.16111654 -0.053907897 0.5793898 0.0706995
000060 6a 3d 31 3a 3a 6a 2e 3f d3 0a d1 3e 19 48 45 3e
       0.00067611656 0.6813084 0.4082857 0.19265784
000070 42 8d d5 3d f7 f0 b0 3e 9c 67 28 be 3e 69 03 bd
       0.104273334 0.34558842 -0.16445774 -0.03208279
000080 cb 2a 4f 3d 96 fb c1 bd 5e 96 7d 3e cc 3a 00 3f
       0.05057792 -0.09471814 0.24764392 0.50089717
000090 4f c8 a6 be 80 64 c5 bd 17 11 2b 3e f8 64 a6 bd
       -0.32574698 -0.096383095 0.16705738 -0.08124727
0000a0 5d 65 10 3e 57 ae a6 3e c0 78 8f bd 44 7d a1 3e
       0.14101167 0.32554886 -0.07005453 0.31540883
0000b0 f9 b0 0d 3f e9 66 ef 3d cd 9e ad 3d 05 5b 95 bd
       0.55348164 0.116895504 0.084775545 -0.07292751
0000c0 46 30 fd 3d dd 9b 68 3e 15 2f f0 3e ce 06 c9 3d
       0.12362723 0.22715707 0.4691092 0.09815751
0000d0 94 9f d1 3e 9a 6a fa 3e 79 1d 3e be 8f cc 14 3e
       0.4094206 0.48909456 -0.1856593 0.14531158
0000e0 d9 41 02 3f 2d b2 4d bb 41 82 a6 3e 50 93 06 3f
       0.50881726 -0.0031386719 0.3252125 0.5256853
0000f0 4c 16 57 bc 4d d8 0a 3e 08 e0 9e 3e 0e 33 99 bd
       -0.013127875 0.13559075 0.31030297 -0.07480441
000100 21 34 2f 3d 62 c2 b4 3e 20 d0 d4 bd 87 cc 46 3e
       0.042774323 0.35304552 -0.10391259 0.19413958
000110 c7 a0 09 3f 3f 67 13 bd b3 71 68 3e 06 4d a6 3e
       0.5376095 -0.035987135 0.22699623 0.3248064
000120 47 db d8 3d 8e b4 37 3e 7d 44 a1 3e c1 26 e6 bc
       0.10588699 0.1793997 0.31497565 -0.028094651
000130 41 5c b9 3e c4 1f cb 3e 8f df 82 3d 04 f3 97 3e
       0.36203197 0.39672673 0.06390297 0.29677594
000140 5d 34 82 3e e9 de 1d 3e 10 05 d6 3e bb c4 90 3e
       0.25430575 0.15417065 0.41800737 0.28275093
000150 d5 2f 77 3e c6 ab e6 3e a3 3a 8c 3e dc b8 ac 3d
       0.2413934 0.45052928 0.27388486 0.08433697
000160 89 0c b0 bd 92 80 ae be 27 88 64 3e 03 56 6e 3e
       -0.08596141 -0.34082466 0.22317563 0.23274998
000170 34 a2 f5 3d d4 6e 27 3d 75 7f c9 3e 6b b5 80 3e
       0.119938284 0.04087718 0.39355054 0.2513841
000180 ac 5e ff bc 36 b5 63 3e 01 de 6e be a0 78 a5 bd
       -0.031173073 0.22237095 -0.23326875 -0.08079648
000190 fa a7 df 3b 56 b4 8c 3d 79 99 92 3c 85 01 de 3d
       0.0068254443 0.06870334 0.017895447 0.108401336
0001a0 78 5f d8 3e c1 f2 b2 bd d7 ae df 3d 1b 56 07 3f
       0.42260337 -0.08737708 0.1092202 0.5286576
0001b0 b5 a5 eb 3d b8 ae d6 bc 83 57 f9 bc c0 b6 41 3e
       0.115062155 -0.02620636 -0.030437237 0.1891737
0001c0 e2 c1 aa bd b9 b1 6f bd 3a a1 8b 3d 3b 58 2d 3c
       -0.083377615 -0.0585191 0.06817861 0.010580118
0001d0 dd 0c 62 3e 57 f1 77 bc 83 25 72 3e c5 dc f2 3d
       0.2207522 -0.0151332235 0.23647122 0.11858515
0001e0 9f 43 ad 3e 59 72 df 3e 47 ae b7 3e 64 34 b8 3e
       0.33840653 0.43641928 0.3587515 0.3597747
0001f0 6d e0 98 3e fb 81 d5 3e b4 59 5f be fd 56 06 3d
       0.29858723 0.4170073 -0.21811563 0.032797802
000200 83 32 a5 3d f5 95 79 3d b5 0c 21 3e b7 49 b3 3e
       0.08066275 0.060934026 0.15727504 0.35017177
000210 5f 9b fd 3c a9 be a8 3d 28 03 05 3f 30 0f f5 bc
       0.030957876 0.082394905 0.5195794 -0.029914469
000220 d0 48 88 3c f2 73 c7 3d 27 fb f1 bc a4 5a 38 3c
       0.016636282 0.09738912 -0.029538704 0.011252079
000230 d7 52 d7 3e 3d 21 8b be d2 c5 4f bd 99 a7 90 3e
       0.4205539 -0.27173796 -0.050725766 0.28252867
000240 28 d9 27 bd c6 10 f2 3e fe 27 d6 3e 07 01 f9 3d
       -0.04097858 0.47278422 0.41827387 0.12158399
000250 21 b4 1a 3f b1 52 0f 3f f9 f6 9b bb 73 1d 8c 3e
       0.60431105 0.5598555 -0.004759666 0.27366218
000260 44 e3 4c 3e 1a 5c 63 be 9a 44 80 3e 84 2b 59 3e
       0.2000857 -0.22203103 0.2505234 0.21208006
000270 07 30 9e be 40 3d bc 3e 39 f7 21 3f e2 fa ae be
       -0.30896017 0.3676548 0.63267857 -0.34175783
000280 de 24 9f 3e 43 29 13 3f 14 2e 6c be 3a c2 85 3e
       0.31082815 0.57484835 -0.23064452 0.26124746
000290 41 75 92 3b 8c aa 51 3d 2e 67 03 3f c7 d2 9e 3e
       0.004469544 0.051188037 0.51329315 0.31020185
0002a0 f6 0f 0a 3d ad 5d 88 3e 6f 70 cb 3e b4 78 4e be
       0.033706628 0.2663397 0.39734218 -0.20163232
0002b0 20 58 b7 bc 5f e9 00 3f ab 4f 9b be aa e6 63 be
       -0.022380888 0.50356096 -0.3033422 -0.2225596
0002c0 79 f1 3d 3e 05 e0 ae be be 23 52 bd 07 37 bb 3e
       0.18549146 -0.34155288 -0.051303618 0.3656542
0002d0 5e 04 df bd e5 21 7f bb 97 59 65 3e 4c 55 d5 3d
       -0.10889505 -0.0038930115 0.22397457 0.1041666
0002e0 e2 2d fd 3e ab e7 05 3f 88 29 c1 be ba 9a 71 3e
       0.49449068 0.5230662 -0.37726998 0.2359418
0002f0 8d a3 ad 3e 4c 02 bc 3d b9 d3 91 3d fa 7c 21 be
       0.33913842 0.091801256 0.07120461 -0.15770331
000300 b9 b8 94 3d 03 22 0c 3f a4 83 48 3e 0a 39 5b 3e
       0.072617956 0.547394 0.19581467 0.21408477
000310 55 4c e6 3e 93 74 e7 3e 17 a5 2b be 3a 0f 69 3e
       0.44980112 0.45206127 -0.16762196 0.22759715
000320 04 cb 03 3f 11 51 43 be 4f fa f8 3e 5e 09 08 3f
       0.5148165 -0.19073893 0.4862847 0.53139293
000330 b6 50 38 bd a7 d2 14 3e ac c9 b4 3e 41 5b d9 bd
       -0.044998847 0.14533482 0.35310113 -0.106131084
000340 d3 b3 0b 3e b6 8b 9e 3e 0d d7 a3 be 23 47 9e 3e
       0.13642816 0.30965966 -0.32000008 0.30913648
000350 2e 33 11 3f 0b 2e 44 be 50 7c a7 3e d2 f9 98 3e
       0.5671872 -0.19158189 0.3271203 0.29878098
000360 86 1b 1e 3e 67 aa 19 3e 25 7a ea 3e 8e c8 f9 3d
       0.15440187 0.1500641 0.45796314 0.12196456
000370 6a f1 dc 3e 5b bf cc 3e b0 2e b8 3d e3 f9 d9 3e
       0.43152934 0.39989743 0.0899328 0.4257346
000380 f8 5b 95 3e cf 5a c0 3e 09 eb 2d 3f 1c 11 29 3f
       0.2917173 0.3756928 0.6793676 0.6604173
000390 aa 8d 11 3e fa 8c 03 3f 6c eb 87 3e 9d 36 4a bd
       0.14214197 0.5138699 0.265468 -0.04936849
0003a0 38 56 9e 3e cf 9e 8c bb 21 20 cd 3d bf 46 27 3e
       0.30925155 -0.0042913924 0.10015894 0.16335581
0003b0 77 8f cf 3c c4 c1 93 3e 11 07 0f 3f d4 1b 80 3d
       0.025336964 0.2885877 0.5587016 0.06255308
0003c0 e2 49 9d 3e df 05 a4 3e 8d a7 1e be c3 22 a9 be
       0.3072043 0.3203573 -0.15493603 -0.33034334
0003d0 d2 d6 6a 3d 21 80 e7 3c 5b e8 1b be 95 fb 80 3e
       0.057333775 0.028259339 -0.15225355 0.25191942
0003e0 8d 97 01 3f 02 89 ef bd 47 69 17 3e a0 e1 af 3e
       0.50621873 -0.11696054 0.14786254 0.34351826
0003f0 a3 a1 a5 bd 2a e2 1b bd 37 7d 2b 3e a1 17 71 3d
       -0.080874704 -0.038057484 0.16746984 0.058860425

conv2.bias f4 [32]
000000 a5 41 d5 3d 57 72 61 3c 69 c7 d0 bd fe 8c 37 bd
       0.10412911 0.013760171 -0.101942845 -0.044812195
000010 09 19 ab 3d 2e 7c 2f 3d e2 d9 11 3e 15 c6 0c 3e
       0.083543845 0.042843036 0.14243272 0.13747437
000020 4b 86 23 bd d0 0a e9 3d af 0b c9 3d 1f 6c df bc
       -0.039922994 0.113790154 0.098166816 -0.027273236
000030 18 e8 7b 3d a8 68 7e ba 5f 49 b1 3d 0d 2a f0 3a
       0.06150064 -0.0009704926 0.086565726 0.0018323079
000040 a8 da 15 3d 74 73 14 3e 1b e2 1a 3e a2 eb 09 3e
       0.03658548 0.14497167 0.15125315 0.13468793
000050 1f be e2 3d 58 9d 3c 3e 9d e4 90 3d 86 38 17 3e
       0.11071419 0.18419397 0.070748545 0.14767656
000060 8d b7 36 3e c3 07 fe 3d 33 e1 a6 3d 85 6b 4f bd
       0.17843457 0.12403824 0.08148422 -0.050639648
000070 30 34 04 3e ea 4f 02 3e bf a4 80 3d 16 68 20 3d
       0.12910533 0.12725797 0.06281423 0.039161764

fc1.weight f4 [64, 800]
000000 8f 21 e0 3b 3e df 07 3d dc 3b bd bc b9 c0 87 bc
       0.006839938 0.033171885 -0.023099832 -0.01657139
000010 3b cf 80 3c b1 ad fd bc c4 97 c3 bc 1f 60 02 3d
       0.015723815 -0.030966612 -0.023876078 0.03182995
000020 5f 82 15 bc a2 3d 6f bc 69 60 df 3b 88 4d 35 bc
       -0.009125321 -0.014602097 0.006816913 -0.011065848
000030 83 cf 72 bc f2 8f 9b bc 6b c1 41 bc ce 5a 72 3c
       -0.014819982 -0.018989537 -0.0118259 0.014792157
000040 05 0e ef bc 22 d9 87 3c 05 c3 ca 3c 8b 73 16 bd
       -0.02918149 0.01658303 0.024751196 -0.036731284
000050 e3 88 71 bc dc 00 02 3d 55 9a df bb c2 b3 39 3b
       -0.014742109 0.0317391 -0.0068238177 0.0028335904
000060 ff 4b f6 3b 68 33 ab 3c 15 0d 7f bc 55 31 f3 3c
       0.0075163837 0.020898536 -0.015567084 0.02968661
000070 17 3f 8d bb 3a 02 de 3c 97 13 8b 3c cc 05 df bc
       -0.0043104994 0.027100671 0.016977115 -0.027224444
000080 61 7f c5 3c 52 98 a1 bb 78 c6 af 3c c6 44 03 bd
       0.02410859 -0.004931488 0.021456942 -0.03204801
000090 e6 7e 57 bc 82 71 8e bc fb 5a 0d 3b 68 b1 0a bc
       -0.013152814 -0.01738811 0.002156912 -0.0084651485
0000a0 3b fc 9e ba bf 63 55 3c 60 a7 4c bc 79 90 a3 3b
       -0.0012129614 0.01302427 -0.012491077 0.0049915877
0000b0 96 15 0d 3c 7d c8 e0 3c d4 f3 09 3d 8d 2d bd 3c
       0.0086111035 0.02743935 0.0336798 0.02309301
0000c0 be e7 92 3c 98 f0 02 3d d9 72 ea 3c 06 32 28 3c
       0.017932769 0.03196773 0.028619217 0.010265833
0000d0 a9 c2 e0 3c 21 6d 03 bc 24 03 19 bc 5e 27 60 3c
       0.027436571 -0.008021624 -0.009339128 0.013681261
0000e0 74 0a 99 bb dd a0 9f 3c aa 7d 07 bd f6 66 71 bc
       -0.0046704356 0.019485885 -0.033078827 -0.01473402
0000f0 d7 44 6b bc 63 ac fb 3c 0e f3 f7 3b be f7 dd 3a
       -0.014359674 0.030721849 0.007566816 0.0016934795
000100 c3 05 a4 bc a4 a0 92 3c 6b d0 32 3b c8 71 07 bd
       -0.020022279 0.017898865 0.0027284871 -0.033067495
000110 71 db 13 bd b9 8d 01 bd 2b 1c eb 3c fc 81 c4 3c
       -0.036097948 -0.031629298 0.028699955 0.023987763
000120 21 02 3a bb 05 34 ea bc 57 a7 24 bb e1 11 8b 3b
       -0.0028382617 -0.028589258 -0.0025124156 0.0042440747
000130 53 23 82 3c 34 e9 0b 3c 93 71 30 3c f1 b0 fc 3c
       0.015885985 0.008539487 0.010769266 0.030846091
000140 40 dd 7b bc 17 5e 99 bc f4 fc 73 3c 60 60 92 3c
       -0.015372574 -0.018721623 0.014891852 0.01786822
000150 89 97 01 bd 94 64 6d 3c 53 dd 1f bc c6 d5 55 3c
       -0.031638656 0.014489312 -0.009757358 0.013051456
000160 93 7d 5e bc 78 5c 02 bd 82 0c ce 3c 04 c3 b8 bc
       -0.013579744 -0.031826466 0.025152449 -0.022553928
000170 4c 38 a5 3c 5b 53 12 bc ae 0c 7c 3c 1d 2e 08 bc
       0.020168446 -0.008931006 0.015383882 -0.0083117755
000180 c5 b1 eb bb b5 b7 19 bc 31 33 13 bd 8a 32 76 bc
       -0.0071928226 -0.009382178 -0.03593749 -0.015026698
000190 d4 73 f5 3c 7a 4b 8c bc 6b 4c d7 3c a5 44 12 3b
       0.029962458 -0.017125834 0.026281556 0.0022318747
0001a0 52 8c cb 3c a9 9e 3e bb 7a 3e b9 bc 2e 6c 77 3c
       0.024847183 -0.0029086268 -0.022612799 0.015101476
0001b0 51 00 c2 bc 18 ec cf 3b 05 70 c6 3c c0 22 05 3d
       -0.023681791 0.0063452832 0.024223337 0.032503843
0001c0 24 29 ab 3c 06 53 2f 3a 8d f1 fd 3b d7 f0 a7 3c
       0.02089364 0.00066880917 0.0077497424 0.020500584
0001d0 bd 62 ce b8 5b d6 ea bc e4 4e 10 bd f3 49 f3 3b
       -9.841237e-05 -0.028666666 -0.035231486 0.007424587
0001e0 56 a2 92 3c 9d 88 b8 3c 53 e9 e4 bb 25 b6 22 3b
       0.017899673 0.02252608 -0.006985822 0.0024827805
0001f0 34 57 8b 3b e6 61 f2 3c 73 be 02 bd 56 35 70 3c
       0.004252339 0.029587697 -0.031919908 0.014661154
000200 d8 fa 96 3c c0 c2 97 3c 6e 68 ed bc 22 fd 1e bc
       0.018430158 0.018525481 -0.02898046 -0.009703906
000210 b0 9a d5 bc 3c eb cc 3a bb e6 d5 bc 1c 76 d8 3c
       -0.026074737 0.001563407 -0.026110997 0.026423506
000220 15 0b 1c bc bc 2b a2 bc e6 42 f8 bc 90 4e b0 bc
       -0.009524127 -0.019796245 -0.030305337 -0.021521837
000230 e1 39 db 3c 56 53 46 bc a3 43 a3 bc 2b a6 ea 3b
       0.026760997 -0.01210483 -0.019929713 0.007160922
000240 16 66 d3 bc 4e 17 08 3d f8 b6 e1 bc bf 76 b0 bc
       -0.025805514 0.03322535 -0.027553067 -0.021540998
000250 6f c6 0f bb 37 ea bf bb 0e d9 ed bc 46 6e a4 bb
       -0.0021938344 -0.005856778 -0.029034164 -0.0050180284
000260 60 15 e6 3c 82 f7 96 3c 0a 9d 25 bc e4 fe f3 bc
       0.028086364 0.018428568 -0.010108242 -0.029784627
000270 32 07 9e bb 0a b8 21 bc c3 b1 4f 3b d5 90 b0 bc
       -0.004822635 -0.0098705385 0.0031691648 -0.021553436
000280 2e b0 aa bc 44 ee 5b bc 34 95 32 3a eb a5 6b bc
       -0.020835962 -0.013423506 0.0006812394 -0.01438282
000290 a5 54 c6 bc 19 3b 1d ba de 27 3e bc b6 2b ed 3a
       -0.024210284 -0.0005997881 -0.011606185 0.0018094692
0002a0 a3 92 c2 3c c7 0f 39 bb af b7 55 3c 76 01 ae 3c
       0.023751562 -0.0028238164 0.013044282 0.021240931
0002b0 28 e8 53 3c 2f be fa bc 77 fe f0 bc c8 fb 74 bc
       0.012933768 -0.030608265 -0.029418213 -0.014952607
0002c0 28 6f bd 3b b3 56 d7 3c 76 ac 0f bd b4 e1 16 bd
       0.005781073 0.026286459 -0.03507658 -0.03683634
0002d0 95 31 8a 3c db 05 c8 bb f1 03 97 bc f1 ff 9e 3b
       0.016869346 -0.0061042137 -0.018434497 0.004852288
0002e0 a3 89 eb bb 82 9f 02 3d 53 bb aa 3a 81 3e 18 bd
       -0.0071880384 0.0318904 0.0013025798 -0.037168983
0002f0 54 c0 03 bd 00 6e 0f bd 49 d3 cc 3a a8 a9 ea 3c
       -0.03216584 -0.035017014 0.0015626933 0.028645352
000300 af 01 83 bc 89 0d dd bb 0e c6 87 bb 94 b2 ae bc
       -0.015992014 -0.0067459983 -0.004143483 -0.021325387
000310 cc 88 49 bb a0 ce bb 3c 2c 25 97 bc 07 b9 2d ba
       -0.0030751703 0.022925675 -0.018450342 -0.00066269975
000320 99 70 d5 3c 47 45 99 bb 76 72 6a 3c 79 0f d6 bb
       0.026054667 -0.004677448 0.014309516 -0.006532606
000330 81 cd ff bc fe 77 12 bd b3 45 ba 3c 2e 8a 73 bc
       -0.031225922 -0.035758965 0.022738313 -0.014864488
000340 c7 33 d1 3c 7b f5 95 3c b7 ce cd 3c 4e ea fe 3c
       0.025537385 0.01830553 0.025122983 0.031117585
000350 99 df b2 ba ab ac 0b bd b5 be e7 bc e6 b5 8e 3c
       -0.001364696 -0.034100216 -0.028289178 0.01742072
000360 66 b9 ad bc bb 93 03 bc bb da 5d bb c3 c9 48 bc
       -0.021206569 -0.008030827 -0.0033852297 -0.012255135
000370 50 4d b0 3b 8f 96 39 bc 62 97 36 3c b8 07 12 bd
       0.00538031 -0.0113274 0.011144491 -0.035651892
000380 ce b4 24 bc e7 47 85 3c 64 20 fe 3c 45 d8 6d 3c
       -0.010052873 0.016269637 0.031021304 0.014516895
000390 e8 52 b7 bc de f4 bc bb 9b 8c 69 bc a7 8f 07 3d
       -0.0223784 -0.005766495 -0.014254714 0.033095982
0003a0 da 8c 11 bd 4e 91 13 bb d4 fa 62 3b a6 1e 26 3b
       -0.035534717 -0.0022517028 0.0034634368 0.0025347858
0003b0 98 5e 9c bb 14 b1 9b 3c 0e eb 8a bc c9 ce de bc
       -0.0047720186 0.019005336 -0.016957786 -0.027198212
0003c0 b1 0c 0d bc 95 8e f2 bc 65 62 81 bc 39 4a 0b bb
       -0.008608983 -0.029609004 -0.015793988 -0.0021253957
0003d0 89 76 60 3c 04 93 c1 3c 5d c0 e2 bc c6 de fb bc
       0.013700136 0.023629673 -0.027679617 -0.030745875
0003e0 fd 9d d4 3c 83 94 19 39 b0 17 11 bd ab 22 d4 3c
       0.025954241 0.00014646542 -0.03542298 0.025895437
0003f0 d2 8d 69 3c 5d ee 10 bd 8c 7f 3b 3c 4c d5 c5 3b
       0.014255004 -0.03538357 0.011443984 0.00603739

fc1.bias f4 [64]
000000 e6 a3 f0 3b 72 05 6a bc de 40 71 3c 08 a3 a2 bc
       0.007343757 -0.014283525 0.014724938 -0.01985313
000010 a6 9a 91 bc ae ac 0a 3d 70 f1 9f 3b 1d 02 b9 3d
       -0.017773937 0.033856086 0.0048810765 0.09033606
000020 c9 48 8c bc c2 6d 3e bc 84 60 81 bc 09 96 b1 3c
       -0.01712455 -0.011622848 -0.015793093 0.021677988
000030 81 2c 7b 3d 1d 83 96 3d f2 d5 f8 3c 8c ca fe 3c
       0.06132174 0.073492266 0.030375455 0.031102441
000040 d1 4d 12 3b 5a 61 96 3c df 0c a0 3d 3f 6a b0 bc
       0.0022324214 0.018356968 0.07814955 -0.021535037
000050 4e b6 fc bb ca 10 b9 3d 15 18 79 bc 8e a8 5b ba
       -0.007712162 0.090364054 -0.0152034955 -0.00083793036
000060 80 6d a6 bc 18 7c 3a 3c b6 bb 15 3d 66 4b 5a 3d
       -0.020315886 0.011382125 0.03655597 0.05329456
000070 3f a7 8c 3d 74 c1 33 3c 21 a4 67 ba d7 2b 22 bc
       0.06867837 0.010971416 -0.0008836408 -0.009898148
000080 e0 b8 0a bc 75 ce 6d 3c a9 ca a1 3d 42 28 90 bc
       -0.008466929 0.014514555 0.078999825 -0.017597321
000090 72 61 dc b9 33 82 d3 3d 70 c5 f6 3c 94 02 2d 3d
       -0.00042034272 0.10327568 0.030123442 0.042238787
0000a0 24 75 50 3c 35 2a 86 3d b1 0c 89 3c f2 64 8c 3d
       0.012723241 0.06551019 0.016729685 0.06855191
0000b0 09 26 22 3e 0c 78 db 3c 27 57 09 bb 75 05 3b 3d
       0.15834822 0.026790641 -0.0020956488 0.0456595
0000c0 d6 e2 f8 3d 18 6d 24 3d 1e 55 e8 3d a6 f2 a0 3b
       0.121526405 0.040143102 0.1134436 0.0049117384
0000d0 50 51 d5 3c ab c0 ba 3b 03 b2 91 3d d0 75 e4 3d
       0.02603975 0.0056992373 0.07114031 0.111552835
0000e0 fc 0e 9c 3d 8a f6 0d 3e 99 22 72 3d da 50 22 3c
       0.076200455 0.13863578 0.059115026 0.009906972
0000f0 1f 8a 4d 3d d0 eb ac bc 40 0e 12 bc d7 75 a0 3d
       0.05018055 -0.021108538 -0.00891453 0.07834976

fc2.weight f4 [64, 64]
000000 e4 44 e8 bd 48 47 e0 bc 67 13 02 be a0 e3 12 bc
       -0.11341265 -0.02737774 -0.12702714 -0.008965403
000010 a6 e9 29 bd a0 7e fb 3b 4c 9f 56 bd bc 9f 54 3d
       -0.04148259 0.007675007 -0.05239801 0.051910147
000020 00 e5 47 3d 7d 12 05 bd 62 fa 7c 3d 6c 96 df 3d
       0.048802376 -0.032488335 0.06176222 0.109173626
000030 a6 58 17 3a 2b 6d cb 3d c8 23 d1 bd 14 39 99 3d
       0.00057734025 0.099329315 -0.10211903 0.0748159
000040 19 0a 32 3b a0 b6 53 3c 57 a6 b2 bd b7 92 93 3d
       0.0027166663 0.012921959 -0.08723133 0.07205718
000050 5d 75 60 bd 26 fb f9 3d 8c b4 fb bd b0 e2 74 3d
       -0.054799426 0.12206106 -0.12290296 0.0597865
000060 bc 67 7c 3d 75 60 93 bd ba ae 8d 3c d6 11 1d 3e
       0.061622366 -0.07196132 0.01729523 0.15338835
000070 02 be 02 3e 5a b0 b6 3d ca 48 d9 bd 51 c4 b3 3d
       0.12767795 0.08920355 -0.106095865 0.08777679
000080 43 2b 4e bb 2d 4b 68 be cb 6d c3 bc 20 f0 1c 3c
       -0.0031458891 -0.22684927 -0.023856064 0.009578735
000090 ec 43 c0 3c bf 05 27 3d 8c 02 05 bd 83 3e 18 bd
       0.023469888 0.040776964 -0.032473132 -0.03716899
0000a0 80 19 67 bb e0 52 89 bc 31 dc ad bd 52 6b 30 3e
       -0.0035263002 -0.01676315 -0.08489264 0.1722844
0000b0 76 79 e6 3d 0d 82 49 3e 18 41 fc bd 1d 56 ad 3d
       0.112536356 0.19678517 -0.12317103 0.084636904
0000c0 09 b7 1b 3e 22 b0 d1 3d 98 e1 59 3d 80 14 e3 3c
       0.15206541 0.10238673 0.05319366 0.027719736
0000d0 c8 c4 e3 3d 22 32 9d 3d da 4d 1f 3d 7f a1 96 bd
       0.111215174 0.07675578 0.038892604 -0.07355022
0000e0 a7 05 6c 3d eb ad 25 3d 8a 42 3a 3d fc 8d 4a 3d
       0.057622578 0.040449064 0.045473613 0.049451813
0000f0 81 82 c3 bd 03 ab 53 3d 60 ca b3 3d ce 56 30 bd
       -0.09546376 0.05167676 0.08778834 -0.043051533
000100 3e 76 8c 3d 78 24 93 3d 56 9e 94 bc f8 c5 82 3d
       0.068584904 0.0718469 -0.018141907 0.06385416
000110 12 c1 e7 3d 34 c2 02 bd 38 3c f6 bc e0 d1 bc bd
       0.11316122 -0.031923488 -0.030058011 -0.09219718
000120 76 4b 9d 3d e4 d8 60 3d ec 0f 2e bd 5e 6f 9b bd
       0.07680409 0.054894343 -0.042495653 -0.07589601
000130 b7 b3 13 3d 96 f4 c2 bd 62 78 dd bd 6c 27 15 3d
       0.03606006 -0.09519307 -0.10813977 0.03641455
000140 fa 64 82 bd 14 b8 02 3d 27 8a e5 bd 40 a7 f8 bc
       -0.06366916 0.03191383 -0.11207991 -0.030353189
000150 24 0c 24 3d 77 3e cb 3d 34 9c 7f 3d 78 2e a4 3c
       0.04005064 0.099240236 0.062404826 0.02004169
000160 40 06 82 bb 92 ad 38 bb ec c3 26 3d de 09 58 bc
       -0.00396803 -0.0028179628 0.04071419 -0.013185946
000170 b9 56 2c 3b 00 e4 d6 39 a0 9b 2e bd 58 1f 26 bd
       0.0026296808 0.00040987134 -0.042628884 -0.040557235
000180 84 7a d9 3d 71 4c ab 3d 6f 81 61 bd 2c a8 4a 3d
       0.10619071 0.083641894 -0.055055078 0.049476787
000190 60 ab 84 bd 7a 1e f8 bc b0 ae 00 be 39 71 7f bd
       -0.06478 -0.03028797 -0.12566638 -0.062363837
0001a0 c0 7d 39 3d 18 9d e6 bb 24 50 4f bd ad c0 d0 3d
       0.04528594 -0.00703777 -0.050613537 0.10193
0001b0 d7 21 f4 3d 6f 35 b4 3d 7c ee 02 3d 4a 86 08 bc
       0.11920517 0.08799254 0.031965718 -0.008332798
0001c0 b9 f1 ca bd 52 14 a3 3d 99 1a f2 3c 7e 80 ab bd
       -0.09909386 0.0796286 0.029553698 -0.08374117
0001d0 1e 7e ce 3d 3a 07 c0 bd c5 35 03 be 80 30 f1 bd
       0.10082649 -0.09376378 -0.1281348 -0.11776829
0001e0 d3 fb bd 3d 74 4c 01 be 23 2e c7 bd 94 61 c7 bd
       0.09276547 -0.12626821 -0.09725597 -0.097354084
0001f0 64 69 8f bd 84 75 87 bd 78 f2 9e 3d c6 5c bc bd
       -0.070025235 -0.06614211 0.07761091 -0.09197383
000200 15 0b dd 3c a0 be ab 3c 2c 4a 2c 3d 48 7d bc bd
       0.026982823 0.02096492 0.042062923 -0.09203583
000210 bb 3b c4 bd 1e f4 e7 3d 28 7a 72 3d 36 f7 ef 3d
       -0.09581705 0.113258585 0.05919853 0.117170736
000220 56 5d 84 3d bf 93 ee bd 1c 0b f6 3d 14 db 93 bd
       0.06463115 -0.11649274 0.12013838 -0.0721952
000230 9f 83 c5 bd 0e 2c b8 bd b0 d6 aa 3c c0 c1 a6 3c
       -0.09644245 -0.08992778 0.020854324 0.02035606
000240 f2 1c 21 3c 00 54 f0 b9 c7 f2 0d be 6b 9b eb 3d
       0.009833561 -0.00045838952 -0.13862143 0.11504253
000250 63 16 c2 bc b4 08 6d 3d 28 f8 6c bd c6 7b e0 3d
       -0.023692315 0.057869628 -0.057853848 0.10961108
000260 60 38 e2 3b aa ac 8e bd 66 28 29 be 17 b2 38 bc
       0.006903693 -0.06966527 -0.16519317 -0.011272929
000270 5f 9f 5d 3d 54 4c 0f bd 00 a9 97 bd fb df 8b bd
       0.054107066 -0.0349849 -0.07405281 -0.0682983
000280 ec 70 f7 bd 4a 83 30 be dd c6 07 bc 00 ea 75 ba
       -0.12082085 -0.17237583 -0.008287159 -0.0009380877
000290 99 1e b0 bd ee a8 20 3e 21 79 5e 3e 31 ad 98 bd
       -0.08599586 0.15689442 0.21725895 -0.07454909
0002a0 96 ff d8 bd f9 ec 22 3e 0c 1f 09 3d 4e 02 17 3e
       -0.10595624 0.1591071 0.033476874 0.14746973
0002b0 1a 86 6c 3e 5a aa 38 3e f8 3b ef bc 24 1c 90 bd
       0.2309803 0.18033734 -0.0292034 -0.070366174
0002c0 27 f8 1f 3e 4f ea 0a be c2 fb 49 bd b0 1f 82 3d
       0.15622006 -0.13565944 -0.04931236 0.063537
0002d0 70 13 5f bd 50 c9 b2 3d d0 c2 16 bd 26 79 80 3e
       -0.054461896 0.087298036 -0.03680688 0.2509243
0002e0 5f 69 cc 3d 4f 7c 26 3e 28 47 a1 bc bc fe 20 bd
       0.099810354 0.16258357 -0.01968725 -0.039305434
0002f0 6e 92 41 3e fe 2d 68 bd c0 30 99 bc 77 11 57 3e
       0.18903515 -0.056684487 -0.018700004 0.21002756
000300 f4 1d 59 bd ac 44 5d 3d 70 3a 30 3e 70 88 5c 3c
       -0.05300708 0.05402057 0.17209792 0.013460264
000310 24 f9 89 3c f0 b2 06 3c fe a8 b8 bd 70 13 b6 3c
       0.016842432 0.008221373 -0.09016608 0.022226065
000320 e8 79 c9 3d 49 3d c6 3d 8f f6 ba 3d b4 55 eb 3d
       0.09837705 0.09679658 0.091290586 0.11490956
000330 2c ab 00 3e ce f0 15 be de f7 ce bd 3a 68 d0 bd
       0.12565297 -0.14642641 -0.10105871 -0.1017613
000340 e4 93 32 3d 26 d3 91 bd db 40 18 3e 81 b1 85 3d
       0.04359807 -0.071203515 0.1486849 0.06527997
000350 22 c9 cb 3c 20 41 84 bd a8 b3 9f 3d 63 89 9c bd
       0.024876181 -0.06457734 0.077979386 -0.07643392
000360 ea 4f c4 3d 49 a0 cb 3d 4c f5 51 3e 75 69 8b 3d
       0.09585555 0.09942681 0.2050373 0.06807224
000370 e7 89 57 3e 36 47 af bd 88 f9 eb bd bb 2d f0 bd
       0.210487 -0.08558504 -0.11522204 -0.117274724
000380 e4 62 52 bd 85 b8 e6 3d b4 a4 cc bc f0 ab 4e bd
       -0.05136384 0.11265663 -0.02498088 -0.05045694
000390 7b 72 6c 3d 99 98 01 3e 93 24 5d bd b8 4e 54 3e
       0.057726365 0.12655868 -0.053989958 0.20733154
0003a0 38 2f 5a 3d 95 b6 91 3e a3 68 28 3c 5d e9 dc bb
       0.053267688 0.28459612 0.010278854 -0.0067416863
0003b0 2f 44 00 3e 96 9e e8 bc ec f1 e6 bd 93 62 b9 3d
       0.1252601 -0.028395932 -0.11276612 0.09052005
0003c0 db 81 1a 3c 1d e1 a1 3d 68 e8 8c 3d 9a 1d 97 3d
       0.009430374 0.07904265 0.068802655 0.07378693
0003d0 4c fe cc 3d bc d1 60 3d bd 48 dc bb 62 95 ee 3c
       0.10009441 0.05488752 -0.0067225383 0.029123966
0003e0 28 a5 31 3d 8b a1 79 bd a3 48 eb bc c8 eb b6 3c
       0.043370396 -0.060945075 -0.02872116 0.022329226
0003f0 cf 46 9d bc 9a 50 34 bd 58 dc 1c bd 71 da 63 3d
       -0.019198803 -0.04402218 -0.038296074 0.055628244

fc2.bias f4 [64]
000000 1e bb e3 3c 6a 03 a9 bd da 26 60 bd ba 7f ef bd
       0.027799185 -0.08252604 -0.05472455 -0.11694284
000010 e7 25 61 bd af 6a f0 bd 99 86 b3 3d 08 2e a4 bd
       -0.054967787 -0.11739098 0.08765907 -0.08016592
000020 06 be 42 3c c8 71 91 3d 85 78 29 be e1 ad 4c bd
       0.011886125 0.0710178 -0.16549881 -0.04997051
000030 21 09 69 bd 2b d0 4a 3d e9 bb c7 bd ab aa ce 3d
       -0.05689347 0.04951493 -0.09752638 0.10091146
000040 c8 0a c5 bc fd d7 e3 bc 27 73 51 be d8 48 14 bd
       -0.024052992 -0.027812952 -0.20454083 -0.03620228
000050 e6 b6 19 3d 76 7f 60 bc 5c be 2e 3e 87 43 21 3d
       0.03752794 -0.013702264 0.17064804 0.03937104
000060 38 b4 54 3e 75 44 2f 3d 93 b6 21 3e 54 6f 83 3d
       0.20771873 0.042789895 0.15792303 0.064177185
000070 c7 98 a6 bc f6 7e 28 3d f7 23 ca bb 55 f3 25 3e
       -0.020336522 0.041136704 -0.006168838 0.16206105
000080 21 6f b7 3d bc 4b bc 3d 4b ea 00 be 6f c8 d1 3d
       0.08956743 0.09194133 -0.12589376 0.10243308
000090 0a d7 94 3d a0 24 f1 bd 64 d9 28 3e 69 71 c7 3d
       0.07267578 -0.11774564 0.16489178 0.09738428
0000a0 26 80 12 3d c0 7a 19 be 4f d6 61 3e 29 e8 98 3d
       0.035766743 -0.14988232 0.22054408 0.07466156
0000b0 be 1d 6b bb f4 76 70 3d a9 9e 6c 3d 12 e5 2e 3d
       -0.0035875882 0.058707193 0.057768498 0.042698927
0000c0 50 35 23 3e 99 9a ae bc 4c 38 a6 bc 33 be 6e 3e
       0.15938306 -0.021313952 -0.020290516 0.23314743
0000d0 1d ca 3f 3d b2 b9 71 bd 44 da 03 3e da 99 23 3e
       0.04682361 -0.059014983 0.1287623 0.15976658
0000e0 4a 3b b6 bc 9f 0a c8 bd 84 4b 88 bd 84 b0 d4 3c
       -0.022245068 -0.09767651 -0.066550285 0.025963075
0000f0 b7 46 74 bc 15 18 94 3d 8a 10 36 3d 68 b9 e1 3b
       -0.014909438 0.07231156 0.044449367 0.006888557

fc3.weight f4 [7, 64]
000000 ff a2 74 3d 00 2a 62 bb 2c 17 2d be 5e 5d f5 3c
       0.059725758 -0.0034509897 -0.1690337 0.029951748
000010 ea fe a1 bd 69 bb 34 bd d3 7c 9d 3d 14 59 6b bd
       -0.07909949 -0.04412404 0.07689824 -0.057458
000020 07 b2 94 bd 64 e2 98 bc 02 5e d0 3e d6 61 b1 bd
       -0.072605185 -0.018662639 0.40696722 -0.08661239
000030 c0 e6 87 3e 5f 5f 60 bc fc 7d d6 3d 36 64 88 3c
       0.26543236 -0.013694613 0.10473248 0.016649347
000040 1f 69 e6 3c 1f bf 64 be ed ed c3 3e c5 33 a2 3e
       0.028126298 -0.22338532 0.3826746 0.31680122
000050 e5 f6 45 3d 7a 36 f7 bd 83 4a 1c 3e f6 83 35 3d
       0.04833116 -0.120709375 0.15262799 0.0443153
000060 11 a6 34 3c 28 40 ae 3e bb 97 9c bd 60 81 1c 3d
       0.011025921 0.34033322 -0.07646128 0.03820932
000070 b4 ee 21 be c1 3b 75 3d bb 92 73 3e 75 26 5c bc
       -0.15813714 0.05987144 0.23786442 -0.013436903
000080 59 a8 4b be 1d 60 b2 3d d7 45 7b 3e 54 1d 2a be
       -0.19888438 0.087097384 0.2453836 -0.1661275
000090 c9 8d b7 bc ad ce 16 3f eb 59 22 3e 63 14 e4 3c
       -0.022406476 0.5890911 0.15854613 0.027841752
0000a0 65 76 39 3f 35 75 8a 3e 1c 7f e5 bd 9b f5 c7 bd
       0.7244628 0.27042547 -0.11205885 -0.097636424
0000b0 c5 63 1f bc 4f fe 51 3d bd 04 7c 3d a9 65 d3 3e
       -0.009728377 0.05126792 0.061527956 0.41288498
0000c0 71 71 60 3d b1 a0 3e 3d 68 4f 8e bb 45 ea 39 bd
       0.054795686 0.046539966 -0.004342962 -0.045389432
0000d0 40 c2 00 be b6 a9 0e be 62 9d 4d bd 9a fe 2e bd
       -0.125741 -0.13931927 -0.05019892 -0.042723276
0000e0 fa 84 9d bd a7 fc de 3e f8 c1 29 bf 12 86 1c 3f
       -0.07691379 0.43552133 -0.663116 0.61142075
0000f0 5c 05 b1 3d 93 68 ac 3d 7f ac 8a 3d b3 0b 48 3e
       0.086436 0.084183834 0.06771182 0.19535713
000100 5d ca 6f bd ef ea 8d bd b2 a5 2c be 54 0d 0c 3e
       -0.058542598 -0.06929576 -0.16860083 0.1367696
000110 37 97 ac 3d d2 f9 70 3e 5b 67 69 bd 54 e9 94 bd
       0.084272794 0.23532799 -0.056983333 -0.07271066
000120 e4 dd 05 be ec c2 c5 bc f3 92 67 3f 5b de 18 bd
       -0.13072926 -0.024140798 0.904586 -0.03732143
000130 46 01 b0 be 12 61 99 bd 00 a5 a9 bd e5 a2 0b 3e
       -0.34375972 -0.07489218 -0.082834244 0.13636358
000140 0c 73 b2 bd b7 f6 2e 3e c8 f4 47 3d ed ba f0 3e
       -0.0871335 0.17086302 0.048817426 0.47017613
000150 4f 15 05 bd 47 a2 6a 3d 4c 8f ba 3d 3d dc af bd
       -0.032491025 0.057283666 0.09109363 -0.08586929
000160 bf c7 a7 3d d9 d7 ff 3e 28 5a ba be f5 76 43 bd
       0.081923954 0.49969366 -0.3639691 -0.04772087
000170 a3 47 be bd 6f e9 05 3e 06 5a 96 3e b9 b6 90 bd
       -0.09291007 0.13077329 0.29365557 -0.070661016
000180 fc f2 25 3c bb cc 35 3b 15 47 92 3e ef e9 8d 3c
       0.010128733 0.0027740437 0.28569856 0.017323462
000190 d6 d3 f0 bc 48 ee 36 be b4 af 8f bc 49 b8 e2 3d
       -0.029397886 -0.17864335 -0.017539836 0.11070306
0001a0 aa 39 01 3f 40 61 14 3f 9c f9 0e 3d ac 08 ee bd
       0.50478613 0.5796089 0.034906015 -0.11622748
0001b0 f7 9a 0b be 82 a6 c4 bd d1 83 c8 3b 87 d1 08 3f
       -0.13633333 -0.09602071 0.0061192294 0.53444713
0001c0 69 3f c8 bd 02 11 86 bd e5 fa 33 bd 2a 24 25 bd
       -0.097777195 -0.06546213 -0.043940444 -0.04031769
0001d0 62 e2 e3 3d 99 c5 ef bd c9 b2 58 bd 22 a4 87 bd
       0.111271635 -0.11707611 -0.052904878 -0.06623103
0001e0 93 f5 3e 3d d5 4c be 3e 3a 2f e6 be e7 0a df 3e
       0.046620917 0.37167993 -0.44957906 0.43563005
0001f0 71 1b b8 3e 7f 4f 5e bd 52 28 1d 3e 1c b8 f2 3d
       0.35958436 -0.054275032 0.15347412 0.11851522
000200 b7 9b ac bc 28 b2 6c 3d 23 8c 37 be 47 4f 22 bd
       -0.021070344 0.05778709 -0.17924552 -0.039626386
000210 53 a6 42 bc b1 98 d1 3e ed 0b b7 3e d0 61 8b 3c
       -0.011880475 0.40936807 0.35751286 0.017014414
000220 64 b3 d5 3a c4 25 57 be ea 72 d0 3e c5 3f ca bc
       0.0016304073 -0.210105 0.40712672 -0.02468861
000230 54 e8 ae 3e af 10 6c 3d 0c 8b dd 3c a7 2d 5b bc
       0.34161627 0.0576331 0.027043842 -0.013377584
000240 20 53 c4 3d f0 08 f8 be dd 9b a8 3d e5 54 a5 3e
       0.09586167 -0.4844432 0.082328536 0.32291332
000250 28 60 0f bd 55 ec c2 3d 5d d0 b8 3c 26 af 15 be
       -0.03500381 0.09517733 0.022560293 -0.14617595
000260 6b 2a 64 bd a9 8b 89 3e 3c 19 0f bf e8 57 22 bd
       -0.055704515 0.26864365 -0.5589788 -0.039634615
000270 29 61 b7 3d de ac db bd 53 10 ee 3e a0 15 ef 3d
       0.08954079 -0.10726331 0.4649683 0.116740465
000280 a2 7c 00 3d fd 83 6a 3d d4 b5 d1 3e ed 8d 1b bd
       0.03136886 0.05725478 0.40959036 -0.037977148
000290 3c e4 d1 3d 7b 4f 70 3e 73 cb 50 bd b1 f9 c6 bc
       0.102486104 0.2346782 -0.050975274 -0.024288984
0002a0 99 79 47 3f e9 0e d2 3e 8e 9b 03 3d 99 86 10 be
       0.7791992 0.41027 0.03213077 -0.14113845
0002b0 6f 1a c5 bd da ea 07 3e de 25 50 3e cb 2b 90 3e
       -0.096241824 0.13273183 0.20326945 0.2815841
0002c0 91 f2 df 3d b0 5f ad 3d 71 0c 23 3e 90 44 97 bc
       0.10934938 0.084655166 0.15922715 -0.01846531
0002d0 04 6e 4f bd d0 5d 7a bd ce 71 12 3c c6 00 a6 3d
       -0.05064203 -0.061124623 0.008938266 0.08105616
0002e0 ed 50 74 bc 71 e6 79 3d a9 92 98 bd 17 60 d3 3e
       -0.014911872 0.06101078 -0.07449848 0.41284248
0002f0 db 63 0d 3e b8 ef 96 bd 90 0f 21 be a7 62 ab 3e
       0.13807623 -0.073699415 -0.15728593 0.33473703
000300 f6 9f 23 3c d0 2a fb 3d bc 5d 05 bd 48 d8 d2 3d
       0.009986868 0.12264025 -0.032560095 0.102951586
000310 99 8b 64 be 22 fa 8d 3e ca f3 a8 3e 08 c8 4f 3d
       -0.22318877 0.277299 0.32998496 0.050727874
000320 26 b3 94 3d ed bc 48 bd 0e 6c 39 3f a2 77 3a bd
       0.07260732 -0.0490083 0.72430503 -0.045524247
000330 39 e2 82 3e e2 70 ed bc 61 0b 9a 3e 9b 1c 3d 3d
       0.2556322 -0.02898449 0.30086806 0.04616986
000340 b0 06 17 bd 69 3a a7 3d 9b a9 e7 3e e3 29 01 be
       -0.036871612 0.08165438 0.45246586 -0.12613635
000350 64 2c 15 3d e7 d5 b8 bd da 04 13 bd 78 4d e1 3d
       0.036419287 -0.09025174 -0.0358933 0.11001104
000360 f8 3d 5d bd 30 11 37 3f 6d c2 77 3d 4e 30 92 ba
       -0.054014176 0.715106 0.060488153 -0.0011153312
000370 19 a5 1c 3d a8 1f 19 be 37 6d d3 3e 74 dc 39 3d
       0.038243387 -0.14953482 0.41294262 0.045376256
000380 77 88 86 3c f9 68 48 bd 4c 8c 45 3d 50 e5 00 be
       0.016422493 -0.048928235 0.0482295 -0.12587476
000390 ba 52 03 3d b5 c3 ee 3d 75 f2 a8 bd 2c 65 0c bd
       0.032061316 0.11658422 -0.0824937 -0.034276173
0003a0 34 c6 9a 3e cb 0d 80 3d 8e 22 3e bd 62 c9 73 bd
       0.30229342 0.06252631 -0.046419673 -0.059518225
0003b0 2c 93 6f bd b8 24 f8 3d cf 5e f2 bb f8 57 4a 3e
       -0.058489963 0.121163785 -0.007396556 0.1976012
0003c0 71 93 40 bd 47 ae 70 ba f5 06 dd bd cb b9 6c bd
       -0.04701561 -0.0009181243 -0.107923426 -0.057794373
0003d0 5c d1 98 3d d9 d4 7e 3e 11 04 b7 3d 89 68 1b be
       0.07461807 0.24885882 0.089363225 -0.15176596
0003e0 69 05 4f b9 20 10 8f 3e 57 c5 df be ea c6 39 3f
       -0.00019743074 0.2794199 -0.43705246 0.72569144
0003f0 11 62 f7 3e ee 72 db 3d a3 8d 38 3d 34 ab 0f bd
       0.48317006 0.107152805 0.04505695 -0.03507538

fc3.bias f4 [7]
000000 f6 e7 04 bd ed e7 9e bd 98 60 98 bd 88 93 45 3d
       -0.032447778 -0.0775908 -0.07440299 0.0482364
000010 f9 c1 c7 bb 5f a8 3a 3e c6 6b 04 be
       -0.0060961214 0.18228291 -0.12931737
