src/models/v4_simple_env_multiple_drop_pickup_10x10_2agent_0human_0shelves_4_pickup_8dropoff.pth (torch, 253572 bytes, 10 tensors)

conv1.weight f4 [16, 10, 3, 3]
000000 ef 4b 3f 3e 93 37 17 bf a0 77 5c 3c b2 12 42 bf
       0.1868131 -0.59069175 0.013456255 -0.75809777
000010 67 13 ac 3d 65 e6 60 3e f1 69 05 3e a5 1d 1e 3e
       0.08402138 0.21962889 0.13028695 0.15440996
000020 6e b9 11 3f 10 c1 31 3d c7 bf ff 3e 80 07 d1 bc
       0.5692357 0.04339701 0.49951002 -0.025516272
000030 65 b1 bf 3e 7b d6 4b be 96 c7 fb bc 08 ed 3a be
       0.3744003 -0.19906037 -0.030734818 -0.18254483
000040 18 0c 40 be a5 60 58 3e 22 b9 26 3d 2e 4b 2b 3d
       -0.18754613 0.21130617 0.0407039 0.041819744
000050 b5 dd a2 3d aa ca 4d 3d 90 8a 10 3c e8 74 81 bd
       0.079524435 0.050242104 0.008822098 -0.06321126
000060 21 95 b3 3d 66 bd 58 3d 34 b1 16 bd 00 55 ce ba
       0.087686785 0.052915 -0.036790088 -0.0015741885
000070 20 3d 69 bc ab 5d 33 bd 18 fe 28 bd 60 a8 e2 bc
       -0.014235765 -0.0437905 -0.041257948 -0.027668178
000080 8e 64 13 3d 96 4b 46 3d 92 53 5e 3d dd ba cf bd
       0.03598457 0.048411928 0.054278918 -0.10143063
000090 7f fb f7 3e 16 ff d8 be 0f cb 06 3f ce 8e 85 bf
       0.48434064 -0.42382115 0.5265359 -1.0434206
0000a0 e3 34 b8 3d ad b1 82 3e 57 12 82 be 87 f1 fa bd
       0.08994462 0.2552618 -0.25404617 -0.12253099
0000b0 11 da 49 bf ff 60 b2 3d ee 0c 4a be 69 ad 7d be
       -0.7884837 0.08709907 -0.19731495 -0.24773182
0000c0 f8 96 7a bd 5a 78 d5 bd 2a 47 b2 3d 38 32 dd bd
       -0.06117913 -0.10423346 0.0870498 -0.10800594
0000d0 95 73 25 be b9 a5 d7 3d b9 54 aa bd e1 bd 0a bf
       -0.16157372 0.10529656 -0.08316941 -0.5419598
0000e0 89 4e 2f 3d 2a 1f d1 3d de f1 96 3b aa ce 96 3c
       0.042799506 0.10211022 0.0046064695 0.018409092
0000f0 a7 bd e0 3d f8 f5 49 3e 61 b4 c8 3d 4a d9 1a 3d
       0.10973673 0.19722736 0.098000295 0.03780488
000100 8e 36 8a 3c e4 4a 63 bc 36 b6 46 3e 05 68 1c ba
       0.016871717 -0.013872836 0.19405445 -0.0005966428
000110 73 50 2c 3d 60 af 0c 3d 65 58 e2 bd ad 57 0a be
       0.04206891 0.034346938 -0.11052016 -0.13510008
000120 45 00 db 3d 42 36 66 bc d7 9d 9c 3e 5b 42 58 be
       0.10693411 -0.014051022 0.30589172 -0.21119063
000130 de 21 92 bd 20 5d 09 3e d2 9e 5d bc 17 6e 7e 3c
       -0.07135366 0.1341443 -0.013526635 0.015529177
000140 18 24 92 bd 63 38 04 bc ee 91 69 3e 82 3b e6 bd
       -0.071357906 -0.008070084 0.22809574 -0.11241819
000150 f9 af 95 3e 6f 36 83 3e 7a a7 8e 3d 9a a6 26 be
       0.2923582 0.25627467 0.06965537 -0.16274491
000160 48 23 55 3d e5 2a dd be dc b7 65 3e 0b dc 97 3e
       0.0520356 -0.43196788 0.22433418 0.29660067
000170 c9 3d a4 3d d1 18 da 3c 63 7a 70 bc a6 ad e3 3d
       0.08019597 0.026623162 -0.014677617 0.11117105
000180 33 02 65 3c 83 73 a6 3d 70 0f 20 bd c2 45 46 3f
       0.013977575 0.08127501 -0.039077222 0.7745019
000190 24 3a 1b be e8 89 5d 3f 97 84 23 be 8e 41 1b 3d
       -0.15158898 0.86538553 -0.15968548 0.037904315
0001a0 0d c1 e2 3e a9 22 f2 be 60 94 87 3e 40 6d c3 3e
       0.4428791 -0.4729207 0.2648039 0.3816929
0001b0 c2 98 02 3d 9c c7 ae bd 72 10 5f 3d 11 c5 64 bd
       0.031883962 -0.08534166 0.054459043 -0.055852
0001c0 a4 8a f1 3c f0 c0 9c bc b5 e0 ad 3d 20 0b 13 bb
       0.029485054 -0.019134969 0.08490125 -0.002243705
0001d0 1c 11 bd 3c 84 32 82 bc 2b 85 9b bd c0 78 d1 bb
       0.023079447 -0.015893228 -0.07593759 -0.0063925683
0001e0 2c 00 e8 3c 14 88 d9 bc d8 b5 d6 bc d9 56 b1 3d
       0.028320394 -0.026554145 -0.026209757 0.08659143
0001f0 1b f2 c8 3d b4 95 e7 bc fa b4 b5 3e 61 68 3c bf
       0.09811803 -0.028269626 0.35489637 -0.7359677
000200 0d a7 a6 3e d3 0d 31 bf 08 9e 6e bf 4c 6e 8c be
       0.32549325 -0.6916172 -0.93209887 -0.274279
000210 67 5b a8 bd c7 10 90 bd a1 bf 8d be 25 99 33 be
       -0.082205586 -0.0703445 -0.27685264 -0.17538889
000220 0e 60 f5 bd d4 0a ca 3d 8e 7b 45 be f3 a2 87 be
       -0.119812116 0.098653466 -0.19285414 -0.26491508
000230 8f c0 cd 3d 5b 91 ed 3e 8e a3 ca 3d 57 37 d8 3e
       0.10046493 0.4639996 0.09894477 0.4222972
000240 27 86 e5 3d 52 6b f5 3e 5f c7 25 be b5 c5 e8 3d
       0.11207228 0.4793344 -0.16189335 0.113658346
000250 9b 22 ff 3e 4a 34 a9 3e 15 73 b8 3c b4 31 33 bc
       0.4983109 0.33047706 0.022515813 -0.010937143
000260 94 1a 27 3f c6 d2 00 3e d9 e6 a9 ba b5 16 e2 3d
       0.6527493 0.12580404 -0.0012962475 0.11039487
000270 89 72 0d 3d 4c 06 d3 3d e3 94 a9 3d 69 ec 97 3d
       0.034533057 0.103039354 0.08280351 0.074181385
000280 74 b2 81 3d 47 67 20 3d f6 ef 2f 3e 2f c5 db bd
       0.06332865 0.039160993 0.17181382 -0.10730969
000290 ae b2 65 3e aa 85 16 be 91 94 0f bf e4 69 ed 3d
       0.22431442 -0.14699426 -0.5608607 0.11592463
0002a0 4d 7e e9 3c 31 66 8a be 62 38 51 be e8 a6 17 bf
       0.028502608 -0.2703109 -0.20431665 -0.59239054
0002b0 fc 67 e1 bd 2f 65 03 bd 71 56 ff bc 1b 78 a2 bd
       -0.110061616 -0.032078918 -0.031169148 -0.079330646
0002c0 5c e8 a6 3d a5 ce 43 be 23 04 62 3e 35 b1 74 be
       0.08149788 -0.19121797 0.2207189 -0.23895724
0002d0 0a 66 8c 3e 64 5e 3b 3e a5 a5 5e 3e b0 ab db bd
       0.274216 0.18297726 0.21742876 -0.10726106
0002e0 c9 84 ab bd 35 79 f4 be 37 8d 9c 3e 9d a4 4e 3d
       -0.08374936 -0.47748724 0.30576488 0.050449956
0002f0 7d eb 19 3e 13 ca d7 be 0e fd 43 bf 13 14 58 3d
       0.15031238 -0.42146358 -0.76558006 0.05275352
000300 a8 28 ba be 51 40 05 3e 81 46 18 bd f1 e6 aa be
       -0.36359143 0.13012816 -0.037176613 -0.3337932
000310 43 66 47 3e 18 fa e8 3d 35 bf 94 bd 9a b4 3c bd
       0.19472603 0.113758266 -0.07263032 -0.046070673
000320 ce 81 72 3d c1 26 65 bd 72 39 05 3d 91 72 a7 bd
       0.059205823 -0.05594516 0.032525487 -0.08176149
000330 2a 86 1d 3d 64 a9 d6 3c 00 70 05 3b 62 13 44 3d
       0.038458027 0.026203819 0.0020360947 0.047870047
000340 80 00 80 3b 16 70 94 bd 28 66 67 bc f6 d3 2f 3d
       0.0039063096 -0.07247941 -0.014123477 0.04292675
000350 e0 b6 ce bc a0 55 44 bb c1 db 81 3d e4 42 8e 3c
       -0.025233686 -0.0029958263 0.06340743 0.01736588
000360 dd f6 64 3e 1a dd f4 3e a3 a5 8b 3e 8b 92 5e 3e
       0.22359796 0.47824937 0.27274808 0.21735589
000370 39 50 03 be cc a3 99 bd 8b fa f0 be 46 0f bb bd
       -0.12823571 -0.07501945 -0.4706615 -0.091337726
000380 73 ae 06 bf 1f 3c 10 bd 80 c8 20 bd ec 7d 87 bc
       -0.5260994 -0.035213586 -0.03925371 -0.016539536
000390 93 ca a1 3d 54 1b 01 3d 2e 75 21 3e ef 0f 23 be
       0.07899966 0.031520203 0.15767357 -0.15924047
0003a0 fd bd a3 3d 50 ed d6 bd 38 93 8d 3e ce 5f b2 3e
       0.07995222 -0.104944825 0.27651381 0.34838718
0003b0 2c cd fe 3e f4 cc ab 3e a4 ec 98 3d 6f 40 b2 3d
       0.4976591 0.33554804 0.074670106 0.08703696
0003c0 e5 a6 66 bd 04 29 0e 3d 9d 99 4b be 9e e7 f3 bd
       -0.056311507 0.034707084 -0.19882818 -0.11909412
0003d0 85 3f 70 3d cd 5a d6 bd 8b 64 5d bd a2 46 0a 3d
       0.058654327 -0.104665376 -0.054050963 0.033758767
0003e0 9c 2e cf 3d dd 93 14 3b 06 4c be bb 09 05 45 3d
       0.10116312 0.0022671141 -0.0058074025 0.048100505
0003f0 42 dc 75 3d 48 80 e5 3c a3 2f 9f 3d 48 39 bf 3c
       0.060024507 0.02801527 0.07772758 0.023342744

conv1.bias f4 [16]
000000 d4 3c 4e 3e 9f e4 31 3e 7f 12 b0 3d 66 c8 a9 3e
       0.20140392 0.17372368 0.08597278 0.33160704
000010 ed 02 02 3e 60 a5 f9 3e 5d 27 92 3d e0 55 f4 3d
       0.12696429 0.48758984 0.07136414 0.11930442
000020 27 b9 58 3e de e3 1e 3e ee 3b 8c 3e 36 e3 94 3e
       0.2116438 0.15516612 0.27389473 0.29079598
000030 85 d9 78 3e 7a 2d 01 3e fb e2 1f 3b f1 8c 6f 3e
       0.24301727 0.12615004 0.0024396766 0.23393609

conv2.weight f4 [32, 16, 3, 3]
000000 fd fc a4 3d 8b e4 e2 3d bf 5d 30 3e f4 fe 69 3e
       0.08056066 0.11078747 0.17223261 0.22851163
000010 93 36 95 3e fd 84 db 3e a0 bb 1d 3d bc e9 f1 3d
       0.291432 0.428749 0.03850901 0.118121594
000020 aa ad 3e bd 34 d8 0a 3c d5 aa 8f 3d 39 06 51 be
       -0.046552338 0.008474398 0.070150055 -0.2041253
000030 0b 88 01 3e 4e a9 2b be be fd 44 be 20 1c 8c be
       0.12649553 -0.16763803 -0.1923742 -0.27365208
000040 e4 c2 0b be 7c e2 73 be d1 27 03 3e 1d 61 85 3e
       -0.13648564 -0.23816866 0.12808158 0.26050654
000050 84 c0 0a bd f5 01 86 3e 12 59 72 3e 50 22 fd be
       -0.033875003 0.26173368 0.2366679 -0.4944024
000060 c1 93 0a be 88 8b 3e be 98 b6 85 be 14 28 49 3e
       -0.13532926 -0.18607914 -0.2611587 0.19644195
000070 6f e5 d8 3e 10 7d 83 3e 66 aa ec 3e 13 0b c9 3e
       0.42362544 0.25681353 0.46223754 0.3926626
000080 b4 bc aa 3e 18 42 cd 3e a1 e0 c2 3e 20 f3 ae 3e
       0.33347094 0.40089488 0.38062003 0.34169865
000090 0b 36 af 3e 2b 6f 8d 3e b9 48 f1 bd 4d e4 7c 3d
       0.3422092 0.27623877 -0.11781449 0.061741162
0000a0 35 56 1e 3e a2 ed fa 3d 2e ea c4 3e 5d a7 a7 3e
       0.15462573 0.12252356 0.38459915 0.32744876
0000b0 76 54 ef 3e 88 16 4f bd 48 d8 39 3b 26 1e 0f bd
       0.46744126 -0.050558597 0.0028357673 -0.03494086
0000c0 c4 df 56 3e c4 9f ae 3e c2 eb cd 3e f2 01 53 3e
       0.20983797 0.34106266 0.4021893 0.20606211
0000d0 b0 a2 ba 3e b9 39 68 3e 43 9d c6 3e f2 ec 1e 3e
       0.36452246 0.2267827 0.38791856 0.15520075
0000e0 35 92 ca bd a6 ae 46 3e 8a c1 ca bd 9d 06 ac 3d
       -0.09891168 0.1940256 -0.09900196 0.08399699
0000f0 ef 64 76 3e 4d de a8 bc 25 8e 71 3e f3 73 ad 3d
       0.2406194 -0.020613814 0.2358938 0.08469381
000100 a2 9b 90 3d 15 c3 4f bd 2a 0a 0a 3e 76 b1 7e be
       0.070609346 -0.050723154 0.1348044 -0.24872383
000110 9c 15 a1 be 1a 67 82 3d 7d 1f f3 3e e8 1b f5 3e
       -0.314618 0.06367321 0.4748496 0.47872853
000120 0c 01 82 3e 39 91 1f 3e 81 98 5f 3e 97 6d 31 3e
       0.25391424 0.15582742 0.2183552 0.17326961
000130 f9 51 02 3e 3e 2a 81 bd d6 71 e5 3e 93 c4 c5 bc
       0.12726583 -0.06306885 0.44813412 -0.024141585
000140 c7 89 5a 3d 92 f0 89 bd 74 34 98 3d ca 2b 97 3e
       0.05335405 -0.06735338 0.0743188 0.29525596
000150 14 e0 5c 3e 0c 8a a9 3d d6 39 1f 3f d1 9b 44 3e
       0.21569854 0.082782835 0.62197626 0.19200064
000160 79 95 7e 3e ec 55 30 3f 7c 65 59 3e d7 a8 33 3e
       0.24861707 0.68881106 0.2123012 0.17544876
000170 8c 7c 19 3e 66 9e 39 3e 8c b5 67 3e e6 f6 05 3f
       0.14988917 0.1812683 0.22627848 0.5232986
000180 7b 2b 8b 3e 37 9c 00 3f 9e e1 f4 3e c7 f9 b5 3e
       0.2718161 0.50238365 0.47828382 0.35542127
000190 0c 10 b8 3e 84 de 89 3e 62 ae 10 3f 46 76 1a 3f
       0.35949743 0.26927578 0.5651609 0.6033672
0001a0 48 32 fa 3e dd 06 c8 3e 95 ea 02 3f f3 c7 a0 3d
       0.48866487 0.39067736 0.51139194 0.07850637
0001b0 56 2a 00 be 11 31 3f 3e 14 94 4c 3e f5 b0 d6 3e
       -0.1251615 0.18671061 0.19978362 0.41931883
0001c0 1e 64 87 3e 78 5b e1 3d 1f 7f e8 3e 75 0d af 3e
       0.2644357 0.110037744 0.45409486 0.34189954
0001d0 ef 23 e3 3c 7f b5 2c bd a1 48 02 3e b1 6d cc bd
       0.027727095 -0.042165276 0.12723018 -0.099818595
0001e0 26 3d 41 3e fc eb 1b be b4 ff 6d be 76 b2 82 3d
       0.18870983 -0.1522674 -0.23242074 0.06381695
0001f0 14 d8 20 be 96 4a 64 bd fe d8 e9 bd 91 15 29 3e
       -0.15707427 -0.055735193 -0.11418341 0.16512133
000200 3e 77 01 be ea e7 28 bd 42 e0 28 be 95 68 8f be
       -0.12643144 -0.041236795 -0.16491798 -0.28009477
000210 78 17 a1 be 5e e4 99 3e 60 f2 e3 bd ba 9d f9 3d
       -0.31463218 0.30057043 -0.11130214 0.12188287
000220 2c 75 dc 3e 35 62 e2 bd e5 6f 12 3f 5b b8 25 3e
       0.43058145 -0.11053888 0.5720199 0.16183607
000230 73 b7 15 be 01 b1 02 3e f9 78 94 bd 54 c0 15 be
       -0.14620762 0.12762834 -0.07249636 -0.14624149
000240 ae c6 c2 3d 62 34 80 3d e1 d8 3d 3e 29 7b 68 3d
       0.095105514 0.06259991 0.18539764 0.05675808
000250 2c a4 07 3e 4c 43 21 3f 0d 54 ee bd a0 66 83 3e
       0.1324622 0.6299331 -0.11637125 0.25664234
000260 5a be 90 3e 5a 03 70 3c 94 51 1f 3d b1 64 51 3d
       0.28270227 0.014649237 0.03889616 0.051121417
000270 62 3d 36 be 40 af 16 3d f9 22 d8 3d 30 23 28 be
       -0.17796853 0.036788225 0.105535455 -0.16419673
000280 44 e2 db bd 71 4b 20 be 1f d4 18 3e 06 12 94 3e
       -0.10736516 -0.15653779 0.14924668 0.2892
000290 c7 ae c8 3e 34 49 a4 bd c6 68 07 3e 18 6c 24 3e
       0.39195845 -0.08021775 0.13223562 0.1605686
0002a0 b2 11 64 be 89 f6 72 3e e5 c1 b0 3e 91 86 77 3d
       -0.22272375 0.23726858 0.3452293 0.060431067
0002b0 95 70 30 3e 16 cc 2f 3d 07 14 64 3d 34 57 86 3e
       0.17230447 0.04291924 0.055683162 0.26238406
0002c0 95 13 55 3e af fe 4a 3e 9a 3b 03 3f d1 29 b2 3e
       0.20808251 0.19823717 0.5126282 0.34797528
0002d0 07 a7 c3 3e 2c 25 8a 3e 8b 42 05 be f8 0f d4 3e
       0.3821337 0.26981485 -0.13013665 0.41418433
0002e0 d8 39 98 3e 6d 68 8e 3e 82 c7 97 3e e5 0f 92 3e
       0.2973163 0.27814046 0.296444 0.28527752
0002f0 c9 b0 2c be 71 f3 a6 3d 51 ae 25 3e d2 42 49 3d
       -0.16864313 0.081519015 0.16179778 0.04913599
000300 75 a3 59 3e 60 83 e9 3e 8a b5 66 3e 3a f4 c0 3d
       0.2125376 0.45608044 0.22530189 0.094215825
000310 ab 3f 95 3e c2 da 92 3e 5a 4f 43 3e 6e b7 5b 3e
       0.29150137 0.28682524 0.19073239 0.21456692
000320 c6 a2 dc bb 62 a1 98 bd 30 c4 06 bc ed bc ef 3d
       -0.0067332713 -0.07452656 -0.008225486 0.117059566
000330 f2 41 b4 3e 54 46 17 3f d4 56 9c 3e bc f0 4e bd
       0.35206562 0.5909169 0.30534995 -0.05052255
000340 04 f5 e0 3d be ed 0b 3d 21 ec 22 be ee e5 d4 bd
       0.10984233 0.034162275 -0.15910389 -0.10395418
000350 27 87 ba 3d 3f 7b d1 3c 6c 66 27 3f ed 62 01 3f
       0.091078095 0.025571464 0.6539066 0.50541574
000360 be 6f 84 3d c7 57 32 3d d1 dc 79 be 71 26 cc 3c
       0.06466626 0.043540742 -0.24400641 0.024920674
000370 18 8c 35 3e c6 9b 11 3c 02 97 52 3e 53 0b 97 3e
       0.17729223 0.008887237 0.20565417 0.29500827
000380 f5 d9 80 3e 42 cc 23 bd 47 cf 10 be 8a b8 b4 3d
       0.25166288 -0.039989717 -0.1414157 0.088242605
000390 ec ad 89 3e 3b 49 93 3e b5 72 7b 3e ee 0c 04 3c
       0.26890504 0.28766808 0.24555476 0.008059723
0003a0 6c cc d6 3e ae 35 b1 3e ae 42 bc 3d cf 4f 24 3e
       0.41952837 0.34611267 0.09192406 0.1604607
0003b0 fe 7c 0a 3e 30 42 a4 bd cf e6 55 3e c2 b8 96 3e
       0.13524243 -0.08020437 0.20888828 0.29437834
0003c0 98 78 a9 3d 6c c8 82 3e 62 5a 85 be 43 83 97 3d
       0.082749546 0.25543535 -0.2604552 0.07398083
0003d0 8d b5 bb 3e a0 50 1b 3e dd d1 88 3e f9 f8 27 3f
       0.3666195 0.15167475 0.26722613 0.6561428
0003e0 39 5c 22 3f 7d f7 3d 3d 4e a0 11 3f 6e 14 a5 3e
       0.6342197 0.0463786 0.5688523 0.3224215
0003f0 f0 a0 8a bd 3d f9 3e be 62 6d 0e bd 0e ce 96 3e
       -0.06768978 -0.18649764 -0.034772284 0.29454082

conv2.bias f4 [32]
000000 f1 95 01 3e e8 be d7 3d 3e c3 8b bb fb 42 18 3e
       0.12654854 0.10534459 -0.004265218 0.14869301
000010 8f 2a 0c 3e c6 57 10 3e ea d6 5c 3d bf ab 23 3e
       0.1368811 0.14095983 0.053915896 0.15983485
000020 0c 97 ec 3d 14 c7 e8 3d 76 9a 6d 3d 50 98 63 3d
       0.115522474 0.11366096 0.058008634 0.05556518
000030 db 39 04 3d f7 89 b3 3d bb 72 04 3d 27 8b 62 bd
       0.032281738 0.08766549 0.032335978 -0.055308487
000040 3e 5c 30 3e 52 fb 99 bc ed c4 18 3e e7 d9 e8 3d
       0.17222688 -0.018796597 0.14918871 0.113696866
000050 4d ba ef 3b 07 5b 04 3e ea fc 0d 3e 69 88 1c 3e
       0.00731591 0.12925349 0.1386601 0.15286411
000060 8a 87 76 bd c9 70 ab 3b 57 78 84 3d df 56 ce 3b
       -0.060187854 0.005231951 0.064682655 0.006296977
000070 0d 77 0c 3e f8 7a 01 3d 25 3d b2 3d 34 d7 b3 bb
       0.1371729 0.031611413 0.08703069 -0.0054883007

fc1.weight f4 [64, 800]
000000 26 cb bc 3e 79 2a a0 3e 7d 90 8b 3d fa d5 e6 bb
       0.3687374 0.31282404 0.06814668 -0.007044551
000010 0b 2e a2 bd ed ca e7 3d 26 14 03 3d a6 4e 16 3c
       -0.07918938 0.11318002 0.032001637 0.009174025
000020 41 62 bb bd 77 a2 27 be 20 d1 65 3d 56 e4 a9 bc
       -0.091496 -0.16370569 0.05610764 -0.020738762
000030 6b 26 5c bd 9b bb 3a be 0d 6d 68 be 73 80 91 3e
       -0.053747576 -0.18235628 -0.2269785 0.2841831
000040 40 0b 56 3d 85 75 90 bb ef 60 26 be 05 d5 c9 bb
       0.052256823 -0.0044085407 -0.16247915 -0.006159427
000050 2d 46 03 3f 33 31 87 3e 3a c9 86 3c df fd 1c be
       0.51278955 0.26404724 0.016453374 -0.15331219
000060 29 59 00 3d 2d c8 85 3e 0b 2a 45 3e 14 0f 89 3d
       0.03133503 0.26129285 0.1925432 0.06692329
000070 de 0d 44 bc be a5 96 bd b2 ca 69 3d f2 79 6c 3d
       -0.011966197 -0.073558316 0.05707807 0.057733484
000080 6f a1 e7 3c a9 73 9d bd 66 6c 02 bd 27 15 c0 bd
       0.02827522 -0.07688076 -0.031841658 -0.093790345
000090 34 e3 b7 3b 3f be 8a bd 38 56 65 be 95 3e a2 be
       0.0056118015 -0.06774568 -0.22396171 -0.3168837
0000a0 cb 49 88 3d a9 22 23 3d 4f 6e 28 3e bc 07 cb 3d
       0.066547 0.039827976 0.1644833 0.099135846
0000b0 49 ca 72 3d b7 69 a3 3e 08 9f e8 3d 72 0c 51 3e
       0.059274945 0.31916592 0.11358458 0.20414904
0000c0 c3 b6 dd bc 9e d0 59 3c 4a 78 86 3e d4 85 36 3e
       -0.027064687 0.013294367 0.26263648 0.17824489
0000d0 c8 7c fd 3c 1d f7 b5 bb a8 fb 8b bd 3d 9e 03 3e
       0.03094329 -0.00555314 -0.06835109 0.12853332
0000e0 79 fa 28 3e af 13 9b 3d 9f af d4 bd 39 70 70 be
       0.16501798 0.07572114 -0.103850596 -0.2348031
0000f0 6e 28 2a 3d 79 3e e5 3d 7e 6c e1 bd ae 2e 2d be
       0.041542463 0.11193556 -0.11007021 -0.16912338
000100 0f 8e 2b be 78 8b 20 3e e0 8b c0 3d 37 58 a1 3d
       -0.1675341 0.15678203 0.09401679 0.07878154
000110 d1 9d 20 be a1 71 4d bd 91 09 f8 3e 5c 0b 90 3e
       -0.15685202 -0.050157193 0.484448 0.28133667
000120 ae 20 69 3d aa d6 f8 3d 70 fb 01 3e 65 5b 24 3e
       0.05691593 0.12150319 0.12693572 0.16050489
000130 ee 11 48 3e 82 47 24 3d e8 a8 86 3c c4 8f 61 bd
       0.1953809 0.040107258 0.016437963 -0.055068746
000140 7b de 5e bc 42 a4 fb bc 05 b5 ee 3c 78 64 5e bd
       -0.013602848 -0.030717973 0.029139051 -0.054295033
000150 9a 79 db bd c5 32 ab bd 53 e3 01 be 20 6b 19 be
       -0.10716553 -0.08359293 -0.12684374 -0.14982271
000160 d6 ec 36 be e3 a2 84 be 49 94 8e 3d d4 28 6f bc
       -0.17863783 -0.25905523 0.06961877 -0.0145971365
000170 88 03 d4 3b 3e 24 b4 bc 36 01 85 3d a8 9b 6e 3e
       0.0064701475 -0.021989938 0.064943716 0.23301566
000180 8d 73 b5 3c 16 a5 02 3e ef 75 d2 3c c4 99 14 3e
       0.022149825 0.12758288 0.025691 0.14511782
000190 8e ed 1a 3e b2 76 09 3e d3 20 75 bc 7a dd 59 3b
       0.15129682 0.13424185 -0.014961439 0.0033243583
0001a0 b2 dd 81 bc 7a 0c 8e 3b 56 fe c1 3c 05 09 9b 3d
       -0.015852783 0.0043349834 0.023680847 0.0757008
0001b0 aa 5d 8f bd 11 95 55 be 53 d9 35 be 43 3e 32 be
       -0.07000287 -0.20857646 -0.17758684 -0.17406563
0001c0 ae 77 12 be ed ef 5b be 30 23 43 be 3f e0 65 bc
       -0.14303467 -0.21478243 -0.19056392 -0.014030515
0001d0 87 69 20 bd 8d 44 99 bc 07 0a f3 bd 86 a5 c5 bd
       -0.03916314 -0.018709445 -0.11867147 -0.09650712
0001e0 3c 71 60 3e b9 8e eb 3c 37 b6 5f 3d d1 3a 5f 3d
       0.21918195 0.028754579 0.054617133 0.05449945
0001f0 d9 58 2f 3e 4a 6a 51 3e 2c 1a 4b 3e e0 d9 f4 3d
       0.17123736 0.20450702 0.19834203 0.11955619
000200 4a 29 87 3d e6 a7 47 3c 64 4d d1 bc ad c7 84 3b
       0.06599672 0.012186026 -0.025549598 0.0040521235
000210 91 db 45 3d 94 f4 9c bd fe dc 23 be ed 9e 2b be
       0.048305098 -0.07663837 -0.1600227 -0.16759844
000220 4c 51 ed bd 55 b4 b3 bd 63 42 f7 bd 9c b4 40 be
       -0.11587772 -0.0877463 -0.12073209 -0.18818897
000230 e7 64 4c bd 7d 9f 73 bc 34 4e 39 3d e5 75 ae bd
       -0.049900915 -0.014869568 0.045240596 -0.0851858
000240 10 5e 0b bc 6c fb 50 3e 77 fb f6 3d 66 85 68 3d
       -0.008506313 0.2040841 0.12059682 0.056767844
000250 25 a1 99 3d 64 7b 43 3e 78 e3 8b 3e 4a b8 47 3e
       0.07501439 0.19090039 0.27321982 0.19503894
000260 29 e1 b3 3c e5 7c aa bb 08 7f ce bd 0e 0e 1f 3e
       0.02195795 -0.005202877 -0.10082823 0.15532705
000270 05 49 0e 3e f5 7a 70 3d b7 aa e5 3c 23 1b ed bd
       0.13895042 0.05871101 0.028035505 -0.115774415
000280 d3 c5 90 bb 7a 73 aa 3d c1 99 95 bd 3d 55 73 be
       -0.0044181137 0.08322807 -0.07304717 -0.23762985
000290 a6 90 a3 be 04 6a e4 bc 37 24 87 3d 2f b8 05 3e
       -0.31946295 -0.027882583 0.06598704 0.13058542
0002a0 60 ec f0 bc b8 6d be bd 50 84 87 3e c3 41 26 3e
       -0.029409587 -0.09298271 0.26468134 0.16236024
0002b0 57 76 03 3e 4f e0 b5 3d 28 d8 19 3e c8 a9 41 3e
       0.12838112 0.08880674 0.15023863 0.18912423
0002c0 68 d6 31 3e 83 71 8e 3d e2 59 25 bc f1 db 02 bd
       0.17366946 0.069552444 -0.0100922305 -0.031948034
0002d0 4d ab 3a 3d 26 28 e4 3c 8d e4 ac 3c f1 01 6c bd
       0.04557352 0.027851176 0.021105075 -0.05761904
0002e0 02 9a 8f bd c1 93 49 be da 4a 1a be 3c 36 e3 bd
       -0.070117965 -0.1968527 -0.15067616 -0.11094329
0002f0 4c c9 3c be 62 9a 9d be c2 0a 8a 3d 84 d8 9c 3d
       -0.18436164 -0.30781847 0.06740333 0.076584846
000300 b1 82 e7 3d 3d 9e 36 bb d0 ca 1a bd ab 49 ab 3e
       0.11304224 -0.0027865313 -0.037791073 0.33454642
000310 67 95 80 3e 00 2d 90 3e 62 fe f6 3d 87 b1 32 3e
       0.25113985 0.28159332 0.120602384 0.17450534
000320 2e be 81 3e 71 ed 21 3e 11 30 10 3e a4 e6 88 3d
       0.25340408 0.15813233 0.14080836 0.06684616
000330 6a ee 2b bd 31 2d 3b 3e 0a 62 98 3d c2 d9 9d 3d
       -0.041975416 0.18278958 0.074405745 0.0770755
000340 11 db 91 bd 37 49 ca bd b2 96 3f bc 0c 43 6a bd
       -0.07121862 -0.09877246 -0.011693643 -0.057192847
000350 00 90 41 be 0a 3b 30 be 06 a9 61 be 9d 93 fe 3c
       -0.18902588 -0.17210022 -0.22037134 0.031076247
000360 2a ee 49 3d b1 88 52 3d 36 62 6b bd a6 bc a6 3b
       0.049299397 0.05139989 -0.057466708 0.0050884066
000370 ce f6 a0 3e 64 97 b8 3d 91 65 17 3e f5 44 66 3e
       0.31438297 0.090132505 0.14784838 0.22487243
000380 86 9d 36 3e 0f c4 22 3e a5 75 10 3e ef b6 b3 3d
       0.17833528 0.15895103 0.14107378 0.08775126
000390 78 e6 f9 3a ad 8c bb bc f0 c9 bb 3d 94 77 af 3d
       0.0019065877 -0.022894228 0.09169376 0.085677296
0003a0 87 80 ec 3d 5d a5 41 bd 13 f6 15 be 15 1e 1a be
       0.11547952 -0.047276843 -0.14644651 -0.15050538
0003b0 6a 29 9b bd c2 b0 20 be f4 41 1e be c1 be 1a be
       -0.075762585 -0.15692428 -0.15454847 -0.1511183
0003c0 a2 a8 2b 3c 6e f7 82 bc 89 ed 1b 3d be 1b c9 bc
       0.010477217 -0.015987124 0.038068328 -0.024549361
0003d0 5d 2c e1 3b 4e f7 c3 3e c8 01 e8 3c f2 e2 04 3e
       0.0068717436 0.38274616 0.028321162 0.12977198
0003e0 d9 40 6c 3e 73 18 74 3e bd 42 31 3e 36 cf 34 3e
       0.23071612 0.23837452 0.17310615 0.1765717
0003f0 5e cc 23 3e 93 81 9b 3d 75 ff 4e bd 20 c0 89 3d
       0.15995929 0.07593074 -0.05053659 0.06726098

fc1.bias f4 [64]
000000 e0 d9 67 bc 88 f0 c1 3d 4d c3 b2 3c 9d 39 36 bc
       -0.014151067 0.09469706 0.021821642 -0.0111221345
000010 73 ec 5c 3d d0 cc 19 bb b8 16 02 3e 76 13 07 3e
       0.053936433 -0.0023468025 0.12703979 0.13191018
000020 30 1c 7a bc b5 44 b9 bc 97 fc 02 3d 5c 04 6a bd
       -0.0152655095 -0.02261577 0.03197917 -0.057133064
000030 51 34 dc 3d c4 65 42 3b da e9 b4 3d 4a a4 45 3d
       0.10752166 0.0029662708 0.08833666 0.04825238
000040 ed b7 84 3c d7 8b d1 3c 36 19 a2 3b f4 5b ae 3c
       0.016200984 0.025579376 0.004946853 0.021284081
000050 6a 25 4c 3c 21 16 06 bd ae 45 17 3c c5 8a 95 3d
       0.012460092 -0.032735948 0.0092329215 0.07301859
000060 6b bc d6 bc 6e a7 28 3d 2c f1 d9 3d 6c 43 94 3c
       -0.026212892 0.0411753 0.10641703 0.018098556
000070 e2 69 b4 bc 71 78 d7 3c 44 22 01 3e 8e 2d fe 3d
       -0.022023145 0.026302548 0.12610728 0.124110326
000080 05 53 32 bc 5a f6 c7 3b 32 f2 90 3d 6b 7c 97 3d
       -0.010884051 0.0061023654 0.07077445 0.07396778
000090 a1 68 02 3d 46 59 1b 3c 65 be a3 bd 46 09 d5 bc
       0.031838063 0.009481734 -0.07995299 -0.026005398
0000a0 da cc 43 bc 32 17 89 3b 7d f7 8c bc a6 f0 fd 3c
       -0.011950696 0.0041836733 -0.017207855 0.03099854
0000b0 33 54 de 3c f5 4d fb 3d 79 87 d5 bc 58 91 b3 3c
       0.027139759 0.122707285 -0.026065575 0.021919891
0000c0 34 5c 96 bb 35 0e 55 3d 19 d3 5f 3c ed c0 fa 3d
       -0.004588628 0.052015502 0.013661169 0.12243829
0000d0 7a 5e 2d 3d 03 d6 06 3e 29 6f 9e 3d b2 0e f0 bc
       0.042326428 0.13167576 0.07736046 -0.029303882
0000e0 a3 83 06 bd c5 79 b7 bc 61 12 03 3e b3 c6 4b bc
       -0.032840382 -0.022396931 0.1279998 -0.01243751
0000f0 2b 39 cb 3c be ea 26 3d 69 ce 85 bc 57 e0 80 bc
       0.024807533 0.04075121 -0.016333776 -0.015731974

fc2.weight f4 [64, 64]
000000 39 a5 08 bd 98 96 04 3e 7f 55 5a be 1a 53 e8 bc
       -0.033360694 0.12948072 -0.21321677 -0.028359938
000010 0a 05 51 3e b0 2e e1 3d 59 9c 39 3e 42 70 1d be
       0.20412078 0.10995233 0.18126048 -0.15374854
000020 28 0e ef 3c 44 96 d0 3b a5 75 96 3d 9d 40 3b bc
       0.029181555 0.0063655693 0.07346658 -0.011428979
000030 fa 0b 01 3e db 22 54 bd ed ae 97 3d fe 36 60 3c
       0.12602225 -0.051791053 0.07406411 0.013684986
000040 44 a9 49 3d 72 b1 d9 bc b4 c6 41 bd c0 86 0d bb
       0.04923369 -0.02657387 -0.04730864 -0.002159521
000050 ec 9a 51 3d 02 96 96 3d 04 2d 02 3e 9d 0f dd bd
       0.051173136 0.073528305 0.12712485 -0.107939936
000060 e9 5d 1f bb bc da c5 bd 96 f7 39 3e b0 66 bb bc
       -0.002431745 -0.09660861 0.18160853 -0.022876114
000070 14 3c 8d 3d a7 65 93 3d e0 ad c6 bd 0c 2e 9c 3d
       0.068962246 0.07197123 -0.09701133 0.0762597
000080 c2 6e 31 3d 75 ff f1 3d a6 8b 81 3d e7 1f cd bc
       0.043318518 0.11816303 0.06325464 -0.025039626
000090 e6 1a ef 3d b3 98 24 bd ea ea 8c bd 14 03 42 3d
       0.11675052 -0.040184688 -0.06880744 0.047366217
0000a0 78 6c 1e 3d 66 87 42 3e 64 ce 4a 3d 08 f2 94 bc
       0.038677663 0.18996963 0.049513236 -0.018181816
0000b0 a8 e7 94 bd e3 ab 5d 3d ca 12 a7 bd 16 84 98 bd
       -0.072707474 0.054119002 -0.081578806 -0.074470684
0000c0 7a 14 b4 bd a4 a1 d0 3d 82 12 01 bd 73 27 91 bd
       -0.08792968 0.101870805 -0.03151179 -0.070876025
0000d0 83 66 86 3e 1a e8 0f 3e 07 75 23 3e e3 ff 2b 3d
       0.26250085 0.14053383 0.15962611 0.04199208
0000e0 82 b8 da 3d 05 68 8f bd 6b 89 96 3e b4 99 8c 3d
       0.10679723 -0.07002262 0.29401717 0.06865254
0000f0 08 7a a4 3d b7 3d a2 3e fa bb bc bd 90 e7 5e bc
       0.08031088 0.3168771 -0.09215541 -0.0136050135
000100 cc 30 ca bd c0 d8 5d 3c 1a 8d fb bd 00 52 15 3d
       -0.098725885 0.013540447 -0.12282772 0.036455154
000110 7c 94 b7 3d 16 cb c6 3d 3a 3c b4 bd 48 a4 b3 bc
       0.08963868 0.09706704 -0.0880055 -0.021928921
000120 4a a4 b6 3d de 4d 8b 3d e8 31 0f bd 36 0e c8 bd
       0.089180544 0.06801961 -0.034959704 -0.097683355
000130 82 5e a9 3d b8 c5 e5 bd 70 55 f1 bc cc 99 c7 bd
       0.08269979 -0.112193525 -0.029459685 -0.09746131
000140 1c 08 a8 bd 0a 35 b7 3d fe 5c fa bd 90 14 50 3d
       -0.08204672 0.08945663 -0.12224768 0.05080086
000150 0e d2 8a 3d a0 01 78 bc ec 18 da bd 38 6a 30 bd
       0.06778346 -0.015137106 -0.10649285 -0.043070048
000160 04 da 00 3d 60 a8 9f 3d d4 c6 29 bd b0 22 88 bc
       0.031457916 0.07795787 -0.041449383 -0.016618103
000170 20 3a 91 bd 34 70 cd 3d 56 1d ae 3d 02 fb b3 3d
       -0.070911646 0.10031167 0.08501689 0.0878811
000180 00 a5 60 bd 44 c3 66 3d 32 d6 d1 bd 14 51 fc bd
       -0.054844856 0.056338564 -0.10245933 -0.12320152
000190 b2 82 b6 bd fa b3 aa bd 80 64 1d 3d b6 bf b8 bd
       -0.08911647 -0.08335109 0.038425922 -0.09020941
0001a0 d6 5b 84 3d da 72 ca 3d 00 c2 cd bd 70 81 e7 bc
       0.06462829 0.098851874 -0.10046768 -0.028259963
0001b0 a0 ab 3e bc e8 f8 bb 3d 00 42 b1 ba 72 f0 f5 3d
       -0.011637598 0.091783345 -0.0013523698 0.12008752
0001c0 f0 42 ca 3d 08 3d 20 3d 36 1b 85 3d 5c bf 8c bd
       0.098760486 0.039120704 0.06499331 -0.068724364
0001d0 2c 22 5c bd 96 46 d7 3d d8 eb a7 bd 82 5c 89 bd
       -0.053743526 0.1051151 -0.081992805 -0.067070976
0001e0 32 1c e1 bd 3e 7d a9 bd a6 99 84 bd 6c c6 a2 bd
       -0.10991706 -0.08275841 -0.064746186 -0.07948002
0001f0 40 13 23 3c fa 75 b1 bd e0 7f e5 bc b0 f4 1e bc
       0.00995332 -0.0866508 -0.028015077 -0.009701893
000200 27 de a3 3d 76 ad 2f bd 21 00 45 3e 75 30 d3 3d
       0.080013566 -0.042890035 0.1923833 0.10311977
000210 2a 79 2c 3d b2 88 b2 3d 32 a8 a7 3d 08 c3 46 3e
       0.04210774 0.08717479 0.081863776 0.19410336
000220 7e 5d d2 bd 6c a5 68 3d 55 63 ee 3c bb e4 08 3d
       -0.102717385 0.056798384 0.0291001 0.03342126
000230 a9 91 1d 3e cd f8 bc 3c c5 77 dd 3d a2 af 3d 3e
       0.15387596 0.023067856 0.1081386 0.1852403
000240 52 a1 ec bd c4 ff 1e 3d 68 bd e2 3d 08 00 05 bd
       -0.11554207 0.038818136 0.110712826 -0.032470733
000250 84 54 01 bd b3 08 e1 bd 1b ca bd 3d 90 d9 d7 bc
       -0.03157474 -0.10987987 0.09267064 -0.02634886
000260 32 34 7e bd 01 2d 3e 3e 19 20 42 be 97 51 c2 3d
       -0.062061496 0.18571855 -0.18957557 0.09488218
000270 a8 6d 94 bc c9 2d 94 3b 5c bd 8c 3e ab 5c f5 3d
       -0.018118694 0.0045220596 0.2748822 0.11980566
000280 3b f2 9a be 8e da 74 bd aa f6 07 3d 6a 98 af 3d
       -0.30262932 -0.059778742 0.03319422 0.085739926
000290 64 00 d8 3d 02 58 9e bd 97 64 0e bc b6 31 aa 3d
       0.105469495 -0.0773163 -0.008690975 0.08310263
0002a0 8f 89 28 bd a8 e8 c4 bc d0 c5 7a 3d ae 54 f4 3d
       -0.04114681 -0.02403672 0.061223805 0.11930214
0002b0 b2 1b ab bb 88 3a ae 3d ff 75 ff 3d e9 92 ac bd
       -0.0052218074 0.08507258 0.12473678 -0.084264584
0002c0 b8 00 12 3d 5e 86 49 3e 92 bb 9d bc 10 ef 54 3e
       0.035645217 0.19680163 -0.01925448 0.2079432
0002d0 48 c5 cc bc ce 7c 7d 3d ab 7c 6b bd 34 c7 12 bc
       -0.024996415 0.0618866 -0.05749194 -0.008958627
0002e0 98 fa 0d 3d 26 94 e1 3d 53 25 74 3c 0f f8 27 3a
       0.034662813 0.11014585 0.014901477 0.0006407508
0002f0 6c 3c a1 3d 24 a0 52 3d 94 ab 12 3d 86 d2 c1 3d
       0.07872853 0.051422253 0.03580816 0.09463982
000300 b4 a8 c0 bc 6b b3 ec 3d ad e1 e5 bd e7 7f e1 3c
       -0.023517944 0.11557659 -0.11224685 0.027526809
000310 a0 97 81 bd 90 f6 40 bd 20 20 4b 3d 62 d1 a4 3d
       -0.06327748 -0.04711014 0.049591184 0.08047749
000320 4c 92 1b 3d f4 4d a3 bd 4f 85 ba 3d 08 1d 47 3d
       0.037981316 -0.07973853 0.09107458 0.04861167
000330 79 ab 74 3b bc 99 ac 3d be 89 75 bd 68 4f 36 bd
       0.003733365 0.0842776 -0.059945814 -0.04450932
000340 5b df b8 bd cc 39 80 3d d4 8b 81 3d 4e 03 e8 3d
       -0.09026977 0.06261024 0.06325498 0.11328755
000350 57 4b 36 3d 52 83 32 bd fd 61 c9 bd 4f 66 03 be
       0.044505443 -0.043582268 -0.09833143 -0.12831996
000360 c7 9e dd 3d a6 f2 99 3d bc aa 9b 3d 99 87 bc 3d
       0.108213 0.07516985 0.076009244 0.09205551
000370 f6 d2 9e 3d 26 c2 bd 3b 26 62 00 be cc 2b a4 3d
       0.07755081 0.0057909666 -0.1253744 0.08016166
000380 71 fb 76 3c b6 fa 45 3d 66 19 ed bd 20 d6 13 3d
       0.015074597 0.0483348 -0.1157711 0.036092877
000390 aa dd 03 3d f9 32 06 bd 6c 7b 65 3d 70 e0 9a bc
       0.032193817 -0.032763455 0.056025907 -0.018905848
0003a0 20 9b ee 3d 74 36 d5 bd d8 fb aa bc c6 58 f8 bd
       0.116506815 -0.10410777 -0.020872042 -0.12126307
0003b0 f7 20 f7 3d 2e fd e6 bd cc e3 e0 3d 1e 2a fd bd
       0.120668344 -0.11278759 0.10980949 -0.12361549
0003c0 1c 13 a6 3d a6 5d 07 be c6 0e 36 bd 32 a6 6e 3c
       0.081091136 -0.13219318 -0.044447683 0.014565991
0003d0 3c 03 dc ba 6f 79 f7 3c 79 39 af 3c 71 0d 07 3b
       -0.0016785632 0.030209271 0.02138971 0.0020607377
0003e0 80 91 30 bc ec 77 db bd 69 ee d6 bc 15 38 e9 3d
       -0.010776877 -0.10716233 -0.02623673 0.1138765
0003f0 0a 1c 6c bd 0e 1b df 3d 74 57 eb 3d 4a dd e3 3d
       -0.057643928 0.10893832 0.1149129 0.11126192

fc2.bias f4 [64]
000000 5b 98 b4 bb 88 e0 89 bc 96 7d 95 bc fd 46 a1 3d
       -0.0055113262 -0.016830698 -0.01824836 0.07874868
000010 30 33 15 3d 14 9e 27 3d 06 23 f2 3d dc d0 e6 bb
       0.03642577 0.04092224 0.118230864 -0.007043941
000020 72 66 d0 3d 85 97 d6 3d f5 4a 85 3d f0 3f b1 3c
       0.1017579 0.10478119 0.065084375 0.021636933
000030 bd 9b 11 3e a3 5d 4b 3e 49 09 0c 3e 14 d5 e3 3d
       0.14219566 0.19859938 0.13675417 0.11124626
000040 a8 9a 33 3e ed 17 74 3e b1 09 e0 bd 2e cb 77 3d
       0.17539465 0.23837252 -0.109393485 0.0604965
000050 5c b8 db 3b d4 13 b1 bd 81 98 99 3c 13 94 8c bd
       0.006705327 -0.0864636 0.018749477 -0.068641804
000060 f3 e0 dd 3d 18 2e 2d 3d 85 43 1d be 96 5f 2a bd
       0.10833921 0.042280287 -0.15357788 -0.041595064
000070 46 67 86 bd 42 f6 be bc c3 bd 13 3e 26 b2 a7 bd
       -0.065626666 -0.023310784 0.14427857 -0.08188276
000080 84 5a ab bd f0 ab d2 3d b5 92 b2 3c 9b f9 db 3d
       -0.08366874 0.10286701 0.021798471 0.10740968
000090 ea da c7 3d 6f 32 16 3d 4a cf 88 3d 80 c9 94 3d
       0.097585514 0.03666919 0.06680162 0.072649956
0000a0 36 81 bf 3d 24 b5 24 bd 82 aa 86 3d 35 21 c7 3d
       0.09350817 -0.04021181 0.065754905 0.097231306
0000b0 62 2b c8 bd e0 e3 55 bd ad 63 e4 3d 79 fe b3 bd
       -0.097738996 -0.05221927 0.11151824 -0.08788771
0000c0 4c 56 d9 3d 71 a1 d9 3d 89 39 5b 3d f9 43 8d bc
       0.10612163 0.10626496 0.053521667 -0.017244326
0000d0 40 44 17 3e 2d 6d 98 3d f7 90 eb 3d ca 2d cd 3d
       0.14772129 0.07442699 0.11502259 0.10018499
0000e0 66 56 f1 bb f8 b2 88 3d c0 27 8e 3d b5 f1 45 bc
       -0.007365036 0.066747606 0.069411755 -0.012081553
0000f0 fd 24 d1 bc 4e ba a2 bc 27 1f a0 bd 58 58 a5 bd
       -0.025530333 -0.019864228 -0.07818442 -0.08073491

fc3.weight f4 [7, 64]
000000 66 cb f0 bd 0c ea 2f bd ca a5 f2 3d 5b 27 43 3d
       -0.11757545 -0.042947814 0.11848028 0.047644954
000010 9e 82 1a 3e 08 d7 2f be 99 6b 91 3d c9 b0 b5 bd
       0.15088889 -0.17171872 0.07100601 -0.0887161
000020 ee d9 8e 3d 0c 27 95 3d 1f a1 aa 3d 88 3b 42 3f
       0.069751605 0.07282838 0.08331513 0.7587209
000030 22 a6 82 3d 9f 68 97 bd 4e b4 2f be 67 af f5 bd
       0.063793436 -0.07393002 -0.17158625 -0.11996346
000040 4e 42 a6 bd 46 ea 4c be 30 bb 58 3f aa 44 f9 3c
       -0.08118115 -0.20011243 0.84660625 0.03042825
000050 a7 50 4b 3d a0 2e fa 3c 26 e7 cd 3e bb 64 49 3f
       0.049637463 0.03053981 0.40215415 0.7866933
000060 f4 a0 29 3e cd e2 a8 bd d9 a9 44 be b1 45 33 be
       0.16565305 -0.08246384 -0.19205417 -0.17507054
000070 e9 2e 0c bd 06 1f 90 bc 0c b7 f5 bc c7 56 89 3e
       -0.034224425 -0.017592918 -0.02999451 0.26824018
000080 4a e2 fa 3d 79 c5 20 bc 5e 3d 02 bd f6 1a c0 3c
       0.122501925 -0.009812706 -0.031796806 0.023450356
000090 38 98 9f bd 6e 9e 3d 3d 03 b4 eb 3d ae 3f 3b 3d
       -0.07792705 0.04629367 0.11508944 0.045715027
0000a0 31 0d aa 3d 81 68 a5 bd 04 cc e1 3d bb da 55 3d
       0.08303297 -0.08076573 0.11025241 0.05221055
0000b0 a0 d7 ae 3e 7c d4 85 bc 47 2c 28 3d 6c 5f cc 3d
       0.34148884 -0.016336672 0.04105785 0.09979138
0000c0 43 d4 df 3d b9 96 9b 3d 26 91 38 bd b3 1c 3d bd
       0.109291576 0.075971074 -0.0450603 -0.046169948
0000d0 dc c4 2d 3d fb af 10 3e 5a 5e 8b bd 88 b7 6c bc
       0.042424068 0.14129631 -0.068051055 -0.014448054
0000e0 0c ce a2 3d d5 f7 96 bd 77 0b 24 be c2 f0 dd 3e
       0.079494566 -0.07371489 -0.16019998 0.43347746
0000f0 b7 d4 e7 be 2a fb b8 bd 65 45 4d 3f 28 f3 f3 bc
       -0.45279476 -0.09032281 0.8018401 -0.029779032
000100 fb a3 e1 3d f0 75 70 bc 8f 84 3d 3c 2b b8 61 bd
       0.11017605 -0.014676556 0.011567249 -0.055107277
000110 6f 87 44 3d 0d 59 80 3d 2e c6 ca bd e8 37 6f bd
       0.047980722 0.06266985 -0.09901081 -0.058402926
000120 2e d9 7c 3d fd ed 28 bd a3 db 34 3e 37 f7 25 3f
       0.061730556 -0.04124259 0.1766191 0.64830345
000130 8f ac e1 bd 89 77 55 be 44 59 46 be 80 3d b0 3c
       -0.11019241 -0.2084638 -0.1936999 0.0215137
000140 cd 0d 82 bc 56 1b c8 bd 94 08 82 3f 22 39 65 be
       -0.015875721 -0.09770839 1.0158868 -0.22385076
000150 ec ce fa be 00 2b ee ba de 95 28 3f 17 ef 64 3f
       -0.48985994 -0.0018170774 0.6585368 0.8942732
000160 01 e6 05 3c 18 49 6c bb a2 1e 6d be c0 d2 2e 3e
       0.008172513 -0.003605431 -0.23156217 0.17072582
000170 8b 46 fd 3b 3a 22 f4 bd cf d1 e8 3c da 45 a3 3e
       0.0077293566 -0.11920591 0.028420357 0.3188923
000180 cc f5 3b bd 63 59 aa bc 21 e0 fb 3c c5 9d c4 bc
       -0.045888707 -0.020794576 0.030746521 -0.024001012
000190 e0 57 a5 bd c0 e0 89 bd 46 ed d4 bd 29 92 7b bd
       -0.080734015 -0.06732321 -0.10396819 -0.061418686
0001a0 23 fb 0a 3c 32 bf 07 be f8 ae d9 3c 4a 02 99 be
       0.008482727 -0.13256529 0.02657269 -0.2988456
0001b0 3d d0 2d 3e 67 aa 1c 3e 9e 69 74 3a 5c ca 08 3e
       0.16973968 0.15299378 0.00093235995 0.13358444
0001c0 97 51 ef 3c c6 2c a8 3d ef a4 7f bd 15 2c 7c bd
       0.02921371 0.08211665 -0.062413152 -0.061565477
0001d0 98 3c 65 3d ec fa 03 3d 17 2e 3c 3e 74 8e 06 be
       0.05596599 0.03222172 0.18376957 -0.13140279
0001e0 7f 63 e4 3c 7d 66 38 bd 55 d6 ac 3d be f6 c1 bd
       0.027879475 -0.045019615 0.08439318 -0.094708905
0001f0 0e 51 49 be 5d 4a bc bd 96 bb 9b 3e fc b8 d9 3d
       -0.19659826 -0.09193871 0.30416554 0.10630986
000200 d4 81 24 be b0 ca 27 3c f3 39 a3 3d 52 2e ec 3d
       -0.1606515 0.010241196 0.07970037 0.115322724
000210 18 eb 3b 3e 18 03 e6 bc a4 ca 8f 3c bd bb 05 be
       0.183514 -0.028077647 0.017552681 -0.13059898
000220 85 82 d1 bd 62 22 c9 3d 18 36 bd bb 34 42 3f 3f
       -0.10229973 0.09821011 -0.0057742707 0.7471039
000230 e5 01 56 bd 87 39 22 be 7d 5a 47 be a7 75 f4 3d
       -0.0522479 -0.15842257 -0.19468112 0.11936503
000240 30 75 3c 3e c3 ef 01 bd 5b d9 46 3f 91 74 53 3b
       0.18404078 -0.031722795 0.7767541 0.0032265524
000250 f7 3c be be a0 91 db 3d 78 26 0b 3f a1 29 53 3f
       -0.37155887 0.10721135 0.54355574 0.82485396
000260 56 b2 e7 bd 5b 54 af 3d e0 13 1b 3d bb a8 a1 bd
       -0.11313312 0.085610114 0.03786075 -0.07893511
000270 68 7e ee bc c1 90 f5 3d f8 68 aa bd d6 98 c7 3e
       -0.02911301 0.119905 -0.083208025 0.38983792
000280 8e 27 c2 3d cb 3f d5 bd a6 a9 0f 3d 2f 9a 2d 3d
       0.09480201 -0.10412558 0.0350739 0.04238337
000290 95 87 25 3e 08 24 b0 3d f9 3b 67 3d 56 4a df bd
       0.16165002 0.086006224 0.05645368 -0.1090285
0002a0 11 f3 ce bc 95 65 08 3e 5a 19 0e 3d 33 cc 17 be
       -0.025262387 0.1332 0.034692146 -0.1482399
0002b0 9a 3e a0 3c 81 cf 07 3e 92 2a 3d 3e 8e 63 5b bd
       0.0195611 0.1326275 0.1847327 -0.05356174
0002c0 a0 9d dd bd c3 8c 23 3d 02 a2 82 bd 16 12 32 be
       -0.1082108 0.039929163 -0.06378557 -0.17389712
0002d0 f2 2c 2c 3b 9e 0c e2 bd eb ea a2 bd e5 84 c6 3d
       0.0026271907 -0.11037563 -0.07954963 0.09693316
0002e0 f5 5d b4 3d 8c 65 87 3d 25 d1 0c 3e eb f9 1a 3f
       0.088069834 0.066111654 0.13751657 0.60537595
0002f0 ce 9f 12 bf 82 49 da bd 3c 1b 10 3f 0e 8c f2 3d
       -0.5727509 -0.10658552 0.56291556 0.118431196
000300 d9 71 76 3c 04 fc 3e 3d e1 d8 2e be e9 ae a3 bd
       0.015041792 0.04662706 -0.1707492 -0.07992346
000310 2f a9 d9 3d c3 27 cd 3d 5b b2 a7 bd dc e8 9e bd
       0.10627972 0.100173496 -0.081883155 -0.07759258
000320 8c 22 4d bd 27 ba 8a 3c 03 e8 6f 3d a1 c8 54 3f
       -0.050081775 0.016934467 0.058570873 0.83118635
000330 73 d1 4f be f3 76 93 be 10 6d ac bd 3d 7a ae 3d
       -0.20294742 -0.2880169 -0.084192395 0.08519409
000340 51 9a 93 3a c0 83 06 3e 5e e8 13 3f 97 ce de bd
       0.00112612 0.13136196 0.5777644 -0.10879248
000350 04 34 35 bc 21 48 31 bd 63 1a f5 3e 89 c4 57 3f
       -0.011059765 -0.043281678 0.47871694 0.84284264
000360 89 56 a7 be 14 37 b7 3d 3d b2 6f 3e 1b 4e 43 bd
       -0.3268321 0.08946052 0.23407836 -0.04768191
000370 49 06 fa bc 33 c4 bd 3d 5c f6 4e be 8f 73 40 3f
       -0.030520575 0.09265938 -0.20211166 0.7517633
000380 10 c0 12 3c 3b 91 0b 3e 5a 92 cd bd 5e 53 85 bd
       0.008956924 0.1362962 -0.1003768 -0.06510042
000390 87 2d d1 3d 68 26 93 bd 93 35 57 bc cb 83 c4 bc
       0.10213762 -0.0718506 -0.013135332 -0.023988625
0003a0 c8 48 9a 3c a5 25 32 3d cf ca 00 be c0 94 91 3e
       0.018833533 0.043492932 -0.12577365 0.284338
0003b0 6b 5d 43 3e 0b 82 13 be fb b9 35 be a8 81 02 3e
       0.19078605 -0.14405076 -0.17746727 0.12744772
0003c0 58 77 21 3d aa 06 95 3c ef a7 c2 be 72 3a a2 3d
       0.039420456 0.018191654 -0.38018748 0.07921304
0003d0 0f 47 8e bd 56 59 06 3e 88 bd 57 bd 8f b4 b9 3b
       -0.06947147 0.13120016 -0.052670985 0.005667276
0003e0 1b 7b aa 3c 85 a7 0e be 54 46 14 be 67 e0 a5 bc
       0.020810654 -0.13931091 -0.14479953 -0.020248605
0003f0 a9 56 6a be e8 02 3a 3d e4 0e 3c 3f 8a 95 ba 3d
       -0.2288462 0.045412928 0.7346022 0.091105536

fc3.bias f4 [7]
000000 6c 26 02 3d b7 da 70 3c 5d a7 9e 3d 5d 6c 07 be
       0.031774923 0.014700583 0.07746766 -0.13224931
000010 aa f8 c3 3c ea 10 80 3c 08 8c 80 be
       0.023922283 0.015633065 -0.25106835
