src/models/v5_simple_shelves_10x14_1agent_0human_32shelves_2pickup_4_dropoff.pth (torch, 252708 bytes, 10 tensors)

conv1.weight f4 [16, 10, 3, 3]
000000 16 55 6c 3e df 4a 0d bf 48 b4 62 bd 01 78 16 bf
       0.23079333 -0.5519237 -0.05534771 -0.5877686
000010 6d e2 3b 3e 05 f4 9b 3e a2 59 b5 3d 26 91 b8 3d
       0.18348093 0.3045961 0.08854987 0.0901206
000020 9d 19 2c 3f 10 c1 31 3d c7 bf ff 3e 80 07 d1 bc
       0.6722658 0.04339701 0.49951002 -0.025516272
000030 65 b1 bf 3e 7b d6 4b be 96 c7 fb bc 08 ed 3a be
       0.3744003 -0.19906037 -0.030734818 -0.18254483
000040 18 0c 40 be a5 60 58 3e 0d 41 0c 3e 8f 36 98 3d
       -0.18754613 0.21130617 0.1369669 0.07432281
000050 86 37 84 3d 80 89 c3 3b ad 78 00 be e6 e7 90 be
       0.06455903 0.005967319 -0.12546034 -0.28301924
000060 49 0a bb bc b9 6c 23 3c fb eb a1 3d 00 55 ce ba
       -0.022832053 0.009974652 0.07906338 -0.0015741885
000070 20 3d 69 bc ab 5d 33 bd 18 fe 28 bd 60 a8 e2 bc
       -0.014235765 -0.0437905 -0.041257948 -0.027668178
000080 8e 64 13 3d 96 4b 46 3d 92 53 5e 3d dd ba cf bd
       0.03598457 0.048411928 0.054278918 -0.10143063
000090 2d d8 d3 3e b3 8b b1 be cd d6 d8 3e 44 b1 77 bf
       0.41375867 -0.34676895 0.4235138 -0.9675486
0000a0 4d cd 49 3e 2b 20 9d 3e c4 77 ba be 59 31 6b be
       0.19707222 0.30688605 -0.364195 -0.22968043
0000b0 14 02 4d bf 3d f9 06 3d e0 31 05 be 12 89 12 be
       -0.80081296 0.032952536 -0.13007307 -0.143101
0000c0 d9 73 f2 bc fb 75 7f bd 7a ef 0f 3d e2 a1 10 be
       -0.029596256 -0.062368374 0.035140492 -0.14124253
0000d0 f7 e0 22 be b8 b5 64 bd 61 18 8f bd 3e 51 fc be
       -0.1590613 -0.055837363 -0.06987072 -0.49280733
0000e0 1c 22 87 be 8b b8 85 3e bb 84 47 bc a8 12 fe bd
       -0.2639321 0.26117358 -0.0121776415 -0.12405902
0000f0 4e 3a 20 3e c0 e5 6c 3e a1 50 df 3d 0c 2f da 3d
       0.15647241 0.23134518 0.109040506 0.10653505
000100 24 48 37 3d eb e1 4e bd 95 09 93 3e f1 c0 13 bb
       0.044746533 -0.05050842 0.28718248 -0.0022545422
000110 6a 71 8f bc ae 33 b5 3d 61 19 c2 bd 85 be 34 be
       -0.017510135 0.08847748 -0.09477497 -0.17650802
000120 61 23 c6 3c 5f f4 38 bd d8 de 72 3e 7e 44 3e be
       0.024186792 -0.045154925 0.2371782 -0.18580815
000130 31 e2 e2 3c a6 23 bd 3d ba 80 74 bd fe 2a a4 3d
       0.027695747 0.09235315 -0.059693076 0.080160126
000140 4a 5d d6 bb de f3 c5 be b4 bb 28 3e 84 34 64 3d
       -0.0065418826 -0.38662618 0.16477853 0.055714145
000150 98 5f 40 3e 51 09 41 3e 40 b7 3f 3e 1f 74 74 be
       0.18786466 0.1885121 0.18722248 -0.23872422
000160 81 06 cc bd 74 d1 15 bf 78 c1 8d 3e 8d 16 69 3e
       -0.09962178 -0.58522725 0.27686667 0.22762509
000170 da e9 29 3e a1 75 bb 3c e5 42 05 3e db 92 33 3e
       0.16593114 0.022883238 0.130138 0.1753649
000180 c0 4a 68 3d 40 42 cd 3d f0 26 a5 bc c2 45 46 3f
       0.056711912 0.10022402 -0.020160168 0.7745019
000190 24 3a 1b be e8 89 5d 3f 97 84 23 be 8e 41 1b 3d
       -0.15158898 0.86538553 -0.15968548 0.037904315
0001a0 0d c1 e2 3e a9 22 f2 be 60 94 87 3e 40 6d c3 3e
       0.4428791 -0.4729207 0.2648039 0.3816929
0001b0 ba b7 62 3e 5c 4d b7 be bd b2 b3 3d 65 13 02 be
       0.22140399 -0.35801208 0.08774326 -0.12702711
0001c0 b4 cd 7d bc c7 5f 8b 3d 1c 99 a3 be 71 dd b8 3c
       -0.015490938 0.068053775 -0.3195275 0.022566529
0001d0 dd d5 77 3e 84 32 82 bc 2b 85 9b bd c0 78 d1 bb
       0.24202676 -0.015893228 -0.07593759 -0.0063925683
0001e0 2c 00 e8 3c 14 88 d9 bc d8 b5 d6 bc d9 56 b1 3d
       0.028320394 -0.026554145 -0.026209757 0.08659143
0001f0 1b f2 c8 3d b4 95 e7 bc 4d ed 5d 3e 03 9d 32 bf
       0.09811803 -0.028269626 0.21672554 -0.6977083
000200 57 51 d6 3e 77 19 14 bf 76 1e ec be b2 0b 0d be
       0.41858932 -0.57851356 -0.4611699 -0.13773993
000210 9a e0 88 be ec 42 e2 be bc ae 82 be 35 14 94 bd
       -0.26733857 -0.44191682 -0.25523937 -0.07230417
000220 44 46 71 3d ab 9d 2a 3e 8f bd f6 bd 7a be 5f be
       0.0589049 0.16661708 -0.12047874 -0.21850005
000230 86 95 6d 3d a4 79 be 3e 06 44 78 3b 6f 31 a6 3e
       0.058003925 0.3720218 0.0037882342 0.3245959
000240 ad a9 42 3e 6b 89 98 3e 13 28 26 be 31 94 b6 3e
       0.19010039 0.29792342 -0.16226225 0.35659936
000250 f9 02 64 3f 4d 5d 60 3e 34 bb 95 3e d0 56 96 3d
       0.89067036 0.21910591 0.29244387 0.07340777
000260 28 6c 0b 3f 82 e4 ae 3d 78 af 36 bd 85 1c 86 3d
       0.5446191 0.08539678 -0.044600934 0.065484084
000270 3f 12 b7 bb 22 01 74 3d cd 0d 11 3d 54 aa c6 3c
       -0.005586892 0.059571393 0.035413552 0.02425114
000280 78 8c 3d 3c 1d ff 82 bc 78 ad 01 bd 72 f6 76 3c
       0.011569135 -0.015990788 -0.031659573 0.015073406
000290 60 0b 3d 3e 0e 91 65 3d 28 b8 aa be e1 0c f7 3d
       0.1846137 0.056046538 -0.33343625 0.12063003
0002a0 48 f3 a6 3d f2 2d 80 be 06 c2 e7 bd 70 11 5d bf
       0.08151871 -0.25035053 -0.11316304 -0.8635473
0002b0 73 6b 5a bd 26 18 f7 3d a2 c8 47 3e 19 f1 57 3e
       -0.053325128 0.12065153 0.19510129 0.21088065
0002c0 6a 5a 96 3e 6a ba 42 be 7b c7 39 3e 86 5f 00 be
       0.29365855 -0.19016424 0.18142502 -0.1253644
0002d0 18 d9 93 3e 2b 32 34 3e 42 12 8d 3e 86 ec 87 be
       0.28876567 0.17597263 0.27552992 -0.2654764
0002e0 f5 8a ea bd 12 72 e1 be f1 81 a9 3e b2 21 60 3e
       -0.11452285 -0.4403234 0.3310695 0.21887854
0002f0 2d 84 3d 3e 13 ca d7 be 0e fd 43 bf 13 14 58 3d
       0.18507452 -0.42146358 -0.76558006 0.05275352
000300 a8 28 ba be 51 40 05 3e 81 46 18 bd f1 e6 aa be
       -0.36359143 0.13012816 -0.037176613 -0.3337932
000310 43 66 47 3e 18 fa e8 3d 65 72 27 be ed a8 87 be
       0.19472603 0.113758266 -0.16352232 -0.26496068
000320 0e 7b de 3d 9a f8 35 be 55 35 2c 3e c5 f4 81 bd
       0.108633146 -0.17770615 0.1681722 -0.06345514
000330 ec 85 22 bc 51 43 8b 3e 11 00 76 3d 62 13 44 3d
       -0.009919625 0.27199796 0.060058657 0.047870047
000340 80 00 80 3b 16 70 94 bd 28 66 67 bc f6 d3 2f 3d
       0.0039063096 -0.07247941 -0.014123477 0.04292675
000350 e0 b6 ce bc a0 55 44 bb c1 db 81 3d e4 42 8e 3c
       -0.025233686 -0.0029958263 0.06340743 0.01736588
000360 fd 76 28 3e db 52 cc 3e 4e 4b 83 3e 1a 28 06 3e
       0.1645164 0.39906964 0.2564339 0.13101235
000370 19 25 56 bd 33 0a d2 3c 11 5b 69 bf 57 02 39 be
       -0.052281473 0.025639629 -0.9115458 -0.18067299
000380 84 d7 31 bf 09 60 14 3d d7 d0 63 3b 72 40 06 3d
       -0.69469476 0.0362244 0.003476193 0.032776304
000390 0c 77 00 3e 72 e8 59 3d c1 2f 13 3e b2 a7 c3 bc
       0.12545413 0.053200193 0.14373685 -0.023883674
0003a0 8c 42 9f 3d b5 f8 ab 3b f8 19 24 3e 46 2c 63 3e
       0.07776365 0.005248154 0.16025531 0.22184858
0003b0 ec bd a1 3e 76 66 75 3e eb c6 34 3e 91 57 1a 3e
       0.3159021 0.23964867 0.17654006 0.15072466
0003c0 f6 21 2e 3e 73 b4 84 3d ba 71 8e bd 3b e2 16 be
       0.17005143 0.064797305 -0.06955285 -0.14734738
0003d0 ab be 9f 3d 51 e0 c3 bd 9d eb e8 bd e9 3b fe 3c
       0.07800039 -0.09564269 -0.11373065 0.031034427
0003e0 79 e0 eb 3d 2c 9b 04 bd 9e b2 1a 3c b6 e4 14 3e
       0.11517424 -0.032374546 0.009442 0.14540371
0003f0 58 cc ee 3c 65 af 01 3d c8 f6 41 3d 24 c9 40 bd
       0.029150173 0.03166141 0.04735449 -0.047066823

conv1.bias f4 [16]
000000 87 52 5c 3e d0 b8 aa 3e 80 d9 34 3e 26 35 95 3e
       0.21515857 0.33344126 0.17661095 0.29142112
000010 ce 1b 2c 3e a8 32 fa 3e 22 42 fc 3c e3 57 8a 3d
       0.16807482 0.48866773 0.030793253 0.06755044
000020 61 3a 63 3e 5f 5f 58 3e 59 b1 56 3e 22 1b 8f 3e
       0.22190239 0.21130131 0.2096609 0.27950388
000030 63 1f 73 3e fc 45 a0 3d 89 f5 36 bb d7 bb 81 3e
       0.23742442 0.078258485 -0.0027917346 0.25338623

conv2.weight f4 [32, 16, 3, 3]
000000 83 8d 5d 3e 61 ad 21 3e 2d 1d 92 3e 00 e4 26 3e
       0.21636014 0.15788795 0.28537884 0.16297913
000010 74 00 82 3e ba 53 00 3f 12 29 83 bc 7e 9c 65 3d
       0.2539097 0.50127757 -0.016010795 0.056057446
000020 2c 48 1e be b4 33 cd 3d e2 73 0b 3e b0 3f c4 bd
       -0.15457219 0.10019627 0.13618425 -0.0958246
000030 be 2b 3b 3e e7 06 6c be c5 03 f1 bd 4a ef c2 be
       0.18278405 -0.23049508 -0.11768297 -0.38073188
000040 49 3f 8f be fc 20 3f be 73 d4 4a 3d dc 32 6c 3e
       -0.2797797 -0.18664926 0.049519014 0.23066276
000050 a1 37 23 bd c7 dc a1 3e 5c f4 81 3e 55 be 12 bf
       -0.039847974 0.31613752 0.25381744 -0.57321674
000060 d4 30 eb bd 9f 10 85 be dc 2d d1 be d1 29 96 3e
       -0.114839226 -0.25989243 -0.408553 0.29328778
000070 40 91 09 3f ff 78 aa 3e 2c 94 40 3f 3e dd f4 3e
       0.5373726 0.33295438 0.7522609 0.47825044
000080 52 b1 c5 3e b0 02 f9 3e f1 53 fa 3e 40 1f 13 3f
       0.38611847 0.48634863 0.48892167 0.5746956
000090 1a 93 f7 3e 16 c4 a7 3e 15 a7 a3 be b6 8a 82 3c
       0.48354417 0.3276679 -0.3196341 0.015935283
0000a0 30 53 34 bd d8 2e ac 3b 95 03 bb 3d 71 49 a6 3e
       -0.044024646 0.0052546076 0.091315426 0.32477906
0000b0 33 9b e2 3e 29 41 07 3d 52 26 c0 3d 43 88 dc b9
       0.44259033 0.033021126 0.09382309 -0.00042063193
0000c0 0b 9e 4d 3e 2e af db 3e 3a 05 e1 3e 42 d3 67 3e
       0.2007982 0.4290709 0.439493 0.22639182
0000d0 af ce c7 3e f5 48 7a 3e 52 2d 7f 3e 71 72 62 3e
       0.39024875 0.24441893 0.24919632 0.22113968
0000e0 e5 b8 a0 bd 03 c6 83 3e 10 43 c7 3d aa 77 86 3e
       -0.07847766 0.25737008 0.09729588 0.2626317
0000f0 38 e9 c4 3e 06 8e 47 3e 6e dd d2 3e 21 6f 8e 3d
       0.38459182 0.19487771 0.41184562 0.0695479
000100 55 27 aa 3d ff 51 06 3d 73 75 3e bd bc f8 5c be
       0.08308283 0.03279304 -0.046498727 -0.2157926
000110 47 6e 7c be 26 11 62 be b7 21 1e 3f 19 fa a8 3e
       -0.24651442 -0.22076854 0.61770195 0.3300331
000120 e4 82 86 3e 13 70 be 3e 03 01 81 3e ec ad 9b 3e
       0.26271737 0.3719488 0.25196084 0.3040613
000130 28 6f bd 3e 27 47 35 3d 2d ae 04 3f d7 d2 10 bd
       0.36998868 0.04425731 0.5182827 -0.035357323
000140 f8 f8 06 3e 4a 67 7e 3d ff 53 e3 3d e8 c8 60 3e
       0.13180912 0.062110223 0.11100005 0.2195164
000150 28 ae ca 3e ff e9 e9 3d 9b 7f 2c 3f 87 26 67 3e
       0.39585996 0.11421584 0.6738221 0.22573291
000160 59 8a d3 ba 12 0a 61 3f d6 3c 8f 3e 19 70 30 3e
       -0.0016139253 0.8790599 0.27976102 0.17230262
000170 f0 4b 75 3e 1a 29 4b 3e a3 17 94 3e 81 c4 18 3f
       0.23954749 0.19839898 0.28924283 0.5967484
000180 52 c2 31 3e 35 0a 27 3f 66 30 e4 3e a7 41 38 3e
       0.17359284 0.6524995 0.44568175 0.17993794
000190 e1 bb d8 3c b6 9f 00 3e e0 e8 f5 3e a8 af 91 3e
       0.026456775 0.12560925 0.48029232 0.28454328
0001a0 f6 5b d8 3e 8a 3f 1d 3f 84 97 15 3f 57 e1 e9 3d
       0.4225766 0.6142508 0.5843432 0.11419933
0001b0 df b6 31 be 44 d9 42 3e b0 9f 96 3e 66 f4 b8 3e
       -0.17354916 0.19028193 0.29418707 0.3612396
0001c0 bb 35 c6 3e 76 d1 de 3d 4a 35 08 3f dd c7 eb 3e
       0.38712868 0.10879795 0.5320631 0.4605092
0001d0 5c 02 50 3d 28 4b 13 3e 18 7d e7 3d 74 da 3a be
       0.0507835 0.14384139 0.113031566 -0.18247396
0001e0 27 07 5a 3e f5 14 3f be 44 21 84 be 05 20 11 bd
       0.21291791 -0.18660338 -0.2580663 -0.035430927
0001f0 6a f1 e0 bd 3e 44 01 3e 85 f4 2b be a6 19 dc 3d
       -0.10983546 0.12623689 -0.16792496 0.107470796
000200 9d 93 ea bd d8 cc 87 3e c0 5b 8e be f3 be c6 be
       -0.11453936 0.2652347 -0.27804375 -0.38817558
000210 08 25 4f be c8 d2 96 3e f9 e1 b8 3c 9c 64 3d 3e
       -0.2022897 0.29457688 0.02256869 0.1849541
000220 f5 13 10 3f 36 63 e0 bd 2a 49 51 3f dc 39 69 3e
       0.5628045 -0.10956423 0.81752264 0.22775978
000230 40 2c a4 bd 93 61 35 3e 17 6a 4d be d0 ff 33 be
       -0.080162525 0.17713003 -0.20060001 -0.17578053
000240 e9 14 79 3e 7a ce 79 3d ce 5b 79 3e 1b 2f df 3c
       0.24324383 0.060987927 0.24351427 0.027244141
000250 f7 cb 31 3d b2 cd 2e 3f a8 c8 32 be 92 73 4f 3e
       0.043407407 0.68282616 -0.17459357 0.2025893
000260 bd 54 5e 3e 0a 1b 98 3c 8a d5 d5 3d 02 4f 74 3e
       0.21712013 0.01856758 0.1044112 0.23858264
000270 52 4c 4e be d3 f3 00 3e 62 72 2b 3e e4 56 9f be
       -0.20146301 0.12593012 0.16742852 -0.3112098
000280 d7 e6 ca bd 07 c5 f3 bd a5 99 8e 3e 71 57 e3 3e
       -0.099073105 -0.11902814 0.27851596 0.4440265
000290 f1 99 fe 3e 40 f0 99 bc 4f 4c 72 3d f5 82 fc 3d
       0.49726823 -0.018791318 0.059154805 0.123296656
0002a0 fc ca 85 be 9c 1d 00 3f 27 60 db 3e 36 c2 88 3d
       -0.26131427 0.5004518 0.42846796 0.06677668
0002b0 1b 42 49 3e 73 3d 58 3e 4e 5b 6d 3e 03 4f 7c 3e
       0.19654123 0.21117191 0.23179361 0.24639516
0002c0 2e 12 00 3f 36 7e 1b 3e 45 f7 0e 3f 03 ae 00 3f
       0.5002774 0.15184864 0.55846053 0.5026552
0002d0 ae f7 24 3f ac 88 f2 3e 9d 2c 5f be 64 c9 9d 3e
       0.6444043 0.47369897 -0.21794362 0.3081771
0002e0 35 e4 ee 3e 2e ec ad 3e ef 48 8f 3e ea ea 2f 3f
       0.46658483 0.33969253 0.2798533 0.68717825
0002f0 cf 2b 31 be 8e 67 14 3e 05 e4 62 3e 9c 07 89 3d
       -0.17301868 0.14492628 0.22157295 0.066909045
000300 42 9d 24 3e b5 2d f0 3e ff 03 3c 3e 7b 49 97 3d
       0.16075614 0.46909872 0.183609 0.07387062
000310 c9 61 48 3e 5e c6 20 3e 69 83 a9 3d ef e2 4a 3d
       0.19568552 0.15700671 0.082770176 0.049532827
000320 dd c3 d9 bd ab e2 84 bd c6 76 8c 3d d6 72 a2 3e
       -0.10633061 -0.06488546 0.06858592 0.31728238
000330 7a a2 bd 3e ab 88 4c 3f 55 17 e6 3e 85 f2 76 3e
       0.37038022 0.7989604 0.44939676 0.24115951
000340 49 5c 3c 3e 5e 31 f5 3d 1e 8e e3 3d ee f1 13 be
       0.18394579 0.11972307 0.11111091 -0.14447758
000350 c7 2d 10 3e 00 80 5e 3c d1 04 33 3f 98 75 db 3e
       0.14079963 0.013580322 0.69929224 0.42863154
000360 25 04 c4 3d 37 63 5e 3e 12 7f 2a be e9 f3 85 3e
       0.09571103 0.21717535 -0.16650036 0.2616265
000370 80 01 73 3d 8f 59 a7 3c de bc a1 3e 54 86 83 3e
       0.059327602 0.020428447 0.31589407 0.25688422
000380 b7 71 13 3e 1b 19 17 bc 86 43 d5 bc a0 b1 22 3e
       0.14398848 -0.009222294 -0.026033174 0.15888071
000390 0e 41 94 3e b9 f9 45 3e 86 a6 6f 3e c5 66 b6 3d
       0.28955883 0.19333543 0.23403367 0.089063205
0003a0 de 17 9e 3e c5 ee 8d 3e eb 16 ce 3d 65 3b 74 3e
       0.30877584 0.2772123 0.10062965 0.23850782
0003b0 5d f8 82 3e d8 db 41 be 29 f4 da 3d 45 1a 80 3e
       0.2558011 -0.1893152 0.10691101 0.25020042
0003c0 eb fb 01 be 39 3c ba 3e de ed ee be a1 97 b5 3d
       -0.12693755 0.3637407 -0.46665853 0.088668115
0003d0 30 f5 26 3e bf fe c6 3d 4d 6d b3 3e 70 cf 04 3f
       0.16304469 0.09716558 0.35044327 0.51879025
0003e0 3d 41 1a 3f 52 1b b6 3c db cf 12 3f ac 38 a4 3e
       0.60255796 0.022229824 0.5734841 0.32074487
0003f0 76 79 67 bd 58 b5 ed bc 53 0f a3 bd 3b 84 81 3e
       -0.05651232 -0.029017136 -0.07961907 0.25296196

conv2.bias f4 [32]
000000 10 6e 14 3e 9c 47 af 3d 5c e2 05 bd ff 29 eb 3d
       0.1449511 0.0855858 -0.032686576 0.114826195
000010 6a eb ed 3d 6a 7b 00 3e 73 ea 41 3d 70 02 32 3e
       0.11617167 0.12547079 0.04734273 0.17383742
000020 45 e7 e0 3d 31 8a 90 3d e7 0e 49 3d ed de f4 3c
       0.10981611 0.07057608 0.049086478 0.029891456
000030 83 8c 8d bc 04 3c 56 3d 7b 1e 16 3a da 9a 83 bd
       -0.017278915 0.05230333 0.0005726588 -0.0642602
000040 d7 d7 3f 3e f6 aa 91 3b 42 c3 18 3e 81 ef e6 3d
       0.1873468 0.004445429 0.14918235 0.112761505
000050 83 ed c0 bc 0c e0 09 3e b9 e9 23 3e 62 9f 31 3e
       -0.023550754 0.13464373 0.16007127 0.17345956
000060 fd f5 ab bd 25 4f 89 bc b3 75 00 3d ce ae b8 bc
       -0.08396528 -0.016761372 0.031362247 -0.02254429
000070 46 d4 0f 3e e4 af 4a 3d 3d 33 77 3d 49 1f 5c bd
       0.1404582 0.04948415 0.0603516 -0.053740773

fc1.weight f4 [64, 800]
000000 3a 89 c7 3e b7 87 7d 3e 76 9b f2 bb 3b b3 ab bd
       0.38971883 0.24758802 -0.0074037863 -0.08383795
000010 cc 05 fb bd 26 6a 6a bb 1e d6 b7 bd 6b ba 3a bd
       -0.12256965 -0.0035768836 -0.089763865 -0.04558794
000020 92 1a 10 be 4d 0c 35 be ad 00 7b bc c4 44 5f bd
       -0.14072636 -0.17680474 -0.015319985 -0.05450894
000030 37 3c 9d bd c6 8e 5b be 7a 2a 78 be 22 b4 be 3e
       -0.07677501 -0.21441182 -0.24234954 0.37246805
000040 cb 84 6a 3d 74 28 05 bd c0 68 29 be 2f f4 da 3b
       0.057255547 -0.032509282 -0.16543865 0.006681941
000050 ae d5 02 3f ee 82 6b 3e 97 7d d5 bc 00 32 0c be
       0.511073 0.22999164 -0.026060862 -0.13690948
000060 64 29 2a 3d bd 06 a3 3e 35 c6 65 3e e4 cb 5e 3d
       0.04154338 0.31841078 0.22438891 0.054393664
000070 44 0c 43 3c 0a 6c 3d bd 09 2a 5a 3d 8c 66 2a 3c
       0.01190478 -0.046245612 0.053262744 0.010400426
000080 b2 f4 b1 3c 64 a7 94 bd 6e 66 1f bd ef 7f fd bd
       0.021723125 -0.0725849 -0.038916044 -0.12377917
000090 9e d4 4c 3d eb e9 85 bd 1c 8c 83 be 73 e1 a8 be
       0.050007455 -0.06538757 -0.25692832 -0.32984504
0000a0 12 f0 b6 3d 9f ce 65 3d f7 1e 26 3e bc 93 7e 3d
       0.089325085 0.056105252 0.1622275 0.06215261
0000b0 c1 7d 10 3d 4d 58 98 3e e6 e3 85 3d 60 b2 7b 3e
       0.03527618 0.29754868 0.06537609 0.24579763
0000c0 60 6c 0e bd 1f a0 1a bd 56 0b 92 3e ad 62 23 3e
       -0.034771323 -0.03775036 0.28524274 0.1595561
0000d0 b3 fd 43 3c 61 e7 87 bd 30 1a d8 bd f8 be cc 3d
       0.011962342 -0.06635929 -0.1055187 0.09997362
0000e0 07 30 e1 3d f5 d5 a8 3d 27 03 b9 bd a1 3f 88 be
       0.109954886 0.08243934 -0.090338044 -0.26611045
0000f0 bc e4 06 3d 19 cc df 3d 03 c5 1b be 7b 59 2c be
       0.03293298 0.109276004 -0.15211873 -0.16831009
000100 41 56 2a be ec a6 33 3e 13 a6 19 3e 89 18 54 3d
       -0.16634466 0.17544144 0.15004759 0.05178121
000110 31 3e 36 be 81 b3 c1 bc 06 30 f7 3e d2 32 9e 3e
       -0.17797162 -0.023645164 0.48278826 0.30898148
000120 70 c4 50 3d a3 ad 0a 3e 71 7b 29 3e ba 66 1a 3e
       0.050968587 0.135428 0.16550995 0.1507825
000130 3d d5 27 3e ed a2 c0 b9 d1 b6 b1 bc c9 06 88 bd
       0.16389938 -0.00036742483 -0.021693619 -0.06641919
000140 1b 1e e5 bc 2c ff 7b bd d5 70 72 3d a8 fb a9 bc
       -0.027968457 -0.061522648 0.059189636 -0.020749882
000150 d2 df 8e bd 9b f2 3e bd 93 a5 58 bd e5 90 09 be
       -0.06976284 -0.046618085 -0.05289228 -0.13434179
000160 17 77 2d be 63 62 5a be 6c 0d eb 3d 8b 20 ed bc
       -0.1693996 -0.21326594 0.114771694 -0.028946182
000170 b1 b4 eb bb 61 76 92 bc d0 86 53 3d 92 da 32 3e
       -0.007193171 -0.017878713 0.05164224 0.1746619
000180 81 19 93 bd 18 6d 30 3e 1d 38 9e 3d 0c 40 fc 3d
       -0.07182599 0.17229116 0.077255465 0.123169035
000190 51 2f 41 3e 87 a6 1d 3e c5 f6 54 bc 89 d5 ad 3b
       0.18865706 0.15395556 -0.012998288 0.0053049964
0001a0 9a 69 89 3c f5 a9 f8 3c 11 50 40 3d 18 93 0b 3e
       0.016773988 0.03035448 0.046951357 0.1363033
0001b0 cd ac 0e bd a0 57 35 be da 35 f4 bd 92 79 f6 bd
       -0.034832764 -0.17709208 -0.11924334 -0.120349064
0001c0 f9 9a 08 be 63 9b 58 be 36 4f 5a be a8 44 69 bb
       -0.13340367 -0.21153025 -0.21319279 -0.00355939
0001d0 10 d9 5d bd 0d 1a c6 ba 5e e0 f2 bd 86 13 15 be
       -0.054162085 -0.0015113965 -0.11859201 -0.14558229
0001e0 e6 ea fc 3d 01 fb 1f bc 40 af d1 3d 5f 12 88 3d
       0.12349491 -0.009764434 0.102385044 0.06644129
0001f0 12 89 2a 3e 8e 67 82 3e 42 09 78 3e 7b 7f 16 3e
       0.1665385 0.2546963 0.24222282 0.14697067
000200 16 70 90 3d 3a 3d 61 3d 33 1c ca 3c ea b3 b9 3c
       0.07052629 0.05499003 0.02467165 0.022668798
000210 4f 39 b2 3d 05 2a cd bc 3c 3e 08 be 0a d6 39 be
       0.08702337 -0.02504445 -0.1330499 -0.18148056
000220 46 4b f9 bd 1d 24 ce bd 05 6d 1a be 93 b7 63 be
       -0.121725604 -0.10065482 -0.1508065 -0.22237997
000230 eb eb b4 bd c1 e2 a5 bc bd 18 59 3d 22 23 cc bd
       -0.0883406 -0.020249726 0.053002108 -0.099676386
000240 0b de ff bc 3e 1d 21 3e 46 fe f3 3d 7d cf 49 3d
       -0.031233808 0.15733811 0.11913733 0.049270142
000250 19 1f de 3d fd 6f 49 3e b7 3a 75 3e 01 b0 a2 3d
       0.10845775 0.19671626 0.23948179 0.07943726
000260 cb ed a9 bd 27 cd be bd 40 80 32 be c7 dd 51 3e
       -0.082973085 -0.093164735 -0.17431736 0.20494758
000270 1b f2 b2 3d 77 7d b3 3c b1 e3 8d 3d 84 13 b4 bd
       0.08737584 0.021910412 0.06928194 -0.08792785
000280 ff 13 14 bb 05 a0 43 3e 07 e7 95 bd a9 08 8e be
       -0.0022594926 0.19104011 -0.073194556 -0.27740982
000290 bd f7 92 be f9 e0 f9 bc ee 3c be 3d 35 88 05 3e
       -0.28704634 -0.030502783 0.09288965 0.1304024
0002a0 0e 29 bd bd 9d 3f be bd 47 e4 83 3e ba da 0b 3e
       -0.09236346 -0.09289477 0.257601 0.13657656
0002b0 35 88 1f 3e b5 24 cc 3d d3 a9 e2 3d 53 bc 47 3e
       0.15579303 0.09967939 0.11067548 0.19505434
0002c0 76 a7 3a 3e 18 18 3a 3d 49 6b 49 bc 3f 06 ed bb
       0.18227944 0.045433134 -0.012293645 -0.0072334106
0002d0 31 68 84 3c 1e b0 54 3c 2d 53 d5 3c 0e 30 7c bd
       0.016162964 0.012981443 0.026040638 -0.061569266
0002e0 75 08 9b bd 5b 07 1c be 09 76 13 be a6 04 10 be
       -0.075699724 -0.15237181 -0.14400496 -0.14064273
0002f0 a2 b9 3a be 8b fc 9f be a8 18 90 3d af 46 be 3d
       -0.18234876 -0.31247362 0.07035953 0.092908256
000300 04 c2 e4 3d 91 e6 cd bc ee ce 7b bd dc cf 80 3e
       0.11169818 -0.025134357 -0.06147664 0.25158584
000310 e7 89 54 3e 65 9a b3 3e da 4f a7 3d c7 b5 12 3e
       0.2075573 0.3507873 0.08169527 0.14327155
000320 7f 69 37 3e fe d8 a4 3d da 77 c5 3d a1 d2 42 3c
       0.17911337 0.080492005 0.096420005 0.011891038
000330 d4 b8 4d bd 84 b7 5d 3e 59 61 8b 3d e1 07 c0 3d
       -0.050225094 0.21652037 0.06805677 0.09376503
000340 fe 4a 91 3c a2 6d 10 bd 5c 6e 2b 3d 30 3a b1 3c
       0.017735954 -0.035260804 0.041853294 0.021634191
000350 70 1c 42 be 4c ed 2e be 7b cf 4e be 9b 2b 61 3b
       -0.1895616 -0.17082709 -0.20196335 0.0034358266
000360 05 c8 4e 3d 90 59 55 3d 20 b7 a6 bd 5f 22 38 bc
       0.050483722 0.052087367 -0.08140397 -0.011238663
000370 46 3c 9b 3e 6c 3c 40 3d 7e 73 23 3e 5f bf 89 3e
       0.30319422 0.046932623 0.15962026 0.26903817
000380 20 30 09 3e 6d 79 38 3e a2 c6 1c 3e 3f 54 f0 3d
       0.13397264 0.1801507 0.15310147 0.11734819
000390 1c 8c 18 3c d0 20 03 3c 89 2f db 3d 80 c8 b8 3d
       0.009310748 0.008003429 0.10702426 0.09022617
0003a0 b2 28 26 3e 2e ef 2f bb b3 27 ec bd 85 60 16 be
       0.16226462 -0.0026845443 -0.115310095 -0.14685257
0003b0 4a 04 98 bc 5d 58 30 be ce 46 2b be be c1 15 be
       -0.018556733 -0.17221208 -0.16726229 -0.14624688
0003c0 d6 5e af 3c 22 b6 59 bd 55 39 67 3d 83 ba 08 bd
       0.021407526 -0.05315221 0.05645116 -0.033380996
0003d0 d9 e2 12 bc 63 79 ae 3e f6 fe 0b bd ac ba 24 3e
       -0.0089652175 0.34076986 -0.034178697 0.16086835
0003e0 c7 1e 96 3e 4b 15 6e 3e dd 8f 24 3e bb e5 21 3e
       0.29320356 0.2325031 0.16070504 0.15810291
0003f0 05 b0 1e 3e 41 07 88 3d ec 2b 63 bd 49 a2 02 3e
       0.15496834 0.066420086 -0.05546181 0.1275722

fc1.bias f4 [64]
000000 a0 ec bc bc 1c 49 ba 3d 47 0c be 3c 9d 39 36 bc
       -0.02306205 0.09095976 0.023199214 -0.0111221345
000010 e4 7f 41 3d d0 cc 19 bb 84 8b 14 3e 37 e7 1a 3e
       0.047241107 -0.0023468025 0.14506346 0.15127264
000020 30 1c 7a bc b5 44 b9 bc bd 54 a5 3c 5c f4 5c bd
       -0.0152655095 -0.02261577 0.020182008 -0.053943977
000030 c1 10 bb 3d c4 65 42 3b 17 64 bb 3d 75 1c 62 3d
       0.09134055 0.0029662708 0.0914995 0.05520292
000040 ed b7 84 3c d7 8b d1 3c 36 19 a2 3b f4 5b ae 3c
       0.016200984 0.025579376 0.004946853 0.021284081
000050 6a 25 4c 3c 21 16 06 bd 20 dd 33 bc 8f 62 97 3d
       0.012460092 -0.032735948 -0.010978013 0.073918454
000060 6b bc d6 bc 82 25 b2 3c bf 76 09 3e 6c 43 94 3c
       -0.026212892 0.0217464 0.13424204 0.018098556
000070 e2 69 b4 bc 71 78 d7 3c cb ff 0f 3e 75 19 0d 3e
       -0.022023145 0.026302548 0.14062421 0.13779242
000080 d2 5e 14 bd 5a f6 c7 3b 3d 1a 8c 3d 5e dd ab 3d
       -0.03622324 0.0061023654 0.06840942 0.08391832
000090 a1 68 02 3d 46 59 1b 3c 63 e3 e4 bd 46 09 d5 bc
       0.031838063 0.009481734 -0.11176183 -0.026005398
0000a0 da cc 43 bc e9 31 1b 3b 7d f7 8c bc a6 f0 fd 3c
       -0.011950696 0.0023680872 -0.017207855 0.03099854
0000b0 33 54 de 3c 0a f7 16 3e 79 87 d5 bc 58 91 b3 3c
       0.027139759 0.14742675 -0.026065575 0.021919891
0000c0 34 5c 96 bb 89 2b 85 3d 19 d3 5f 3c 74 39 d6 3d
       -0.004588628 0.06502444 0.013661169 0.10460177
0000d0 33 56 37 3d 3c 17 22 3e 11 b8 9f 3d b2 0e f0 bc
       0.04475994 0.15829176 0.0779878 -0.029303882
0000e0 a3 83 06 bd c5 79 b7 bc 69 fd 16 3e b3 c6 4b bc
       -0.032840382 -0.022396931 0.14745106 -0.01243751
0000f0 2b 39 cb 3c 81 66 53 3d 69 ce 85 bc 57 e0 80 bc
       0.024807533 0.051611427 -0.016333776 -0.015731974

fc2.weight f4 [64, 64]
000000 ed cd 80 bd c7 72 15 3e 71 ae 4d be 1a 53 e8 bc
       -0.06289277 0.14594565 -0.20086075 -0.028359938
000010 32 fb 5b 3e b0 2e e1 3d 44 bb 39 3e f7 e1 11 be
       0.21482542 0.10995233 0.18137842 -0.14246355
000020 28 0e ef 3c 44 96 d0 3b db 53 09 3d e8 a4 93 bc
       0.029181555 0.0063655693 0.033527236 -0.01802297
000030 ed a5 2b 3e db 22 54 bd b7 b1 1a 3d c6 60 2b 3c
       0.16762514 -0.051791053 0.03776714 0.010460084
000040 44 a9 49 3d 72 b1 d9 bc b4 c6 41 bd c0 86 0d bb
       0.04923369 -0.02657387 -0.04730864 -0.002159521
000050 ec 9a 51 3d 02 96 96 3d ca a2 88 3e 41 39 04 be
       0.051173136 0.073528305 0.26686698 -0.12912466
000060 e9 5d 1f bb d8 d5 81 bd 05 60 31 3e b0 66 bb bc
       -0.002431745 -0.063396156 0.17321785 -0.022876114
000070 14 3c 8d 3d a7 65 93 3d 77 c4 a0 bd 21 65 66 3d
       0.068962246 0.07197123 -0.07849973 0.056248788
000080 35 41 74 3d 75 ff f1 3d 88 71 a5 3d 59 6e da bc
       0.0596325 0.11816303 0.08078295 -0.026663946
000090 e6 1a ef 3d b3 98 24 bd 2f 07 96 bd 14 03 42 3d
       0.11675052 -0.040184688 -0.07325589 0.047366217
0000a0 78 6c 1e 3d 30 98 39 3e 64 ce 4a 3d 08 f2 94 bc
       0.038677663 0.18124461 0.049513236 -0.018181816
0000b0 a8 e7 94 bd 4b e6 4d 3d ca 12 a7 bd 16 84 98 bd
       -0.072707474 0.050268453 -0.081578806 -0.074470684
0000c0 7a 14 b4 bd e0 97 82 3d 82 12 01 bd b9 8c 07 be
       -0.08792968 0.06376624 -0.03151179 -0.13237275
0000d0 48 6d 8d 3e 3a 9e 0d 3e fa cf 6d 3e e3 ff 2b 3d
       0.27622437 0.1382989 0.23223868 0.04199208
0000e0 82 b8 da 3d 05 68 8f bd 1c 6e 9b 3e b4 99 8c 3d
       0.10679723 -0.07002262 0.30357444 0.06865254
0000f0 08 7a a4 3d e9 d4 b1 3e fa bb bc bd 90 e7 5e bc
       0.08031088 0.3473275 -0.09215541 -0.0136050135
000100 cc 30 ca bd c0 d8 5d 3c 1a 8d fb bd 00 52 15 3d
       -0.098725885 0.013540447 -0.12282772 0.036455154
000110 7c 94 b7 3d 16 cb c6 3d 3a 3c b4 bd 48 a4 b3 bc
       0.08963868 0.09706704 -0.0880055 -0.021928921
000120 4a a4 b6 3d de 4d 8b 3d e8 31 0f bd 36 0e c8 bd
       0.089180544 0.06801961 -0.034959704 -0.097683355
000130 82 5e a9 3d b8 c5 e5 bd 70 55 f1 bc cc 99 c7 bd
       0.08269979 -0.112193525 -0.029459685 -0.09746131
000140 1c 08 a8 bd 0a 35 b7 3d fe 5c fa bd 90 14 50 3d
       -0.08204672 0.08945663 -0.12224768 0.05080086
000150 0e d2 8a 3d a0 01 78 bc ec 18 da bd 38 6a 30 bd
       0.06778346 -0.015137106 -0.10649285 -0.043070048
000160 04 da 00 3d 60 a8 9f 3d d4 c6 29 bd b0 22 88 bc
       0.031457916 0.07795787 -0.041449383 -0.016618103
000170 20 3a 91 bd 34 70 cd 3d 56 1d ae 3d 02 fb b3 3d
       -0.070911646 0.10031167 0.08501689 0.0878811
000180 00 a5 60 bd 44 c3 66 3d 32 d6 d1 bd 14 51 fc bd
       -0.054844856 0.056338564 -0.10245933 -0.12320152
000190 b2 82 b6 bd fa b3 aa bd 80 64 1d 3d b6 bf b8 bd
       -0.08911647 -0.08335109 0.038425922 -0.09020941
0001a0 d6 5b 84 3d da 72 ca 3d 00 c2 cd bd 70 81 e7 bc
       0.06462829 0.098851874 -0.10046768 -0.028259963
0001b0 a0 ab 3e bc e8 f8 bb 3d 00 42 b1 ba 72 f0 f5 3d
       -0.011637598 0.091783345 -0.0013523698 0.12008752
0001c0 f0 42 ca 3d 08 3d 20 3d 36 1b 85 3d 5c bf 8c bd
       0.098760486 0.039120704 0.06499331 -0.068724364
0001d0 2c 22 5c bd 96 46 d7 3d d8 eb a7 bd 82 5c 89 bd
       -0.053743526 0.1051151 -0.081992805 -0.067070976
0001e0 32 1c e1 bd 3e 7d a9 bd a6 99 84 bd 6c c6 a2 bd
       -0.10991706 -0.08275841 -0.064746186 -0.07948002
0001f0 40 13 23 3c fa 75 b1 bd e0 7f e5 bc b0 f4 1e bc
       0.00995332 -0.0866508 -0.028015077 -0.009701893
000200 85 d2 ea 3d 93 d2 71 bd 8d 35 46 3e 75 30 d3 3d
       0.11465935 -0.05903871 0.19356366 0.10311977
000210 89 8e b2 bc b2 88 b2 3d 18 f9 b2 3d 1a fc 17 3e
       -0.021796482 0.08717479 0.08738917 0.14842263
000220 7e 5d d2 bd 6c a5 68 3d d7 95 34 3d 11 f0 32 3d
       -0.102717385 0.056798384 0.04408821 0.043685976
000230 01 59 64 3e cd f8 bc 3c 4f 61 36 3d 23 6f 2e 3e
       0.22299577 0.023067856 0.044526394 0.17034583
000240 52 a1 ec bd c4 ff 1e 3d 68 bd e2 3d 08 00 05 bd
       -0.11554207 0.038818136 0.110712826 -0.032470733
000250 84 54 01 bd b3 08 e1 bd a4 1b b1 3d d0 2c 6b bd
       -0.03157474 -0.10987987 0.0864785 -0.057415783
000260 32 34 7e bd 49 5f 76 3e a2 c6 4d be 97 51 c2 3d
       -0.062061496 0.24059786 -0.20095304 0.09488218
000270 a8 6d 94 bc c9 2d 94 3b dc 24 80 3e 62 96 9b 3d
       -0.018118694 0.0045220596 0.2502812 0.075970426
000280 c4 5d b1 be 8e da 74 bd 10 d2 d5 3c a7 eb b0 3d
       -0.3464185 -0.059778742 0.026101142 0.08638697
000290 64 00 d8 3d 02 58 9e bd b0 35 4a 3d b6 31 aa 3d
       0.105469495 -0.0773163 0.049367607 0.08310263
0002a0 8f 89 28 bd fd 01 e9 bc d0 c5 7a 3d ae 54 f4 3d
       -0.04114681 -0.02844333 0.061223805 0.11930214
0002b0 b2 1b ab bb 98 22 c8 3d ff 75 ff 3d e9 92 ac bd
       -0.0052218074 0.09772223 0.12473678 -0.084264584
0002c0 b8 00 12 3d ba 1a 62 3e 92 bb 9d bc 5d 67 5a 3e
       0.035645217 0.22080508 -0.01925448 0.21328492
0002d0 fd 46 a8 bb d8 a7 47 3d 87 57 83 bc 34 c7 12 bc
       -0.0051354156 0.048744053 -0.016032947 -0.008958627
0002e0 98 fa 0d 3d 26 94 e1 3d b0 3a 5f 3c 0f f8 27 3a
       0.034662813 0.11014585 0.013624832 0.0006407508
0002f0 6c 3c a1 3d d9 34 d0 3d 94 ab 12 3d 86 d2 c1 3d
       0.07872853 0.1016633 0.03580816 0.09463982
000300 b4 a8 c0 bc 6b b3 ec 3d ad e1 e5 bd e7 7f e1 3c
       -0.023517944 0.11557659 -0.11224685 0.027526809
000310 a0 97 81 bd 90 f6 40 bd 20 20 4b 3d 62 d1 a4 3d
       -0.06327748 -0.04711014 0.049591184 0.08047749
000320 4c 92 1b 3d f4 4d a3 bd 4f 85 ba 3d 08 1d 47 3d
       0.037981316 -0.07973853 0.09107458 0.04861167
000330 79 ab 74 3b bc 99 ac 3d be 89 75 bd 68 4f 36 bd
       0.003733365 0.0842776 -0.059945814 -0.04450932
000340 5b df b8 bd cc 39 80 3d d4 8b 81 3d 4e 03 e8 3d
       -0.09026977 0.06261024 0.06325498 0.11328755
000350 57 4b 36 3d 52 83 32 bd fd 61 c9 bd 4f 66 03 be
       0.044505443 -0.043582268 -0.09833143 -0.12831996
000360 c7 9e dd 3d a6 f2 99 3d bc aa 9b 3d 99 87 bc 3d
       0.108213 0.07516985 0.076009244 0.09205551
000370 f6 d2 9e 3d 26 c2 bd 3b 26 62 00 be cc 2b a4 3d
       0.07755081 0.0057909666 -0.1253744 0.08016166
000380 71 fb 76 3c b6 fa 45 3d 66 19 ed bd 20 d6 13 3d
       0.015074597 0.0483348 -0.1157711 0.036092877
000390 aa dd 03 3d f9 32 06 bd 6c 7b 65 3d 70 e0 9a bc
       0.032193817 -0.032763455 0.056025907 -0.018905848
0003a0 20 9b ee 3d 74 36 d5 bd d8 fb aa bc c6 58 f8 bd
       0.116506815 -0.10410777 -0.020872042 -0.12126307
0003b0 f7 20 f7 3d 2e fd e6 bd cc e3 e0 3d 1e 2a fd bd
       0.120668344 -0.11278759 0.10980949 -0.12361549
0003c0 1c 13 a6 3d a6 5d 07 be c6 0e 36 bd 32 a6 6e 3c
       0.081091136 -0.13219318 -0.044447683 0.014565991
0003d0 3c 03 dc ba 6f 79 f7 3c 79 39 af 3c 71 0d 07 3b
       -0.0016785632 0.030209271 0.02138971 0.0020607377
0003e0 80 91 30 bc ec 77 db bd 69 ee d6 bc 15 38 e9 3d
       -0.010776877 -0.10716233 -0.02623673 0.1138765
0003f0 0a 1c 6c bd 0e 1b df 3d 74 57 eb 3d 4a dd e3 3d
       -0.057643928 0.10893832 0.1149129 0.11126192

fc2.bias f4 [64]
000000 16 01 bb 3c 88 e0 89 bc 5b 1f 11 bc fd 46 a1 3d
       0.022827666 -0.016830698 -0.008857573 0.07874868
000010 77 ce c3 3c 0d a4 70 3d 79 e5 ee 3d 23 87 c6 3c
       0.023902161 0.0587502 0.11664862 0.02423436
000020 72 66 d0 3d 85 97 d6 3d 29 db 7e 3d 71 bd 3d 3c
       0.1017579 0.10478119 0.062220726 0.011580811
000030 73 1d 1e 3e c3 d4 6b 3e 16 b4 3c 3e e5 48 d9 3d
       0.15440921 0.23030381 0.18428072 0.10609607
000040 20 49 3d 3e 93 a1 71 3e e6 a8 08 be 5e 25 ab 3d
       0.18484926 0.23596792 -0.1334568 0.083567366
000050 7e 15 54 bb d4 13 b1 bd b6 1d 24 3c b4 69 d8 bd
       -0.0032361443 -0.0864636 0.010016849 -0.10567036
000060 70 1a fe 3d 18 2e 2d 3d b8 d5 29 be c1 5d e4 bc
       0.12407386 0.042280287 -0.16585433 -0.027876737
000070 85 48 8a bd 56 75 c9 bc 0b f9 30 3e 2a b2 cf bd
       -0.06752113 -0.024592083 0.17282502 -0.10141404
000080 84 5a ab bd 56 53 e2 3d b5 92 b2 3c 5b 21 fa 3d
       -0.08366874 0.11051051 0.021798471 0.12213393
000090 ce 49 c0 3d 6f 32 16 3d 5d 98 9f 3d 80 c9 94 3d
       0.09389077 0.03666919 0.07792733 0.072649956
0000a0 36 81 bf 3d f8 af e2 bc 36 36 80 3d 51 a9 d3 3d
       0.09350817 -0.027671799 0.0626034 0.10335029
0000b0 03 a3 f4 bd d3 f7 64 bd df c9 dd 3d f4 40 ba bd
       -0.119451545 -0.055900406 0.108295195 -0.0909442
0000c0 cc 86 f6 3d 71 a1 d9 3d 89 39 5b 3d ab 1b 18 3c
       0.12037429 0.10626496 0.053521667 0.00928394
0000d0 09 34 26 3e 15 42 b4 3d a6 bc d7 3d c6 31 da 3d
       0.16230787 0.08801667 0.10534029 0.10654025
0000e0 2d 21 08 bd 2c 95 9a 3d 03 d3 a4 3d ee 86 9c bc
       -0.033234764 0.075479835 0.0804806 -0.019107308
0000f0 65 07 b9 bc 4e ba a2 bc 27 1f a0 bd 58 58 a5 bd
       -0.022586534 -0.019864228 -0.07818442 -0.08073491

fc3.weight f4 [7, 64]
000000 f2 47 c7 bd 0c ea 2f bd 9e 9e ff 3d 5b 27 43 3d
       -0.09730519 -0.042947814 0.12481426 0.047644954
000010 8d e8 28 3e 2e 6c 47 be 99 6b 91 3d 31 ed f9 bd
       0.16494961 -0.19474861 0.07100601 -0.12203444
000020 ee d9 8e 3d 0c 27 95 3d af 3f e2 3d 96 09 59 3f
       0.069751605 0.07282838 0.11047303 0.8478025
000030 c6 c4 3a 3d 33 2c d0 bd 01 18 46 be 32 a4 15 be
       0.045597814 -0.1016468 -0.19345094 -0.14613417
000040 55 05 56 bd b2 2f d0 bd 9a 5d 82 3f 36 30 0e 3d
       -0.05225118 -0.10165347 1.0184815 0.034713946
000050 56 28 b3 bb a0 2e fa 3c 89 f3 a2 3e d1 ee 57 3f
       -0.005467455 0.03053981 0.31826428 0.8434878
000060 a0 3d ec 3e cd e2 a8 bd 36 f3 71 be 43 dc 54 be
       0.46140766 -0.08246384 -0.23627934 -0.20787148
000070 c9 47 05 be 06 1f 90 bc 35 86 2d bd 36 0d e7 3e
       -0.13015665 -0.017592918 -0.042364318 0.45127267
000080 4a e2 fa 3d d8 09 b8 bc 5e 3d 02 bd fd b3 7b bd
       0.122501925 -0.022465631 -0.031796806 -0.061450947
000090 39 6d b1 bd 6e 9e 3d 3d 71 d3 0b 3e ae 3f 3b 3d
       -0.08663411 0.04629367 0.13654877 0.045715027
0000a0 31 0d aa 3d 28 28 cd bd 04 cc e1 3d d3 e4 c8 bd
       0.08303297 -0.10017425 0.11025241 -0.0980927
0000b0 2c ff 06 3f 22 3e d2 bc 3d 2d 3d 3c f5 ad fa 3d
       0.5273311 -0.025664393 0.01154643 0.12240211
0000c0 a0 ef 0d 3e b9 96 9b 3d 26 91 38 bd d2 5c 91 bd
       0.13860941 0.075971074 -0.0450603 -0.07097782
0000d0 72 75 18 3d bf 6d 1b 3e 81 45 4e be 8b 77 80 3d
       0.03722138 0.15178584 -0.20143701 0.06272801
0000e0 17 fa 69 3d a4 c0 0e be 9c 12 5f be 9f f3 21 3f
       0.05712327 -0.13940674 -0.21784443 0.6326236
0000f0 d6 cb d1 be 2a fb b8 bd 65 45 4d 3f 28 f3 f3 bc
       -0.40975827 -0.09032281 0.8018401 -0.029779032
000100 86 85 fe 3d f0 75 70 bc 97 f1 b5 3c 2b b8 61 bd
       0.12427811 -0.014676556 0.022209926 -0.055107277
000110 5b 15 6b 3d cf f4 53 3d 55 03 c8 bd 5c bb de bd
       0.057393413 0.05174714 -0.097662605 -0.1087558
000120 2e d9 7c 3d fd ed 28 bd 65 c4 51 3e 64 1d 20 3f
       0.061730556 -0.04124259 0.20485075 0.62544847
000130 19 22 eb bd c9 d9 83 be 27 ea 89 be 50 85 5b 3c
       -0.11481113 -0.25752094 -0.26936457 0.013398483
000140 cd e9 96 bd e0 af a6 bd 1d 14 a0 3f c8 46 97 be
       -0.07368813 -0.08139014 1.2506138 -0.2954619
000150 6b 93 f4 be 00 2b ee ba 76 a7 30 3f b0 db 68 3f
       -0.4776872 -0.0018170774 0.69005525 0.90960217
000160 ed a7 4c 3e 18 49 6c bb c7 9a 96 be 04 66 31 3e
       0.19985934 -0.003605431 -0.2941496 0.17324072
000170 fd 39 36 bd 3a 22 f4 bd ec 41 98 3d 58 7d b9 3e
       -0.044488896 -0.11920591 0.074344486 0.36228442
000180 cc f5 3b bd 63 4a 28 bd 21 e0 fb 3c 48 63 2a bd
       -0.045888707 -0.041086566 0.030746521 -0.04159859
000190 e4 f4 de bd c0 e0 89 bd 66 dc e8 bd 29 92 7b bd
       -0.10886553 -0.06732321 -0.11370163 -0.061418686
0001a0 23 fb 0a 3c 2a ed 2e be d9 b1 cc 3c 4e 4e 1a bf
       0.008482727 -0.17082658 0.024987148 -0.60275733
0001b0 7c 56 4b 3e 47 81 35 3e 3f 76 2e 3c d9 9d 1f 3e
       0.1985721 0.17725097 0.010648309 0.15587558
0001c0 5d ba 39 3d c6 2c a8 3d ef a4 7f bd fa 26 a9 bd
       0.045343745 0.08211665 -0.062413152 -0.08259387
0001d0 0b 81 a1 3d e7 f4 3b 3d 17 60 aa 3e 4b 19 34 be
       0.07885941 0.045887854 0.33276436 -0.17587774
0001e0 93 31 8f 3c e6 60 aa bd 4b da cf 3d c4 f6 89 3d
       0.017479694 -0.08319263 0.10149058 0.0673652
0001f0 d6 ad fc ba 5d 4a bc bd 96 bb 9b 3e fc b8 d9 3d
       -0.0019277881 -0.09193871 0.30416554 0.10630986
000200 82 63 43 be b0 ca 27 3c 18 aa c0 3d 52 2e ec 3d
       -0.19080928 0.010241196 0.09407443 0.115322724
000210 f8 26 44 3e 21 43 c4 bc a4 ca 8f 3c d5 be 13 be
       0.1915549 -0.02395779 0.017552681 -0.14428265
000220 85 82 d1 bd 62 22 c9 3d 1b 1c 9d bb 61 fb 38 3f
       -0.10229973 0.09821011 -0.00479461 0.72258574
000230 ca 41 ad bd 37 49 48 be 63 b6 5b be 4d 77 11 3e
       -0.08459814 -0.19559179 -0.21456294 0.14205666
000240 cd 02 b0 3e 95 f5 91 3d 2b 7a 52 3f 8f bb 5a bc
       0.34377137 0.07126919 0.82217664 -0.0133503815
000250 2b 6e 64 be a0 91 db 3d 35 c0 31 3f d0 7c 4d 3f
       -0.2230765 0.10721135 0.6943391 0.80268574
000260 d2 e4 8b be 5b 54 af 3d f5 ef 8a 3d 20 0c 9e bd
       -0.27323014 0.085610114 0.067840494 -0.077171564
000270 65 b0 2c be c1 90 f5 3d 7e be 1c be c5 62 2b 3f
       -0.16864164 0.119905 -0.15307042 0.66947585
000280 8e 27 c2 3d 6e 89 e2 bd a6 a9 0f 3d 52 b6 94 3d
       0.09480201 -0.11061369 0.0350739 0.07261337
000290 f7 14 3a 3e 08 24 b0 3d 37 47 64 3d 56 4a df bd
       0.1817206 0.086006224 0.05573198 -0.1090285
0002a0 11 f3 ce bc 65 28 28 3e 9e 9e 07 3d a2 84 90 bd
       -0.025262387 0.1642166 0.033110254 -0.07056548
0002b0 25 55 21 3e 1b a8 10 3e 96 ef 5e 3e 29 64 77 bd
       0.15755136 0.14126627 0.21771082 -0.060398255
0002c0 da f9 06 be c3 8c 23 3d 02 a2 82 bd 03 f4 59 be
       -0.13181248 0.039929163 -0.06378557 -0.2128449
0002d0 f3 f0 cb bc 1b 74 f6 bd 20 ef 09 bd 00 27 b3 3e
       -0.024895167 -0.12033864 -0.033675313 0.34990692
0002e0 ce ad d1 3d 4e 75 2c 3e 11 28 2d 3e 89 4f 02 3f
       0.10238229 0.16841623 0.16909815 0.5090261
0002f0 a8 fd ff be 82 49 da bd 3c 1b 10 3f 0e 8c f2 3d
       -0.49998212 -0.10658552 0.56291556 0.118431196
000300 b5 2a b9 3b 04 fc 3e 3d 1b 89 2f be e9 ae a3 bd
       0.005650843 0.04662706 -0.17142145 -0.07992346
000310 f4 94 00 3e 46 9e b0 3d 5b b2 a7 bd f8 b5 fc bd
       0.12556821 0.08623938 -0.081883155 -0.12339395
000320 8c 22 4d bd 27 ba 8a 3c 11 c8 8f 3d c4 a5 99 3f
       -0.050081775 0.016934467 0.070205815 1.2003713
000330 0c 78 69 be 5d 3f af be 17 34 0f be 7e fe 9f 3d
       -0.227997 -0.3422803 -0.13984714 0.078122124
000340 9d 08 2b bc 84 a5 94 3e e7 ea 21 3f 60 30 fb bd
       -0.010439065 0.29032528 0.6324906 -0.12265086
000350 3d a7 8f 3e 21 48 31 bd 82 c1 64 3e 9e e6 32 3f
       0.2805728 -0.043281678 0.22339442 0.69883144
000360 f2 d1 01 bf 14 37 b7 3d 16 70 56 3e c0 2e b6 bd
       -0.50710976 0.08946052 0.20941195 -0.088956356
000370 25 ee a2 bd 33 c4 bd 3d 6e c1 a2 be 8f 1c 61 3f
       -0.07955579 0.09265938 -0.317882 0.879342
000380 10 c0 12 3c 92 d4 0b 3e 5a 92 cd bd 7f b2 d7 bd
       0.008956924 0.13655308 -0.1003768 -0.10532092
000390 b5 a0 dd 3d 68 26 93 bd d7 06 2f 3c cb 83 c4 bc
       0.10821668 -0.0718506 0.010682783 -0.023988625
0003a0 c8 48 9a 3c 25 0d f8 3c cf ca 00 be 97 32 cb 3e
       0.018833533 0.030279705 -0.12577365 0.39687034
0003b0 95 cb 57 3e 08 ec 20 be 26 71 4d be 69 7d 0d 3e
       0.21073754 -0.15715039 -0.20062694 0.13817371
0003c0 5c e0 63 3d aa 06 95 3c ef a7 c2 be b5 5e 68 3d
       0.055633888 0.018191654 -0.38018748 0.056730945
0003d0 4e 8e e0 bd 0f d9 15 3e e9 8f 96 bd d5 ad 11 be
       -0.109646425 0.14633583 -0.073516674 -0.14226468
0003e0 80 6a 10 3c 68 a4 7f be 29 cb 46 be 9d 73 e3 be
       0.008814454 -0.2496506 -0.19413437 -0.44424143
0003f0 cd 57 5d be e8 02 3a 3d e4 0e 3c 3f 8a 95 ba 3d
       -0.21615525 0.045412928 0.7346022 0.091105536

fc3.bias f4 [7]
000000 be f8 a2 3c 5f fe 05 3c 5a 17 74 3d f1 21 17 be
       0.019894 0.008178323 0.059592582 -0.14759041
000010 de 17 0c 3d ec 3c 31 3d 3f 3c a5 be
       0.03420245 0.04327099 -0.32272527
