src/models/v6_simple_human_10x10_1agent_5human_0shelves_2pickup_4_dropoff.pth (torch, 252666 bytes, 10 tensors)

conv1.weight f4 [16, 10, 3, 3]
0.30581787 -0.48410887 0.022294346 -0.46109635 0.124072276 0.27762312 0.09492707 0.0172738
0.7155088 0.04339701 0.49951002 -0.025516272 0.3744003 -0.19906037 -0.030734818 -0.18254483
-0.18754613 0.21130617 0.1369669 0.07432281 0.06455903 0.005967319 -0.12546034 -0.28301924
-0.022832053 0.009974652 0.07906338 0.081769444 0.1994901 -0.023224322 0.05097328 -0.0844244
0.0052535026 -0.025151202 0.02393919 0.01731422 0.48042992 -0.44569233 0.37645015 -0.77066624
0.1656896 0.25366968 -0.375336 -0.22963062 -0.9861658 0.026207138 -0.063582666 -0.11840246
0.070620306 -0.08975233 0.08148615 -0.06209545 -0.16807787 -0.046288393 -0.20241596 -0.47240996
-0.2780181 0.15861477 0.024936264 -0.13176592 0.16862594 0.217278 0.13612945 0.051488142
0.034007117 -0.05989406 0.2368922 -0.009831077 -0.025491405 0.060990587 -0.10080726 -0.18310666
0.050027076 -0.018008145 0.112216294 -0.05030218 -0.044766802 0.22299668 -0.013794924 0.064904116
-0.07268213 -0.47793204 0.18501955 0.044616338 0.21067847 0.2447695 0.21318156 -0.23511669
-0.101440094 -0.29064158 0.2924721 0.23130801 0.31301853 0.019199308 0.15515202 0.13193044
0.038224775 0.11087163 -0.0024097725 0.7745019 -0.15158898 0.86538553 -0.15968548 0.037904315
0.4428791 -0.4729207 0.2648039 0.3816929 0.22140399 -0.35801208 0.08774326 -0.12702711
-0.015490938 0.068053775 -0.3195275 0.022566529 0.24202676 0.07645545 -0.08430998 0.16514637
-0.069462866 -0.11899814 0.20842522 -0.24174704 0.11350202 0.19854622 0.20248993 -0.7625299
0.47626853 -0.43012866 -0.25301898 -0.15678501 -0.1897678 -0.3405999 -0.121646516 0.019703053
-0.007814629 0.113681294 -0.022463117 -0.16161774 0.0023933302 0.38431495 0.02542105 0.30005923
0.2174472 0.34383547 -0.02998102 0.27640888 0.67249614 0.39533156 0.3124633 0.086452186
0.6339145 0.06976143 -0.054927174 0.05444359 -0.011604283 0.05805738 0.032936748 0.016976137
0.010907147 -0.01838774 -0.04851823 -0.087782316 0.10654228 0.21367924 -0.13018222 0.041993607
0.20484042 -0.22145967 0.040497676 -0.6069726 0.03947542 0.06504369 0.11075607 0.28780797
0.32303265 -0.22877039 0.18075494 -0.06639049 0.25789857 0.18969496 0.27492088 -0.31828716
-0.034776464 -0.5187587 0.30547947 0.21760403 0.23359565 -0.42146358 -0.76558006 0.05275352
-0.36359143 0.13012816 -0.037176613 -0.3337932 0.19472603 0.113758266 -0.16352232 -0.26496068
0.108633146 -0.17770615 0.1681722 -0.06345514 -0.009919625 0.27199796 0.060058657 -0.22775887
-0.08892843 -0.11460073 -0.15845282 -0.0068717324 -0.037611984 -0.1627337 0.117895775 -0.04260846
0.21924627 0.39622265 0.21561478 0.056793213 -0.09723407 0.0743666 -0.92020243 -0.18433423
-0.62944293 -0.013094923 0.022486258 -0.0039362884 0.100886226 0.04363529 0.14053732 0.0010990837
0.04105851 0.058275335 0.13242157 0.16240628 0.31161755 0.24635111 0.14077944 0.10799976
0.22201616 0.06194234 -0.14181165 -0.13138771 0.08217022 -0.10479526 -0.124357745 0.010244439
0.09096502 -0.03895523 -0.009049211 0.12879035 0.03728237 0.043732896 -0.022064175 -0.042850945
00000000: 2994 9c3e 1edd f7be a2a2 b63c d214 ecbe
00000010: 9b19 fe3d 9e24 8e3e 2069 c23d c981 8d3c
00000020: 962b 373f 10c1 313d c7bf ff3e 8007 d1bc
00000030: 65b1 bf3e 7bd6 4bbe 96c7 fbbc 08ed 3abe
00000040: 180c 40be a560 583e 0d41 0c3e 8f36 983d
00000050: 8637 843d 8089 c33b ad78 00be e6e7 90be
00000060: 490a bbbc b96c 233c fbeb a13d bd76 a73d
00000070: 2247 4c3e ef40 bebc 5cc9 503d b3e6 acbd
00000080: 9325 ac3b e509 cebc 1f1c c43c 8dd6 8d3c
00000090: e9fa f53e c931 e4be 13be c03e 624a 45bf
000000a0: 89aa 293e fee0 813e 0a2c c0be 4a24 6bbe
000000b0: 5d75 7cbf 5ab0 d63c a137 82bd fd7c f2bd
000000c0: 61a1 903d 12d0 b7bd 36e2 a63d cc57 7ebd
000000d0: 9b1c 2cbe e698 3dbd 2146 4fbe b8df f1be
000000e0: 6358 8ebe e96b 223e 2347 cc3c a5ed 06be
000000f0: 47ac 2c3e 207e 5e3e 8565 0b3e 3be5 523d
00000100: 0c4b 0b3d 7953 75bd de93 723e 8712 21bc
00000110: 5ad3 d0bc 44d1 793d 0974 cebd 5080 3bbe
00000120: 31e9 4c3d d185 93bc a8d1 e53d a909 4ebd
00000130: 655d 37bd 3e59 643e 1b04 62bc 73ec 843d
00000140: 5eda 94bd 82b3 f4be c475 3d3e 9fbf 363d
00000150: 19bc 573e dba4 7a3e 444c 5a3e 6ec2 70be
00000160: d3bf cfbd f9ce 94be e7be 953e 02dc 6c3e
00000170: f743 a03e de47 9d3c 2ce0 1e3e c618 073e
00000180: 9591 1c3d aa10 e33d 46ed 1dbb c245 463f
00000190: 243a 1bbe e889 5d3f 9784 23be 8e41 1b3d
000001a0: 0dc1 e23e a922 f2be 6094 873e 406d c33e
000001b0: bab7 623e 5c4d b7be bdb2 b33d 6513 02be
000001c0: b4cd 7dbc c75f 8b3d 1c99 a3be 71dd b83c
000001d0: ddd5 773e ad94 9c3d b6aa acbd 211c 293e
000001e0: 8c42 8ebd 4cb5 f3bd 6c6d 553e 898c 77be
000001f0: bf73 e83d b34f 4b3e 8559 4f3e 2935 43bf
00000200: 78d9 f33e d339 dcbe b48b 81be 408c 20be
00000210: 7d52 42be 1c63 aebe cf21 f9bd 4c68 a13c
00000220: ee08 00bc bdd1 e83d 9204 b8bc 1f7f 25be
00000230: 6bd9 1c3b eec4 c43e ce3f d03c 5da1 993e
00000240: 7baa 5e3e 340b b03e c29a f5bc 7785 8d3e
00000250: b528 2c3f e668 ca3e 31fb 9f3e d80d b13d
00000260: 3848 223f 15df 8e3d 51fb 60bd 3e00 5f3d
00000270: e41f 3ebc 93cd 6d3d afe8 063d 8a11 8b3c
00000280: e4b3 323c e3a1 96bc 0dbb 46bd 37c7 b3bd
00000290: d732 da3d bbce 5a3e 7d4e 05be 7d01 2c3d
000002a0: b0c1 513e 53c6 62be e4e0 253d 8e62 1bbf
000002b0: fab0 213d a035 853d 14d4 e23d 915b 933e
000002c0: 8964 a53e c942 6abe d317 393e bdf7 87bd
000002d0: 480b 843e 653f 423e 6ec2 8c3e 89f6 a2be
000002e0: c471 0ebd 5fcd 04bf ce67 9c3e 97d3 5e3e
000002f0: b333 6f3e 13ca d7be 0efd 43bf 1314 583d
00000300: a828 babe 5140 053e 8146 18bd f1e6 aabe
00000310: 4366 473e 18fa e83d 6572 27be eda8 87be
00000320: 0e7b de3d 9af8 35be 5535 2c3e c5f4 81bd
00000330: ec85 22bc 5143 8b3e 1100 763d 9f39 69be
00000340: 1c20 b6bd cab3 eabd 7541 22be 452c e1bb
00000350: 060f 1abd aaa3 26be 5773 f13d 3586 2ebd
00000360: 1882 603e b2dd ca3e 1fca 5c3e 00a0 683d
00000370: a822 c7bd 844d 983d 6392 6bbf 1dc2 3cbe
00000380: 2c23 21bf 178c 56bc 1a35 b83c fbfb 80bb
00000390: 709d ce3d ebba 323d 04e9 0f3e 210f 903a
000003a0: f82c 283d 1eb2 6e3d 8599 073e d54d 263e
000003b0: 568c 9f3e 7743 7c3e 7c28 103e fa2e dd3d
000003c0: 3458 633e 40b7 7d3d 1337 11be 808a 06be
000003d0: dc48 a83d e69e d6bd 46af febd 4bd8 273c
000003e0: de4b ba3d 858f 1fbd 2443 14bc 9ee1 033e
000003f0: 66b5 183d 4421 333d eebf b4bc 7984 2fbd

conv1.bias f4 [16]
0.24877237 0.36164626 0.20360902 0.26046774 0.14119397 0.46537843 0.06351193 0.041570716
0.21579234 0.2099017 0.21556398 0.28923947 0.21655162 0.075113006 -0.04088945 0.24962357
00000000: 2fbe 7e3e b329 b93e e27e 503e 075c 853e
00000010: 2795 103e 1546 ee3e 8b12 823d 0e46 2a3d
00000020: abf8 5c3e 79f0 563e cebc 5c3e 3217 943e
00000030: b5bf 5d3e d9d4 993d b27b 27bd 529d 7f3e

conv2.weight f4 [32, 16, 3, 3]
0.16838537 0.11254817 0.30567884 0.12027439 0.21397716 0.5172961 -0.029387759 0.07989015
-0.13717195 0.115091436 0.106709905 -0.10969978 0.22268489 -0.2271433 -0.1174976 -0.3851586
-0.26492873 -0.13755657 0.07217347 0.25134292 -0.057431005 0.30819377 0.22593471 -0.6668876
-0.18683858 -0.2970849 -0.43112507 0.22120513 0.4148258 0.2398526 0.714777 0.35402432
0.30814254 0.53249556 0.4998848 0.5401821 0.46093988 0.3167203 -0.3343752 -0.0111870095
-0.036956213 -0.046029147 0.0779123 0.3184268 0.44195887 0.021463517 0.057919133 0.028425599
0.16543731 0.42540082 0.46841303 0.20499587 0.38435835 0.24380921 0.285318 0.30439356
-0.056811817 0.2611937 0.11740179 0.31390494 0.39713842 0.14237945 0.42295054 0.12685499
0.13761099 0.05308095 -0.11465049 -0.34742054 -0.29545814 -0.3137028 0.63531244 0.40156102
0.24427585 0.35001034 0.24590161 0.26896876 0.4143003 0.07139635 0.56140524 0.04993734
0.17077897 0.098290004 0.04432001 0.18874323 0.4142829 0.09762161 0.64354956 0.2190536
0.037771814 0.8950942 0.20251206 0.10414191 0.22193599 0.24516794 0.28116977 0.6057948
0.11909234 0.6539564 0.4095601 0.12509915 0.017995825 0.06586936 0.50302273 0.3078014
0.4399763 0.64051485 0.61947197 0.15337427 -0.2434089 0.12743486 0.26697713 0.24356826
0.3364336 0.04207779 0.43002033 0.5265514 0.07697884 0.14914402 0.1319766 -0.1253185
0.2171564 -0.16567239 -0.23805973 -0.07634838 -0.10430906 0.11629746 -0.1491126 0.23989123
-0.0452211 0.20730214 -0.5086023 -0.38531095 -0.12294445 0.19800676 -0.14356385 0.30999643
0.6196382 -0.10168172 0.9351996 0.19852598 -0.11009741 0.18691908 -0.28666884 -0.24484019
0.27432093 0.017062897 0.25376096 0.071310416 0.048164204 0.6885027 -0.1511944 0.19300683
0.15255249 -0.04605985 0.053983983 0.21052645 -0.18917668 0.16046283 0.14603417 -0.3043273
-0.108173035 -0.16094415 0.3107017 0.42613652 0.5257903 -0.05623806 0.014126767 0.077883504
-0.25424412 0.64835966 0.47824022 -0.103496104 0.07315967 0.097779386 0.16180988 0.24609086
0.57646495 0.1350232 0.54787487 0.5079713 0.6224467 0.50277627 -0.24909697 0.25058034
0.38797548 0.32744431 0.33299005 0.72379166 -0.28052735 0.18306309 0.24809617 0.09437771
0.117885895 0.4167868 0.16688652 0.017602412 0.1211548 0.13729455 0.06774302 0.14083882
-0.08427327 -0.0764221 0.03579758 0.2548163 0.3759121 0.767947 0.5332704 0.25613356
0.16766725 0.17784621 0.10370929 -0.2764698 0.07028927 -0.10597748 0.65401405 0.43389997
0.022099514 0.15899916 -0.22717696 0.3332148 0.20312175 0.04076057 0.3282061 0.26285836
0.19136064 -0.02146118 -0.07512578 0.124108166 0.27228135 0.19136107 0.23455404 0.113988295
0.20356208 0.17334187 0.08607506 0.17675565 0.29407007 -0.29549155 0.10034761 0.28511995
-0.27133408 0.3804251 -0.5440192 0.12359867 0.16611935 0.11168619 0.3937058 0.5390587
0.68915653 0.025802674 0.58008355 0.26779932 -0.13889802 -0.09072163 -0.11486044 0.30189338
00000000: 376d 2c3e a87f e63d f081 9c3e 6b52 f63d
00000010: d41c 5b3e 846d 043f 99be f0bc 729d a33d
00000020: ce76 0cbe 0fb5 eb3d b98a da3d 47aa e0bd
00000030: 8207 643e 4198 68be 95a2 f0bd 8233 c5be
00000040: bda4 87be a1db 0cbe afcf 933d 05b0 803e
00000050: c63c 6bbd 93cb 9d3e 6e5b 673e 25b9 2abf
00000060: 9d52 3fbe 831b 98be 6dbc dcbe 9983 623e
00000070: 0c64 d43e ec9b 753e a0fb 363f ad42 b53e
00000080: dcc4 9d3e a151 083f e7f0 ff3e 6049 0a3f
00000090: 5000 ec3e 2a29 a23e 3a33 abbe b849 37bc
000000a0: 665f 17bd 0f89 3cbd 7c90 9f3d d608 a33e
000000b0: 6f48 e23e 42d4 af3c 9d3c 6d3d cddc e83c
000000c0: 6668 293e 23ce d93e d5d3 ef3e 70ea 513e
000000d0: 9eca c43e 1fa9 793e 3315 923e 79d9 9b3e
000000e0: 82b3 68bd 2ebb 853e 5a70 f03d 26b8 a03e
000000f0: ba55 cb3e ebcb 113e f98c d83e 46e6 013e
00000100: e5e9 0c3e 696b 593d e0cd eabd 1be1 b1be
00000110: 4a46 97be a79d a0be d6a3 223f 6899 cd3e
00000120: 7323 7a3e 8e34 b33e a2cd 7b3e 46b6 893e
00000130: 2b1f d43e 4038 923d 41b8 0f3f 198b 4c3d
00000140: afe0 2e3e 454c c93d e688 353d e845 413e
00000150: e31c d43e d7ed c73d aabf 243f 964f 603e
00000160: 9eb6 1a3d e524 653f 525f 4f3e 5b48 d53d
00000170: 3043 633e 4e0d 7b3e 7cf5 8f3e 5e15 1b3f
00000180: afe6 f33d b069 273f ddb1 d13e fe19 003e
00000190: fb6b 933c 84e6 863d 19c6 003f 2598 9d3e
000001a0: 9344 e13e c8f8 233f b795 1e3f 250e 1d3e
000001b0: 2f40 79be 497e 023e 3ab1 883e f569 793e
000001c0: 0641 ac3e c359 2c3d a02b dc3e 13cc 063f
000001d0: 15a7 9d3d 36b9 183e e024 073e 7e53 00be
000001e0: 3f5e 5e3e 06a6 29be eec5 73be 8a5c 9cbd
000001f0: fd9f d5bd 5d2d ee3d f9b0 18be 0ca6 753e
00000200: c339 39bd 0347 543e c333 02bf 7a47 c5be
00000210: 4dca fbbd 49c2 4a3e 6702 13be dab7 9e3e
00000220: 9ca0 1e3f 813e d0bd 3e69 6f3f 654a 4b3e
00000230: c07a e1bd b767 3f3e 42c6 92be 63b7 7abe
00000240: cb73 8c3e 7dc7 8b3c f5ec 813e 320b 923d
00000250: d447 453d b741 303f b4d2 1abe 95a3 453e
00000260: b836 1c3e 41a9 3cbd 4f1e 5d3d 3f94 573e
00000270: 88b7 41be 5e50 243e fb89 153e cad0 9bbe
00000280: d389 ddbd 8bce 24be 4b14 9f3e 912e da3e
00000290: 319a 063f e159 66bd f573 673c 6381 9f3d
000002a0: 492c 82be e6fa 253f e7db f43e c4f5 d3bd
000002b0: bdd4 953d 8f40 c83d 7db1 253e 3eff 7b3e
000002c0: 3593 133f 8643 0a3e 8741 0c3f 680a 023f
000002d0: ab58 1f3f f2b5 003f 4713 7fbe 114c 803e
000002e0: b9a4 c63e c8a6 a73e ac7d aa3e 694a 393f
000002f0: 48a1 8fbe e474 3b3e ec0c 7e3e 1a49 c13d
00000300: 296e f13d 1465 d53e 4de4 2a3e ef32 903c
00000310: 0220 f83d f196 0c3e dabc 8a3d 0d38 103e
00000320: 7797 acbd 3183 9cbd 7ca0 123d 4877 823e
00000330: 8d77 c03e 2d98 443f 6984 083f f023 833e
00000340: f7b0 2b3e 511d 363e 8965 d43d 738d 8dbe
00000350: d2f3 8f3d b90a d9bd 776d 273f 2328 de3e
00000360: 0a0a b53c add0 223e 14a1 68be 219b aa3e
00000370: 26ff 4f3e 8ef4 263d a10a a83e 5f95 863e
00000380: 0bf4 433e 5bcf afbc 8cdb 99bd 6c2c fe3d
00000390: 7668 8b3e 28f4 433e ef2e 703e b272 e93d
000003a0: 9472 503e 8880 313e 1f48 b03d 6fff 343e
000003b0: 5a90 963e ab4a 97be 0c83 cd3d 3efb 913e
000003c0: 4dec 8abe 14c7 c23e d844 0bbf 4d21 fd3d
000003d0: 311b 2a3e bbbb e43d ce93 c93e c0ff 093f
000003e0: 906c 303f 2160 d33c 5b80 143f fe1c 893e
000003f0: 483b 0ebe 43cc b9bd f33b ebbd c591 9a3e

conv2.bias f4 [32]
0.14118557 0.062411644 -0.05233585 0.10761282 0.11749071 0.11059696 0.020809328 0.17458735
0.08050389 0.03525026 0.045264274 -0.012879933 -0.03906964 0.031410307 -0.0078107775 -0.092595555
0.18558237 -0.01640829 0.13659883 0.10295604 -0.041419685 0.12244703 0.16559488 0.1737202
-0.08379343 -0.040884424 -0.0098811025 -0.046731956 0.1401079 -0.0048996853 0.029265413 -0.06842359
00000000: f392 103e 5aa3 7f3d 1e5e 56bd 1c64 dc3d
00000010: f89e f03d a980 e23d 5378 aa3c 07c7 323e
00000020: 39df a43d 9462 103d 0867 393d 5b06 53bc
00000030: 7d07 20bd 18a8 003d 8df1 ffbb bda2 bdbd
00000040: 4e09 3e3e ae6a 86bc 90e0 0b3e 9eda d23d
00000050: b0a7 29bd 82c5 fa3d b491 293e b5e3 313e
00000060: e49b abbd 6d76 27bd 59e4 21bc 026a 3fbd
00000070: 7278 0f3e 8a8d a0bb 05be ef3c ab21 8cbd

fc1.weight f4 [64, 800]
0.44826877 0.30377296 0.05387739 -0.06992169 -0.12404894 0.032335434 -0.074198745 -0.034613732
-0.1841788 -0.18968841 -0.047086753 -0.077922024 -0.12694015 -0.24945498 -0.24839087 0.31574476
0.03880472 -0.076620914 -0.18110308 0.016552586 0.46910346 0.2522235 -0.03535126 -0.14291665
0.027989127 0.30493867 0.21176635 0.08635431 0.02492913 -0.02725061 0.04178837 0.026766896
0.079317905 -0.055483196 -0.05092173 -0.14627211 0.057176106 -0.06094174 -0.24641599 -0.3597861
0.09575578 0.05773097 0.13196191 0.04001509 0.00304934 0.33213764 0.062385738 0.22348951
-0.060697682 -0.053297754 0.3092888 0.17998694 0.050230447 -0.057889964 -0.09140296 0.08811545
0.1038569 0.083188 -0.12873262 -0.27033845 0.016748277 0.098792024 -0.16569582 -0.16271424
-0.17254816 0.19695643 0.19263981 0.0489367 -0.17686482 -0.037206013 0.5256188 0.3487395
0.030817227 0.102109216 0.10033716 0.15593334 0.16938418 -0.011275369 -0.03931975 -0.06461909
-0.035165157 -0.08295675 0.026747279 -0.039220713 -0.072228074 -0.082278155 -0.08240784 -0.16465011
-0.1529801 -0.20141037 0.10182132 -0.03129833 -0.031980664 -0.015657233 0.043096427 0.18954311
-0.050004665 0.15963522 0.05604086 0.09871774 0.1963619 0.14823425 -0.018276386 0.0044118585
0.023278248 0.02067603 0.016666736 0.10712929 -0.04158219 -0.17449407 -0.1601734 -0.15197231
-0.14142299 -0.1893993 -0.20437253 -0.0015193076 -0.050674774 -0.0062977816 -0.12582853 -0.1608774
0.1489577 0.0011911624 0.071623996 0.02378108 0.11419162 0.26426068 0.23404777 0.16687247
0.07778467 0.07716628 0.007385372 0.0009585014 0.09082871 -0.029155787 -0.11257892 -0.22319141
-0.1426327 -0.092282474 -0.12638345 -0.22629529 -0.0795828 -0.011300011 0.040024932 -0.11795579
-0.056839723 0.17938906 0.13994858 0.009007211 0.06517365 0.16131862 0.23917006 0.06560957
-0.06147043 -0.13830131 -0.18199672 0.22315013 0.074392386 0.043711357 0.036989212 -0.113688804
-0.0008359883 0.19852136 -0.07903952 -0.27732384 -0.26916492 -0.06351894 0.1461784 0.14212665
-0.09423737 -0.117151186 0.22977394 0.1763372 0.14657764 0.10325311 0.09989811 0.20264184
0.18930349 0.057005726 0.010245859 0.008110147 -0.010550918 0.006165815 0.03286254 -0.059483644
-0.07377299 -0.17927994 -0.16954844 -0.13548127 -0.17929001 -0.34077114 0.071350805 0.08936566
0.074475214 -0.04412173 -0.09102545 0.27811956 0.20622233 0.315832 0.03845042 0.122597024
0.1932067 0.06912575 0.092859596 -0.01057006 -0.040187124 0.1935327 0.035267256 0.07120115
0.006144216 -0.03410435 0.004479141 0.008288211 -0.18322748 -0.1444238 -0.20634471 0.007000891
0.092150554 0.04768091 -0.09097621 -0.06149817 0.32868794 0.06168931 0.14151981 0.2328145
0.070644006 0.19116054 0.15981382 0.12667432 0.013137318 0.030740624 0.104214445 0.077694185
0.16228853 -0.020257352 -0.08639735 -0.17724943 -0.039253686 -0.1677028 -0.14023061 -0.12702467
0.035747778 -0.02636383 0.04066342 -0.048192367 -0.045137633 0.37850383 -0.028160594 0.124719836
0.25491333 0.16691455 0.15905629 0.14352614 0.1278206 0.06461177 -0.060685594 0.098428115
00000000: 7c83 e53e 2188 9b3e 8aae 5c3d 1a33 8fbd
00000010: 5f0d febd 2972 043d 83f5 97bd 21c7 0dbd
00000020: 5e99 3cbe ae3d 42be 0ade 40bd 9595 9fbd
00000030: 99fc 01be 2071 7fbe 2d5a 7ebe 4ca9 a13e
00000040: b3f1 1e3d 6deb 9cbd 1673 39be 4a99 873c
00000050: 542e f03e 7023 813e 7ccc 10bd be58 12be
00000060: 7449 e53c ec20 9c3e 47d9 583e 87da b03d
00000070: 2d38 cc3c ac3c dfbc 482a 2b3d 4046 db3c
00000080: 6d71 a23d 5942 63bd 4e93 50bd 5bc8 15be
00000090: 7e31 6a3d 0c9e 79bd 7954 7cbe e235 b8be
000000a0: 9b1b c43d 4f77 6c3d 0621 073e dde6 233d
000000b0: 70d7 473b f20d aa3e 3088 7f3d 6fda 643e
000000c0: 229e 78bd bf4e 5abd 1a5b 9e3e 7f4e 383e
000000d0: 71be 4d3d 071e 6dbd 7a31 bbbd e075 b43d
000000e0: edb2 d43d 785e aa3d 7cd2 03be cd69 8abe
000000f0: af33 893c 7953 ca3d 2aac 29be 909e 26be
00000100: 77b0 30be f2ae 493e 5f43 453e d971 483d
00000110: 0d1c 35be 5565 18bd f48e 063f fc8d b23e
00000120: 6974 fc3c a31e d13d 927d cd3d fdac 1f3e
00000130: 0c73 2d3e 53bc 38bc bf0d 21bd 0357 84bd
00000140: 5709 10bd 3be5 a9bd 1c1d db3c e6a5 20bd
00000150: 50ec 93bd 7381 a8bd 71c5 a8bd 0a9a 28be
00000160: d1a6 1cbe 853e 4ebe b287 d03d ad32 00bd
00000170: 28fe 02bd 9943 80bc e185 303d 9717 423e
00000180: b1d1 4cbd 6a77 233e 1a8b 653d 872c ca3d
00000190: 1813 493e b8ca 173e 5cb8 95bc 5a91 903b
000001a0: 06b2 be3c c760 a93c ae88 883c 9a66 db3d
000001b0: 1652 2abd 93ae 32be 7f04 24be a19e 1bbe
000001c0: 30d1 10be e4f1 41be 0847 51be 8123 c7ba
000001d0: 5a90 4fbd 9f5d cebb 32d9 00be 0cbd 24be
000001e0: 5e88 183e c720 9c3a 9aaf 923d 8ad0 c23c
000001f0: 4cdd e93d 2d4d 873e 38aa 6f3e 9ee0 2a3e
00000200: 924d 9f3d 5b09 9e3d fe00 f23b f143 7b3a
00000210: 6704 ba3d 1ed8 eebc c78f e6bd 4a8c 64be
00000220: 4e0e 12be 98fe bcbd aa6a 01be f4b9 67be
00000230: 4ffc a2bd ae23 39bc 2ff1 233d ce92 f1bd
00000240: c5d0 68bd c4b1 373e ae4e 0f3e fb92 133c
00000250: c379 853d b530 253e ffe8 743e 4f5e 863d
00000260: 6bc8 7bbd dc9e 0dbe 595d 3abe 7881 643e
00000270: 095b 983d ae0a 333d 0082 173d add5 e8bd
00000280: 3a26 5bba 2f49 4b3e 79df a1bd 64fd 8dbe
00000290: fccf 89be 3816 82bd caaf 153e a689 113e
000002a0: 86ff c0bd f6ec efbd dc49 6b3e bd91 343e
000002b0: 7318 163e 5e76 d33d 6197 cc3d 5881 4f3e
000002c0: c6d8 413e d67e 693d 3fde 273c 6ce0 043c
000002d0: c2dd 2cbc 9b0a ca3b df9a 063d 1fa5 73bd
000002e0: 4b16 97bd 2995 37be 1b9e 2dbe 9abb 0abe
000002f0: cd97 37be 8e79 aebe 5f20 923d 5805 b73d
00000300: 7686 983d fdb8 34bd 8d6b babd b065 8e3e
00000310: f22b 533e bbb4 a13e 307e 1d3d 2614 fb3d
00000320: fad7 453e cd91 8d3d 2c2d be3d 0c2e 2dbc
00000330: 419b 24bd 702d 463e 6674 103d e9d1 913d
00000340: 6b55 c93b 01b1 0bbd c2c5 923b 47cb 073c
00000350: fc9f 3bbe d5e3 13be 074c 53be bb67 e53b
00000360: 6eb9 bc3d 0f4d 433d bc51 babd 81e5 7bbd
00000370: c949 a83e eead 7c3d 92ea 103e ed66 6e3e
00000380: cead 903d 97bf 433e 3ca6 233e eab6 013e
00000390: e83d 573c c3d3 fb3c 626e d53d 211e 9f3d
000003a0: f72e 263e bff2 a5bc 18f1 b0bd e080 35be
000003b0: 79c8 20bd 48ba 2bbe 9d98 0fbe c112 02be
000003c0: 436c 123d f5f8 d7bc b08e 263d 5c65 45bd
000003d0: 3de2 38bd 41cb c13e 0cb1 e6bc 1d6d ff3d
000003e0: 0084 823e a6eb 2a3e a7df 223e 84f8 123e
000003f0: 67e3 023e 2d53 843d 7591 78bd ae94 c93d

fc1.bias f4 [64]
-0.03724053 0.09513695 0.011745064 -0.0111221345 0.0437606 -0.0023468025 0.1476871 0.16094644
-0.0152655095 -0.02261577 0.022633225 -0.060562108 0.0885435 0.0029662708 0.090156235 0.06927844
0.016200984 0.025579376 0.004946853 0.021284081 0.012460092 -0.032735948 -0.019400688 0.07850703
-0.026212892 0.020722942 0.14941631 0.018098556 -0.022023145 0.026302548 0.14967997 0.14306541
-0.05327732 0.0061023654 0.064340234 0.08377044 0.031838063 0.009481734 -0.11922982 -0.026005398
-0.011950696 0.007510509 -0.017207855 0.03099854 0.027139759 0.16383341 -0.026065575 0.021919891
-0.004588628 0.07912178 0.013661169 0.10389369 0.05139272 0.17302404 0.07667426 -0.029303882
-0.032840382 -0.022396931 0.1535945 -0.01243751 0.024807533 0.061816897 -0.016333776 -0.015731974
00000000: 8789 18bd 29d7 c23d 5e6e 403c 9d39 36bc
00000010: 513e 333d d0cc 19bb 4a3b 173e 25cf 243e
00000020: 301c 7abc b544 b9bc 5069 b93c f90f 78bd
00000030: 4b56 b53d c465 423b d5a3 b83d dbe1 8d3d
00000040: edb7 843c d78b d13c 3619 a23b f45b ae3c
00000050: 6a25 4c3c 2116 06bd 31ee 9ebc 4bc8 a03d
00000060: 6bbc d6bc 29c3 a93c 9700 193e 6c43 943c
00000070: e269 b4bc 7178 d73c b545 193e bd7f 123e
00000080: 5239 5abd 5af6 c73b d0c4 833d d68f ab3d
00000090: a168 023d 4659 1b3c c42e f4bd 4609 d5bc
000000a0: dacc 43bc b71a f63b 7df7 8cbc a6f0 fd3c
000000b0: 3354 de3c f2c3 273e 7987 d5bc 5891 b33c
000000c0: 345c 96bb 9a0a a23d 19d3 5f3c 37c6 d43d
000000d0: 2c81 523d 372d 313e 6507 9d3d b20e f0bc
000000e0: a383 06bd c579 b7bc e047 1d3e b3c6 4bbc
000000f0: 2b39 cb3c b733 7d3d 69ce 85bc 57e0 80bc

fc2.weight f4 [64, 64]
-0.0794786 0.1617459 -0.21339445 -0.028359938 0.21456116 0.10995233 0.18023172 -0.14183755
0.029181555 0.0063655693 0.03395989 -0.028143305 0.1439477 -0.051791053 -0.045384094 0.008980569
0.04923369 -0.02657387 -0.04730864 -0.002159521 0.051173136 0.073528305 0.25396827 -0.1144302
-0.002431745 -0.08724622 0.18587194 -0.022876114 0.068962246 0.07197123 -0.071467 0.06741475
0.041859798 0.11816303 0.056414884 -0.04461092 0.11675052 -0.040184688 -0.06996222 0.047366217
0.038677663 0.19919658 0.049513236 -0.018181816 -0.072707474 0.06487249 -0.081578806 -0.074470684
-0.08792968 0.07068438 -0.03151179 -0.15313233 0.2945404 0.13305302 0.20796591 0.04199208
0.10679723 -0.07002262 0.3209966 0.06865254 0.08031088 0.35306564 -0.09215541 -0.0136050135
-0.098725885 0.013540447 -0.12282772 0.036455154 0.08963868 0.09706704 -0.0880055 -0.021928921
0.089180544 0.06801961 -0.034959704 -0.097683355 0.08269979 -0.112193525 -0.029459685 -0.09746131
-0.08204672 0.08945663 -0.12224768 0.05080086 0.06778346 -0.015137106 -0.10649285 -0.043070048
0.031457916 0.07795787 -0.041449383 -0.016618103 -0.070911646 0.10031167 0.08501689 0.0878811
-0.054844856 0.056338564 -0.10245933 -0.12320152 -0.08911647 -0.08335109 0.038425922 -0.09020941
0.06462829 0.098851874 -0.10046768 -0.028259963 -0.011637598 0.091783345 -0.0013523698 0.12008752
0.098760486 0.039120704 0.06499331 -0.068724364 -0.053743526 0.1051151 -0.081992805 -0.067070976
-0.10991706 -0.08275841 -0.064746186 -0.07948002 0.00995332 -0.0866508 -0.028015077 -0.009701893
0.11985139 -0.06312764 0.19353774 0.10311977 -0.0007725786 0.08717479 0.098601386 0.1530173
-0.102717385 0.056798384 0.05380678 0.044109937 0.1707373 0.023067856 0.063962735 0.17767505
-0.11554207 0.038818136 0.110712826 -0.032470733 -0.03157474 -0.10987987 0.08816831 -0.060413804
-0.062061496 0.28668663 -0.19537383 0.09488218 -0.018118694 0.0045220596 0.2398401 0.086321265
-0.33869642 -0.059778742 0.029136509 0.10972655 0.105469495 -0.0773163 0.025889345 0.08310263
-0.04114681 -0.037381493 0.061223805 0.11930214 -0.0052218074 0.09961285 0.12473678 -0.084264584
0.035645217 0.23973474 -0.01925448 0.2541049 -0.018804053 0.061707404 0.015170226 -0.008958627
0.034662813 0.11014585 -0.01028375 0.0006407508 0.07872853 0.10292763 0.03580816 0.09463982
-0.023517944 0.11557659 -0.11224685 0.027526809 -0.06327748 -0.04711014 0.049591184 0.08047749
0.037981316 -0.07973853 0.09107458 0.04861167 0.003733365 0.0842776 -0.059945814 -0.04450932
-0.09026977 0.06261024 0.06325498 0.11328755 0.044505443 -0.043582268 -0.09833143 -0.12831996
0.108213 0.07516985 0.076009244 0.09205551 0.07755081 0.0057909666 -0.1253744 0.08016166
0.015074597 0.0483348 -0.1157711 0.036092877 0.032193817 -0.032763455 0.056025907 -0.018905848
0.116506815 -0.10410777 -0.020872042 -0.12126307 0.120668344 -0.11278759 0.10980949 -0.12361549
0.081091136 -0.13219318 -0.044447683 0.014565991 -0.0016785632 0.030209271 0.02138971 0.0020607377
-0.010776877 -0.10716233 -0.02623673 0.1138765 -0.057643928 0.10893832 0.1149129 0.11126192
00000000: adc5 a2bd b8a0 253e 1384 5abe 1a53 e8bc
00000010: ecb5 5b3e b02e e13d aa8e 383e dd3d 11be
00000020: 280e ef3c 4496 d03b 8719 0b3d ca8c e6bc
00000030: 0767 133e db22 54bd ace4 39bd 3d23 133c
00000040: 44a9 493d 72b1 d9bc b4c6 41bd c086 0dbb
00000050: ec9a 513d 0296 963d 2108 823e 615a eabd
00000060: e95d 1fbb 25ae b2bd 3755 3e3e b066 bbbc
00000070: 143c 8d3d a765 933d 4a5d 92bd bf10 8a3d
00000080: 2e75 2b3d 75ff f13d 4b13 673d f1b9 36bd
00000090: e61a ef3d b398 24bd 5a48 8fbd 1403 423d
000000a0: 786c 1e3d 30fa 4b3e 64ce 4a3d 08f2 94bc
000000b0: a8e7 94bd dedb 843d ca12 a7bd 1684 98bd
000000c0: 7a14 b4bd f9c2 903d 8212 01bd b9ce 1cbe
000000d0: 00ce 963e 0d3f 083e 04f5 543e e3ff 2b3d
000000e0: 82b8 da3d 0568 8fbd ab59 a43e b499 8c3d
000000f0: 087a a43d 05c5 b43e fabb bcbd 90e7 5ebc
00000100: cc30 cabd c0d8 5d3c 1a8d fbbd 0052 153d
00000110: 7c94 b73d 16cb c63d 3a3c b4bd 48a4 b3bc
00000120: 4aa4 b63d de4d 8b3d e831 0fbd 360e c8bd
00000130: 825e a93d b8c5 e5bd 7055 f1bc cc99 c7bd
00000140: 1c08 a8bd 0a35 b73d fe5c fabd 9014 503d
00000150: 0ed2 8a3d a001 78bc ec18 dabd 386a 30bd
00000160: 04da 003d 60a8 9f3d d4c6 29bd b022 88bc
00000170: 203a 91bd 3470 cd3d 561d ae3d 02fb b33d
00000180: 00a5 60bd 44c3 663d 32d6 d1bd 1451 fcbd
00000190: b282 b6bd fab3 aabd 8064 1d3d b6bf b8bd
000001a0: d65b 843d da72 ca3d 00c2 cdbd 7081 e7bc
000001b0: a0ab 3ebc e8f8 bb3d 0042 b1ba 72f0 f53d
000001c0: f042 ca3d 083d 203d 361b 853d 5cbf 8cbd
000001d0: 2c22 5cbd 9646 d73d d8eb a7bd 825c 89bd
000001e0: 321c e1bd 3e7d a9bd a699 84bd 6cc6 a2bd
000001f0: 4013 233c fa75 b1bd e07f e5bc b0f4 1ebc
00000200: a574 f53d 1049 81bd c22e 463e 7530 d33d
00000210: df86 4aba b288 b23d 86ef c93d 91b0 1c3e
00000220: 7e5d d2bd 6ca5 683d 8064 5c3d 9fac 343d
00000230: c2d5 2e3e cdf8 bc3c e5fe 823d 73f0 353e
00000240: 52a1 ecbd c4ff 1e3d 68bd e23d 0800 05bd
00000250: 8454 01bd b308 e1bd 9691 b43d 7774 77bd
00000260: 3234 7ebd 97c8 923e 1410 48be 9751 c23d
00000270: a86d 94bc c92d 943b a598 753e 34c9 b03d
00000280: 9e69 adbe 8eda 74bd b0af ee3c 50b8 e03d
00000290: 6400 d83d 0258 9ebd e415 d43c b631 aa3d
000002a0: 8f89 28bd 561d 19bd d0c5 7a3d ae54 f43d
000002b0: b21b abbb d201 cc3d ff75 ff3d e992 acbd
000002c0: b800 123d 067d 753e 92bb 9dbc 0a1a 823e
000002d0: f50a 9abc e7c0 7c3d 8a8c 783c 34c7 12bc
000002e0: 98fa 0d3d 2694 e13d 2c7d 28bc 0ff8 273a
000002f0: 6c3c a13d b9cb d23d 94ab 123d 86d2 c13d
00000300: b4a8 c0bc 6bb3 ec3d ade1 e5bd e77f e13c
00000310: a097 81bd 90f6 40bd 2020 4b3d 62d1 a43d
00000320: 4c92 1b3d f44d a3bd 4f85 ba3d 081d 473d
00000330: 79ab 743b bc99 ac3d be89 75bd 684f 36bd
00000340: 5bdf b8bd cc39 803d d48b 813d 4e03 e83d
00000350: 574b 363d 5283 32bd fd61 c9bd 4f66 03be
00000360: c79e dd3d a6f2 993d bcaa 9b3d 9987 bc3d
00000370: f6d2 9e3d 26c2 bd3b 2662 00be cc2b a43d
00000380: 71fb 763c b6fa 453d 6619 edbd 20d6 133d
00000390: aadd 033d f932 06bd 6c7b 653d 70e0 9abc
000003a0: 209b ee3d 7436 d5bd d8fb aabc c658 f8bd
000003b0: f720 f73d 2efd e6bd cce3 e03d 1e2a fdbd
000003c0: 1c13 a63d a65d 07be c60e 36bd 32a6 6e3c
000003d0: 3c03 dcba 6f79 f73c 7939 af3c 710d 073b
000003e0: 8091 30bc ec77 dbbd 69ee d6bc 1538 e93d
000003f0: 0a1c 6cbd 0e1b df3d 7457 eb3d 4add e33d

fc2.bias f4 [64]
0.04150749 -0.016830698 -0.004330732 0.07874868 0.01820541 0.07511318 0.11664862 0.04469776
0.1017579 0.10478119 0.060936812 0.0021326712 0.15822394 0.2533535 0.2146647 0.10448507
0.18128632 0.22799169 -0.13829872 0.082430854 0.005376361 -0.0864636 0.010581481 -0.073288895
0.12225812 0.042280287 -0.16867162 -0.020264003 -0.05765827 -0.024592083 0.17525312 -0.106875494
-0.08366874 0.1222094 0.025498929 0.13018487 0.09682038 0.03666919 0.09046986 0.072649956
0.09350817 -0.011225581 0.0626034 0.09563516 -0.14038917 -0.06204046 0.10399807 -0.09110676
0.12986875 0.10626496 0.050411955 0.017552923 0.17215319 0.10074138 0.1075717 0.11615536
-0.047922846 0.08711851 0.08561022 -0.0004440185 0.020095844 -0.019864228 -0.06938521 -0.08073491
00000000: c203 2a3d 88e0 89bc d0e8 8dbb fd46 a13d
00000010: 8323 953c f0d4 993d 79e5 ee3d 0015 373d
00000020: 7266 d03d 8597 d63d e198 793d 49c4 0b3b
00000030: 7505 223e 8db7 813e 10d1 5b3e 45fc d53d
00000040: 1fa3 393e a776 693e 2e9e 0dbe 82d1 a83d
00000050: 2f2c b03b d413 b1bd f35d 2d3c 7d18 96bd
00000060: 7762 fa3d 182e 2d3d 41b8 2cbe b200 a6bc
00000070: 142b 6cbd 5675 c9bc 8e75 333e 8ae1 dabd
00000080: 845a abbd ec48 fa3d 21e3 d03c 2f4f 053e
00000090: c349 c63d 6f32 163d 4348 b93d 80c9 943d
000000a0: 3681 bf3d 80eb 37bc 3636 803d 5edc c33d
000000b0: 2ec2 0fbe 231e 7ebd f1fc d43d 2e96 babd
000000c0: 50fc 043e 71a1 d93d c47c 4e3d 26cb 8f3c
000000d0: ed48 303e 7f51 ce3d 8d4e dc3d dde2 ed3d
000000e0: bf4a 44bd 306b b23d 6954 af3d 27cb e8b9
000000f0: 0aa0 a43c 4eba a2bc d519 8ebd 5858 a5bd

fc3.weight f4 [7, 64]
-0.11583312 -0.042947814 0.1324456 0.047644954 0.17088449 -0.19169366 0.07100601 -0.1283033
0.069751605 0.07282838 0.1250621 0.7478515 0.052150387 -0.1126643 -0.21255936 -0.13382754
-0.15886287 0.015202768 0.9572805 0.042312242 -0.24563567 0.03053981 0.36268848 0.6807553
0.47055387 -0.08246384 -0.23453012 -0.21076596 -0.21190573 -0.017592918 -0.05179242 0.5165624
0.122501925 -0.024489198 -0.0038561798 -0.05799499 -0.07891236 0.04629367 0.1379651 0.045715027
0.08303297 -0.1019471 0.11025241 0.12089604 0.522897 -0.008108514 0.034690324 0.12748821
0.13871002 0.075971074 -0.0450603 -0.07998867 0.044386122 0.1507788 -0.22671409 -0.43225867
0.066239215 -0.2907635 -0.21469024 0.63062984 -0.6184203 -0.09032281 0.777673 -0.029779032
0.119225964 -0.014676556 0.01963984 -0.055107277 0.056590416 0.052883357 -0.097662605 -0.09707916
0.061730556 -0.04124259 0.20413004 0.5561094 -0.12541427 -0.25437853 -0.2746192 0.01545592
-0.017070334 -0.014311529 1.2797455 -0.38961232 -0.6037649 -0.0018170774 0.66224235 0.8136294
0.15683407 -0.003605431 -0.29258528 0.17880999 -0.19534759 -0.11920591 0.088701464 0.37906063
-0.045888707 -0.041850932 0.059553936 -0.020292051 -0.10955288 -0.06732321 -0.12229286 -0.061418686
0.008482727 -0.17395693 0.024987148 -0.4522767 0.22460838 0.17387575 0.017753493 0.15379353
0.03860954 0.08211665 -0.062413152 -0.07095471 0.09645169 0.040003035 0.32873774 0.091342494
0.026291087 -0.31708243 0.10564695 0.07875331 -0.31700855 -0.09193871 0.29430643 0.10630986
-0.19136555 0.010241196 0.09797469 0.115322724 0.19960077 -0.032422062 0.017552681 -0.16503957
-0.10229973 0.09821011 -0.0045506787 0.8435101 -0.08053501 -0.21886878 -0.23846519 0.1445465
0.38316438 0.075387694 0.8491734 -0.04821927 -0.3932782 0.10721135 0.56436354 0.533728
-0.28581014 0.085610114 0.050313696 -0.08694471 -0.26438305 0.119905 -0.1604186 0.7767214
0.09480201 -0.118108444 0.046883337 0.072417215 0.18621506 0.086006224 0.055566788 -0.1090285
-0.025262387 0.16054213 0.033110254 0.19378403 0.13916892 0.14893627 0.22678316 -0.058193795
-0.13016208 0.039929163 -0.06378557 -0.22242187 -0.033770114 -0.12101223 -0.06576095 0.20732486
0.09610625 0.063836336 0.17012095 0.4742619 -0.6321413 -0.10658552 0.58478767 0.118431196
0.0051907054 0.04662706 -0.16999455 -0.07992346 0.1295197 0.07564832 -0.081883155 -0.13752274
-0.050081775 0.016934467 0.07190426 1.293072 -0.22530065 -0.34965217 -0.1569431 0.07044559
-0.034377575 0.329795 0.62565 -0.1726676 0.12349431 -0.043281678 0.19257243 0.9684308
-0.5462436 0.08946052 0.19117872 -0.09588096 -0.055182017 0.09265938 -0.32650232 0.73900026
0.008956924 0.13163799 -0.11978714 -0.07809139 0.10060408 -0.0718506 0.010040775 -0.023988625
0.018833533 0.022925962 -0.12577365 0.5611696 0.2247977 -0.15016162 -0.20240448 0.14058496
0.05839151 0.018191654 -0.38018748 0.048819512 -0.10657925 0.15114385 -0.096999645 0.04640446
0.0039913626 -0.44193935 -0.19536105 -0.41849366 -0.29346412 0.045412928 0.7184579 0.091105536
00000000: ea39 edbd 0cea 2fbd d29f 073e 5b27 433d
00000010: 58fc 2e3e 584b 44be 996b 913d f161 03be
00000020: eed9 8e3d 0c27 953d 4710 003e 3273 3f3f
00000030: a59b 553d 8abc e6bd 29a9 59be 160a 09be
00000040: f3ac 22be 0815 793c 5610 753f 9a4f 2d3d
00000050: eb87 7bbe a02e fa3c 4eb2 b93e fb45 2e3f
00000060: 70ec f03e cde2 a8bd aa28 70be 08d3 57be
00000070: d1fd 58be 061f 90bc 4a24 54bd 6f3d 043f
00000080: 4ae2 fa3d 929d c8bc f6b7 7cbb 288c 6dbd
00000090: ce9c a1bd 6e9e 3d3d b946 0d3e ae3f 3b3d
000000a0: 310d aa3d a4c9 d0bd 04cc e13d 5898 f73d
000000b0: 94dc 053f 93d9 04bc 7117 0e3d 458c 023e
000000c0: 000a 0e3e b996 9b3d 2691 38bd 1ad1 a3bd
000000d0: 39ce 353d c265 1a3e bd27 68be 0251 ddbe
000000e0: 6da8 873d f4de 94be c2d7 5bbe f570 213f
000000f0: cb50 1ebf 2afb b8bd 9415 473f 28f3 f3bc
00000100: be2c f43d f075 70bc bbe3 a03c 2bb8 61bd
00000110: 5acb 673d 389c 583d 5503 c8bd 70d1 c6bd
00000120: 2ed9 7c3d fded 28bd 7707 513e 305d 0e3f
00000130: 996c 00be e73d 82be e39a 8cbe d43a 7d3c
00000140: 16d7 8bbc e77a 6abc b3ce a33f 447b c7be
00000150: 5690 1abf 002b eeba b788 293f 044a 503f
00000160: 1c99 203e 1849 6cbb bdcd 95be f719 373e
00000170: 3309 48be 3a22 f4bd 1da9 b53d 3c14 c23e
00000180: ccf5 3bbd e26b 2bbd d4ee 733d 843b a6bc
00000190: 435d e0bd c0e0 89bd ae74 fabd 2992 7bbd
000001a0: 23fb 0a3c c421 32be d9b1 cc3c d090 e7be
000001b0: bdff 653e 7c0c 323e c66f 913c 0d7c 1d3e
000001c0: 0925 1e3d c62c a83d efa4 7fbd b450 91bd
000001d0: 7788 c53d 39da 233d 5050 a83e c611 bb3d
000001e0: 6860 d73c a158 a2be 6e5d d83d 6a49 a13d
000001f0: f24e a2be 5d4a bcbd 55af 963e fcb8 d93d
00000200: 55f5 43be b0ca 273c f4a6 c83d 522e ec3d
00000210: 2564 4c3e ffcc 04bd a4ca 8f3c 2200 29be
00000220: 8582 d1bd 6222 c93d dc1d 95bb 47f0 573f
00000230: 8aef a4bd 231f 60be 3830 74be ff03 143e
00000240: 1f2e c43e dd64 9a3d 6e63 593f 9281 45bd
00000250: c35b c9be a091 db3d 217a 103f 66a2 083f
00000260: b555 92be 5b54 af3d bc15 4e3d 1110 b2bd
00000270: 375d 87be c190 f53d c644 24be 37d7 463f
00000280: 8e27 c23d d7e2 f1bd be08 403d 7a4f 943d
00000290: 29af 3e3e 0824 b03d 009a 633d 564a dfbd
000002a0: 11f3 cebc 2865 243e 9e9e 073d 526f 463e
000002b0: 4c82 0e3e c082 183e d839 683e 9e5c 6ebd
000002c0: 3549 05be c38c 233d 02a2 82bd 8fc2 63be
000002d0: 8852 0abd 43d5 f7bd adad 86bd f84c 543e
000002e0: 5bd3 c43d a0bc 823d 3034 2e3e 75d2 f23e
000002f0: 03d4 21bf 8249 dabd a5b4 153f 0e8c f23d
00000300: cb16 aa3b 04fc 3e3d 0d13 2ebe e9ae a3bd
00000310: d0a0 043e 82ed 9a3d 5bb2 a7bd c3d2 0cbe
00000320: 8c22 4dbd 27ba 8a3c 8a42 933d 6283 a53f
00000330: 37b5 66be 9c05 b3be b1b5 20be c745 903d
00000340: 80cf 0cbd e4da a83e 992a 203f c6cf 30be
00000350: 96ea fc3d 2148 31bd b531 453e 15eb 773f
00000360: 9fd6 0bbf 1437 b73d 5bc4 433e 3d5d c4bd
00000370: 8a06 62bd 33c4 bd3d 502b a7be 1f2f 3d3f
00000380: 10c0 123c 1ccc 063e f652 f5bd 61ee 9fbd
00000390: 8309 ce3d 6826 93bd 1082 243c cb83 c4bc
000003a0: c848 9a3c 3acf bb3c cfca 00be d0a8 0f3f
000003b0: 5e31 663e f8c3 19be 1f43 4fbe 81f5 0f3e
000003c0: f02b 6f3d aa06 953c efa7 c2be f8f6 473d
000003d0: 3946 dabd 74c5 1a3e c0a7 c6bd 9a12 3e3d
000003e0: fac9 823b e045 e2be ba0c 48be cd44 d6be
000003f0: ee40 96be e802 3a3d dbec 373f 8a95 ba3d

fc3.bias f4 [7]
0.011314542 -0.0013240441 0.04813235 -0.15216768 0.04369873 0.06016166 -0.37587458
00000000: a160 393c 8c8b adba 6d26 453d d8d1 1bbe
00000010: 71fd 323d 136c 763d a272 c0be
