src/models/v7_simple_human_and_shelves_10x14_1agent_5human_32shelves_2pickup_4_dropoff.pth (torch, 253488 bytes, 10 tensors)

conv1.weight f4 [16, 10, 3, 3]
00000000: 62f5 943e 8a92 1dbf 03e1 143d 1010 0ebf
00000010: f20d e43d 86a6 913e 9cfd 7f3d 327e dc3d
00000020: cc27 473f 10c1 313d c7bf ff3e 8007 d1bc
00000030: 65b1 bf3e 7bd6 4bbe 96c7 fbbc 08ed 3abe
00000040: 180c 40be a560 583e 5b3e e93d bb4c 943d
00000050: db10 783d 9496 573c 0c84 b3bd 89f2 92be
00000060: 4ef5 03bd 5028 f13c 4242 c83d f528 7e3d
00000070: 28bb 3b3e 4a24 da3c b37f d83c 1334 c8bd
00000080: 10f6 2fbe 5463 b03c b6f9 dbbc 5a36 a43d
00000090: e654 ea3e 2826 0fbf 9242 cc3e 6cc9 81bf
000000a0: fab4 c13d 7ca3 3c3e c863 a5be 650b 34be
000000b0: f30e 6fbf 9d50 a33d cfc2 d9bd 3c71 b1bd
000000c0: 8da4 8ebd 0dcd b3bd 065e cd3c e33d 5cbd
000000d0: bd63 17be 7cdb e3bc cb9b 76be 1500 73be
000000e0: 2288 9dbe 5935 ac3e 2680 1e3c ef09 6fbd
000000f0: 52d7 c23d f695 163e dc47 613e 6221 ac3d
00000100: 71df 8b3d 688f 6abd 4aa5 843e e6ed 033c
00000110: 6bfc 0cbd 3514 8d3d a6d3 aebd cc44 3fbe
00000120: bf18 0d3d 1757 1cbe 4f40 323e 4fea e0bd
00000130: 1e5e d8bd e067 0b3e 590b 89bc 4b10 aa3d
00000140: a594 dbbc fb96 fcbe a12a 1a3e dfef fa3c
00000150: 8c0b f23d b5a9 0e3e 01f5 433e 63d2 bebe
00000160: 88e8 34be 4138 f9be 7725 963e 99c9 873e
00000170: 3af4 4d3e 7806 4c3d e1d6 bd3d 8d6c 673d
00000180: c325 2fbc a67c c73d b3fa e03d c245 463f
00000190: 243a 1bbe e889 5d3f 9784 23be 8e41 1b3d
000001a0: 0dc1 e23e a922 f2be 6094 873e 406d c33e
000001b0: c862 633e c9b6 b7be 4c19 483e a5d8 08be
000001c0: 2910 33bd 16df 893d 76e5 b2be e740 fb3c
000001d0: b9bc 983e a228 54bd a417 8bbd d9ba 973e
000001e0: 773b 573c b862 0cbd 8d65 fb3d 587f 1ebe
000001f0: 5a83 b43c 4b7e 873e 1f13 8a3c f2d7 20bf
00000200: 19f6 073f a292 f6be d84d 89be d40e 03be
00000210: 4ba5 60be 2cec 0dbf 9306 69be 1a3a 733d
00000220: 2535 8f3d 7d56 3b3e fd41 0dbd 7f10 32be
00000230: 5ef5 29bc fa97 ca3e f680 c63d 188b 7e3e
00000240: 4989 ac3d 25a4 bd3e 35c1 81bd 7923 823e
00000250: ece4 4d3f 992d 9a3e 2d5b ad3e 1a9e 913c
00000260: b391 043f fff0 b73d 5247 7fbc 2be9 bd3d
00000270: fa2b 443b 1fef bb3d d23e 893d 0cf8 01bc
00000280: 31d9 b9ba c7bf c7bc 996c 0bbe be20 a7bd
00000290: ae7e 663d 5ccf 113e 8985 82be 2a38 babc
000002a0: 91d3 273e 99e9 8dbe 19f1 02be 1da2 86bf
000002b0: a4ce 9d3d 02cc 093d 0028 f53c 7ae5 763e
000002c0: f250 943e 6819 e5bd 2fc0 eb3d 1b76 bfbd
000002d0: 7645 a93e f8b1 503e 2a01 723e fc9d 54be
000002e0: 4afb d53d 7b0d 12bf dfeb a53e c71a 903e
000002f0: 035a 5d3e 13ca d7be 0efd 43bf 1314 583d
00000300: a828 babe 5140 053e 8146 18bd f1e6 aabe
00000310: 4366 473e 18fa e83d 20bf 3abe 4c11 95be
00000320: 10cf 513e 75fe 69be c36e 0b3e d498 22be
00000330: 5c3c 493c b496 983e 7427 703d 7e1a 57be
00000340: 7b38 6dbe ddea 15be 6961 ddbd 52b9 e23d
00000350: 9efc c53c cf0d dcbd a4a9 883d 6b44 acbd
00000360: 1096 593e c674 d83e 0d37 673e 8f81 593d
00000370: 4f20 21bd 1c1a 0e3e 1b41 9cbf 6bfd 03be
00000380: 2c2f 23bf 854d b33d d311 8b3c 00a9 583d
00000390: 0541 2a3e 2f3b e23d a115 5f3e 97df 6c3d
000003a0: 6ba9 093e 70c1 09bd 0c8f ec3d 22c9 e83d
000003b0: bd02 793e d579 e03d 4500 2b3d 4b30 bc3d
000003c0: c9a3 a43e dc0a 183e 1c9d 31bd dfe8 05be
000003d0: 95e2 c53d d76b a3bd 2263 e5bd 05e4 073d
000003e0: 9774 fe3d 5f4c 88bd 8ee9 c1bc d1ca e53d
000003f0: 8f77 a33c 2897 173d 6867 e03c d084 7ebc
0.29093462 -0.61551726 0.0363474 -0.5549326 0.11135472 0.2844736 0.06249772 0.10766257
0.777951 0.04339701 0.49951002 -0.025516272 0.3744003 -0.19906037 -0.030734818 -0.18254483
-0.18754613 0.21130617 0.113888465 0.07241198 0.06056295 0.013158459 -0.0876542 -0.28700665
-0.032216363 0.029438168 0.09778263 0.06205078 0.18333113 0.026628632 0.02642808 -0.09775557
-0.17183709 0.021531738 -0.02685247 0.08018179 0.45767897 -0.55917597 0.3989454 -1.0139594
0.09458347 0.1842174 -0.3230269 -0.17582472 -0.93382186 0.0797436 -0.1063286 -0.08664176
-0.06964979 -0.08779345 0.025069248 -0.053769957 -0.14784141 -0.02781462 -0.24082868 -0.237305
-0.30767924 0.3363445 0.009674108 -0.058359083 0.09513725 0.14705643 0.22000068 0.08404805
0.068297274 -0.05726567 0.25907356 0.008052325 -0.034420412 0.0688862 -0.085364625 -0.18678588
0.034447428 -0.15267597 0.17407344 -0.10982191 -0.105648264 0.13613844 -0.016729044 0.08303889
-0.026804278 -0.4933394 0.15055324 0.030631958 0.11818609 0.13931926 0.1913643 -0.37269887
-0.17666829 -0.4867573 0.29325458 0.26520994 0.20112696 0.049810857 0.092695005 0.056500006
-0.010690155 0.09740572 0.10985317 0.7745019 -0.15158898 0.86538553 -0.15968548 0.037904315
0.4428791 -0.4729207 0.2648039 0.3816929 0.22205651 -0.35881642 0.195409 -0.13363893
-0.043716583 0.067320034 -0.3494069 0.030670596 0.29831484 -0.051796563 -0.067916185 0.2963474
0.013136736 -0.034273833 0.12275229 -0.15478265 0.02203529 0.2646354 0.01685482 -0.62829506
0.5310989 -0.48158747 -0.26817203 -0.12798625 -0.21938054 -0.55438495 -0.22756414 0.05938158
0.069925584 0.18294711 -0.03448676 -0.17389105 -0.0103734415 0.39569074 0.09692566 0.24857748
0.084246226 0.37039295 -0.063356794 0.25417688 0.8042743 0.30112913 0.33858624 0.017775584
0.5178482 0.08981513 -0.015580969 0.09272989 0.0029933439 0.09176468 0.06701435 -0.007932674
-0.0014179108 -0.024383439 -0.13615645 -0.08160542 0.056273155 0.14239258 -0.25492504 -0.02273186
0.163893 -0.27717283 -0.12787284 -1.0518223 0.07705429 0.033641823 0.0299263 0.24110976
0.28968006 -0.111864865 0.115112655 -0.09348699 0.33060807 0.2038039 0.23633257 -0.20763391
0.1044832 -0.5705182 0.32406518 0.2814543 0.21616368 -0.42146358 -0.76558006 0.05275352
-0.36359143 0.13012816 -0.037176613 -0.3337932 0.19472603 0.113758266 -0.18236971 -0.2911476
0.20489144 -0.22850974 0.13616471 -0.15878612 0.012282457 0.29802477 0.058631375 -0.210062
-0.23166077 -0.14640374 -0.10809595 0.11070503 0.024168309 -0.10744821 0.066729814 -0.08411487
0.2124865 0.4227659 0.22579594 0.053102072 -0.039337453 0.13877147 -1.2207369 -0.1288964
-0.63743854 0.0875502 0.016976273 0.052895546 0.16626365 0.110464446 0.21785595 0.05783042
0.13443534 -0.033631742 0.115507215 0.11366488 0.24317451 0.109607376 0.041748304 0.09188899
0.32156208 0.14847893 -0.04336272 -0.13077115 0.09662358 -0.07979553 -0.11200549 0.03317644
0.124245815 -0.06655192 -0.023670938 0.11220325 0.01995447 0.03700939 0.027393058 -0.015534595

conv1.bias f4 [16]
00000000: 1214 723e 7628 c43e fdaf 513e 3a7e 8e3e
00000010: 9b47 5f3e ca86 f73e 23ca 013e 4268 be3c
00000020: 6805 783e 129a 4f3e 03dd 743e 4002 a63e
00000030: b4c3 7a3e 8774 7b3d f83a b4ba 4771 7f3e
0.23640469 0.3831212 0.2047729 0.27830678 0.21804659 0.48345023 0.12674765 0.023243073
0.24220812 0.20273617 0.23912434 0.32423592 0.24488717 0.061390426 -0.0013750484 0.24945556

conv2.weight f4 [32, 16, 3, 3]
00000000: 5a14 2f3e 8162 b53d a184 a23e 4a78 b03d
00000010: 9eeb 333e 9c2e 023f f265 aebb c529 6f3d
00000020: cf8d 26be 1012 fd3d 755a 113e 55ef ccbd
00000030: ec32 843e 6d91 71be 4a32 7ebd e20d bdbe
00000040: 98b1 9dbe 99d0 08be 1ff8 b23d 7744 803e
00000050: 00ee 4cbd d438 ad3e 3280 3e3e 2c5b 21bf
00000060: 2f63 43be 7f74 c0be 6475 03bf c50c 943e
00000070: 6994 f33e 1fd7 6b3e df20 403f 8699 c73e
00000080: b174 ba3e 2f5a 013f ec4d ee3e 0652 093f
00000090: 3cda de3e 293c 823e 0748 c9be 4814 59bd
000000a0: 5a21 56be 34b5 2ebe 99d1 843d f3fb 7c3e
000000b0: 050e fb3e d675 1c3d da10 ac3d 2220 1c3d
000000c0: 3398 273e 09ff d93e 0330 f13e 76d1 5b3e
000000d0: c745 c73e ebc3 803e 2615 923e 1660 a23e
000000e0: de5f 30bd ced5 983e 205a df3d 2c7f a53e
000000f0: e5c3 df3e 35f0 0b3e 9801 e73e 1857 383e
00000100: b457 003e c6b3 40bd 484f 98be 84c0 eebe
00000110: baa6 d1be 2c8b 07bf abae 153f c26d be3e
00000120: fac3 6f3e 540a d03e b939 793e 3efd 943e
00000130: e05b dc3e dd34 973d d5dc 1a3f 574e 473d
00000140: 8111 583e dcda 013e a552 d93d a200 363e
00000150: 46e6 e23e 9e64 bf3d e09b 213f 7993 853e
00000160: eb52 f6bb 97d2 613f 756e 353e 96d6 aa3d
00000170: 019e 443e 2654 623e 727c 8c3e dbed 163f
00000180: 1d9c ec3d a124 333f bd0e eb3e bb5a be3d
00000190: ef2c 6cbd a163 303d 6cb7 063f 2a74 953e
000001a0: 23bf e83e a130 213f 27b0 203f 9339 213e
000001b0: e093 72be 400a fa3d 6ff3 823e a8d2 7b3e
000001c0: 3d6c ac3e c34c 7b3d fca0 e13e 7a77 0a3f
000001d0: 0298 e53d 0faf 163e 3b57 dc3d 1226 e3bd
000001e0: c877 4b3e 33f5 24be 2ee7 4dbe 5232 76bd
000001f0: b677 a3bd a12e 093e d347 7ebe 0f7d 723e
00000200: cabe 92bd 352a 5d3e 59db e0be 4da3 bfbe
00000210: fbe0 37be 6cdc 753e b1d8 26be 5c27 b63e
00000220: 1b46 2a3f ac09 97bd 9e0f 723f dce4 453e
00000230: bca8 fdbd d691 513e adac 94be 8056 74be
00000240: 1cfa 613e fdd5 0e3a ee3d 883e 7ca2 ea3d
00000250: ab11 c33c 6107 303f 313b 29be 64c1 383e
00000260: adc2 c23d ef7a 57bb 1713 633d ebad 843e
00000270: 36ce 36be 7d9a 2c3e cb47 253e 57e6 99be
00000280: 4c68 2ebe d7b7 46be 32d1 8f3e 631f 013f
00000290: fe02 223f 7a03 ddbd bafc 0d3d 54c8 163e
000002a0: cb7e 9ebe 5972 353f f9e6 d73e 4c24 17bd
000002b0: 5cff de3d 2ac3 e53d aff3 fb3d d8a3 763e
000002c0: 766d 303f e183 e93c 431f f63e 0635 fc3e
000002d0: 1b7d 153f 950c f83e e041 9abe f5a4 7b3e
000002e0: e2df da3e 23cf 7a3e 79fe bc3e 9889 5e3f
000002f0: 5457 46be af49 423e 4d49 5f3e f183 8f3d
00000300: 63c0 8a3c 8455 c23e 9b53 073e 3343 06bc
00000310: 19cd 673d 9c5a e13d 2226 373c ff59 fa3d
00000320: 9fa9 8bbd 4b9d ebbd 4a67 86bd baec 893e
00000330: e937 f43e 96d6 533f 6440 113f e7f6 7b3e
00000340: 1686 2d3e 9424 613e 8d9b 083e 9cf4 8ebe
00000350: 97ef 923c 1f7e 57be 2ad1 4b3f 192c f93e
00000360: b503 133c 6253 5c3e d7ab 7fbe 66ef cb3e
00000370: c1b8 513e bf29 963b 4f8f b93e 1419 963e
00000380: d471 893d 7bf0 453d c69c f73b d0b8 183e
00000390: 8b5f 713e 1c69 423e f478 613e cd20 173e
000003a0: c770 573e 19c2 4d3d e091 c5bc 04bc cd3d
000003b0: 6d14 533e becb 9ebe 8320 633d 0a93 8b3e
000003c0: 4379 4cbe 4fbd 003f e4da e7be e42b e73d
000003d0: 05a6 303e f61a ca3d b1ca ee3e 04a6 103f
000003e0: 6618 3c3f ca23 7c3d 625d 173f 837a 983e
000003f0: 20fc 02be da51 04be dbb9 85be 16b6 c63e
0.17097607 0.08856679 0.31741813 0.08616693 0.1757035 0.5085237 -0.0053222114 0.058389444
-0.16265033 0.12356961 0.14194663 -0.100065865 0.258201 -0.23590632 -0.062059678 -0.36924654
-0.30799556 -0.13360824 0.087387316 0.25052235 -0.050031662 0.3383242 0.1860359 -0.6302974
-0.19080804 -0.3758888 -0.51351 0.28915992 0.47574165 0.23031281 0.7505016 0.38984317
0.36417153 0.50528234 0.46543825 0.5364078 0.43525875 0.25436524 -0.39312765 -0.052997857
-0.2091116 -0.17061311 0.0648529 0.24705486 0.49034134 0.038198315 0.08401652 0.03811658
0.16366653 0.4257739 0.47106943 0.21466622 0.38920423 0.25149474 0.2853176 0.31713933
-0.043060176 0.2985062 0.10905862 0.32323587 0.43704143 0.1366585 0.45118403 0.18001974
0.12533456 -0.047046445 -0.29747987 -0.46631253 -0.40947515 -0.52946734 0.5846965 0.37193114
0.23414603 0.4063288 0.24338426 0.29099458 0.43038845 0.0738313 0.6049321 0.048658695
0.21100427 0.12681144 0.10611466 0.17773679 0.4431631 0.09345363 0.6312847 0.26089075
-0.007517209 0.8821196 0.17717917 0.0834171 0.19200899 0.22102413 0.27438694 0.5895669
0.11553214 0.69977766 0.45909682 0.09294649 -0.05766004 0.043063764 0.5262363 0.2919019
0.45458326 0.62964827 0.6276879 0.15744619 -0.23689222 0.12208986 0.2557635 0.24592078
0.3367633 0.061352503 0.44068134 0.54088557 0.11210634 0.14715217 0.107588254 -0.11091246
0.19869912 -0.16109161 -0.2010772 -0.060106583 -0.079818174 0.13396694 -0.24832086 0.23680519
-0.071652964 0.21598132 -0.4391735 -0.37429276 -0.17956917 0.24009866 -0.16293599 0.35576904
0.6651322 -0.07374892 0.9455508 0.19325584 -0.12385699 0.20465788 -0.2903799 -0.23861122
0.22068065 0.0005448757 0.2660975 0.11456773 0.023812136 0.6876126 -0.16526486 0.18042523
0.09509788 -0.003287967 0.055438127 0.2591394 -0.178521 0.16855808 0.16140668 -0.30058548
-0.17031974 -0.19406067 0.2808929 0.5043852 0.63285816 -0.10791679 0.034664847 0.14724857
-0.3095611 0.70877606 0.42168406 -0.03689985 0.1088855 0.11218865 0.12302338 0.24085939
0.68917024 0.028505268 0.48070726 0.49259204 0.5839402 0.484471 -0.30128384 0.24574645
0.42748934 0.24493079 0.36912897 0.869287 -0.1936925 0.1897342 0.21805306 0.07007588
0.01693744 0.37955868 0.13215487 -0.0081947325 0.05659208 0.110036105 0.011178525 0.12224197
-0.06819462 -0.11504611 -0.065626696 0.2693842 0.47698906 0.8274931 0.5673888 0.24605905
0.16945681 0.2198661 0.13340588 -0.27920997 0.017936511 -0.21044205 0.79616034 0.48666456
0.008973052 0.21516183 -0.24967895 0.39831084 0.20480634 0.0045826132 0.36242148 0.29316008
0.06711164 0.048325043 0.0075565306 0.1491425 0.23571603 0.18985409 0.22018796 0.14758606
0.21039115 0.050233934 -0.02411741 0.10045627 0.2061326 -0.31014818 0.055450927 0.2726062
-0.19968133 0.5028886 -0.45284188 0.11287668 0.17250831 0.09868424 0.46639016 0.5650332
0.7347473 0.06155757 0.59126866 0.2978097 -0.1279149 -0.12921849 -0.2611836 0.38810796

conv2.bias f4 [32]
00000000: 9ace 1c3e 7cb5 573d 1897 82bd 3c8d 023e
00000010: b059 f13d 0ab9 e73d a8a0 913c 9074 3e3e
00000020: aa9c 9b3d 46c1 793c a8dc 303d cbdf dbbc
00000030: e72d 35bd 9c52 a23c c9bb e9bc 1565 dfbd
00000040: 57b8 443e 625f 03bd 0f23 113e 4129 eb3d
00000050: b6bb 6bbd ea71 fa3d d54c 363e 446b 393e
00000060: d6e9 bfbd 5e86 71bd a402 00bd 4801 80bd
00000070: d22c 233e 3d58 b7bb 2c5e f63c 5432 bfbd
0.15313187 0.05266331 -0.06376475 0.12749189 0.11784685 0.1131459 0.017776802 0.18599153
0.07598241 0.015243834 0.043179184 -0.026840111 -0.04423323 0.019814782 -0.028531926 -0.10907952
0.19210945 -0.032073386 0.1417353 0.11482478 -0.057552062 0.12228759 0.17802747 0.18107325
-0.093707725 -0.058966033 -0.03125252 -0.062502444 0.15935066 -0.0055952356 0.030074202 -0.09335771

fc1.weight f4 [64, 800]
00000000: a951 e43e e09a 983e b412 063d cab4 a6bd
00000010: e79c ecbd 820d dbba dc79 b3bd f968 94bd
00000020: 99ad 44be eedf 33be e0fc a4bd 6b3a cfbd
00000030: 8cd2 4bbe db68 8abe 5f17 82be 7964 903e
00000040: 18af db3c 8a3f dabd 5c06 3dbe 1ebf 303d
00000050: 2982 e23e ed4b 693e 9597 eebc 56af e4bd
00000060: dc55 f73c c4ca ae3e dddc 763e 80d1 e13d
00000070: c8a7 873d e07c 6ebd 6c67 7a3d 55af 653d
00000080: 9cad de3d 0b5d 4abd 0f42 80bd 91f2 15be
00000090: 95c3 ab3d f077 64bd 6e5d 76be 7020 e1be
000000a0: 6c5a 983d 5441 c03d 1121 123e 03e9 cd3c
000000b0: 9737 a4bb 49d1 a73e 8ab9 053d 8b9c 5b3e
000000c0: 28e6 3dbd e00b 80bd d49c 9e3e f193 2c3e
000000d0: 18c1 013d 7d3f 9cbd d8c0 9bbd 1da0 e83d
000000e0: 1fbc e23d 5293 343d 435a 2fbe a312 93be
000000f0: d5f6 473d a114 e43d 08b6 3fbe 6f47 2ebe
00000100: a333 2ebe fc5d 073e 569a 403e 060b 5d3d
00000110: 0913 3dbe c647 4abd bd45 ed3e a3be b73e
00000120: 9572 6f3c 59b4 cd3d 2bfa 843d 5119 093e
00000130: 45f4 1d3e d4dc 33bd ba14 42bd f4ea a8bd
00000140: 84af 34bd f4a9 d0bd e743 41bb 2c87 56bd
00000150: 6dc5 12be dd80 c4bd f152 c1bd 2703 4cbe
00000160: 80e7 25be 9bc5 7ebe 5ccb 953d dc9e 97bc
00000170: 7d33 01bd fc31 99bb a361 293d 59f0 293e
00000180: e774 e0bd 1ef6 2a3e 4e5d a03d 9b60 9c3b
00000190: 6147 443e d9fe 1f3e aa0e 0cbd 6cc8 0d3a
000001a0: 268d 0cbc 7f4f 143d 6dcd 823c a552 ba3d
000001b0: bcb3 7abd aac5 8ebe a64b 11be b3e6 20be
000001c0: b91a 21be 6c8c 56be cad9 96be 7d9a a0bc
000001d0: 2c6d 94bd 5316 a7bc 3b6a 11be ff4e 6bbe
000001e0: b42a d73d 0dc7 3dbd 2fe4 513d dc08 09b9
000001f0: e389 db3c 327a 883e 555d 7a3e 7e58 2e3e
00000200: 2cca 8a3d e915 513d 79cf 4e3c 04b1 1e3c
00000210: 9b8a bd3d a5ea 31bd b3f3 2cbe b0bc 51be
00000220: a9f9 0ebe 9231 b0bd 3e41 ebbd 3453 7dbe
00000230: 8dfe f5bd 06af 12bd 9916 133d abd4 07be
00000240: 4d67 adbd 6337 ed3d 472e bf3d 4ae8 09bd
00000250: 7c14 c63c 6223 c33d 7a83 703e 5127 f03c
00000260: 2377 37be 3dad 26be 1f44 3fbe e377 813e
00000270: 6b42 d33d 4340 c8ba d688 1a3d 2cd4 07be
00000280: 0a9a 953a 5e39 6b3e 4128 b9bd 1757 97be
00000290: 83c7 92be 2180 eebd 02e5 163e 1bbc 2e3e
000002a0: af12 afbd 3924 fdbd 25fe 263e 2ed3 093e
000002b0: 3305 f23d 5ad0 0c3e 158c 003e 356c 453e
000002c0: d3c0 403e c397 3d3d 8eea 533c 10d0 c6ba
000002d0: 5c6d c739 f32f 0f3c 6be1 ce3c d555 8bbd
000002e0: 25a6 efbd 6a2d 2fbe 5021 29be 87e2 2abe
000002f0: a5a7 46be f043 c9be 0611 5a3d 494e ba3d
00000300: 0e2d 713d 632c 4fbd 0f60 08be 2576 723e
00000310: 3bbb 343e 32be a83e b936 533d 671d e33d
00000320: 00b3 2f3e 3ac9 d63c 9659 023d 73fc 10bc
00000330: 9b7e 13bd 5d98 5c3e 8d06 033d 93f4 5f3d
00000340: 681b 463c b3bf 43bd 8f3e f63c 9f93 b33c
00000350: 6cb5 30be 9b46 03be c8c9 59be 2378 e9bc
00000360: aa53 a13d 1b0d b13d d774 94bd 6ce6 a1bd
00000370: 9583 973e 0749 723d 3003 113e 2074 843e
00000380: 752f 6e3d 68bc 473e 0e3b 263e 4d6a 073e
00000390: 1d46 d33c b063 0e3d 965c 083e 80f1 b53d
000003a0: cf72 363e 5c21 e4bc a53c 03be f087 18be
000003b0: e096 a7bc cd06 1cbe ca6c 08be 83d4 09be
000003c0: 4019 ec3b 288e 31bd eafa 3c3d 533f 67bd
000003d0: b039 96bd 4ed6 b13e 545d 6dbd c46f bf3d
000003e0: 997c 7e3e 2b36 d33d 31a7 243e dc33 003e
000003f0: 9540 c53d dd63 7b3d b531 eabd efff f63d
0.44593552 0.2980566 0.03273268 -0.081399515 -0.11553364 -0.00167124 -0.08763477 -0.072465844
-0.19206847 -0.17565891 -0.080560446 -0.10118564 -0.19904536 -0.27033123 -0.25408456 0.28201655
0.02681689 -0.1065665 -0.18459457 0.043151014 0.4423993 0.2278287 -0.029125014 -0.11166255
0.030192308 0.34139073 0.2410769 0.11026287 0.066237986 -0.05822456 0.061133787 0.056075413
0.10872957 -0.04940514 -0.062626 -0.14643313 0.08386914 -0.055778444 -0.24059078 -0.4397006
0.074391216 0.0938746 0.14270426 0.025135523 -0.0050115096 0.3277686 0.032647647 0.21446435
-0.046362072 -0.06252265 0.30979025 0.1685331 0.03167829 -0.07629297 -0.076051414 0.11358664
0.110710375 0.044085808 -0.17124276 -0.28725156 0.04881938 0.11136747 -0.18721783 -0.17019437
-0.17011885 0.13219446 0.18808874 0.05396559 -0.18464293 -0.049384855 0.4634227 0.35887632
0.014614721 0.10044164 0.06493028 0.13388564 0.15425213 -0.04391177 -0.047383048 -0.08247939
-0.044112697 -0.10188666 -0.0029489936 -0.052375004 -0.14333124 -0.09594891 -0.09439648 -0.19923078
-0.16201591 -0.24880068 0.07314178 -0.018508367 -0.031543244 -0.004675148 0.04135288 0.16595592
-0.10959797 0.16695449 0.078302965 0.0047722585 0.19167854 0.1562456 -0.034193672 0.00054085883
-0.008578574 0.036208626 0.015967095 0.090977944 -0.061206564 -0.2788518 -0.14189014 -0.15713005
-0.1573285 -0.20952004 -0.29463035 -0.019604916 -0.072473854 -0.020396387 -0.1420068 -0.22979353
0.10506192 -0.046332408 0.051243003 -0.00013068639 0.026799148 0.26655728 0.24449666 0.17025945
0.067768425 0.051046286 0.0126227075 0.0096857585 0.092549525 -0.043436665 -0.16889839 -0.20482135
-0.13962425 -0.08603205 -0.11487053 -0.2473877 -0.12011442 -0.035811447 0.035910223 -0.1326472
-0.08466969 0.1158283 0.093349986 -0.033668794 0.02417969 0.09528233 0.23487654 0.029315623
-0.17916541 -0.16277023 -0.1867833 0.2528678 0.103154026 -0.001527794 0.037728153 -0.13264531
0.0011413705 0.22971103 -0.09040881 -0.29558632 -0.2866784 -0.116455324 0.14735797 0.17063944
-0.085484855 -0.123604245 0.16307886 0.13459465 0.11817398 0.13751355 0.12553437 0.19279559
0.18823557 0.04628731 0.01293434 -0.0015168209 0.00038037717 0.008739459 0.025253972 -0.068034805
-0.117016114 -0.17107168 -0.16516614 -0.16687976 -0.19399889 -0.39309645 0.05323889 0.09096963
0.058880858 -0.05057944 -0.13317893 0.23677881 0.17649548 0.32957608 0.05156586 0.110895924
0.17158127 0.026219 0.031823717 -0.008849251 -0.036009412 0.21542497 0.03198867 0.054676604
0.012091495 -0.04779024 0.030059127 0.021920977 -0.17256707 -0.12819903 -0.2126838 -0.028499668
0.07877286 0.08645078 -0.07248848 -0.079052776 0.29592577 0.059151676 0.14161372 0.25869846
0.058150727 0.19505465 0.16233465 0.13224144 0.025790269 0.03476304 0.13316569 0.08883953
0.17817234 -0.027847938 -0.12816103 -0.14895606 -0.020457685 -0.1523697 -0.1332275 -0.13459973
0.0072051585 -0.04334846 0.046137728 -0.056456875 -0.07335222 0.34733814 -0.057950333 0.093474895
0.24852218 0.10313066 0.16079403 0.12519783 0.09631459 0.061374534 -0.11435262 0.12060534

fc1.bias f4 [64]
00000000: 0715 53bd 4ea0 db3d b936 c23c 06f4 48bc
00000010: 94cd 563d d0cc 19bb ad66 283e df45 313e
00000020: 301c 7abc b544 b9bc e8f4 be3c b558 71bd
00000030: 48ba a93d c465 423b 7e73 b83d 9019 953d
00000040: edb7 843c d78b d13c 3619 a23b f45b ae3c
00000050: 6a25 4c3c 2116 06bd b177 87bc 256c b83d
00000060: 68f6 dcbc 35e6 833c 47ba 2d3e 6c43 943c
00000070: e269 b4bc 7178 d73c ea7f 273e ff88 183e
00000080: 510f 8bbd 5af6 c73b a8e3 703d 484f b53d
00000090: a168 023d 4659 1b3c 1874 f9bd 4609 d5bc
000000a0: dacc 43bc 9abc 533c 7df7 8cbc 6ef8 fc3c
000000b0: 3354 de3c b068 3a3e a958 d8bc 5891 b33c
000000c0: 345c 96bb 7452 ca3d 19d3 5f3c 9deb c73d
000000d0: 5402 783d e880 443e 710c a33d b20e f0bc
000000e0: a383 06bd c579 b7bc c903 273e b3c6 4bbc
000000f0: 2b39 cb3c 1d40 a13d 69ce 85bc 57e0 80bc
-0.051533725 0.10723935 0.023707734 -0.012265211 0.05244215 -0.0023468025 0.16445418 0.1731181
-0.0152655095 -0.02261577 0.02331014 -0.05892249 0.082874835 0.0029662708 0.090064034 0.07280266
0.016200984 0.025579376 0.004946853 0.021284081 0.012460092 -0.032735948 -0.016536565 0.09005002
-0.026972964 0.016100982 0.1696559 0.018098556 -0.022023145 0.026302548 0.16357389 0.1489601
-0.06790031 0.0061023654 0.05881086 0.08853012 0.031838063 0.009481734 -0.12180346 -0.026005398
-0.011950696 0.012923384 -0.017207855 0.03088018 0.027139759 0.18203998 -0.026409464 0.021919891
-0.004588628 0.09879008 0.013661169 0.097617365 0.060549095 0.19189799 0.079613574 -0.029303882
-0.032840382 -0.022396931 0.16310038 -0.01243751 0.024807533 0.07873557 -0.016333776 -0.015731974

fc2.weight f4 [64, 64]
00000000: 436e f1bd 8330 133e 2e6e 63be 1d61 f4bc
00000010: 6bb2 653e b02e e13d af07 503e 707f 00be
00000020: 280e ef3c 4496 d03b 0897 163c 41ca 4bbd
00000030: 1d88 493e db22 54bd 4cf0 c9bd c2ea 323b
00000040: 44a9 493d 72b1 d9bc b4c6 41bd c086 0dbb
00000050: ec9a 513d 0296 963d eea6 973e dbde f3bd
00000060: efd7 b338 a4f4 c0bd a609 433e b066 bbbc
00000070: 143c 8d3d a765 933d 327b 9abd 1a49 973d
00000080: d3d8 5c3d 75ff f13d df09 423d cb05 95bb
00000090: e61a ef3d b398 24bd 786a 16be 1403 423d
000000a0: 786c 1e3d 6018 483e 64ce 4a3d 0f40 8dbc
000000b0: a8e7 94bd f221 943d acc7 a4bd 1684 98bd
000000c0: 7a14 b4bd 3c62 8f3d 8212 01bd 054d 1bbe
000000d0: 0bdc 903e 4f22 2a3e 207f 7f3e e3ff 2b3d
000000e0: 82b8 da3d 0568 8fbd bb86 923e b499 8c3d
000000f0: 087a a43d e190 bc3e fabb bcbd 90e7 5ebc
00000100: cc30 cabd c0d8 5d3c 1a8d fbbd 0052 153d
00000110: 7c94 b73d 16cb c63d 3a3c b4bd 48a4 b3bc
00000120: 4aa4 b63d de4d 8b3d e831 0fbd 360e c8bd
00000130: 825e a93d b8c5 e5bd 7055 f1bc cc99 c7bd
00000140: 1c08 a8bd 0a35 b73d fe5c fabd 9014 503d
00000150: 0ed2 8a3d a001 78bc ec18 dabd 386a 30bd
00000160: 04da 003d 60a8 9f3d d4c6 29bd b022 88bc
00000170: 203a 91bd 3470 cd3d 561d ae3d 02fb b33d
00000180: 00a5 60bd 44c3 663d 32d6 d1bd 1451 fcbd
00000190: b282 b6bd fab3 aabd 8064 1d3d b6bf b8bd
000001a0: d65b 843d da72 ca3d 00c2 cdbd 7081 e7bc
000001b0: a0ab 3ebc e8f8 bb3d 0042 b1ba 72f0 f53d
000001c0: f042 ca3d 083d 203d 361b 853d 5cbf 8cbd
000001d0: 2c22 5cbd 9646 d73d d8eb a7bd 825c 89bd
000001e0: 321c e1bd 3e7d a9bd a699 84bd 6cc6 a2bd
000001f0: 4013 233c fa75 b1bd e07f e5bc b0f4 1ebc
00000200: 054b 193e 8b0e 23bd bb95 523e 8291 cf3d
00000210: 2db5 b43c b288 b23d fb14 a83d 82e7 fe3d
00000220: 7e5d d2bd 6ca5 683d c3c9 b93d eedd 373d
00000230: 25e2 283e cdf8 bc3c ec12 323d 57bc 283e
00000240: 52a1 ecbd c4ff 1e3d 68bd e23d 0800 05bd
00000250: 8454 01bd b308 e1bd 211c 303d 95f2 5bbd
00000260: 991f 6cbd 05ef a03e 87f8 53be 9751 c23d
00000270: a86d 94bc c92d 943b 5ed7 6e3e 6138 853d
00000280: 4f6d b5be 8eda 74bd 966e 4d3d c93e c33d
00000290: 6400 d83d 0258 9ebd bb63 8a3d b631 aa3d
000002a0: 8f89 28bd 5b50 afbc d0c5 7a3d 0af2 f13d
000002b0: b21b abbb b357 983d 8a58 fd3d e992 acbd
000002c0: b800 123d 05a4 683e 92bb 9dbc f3b0 463e
000002d0: aa2b 50bc 106c 353d 0376 b9bc 34c7 12bc
000002e0: 98fa 0d3d 2694 e13d 6118 bf3c 0ff8 273a
000002f0: 6c3c a13d d393 0d3e 94ab 123d 86d2 c13d
00000300: 033e b939 0b44 0d3e a10d d1bd e77f e13c
00000310: 480a 45bd 90f6 40bd f6db 813d 4e87 b93d
00000320: 4c92 1b3d f44d a3bd fd40 d03d d80c 7a3d
00000330: 45c3 b03c bc99 ac3d 39b3 05bd d04e 15bd
00000340: 5bdf b8bd cc39 803d d48b 813d 4e03 e83d
00000350: 574b 363d 5283 32bd ed0e 82bd a1ae f5bd
00000360: c79e dd3d 1543 a13d e356 b23d 9987 bc3d
00000370: f6d2 9e3d 26c2 bd3b 817f e9bd c353 c73d
00000380: dbc7 e63c b6fa 453d 5599 edbd 3079 3f3d
00000390: aadd 033d f932 06bd 3a01 953d 70e0 9abc
000003a0: 209b ee3d 9fb3 c2bd d8fb aabc c658 f8bd
000003b0: f720 f73d a198 cbbd cce3 e03d 1e2a fdbd
000003c0: 1c13 a63d df70 ebbd c60e 36bd 8e90 103c
000003d0: cca0 073c 4508 1a3d 8c2f 1e3d 710d 073b
000003e0: 8091 30bc ec77 dbbd 6177 dfbb 1538 e93d
000003f0: 0a1c 6cbd 70e3 003e 7457 eb3d 4add e33d
-0.11788609 0.14373975 -0.22209999 -0.029831463 0.22431342 0.10995233 0.20315431 -0.12548614
0.029181555 0.0063655693 0.009191282 -0.04975343 0.1968083 -0.051791053 -0.09860286 0.002730057
0.04923369 -0.02657387 -0.04730864 -0.002159521 0.051173136 0.073528305 0.29619545 -0.11907741
8.575606e-05 -0.094216615 0.1904665 -0.022876114 0.068962246 0.07197123 -0.07543029 0.0738699
0.053917717 0.11816303 0.047372695 -0.0045478097 0.11675052 -0.040184688 -0.14689052 0.047366217
0.038677663 0.19540548 0.049513236 -0.01724246 -0.072707474 0.07233037 -0.08045897 -0.074470684
-0.08792968 0.070011586 -0.03151179 -0.151661 0.2829288 0.1661465 0.24950838 0.04199208
0.10679723 -0.07002262 0.28618416 0.06865254 0.08031088 0.36829284 -0.09215541 -0.0136050135
-0.098725885 0.013540447 -0.12282772 0.036455154 0.08963868 0.09706704 -0.0880055 -0.021928921
0.089180544 0.06801961 -0.034959704 -0.097683355 0.08269979 -0.112193525 -0.029459685 -0.09746131
-0.08204672 0.08945663 -0.12224768 0.05080086 0.06778346 -0.015137106 -0.10649285 -0.043070048
0.031457916 0.07795787 -0.041449383 -0.016618103 -0.070911646 0.10031167 0.08501689 0.0878811
-0.054844856 0.056338564 -0.10245933 -0.12320152 -0.08911647 -0.08335109 0.038425922 -0.09020941
0.06462829 0.098851874 -0.10046768 -0.028259963 -0.011637598 0.091783345 -0.0013523698 0.12008752
0.098760486 0.039120704 0.06499331 -0.068724364 -0.053743526 0.1051151 -0.081992805 -0.067070976
-0.10991706 -0.08275841 -0.064746186 -0.07948002 0.00995332 -0.0866508 -0.028015077 -0.009701893
0.14970024 -0.03980879 0.2056493 0.10135175 0.022059048 0.08717479 0.08207127 0.124465
-0.102717385 0.056798384 0.09071686 0.044889383 0.16492517 0.023067856 0.043475077 0.16478096
-0.11554207 0.038818136 0.110712826 -0.032470733 -0.03157474 -0.10987987 0.042995576 -0.05369814
-0.05764732 0.31432357 -0.20700274 0.09488218 -0.018118694 0.0045220596 0.23324344 0.06504894
-0.35434958 -0.059778742 0.05015429 0.0953346 0.105469495 -0.0773163 0.06757303 0.08310263
-0.04114681 -0.021400621 0.061223805 0.118137434 -0.0052218074 0.07438602 0.12370403 -0.084264584
0.035645217 0.22718818 -0.01925448 0.19403438 -0.012705723 0.04429251 -0.02263928 -0.008958627
0.034662813 0.11014585 0.023327054 0.0006407508 0.07872853 0.13825922 0.03580816 0.09463982
0.00035332152 0.13795488 -0.10207678 0.027526809 -0.048105508 -0.04711014 0.06340782 0.090590104
0.037981316 -0.07973853 0.101686455 0.061047405 0.021577487 0.0842776 -0.032641623 -0.036452115
-0.09026977 0.06261024 0.06325498 0.11328755 0.044505443 -0.043582268 -0.06350503 -0.119961984
0.108213 0.07874123 0.087079786 0.09205551 0.07755081 0.0057909666 -0.114012726 0.09732773
0.02817147 0.0483348 -0.116015114 0.046746433 0.032193817 -0.032763455 0.072756246 -0.018905848
0.116506815 -0.09506916 -0.020872042 -0.12126307 0.120668344 -0.09941221 0.10980949 -0.12361549
0.081091136 -0.11496138 -0.044447683 0.008823527 0.008278083 0.037605543 0.038619563 0.0020607377
-0.010776877 -0.10716233 -0.006819651 0.1138765 -0.057643928 0.1258676 0.1149129 0.11126192

fc2.bias f4 [64]
00000000: 1601 683d 88e0 89bc ae78 583b 867b bb3d
00000010: 476f 8b3b ab30 c43d cd21 0c3e f117 a33d
00000020: 7266 d03d 8597 d63d 8a50 7f3d 5c67 a93a
00000030: 233a 2c3e 07a2 903e f1b2 7e3e af44 d23d
00000040: 80da 413e e162 5d3e e8a4 18be a905 bc3d
00000050: d11a 173c d413 b1bd 4fd5 b43b 703e a2bd
00000060: eae7 063e 182e 2d3d 54d6 27be ed76 2339
00000070: c6d2 1ebd 5675 c9bc 6f59 3f3e e0bd e8bd
00000080: 845a abbd aff9 073e eaa1 193d bf08 f73d
00000090: 95f6 c13d 6f32 163d f4b9 bd3d 80c9 943d
000000a0: 3681 bf3d c6fb b43b c1c9 7b3d 8727 c63d
000000b0: fc1e 17be df11 77bd 9c08 cd3d e5f4 c2bd
000000c0: 1b5c 023e 71a1 d93d c47c 4e3d fb55 1b3d
000000d0: bca3 383e 1da6 d23d 8fc0 d83d e351 003e
000000e0: b5d0 34bd 4aa7 be3d aead cb3d c326 63bc
000000f0: 96fa b93c 4eba a2bc d519 8ebd 5858 a5bd
0.05664166 -0.016830698 0.0033030915 0.091544196 0.0042552087 0.09579595 0.13684769 0.07963551
0.1017579 0.10478119 0.062332667 0.001292448 0.16819052 0.28248617 0.24872948 0.102670066
0.18931007 0.2161975 -0.14906657 0.09180767 0.009222702 -0.0864636 0.0055185924 -0.07922065
0.13174406 0.042280287 -0.16390353 0.00015589195 -0.038775228 -0.024592083 0.1868646 -0.11364341
-0.08366874 0.1327884 0.03750793 0.12062215 0.0947086 0.03666919 0.09263983 0.072649956
0.09350817 0.005523178 0.061471704 0.09675508 -0.14757913 -0.060319778 0.10011408 -0.09519366
0.12730448 0.10626496 0.050411955 0.037923794 0.1803121 0.1028559 0.10583603 0.12531237
-0.04414435 0.093092516 0.09945236 -0.013864222 0.022702496 -0.019864228 -0.06938521 -0.08073491

fc3.weight f4 [7, 64]
00000000: 888e d4bd 0cea 2fbd 0ac0 ea3d d773 293d
00000010: 199c 303e 4e8a 48be f0e1 c53e 9414 0bbe
00000020: eed9 8e3d 0c27 953d 16b0 003e f947 2d3f
00000030: 9194 113d d6af fdbd 190e 61be a5f2 0bbe
00000040: 4687 89be 220a 453e 0ac1 843f 9cab 4a3d
00000050: e002 0cbe a02e fa3c cbcc 5d3e 5ce6 323f
00000060: 6985 053f cde2 a8bd 7186 7fbe 0c08 63be
00000070: 9bbb 6ebe 061f 90bc 3cc7 f9bd 52b5 043f
00000080: 4ae2 fa3d 2485 c8bc d0c7 a2bc 739a 6cbd
00000090: ac88 aebd 6e9e 3d3d 493e 033e ae3f 3b3d
000000a0: 310d aa3d c562 edbd 3994 db3d a2e2 a43e
000000b0: 179a 0c3f da30 9abc 27c8 75bb ce74 063e
000000c0: 2149 163e b996 9b3d 2691 38bd e94d 9cbd
000000d0: 0dae 273d 2b4f 213e d4ed 8bbe 3297 07bf
000000e0: bd48 713d 8922 7abf 50af 77be 9db7 163f
000000f0: e440 8ebf 2afb b8bd 9415 473f 28f3 f3bc
00000100: ac0a e83d f075 70bc 2230 893c b725 83bd
00000110: 2f3c 583d db4c 153d bd20 fdbc 89f9 f5bd
00000120: 2ed9 7c3d fded 28bd 5e5c 3d3e 231e f53e
00000130: 6b6d b9bd ce06 8bbe 1cb5 98be 367c 003d
00000140: 6306 10be f8e4 a13d 16df 923f 1edc e3be
00000150: ef2f 07bf 002b eeba 9083 463f f2b9 203f
00000160: 2444 303e 1849 6cbb 2344 9fbe d176 283e
00000170: eb49 32be 3a22 f4bd ff76 2f3e a83a d13e
00000180: ccf5 3bbd 4042 51bd a600 8f3e c01d 1dbc
00000190: 57ad d1bd c0e0 89bd 7934 03be 2992 7bbd
000001a0: 23fb 0a3c 4e1c 3fbe d1b7 bf3c d595 8bbe
000001b0: 538f 863e dd7f 3a3e 88cb f73c de00 0f3e
000001c0: 8f35 0c3d c62c a83d efa4 7fbd a12d a4bd
000001d0: 8670 e23d a4b3 ee3c 2151 b93e 4bc2 953e
000001e0: 5631 513c 4396 72bf 19f4 e13d 4a15 063e
000001f0: 5b52 91bf 5d4a bcbd 55af 963e fcb8 d93d
00000200: 3791 62be b0ca 273c ad29 e93d 1973 163e
00000210: 0895 503e ba61 3abd e0d2 993c 2c2d 2bbe
00000220: 8582 d1bd 6222 c93d 0691 2b3b 4297 393f
00000230: d5d2 03be e77a 6cbe d0d2 82be 99dc 093e
00000240: 19cb fb3e 6303 083e dd5f 473f 9b58 aabc
00000250: b177 a7be a091 db3d 0565 1a3f f353 f73e
00000260: da63 7abe 5b54 af3d fe43 753d 1728 dcbd
00000270: 860b 66be c190 f53d e962 f7bd 8263 553f
00000280: 8e27 c23d adcd 01be 148f 473e ff2b 533d
00000290: 3238 3b3e 0824 b03d 591a 8b3d 564a dfbd
000002a0: 11f3 cebc 1f12 293e 9e9e 073d ff1b 133f
000002b0: d7d7 3d3e 482f 0e3e aef8 783e 0ddb 72bd
000002c0: 6e14 10be c38c 233d 02a2 82bd 720a 79be
000002d0: 32dc 30be 9b94 fbbd 9c33 513d 5c44 4b3e
000002e0: f5b3 c93d a511 4ebf af0b 283e dffd b63e
000002f0: e85a b2bf 8249 dabd a5b4 153f 0e8c f23d
00000300: d906 caba 04fc 3e3d dc86 35be af03 dbbd
00000310: ce63 d83d d70e 3f3d a028 0e3f 4128 23be
00000320: 8c22 4dbd 27ba 8a3c cb31 273d d6e6 b83f
00000330: 37c1 2ebe 59fc b5be 902a 24be a224 383d
00000340: ab30 42bd 482d c53e 9a5e 273f 08cc 26be
00000350: f1bb 263e 2148 31bd cc1d c93d 34ef 463f
00000360: 4723 ffbe 1437 b73d ef19 2b3e 0b89 fabd
00000370: 952b 50bd 33c4 bd3d 83e0 a1be 54f2 3a3f
00000380: 10c0 123c 7c51 e93d 90aa 99be 26bf c1bd
00000390: 6506 b63d 6826 93bd 9bf8 9a3c cb83 c4bc
000003a0: c848 9a3c 80f0 363c 77c6 00be 8153 ed3e
000003b0: f0c7 883e b490 33be 9b0b 68be f03c e23d
000003c0: fe2f 573d aa06 953c efa7 c2be 57e5 ee3c
000003d0: 7976 adbd be2f 043e 7856 c5bd 05f1 d93d
000003e0: 723e bebc 55f8 9fbf 4d65 62be 76f6 d7be
000003f0: d70d 5abf e802 3a3d dbec 373f 8a95 ba3d
-0.10378748 -0.042947814 0.1146241 0.04137024 0.17247047 -0.19584009 0.3864894 -0.13582069
0.069751605 0.07282838 0.12567171 0.67687947 0.035542075 -0.12387054 -0.21978034 -0.1366678
-0.26861018 0.19242147 1.0371411 0.049480066 -0.13672972 0.03053981 0.21660154 0.6988275
0.5215669 -0.08246384 -0.24953629 -0.22171038 -0.23313753 -0.017592918 -0.12196204 0.5183917
0.122501925 -0.024477549 -0.019870669 -0.05776448 -0.08522162 0.04629367 0.12816729 0.045715027
0.08303297 -0.115911044 0.107216306 0.32204157 0.5492262 -0.018822122 -0.0037503333 0.13130495
0.14676334 0.075971074 -0.0450603 -0.07632048 0.040937472 0.15752856 -0.27329886 -0.5296508
0.05890726 -0.97708946 -0.2418797 0.5887392 -1.1113553 -0.09032281 0.777673 -0.029779032
0.113301605 -0.014676556 0.016746584 -0.06403678 0.05279177 0.03645025 -0.0308994 -0.12010486
0.061730556 -0.04124259 0.18492267 0.47874555 -0.09054073 -0.2715363 -0.29825675 0.031368457
-0.14064936 0.079050004 1.147433 -0.44503874 -0.52807516 -0.0018170774 0.775445 0.6278373
0.17213494 -0.003605431 -0.31106672 0.16451575 -0.1741101 -0.11920591 0.17135237 0.40865064
-0.045888707 -0.05108857 0.27930182 -0.0095896125 -0.1023814 -0.06732321 -0.12812985 -0.061418686
0.008482727 -0.18663141 0.02340308 -0.2726275 0.26281223 0.18212838 0.030248418 0.13965175
0.034230765 0.08211665 -0.062413152 -0.080165155 0.110566184 0.029138394 0.3619471 0.29249796
0.01276811 -0.9476053 0.11032886 0.13094059 -1.1353258 -0.09193871 0.29430643 0.10630986
-0.22125708 0.010241196 0.11384902 0.14692344 0.20369351 -0.045503356 0.01877731 -0.1671645
-0.10229973 0.09821011 0.002617897 0.72496426 -0.12873395 -0.23093759 -0.25551462 0.13463058
0.4917839 0.13282542 0.7788065 -0.020794204 -0.32708505 0.10721135 0.60310394 0.48306236
-0.24452153 0.085610114 0.059879296 -0.10749834 -0.22465333 0.119905 -0.120794125 0.8335496
0.09480201 -0.12676115 0.19488174 0.05155563 0.18283156 0.086006224 0.06792135 -0.1090285
-0.025262387 0.16510819 0.033110254 0.57464594 0.18539368 0.13885224 0.24313614 -0.059290934
-0.14070293 0.039929163 -0.06378557 -0.24320391 -0.17271498 -0.122842036 0.05107461 0.19850296
0.09848777 -0.80495673 0.16410707 0.35740563 -1.3933992 -0.10658552 0.58478767 0.118431196
-0.0015413418 0.04662706 -0.17727226 -0.10694062 0.10565911 0.04664501 0.5553074 -0.15933324
-0.050081775 0.016934467 0.04081897 1.4445446 -0.17065893 -0.35544088 -0.16031861 0.04495681
-0.047409695 0.3851111 0.65378726 -0.16288769 0.16282631 -0.043281678 0.098201364 0.77708745
-0.49831602 0.08946052 0.16709112 -0.1223317 -0.050822813 0.09265938 -0.316166 0.73026013
0.008956924 0.11392495 -0.3001294 -0.09460287 0.088879384 -0.0718506 0.018917372 -0.023988625
0.018833533 0.011165738 -0.12575708 0.4635277 0.2671504 -0.17535669 -0.22660677 0.11046779
0.052536003 0.018191654 -0.38018748 0.029162092 -0.084698625 0.12908837 -0.09635633 0.10641674
-0.023223136 -1.249766 -0.22108956 -0.42180222 -0.8517737 0.045412928 0.7184579 0.091105536

fc3.bias f4 [7]
00000000: 2628 2039 9ec4 fbbb 8853 1b3d 0928 28be
00000010: d18b 223d 8fd8 6e3d 80cd d7be
0.00015273746 -0.0076833507 0.03792146 -0.16421522 0.03968412 0.058311995 -0.42148972
