src/models/v8_warehouse_env.pth (torch, 251766 bytes, 10 tensors)

conv1.weight f4 [16, 10, 3, 3]
00000000: 1ca8 7b3e 213d 39bf c15e 193d 9831 18bf
00000010: e597 913d 23c4 943e 1060 7b3d 3a92 ea3d
00000020: 3691 483f bee1 e0bc db5f 913e 7722 eebc
00000030: 8db5 963e 9859 41be b848 a3ba e414 393b
00000040: 7661 633c 5d83 683e 659f 353e 872f ab3d
00000050: 2559 5a3d 0a1c 2bbc 2dd0 d1bd c785 8fbe
00000060: e332 99bc eafa c73c e119 8e3d 29ed 1b3e
00000070: 6fa4 323e 24f6 b93b 8bec fb3d 8d48 35bd
00000080: 349b c9bd 1ac0 383b a740 86bd 79df 8c3d
00000090: 4096 d93e 30a2 35bf 5616 013f 27fa 81bf
000000a0: a670 cd3c 37ca 643e 8d00 c8be 1494 58be
000000b0: 0efd 71bf 0343 103c 5aff bfbd 9110 5b3c
000000c0: b478 64bd f863 d1bd e2c5 043d 2bff bcbd
000000d0: 1146 25be 85a3 9dbc 655f 4ebe a4d7 aebd
000000e0: 8f58 cbbe 59c5 ea3e b4ac cfbc a1c9 22be
000000f0: 5dab 463e 1307 1e3e 7845 863e 2b5c c83d
00000100: dbb9 f73d f91b 0fbd 9725 563e 5094 f53b
00000110: 86a3 6abd 1fed 353d b123 c2bd 6b83 59be
00000120: 415e c83b 04a4 41be ab4c 7a3e 5118 4ebe
00000130: 3693 febd be24 023e ac3c febd c884 153c
00000140: f10f a6bd e384 0ebf d085 333e 4092 a33d
00000150: 7952 e83b 3c9e d33d 8436 913e d135 cbbe
00000160: 7841 69be 6a12 21bf 854f 843e 6d55 8a3e
00000170: cce1 2c3e 16ba 723d ee40 cd3d a16b b73d
00000180: e141 84bd 28fc e73d 60b0 303e 26c6 a93e
00000190: 965c 2cbe 1e24 e63e 90a1 4bbe 4412 29bd
000001a0: 83f6 733e 781f 31be 878a 723e bd8e 6d3e
000001b0: caed 9c3e a347 d0be b4e0 563e 178f 7bbd
000001c0: a22e dabd 06a8 44bd ce44 d0be c453 a23c
000001d0: 1571 ae3e d873 26be c767 04be 2255 aa3e
000001e0: a913 bb3d aee2 83bd 0a5f 583e 42cd ebbd
000001f0: 2af5 8d3d d0da 763e 1d0f 30bd 8e01 17bf
00000200: 4d86 143f df76 fbbe 88d2 04be a6f0 ffbc
00000210: 8417 2ebe 322e 2dbf 3c4e 55be d191 e33d
00000220: 805c e53d 3780 443e 1855 aebd 762e 49be
00000230: e5e4 07bd d852 c93e 81a4 1d3e 7d17 853e
00000240: e187 e53d d018 c33e fec6 8bbd 873b cd3e
00000250: 84b3 7b3f d975 c83e ffa0 ea3e b5b7 38bd
00000260: 8965 023f 441e a43d afa2 f5bb 9899 c83d
00000270: 18ec ea3a 5a85 e33d e59f a83d b96a 27bc
00000280: 3bee 433c 2b8f 6dbc 2355 8ebd e934 593d
00000290: 2d37 b93d 19da f93d 6e42 a2be 5e81 84bc
000002a0: 0f33 383e 440e 84be 5616 f1bd 9260 9bbf
000002b0: 5336 013e a30a ad3d 8ac1 ae3d 6755 a63e
000002c0: cbb1 9d3e 51f0 b63c c908 4d3d a447 f6bd
000002d0: bae8 9c3e 7cf9 4c3e 1528 393e e6c3 82be
000002e0: d98b 313e 5d55 fbbe d1ba 923e f9e5 533e
000002f0: 8173 8e3e f1c7 89be b192 cabe 652c e3bc
00000300: aefc 7cbe 52af 543d c143 033b 5eeb 3dbe
00000310: ef81 703e 562a a93d f9e4 3ebe 44f6 92be
00000320: a0e2 763e cc39 40be 1cd9 303e e33a 25be
00000330: d26a 353d ffd6 a83e 1147 eb3c 50f4 87be
00000340: d021 52be 964a 32be 2847 eabd 0c5f 4f3d
00000350: 3745 7e3d 75e4 02be 3491 373e de61 953b
00000360: efc5 7e3e 4ff2 f63e d75d 833e bd4f fe3d
00000370: 737a fd3b 6763 533e 5cbc a3bf 1e4c 16be
00000380: 6bd2 06bf 29e4 aa3d fdad fd3c 6e55 803d
00000390: df3e 063e 2977 153e 1fd3 743e 5a3c 8c3c
000003a0: 3ccc ff3d 27dc 393d 9ac5 c63d 072c 3d3d
000003b0: c483 c53d bd00 143e cb1c a0bc a848 5c3a
000003c0: ee2b ed3e d456 ca3d 530e e73b 4128 0fbe
000003d0: d969 be3d b714 b7bd 67fb d0bd 5453 3a3d
000003e0: f4b9 ee3d acf2 bdbd fbb4 30bd 8ab2 0e3e
000003f0: d76b c03c f8ed 743d 16b6 393d bf59 bbbc
0.24575847 -0.723589 0.03744388 -0.59450674 0.0710905 0.2905589 0.06137091 0.11453672
0.78346574 -0.027451392 0.28393444 -0.029069168 0.29435387 -0.18881834 -0.0012457585 0.0028241212
0.013878217 0.22706361 0.17736585 0.083586745 0.05330767 -0.010443697 -0.102447845 -0.28031752
-0.018701022 0.024411637 0.0693853 0.15227188 0.17445539 0.005675094 0.12300976 -0.044258643
-0.09844056 0.0028190673 -0.065553 0.068785615 0.42497444 -0.70950603 0.50424707 -1.0154465
0.025078129 0.22342764 -0.3906292 -0.21150237 -0.94526756 0.008805039 -0.09374876 0.013370649
-0.055779174 -0.10224146 0.03241528 -0.09228357 -0.1614001 -0.019243011 -0.20153578 -0.08537224
-0.39716002 0.4585369 -0.025350906 -0.15897228 0.19401307 0.15432386 0.26224875 0.09783205
0.12095996 -0.034938786 0.20912777 0.007494487 -0.057284854 0.04441559 -0.09479464 -0.21241538
0.0061147516 -0.18910223 0.24443309 -0.20126463 -0.12430422 0.12709329 -0.12413916 0.009125896
-0.08108509 -0.5567152 0.17531514 0.07986879 0.0070899096 0.10332915 0.28361905 -0.39689496
-0.2277888 -0.6291872 0.2584192 0.270183 0.1688301 0.059259497 0.1002215 0.089560755
-0.06457878 0.11327392 0.17254782 0.33158988 -0.16832194 0.4494943 -0.1988585 -0.041277185
0.23824506 -0.1729716 0.23685656 0.23198982 0.3065017 -0.40679654 0.20984155 -0.061415758
-0.10653426 -0.048011802 -0.40677494 0.019815333 0.3407065 -0.16255128 -0.12930213 0.33268076
0.09134609 -0.0643972 0.21130005 -0.11513759 0.06931527 0.24106908 -0.042983163 -0.5898675
0.58017427 -0.4911413 -0.12970936 -0.03124268 -0.17001158 -0.67648613 -0.20830625 0.11111797
0.111992836 0.19189535 -0.08512324 -0.1964663 -0.033177275 0.39321017 0.15394785 0.25994483
0.112075575 0.38104868 -0.06825064 0.40084478 0.98320794 0.3915241 0.45825955 -0.04509707
0.5093618 0.08013585 -0.0074962 0.09794921 0.0017923145 0.11109419 0.082336225 -0.010218316
0.011958654 -0.014499466 -0.06949832 0.053028975 0.09043727 0.12199802 -0.31691307 -0.016174968
0.17988227 -0.25792134 -0.11771838 -1.2138846 0.1261838 0.084492944 0.085330084 0.32487032
0.30799708 0.022331389 0.050057206 -0.12025383 0.30646306 0.20017046 0.18081696 -0.25540084
0.17338504 -0.49088565 0.28658155 0.20693196 0.27822497 -0.26910356 -0.39565042 -0.02773113
-0.24705765 0.05192501 0.0020029398 -0.18546817 0.23487066 0.08260028 -0.18642034 -0.2870351
0.24109888 -0.18772048 0.1727032 -0.16135745 0.044291325 0.3297653 0.02872041 -0.26553583
-0.20520711 -0.17411265 -0.11439353 0.050627753 0.062077727 -0.12782462 0.17926484 0.004558786
0.24880193 0.48231742 0.25657532 0.124175526 0.0077355443 0.20643388 -1.2791858 -0.14677474
-0.5266482 0.08344299 0.030966753 0.062662944 0.13109921 0.14596237 0.23908661 0.017118622
0.124901265 0.04537597 0.09705658 0.046184566 0.09644273 0.14453407 -0.01954498 0.00084031606
0.46322578 0.098798424 0.007051268 -0.139802 0.092975326 -0.08939498 -0.10204201 0.045489624
0.116565615 -0.092748016 -0.043141346 0.13935295 0.023488922 0.059797257 0.045339666 -0.022869943

conv1.bias f4 [16]
00000000: 8ed7 8e3e c111 c73e d6f9 3f3e d6a5 933e
00000010: 80b1 8d3e e9c0 eb3e bd44 ee3d d450 953c
00000020: 06f7 7e3e 5544 643e b544 823e f40b ab3e
00000030: c577 803e 1f43 c43b 5b00 aabd 7395 723e
0.2789883 0.38880733 0.18747649 0.2883746 0.27674484 0.46045616 0.116342045 0.018227018
0.2489892 0.22291692 0.25443044 0.33407557 0.25091377 0.005989447 -0.08300849 0.23689823

conv2.weight f4 [32, 16, 3, 3]
00000000: b234 353e 4e26 813d c383 933e aa27 803d
00000010: bfa9 123e d751 f43e d152 dbbc 41de c13c
00000020: 6c82 51be a126 d53d 4b2a 273e 6907 a6bd
00000030: 9864 803e 224b 78be 12a8 e0bb 263f b1be
00000040: f1de 9abe e162 e3bd f299 2f3d 18e6 873e
00000050: 04bf a43b 0531 a03e 40bc 2c3e 9d6b 20bf
00000060: 318c 48be ff91 c7be d49c 07bf 9a58 993e
00000070: a138 f83e 20d5 793e 7b79 453f 0429 c73e
00000080: 4a68 bc3e 1098 013f 3d36 f63e 29d6 113f
00000090: 3fdd d33e 9405 483e 042f fdbe 270c d2bd
000000a0: 62a7 bcbe 308d 4ebe 0711 ef3d 13f8 813e
000000b0: 2b1f 043f 3f6e d33c 487e 803d e297 0c3c
000000c0: e63d 243e db6e d63e 353e ec3e 5ad1 5e3e
000000d0: 7df5 bf3e b8df 7a3e 030f 5c3e f66a 913e
000000e0: 3b71 17bd 6b7a 9d3e ad9c f83d 9d16 913e
000000f0: b80b d73e 3b77 b23d f260 ca3e dd5f 783e
00000100: fda7 6c3d 2cc1 0bbe 8748 adbe f2ea f6be
00000110: 0d49 d8be 4aa0 06bf dfc2 223f 2fcc cf3e
00000120: a942 673e 7686 c23e 3bb4 7e3e 103d 8a3e
00000130: 8334 c03e 9abd 383d 738f 183f 0d00 1d3d
00000140: 8cfa 553e a682 d03d b892 dc3d f2ed 393e
00000150: 00c2 d33e 285c 9e3d 335a 233f 4011 823e
00000160: 01dc abbc f663 5f3f b1ab 303e 7293 8a3d
00000170: 4fc8 423e 9d10 6a3e 4023 8a3e 9a36 163f
00000180: a19f db3d 69b8 333f 51bd f33e 172d d03d
00000190: 47a7 93bc 0d9d 123d a4a1 033f 6226 af3e
000001a0: 72a5 ec3e fbe4 183f 2bae 203f 92d0 173e
000001b0: c09e 54be 6316 1b3e 8a80 873e 6b72 8b3e
000001c0: df6a af3e 40f1 833d 4fed eb3e ad06 103f
000001d0: f6e4 f73d a47f 3b3e a733 cc3d b947 f8bd
000001e0: 8f0e 2d3e e4d5 30be 593c 20be 3207 e6bd
000001f0: 21da f1bd 00e7 153e d9a1 7bbe aeba 823e
00000200: 42ff bfbd 2504 673e ff1c e8be b49f c7be
00000210: d1f8 17be 5a46 623e d986 00be ac71 9e3e
00000220: 0801 213f 7831 99bd db14 643f 73e3 2c3e
00000230: 92b2 08be 024a 2d3e 086f 9cbe fbd5 7ebe
00000240: 12b1 4f3e 9b36 223b 52d9 893e ad74 023e
00000250: 05c8 20bc 0e8a 363f 58bd 73be 9781 373e
00000260: cf99 f13d 66e1 2b3c 9847 983c 6750 653e
00000270: 195e 1ebe 1c4a 273e e414 533e ef55 90be
00000280: 7ef3 5dbe b63b 01be 4564 ab3e 3eff 073f
00000290: 6494 2b3f 4669 ffbd 6c6c 6ebb cd99 173e
000002a0: 488b 98be 4333 2d3f 9a12 973e e765 1cbd
000002b0: a2da ef3d 0672 bd3d c255 d03d f8d0 6d3e
000002c0: be9a 243f e64c 163c 30e2 083f 48ff 0e3f
000002d0: 3f81 123f cf2e c73e 66e3 9abe 3640 cd3d
000002e0: cf2d e03e f506 b23e 4a24 ca3e de89 623f
000002f0: f4ea 94bd f354 323e f1e0 443e 88fc 123d
00000300: 0d64 abbc a420 bd3e be7a e03d de78 e7bc
00000310: b73a d53b 73ff b63d ac2b d2bd 5647 6f3d
00000320: ae24 a6bd 3977 03be 7b8a 95bd dbea 6c3e
00000330: 162b c93e be48 5c3f 0bb9 223f 191e 173e
00000340: d09e 013e 2757 7b3d 8896 1a3e 5915 5dbe
00000350: 44fd 70bd 1a61 b4be 19bf 683f 7919 ef3e
00000360: 4f9b 733b b667 323e 9b2d 7abe 2939 c43e
00000370: f863 293e b8a5 16bd 3f0d cd3e 3526 c73e
00000380: ce48 a53c 149f 943d a5a3 bd3a d57f 1b3e
00000390: a138 603e 0201 483e db62 813e bac5 223e
000003a0: f856 133e f04d 263c 4033 94bd 67be be3d
000003b0: 14fc 043e 090b aabe 7d2b 303d 11b0 833e
000003c0: 79c3 3bbe 5c18 083f 6ed7 e0be 5213 aa3d
000003d0: a0c5 203e efce 653d 7dd5 e33e 3c93 123f
000003e0: ba4f 343f 895f 12bc f79d 023f 5a4b 8b3e
000003f0: f455 3abe 08ee 41be da1c 9abe f8e6 ce3e
0.17695883 0.06306134 0.28811464 0.06257565 0.14322565 0.4771869 -0.026772888 0.02366555
-0.20459908 0.104077585 0.16324727 -0.08106882 0.25076747 -0.24247411 -0.006855973 -0.3461849
-0.30248216 -0.11102844 0.042871423 0.26542735 0.0050276536 0.312874 0.16868687 -0.62664205
-0.19584729 -0.38978574 -0.52973676 0.2995041 0.48480704 0.24397707 0.7713849 0.3889848
0.36798316 0.50622654 0.48088256 0.5696741 0.41379735 0.19533378 -0.49449933 -0.10256224
-0.36846453 -0.20171046 0.116731696 0.25384578 0.5161006 0.025809405 0.06274086 0.008581134
0.16039237 0.4188145 0.4614121 0.21759549 0.3749198 0.24499404 0.21490102 0.28401917
-0.03697322 0.3075746 0.121392585 0.28337565 0.42001128 0.08714148 0.39527088 0.24255319
0.057777394 -0.13647908 -0.33844396 -0.48226124 -0.42243233 -0.5258833 0.635786 0.40585467
0.22584023 0.3799321 0.2487344 0.26999712 0.37540063 0.045102693 0.59593886 0.038330127
0.20896357 0.10181169 0.10770172 0.18157175 0.41358948 0.07732421 0.6380951 0.25403786
-0.02097893 0.87261903 0.17252995 0.06766404 0.19021724 0.228579 0.2698002 0.58677065
0.10723806 0.7020326 0.47605374 0.1016485 -0.0180241 0.035794307 0.5141852 0.3420897
0.46219975 0.59724396 0.6276576 0.14825657 -0.20763683 0.15145259 0.26465255 0.2723573
0.34261224 0.06442499 0.4607949 0.56260186 0.12104218 0.1831041 0.099707894 -0.12123055
0.16900085 -0.17269093 -0.15648021 -0.11231841 -0.11809183 0.14638901 -0.24573459 0.2553305
-0.093748584 0.22560175 -0.45334622 -0.3898903 -0.1484101 0.2209715 -0.1255144 0.309461
0.628922 -0.074801385 0.8909432 0.1688364 -0.13349369 0.16922763 -0.3055346 -0.24886315
0.2028239 0.0024751786 0.26923615 0.12739821 -0.009813313 0.71304405 -0.23802698 0.17920528
0.11796915 0.010490751 0.018588826 0.22393952 -0.15465583 0.16336864 0.20613438 -0.28190562
-0.21674916 -0.12620434 0.33474937 0.53123844 0.670233 -0.12471251 -0.0036380542 0.14804764
-0.29793763 0.67656344 0.2950638 -0.03818312 0.11711623 0.09250264 0.10172607 0.23224247
0.6429862 0.009173607 0.53470135 0.5585828 0.57228464 0.389029 -0.30251616 0.10022013
0.4378495 0.34770933 0.3948081 0.8849162 -0.07271376 0.17415218 0.19226433 0.035885364
-0.020921731 0.36938965 0.10960911 -0.028255876 0.0065072435 0.08935442 -0.10262236 0.05841764
-0.08112465 -0.12838449 -0.07301804 0.23136465 0.39290684 0.86048496 0.63563603 0.14757575
0.12658238 0.06136241 0.15096486 -0.21590175 -0.058835283 -0.35230333 0.9091659 0.46699122
0.0037171429 0.17422375 -0.2443146 0.3832486 0.16542041 -0.036779135 0.40049168 0.38896337
0.020176318 0.07256904 0.0014468326 0.15185483 0.21896602 0.19531634 0.25270733 0.15895739
0.14388645 0.010150418 -0.07236338 0.0931366 0.12986785 -0.33211544 0.043010224 0.25720266
-0.18336286 0.5316217 -0.4391436 0.08304466 0.15700388 0.05610555 0.44498816 0.5725591
0.70434153 -0.00893391 0.51022285 0.27205926 -0.18196851 -0.18938458 -0.30100137 0.4041059

conv2.bias f4 [32]
00000000: 9503 1f3e 1f74 573d d03f 8cbd 1300 e33d
00000010: 0543 fe3d ca8c c03d c50c 303c 9957 3e3e
00000020: be04 8e3d c613 1a3c f14d 913c 6380 d7bc
00000030: f357 20bd 8845 8e3c c59f 45bd 6a8a 6dbd
00000040: e747 443e b09e 0cbd 6bd9 0d3e e335 e33d
00000050: 7666 7cbd f3f9 f53d 0a50 353e 1b57 3a3e
00000060: 1faa c2bd 67a3 82bd 6e36 21bd 84ab 86bd
00000070: 55d9 1b3e 762f a7bd 75ec df3c d7fc d2bd
0.1552871 0.052600976 -0.06848109 0.110839985 0.12415127 0.094018534 0.010745232 0.18588103
0.06934498 0.009404128 0.01773736 -0.026306337 -0.039146375 0.01736714 -0.04824807 -0.05799333
0.19168054 -0.034331024 0.1385247 0.110942625 -0.061621152 0.12010565 0.17706314 0.1819729
-0.09505104 -0.06378823 -0.03935855 -0.06575683 0.15219624 -0.08163349 0.027334431 -0.103021316

fc1.weight f4 [64, 800]
00000000: bf12 f33e 3d87 a63e 96df 0a3d c53b 60bd
00000010: c36a b1bd d816 6ebc f3e2 dabd a95a aabd
00000020: 1ecc 33be c9f7 22be 142d bfbd 7e95 d4bd
00000030: 4987 3ebe 274e 83be 18ee 73be 8a7e 993e
00000040: e079 373d cf8e c3bd 804d 2bbe cbdc 263d
00000050: b89f e53e da73 603e 6217 0a3b 560a c8bd
00000060: e44d 903c aa8e aa3e 8455 803e ee83 d03d
00000070: 7ec9 db3d d614 a6bc eb4e 853d f1d1 113d
00000080: 637b bb3d 507b 21bd 105b 28bd a760 18be
00000090: a260 723d 32a4 42bd 4588 7abe d0e3 e9be
000000a0: 304c a93d 6e36 dd3d 3cfb 053e 388a 873c
000000b0: 0b67 743a 3006 a03e 23b0 963c 746b 473e
000000c0: af1a 13bd 3579 48bd 058d a53e df7c 323e
000000d0: f229 cd3c 1fba 3dbd b3d8 36bd cdc4 f23d
000000e0: 0971 cf3d b8db dc3c 0dd1 12be 309a 87be
000000f0: c5ef 763d 7cd3 d53d 50c1 44be 9d2b 2cbe
00000100: 617e 2cbe cde4 003e 092e 353e 180a b53d
00000110: 7b03 15be 1ccc 8bbd 45b6 ed3e dd95 9f3e
00000120: e0d6 0d3d b953 143e e2d6 9a3d e93c 033e
00000130: 169d 2b3e 70b1 21bd 6a88 a3bc 9986 92bd
00000140: 3ae5 63bd 93ed edbd 8e06 ccbb 14e4 5ebd
00000150: ef55 1abe 003c 9ebd cb81 aabd 7117 31be
00000160: 4f3d 30be d74e 65be ba42 ad3d 49ec b739
00000170: 4da8 0bbc 4ea8 00bb 21ea 2d3d c938 c33d
00000180: 59e8 06be 4e42 343e 7f07 913d 6369 a63c
00000190: 69ba 373e ab07 193e 878a e9bc ecd6 7e3c
000001a0: 07c4 9c3c e53e 0c3d ea88 243c 725c c83d
000001b0: 9507 79bd 7acb 8dbe 98bd 04be edba 18be
000001c0: f39b 28be 2546 68be dd07 91be 7840 8bbc
000001d0: 247b afbd 207b 94bc 546a 14be 3a47 67be
000001e0: 6b44 5d3d 8a12 8dbd 2db8 163d 846d 25bc
000001f0: f33f 683d 787c 833e 99e9 6f3e a91c 2b3e
00000200: 7fc6 9d3d 6367 843d 6dfe b73c faf3 943b
00000210: edcc bf3d ff8c d9bc a133 1cbe dfa2 4abe
00000220: 346f 1abe e55a bcbd 393c e9bd 89a7 6cbe
00000230: b274 02be ab87 7abd c06b f73c df0d 01be
00000240: 7f3f c7bd 2090 b33d 6982 443d 5dea 1dbd
00000250: e4a0 d73b 06dd ae3d 129a 763e 9d32 f03c
00000260: c3dc 66be fdcc 1dbe 1226 1abe 9483 863e
00000270: fad3 d53d c332 32bc 2c45 5d3d a630 c2bd
00000280: 4f16 883c 848e 713e d503 8dbd ed30 92be
00000290: 2f2f 8fbe 68c4 a4bd 01fd 0c3e 0885 403e
000002a0: c0d5 55bd 29b2 06be fcb4 393e 6185 e23d
000002b0: ae37 cd3d c566 223e d81d 483e dff1 493e
000002c0: 2994 423e 6a2f 493d 0b83 fa3c 0bde 9b3c
000002d0: 7ef2 e3bb 1531 3a3c f905 3b3c 1958 81bd
000002e0: 5d63 e9bd 8ee7 26be 323e 2cbe ed03 3abe
000002f0: 1750 4ebe edd1 c5be 33cf 4b3d d18c c03d
00000300: a78a 803d 07ae 38bd 6ee0 f9bd b666 4e3e
00000310: 7008 2b3e bb45 9a3e 8565 8a3d b712 083e
00000320: b701 333e ce7a 403c a92d bb3c 1783 753c
00000330: 940c 36bc 91a3 683e b720 f43c 18fb 7b3d
00000340: 95bb c13c f05a 1cbd 7b29 463d 352b c13c
00000350: 553f 1abe 892c f7bd b158 51be 4932 b2bc
00000360: 1cdf 813d 1835 e13d 7ee2 6fbd 046d c1bd
00000370: cc50 8a3e d3f4 183d 082e 003e bac1 803e
00000380: e1ca a03d 0f4f 363e 283e 123e 4722 093e
00000390: adb0 5f3d fc42 6d3d 87c8 0c3e 4085 9f3d
000003a0: 9314 3e3e c293 80bc 26b6 01be 96b7 0cbe
000003b0: 4099 0cbd 893f 1abe d770 1bbe cb89 05be
000003c0: db7b 08bc 4cc8 88bd ffc9 953d 0300 3abd
000003d0: 3870 b5bd 3b85 943e 8304 c8bd 86f9 9b3d
000003e0: e4cb 773e caf5 b63d 3256 183e 5908 e73d
000003f0: ec27 c73d 27bb 713d 2f7e d1bd ae58 f63d
0.4747524 0.32525054 0.033904634 -0.0547445 -0.08662941 -0.014531814 -0.106878184 -0.08318073
-0.17558333 -0.15914835 -0.0933477 -0.10380076 -0.18606295 -0.25645563 -0.23821294 0.29979354
0.044793963 -0.09548723 -0.16728783 0.04073791 0.44848418 0.21919194 0.0021071066 -0.097675964
0.017615266 0.3331197 0.25065243 0.101814136 0.10731791 -0.020273607 0.06509193 0.035600606
0.091543935 -0.03942424 -0.04110247 -0.1488062 0.059174187 -0.04751987 -0.24466045 -0.4568162
0.08266485 0.10801397 0.1308412 0.0165454 0.0009323216 0.3125472 0.018394535 0.19474584
-0.03591412 -0.048943717 0.32334152 0.17430447 0.025044415 -0.046320077 -0.044640254 0.11853943
0.101289816 0.026960239 -0.14337559 -0.26484823 0.060287256 0.10440728 -0.19214368 -0.16813512
-0.16845085 0.1258728 0.17693342 0.08839816 -0.14552109 -0.0682604 0.46428123 0.31169024
0.03462875 0.14485063 0.07560517 0.12816204 0.16759142 -0.03947586 -0.019962508 -0.07154579
-0.05563853 -0.11617579 -0.0062263673 -0.05441673 -0.15071844 -0.07726288 -0.08325537 -0.17294098
-0.17210887 -0.22393356 0.08459993 0.00035080526 -0.008524013 -0.0019631567 0.04245961 0.09532315
-0.13174571 0.17603418 0.07081508 0.020313924 0.17942204 0.14944331 -0.028508438 0.015554171
0.019136442 0.03423967 0.0100424085 0.097832575 -0.060798246 -0.27694303 -0.1296295 -0.14915057
-0.1646574 -0.22683008 -0.28326312 -0.016998515 -0.08568409 -0.018125117 -0.14493686 -0.22585765
0.054020327 -0.06888302 0.036796737 -0.010096911 0.05670161 0.256809 0.23428954 0.16710152
0.07703876 0.06465032 0.022460187 0.004545686 0.09365258 -0.02655649 -0.1525407 -0.19788693
-0.15081483 -0.09197024 -0.1138844 -0.23110785 -0.12739828 -0.06116454 0.030202746 -0.12602948
-0.09728908 0.08767724 0.04797593 -0.038553584 0.006580459 0.085382506 0.2408221 0.02932101
-0.22545151 -0.15410228 -0.15053585 0.2627226 0.10440822 -0.01087636 0.054021046 -0.09481935
0.0166122 0.23589522 -0.068854965 -0.28552952 -0.27965686 -0.08045274 0.13768388 0.18800747
-0.0522058 -0.131539 0.18135446 0.11060596 0.10020386 0.15859516 0.19542634 0.19721173
0.19001831 0.049117483 0.030580064 0.019026777 -0.0069563976 0.011364241 0.011414998 -0.063156314
-0.11395905 -0.16299269 -0.168206 -0.1816556 -0.2014774 -0.38636723 0.049758147 0.094018586
0.06276446 -0.04508784 -0.1220101 0.20156369 0.16702437 0.30131325 0.067576446 0.13288389
0.17481123 0.011748029 0.02284892 0.014984868 -0.011111397 0.22718646 0.029800756 0.06151876
0.023649016 -0.038172662 0.048379403 0.023580173 -0.15063222 -0.12069041 -0.2044399 -0.021752493
0.06341383 0.10996455 -0.05856561 -0.09444621 0.27014768 0.037342858 0.1251756 0.25147802
0.07851196 0.17803596 0.14281523 0.13391982 0.05461185 0.05792521 0.1374837 0.07789087
0.18562536 -0.015695456 -0.1266714 -0.13741907 -0.034325838 -0.15063299 -0.15179764 -0.13040845
-0.008330311 -0.066788286 0.07313918 -0.045410167 -0.08859295 0.29007897 -0.097664855 0.07615952
0.24198872 0.08933599 0.14876631 0.11280889 0.09724411 0.059016373 -0.10229146 0.12028633

fc1.bias f4 [64]
00000000: 2a54 3dbd dbcc da3d d62c 243d 06f4 48bc
00000010: 7fdc 743d d0cc 19bb 7322 313e 1dc6 353e
00000020: 301c 7abc b544 b9bc 5799 013d f1fb 4cbd
00000030: 88e3 a83d c465 423b eb58 b03d f744 a43d
00000040: edb7 843c d78b d13c 3619 a23b f45b ae3c
00000050: 6a25 4c3c 2116 06bd 54b0 52bc 2892 c03d
00000060: 68f6 dcbc 80dd a53c 57c8 2e3e 6c43 943c
00000070: e269 b4bc 7178 d73c 5482 2c3e 9b02 203e
00000080: 1090 91bd 5af6 c73b 3eea 7e3d dfb9 d23d
00000090: a168 023d 4659 1b3c e321 f5bd 45f9 e0bc
000000a0: dacc 43bc fa0d 223c 7df7 8cbc 6ef8 fc3c
000000b0: 3354 de3c 403f 353e a958 d8bc 5891 b33c
000000c0: 345c 96bb b0f5 c63d 19d3 5f3c 293c d43d
000000d0: 20f1 673d bd09 4a3e f177 953d b20e f0bc
000000e0: 4113 01bd c579 b7bc 9e4e 233e b3c6 4bbc
000000f0: 2b39 cb3c a874 a53d 69ce 85bc 57e0 80bc
-0.046222843 0.10683604 0.04008182 -0.012265211 0.059780594 -0.0023468025 0.17298298 0.17751355
-0.0152655095 -0.02261577 0.031640377 -0.050044958 0.08246523 0.0029662708 0.0861071 0.080209665
0.016200984 0.025579376 0.004946853 0.021284081 0.012460092 -0.032735948 -0.012859423 0.09402877
-0.026972964 0.020247221 0.17068611 0.018098556 -0.022023145 0.026302548 0.16846591 0.15625994
-0.07107556 0.0061023654 0.06223511 0.10289358 0.031838063 0.009481734 -0.11969354 -0.027462611
-0.011950696 0.009891028 -0.017207855 0.03088018 0.027139759 0.17699909 -0.026409464 0.021919891
-0.004588628 0.0971483 0.013661169 0.10363037 0.05662644 0.19730277 0.07298268 -0.029303882
-0.031512503 -0.022396931 0.15947959 -0.01243751 0.024807533 0.08078891 -0.016333776 -0.015731974

fc2.weight f4 [64, 64]
00000000: 92f3 e8bd d70b f83d a7ec 6bbe 1d61 f4bc
00000010: c348 513e b02e e13d 9791 3f3e cedf 17be
00000020: 280e ef3c 4496 d03b b3c5 cbbb 55a9 28bd
00000030: 68fe 0b3e db22 54bd a51f 42be 9bde ab3b
00000040: 44a9 493d 72b1 d9bc b4c6 41bd c086 0dbb
00000050: ec9a 513d 0296 963d 1c2a a03e c62a f3bd
00000060: efd7 b338 9fb1 91bd 3ccf 403e b066 bbbc
00000070: 143c 8d3d a765 933d 946a adbd f4a0 9b3d
00000080: fb68 803d 75ff f13d 8756 413c 7224 1c3c
00000090: e61a ef3d b398 24bd dd11 3fbe 29c1 433d
000000a0: 786c 1e3d 9524 4e3e 64ce 4a3d 0f40 8dbc
000000b0: a8e7 94bd 78ee a13d acc7 a4bd 1684 98bd
000000c0: 7a14 b4bd ad53 b53d 8212 01bd 99d6 26be
000000d0: c2f1 8f3e 406d 303e 5406 9a3e e3ff 2b3d
000000e0: eebe e93d 0568 8fbd 6f62 853e b499 8c3d
000000f0: 087a a43d a96b de3e fabb bcbd 90e7 5ebc
00000100: cc30 cabd c0d8 5d3c 1a8d fbbd 0052 153d
00000110: 7c94 b73d 16cb c63d 3a3c b4bd 48a4 b3bc
00000120: 4aa4 b63d de4d 8b3d e831 0fbd 360e c8bd
00000130: 825e a93d b8c5 e5bd 7055 f1bc cc99 c7bd
00000140: 1c08 a8bd 0a35 b73d fe5c fabd 9014 503d
00000150: 0ed2 8a3d a001 78bc ec18 dabd 386a 30bd
00000160: 04da 003d 60a8 9f3d d4c6 29bd b022 88bc
00000170: 203a 91bd 3470 cd3d 561d ae3d 02fb b33d
00000180: 00a5 60bd 44c3 663d 32d6 d1bd 1451 fcbd
00000190: b282 b6bd fab3 aabd 8064 1d3d b6bf b8bd
000001a0: d65b 843d da72 ca3d 00c2 cdbd 7081 e7bc
000001b0: a0ab 3ebc e8f8 bb3d 0042 b1ba 72f0 f53d
000001c0: f042 ca3d 083d 203d 361b 853d 5cbf 8cbd
000001d0: 2c22 5cbd 9646 d73d d8eb a7bd 825c 89bd
000001e0: 321c e1bd 3e7d a9bd a699 84bd 6cc6 a2bd
000001f0: 4013 233c fa75 b1bd e07f e5bc b0f4 1ebc
00000200: f23c 123e ad6e 14bd f651 5d3e 8291 cf3d
00000210: 54a8 133d b288 b23d 1a86 d63d d1b2 0d3e
00000220: 7e5d d2bd 6ca5 683d 4328 da3d 8fe4 1c3d
00000230: 9ff7 653e cdf8 bc3c 6945 013d d0e7 303e
00000240: 52a1 ecbd c4ff 1e3d 68bd e23d 0800 05bd
00000250: 8454 01bd b308 e1bd 1613 743c 8c08 6abd
00000260: 991f 6cbd c6a9 a13e b211 59be 9751 c23d
00000270: a86d 94bc c92d 943b add8 763e e4d3 143d
00000280: c214 b6be 8eda 74bd 0985 8b3d 80f5 d63d
00000290: 6400 d83d 0258 9ebd 796c a63d bdc8 aa3d
000002a0: 8f89 28bd 7503 e8bc d0c5 7a3d 0af2 f13d
000002b0: b21b abbb 695b a43d 8a58 fd3d e992 acbd
000002c0: b800 123d ebf4 653e 92bb 9dbc d9eb 713e
000002d0: ac83 85bc f647 763d 885a e6bc 34c7 12bc
000002e0: 90b0 9a3c 2694 e13d cc98 ca3c 0ff8 273a
000002f0: 6c3c a13d ffc9 e63d 94ab 123d 86d2 c13d
00000300: 131b 0d3d 94d3 1f3e 1992 14be e77f e13c
00000310: ee01 a2bc 90f6 40bd 68bc c33d f1f6 f63d
00000320: 4c92 1b3d f44d a3bd 9fef e83d 8dd5 fc3c
00000330: 76fb a83c bc99 ac3d 8a19 bb3c 970d f7bd
00000340: 5bdf b8bd cc39 803d d48b 813d 4e03 e83d
00000350: 574b 363d 5283 32bd 2f02 903d 5202 0ebe
00000360: c79e dd3d ee74 453e 78d7 c53d 9987 bc3d
00000370: f6d2 9e3d 26c2 bd3b 5447 3dbe dcd1 163e
00000380: e82a 0e3d b6fa 453d d7c5 c2bd 9bdb a93d
00000390: aadd 033d f932 06bd c545 883d 31f4 97bc
000003a0: 209b ee3d 814b cfbd d8fb aabc c658 f8bd
000003b0: f720 f73d f08d 19be cce3 e03d 1e2a fdbd
000003c0: 1c13 a63d 8b06 0ebd c60e 36bd e65e 41bd
000003d0: 9405 49bd 0cc4 9e3c a3a8 053e 710d 073b
000003e0: 7b11 21bd ec77 dbbd 3877 d13c 1538 e93d
000003f0: 0a1c 6cbd b1ea 423e 7457 eb3d 4add e33d
-0.11374582 0.12111633 -0.23039494 -0.029831463 0.20437913 0.10995233 0.18707882 -0.14831468
0.029181555 0.0063655693 -0.006218636 -0.041177113 0.13671267 -0.051791053 -0.18957384 0.0052450425
0.04923369 -0.02657387 -0.04730864 -0.002159521 0.051173136 0.073528305 0.31282127 -0.11873393
8.575606e-05 -0.07113957 0.18829054 -0.022876114 0.068962246 0.07197123 -0.08467594 0.07599059
0.062700234 0.11816303 0.011800415 0.009530174 0.11675052 -0.040184688 -0.18659158 0.047791634
0.038677663 0.20131142 0.049513236 -0.01724246 -0.072707474 0.079068124 -0.08045897 -0.074470684
-0.08792968 0.088538505 -0.03151179 -0.162928 0.28114134 0.17229176 0.30082953 0.04199208
0.1141337 -0.07002262 0.2605166 0.06865254 0.08031088 0.43441513 -0.09215541 -0.0136050135
-0.098725885 0.013540447 -0.12282772 0.036455154 0.08963868 0.09706704 -0.0880055 -0.021928921
0.089180544 0.06801961 -0.034959704 -0.097683355 0.08269979 -0.112193525 -0.029459685 -0.09746131
-0.08204672 0.08945663 -0.12224768 0.05080086 0.06778346 -0.015137106 -0.10649285 -0.043070048
0.031457916 0.07795787 -0.041449383 -0.016618103 -0.070911646 0.10031167 0.08501689 0.0878811
-0.054844856 0.056338564 -0.10245933 -0.12320152 -0.08911647 -0.08335109 0.038425922 -0.09020941
0.06462829 0.098851874 -0.10046768 -0.028259963 -0.011637598 0.091783345 -0.0013523698 0.12008752
0.098760486 0.039120704 0.06499331 -0.068724364 -0.053743526 0.1051151 -0.081992805 -0.067070976
-0.10991706 -0.08275841 -0.064746186 -0.07948002 0.00995332 -0.0866508 -0.028015077 -0.009701893
0.14281061 -0.03623836 0.21613297 0.10135175 0.036049202 0.08717479 0.104747966 0.13837744
-0.102717385 0.056798384 0.106522106 0.038303908 0.22457741 0.023067856 0.031560335 0.1727593
-0.11554207 0.038818136 0.110712826 -0.032470733 -0.03157474 -0.10987987 0.014897129 -0.057137057
-0.05764732 0.3157484 -0.21198156 0.09488218 -0.018118694 0.0045220596 0.24106093 0.036334887
-0.35562712 -0.059778742 0.06812484 0.10496044 0.105469495 -0.0773163 0.08126158 0.08339069
-0.04114681 -0.028321961 0.061223805 0.118137434 -0.0052218074 0.080252476 0.12370403 -0.084264584
0.035645217 0.2245671 -0.01925448 0.23625125 -0.016298138 0.06012722 -0.02811934 -0.008958627
0.01888302 0.11014585 0.024731062 0.0006407508 0.07872853 0.112689964 0.03580816 0.09463982
0.034449648 0.15608054 -0.14508857 0.027526809 -0.01977631 -0.04711014 0.0955742 0.12058819
0.037981316 -0.07973853 0.11373829 0.030863548 0.020627718 0.0842776 0.022839326 -0.12063139
-0.09026977 0.06261024 0.06325498 0.11328755 0.044505443 -0.043582268 0.070316665 -0.13868073
0.108213 0.19282886 0.09660238 0.09205551 0.07755081 0.0057909666 -0.18484241 0.14728492
0.034708887 0.0483348 -0.09510391 0.082938395 0.032193817 -0.032763455 0.066539325 -0.018549057
0.116506815 -0.10121823 -0.020872042 -0.12126307 0.120668344 -0.14995551 0.10980949 -0.12361549
0.081091136 -0.03467421 -0.044447683 -0.047209643 -0.049077585 0.019380592 0.13052611 0.0020607377
-0.03932331 -0.10716233 0.025569543 0.1138765 -0.057643928 0.1903484 0.1149129 0.11126192

fc2.bias f4 [64]
00000000: ad65 583d 88e0 89bc 90d8 cb3c 8160 a43d
00000010: 6d64 943c 9b9e d63d 37e3 093e e99a ca3d
00000020: 7266 d03d 8597 d63d 051b 983d 2bce 65ba
00000030: 963f 263e 3b12 963e d285 853e 2fcd e43d
00000040: 830c 403e 6dfd 563e f1a6 1fbe 6bc8 c13d
00000050: 0eef 133c d413 b1bd 38e0 3e3c 11ce bdbd
00000060: a066 063e 182e 2d3d 7b02 28be 3c8d b33b
00000070: 6d1b f3bc 8f56 d6bc 07e5 433e f854 febd
00000080: 845a abbd e784 083e 6731 4b3d c83d f33d
00000090: 96d2 dd3d 6f32 163d 933e de3d 80c9 943d
000000a0: 3681 bf3d 3370 ea3c a400 863d e87e b23d
000000b0: 1285 16be e409 3cbd 70b7 dc3d d476 babd
000000c0: 6844 fd3d 71a1 d93d c47c 4e3d 9e52 283d
000000d0: 17a8 323e 9805 db3d 007d d43d c049 083e
000000e0: 0fc7 d8bc c945 5e3d 472b ea3d 5e8b 12bc
000000f0: e097 9e3c 4eba a2bc d519 8ebd 5858 a5bd
0.05283134 -0.016830698 0.024883538 0.08026219 0.018114293 0.1047947 0.13465582 0.09892828
0.1017579 0.10478119 0.074270286 -0.0008766378 0.16235194 0.29310784 0.2607866 0.11171948
0.18754773 0.20995112 -0.15591027 0.09462055 0.009029163 -0.0864636 0.011650138 -0.0926782
0.13125086 0.042280287 -0.16407196 0.005479483 -0.029676164 -0.026164321 0.19130336 -0.1241855
-0.08366874 0.13331948 0.04960766 0.11877018 0.10831182 0.03666919 0.10851779 0.072649956
0.09350817 0.028617954 0.06543091 0.08715612 -0.146992 -0.04590787 0.107771754 -0.09104696
0.12366563 0.10626496 0.050411955 0.041094415 0.17446934 0.10694426 0.10375404 0.13309383
-0.026462106 0.05426577 0.11434036 -0.008944361 0.019359529 -0.019864228 -0.06938521 -0.08073491

fc3.weight f4 [7, 64]
00000000: 41ca babd 0cea 2fbd e55d f83d 8313 293e
00000010: b0ba 2f3e 6b8d 4bbe 0b21 bb3e ac5c 0dbe
00000020: eed9 8e3d 0c27 953d c40c 073e 037f 153f
00000030: c1a9 183d 0422 00be f2b3 56be 44e0 20be
00000040: a0e7 f5be d613 ae3d 1294 873f 35eb fd3d
00000050: a220 41be a02e fa3c 1bcd 393e 635f f23e
00000060: b9c8 073f cde2 a8bd cceb 81be 3e4d 68be
00000070: a1ea 6fbe 061f 90bc 44d5 65be d7ce dd3e
00000080: 4ae2 fa3d 53da f4bc 127b d53d 2dca 9dbd
00000090: c409 bebd 6e9e 3d3d 8da4 093e ae3f 3b3d
000000a0: 310d aa3d b61b e3bd ce44 b13d bec6 6d3e
000000b0: d8e3 143f 3e99 dabc 4578 cebc d2eb 073e
000000c0: 6266 1b3e b996 9b3d 2691 38bd a851 a6bd
000000d0: 2284 0f3c 0511 283e e836 92be f45d 10bf
000000e0: 3cd0 4b3d 5634 7ebf 5db3 80be 7bbe 4a3f
000000f0: 2c4e 92bf 2afb b8bd 9415 473f 28f3 f3bc
00000100: ce63 ff3d f075 70bc 425d 3d3b 461a 28be
00000110: 8329 3b3d 8f2d 1c3d cb6a b0bd a462 f8bd
00000120: 2ed9 7c3d fded 28bd 53ac 393e bd34 133f
00000130: 11c0 e5bd b015 91be 5829 99be 6265 0d3d
00000140: 4da4 2cbe b916 0e3e a0ef 8e3f 350b 0bbf
00000150: b961 33bf 002b eeba 50f6 533f c152 d13e
00000160: 28e0 223e 1849 6cbb 07c7 9fbe 81c6 213e
00000170: cb04 45be 3a22 f4bd 1f51 b83e 6b03 cf3e
00000180: ccf5 3bbd eef7 4abd ab8c 223f 2402 b9bc
00000190: ee29 cdbd c0e0 89bd 4522 0cbe 2992 7bbd
000001a0: 23fb 0a3c 8527 41be 9034 2f3e cd4b b9be
000001b0: 89ca 603e 5795 273e 7dba 01bd e665 0d3e
000001c0: d816 0e3d c62c a83d efa4 7fbd 784d b3bd
000001d0: 6a66 ff3d f17a d03c 9609 e33e 8ab8 4e3e
000001e0: b3d2 b23a 93ab 70bf 10be c03d b0e9 ac3d
000001f0: bc7d 98bf 5d4a bcbd 55af 963e fcb8 d93d
00000200: 310e 78be b0ca 273c 006a f63d 8b87 3d3e
00000210: c0af 563e 423b 41bd 02bf 80bd d142 29be
00000220: 8582 d1bd 6222 c93d bf6b 70bb 8d08 223f
00000230: 02aa 0bbe 73d1 6abe 753c 84be 6f12 103e
00000240: 1052 0c3f 14ad 983d 6b54 2f3f 855c 8f3d
00000250: e89e 44be a091 db3d c13d ea3e 346c fb3d
00000260: 8af7 77be 5b54 af3d d945 923d 3cb6 dfbd
00000270: b5eb 9fbe c190 f53d 4066 2ebe ea37 323f
00000280: 8e27 c23d a746 03be 0662 063e c5f0 763d
00000290: f518 463e 0824 b03d 6d04 8a3d 564a dfbd
000002a0: 11f3 cebc 0209 363e b170 e43d 95ce 323f
000002b0: 3d7f 1f3e e5c2 0f3e 4953 893e d1ac 8cbd
000002c0: f493 1bbe c38c 233d 02a2 82bd 76b9 7ebe
000002d0: c1cb 85be 1e18 05be 938e 27bd 298e 113e
000002e0: 7986 dd3d 9c3c 3dbf 7911 383e b481 013f
000002f0: ff8e bbbf 8249 dabd a5b4 153f 0e8c f23d
00000300: d3d1 363c 04fc 3e3d 73ea 3cbe 881f 04bf
00000310: b9a9 c53d 598d 663d f783 4b3f 7b36 20be
00000320: 8c22 4dbd 27ba 8a3c 2ef4 3a3d 3335 b73f
00000330: 7432 4abe 01ef b5be c230 1dbe 186f 143d
00000340: eb9e 9b3a 0698 e23e bcaf 133f a2dd 76be
00000350: 2180 5a3e 2148 31bd e83e 563c fd9a fe3e
00000360: 0e05 04bf 1437 b73d 4577 2a3e 3eef efbd
00000370: dfa3 87bd 33c4 bd3d 0325 babe 8b87 3b3f
00000380: 10c0 123c b563 e73d b50b e5be c922 efbd
00000390: a875 9d3d 6826 93bd 9737 923c cb83 c4bc
000003a0: c848 9a3c 0fac 993b 4db1 12be 822f df3e
000003b0: 57b0 933e fdc1 49be 2a99 8bbe 1785 e63d
000003c0: aff3 543d aa06 953c efa7 c2be e27f ff3c
000003d0: 419b c3bd 1ff6 063e 0f82 69bd 68d3 f53d
000003e0: 17e2 e3bc b3b3 96bf 9262 6ebe 15d5 00bf
000003f0: 43e9 48bf e802 3a3d dbec 373f 8a95 ba3d
-0.09120608 -0.042947814 0.12127284 0.1651135 0.1716106 -0.19878165 0.36548647 -0.13804883
0.069751605 0.07282838 0.13188463 0.5839693 0.037271265 -0.12512976 -0.20967081 -0.1571055
-0.48028278 0.08499877 1.0592062 0.12398378 -0.18860105 0.03053981 0.18144648 0.473384
0.53040653 -0.08246384 -0.2537521 -0.22685716 -0.23429348 -0.017592918 -0.22444636 0.4332187
0.122501925 -0.029889261 0.104238644 -0.077045776 -0.092792064 0.04629367 0.13441677 0.045715027
0.08303297 -0.1108927 0.086557016 0.23220345 0.5816016 -0.0266844 -0.025203833 0.13273552
0.15175775 0.075971074 -0.0450603 -0.081210434 0.00875953 0.16412742 -0.28557515 -0.5639336
0.049759135 -0.9929861 -0.25136843 0.791969 -1.1430106 -0.09032281 0.777673 -0.029779032
0.12470208 -0.014676556 0.0028894697 -0.16416273 0.045693886 0.038129386 -0.08614119 -0.12128189
0.061730556 -0.04124259 0.18132143 0.5750235 -0.112182744 -0.2833686 -0.29914355 0.034520514
-0.16859551 0.13875856 1.1166878 -0.54313976 -0.7007099 -0.0018170774 0.8279772 0.4088345
0.15905821 -0.003605431 -0.31206533 0.1579838 -0.1924011 -0.11920591 0.3599939 0.40432295
-0.045888707 -0.04955285 0.6349589 -0.022584029 -0.10017763 -0.06732321 -0.13684948 -0.061418686
0.008482727 -0.18862732 0.17109895 -0.36190644 0.21952261 0.16365562 -0.03167199 0.13808402
0.034689754 0.08211665 -0.062413152 -0.0875501 0.12470706 0.025449248 0.4434325 0.20187584
0.0013643116 -0.940118 0.094112515 0.0844301 -1.1913371 -0.09193871 0.29430643 0.10630986
-0.24224164 0.010241196 0.12031937 0.18508737 0.20965481 -0.047175653 -0.06286432 -0.16529395
-0.10229973 0.09821011 -0.0036685315 0.632943 -0.13639072 -0.22931461 -0.25827375 0.14069532
0.5481272 0.07454887 0.68488187 0.070000686 -0.19201243 0.10721135 0.4575024 0.122764975
-0.24215522 0.085610114 0.07142229 -0.1092343 -0.31234518 0.119905 -0.17031193 0.6961657
0.09480201 -0.1281992 0.1312333 0.06028821 0.19345458 0.086006224 0.067391254 -0.1090285
-0.025262387 0.17776874 0.11154307 0.6984647 0.15575881 0.1403919 0.26821354 -0.068688996
-0.15193158 0.039929163 -0.06378557 -0.24875435 -0.26132014 -0.12997481 -0.040907454 0.14214386
0.10816664 -0.7392061 0.17975415 0.50588536 -1.4653014 -0.10658552 0.58478767 0.118431196
0.011158424 0.04662706 -0.1844881 -0.5161061 0.09651513 0.056287143 0.7949824 -0.15645783
-0.050081775 0.016934467 0.045643024 1.431311 -0.19745809 -0.35533908 -0.15350631 0.03623876
0.0011872923 0.4425661 0.57690024 -0.24107984 0.2133794 -0.043281678 0.013076521 0.49727622
-0.5157021 0.08946052 0.1664706 -0.11715554 -0.06623053 0.09265938 -0.36356363 0.732537
0.008956924 0.112983145 -0.44735494 -0.116765566 0.07688457 -0.0718506 0.017848773 -0.023988625
0.018833533 0.0046897004 -0.14325447 0.43590933 0.28845474 -0.19702907 -0.27265292 0.112558536
0.051990207 0.018191654 -0.38018748 0.031188909 -0.09551097 0.13179825 -0.0570088 0.12003213
-0.027817769 -1.177359 -0.23279789 -0.5032514 -0.7848093 0.045412928 0.7184579 0.091105536

fc3.bias f4 [7]
00000000: 1acd 363b 421b 23bc ad22 503d 8342 2fbe
00000010: b167 2c3d 2b78 613d 5e06 f4be
0.0027893246 -0.009955229 0.05081432 -0.17115216 0.042091075 0.05504624 -0.47661108
