src/good_other_rewards.pth (torch, 294018 bytes, 10 tensors)

conv1.weight f4 [16, 80, 3, 3]
000000 2c bc 50 3d fe b6 6c 3d 18 76 63 3d 49 e5 bd 3d
       0.050960705 0.057791702 0.055532545 0.09272248
000010 4d 5a 07 3c 25 9c 8a 3d f4 be c6 3d 34 29 45 be
       0.0082612755 0.067680635 0.0970439 -0.19253999
000020 47 de 94 3d 88 d9 9d 3b ee e2 b6 bc 53 60 c0 bc
       0.072689585 0.0048171915 -0.022325005 -0.023483431
000030 9b ce 98 bc 97 11 36 3b 6a f6 27 38 04 88 a3 3c
       -0.018653205 0.002778148 4.0045394e-05 0.019962318
000040 bb 55 9c 3c 83 42 3e 3c 97 8e 89 3a cc 52 4b ba
       0.019083848 0.011612537 0.0010494766 -0.0007756173
000050 ca 56 01 bc ee 51 33 bb 55 31 a4 3b a0 54 2c bb
       -0.007894227 -0.0027362066 0.0050107636 -0.0026295558
000060 ab e4 80 bb f6 b2 75 39 80 dd 09 bb 34 54 ce bb
       -0.0039335093 0.00023431689 -0.0021036565 -0.006296659
000070 f1 e2 12 3a d8 6a ae bc a2 34 f3 3b e2 3c 6f 3b
       0.0005603275 -0.021291181 0.007422046 0.0036504795
000080 74 17 3d 3b e7 7f 0f 3c 52 3e 69 3c c7 34 e9 bb
       0.002885309 0.008758522 0.01423605 -0.0071168873
000090 ec 0a 0a 3d 9b 2f bf bb 18 54 d6 b7 ba 06 ef ba
       0.033701822 -0.0058345324 -2.5549947e-05 -0.0018236258
0000a0 13 f6 54 bd 52 75 a1 bc b1 6d ad 3c 00 a2 48 bc
       -0.051992487 -0.019709263 0.021170469 -0.012245655
0000b0 c1 83 af bb f3 20 42 bc 9b b6 3e bc 6c cd c2 3a
       -0.0053562825 -0.011848676 -0.011640216 0.0014862246
0000c0 02 bd e1 bc fa c1 26 bb 01 33 4b bc 6f ad 7e 3c
       -0.027555946 -0.002544521 -0.012402297 0.0155442795
0000d0 7f 19 87 ba 20 e0 11 38 3c 83 1b 3d 89 33 2a bc
       -0.0010307281 3.4779427e-05 0.03796695 -0.0103882635
0000e0 13 97 e2 3c 1f 5a e4 bc 79 2c 86 ba a9 f6 4a 3d
       0.027659928 -0.027875004 -0.0010236643 0.04955164
0000f0 90 50 96 bb 62 16 27 3d f8 42 02 bb 74 57 73 bb
       -0.0045872405 0.04079283 -0.0019876342 -0.0037130984
000100 2a d2 e0 3b f8 24 ef 3c fe e1 34 b9 7e e3 9c 3c
       0.006860991 0.029192433 -0.00017250326 0.019151445
000110 70 ec 02 bd 6c 91 ce b9 cb d3 1d 3c 08 02 67 bc
       -0.031963766 -0.0003939973 0.009633015 -0.014099605
000120 e6 c4 a4 bc da 79 9a 3c 61 53 cc 3a 6f 99 00 3d
       -0.02011342 0.018856931 0.0015588814 0.031396326
000130 26 e5 e2 3c 34 2c c8 3b dd 01 3f bc 44 d1 4f bc
       0.027697157 0.006108785 -0.011658159 -0.01268417
000140 9f 6a a7 bb 46 f0 0b 3d e5 db 0e 3d 70 32 71 3d
       -0.005109146 0.03416469 0.034877677 0.05888599
000150 b8 ec cf bc a4 b0 3e 3b 8d c1 9e 3c 47 be 64 3c
       -0.025381431 0.0029096985 0.019379402 0.013961381
000160 c1 e2 c7 bc 0f dc 30 3d b1 0e c7 3d 58 c6 81 3d
       -0.024400117 0.043178614 0.09719599 0.06336659
000170 ef 17 6a 3c 05 60 0d 3d dc a8 e1 3c 7f 88 bb 3d
       0.014287933 0.0345154 0.027546339 0.09156894
000180 fc f0 97 3d fc 1c 6e be 1f f2 ef 3d 2a 3e d9 3c
       0.07419011 -0.23253244 0.11716103 0.0265189
000190 97 96 81 bb 7a 5c 85 bc 5a c3 a2 ba 3e 83 f7 b8
       -0.0039547193 -0.016279448 -0.0012417838 -0.000118023236
0001a0 6e 95 cb 3b cb 43 b8 3c de 29 9e 3c f8 a0 34 3c
       0.0062128818 0.022493264 0.019307073 0.011024706
0001b0 0d 51 8a 3b 1a 77 7f bb 50 9d e7 bb 0b 9b 9d bb
       0.004221088 -0.0038980902 -0.0070683137 -0.0048097423
0001c0 3b 3c 52 3b 08 77 37 bb a2 be ab bb 49 f1 66 ba
       0.0032079357 -0.0027994532 -0.005241231 -0.0008809758
0001d0 ab 03 d1 bb 45 9d 11 bc 12 71 43 3a 62 de 30 bc
       -0.006378611 -0.008887594 0.00074555085 -0.010795208
0001e0 a9 29 0c 3a 99 87 a9 3b 0f 6b f0 ba a3 a4 8a 3c
       0.0005346784 0.005173635 -0.0018342453 0.016924208
0001f0 13 fe 92 3c 47 ae 10 3c b1 8d c0 3c 73 9d 67 bd
       0.017943418 0.008830613 0.023505064 -0.05654664
000200 6f a2 5e bc 4f b0 90 3b 05 66 88 bd 31 58 e0 bc
       -0.013588532 0.004415549 -0.06660084 -0.027385803
000210 64 32 bc 3b 82 22 b2 b9 0f 5f cd bc 47 0e ba bc
       0.0057433117 -0.00033976516 -0.025069742 -0.022711886
000220 b0 d6 f8 3c b0 ed 3c 3c 69 af fd 39 df fa df 3b
       0.030375808 0.0115312785 0.0004838661 0.006835326
000230 37 b2 a7 bc c3 79 f2 3c c2 7d 40 3c 18 f5 f6 3b
       -0.020470722 0.029599076 0.011748733 0.0075365417
000240 3e 1b 30 3d b9 83 40 3c 2e ab 71 3d 6d f1 fb bc
       0.04299473 0.011750155 0.05900114 -0.03075477
000250 1c 94 77 bc e4 86 81 3d 31 08 14 3d f6 f2 8e 3d
       -0.015110996 0.063245565 0.036140624 0.06979935
000260 ef 15 c2 3c 33 a8 28 3c 6f 68 6f 3c 71 0e 0c bd
       0.0236921 0.010294008 0.014612301 -0.03419346
000270 ea 40 54 bc c7 9a 3f 3c 95 28 9a 3b 60 bc 97 3b
       -0.01295493 0.011694617 0.004704545 0.0046306103
000280 51 96 1c 3c 7d ac 73 3c 29 92 c0 bc 1e 4f 4c bc
       0.009557323 0.014872667 -0.023507195 -0.012470035
000290 aa 26 cb bc 2f 77 7d 3c 6e a7 e3 3c 0e bb 82 ba
       -0.02479871 0.01547031 0.027789798 -0.000997396
0002a0 45 de 59 bd 86 71 43 bd 47 bd 9d bc 0a d5 a9 3c
       -0.05319049 -0.047715686 -0.019255294 0.020731468
0002b0 4c b4 33 3d b7 5f 82 3d cd 66 04 bd ba 32 4d bc
       0.043873116 0.063659124 -0.0323246 -0.012524301
0002c0 61 69 e8 3c 6b dc 6e 3c f6 a6 04 3c f3 de ac 3c
       0.028370561 0.014578919 0.008096447 0.021102404
0002d0 fa 2f 53 3d 14 1c a7 3d 99 66 8d 3d fb 2f 89 3d
       0.051559426 0.08159652 0.069043346 0.06698605
0002e0 ab fa 27 bc 4d 42 b4 3d a2 d5 a2 3d 36 86 36 be
       -0.010252635 0.08801708 0.079509035 -0.17824635
0002f0 79 95 d7 3d 72 4c b5 3c f2 54 40 bc 40 31 bb bc
       0.105265565 0.022131179 -0.011739003 -0.022850633
000300 40 d3 d5 3c da 41 29 bc 74 05 c5 bc 43 ba 5c 3d
       0.026101708 -0.010330642 -0.024050452 0.05388857
000310 f9 e7 20 3d 76 7d 80 3c 78 91 e2 ba be b8 11 bc
       0.039283726 0.015684824 -0.0017285785 -0.008894144
000320 48 07 b8 bb 68 02 58 bc 56 6f d4 3b 84 bc f8 3b
       -0.0056161024 -0.013184167 0.006482999 0.007590832
000330 5e 73 d5 ba 3c b6 90 3a 98 0d f8 bb 89 8e 16 bb
       -0.0016284992 0.0011040638 -0.00756998 -0.0022973141
000340 b8 3b 5b 3c 04 fc 6a bc fa ac 1d 3c 18 c4 7a 3c
       0.013380937 -0.014342312 0.00962376 0.015305541
000350 82 c6 c5 3b ff ab 2c 3c bc d9 9b 3c 18 33 6d 3a
       0.006035627 0.010539054 0.019024722 0.0009048446
000360 e0 4c 35 3d 9b e0 d1 bd de bd 84 bc e0 ac c4 3c
       0.044262767 -0.10247918 -0.016203817 0.024008214
000370 4d 3b c3 bd a4 d7 b4 bc 1c 94 39 3c e7 ad 01 3d
       -0.09532795 -0.022075482 0.011326816 0.031659987
000380 55 21 b3 bc a3 94 16 bd 5c 3f 1f 3c aa 63 64 bb
       -0.02186648 -0.036762845 0.009719696 -0.0034849443
000390 e9 96 df bb 0e ce eb 3b 8f fb 0b bb 15 9f 1f 3d
       -0.00682341 0.0071961945 -0.0021359657 0.03897007
0003a0 4f db 73 bc c2 ff 12 3c 09 ba 10 3d 12 22 02 bc
       -0.01488383 0.00897211 0.035333667 -0.007942693
0003b0 16 6b 9f 3d 64 9e c6 bb 90 78 90 ba 97 8f 67 3d
       0.07784097 -0.006061362 -0.0011022259 0.056533422
0003c0 36 1a 9b 3d 34 a5 e3 3d 79 6e 53 3d f9 15 15 bb
       0.07573359 0.11115494 0.051619027 -0.0022748692
0003d0 39 48 8e 3c b3 bd 01 bd bd 5a 00 3d a9 da c7 3b
       0.017368423 -0.031675052 0.031336535 0.0060990644
0003e0 f5 39 9d 3c 2a 49 c4 bc b1 15 a2 3c bc 8f 24 bd
       0.019192675 -0.023960669 0.019785734 -0.04017614
0003f0 a7 8d d0 bb e3 ed 88 bc 5b c8 1b bd 8a a3 25 3c
       -0.0063645425 -0.016714996 -0.03803287 0.0101097915

conv1.bias f4 [16]
000000 9e cf 26 3e 2d 74 97 bd 01 2d 87 3d a6 0c 97 3d
       0.16290137 -0.07395206 0.06600381 0.073754594
000010 fa f2 28 3e f6 79 2c be f8 a7 2d 3e f8 8a 91 bd
       0.16498938 -0.168434 0.16958606 -0.07106584
000020 b8 fc 00 3e cc 61 51 bd 81 16 55 3d c8 5c 04 be
       0.12596405 -0.051118657 0.052023415 -0.12926018
000030 de 9b 5c bd dc 78 fb 3d b1 31 83 3e e1 7a 79 3e
       -0.053859584 0.122789115 0.2562385 0.24363281

conv2.weight f4 [32, 16, 3, 3]
000000 a9 aa 81 3e f1 66 ed bb d1 0d 33 3e c7 27 88 3e
       0.25325516 -0.0072449376 0.1748574 0.26592848
000010 03 52 9d 3d c1 ed 83 3e f7 5e 0d be 7f 4b d3 3d
       0.07681658 0.2576733 -0.13805757 0.10317134
000020 47 3d 49 3e a0 6c a7 bb f5 3a 70 3e b0 4e 28 bd
       0.19652282 -0.0051093847 0.2345999 -0.041090667
000030 b0 fa 86 3e 1f 24 01 3f 11 44 4a 3e 64 63 25 3e
       0.26363134 0.5044574 0.19752528 0.16151196
000040 95 2a bf 3e fe ac 7e bd 45 37 67 be 3e 62 2b be
       0.37337175 -0.062176697 -0.22579677 -0.16736695
000050 7d 45 3c 3e 25 bc 22 be 99 28 83 bd 02 17 12 be
       0.18385883 -0.15892084 -0.06404228 -0.1426659
000060 44 ea cb 3d 06 b4 10 be 9d 02 c0 3c eb 7f a2 3d
       0.09956792 -0.14131173 0.023438746 0.07934555
000070 38 15 98 be cb e0 8b 3d 13 dd 9c be ae d4 95 be
       -0.2970369 0.06829985 -0.30637416 -0.29263824
000080 3b b5 26 be 5f 78 01 bd a1 49 ef be 73 24 1a be
       -0.16280071 -0.031608935 -0.46735862 -0.15052967
000090 91 1f 97 3e ab ec 11 3e e5 d5 f4 3d d1 18 74 3e
       0.2951627 0.14250438 0.1195486 0.23837592
0000a0 b0 1e a2 3e 03 28 e2 bd d5 4b 78 3e a9 b4 45 3d
       0.31664038 -0.11042788 0.24247678 0.048267994
0000b0 a0 2e 2e 3e 5a cf 8a 3c 11 48 56 3b 2d 91 19 be
       0.17009974 0.016944576 0.0032696764 -0.14996786
0000c0 16 33 89 bb 20 56 00 bf 3e 39 28 be 68 cc 2a bd
       -0.004186998 -0.50131416 -0.16428086 -0.041698843
0000d0 f2 ad 85 3c 8e e3 82 be 83 61 a7 bd c5 4b 24 be
       0.016318295 -0.25564235 -0.08172896 -0.16044529
0000e0 b9 8d 11 be 34 f3 21 3e 3e 97 f6 bc cc 48 a5 3d
       -0.14214219 0.15815431 -0.030101415 0.080705255
0000f0 ad 52 3b 3e fa c3 02 3e b3 6a 07 bd 88 cd 4d 3d
       0.18293257 0.12770072 -0.03306074 0.050244838
000100 fe cd 35 3c 67 27 2e bd e8 df 91 be 7a 68 d4 3d
       0.011096476 -0.042518046 -0.2849114 0.1037149
000110 fc ce 9c bd b8 08 bf bd 63 9d a8 bd bf 0e 99 3d
       -0.07656667 -0.09327835 -0.08233144 0.07473516
000120 c8 cf dd bd 71 af 8f be 38 66 05 3d 72 c6 32 3d
       -0.10830647 -0.2806354 0.032568187 0.043646283
000130 27 ae 1f bf 08 09 42 be 9a 43 76 bd 15 36 5f be
       -0.6237511 -0.18948758 -0.060123064 -0.21797974
000140 a9 5f 6f 3d 38 2c 24 bd 2d 9e ab 3d fd 92 78 3e
       0.058440838 -0.040081233 0.08379779 0.24274822
000150 2f ae 87 bc 54 91 29 3d 44 d9 92 3d e8 65 84 bc
       -0.01656255 0.04139836 0.071703464 -0.016161874
000160 9b 91 f4 bc 24 95 37 3e 85 0d 67 3d 96 2c 0f 3d
       -0.029854586 0.17927986 0.056409378 0.03495463
000170 ab d8 05 3e 64 53 6e bc 36 07 b1 3d f4 af 06 be
       0.13070934 -0.014546249 0.086439535 -0.13153058
000180 94 63 14 3e 4f 09 55 be b2 9e f2 3d 66 cf e4 3d
       0.14491111 -0.20804332 0.11846675 0.111723706
000190 63 a2 44 3e d4 f9 29 3e 5e 0c c5 bd 31 c2 99 be
       0.1920257 0.16599208 -0.096214995 -0.3003097
0001a0 fa a4 37 39 af 08 ce bd c2 0d 95 3c 14 cf d9 bd
       0.00017513699 -0.1006025 0.018195037 -0.106352
0001b0 0a 39 1b 3e 5b 2c 86 3d 51 2d ff bc ad 18 b2 3e
       0.15158477 0.06551429 -0.031149538 0.3478445
0001c0 40 90 cf 3d eb d4 1c 3e ca c0 34 bd d0 cd 5d 3d
       0.101349354 0.15315597 -0.04412917 0.054151356
0001d0 27 57 4e bd de cb 07 be ac 0e 35 be a5 38 85 bd
       -0.050376084 -0.13261363 -0.17681378 -0.06504945
0001e0 7d 29 68 bd 04 b1 69 be b2 fb 0d bc 69 6e 9a bd
       -0.05668019 -0.22821432 -0.008665966 -0.0754059
0001f0 2c 41 4a 3c ba e9 b8 3d 42 26 33 be 91 7b 39 be
       0.01234464 0.09028955 -0.17495063 -0.18113543
000200 8d 0f 64 3d ad 07 a3 bd 88 f2 12 bd a7 72 fa bd
       0.055678893 -0.079604484 -0.035875827 -0.122288994
000210 4f e4 56 be 70 6e 36 be 74 bb 9d bd 69 94 94 bc
       -0.2098553 -0.17815566 -0.077017695 -0.018137174
000220 07 e7 59 be 5b f6 f0 3c 31 d2 2c be 16 8e 2b 3e
       -0.21279536 0.029414346 -0.16877057 0.1675342
000230 b1 65 8b 3d 23 72 c3 3d 4a 68 7a be 4f 06 28 be
       0.068065055 0.09543254 -0.24453846 -0.16408657
000240 98 77 82 be 83 ea d6 3c f3 f5 d9 bc 67 23 90 3d
       -0.25481868 0.02623487 -0.026606536 0.070380025
000250 b1 c1 d4 3a df e6 9f bd 0d 66 a4 bd 0f 2d b3 3c
       0.0016232041 -0.07807707 -0.08027277 0.021872072
000260 f2 b8 63 3c 21 5a 53 be 89 74 d7 3d 53 9c 9c bb
       0.013899075 -0.2063985 0.10520274 -0.0047793775
000270 44 3d b8 b9 43 09 3e 3e be 82 cd bd eb 3a 45 3e
       -0.0003514086 0.1855822 -0.10034703 0.19260757
000280 0f f3 cd 3c f2 0a 3d be 9c a4 6b 3e 34 58 18 3e
       0.025140313 -0.18461207 0.23012012 0.14877397
000290 cb 08 2c 3e dc 26 d4 3d e7 b1 b1 bd a0 4d f8 bc
       0.16800229 0.10358974 -0.0867651 -0.030310452
0002a0 83 f8 05 be d9 15 e9 bd 4d 83 a6 bd 61 37 70 be
       -0.13083081 -0.1138112 -0.081305124 -0.23458625
0002b0 d1 ed 6d 3d b0 35 94 3d 7e b9 a0 3c 5a d8 16 3e
       0.058088128 0.072368026 0.0196197 0.14730969
0002c0 2d 7d f7 bd 1b 15 28 3e 6d a3 11 3e ae c9 31 3e
       -0.12084422 0.16414301 0.14222498 0.17362091
0002d0 1d b2 02 bf 8a 78 a2 be a0 dc 48 3e f1 f7 f3 3d
       -0.5105303 -0.3173259 0.19615412 0.119125254
0002e0 ce cf df 3d 1e c7 d1 3d 50 4f f1 bd e0 cf 68 bc
       0.109283075 0.10243057 -0.11782706 -0.0142097175
0002f0 8c 93 0e 3e 27 34 97 3e f1 89 b9 3e 12 b1 c7 bd
       0.13923472 0.29531977 0.36238053 -0.0975057
000300 85 3d f7 3e 46 ee 9c 3e 5f 7d ae bd 2c aa 08 3e
       0.48289123 0.30650538 -0.085200064 0.13346165
000310 f7 a0 df bd f7 9a c7 3a 2e 1c 9c be 03 11 5f 3e
       -0.109193735 0.0015228678 -0.3049025 0.21783833
000320 35 5d 45 bd 1b 11 cb 3e f4 cd 5e 3e c5 91 b2 3c
       -0.048184592 0.39661488 0.21758252 0.021798024
000330 38 0d 62 3d 6a 15 b9 bc 5f 8f 28 be 82 99 21 3e
       0.055188388 -0.022593219 -0.16460942 0.15781215
000340 54 4f 86 3e ea 7e 09 bd c8 44 74 3e f6 aa eb 3d
       0.26232398 -0.0335683 0.23854363 0.115072176
000350 0f bc 9b 3d a4 b6 c8 bc 13 77 45 be 1a 71 65 bd
       0.07604229 -0.024501152 -0.19283704 -0.056016065
000360 cc a3 da be 94 46 d6 be 7e 8d 0c 3d ff 6a df be
       -0.42703092 -0.41850722 0.034314625 -0.4363632
000370 5c a2 cc be 7a 4d 91 3d 0b dd 8e be 78 ee 77 bd
       -0.3996762 0.070948556 -0.27903017 -0.060530156
000380 6b 77 6f 3e 6f cc 1c bd 49 12 11 bd 1a 0b f4 3d
       0.23385398 -0.0382809 -0.03541783 0.1191618
000390 b6 af e2 3d 50 25 fd 3d 06 1f ea 3d 3c 2c b1 3c
       0.110686705 0.123606324 0.114316985 0.021627538
0003a0 b2 a4 b4 3d 2a 3e 7c 3e e4 45 5d 3c 69 b9 f0 bc
       0.08820476 0.24633089 0.013505433 -0.029385285
0003b0 e2 a0 cd 3c 83 5c 78 3e 2e 24 89 3e ec 1d 34 3e
       0.025101129 0.2425404 0.26785415 0.1758954
0003c0 d7 f6 17 be 6f 41 4b bd c6 2a 2d 3e 8a b6 86 bd
       -0.14840256 -0.04962295 0.16910848 -0.06577785
0003d0 80 43 c0 3c 13 22 68 3d 3a ae cc bc 0e 7d b5 3c
       0.023469687 0.05667312 -0.024985421 0.022154357
0003e0 e4 c8 11 bd f3 b2 f6 3c 88 a5 bc 3d e3 2b d0 3c
       -0.035591975 0.030114627 0.0921126 0.025411552
0003f0 91 ae 4c bd bc 0d 6e 3d 9f 7d 70 3c f2 8b ae bc
       -0.049971167 0.058118567 0.014678388 -0.021306966

conv2.bias f4 [32]
000000 47 3b ee 3d ea 39 a8 3d a1 cf fe 3d 49 bb 2e 3e
       0.116324 0.08214171 0.12441946 0.17063631
000010 89 da 86 3d 05 5a f6 3d f1 15 cb 3d 6a 12 32 3e
       0.06584651 0.120288886 0.09916294 0.17389837
000020 51 87 11 3e 6f a7 a4 3d eb 35 7e 3d 01 6e 1d 3e
       0.14211775 0.08039748 0.06206314 0.15373994
000030 55 42 47 3d 9e 91 bd bd 74 a1 de 3c 63 e1 be 3c
       0.048647244 -0.0925629 0.027176596 0.023300832
000040 6c f8 f0 3d 36 a1 b1 3d f7 c5 16 3e 45 92 9e 3d
       0.11766133 0.08673327 0.14723955 0.077427424
000050 83 83 ad 3d d5 be c1 3d 3e 6a 83 3d 52 a6 ab 3d
       0.084723495 0.094602264 0.064167485 0.083813325
000060 12 57 a9 3d a7 3a 5e 3e ea 4b 65 3e c7 45 67 3e
       0.082685605 0.21702062 0.2239224 0.22585212
000070 5f a6 ef 3d f5 c0 2f 3e dd 4d fd 3b 93 47 92 bd
       0.11701655 0.17163451 0.0077302293 -0.07142558

fc1.weight f4 [64, 800]
000000 61 0a 6a 3c 44 d0 d0 bb f1 44 0a bd aa 2f da 3c
       0.014284701 -0.0063724834 -0.033757154 0.026634056
000010 69 61 e0 bc aa 81 b8 bc bf 05 a9 bc 83 d3 63 bc
       -0.027390199 -0.022522766 -0.020632623 -0.013905409
000020 e7 c4 cb 3c 32 93 7e ba f2 53 f4 bc 57 ba 3c 3c
       0.024874164 -0.0009711265 -0.029825184 0.011519036
000030 88 3e d6 3c 61 5a 8b bc 64 b4 b3 bb 3c f7 d8 bc
       0.026152864 -0.01701087 -0.0054841507 -0.026485078
000040 30 6d f1 ba 50 89 ee 3c 9f fb c5 3b 17 e8 2f 3b
       -0.0018419381 0.02911821 0.0060419585 0.0026841217
000050 4b ca 00 bd ab 66 8e 3b 60 7d 2f 3b 50 aa b9 bc
       -0.03144292 0.004345735 0.002677761 -0.02266422
000060 08 ad 6f 3c 42 31 a3 bc 4c 97 a2 bc 2f 01 ac 3c
       0.014628656 -0.019920949 -0.019847535 0.020996658
000070 80 a7 0d 3c ec ee 0c bd b4 6a 10 bd 4a a8 fd bc
       0.008645892 -0.03440754 -0.03525801 -0.030964036
000080 21 59 ee 3b 59 15 5e 38 7c 72 18 bd 52 5d 00 3d
       0.0072738086 5.2948806e-05 -0.037218556 0.031338997
000090 62 a7 a2 bb 92 a0 a8 3b c0 38 24 bc 0d 5a 84 bc
       -0.0049638012 0.0051460946 -0.010023296 -0.01615622
0000a0 fe 15 d5 3c 15 0d ef bc 8c 8f ae bc d3 fa 2c bc
       0.026011463 -0.029181043 -0.021308683 -0.010557848
0000b0 71 6c cf bc d6 96 64 3c 10 32 80 3c b7 d8 b9 3b
       -0.025320264 0.013951978 0.015648872 0.0056715864
0000c0 c1 43 13 bd 4c 23 0d bd 0a 25 ec bc d8 32 ed bc
       -0.035953287 -0.03445749 -0.028826255 -0.028954908
0000d0 9b 11 b6 bc ea e3 e0 3c d3 3d 7f 3c d7 87 a0 bc
       -0.022225192 0.027452428 0.015578705 -0.019596023
0000e0 71 88 dc 3c 03 9a df 3c 90 51 d9 39 df 01 c7 bb
       0.02692053 0.027295118 0.00041450234 -0.006073221
0000f0 30 4b ef 3c dd 43 ea bb f7 7c 43 bc 87 e0 86 3c
       0.029210657 -0.007149203 -0.011931649 0.016464485
000100 37 41 d7 3c 6d 3e 9f bb b4 cc cb bc e4 7a 45 bc
       0.026276214 -0.0048597367 -0.024877883 -0.012053225
000110 01 2c 6a bc 72 85 c2 3c c3 36 fb 3c 1c 50 f2 3c
       -0.014292718 0.023745272 0.03066576 0.029579215
000120 dd ee b3 38 95 3a 82 3c 10 eb 34 bb 5e eb ee bb
       8.579877e-05 0.015897075 -0.0027605928 -0.0072912415
000130 7c b3 9c bc 77 af c9 3c 0e 5b b3 3c 8d 42 97 3c
       -0.019128554 0.024619801 0.021894004 0.018464351
000140 a4 4b 72 3c 55 87 9a bc a8 80 bc 3c aa 2e d1 3b
       0.014788542 -0.01886336 0.023010567 0.0063837366
000150 4e 91 5e 3c 4b 16 93 bc ed 9f 52 3c 6a 7a 07 bd
       0.013584448 -0.017954966 0.012855512 -0.033075728
000160 9d 60 b5 bc 29 5a 13 bc f1 af b1 bc cc 16 9b 3b
       -0.022140795 -0.008993664 -0.02169034 0.004732942
000170 ba f3 e2 38 04 f9 fa 3c c4 f4 e3 3c ef 5b 81 3c
       0.000108219174 0.030636318 0.027826674 0.015790908
000180 93 19 9d bc 3d 87 87 3c 95 e9 a8 3c 7a 19 6d bc
       -0.019177234 0.016543979 0.020619193 -0.014471406
000190 9c bf 5b bc 1c da 0b bd ee 8e 38 3c fe e4 98 bc
       -0.013412382 -0.034143552 0.011264546 -0.01866388
0001a0 37 64 d3 ba 95 d7 62 3c 08 dc 03 bd 47 27 49 3c
       -0.0016127889 0.013845344 -0.03219226 0.012277431
0001b0 3a 6d fb 3c 30 00 0a 3d 66 4e 2d 3c 5d 1d e7 3b
       0.030691732 0.033691585 0.010577774 0.007053061
0001c0 91 98 6e 3c 2e 7a 08 bd 77 a9 c0 bc 54 fb 43 3c
       0.014562742 -0.033319645 -0.023518307 0.011961777
0001d0 96 be aa bc b3 9d 16 bd ee 36 8f bc a5 47 ff ba
       -0.020842832 -0.036771487 -0.017482247 -0.0019476308
0001e0 90 04 bc bc e0 f7 b4 bc 3a 1e 1b bd f6 af 25 bc
       -0.022951394 -0.022090852 -0.037870623 -0.010112753
0001f0 c6 a6 6f bc 26 79 a9 bc 68 1c c8 bc 1d 74 38 3b
       -0.014627164 -0.02068765 -0.024427608 0.002814538
000200 b5 08 20 3c 82 4b e0 bb 77 d0 ca bc a2 f6 be bc
       0.009767701 -0.0068449387 -0.024757607 -0.023310963
000210 1f 4f c9 3c 4b ff a3 3c f5 05 ff bc 5a d1 81 ba
       0.02457386 0.020019194 -0.03113077 -0.000990431
000220 45 43 66 ba 70 ea cf 3c d9 83 b5 3c 8d 5e e1 3c
       -0.00087838277 0.025380343 0.022157596 0.027510906
000230 51 5d df bc 66 e9 dd bc 20 24 00 bd 0b 49 70 b9
       -0.027266176 -0.027088832 -0.03128445 -0.00022915394
000240 18 0c 0b bd 15 bc ba bb a2 16 b5 3c f7 9b d0 bc
       -0.03394708 -0.0056986907 0.022105519 -0.025464995
000250 01 d2 71 3c 16 c3 44 3b 01 b2 4c 3c 7f 1c 3f bc
       0.0147595415 0.0030023507 0.012493611 -0.011664509
000260 08 c7 93 bc 1d 2e 9b 3b 51 ea 8a bc 3f 83 cf 3b
       -0.018039241 0.0047357217 -0.016957434 0.0063327844
000270 26 5b db b9 4b df 55 3c ad 25 d5 bc 33 a3 bd 3c
       -0.00041838846 0.0130537255 -0.026018942 0.023149109
000280 ce 15 ab 3c ad d1 94 3c 2b 55 f8 bc 1d f1 e3 bc
       0.02088442 0.018166387 -0.030314049 -0.027824933
000290 56 0a 86 bc 6b 7a 05 bd b1 70 99 3b 37 c2 dc bb
       -0.01636235 -0.03258745 0.0046826233 -0.0067370194
0002a0 93 4f c4 bc b7 4a d1 3c 16 8a 6d bc a2 bd 5f bc
       -0.023963725 0.025548322 -0.014498254 -0.013656052
0002b0 5b 2b 3a bc 42 e2 c8 bc 90 27 9c bc f6 92 f1 3c
       -0.011362876 -0.02452195 -0.019061834 0.029489022
0002c0 5a 24 e9 bb 42 95 99 3c 6d 5f 77 bc 6e 70 d9 bc
       -0.007114929 0.01874793 -0.015098435 -0.026542868
0002d0 ad 71 c9 3c 8e 21 d0 3c 3e 80 ed 3c 83 91 16 bd
       0.024590338 0.025406625 0.028991815 -0.036759865
0002e0 84 e5 41 3b b4 0c e5 bb 82 02 e7 3c f0 08 f8 bc
       0.0029586265 -0.0069900397 0.028199438 -0.0302777
0002f0 5a 41 9a 3c dc 97 96 3c a0 99 ac 3b 16 91 c6 bc
       0.01882999 0.018382959 0.005267337 -0.024239104
000300 3a 51 fe 3c 12 23 fa bb ec 49 35 3b e6 45 d6 3c
       0.031044591 -0.0076335752 0.002766247 0.026156377
000310 cf 47 b1 3c be c0 85 3c 3e 11 ec 3c af 1c 17 bc
       0.021640686 0.016327258 0.028816815 -0.009223147
000320 14 19 11 bd 0b 5f b0 bc ba df ca bb 79 fc 00 3d
       -0.035424307 -0.021529695 -0.006191221 0.031490777
000330 88 38 f3 3b ab f6 57 3c e6 66 72 bc 20 14 a0 3b
       0.0074225105 0.013181369 -0.014795041 0.0048852116
000340 a5 2d 66 3b a2 9e ec 3c e4 45 16 bd 1d 9e c2 bc
       0.003512242 0.028884236 -0.036687747 -0.023757035
000350 db c7 65 bc 9e 87 53 3c 84 6e da 3b 3e 33 92 3b
       -0.0140247 0.012910752 0.0066660065 0.004461675
000360 f1 77 36 3c 64 33 1a bd 55 76 13 ba f1 5e 13 bd
       0.011136995 -0.037646666 -0.0005625238 -0.035979215
000370 d2 72 e1 bc 6e 43 9e bc 5b e7 0b bd 43 ee 66 3c
       -0.02752057 -0.019319262 -0.034156185 0.014094892
000380 ba 58 dc 3c b6 58 5d 3c 92 fe cc 3c af 15 ae 3c
       0.026897777 0.01350992 0.025023732 0.021250574
000390 8b b4 4e 3c 1e ad 4e 3c 83 2d cb 3c af 14 86 ba
       0.012616287 0.012614517 0.024801975 -0.0010229553
0003a0 51 90 09 bb 0a 75 2b bc 27 56 9d 3c 85 1a d0 3c
       -0.002099056 -0.010464916 0.01920612 0.02540327
0003b0 07 26 4c 3c 0e 0e 0b bd dc 4d 19 bd ad 55 4b 3c
       0.012460238 -0.03394895 -0.037427768 0.012410563
0003c0 79 71 a2 3b 97 75 d8 bc bb d8 e9 bc 5d 4e db bb
       0.0049573747 -0.026423259 -0.028545728 -0.0066926912
0003d0 0c 15 7e 3b 02 8d 3a bc c9 ab ef 3b 68 4e 65 bc
       0.003876987 -0.011386158 0.0073141796 -0.013995744
0003e0 b4 ae 1d 3b 2e 98 d9 3c 54 ce 94 3c c7 35 8f 3c
       0.002406043 0.026561823 0.018164791 0.017481698
0003f0 3b 1b 13 bd 3d 17 b8 3c cd 00 d4 3c 94 c7 d9 bc
       -0.03591464 0.022472018 0.025879288 -0.026584424

fc1.bias f4 [64]
000000 a5 c4 a9 3c 26 44 b5 bc be 6c 47 3d 2d f1 e2 3d
       0.02072365 -0.022127222 0.04868769 0.11081157
000010 e5 a1 25 bd a4 4c c6 3d 88 24 f8 3c 75 b8 cf bc
       -0.040437598 0.09682587 0.030290857 -0.02535651
000020 5d 43 74 bc 59 cf 96 3c 9d c3 f3 3b ea 17 dd 3d
       -0.014908639 0.018409418 0.0074390904 0.10795577
000030 09 b6 d4 3d f3 df 37 bc c7 15 ea 3d e4 a6 53 bc
       0.10386283 -0.011222827 0.11429935 -0.012918208
000040 79 91 c5 3c ff 3d 24 3d 3c 0a 2b 3d ae 78 86 3d
       0.024117218 0.040098187 0.041757807 0.065659866
000050 ec 5b 11 bb bf 89 e8 b9 f4 4b cc 3d 68 74 9f 3c
       -0.0022180034 -0.00044353117 0.099754244 0.019464687
000060 f1 d1 ef 3c e3 03 62 3c 43 88 0d 3d 6c c8 ff 3b
       0.029274913 0.013794872 0.034553777 0.0078058746
000070 26 72 8f bc 80 79 8d 3d 53 3f af 3c d1 e4 d7 bb
       -0.017510485 0.0690794 0.0213925 -0.0065885563
000080 39 29 ee 3c eb aa 0b bd 05 55 0d bd 13 df 13 bc
       0.02907239 -0.034098547 -0.03450491 -0.009025353
000090 b3 37 a2 3d 5b 21 af 3d bd 31 c1 3d 44 b5 cb 3d
       0.0792078 0.08551284 0.09433315 0.09946683
0000a0 e0 e1 13 3e ea a5 23 3e 6f ef b6 3d 05 ed 60 3b
       0.14441633 0.1598126 0.08932387 0.0034320962
0000b0 60 94 61 3d f5 83 18 bd 75 dd 65 3b e4 d8 e2 3c
       0.055073142 -0.03723522 0.0035074626 0.027691312
0000c0 9b 72 bd bc 32 f0 2a bc 46 1b 88 3d 8a ed 67 bc
       -0.023125937 -0.010433244 0.06645827 -0.014155755
0000d0 0c 46 52 bc f8 45 83 3d 8f a7 84 3d 60 43 ce 3d
       -0.012834083 0.0640983 0.06477272 0.100714445
0000e0 e1 8f ca 3b c7 b4 99 3d e9 b5 41 3c 7f c7 d9 bc
       0.0061817025 0.07505184 0.011823156 -0.026584385
0000f0 fa fc 02 b8 12 32 8a 3c 84 13 69 3d a8 50 de 3d
       -3.1230018e-05 0.016869579 0.056903377 0.10855228

fc2.weight f4 [64, 64]
000000 b8 4f c2 3d 00 c6 f8 3a 06 de 18 be 4d a0 ea 3d
       0.094878614 0.0018979907 -0.14928445 0.11456356
000010 31 8a 85 3d 9c 40 2e 3e 60 8d a7 bd 62 45 fa 3d
       0.065204985 0.17016834 -0.08181262 0.12220265
000020 6c f6 a8 bd f1 a4 e5 3d 96 e1 8a bd be ba a6 3d
       -0.08250126 0.11213101 -0.06781308 0.08141087
000030 ed f3 d9 3d 55 8b b0 bd ae 55 25 3e b0 d2 65 3d
       0.10642228 -0.086203255 0.16145965 0.05610913
000040 27 68 e1 3e 3c f6 f2 be 3d 07 9f bd 2b ea 56 bd
       0.44024774 -0.47453487 -0.077650525 -0.052469414
000050 cf ba 31 3d cf 3c b8 bd 71 d8 df 3d 40 89 93 bb
       0.043391045 -0.08995973 0.10929955 -0.0045024455
000060 bd c6 90 bd e9 ec 97 3c 61 85 16 3e 90 37 78 bd
       -0.07069156 0.018545585 0.14699318 -0.060599864
000070 c0 02 40 bd 17 84 14 bd c7 94 9a bc a2 82 7e 3d
       -0.046877623 -0.036258783 -0.01886977 0.0621363
000080 37 29 93 3c e9 f2 a3 bd c5 66 92 3d 3f 7a 49 ba
       0.017963989 -0.08005316 0.07148508 -0.00076857576
000090 9f 32 87 be 4a f8 72 bd 7c 1f a4 3d b6 cf 8f bc
       -0.26405808 -0.05931882 0.08013818 -0.017555099
0000a0 91 52 36 3e b9 b3 45 3e f1 d1 2c 3d fb cc c2 bb
       0.17804934 0.1930684 0.042192403 -0.0059448457
0000b0 25 81 c5 bd 57 1e dc bc b3 39 ca bd 73 7a 05 3a
       -0.09643773 -0.026869936 -0.098742865 0.0005091794
0000c0 c1 39 df 3d 11 2a e9 3c 14 6f 6b 3c 7a 29 e6 bd
       0.108996876 0.028462442 0.014369745 -0.1123838
0000d0 9f d3 20 3d 11 3f d5 bc 54 3a be be 7a 38 a8 3c
       0.039264318 -0.026031049 -0.37153876 0.020534743
0000e0 c3 eb d1 bd 1b 86 6a b9 47 35 4a 3d 1d e1 0e be
       -0.10250046 -0.00022365937 0.049367215 -0.13953061
0000f0 aa 77 0d bc ad 75 ed be c4 a1 92 be 75 36 3b 3e
       -0.008634487 -0.46378842 -0.28639042 0.18282492
000100 1e 2b 7f bd a8 10 67 bd 6e 0a 9d 3c 37 dc 45 3d
       -0.06229698 -0.05641237 0.019170012 0.048305716
000110 6b d8 68 3d 86 59 b3 3d 12 fe e7 bd c0 69 1f 3b
       0.056847017 0.087573096 -0.11327757 0.0024324507
000120 68 26 f0 3d 0d aa c9 3c 3b 22 d4 bd f1 c5 39 bd
       0.117260754 0.02461722 -0.103580914 -0.045354787
000130 79 fc 28 be f9 44 aa bd 6e bb f0 3d e8 bf bf 3c
       -0.1650256 -0.08313937 0.117544994 0.023406938
000140 9c 00 34 bd b9 e4 dc bd 77 66 b2 bc 2b 27 94 3d
       -0.043945894 -0.10785813 -0.021777375 0.07234033
000150 5d 60 26 bd 83 97 2b 3c 7d 80 6c be e9 e4 96 bc
       -0.040619243 0.010473135 -0.2309589 -0.0184197
000160 33 c8 e7 bd e5 ef f5 bd 6b 6a 87 bd 6f 92 20 bd
       -0.11317482 -0.12008647 -0.066120945 -0.03920215
000170 82 c6 d2 bd 46 d9 f0 3a 93 f5 2d bd 46 0f e0 3d
       -0.102917686 0.0018375299 -0.042470526 0.10940413
000180 ff a4 57 3c 7f 4d e1 3c fe b6 14 3d f9 8e 6c 3d
       0.013161897 0.027502773 0.036307327 0.057753537
000190 91 f8 23 3e 36 90 12 3d 0b 87 9e bd 17 d9 f5 3c
       0.1601279 0.03578206 -0.07740601 0.030010743
0001a0 2d 6f 4f be f7 2a 82 3d 45 8b 9e bd de f2 8c bd
       -0.20257254 0.06355851 -0.07741407 -0.06882261
0001b0 5c 40 56 bd 58 d4 08 3c 78 c8 19 bd b8 8f ea 3d
       -0.05230747 0.008351408 -0.037544698 0.114531934
0001c0 57 11 8d 3c 2a 27 c2 bd 9b e0 99 bc a8 bc 6a bd
       0.017220182 -0.09480126 -0.018783858 -0.057308823
0001d0 c4 2d b2 be 74 25 dd 3c ec 35 16 3d 01 b8 52 3e
       -0.3480054 0.026995398 0.036672518 0.20578004
0001e0 97 43 8f bc 0e 06 50 bc bb 83 a8 bc 5b e1 a6 bd
       -0.017488284 -0.012696756 -0.020570626 -0.08148452
0001f0 40 c7 a3 bd 7a f5 c5 3d 67 88 2e be ae c6 4b bd
       -0.07996988 0.096659616 -0.17044221 -0.049750023
000200 d8 4f 1e 3d 0a 47 83 3d 26 2d 99 bd d0 c8 5d bc
       0.038650364 0.06410034 -0.074793145 -0.013536647
000210 84 3f 4b bd a4 d6 66 bd 60 f8 a6 3d d2 a8 c4 bd
       -0.04962112 -0.05635704 0.081528425 -0.096025124
000220 c4 d0 09 bd 4a 2c b4 bd 50 23 49 3d 00 98 3c 3c
       -0.03364636 -0.0879751 0.049105942 0.011510849
000230 40 ba 83 bd 88 b6 20 3d 66 76 f6 bd a8 b0 f7 3c
       -0.06432009 0.039236575 -0.120343015 0.030235603
000240 2e 3c f1 3d 50 31 82 bd 20 75 9c 3d bc a8 b4 3d
       0.117790565 -0.06357062 0.07639527 0.08821246
000250 d0 25 df 3d 90 e2 87 bd 2a 58 e3 bd 46 e9 e0 3d
       0.10895884 -0.0663501 -0.111008 0.109819934
000260 60 92 80 3b 6c f6 be bd 80 f9 88 bc 8c 07 42 3d
       0.0039236993 -0.09324345 -0.016720533 0.04737048
000270 bc 49 75 bd e0 51 3b 3c 9c d5 20 3d fe 74 8e bd
       -0.05988477 0.011433095 0.039266214 -0.06955908
000280 30 82 b4 bd e0 72 8d bb ec 3a 04 3d e8 c5 2a 3d
       -0.08813894 -0.0043166727 0.032282755 0.041692644
000290 80 4a 57 3c 40 e3 80 bd 08 e6 93 bd 02 7e d6 bd
       0.013140321 -0.062933445 -0.07221609 -0.10473253
0002a0 ae 7c c8 bd ec 13 7c bd 20 1d 2c bc 40 47 b6 bb
       -0.09789406 -0.061542436 -0.010504991 -0.005562693
0002b0 3e 97 86 3d 50 35 c5 3c 20 aa eb 3c b8 9f 9d 3d
       0.06571816 0.024073273 0.028767645 0.076964796
0002c0 3c 3a ed 3d 60 9c e2 3c b8 43 d7 3c 30 aa 45 3c
       0.11583373 0.027662456 0.026277408 0.012064502
0002d0 3c 0a 85 3d 50 15 ca 3c d0 16 b6 bd fe f9 c2 bd
       0.06496093 0.024668366 -0.0889107 -0.095203385
0002e0 f0 8e 15 3c ac 3d 92 bd 7e 4c f7 bd 7e fa d0 3d
       0.009128317 -0.07140669 -0.120751366 0.102040276
0002f0 80 4b ed 3a ae cf ea bd 00 46 2c 3c 82 b6 cb bd
       0.0018104166 -0.11465393 0.010514736 -0.0994692
000300 b8 64 ef bd 04 8b 5c bd 49 9b 4e be b3 3e 5a 3e
       -0.116891325 -0.053843513 -0.20176424 0.2131298
000310 f5 4d 12 bf 6a bb 40 3e a6 a3 6f 3c a9 67 c0 3d
       -0.57150203 0.18821493 0.014626419 0.093947716
000320 b8 5c a0 3d 8c 51 89 bd 2e 9d 45 3d 74 48 43 3e
       0.07830185 -0.06705007 0.0482456 0.19070607
000330 bf 77 22 3d 4e b9 bf 3b 78 03 29 3d 12 05 bf bd
       0.03966498 0.0058509475 0.041263074 -0.09327139
000340 f3 d3 ec 3e 16 1c 04 bf c7 04 97 3d 2b 08 b1 3d
       0.46255454 -0.51605356 0.07373958 0.08644136
000350 15 14 0e 3d 7b 01 8d bd b9 a4 80 3d 4a d4 ac bd
       0.03468712 -0.06885048 0.06281418 -0.084389284
000360 d4 fd d5 bd d2 45 d3 3c 65 79 6b 3c 8e 19 de 3d
       -0.104488045 0.025790129 0.014372204 0.10844718
000370 43 17 bd bd aa 98 7f bd 39 8c 99 3d 01 1d 4a bd
       -0.092329524 -0.06240145 0.074974485 -0.049344067
000380 5b a5 bf bd 8a ac b5 3d 83 32 fc bd d6 f9 93 bb
       -0.09357711 0.088708 -0.12314322 -0.0045158667
000390 78 99 44 bf aa ce e5 3d eb 7f be bc 49 40 46 be
       -0.76796675 0.11221059 -0.023254355 -0.1936046
0003a0 25 0b 2c bd 07 c8 00 3e 54 70 64 3e 5a 55 f5 3d
       -0.042002816 0.12576304 0.22308475 0.1197917
0003b0 c7 5a 72 3e f2 df 90 3d dd 6f 08 bd 20 72 a6 bb
       0.23667441 0.07073964 -0.033309806 -0.0050795227
0003c0 ae 7b b3 3d 83 d2 4f 3d f7 9b 90 3e c1 97 af bd
       0.087638244 0.05073787 0.28243992 -0.08573867
0003d0 81 59 cd 3c bb 3d f8 bd 91 02 7c 3b 76 75 67 3d
       0.025067093 -0.12121149 0.0038453678 0.056508504
0003e0 a0 39 f2 3d 92 6b d0 bc dc af f1 bd d3 d7 52 be
       0.11827397 -0.025441919 -0.11801121 -0.20590143
0003f0 de c2 de 3d 15 7e 3c be 33 a5 d9 be 5e 55 b6 3d
       0.10877012 -0.18407471 -0.4250885 0.08903001

fc2.bias f4 [64]
000000 3e e3 e8 3d d6 02 11 3e d0 19 21 bd f5 41 15 bd
       0.11371468 0.14161238 -0.039331257 -0.036439855
000010 2d d2 10 3e 76 9f bd 3d d7 21 23 be 42 6a 10 bd
       0.14142676 0.092589304 -0.15930878 -0.035257585
000020 a4 47 e8 3d 80 62 5f bc ce be bb bd 0f d5 1a 3d
       0.11341789 -0.013634324 -0.091672525 0.037800845
000030 b7 3b 85 bc 10 d8 ad 3d 8f dc bf 3d b8 d5 7d bd
       -0.016263826 0.08488476 0.0936824 -0.061971396
000040 7c 9a c1 3d 53 a9 bc bd f4 e7 10 bd c3 c7 56 bd
       0.09453294 -0.092119835 -0.035377458 -0.0524366
000050 1f d2 88 3c 95 3d 64 bc 08 71 33 3c a4 da bd 3d
       0.016701756 -0.013930698 0.010952242 0.09270218
000060 ae bc 00 3e dc 05 40 3b dc c4 6a 3c d9 4e 45 bc
       0.12571976 0.0029300367 0.0143291615 -0.0120427245
000070 86 56 f4 3c ee 21 bd 3d 96 77 3c 3e f6 7f 7e 3d
       0.029826414 0.09234987 0.18404993 0.06213375
000080 b0 dd b2 3d ac a5 3f 3e ce e8 76 bd 23 4b 5c 3e
       0.0873369 0.18715543 -0.060280614 0.21513037
000090 58 ef 0f be 50 29 92 bc 29 31 4c 3e 40 70 81 3d
       -0.14056146 -0.017841965 0.19940628 0.06320238
0000a0 01 45 ad bc 45 44 2d 3e 79 f8 a3 bc 9a a9 44 3e
       -0.021151068 0.16920574 -0.020015942 0.19205323
0000b0 90 63 d3 bd 65 e1 b5 3d 49 a3 3d bd 47 da 98 3d
       -0.103217244 0.08880881 -0.0462983 0.07463508
0000c0 a2 a9 b9 3d 37 f6 09 bd 4a 19 82 3e 46 ad 29 3d
       0.09065558 -0.033682074 0.2540992 0.041425012
0000d0 32 f3 79 bb 0c 6b 47 bd ed 31 b2 bd e7 15 1e be
       -0.003813934 -0.048686072 -0.08700929 -0.15438043
0000e0 b5 c0 11 3e 5f 3a cd 3c f9 dd 20 3e 78 a9 8d bc
       0.14233668 0.025052248 0.15709676 -0.017292723
0000f0 69 ac 2c 3c 1e ea c1 bc d7 b6 29 3e ec 3a 9b 3d
       0.010539153 -0.023671206 0.16573654 0.07579598

fc3.weight f4 [7, 64]
000000 de dd 4f be 80 39 58 3c 7c 92 a6 bd 1e 2e 10 3d
       -0.2029948 0.013197303 -0.081334084 0.03520023
000010 5e f9 a4 3d 28 a9 e3 3d 28 17 91 3d 20 5f ce bd
       0.080553755 0.11116248 0.07084495 -0.100767374
000020 d9 bf 5f 3d 88 df 04 3d 34 2a 5a 3d 1b 41 49 bc
       0.05462632 0.03243974 0.053262904 -0.012283589
000030 58 a5 04 be 9a 65 ef 3d cd 02 6c bc 8b c2 a8 bd
       -0.12953699 0.11689301 -0.014404965 -0.08240231
000040 80 63 86 be 92 56 8c 3c 04 2a 00 bd 10 77 68 be
       -0.26247787 0.017131124 -0.03129007 -0.22701669
000050 d7 af 9f 3e 98 3d 18 3f 3c 2b 1c 3d 5a 18 48 be
       0.31188843 0.59468985 0.03812717 -0.1954054
000060 c9 39 91 bc 08 52 bc 3c 04 01 7c bd a7 a3 e4 3d
       -0.01772775 0.022988334 -0.061524406 0.11164027
000070 49 85 3f be 42 a5 eb bc 8e 90 88 be f6 fa 18 3e
       -0.18703188 -0.028765325 -0.26672786 0.14939484
000080 b7 d6 85 be 9b d6 20 be 02 7b dd 3e 0b 07 65 be
       -0.26140377 -0.15706865 0.4325791 -0.22365968
000090 35 60 04 3e de 7d de be 5e 04 b7 bc e6 41 32 be
       0.12927325 -0.43455404 -0.02234095 -0.17407951
0000a0 4b c4 91 3d 37 e3 f4 bc eb 59 ad 3d 9d 03 2f be
       0.07117518 -0.0298935 0.08464416 -0.17091222
0000b0 80 42 dc bc df 86 9b be cc 6b 0e be 48 f8 83 bd
       -0.026887178 -0.30376336 -0.13908309 -0.0644384
0000c0 9e 7c 60 be 0a e8 f3 bd 1a 1b d9 3c f5 f4 10 be
       -0.21922538 -0.11909492 0.02650218 -0.14155944
0000d0 29 3a 5f 3e dc fd a2 bd d8 80 d3 be f0 09 8c 3d
       0.2179953 -0.07958576 -0.41309237 0.06837833
0000e0 57 e3 3d be e7 c4 82 be 94 4c 37 3d f7 3f ab be
       -0.18543755 -0.2554085 0.044750765 -0.3344724
0000f0 fd a1 c9 be 31 00 44 3e 2b c2 20 be 06 bf 47 3c
       -0.393814 0.19140698 -0.15699069 0.01219154
000100 15 25 26 3a d6 9e 8f 3d 62 e4 d4 3d 2b d8 2e be
       0.0006337923 0.070127174 0.10395123 -0.17074649
000110 50 d7 81 be f2 1a 1e bf 1b 96 3a bd 18 5a 8d be
       -0.25359583 -0.61759865 -0.045553308 -0.276078
000120 85 ef 35 be 14 a4 cf bd b8 b1 47 3d b9 c7 ea bd
       -0.1776715 -0.10138717 0.04875347 -0.11463875
000130 a5 8e a4 bd 5a 21 20 3f 09 1d 05 be 9a 24 00 be
       -0.0803502 0.6255089 -0.12999357 -0.12513962
000140 c8 60 38 be 91 b4 2f 3e 84 59 c1 3d c9 15 2f be
       -0.18005669 0.17158724 0.09440902 -0.17098154
000150 e3 9c 69 3e f5 41 02 be 6b 48 55 3d c8 e9 81 bb
       0.22813754 -0.12720473 0.052071016 -0.0039646365
000160 ab 1e 3a be 5e a4 42 3d a0 fc fc bd b4 5a 04 be
       -0.18175761 0.047520034 -0.12352872 -0.12925225
000170 82 12 15 3d e1 cb 01 bd bc d3 f8 be aa 5f e8 3d
       0.036394604 -0.031688575 -0.4859904 0.113463715
000180 b1 56 3a be 1c 99 33 bd 94 9f 96 3e 9c 89 6e bd
       -0.18197133 -0.04384719 0.29418623 -0.058236703
000190 46 ab 48 3c ff a3 cd 3d b5 2b 16 be c4 b7 06 be
       0.012247866 0.100410454 -0.1466511 -0.13156039
0001a0 38 ce 84 3d 53 76 cb bd 90 26 60 3d 15 97 f1 bc
       0.064846456 -0.09934678 0.054724276 -0.029490987
0001b0 1e cc a6 bd 0f cc 95 3e 40 00 88 3e bd a7 1b 3d
       -0.08144401 0.29257247 0.2656269 0.038001765
0001c0 11 3a 0b be 3b 07 d9 be cb 0b cf bd 6b 98 28 be
       -0.1359637 -0.4238833 -0.10109671 -0.16464393
0001d0 43 87 19 3e 4e bf 8e bd 8d ba 90 3c 19 04 da 3d
       0.14993005 -0.06970082 0.01766708 0.10645313
0001e0 bb 99 18 3c 5f 9e 1c 3e 81 75 b8 bc 71 3f eb bd
       0.009313996 0.15294789 -0.022516968 -0.1148671
0001f0 d6 6f 5e 3e 7b 6e 6c 3e 3f 36 88 be 97 e9 b9 3c
       0.2172235 0.2308902 -0.26603886 0.022694392
000200 79 48 d1 3d 3f 53 1c 3d d0 c7 b9 3c 60 bc 4c bc
       0.10218901 0.038165327 0.022678286 -0.012496084
000210 22 63 15 bd 4a ae c2 3a e2 4c 02 bd 89 6e 98 3d
       -0.036471494 0.0014852968 -0.031811602 0.07442958
000220 68 58 28 3d 70 dd 15 bc 1c d7 ef 3d 86 b2 55 be
       0.041099936 -0.009147033 0.11710951 -0.20868883
000230 f5 af 89 3e 91 8a 5c 3e 3f 41 7c be 66 50 10 bd
       0.26892057 0.21537234 -0.24634264 -0.035232924
000240 ae 87 bd bc 11 94 a8 bc e8 0c 10 3d 78 4d 25 3e
       -0.023135986 -0.020578416 0.03516856 0.16142833
000250 11 ef b9 3d 07 27 57 be dc b8 02 be 4e 1a b2 3c
       0.090788014 -0.21010982 -0.12765831 0.021741059
000260 e2 53 95 bd 84 4b 54 be 52 79 cd 3d 6c 2e 65 3e
       -0.0729139 -0.20731932 0.10032906 0.2238099
000270 c8 6b 98 3d 6e 0a 7a be aa 44 f9 bc 44 3b 5c 3e
       0.07442433 -0.24418041 -0.03042825 0.21506983
000280 97 34 c6 bd 34 cd 1f bf 43 6d c7 3e 84 2b 09 3d
       -0.096779995 -0.6242249 0.38950548 0.033488765
000290 2f 4b 42 bd 9e 67 c7 3d 7d b9 46 be a5 0d 83 bd
       -0.047434982 0.0973656 -0.19406696 -0.06399087
0002a0 ed 34 1d 3f 8f 59 ca bd 11 47 71 3d 22 f2 9d bd
       0.61408883 -0.09880363 0.058905665 -0.07712199
0002b0 8c dd b6 3d a2 9c a8 3e a9 22 86 3e 22 70 c4 bd
       0.089289755 0.32932 0.2619832 -0.095917
0002c0 1b 71 12 be 27 a2 ce 3d 88 45 30 be 1f f5 65 bd
       -0.14300959 0.10089522 -0.17214024 -0.05614197
0002d0 89 33 c5 3d 00 85 62 ba 61 44 60 be 81 51 0a bd
       0.0962897 -0.00086410344 -0.21901084 -0.033769134
0002e0 8e 54 32 be b4 ca 77 bd 25 96 18 be 28 ce 5b 3d
       -0.17415068 -0.060496047 -0.14901026 0.053663403
0002f0 4d fb 6b 3e 9e 35 d2 3d 7d f3 bc 3d f7 e4 c1 bd
       0.23045082 0.10264133 0.09226129 -0.094675
000300 b1 4a 4a be 1f 9d 0a 3e da 66 92 3d 2a a5 2a be
       -0.19755055 0.135365 0.07148524 -0.16664568
000310 b3 53 4f bd c9 59 17 be ef 62 b0 3d 8f d9 d8 3e
       -0.05061693 -0.14780344 0.0861262 0.42353484
000320 5d e5 9c bd a8 c0 65 bd f0 d6 10 3c 89 0a 2a bd
       -0.07660935 -0.056091934 0.008840308 -0.041513953
000330 ac 99 a8 3e 49 67 dc bd b3 09 41 be 18 8a a7 bc
       0.32929742 -0.107618876 -0.18851356 -0.02045159
000340 18 ad cb 3d 82 38 d5 3e 58 09 c9 bc e6 ea 1e be
       0.099451244 0.41644675 -0.024540588 -0.15519294
000350 50 11 4d 3e 5f c6 29 bd 70 09 3b bc 4f 68 6e be
       0.20026135 -0.041448947 -0.011415824 -0.23281978
000360 cf 0e 0e 3e a9 73 e7 bc ba 12 22 3d d5 01 a0 be
       0.13872837 -0.028253393 0.03956864 -0.31251398
000370 74 53 0f 3e ae e1 a6 3d 11 52 27 3e 1d 25 e7 be
       0.13996679 0.08148514 0.163399 -0.45145503
000380 04 1d 7d be 97 9f a1 be ea 96 42 3e 96 da 82 be
       -0.247181 -0.3156707 0.19002882 -0.25557393
000390 8a 30 24 3e ea e6 90 be a6 70 d0 bd db be 3e be
       0.16034141 -0.28301173 -0.10177736 -0.18627493
0003a0 b9 25 35 3e ff 99 00 3e 45 e0 ce 3c 5f 91 d0 bd
       0.17690171 0.12558745 0.025253424 -0.10183977
0003b0 84 85 e8 bd 81 c5 d6 3d 92 70 be bd 1e da 93 bd
       -0.11353591 0.1048689 -0.09298815 -0.07219337
0003c0 e2 af 00 be df 45 5c be a9 52 bc bd bd 43 14 be
       -0.12567094 -0.21511029 -0.09195454 -0.14478965
0003d0 08 54 25 3e 90 6b 00 3d 9c 07 5f be de 6a 07 3e
       0.16145337 0.03135258 -0.21780246 0.1322436
0003e0 eb a5 5e bd ae 5d 77 bd b3 c5 2e be 7b 59 37 bc
       -0.05435745 -0.060392074 -0.17067604 -0.011190767
0003f0 78 4a 4a bd 87 62 9d bb 62 d3 9c bd f1 f8 e7 3b
       -0.049387425 -0.004803005 -0.076575056 0.0070792367

fc3.bias f4 [7]
000000 a6 b6 5f be c1 ba 4b be f5 6c 36 be 02 4b 5d 3d
       -0.21847019 -0.1989546 -0.17815001 0.05402661
000010 d7 45 a8 bd ab c7 7a be ab a2 f7 be
       -0.08216446 -0.2449023 -0.48366293
