src/pretty_good_other_rewards.pth (torch, 294018 bytes, 10 tensors)

conv1.weight f4 [16, 80, 3, 3]
000000 7c d7 1d 3d 3c d7 41 3d ac ca aa 3d 5c e4 bc 3d
       0.03853558 0.047324404 0.08339438 0.092232436
000010 00 cd 3d 3c 16 ee fe 3c d2 33 ce 3d 02 0b 99 bd
       0.01158452 0.031119388 0.10068478 -0.07472803
000020 41 43 27 3d ad 81 7f bc da 00 d0 bb 2f 0b aa 3b
       0.040835623 -0.015594882 -0.0063477578 0.0051893215
000030 c6 87 b1 3b 21 0f a4 bc 4d 40 29 bc 4a da 1e 3d
       0.005417797 -0.020026745 -0.010330272 0.038782395
000040 74 28 84 3c d1 90 2a 3b 16 65 e6 3a 03 75 52 3b
       0.01613257 0.0026026259 0.0017577733 0.0032113201
000050 7a 05 a0 3c 8c eb ea bb 67 63 7e 3b 29 62 51 bb
       0.019533861 -0.0071691927 0.0038816573 -0.0031949377
000060 19 f4 b3 ba b5 7b 3e 3c 9a 1a 29 b9 bc 0a fc bc
       -0.0013729363 0.011626174 -0.00016127006 -0.030766837
000070 85 7f 8c ba e7 c3 c7 3b 24 16 65 3c e8 2c 42 bc
       -0.0010719156 0.0060963514 0.0139823295 -0.011851527
000080 98 f7 ec 3a ff 4b ac bb ee d8 b8 3c 6e 8b c3 b9
       0.001807916 -0.005258083 0.022564378 -0.00037297182
000090 b4 7e 7c bb 31 c8 0c bd 27 84 c4 3c 0a 0a 17 bd
       -0.003852767 -0.034370605 0.023988796 -0.03687481
0000a0 3a 04 16 3c 4a 52 c1 3c f2 83 a8 39 60 5c 00 3d
       0.009156281 0.023598809 0.00032141764 0.031338096
0000b0 b4 b8 81 3c b7 23 49 3d 8b 93 b7 3c 6f e7 bd bc
       0.015835144 0.049106326 0.022409221 -0.023181645
0000c0 cc db 15 bd 91 60 e5 3b 38 36 85 bc 55 ba 94 bc
       -0.036586568 0.007000037 -0.016261205 -0.018155256
0000d0 53 59 09 bc ff c6 8a bc 05 e9 36 3d 49 f5 cd 3c
       -0.008383113 -0.016940592 0.04465582 0.025141375
0000e0 33 68 66 bc c4 9d 81 3c 52 b1 3a 3b 07 5d 2e 3c
       -0.014062929 0.015822299 0.0028487039 0.010642297
0000f0 d9 d1 f8 3c 86 c9 da 3c 50 0f 71 3c e2 e6 0d bc
       0.0303735 0.026707422 0.014713123 -0.008661004
000100 9e 60 d9 3b 0b af cc 3c 25 bf 88 bb 5f f7 9d 3c
       0.006633832 0.02498581 -0.004173177 0.019282995
000110 18 72 1d bd e4 38 b5 bb c0 59 ff 3c fb ca 26 3b
       -0.038438886 -0.0055304635 0.031170726 0.0025450576
000120 f0 3f 0e bb 07 a6 88 3c 19 9b f4 bc 46 95 fa 3c
       -0.002170559 0.01668073 -0.029859113 0.030588757
000130 b8 65 0f bc 1d bb 70 3c fc 3a 5c 3d d6 47 39 3b
       -0.008752279 0.014693049 0.05376719 0.0028271577
000140 32 5b ec ba 8d ff 0f 3c 9a c6 68 3d 1e 0c f3 3c
       -0.0018032549 0.008788955 0.056830026 0.029668864
000150 1e a5 e9 bc 20 6d 21 3b 95 08 6b 3d 47 64 42 3c
       -0.028521117 0.0024631694 0.05738123 0.011864728
000160 d3 91 8c bb bf c9 af 3c 33 9c ad 3d 50 ac 58 3d
       -0.0042898445 0.021458505 0.08477058 0.052898705
000170 50 a7 2c 3d f1 60 0b 3d 80 e5 fc 3c 86 4f 61 3d
       0.04215175 0.034027997 0.030871153 0.05500748
000180 da 65 9f 3d 96 f2 ea bd 24 b7 ae 3d 71 eb 01 bc
       0.077830985 -0.11472051 0.08531025 -0.007929669
000190 27 67 90 bb ca a4 50 bc 3e 5f dc ba ff 3b 02 bd
       -0.004406828 -0.012734601 -0.0016813052 -0.031795498
0001a0 e1 eb 78 bc c0 bb 8d 3d 62 17 3a 3c 7c 05 08 3c
       -0.015192957 0.06920576 0.011358114 0.008302089
0001b0 de a4 f3 ba d6 5d 70 bb f1 da 08 3c 10 ed 57 3a
       -0.0018588563 -0.0036677024 0.008352981 0.0008236924
0001c0 92 c4 86 3b fa ac 77 bb f3 9a 98 bc dc a6 0b 3c
       0.0041127885 -0.003779231 -0.018628573 0.008523669
0001d0 e0 f8 4e bc 5e 4c 59 bc 06 7f bf bc 0a 5f d3 3b
       -0.012632579 -0.013262836 -0.023376 0.0064505385
0001e0 ff 43 34 3c bd e2 d1 bc ce 1a 04 3c 7f 86 35 3c
       0.01100254 -0.025620813 0.008063031 0.01107943
0001f0 cd 95 8b 3c 06 e6 3f 3c 36 09 0b bd 22 85 5d bd
       0.017039204 0.011712557 -0.03394433 -0.054082043
000200 be 16 16 3d 42 4a ee bc 24 c1 d6 bc a6 52 dc 3b
       0.036642782 -0.029088143 -0.026215144 0.0067237196
000210 09 2a b8 3c 1d 94 c3 3c 5d 78 3d 3d 89 7d 1c 3d
       0.022480981 0.023874337 0.046257365 0.038205657
000220 f0 04 84 3d 7d a5 e9 3b ea 43 6b 3c 69 a9 f9 3c
       0.06446254 0.0071303234 0.014359454 0.030476289
000230 2b cb d7 bc 91 9b e3 3c 49 cd ac bc fb c0 11 bc
       -0.026341995 0.02778414 -0.021093981 -0.008896108
000240 97 75 57 3d 72 37 9c 3c 86 09 88 3c a3 cd 45 3c
       0.052602377 0.019069407 0.016606104 0.012072953
000250 7c 32 5f 3c a6 6d 34 3c 9e 86 60 3d 7e 3b 89 3c
       0.013622876 0.01101247 0.05481588 0.016752
000260 5a d7 4d 3c 2a b7 f2 3a 81 ff cb 3b d6 ce 49 bd
       0.012563551 0.0018517722 0.006225527 -0.04926952
000270 be fb 80 bc e6 2d de 3b ee 44 0b bc ad f9 e0 b8
       -0.01574504 0.006780374 -0.008500321 -0.00010727658
000280 23 14 be 3c 2d 16 a7 3c 4b 8c 85 ba 8b 6d 82 bc
       0.023202961 0.020396316 -0.0010188905 -0.015921375
000290 91 b0 0e bd 7d 44 a0 bc ae 28 58 bc 1c 2d 81 3c
       -0.034836356 -0.019563908 -0.013193293 0.01576858
0002a0 5b c2 04 3c fe 4b 83 bc c2 cf fd bb 6b e2 6b 3b
       0.008102979 -0.016027447 -0.007745714 0.003599311
0002b0 0c 8f 9a 3d f4 11 34 3d f4 ad 91 3b 73 af bb bc
       0.07546815 0.043962434 0.0044457857 -0.02291081
0002c0 1b 18 94 3d 36 57 bb 3b 51 82 2c 3c 1c 87 b4 3c
       0.0723116 0.0057171835 0.010529117 0.022037081
0002d0 4a 4b 20 3d b3 ab 91 3d a0 75 c6 3d 08 30 88 3d
       0.0391343 0.07112827 0.09690404 0.06649786
0002e0 0a 13 e3 bb b4 c2 52 3d 80 4a aa 3d 1f 8a 77 bd
       -0.00692976 0.051455215 0.08314991 -0.060434457
0002f0 7e 5a 96 3d cd 9e c7 bb d1 27 b4 bb e7 a0 d3 3a
       0.07341479 -0.0060919286 -0.0054979105 0.0016145975
000300 45 2f 70 3b f9 11 34 bd 04 e2 04 bd 92 d1 91 3d
       0.0036649269 -0.043962453 -0.032442108 0.071200505
000310 d7 48 b9 3c 90 98 14 3c 43 b0 08 bc 7c 15 c0 bb
       0.02261774 0.009069577 -0.008342805 -0.005861936
000320 16 bf 2d 3c f7 2b b9 3b 3b 1f 14 bc 69 0a cf 3b
       0.0106046405 0.005650993 -0.009040649 0.0063183797
000330 00 bd 85 bc 74 75 80 3c dd d0 7e bc e6 86 3e bd
       -0.016325474 0.015681006 -0.015552727 -0.046515368
000340 a3 00 f6 bc 3f ee d2 3a 0e 1e b6 3b ff 17 1d bd
       -0.0300296 0.0016092731 0.005557782 -0.038352963
000350 d2 e6 7d 3c d1 9e a6 3b 02 8a 43 3c 0c 1b 30 bb
       0.015496926 0.0050848504 0.011934759 -0.002687159
000360 91 a9 cd bc c9 d1 27 bc 9c 07 22 bc 1d 43 85 bc
       -0.02510527 -0.010242888 -0.0098895095 -0.016267354
000370 16 cb 00 bd 18 7c d5 3b 74 e7 79 3d 71 94 bd 3c
       -0.031443678 0.0065150373 0.061011747 0.023142071
000380 fd 35 c3 3c ee 36 cd 3c 24 cd 1c 3d 3f fb 02 bb
       0.023829455 0.025050607 0.038281575 -0.001998618
000390 60 b6 e7 bc 92 6e 52 3c 2d 8f 05 bd cb bd 00 bc
       -0.028285205 0.012843745 -0.032607246 -0.00785775
0003a0 c7 df 52 bd 84 29 f3 bc f7 e3 51 3d c4 71 14 3a
       -0.051482942 -0.029682882 0.051242795 0.00056627044
0003b0 e4 ff 83 3c 9c 1e a0 3c 3e 46 25 bc 1f b2 6a 39
       0.01611323 0.019545846 -0.010087548 0.00022382334
0003c0 41 3f 3c 3d bb e1 e6 3c cc 02 0d bc 95 ad b5 ba
       0.04595876 0.028183809 -0.008606624 -0.0013860936
0003d0 cf 5f 8a 3c fb f2 fc bc 10 db 08 3d 67 52 72 3b
       0.016891388 -0.03087758 0.03341204 0.0036975385
0003e0 a5 cb 80 3c 84 fc e9 bc 79 cb e6 3c 65 e5 0b bd
       0.015722105 -0.028562792 0.028173195 -0.034154315
0003f0 92 9b 49 3d 0e 15 23 3d 68 57 4e 3b b7 b6 3b bc
       0.04922063 0.039815 0.0031485204 -0.011457137

conv1.bias f4 [16]
000000 42 2d 31 3e 14 ab 73 39 fb a8 a2 3c 56 0e 05 3d
       0.1730242 0.00023238017 0.019855967 0.032484375
000010 2f 35 ff 3d eb 8f 38 bd c7 d9 b0 3d 33 cb 84 bd
       0.12461316 -0.045059126 0.08635288 -0.0648407
000020 9a 09 db 3d 0a 20 5e bd f2 28 70 3d 1e 30 42 bd
       0.10695191 -0.054229774 0.0586328 -0.04740917
000030 9f 3e be bc e7 e3 d5 3d d7 cb 42 3e 5f 43 54 3e
       -0.02322322 0.104438595 0.19023071 0.20728825

conv2.weight f4 [32, 16, 3, 3]
000000 34 45 76 3e ff f4 dd bc 80 a4 a8 3d 6e e5 2c 3e
       0.24049836 -0.027094362 0.08234501 0.16884395
000010 46 9e 32 3d 6c 41 ae 3d 6e 8d f5 3b 3c 37 6f 3d
       0.043607973 0.08508572 0.0074936664 0.058402285
000020 6b fa 35 3e b6 30 dd bc 6f 1b ed 3d 60 12 96 bd
       0.17771308 -0.027000766 0.11577498 -0.073277235
000030 09 3a fc 3d a5 a3 85 3e 1c 53 e7 3d 38 d3 0e 3e
       0.12315757 0.26101413 0.11295149 0.13947761
000040 71 76 8f 3e b1 ff bc bd b1 19 46 be 0f ee 09 be
       0.2802005 -0.09228457 -0.19345738 -0.13469718
000050 84 28 27 3e bd 21 15 be 34 b5 45 3a d9 d0 f8 bd
       0.16324049 -0.14563651 0.0007541955 -0.121492095
000060 f4 32 98 3d 32 1e 9b bc f4 d5 14 3d 2b e8 5f 3e
       0.074315935 -0.018935297 0.036336854 0.21865909
000070 89 c8 4a be f2 07 0f 3e 81 79 30 be 2d 7c b7 bd
       -0.1980306 0.13967875 -0.1723385 -0.089592315
000080 1b fd 2b be 60 d2 3e 3d bc dd 5c be 03 d6 1d bd
       -0.16795771 0.046587348 -0.2156896 -0.038534176
000090 65 30 85 3e 03 d8 40 3d 9d 74 ce 3d e1 21 69 3e
       0.26013485 0.047081005 0.10080836 0.2276683
0000a0 f6 52 20 3e 6d 44 ef bd f8 54 60 3e ec f3 9a ba
       0.15656647 -0.11682973 0.21907413 -0.0011821962
0000b0 f2 cd f0 3d 92 88 cb 3c 1f c2 24 3e 4f cf 76 3b
       0.11758031 0.024845395 0.16089676 0.0037660187
0000c0 4b 19 1e bb 1d f9 ef bd 18 9c 40 bb f6 f9 eb bc
       -0.0024123963 -0.117174365 -0.0029389914 -0.028805714
0000d0 7a eb a5 3c 87 f3 ca bd 63 1c b4 3c 00 c9 0c bd
       0.020253886 -0.099097304 0.021986192 -0.034371376
0000e0 c5 f5 14 be 70 d9 ee 3d 22 5c 20 3c a4 48 95 3d
       -0.14546879 0.11662567 0.009787591 0.07289246
0000f0 7d 4b 33 3e 4b 39 b8 3d 1c 9a 61 3c 7b fa 4c 3c
       0.17509265 0.08995303 0.013769653 0.012510891
000100 ae f8 8f 3d bc cf 32 3c 12 2a 43 be 5b 9e 90 3d
       0.07029854 0.010913786 -0.19059017 0.07061454
000110 d1 d1 1d bd ed 3e 55 3d cb df 92 bd 75 5a d2 3c
       -0.038530175 0.052061964 -0.07171591 0.025677899
000120 5f 99 db 3b 87 fa 33 be 17 a3 9e 3d 1f 95 d2 3d
       0.006701633 -0.17576037 0.07745951 0.10282349
000130 e6 be 83 be d6 dd 69 be e9 ea 37 3d e6 d8 37 be
       -0.2573158 -0.2283853 0.044901762 -0.17953834
000140 26 be 43 3d 5d d0 96 3d 30 33 f1 3d 93 8f 55 3e
       0.04778876 0.07363961 0.11777341 0.2085555
000150 8c c1 fc 3d df d0 b1 3d 1a 8d c6 3d 3b 1e 8a bd
       0.12341604 0.08682417 0.09694882 -0.06744047
000160 76 87 0c 3c 09 04 2e 3e 59 6a 22 3d ab 63 db 3c
       0.008577218 0.16993727 0.039652202 0.026780924
000170 df d0 c6 3d c9 e0 f0 bd e5 81 3e 3d ea 79 10 be
       0.09707808 -0.11761624 0.046510596 -0.14109007
000180 7e 45 8a 3d 2b 97 03 be 35 a6 26 3e 1e 88 2a bd
       0.06751536 -0.12850635 0.1627434 -0.041633718
000190 5e 99 21 3e 69 97 06 3e 9a b4 60 bd 53 15 11 be
       0.15781161 0.13143696 -0.054859735 -0.14168291
0001a0 f2 4f 09 3d c1 8b 02 be 84 68 06 3d ba ea dc bd
       0.033523507 -0.12748624 0.032814518 -0.10786958
0001b0 e1 dc 4b 3e 80 3e 72 bb 09 2c 8b 3b 40 0b 85 3e
       0.19908477 -0.0036963522 0.0042471928 0.25985146
0001c0 3e a0 c9 3c 13 e1 08 3e f7 49 fb b9 0e 01 c5 3c
       0.024612542 0.13367109 -0.0004792956 0.024048354
0001d0 d1 13 47 bc 0f cd 25 3d 33 5c 23 be c0 63 c1 bd
       -0.012150721 0.040478762 -0.1595314 -0.09442854
0001e0 84 cd e0 bb 26 ea 37 be 31 e5 7f bd 0b ed 31 bc
       -0.006860437 -0.17960414 -0.062474433 -0.010859738
0001f0 8a 69 ba 3d 86 d9 a6 3d af f3 f2 3c 6b 68 2c bc
       0.09102161 0.08146958 0.029657213 -0.010522942
000200 e8 e8 1b 3e 8c 65 da bc 1b 55 d5 3d b8 a6 6f bd
       0.15225565 -0.02665975 0.10416623 -0.058508605
000210 9c 3f e1 bd 19 f5 d5 bc f5 6f 16 3d b4 51 67 3d
       -0.10998461 -0.026117848 0.036727864 0.056474403
000220 27 19 30 3c 1e 7a 83 3d 79 83 03 bd 23 ba 65 3e
       0.010748184 0.064197764 -0.032107804 0.22434287
000230 3f 39 6c 3d 31 52 0d 3e 09 41 a4 bd 00 58 dd bd
       0.05767178 0.13800885 -0.08020217 -0.108078
000240 dd 38 19 be d9 23 5e 3d c9 1a 7d bc 7a d7 a9 3d
       -0.14963098 0.054233406 -0.015448281 0.08293052
000250 e6 44 37 3d 7c f4 6e bd 9d 52 31 bd ef 8f 34 3d
       0.04474344 -0.058338627 -0.043291677 0.04408258
000260 b2 69 c7 3a be ec c8 bd 4e 57 24 3e f4 2e ae bc
       0.0015213995 -0.0981078 0.16048929 -0.021262623
000270 4a 8d ee bc 73 05 58 3e 81 b1 fe bd 0e 0d 3b 3e
       -0.029120106 0.21095829 -0.124362 0.18266699
000280 2f 5c a3 3d e3 bc 06 be dc f1 e8 3d a5 6d da 3d
       0.07976567 -0.13157992 0.11374256 0.10665444
000290 83 5b 03 3e 1d 1f b4 3b 34 fe f8 bd ec 6f bc bc
       0.12827878 0.005496873 -0.121578604 -0.023002587
0002a0 9b 2d 14 be 5a be ee bd 90 72 97 bd 44 e4 30 be
       -0.14470522 -0.116574004 -0.07394898 -0.17274576
0002b0 f3 65 46 3d 68 ee 92 3d bf c9 78 3d 78 39 16 3e
       0.04843707 0.07174379 0.060739275 0.1467036
0002c0 db 33 fa bd e4 e2 80 3e 4a c8 37 3e bd d6 64 3e
       -0.12216922 0.25173104 0.17947498 0.22347541
0002d0 d0 b1 d1 be b1 90 9a be 49 a8 50 3e ec b4 c4 3d
       -0.40955973 -0.30188516 0.20376696 0.096048206
0002e0 f8 a6 bc 3d 11 38 c2 3d 5b 2e db bd 41 cc 32 3c
       0.09211534 0.0948335 -0.10702201 0.010912956
0002f0 b4 67 31 3e c1 4d 97 3e fc 9d 5e 3e ff bc bb 39
       0.17324716 0.2955151 0.21739954 0.00035808232
000300 be b9 a9 3e bb 96 3a 3e d8 bc ce 3b 9b 5a db 3d
       0.33149523 0.18221562 0.006309133 0.10710641
000310 86 7e 23 be b5 be d1 bc 55 e2 49 be af 97 6d 3e
       -0.15966234 -0.025603632 -0.19715245 0.23202394
000320 0d 62 3d bd d2 08 49 3e c1 a1 66 3e b8 8c 79 3d
       -0.046236087 0.19632271 0.22522642 0.060925215
000330 ca 47 21 bd 59 de 1b 3c e4 b0 0b be 0f f5 cf 3d
       -0.039375104 0.009513461 -0.13641697 0.10154163
000340 ed a4 68 3e b2 24 cf bd c8 6f 6a 3e 86 44 02 3e
       0.22719164 -0.10114421 0.22894204 0.12721452
000350 f9 07 30 3d 1e 9f 23 3c cb ae 20 be 39 b6 84 bd
       0.042976353 0.009986667 -0.15691678 -0.06480069
000360 c5 fc c8 be 8c ff 8e be 98 f5 88 3d 35 a9 da be
       -0.39255348 -0.27929342 0.06687468 -0.4270722
000370 d7 d5 9d be 83 63 3f 3e e0 26 a9 be 69 c1 00 3c
       -0.3082721 0.18690304 -0.33037472 0.007858613
000380 31 07 8a 3e 05 26 7e 3c a4 84 91 bd 4d 40 d1 3d
       0.26958612 0.015511994 -0.07105377 0.102173425
000390 33 f8 9c bd 6f 3b 20 3c 93 15 28 3e e7 54 b7 3c
       -0.07664528 0.009779795 0.1641448 0.022379352
0003a0 8f 6c 85 bb d9 a9 71 3e 52 ae d0 3d dc 81 c0 3c
       -0.004071779 0.23599948 0.10189499 0.023499422
0003b0 e4 b7 2b bb 72 94 2e 3e a3 53 67 3e 3c ef 0f 3e
       -0.0026202137 0.17048815 0.22590499 0.14056104
0003c0 36 18 d6 bd 7c d8 62 bd 1f 66 21 3e b6 95 7c bd
       -0.104538366 -0.055382237 0.15761612 -0.061666213
0003d0 33 80 bc bd c3 4e 72 3c c9 20 98 bd ef 9f bc 3c
       -0.092041396 0.014789286 -0.07428128 0.023025481
0003e0 ba b8 d1 3d c4 6e 66 3d 44 58 9b 3d 64 a2 d4 3d
       0.10240312 0.056257978 0.07585195 0.10382536
0003f0 31 31 7f bb ae e0 e3 3c 6d 21 40 3b 8a 10 91 bd
       -0.0038939232 0.027817097 0.0029316798 -0.07083233

conv2.bias f4 [32]
000000 8e 08 cf 3d ec 29 40 3d a9 ae d7 3d 01 de e8 3d
       0.101090536 0.04691498 0.10531361 0.11370469
000010 0b fe 7e 3c c4 fd 21 3e 33 7a 50 3d e4 c9 eb 3d
       0.015563498 0.1581946 0.05089779 0.11513117
000020 93 3b b7 3d 08 67 fd 3c e1 4e 91 3d 0f 5f 14 3e
       0.0894691 0.030932918 0.07095123 0.14489387
000030 f9 d4 3e 3d 62 5d 83 3c f6 d3 82 3c 0c ef 9b bc
       0.046589825 0.01603574 0.015970211 -0.019034885
000040 5a bd 89 3d c5 b8 01 3d 65 c6 ba 3d 1a c2 5d 3d
       0.06725569 0.03167035 0.09119872 0.054140188
000050 3d 67 a9 3d b6 64 44 3d c7 58 87 3d 6b 4d eb 3c
       0.08271644 0.047947608 0.0660873 0.02872344
000060 eb 57 85 3c ac 8f 22 3e fe 10 22 3e 63 2c 2a 3e
       0.016277274 0.15875119 0.15826795 0.16618495
000070 4e d1 f0 3d 4b d4 02 3e 22 29 5d 3c bc 1f 5b bd
       0.11758672 0.12776296 0.013498576 -0.05349706

fc1.weight f4 [64, 800]
000000 a4 36 67 3c a4 bd 9e bb 2b fe 08 bd 2a 7d de 3c
       0.014112148 -0.0048443843 -0.03344552 0.027159292
000010 1a 01 de bc cc 36 ac bc bf 05 a9 bc 97 bc 5b bc
       -0.027100135 -0.021022223 -0.020632623 -0.013411663
000020 e7 c4 cb 3c 32 93 7e ba dc 6e e7 bc 9d 36 45 3c
       0.024874164 -0.0009711265 -0.028251104 0.012036947
000030 c8 4b db 3c 79 ca 89 bc 64 b4 b3 bb 1b 42 d3 bc
       0.026769534 -0.01682018 -0.0054841507 -0.025788357
000040 ca 6c 5c ba 22 bf f3 3c 43 81 cf 3b 17 e8 2f 3b
       -0.0008408545 0.029754225 0.006332548 0.0026841217
000050 f2 1a f5 bc ba 04 c2 3b f6 88 89 3b 50 aa b9 bc
       -0.029920075 0.0059209736 0.004197235 -0.02266422
000060 08 ad 6f 3c ac 10 ae bc 4c 97 a2 bc 2f 01 ac 3c
       0.014628656 -0.021248184 -0.019847535 0.020996658
000070 80 a7 0d 3c ec ee 0c bd df 1e 0f bd e4 74 f7 bc
       0.008645892 -0.03440754 -0.03494155 -0.030207105
000080 26 60 ff 3b 96 24 f9 39 7c 72 18 bd a6 e1 01 3d
       0.007793444 0.0004752024 -0.037218556 0.031709336
000090 76 73 92 bb 07 32 b7 3b 2d ff 1c bc 17 a8 82 bc
       -0.0044693304 0.0055906805 -0.009582323 -0.015949292
0000a0 3c 20 d5 3c 8a cf ed bc 8c 8f ae bc 02 3d 1c bc
       0.026016347 -0.029029626 -0.021308683 -0.00953603
0000b0 b8 f9 cc bc 83 f2 68 3c 22 a5 83 3c 97 bd cb 3b
       -0.025021419 0.014217976 0.016069952 0.006217669
0000c0 d2 ac 11 bd 4c 23 0d bd 58 38 f8 bc cd 93 e0 bc
       -0.035565205 -0.03445749 -0.030300304 -0.027414227
0000d0 01 c5 b6 bc ea e3 e0 3c d3 3d 7f 3c d7 87 a0 bc
       -0.022310736 0.027452428 0.015578705 -0.019596023
0000e0 71 88 dc 3c b9 2a d3 3c b9 0b 1d 3a df 01 c7 bb
       0.02692053 0.025777208 0.00059908215 -0.006073221
0000f0 23 12 fc 3c dc 3d c3 bb 8d c5 3f bc e8 4b 89 3c
       0.030770367 -0.005958302 -0.011704815 0.016759828
000100 16 4d da 3c 6d 3e 9f bb b4 cc cb bc d6 40 40 bc
       0.026648086 -0.0048597367 -0.024877883 -0.011734208
000110 0d 20 64 bc 83 6b c4 3c c3 36 fb 3c 1c 50 f2 3c
       -0.013923657 0.023977047 0.03066576 0.029579215
000120 e9 8a 2e 3a 46 d7 84 3c e9 04 21 bb 5e eb ee bb
       0.00066582725 0.016215932 -0.0024569577 -0.0072912415
000130 7c b3 9c bc 77 af c9 3c 0e 5b b3 3c 8d 42 97 3c
       -0.019128554 0.024619801 0.021894004 0.018464351
000140 a4 4b 72 3c 55 87 9a bc b9 b3 c0 3c aa 2e d1 3b
       0.014788542 -0.01886336 0.023523198 0.0063837366
000150 3d b4 62 3c 4b 16 93 bc 7f f1 62 3c 78 e5 06 bd
       0.0138369175 -0.017954966 0.0138515225 -0.032933682
000160 12 ba b3 bc df be 0e bc f1 af b1 bc 0e 06 cc 3b
       -0.021939311 -0.008712499 -0.02169034 0.0062263077
000170 a9 2c f9 39 6d a0 fc 3c 1a 8d e6 3c ef 5b 81 3c
       0.00047526255 0.030838216 0.028143454 0.015790908
000180 93 19 9d bc c0 07 8a 3c ab 35 ab 3c eb a7 68 bc
       -0.019177234 0.016849399 0.020899614 -0.014200191
000190 9c bf 5b bc 5f c5 05 bd ee 8e 38 3c 04 f3 96 bc
       -0.013412382 -0.03265893 0.011264546 -0.018426426
0001a0 15 be a3 ba a1 b2 6e 3c 98 03 01 bd 66 50 4d 3c
       -0.0012492562 0.014568956 -0.031497568 0.0125313755
0001b0 a9 7a fd 3c 30 00 0a 3d ec b0 3b 3c 02 5c 0c 3c
       0.030942278 0.033691585 0.011455756 0.008566858
0001c0 04 18 78 3c 34 26 07 bd 1a 22 be bc 86 dd 5a 3c
       0.0151424445 -0.032995418 -0.02320962 0.013358479
0001d0 58 ea 9d bc 43 2b 14 bd fd 42 8d bc e1 66 bc ba
       -0.019276783 -0.03617407 -0.017243857 -0.0014373922
0001e0 90 04 bc bc e0 f7 b4 bc 3a 1e 1b bd f6 af 25 bc
       -0.022951394 -0.022090852 -0.037870623 -0.010112753
0001f0 c6 a6 6f bc 15 cd a5 bc 13 55 c8 bc 26 88 4c 3b
       -0.014627164 -0.020239392 -0.024454629 0.003120908
000200 eb 9d 25 3c 82 4b e0 bb c8 fe bd bc ea 34 b9 bc
       0.010108451 -0.0068449387 -0.023192778 -0.02260824
000210 8d 87 cb 3c 11 03 a6 3c 7b ac fc bc 5a d1 81 ba
       0.02484491 0.020265134 -0.030843964 -0.000990431
000220 43 a3 74 b9 30 0b d2 3c 2b f2 b6 3c 3a 9f e3 3c
       -0.00023330473 0.0256401 0.022332272 0.027785886
000230 51 5d df bc 66 e9 dd bc 8f e6 fb bc 80 5f de 38
       -0.027266176 -0.027088832 -0.030749587 0.00010603573
000240 18 0c 0b bd 6a 2b 88 bb a2 16 b5 3c 3c b8 c3 bc
       -0.03394708 -0.004155566 0.022105519 -0.02389156
000250 0e 9e 7d 3c 6d 11 50 3b ea 58 50 3c b5 3c 3b bc
       0.015479578 0.0031748668 0.012716511 -0.011428048
000260 37 85 91 bc 5a 56 a3 3b f6 bf 88 bc c4 74 dd 3b
       -0.017763717 0.004984659 -0.016693097 0.0067583043
000270 fa 4f 2f b9 fd 7a 59 3c c2 23 d3 bc 3f d0 bf 3c
       -0.00016719094 0.013273952 -0.025773887 0.02341473
000280 d1 4c aa 3c 74 cf 94 3c ac 8d f6 bc 57 ee e1 bc
       0.020788582 0.018165328 -0.030096851 -0.02757947
000290 55 e0 83 bc e5 c9 04 bd 2b 6a 9d 3b 8b 1a d7 bb
       -0.01609818 -0.032419104 0.004803916 -0.0065644435
0002a0 56 70 c2 bc e3 76 d3 3c 00 f2 74 bc 9b 3d 5f bc
       -0.023735207 0.025813526 -0.014950275 -0.013625528
0002b0 ec 08 39 bc 4f 48 c8 bc de d9 99 bc d9 c6 f2 3c
       -0.011293631 -0.024448542 -0.018780645 0.029635834
0002c0 28 47 e8 bb 5a 11 9c 3c e1 19 73 bc 3b 6c d7 bc
       -0.0070885606 0.019051243 -0.014837713 -0.026296725
0002d0 bf 96 cc 3c b6 97 cf 3c e7 cf ed 3c 6c 99 15 bd
       0.024974225 0.025340896 0.0290298 -0.036523268
0002e0 47 76 53 3b 90 b3 db bb 2c fa e7 3c e3 e4 f5 bc
       0.0032266544 -0.006704755 0.028317533 -0.030016368
0002f0 31 22 9c 3c c2 9e 98 3c 6c 91 a8 3b 0e 95 c7 bc
       0.019059272 0.01863039 0.0051442888 -0.024363067
000300 45 90 fe 3c 85 ac f3 bb 69 9e 46 3b 43 04 d5 3c
       0.031074652 -0.0074363374 0.0030306822 0.026003009
000310 3e 0f b2 3c 54 9f 85 3c d0 9e ed 3c a9 81 12 bc
       0.021735784 0.016311325 0.029006392 -0.008942046
000320 b7 9b 10 bd 99 bc ae bc 9e 82 c2 bb 48 0c 02 3d
       -0.03530475 -0.021330165 -0.005935981 0.031749994
000330 30 fb fb 3b 00 60 5a 3c 05 b8 6f bc a2 d8 a8 3b
       0.007689856 0.013328552 -0.014631276 0.005152778
000340 d1 1e 7b 3b f5 ed ee 3c d2 ac 14 bd 56 24 c2 bc
       0.0038317929 0.029166201 -0.036297627 -0.023698967
000350 cd c7 61 bc 44 48 59 3c f6 0d e4 3b 89 dd 9a 3b
       -0.013780546 0.013261858 0.006959672 0.004726116
000360 48 30 3e 3c 6a a7 18 bd c3 08 ec ba 59 29 12 bd
       0.011608191 -0.037269033 -0.0018007982 -0.035683963
000370 e8 84 dd bc 6e 3f 99 bc b8 cb 0a bd 43 ee 66 3c
       -0.027040914 -0.018707003 -0.033885688 0.014094892
000380 ba 58 dc 3c 78 8e 60 3c c9 26 cd 3c 6b 11 b0 3c
       0.026897777 0.013705842 0.025042908 0.02149268
000390 34 94 52 3c 37 57 55 3c a8 ec be 3c 17 37 2d ba
       0.012852717 0.013021282 0.023306206 -0.00066076353
0003a0 56 3e f5 ba de f8 25 bc 27 56 9d 3c 85 1a d0 3c
       -0.0018710594 -0.010130135 0.01920612 0.02540327
0003b0 7a 6e 4f 3c 0e 0e 0b bd 8e 2a 17 bd 4e e3 49 3c
       0.012660617 -0.03394895 -0.036905818 0.01232226
0003c0 50 45 c0 3b 4c c8 d5 bc 69 13 ea bc a8 ff d3 bb
       0.0058676377 -0.026096486 -0.028573709 -0.0064696856
0003d0 12 6b 88 3b e4 e9 42 bc e4 f6 fd 3b e3 fd 5f bc
       0.0041631544 -0.011896584 0.007750379 -0.013671371
0003e0 fc db 2e 3b dd c8 dc 3c 54 ce 94 3c 9e 2b 94 3c
       0.0026681414 0.026951248 0.018164791 0.018087205
0003f0 48 d2 0f bd c9 3a ba 3c ba 48 d6 3c 94 c7 d9 bc
       -0.03511265 0.02273311 0.026157726 -0.026584424

fc1.bias f4 [64]
000000 35 e9 ab 3c 26 44 b5 bc 0d 8f f1 3c eb b6 24 3d
       0.020985225 -0.022127222 0.029487157 0.040213507
000010 cb 80 c2 bb 96 fb 88 3c 88 24 f8 3c 75 b8 cf bc
       -0.0059357635 0.016721528 0.030290857 -0.02535651
000020 5d 43 74 bc 59 cf 96 3c 9d c3 f3 3b 1b b3 19 3d
       -0.014908639 0.018409418 0.0074390904 0.037524324
000030 24 54 b8 3c f3 df 37 bc 71 f5 3f 3d e4 a6 53 bc
       0.022501059 -0.011222827 0.04686493 -0.012918208
000040 ef ee ce 3c bb e9 3c 3d 3e 6d bf 3c 78 40 c4 3c
       0.025260417 0.04612134 0.02336752 0.023956522
000050 a8 23 27 ba 98 91 1f b8 12 3d c1 3c 68 74 9f 3c
       -0.00063758576 -3.804415e-05 0.02358869 0.019464687
000060 b5 5a f8 3c 56 e5 76 3c 85 fb e0 3c 6c c8 ff 3b
       0.03031669 0.015069326 0.027463684 0.0078058746
000070 26 72 8f bc 5f 67 83 3d 53 3f af 3c d1 e4 d7 bb
       -0.017510485 0.06416201 0.0213925 -0.0065885563
000080 6a 54 22 bc eb aa 0b bd 96 e2 06 bd bc 28 cd bb
       -0.009907821 -0.034098547 -0.032930933 -0.0062609594
000090 07 55 a2 3d 4f fa 18 3d 5d 1b 33 3d 74 1a 6b 3d
       0.07926374 0.037348088 0.043727268 0.057398275
0000a0 52 8a 51 3d bd 6a b0 3d c3 21 f1 3c 05 ed 60 3b
       0.051157303 0.08614109 0.029435044 0.0034320962
0000b0 7d 21 48 bc b7 5c 10 3d 75 dd 65 3b b1 04 e7 3c
       -0.0122150155 0.03524467 0.0035074626 0.02820048
0000c0 9b 72 bd bc 32 f0 2a bc 7e 99 42 3c 8a ed 67 bc
       -0.023125937 -0.010433244 0.011877416 -0.014155755
0000d0 9e c1 a3 3b 5b b5 65 3c 27 b0 83 3d 03 d5 41 3d
       0.004997446 0.014020289 0.06430083 0.047322284
0000e0 e1 8f ca 3b 2d c7 67 3d 59 a3 5b 3c 70 2c de 3c
       0.0061817025 0.056586433 0.013405644 0.027120799
0000f0 fa fc 02 b8 67 d5 7b 3c aa b3 14 3d 4e 63 4a 3d
       -3.1230018e-05 0.015370703 0.036304154 0.04941111

fc2.weight f4 [64, 64]
000000 b8 4f c2 3d 00 c6 f8 3a 10 32 44 bd d5 7e cb 3d
       0.094878614 0.0018979907 -0.047899306 0.09936301
000010 de 4d 6f 3d d1 8e 0f 3e 60 8d a7 bd 62 45 fa 3d
       0.05842387 0.14019324 -0.08181262 0.12220265
000020 6c f6 a8 bd f1 a4 e5 3d 96 e1 8a bd db 1d 7e 3d
       -0.08250126 0.11213101 -0.06781308 0.06204019
000030 3f 75 9c 3d 55 8b b0 bd 8a a4 24 3e b0 d2 65 3d
       0.076395504 -0.086203255 0.16078392 0.05610913
000040 47 a7 cb 3c 12 2d ea be bb 00 f5 bd 84 90 ca bd
       0.024860037 -0.4573751 -0.1196303 -0.098908454
000050 cf ba 31 3d b8 01 bc bd 8b d0 d8 3d 40 89 93 bb
       0.043391045 -0.09180015 0.105866514 -0.0045024455
000060 49 cb 95 bd d0 a9 bb 3c 36 e8 0f 3e 90 37 78 bd
       -0.07314164 0.022908121 0.14053425 -0.060599864
000070 c0 02 40 bd d5 b3 bc bd c7 94 9a bc a2 82 7e 3d
       -0.046877623 -0.09213988 -0.01886977 0.0621363
000080 a1 02 62 bc e9 f2 a3 bd df 63 95 3d f6 67 9f bd
       -0.013794572 -0.08005316 0.072944395 -0.07783501
000090 53 66 74 be f4 17 98 bd 88 71 8a 3d e9 09 64 bd
       -0.23867159 -0.07426444 0.067599356 -0.055673514
0000a0 8f c7 15 3e 65 37 26 3e 32 59 c2 3c fb cc c2 bb
       0.14626907 0.16232069 0.023724172 -0.0059448457
0000b0 ce f3 d4 bd b7 38 fb bd b3 39 ca bd 80 ba be 3a
       -0.103980646 -0.12266677 -0.098742865 0.0014551431
0000c0 c1 39 df 3d 11 2a e9 3c 24 bd db bc 7a 29 e6 bd
       0.108996876 0.028462442 -0.026823588 -0.1123838
0000d0 53 3f 4b bd fd 2e 06 bd eb 37 ed be aa 48 96 3b
       -0.049620938 -0.032759655 -0.46331725 0.004586299
0000e0 c3 eb d1 bd b4 b9 02 bd 47 35 4a 3d d1 43 17 bd
       -0.10250046 -0.03191538 0.049367215 -0.03692991
0000f0 aa 77 0d bc 6d f3 cf be 03 aa 88 be 8b a9 2a 3e
       -0.008634487 -0.40615407 -0.2669221 0.16666238
000100 b1 9b 80 bd a8 10 67 bd 76 c5 bd bc 34 b4 d1 3d
       -0.06279696 -0.05641237 -0.023165446 0.10239449
000110 42 17 8d bd 77 1d fd 3d 12 fe e7 bd c0 69 1f 3b
       -0.06889202 0.123591356 -0.11327757 0.0024324507
000120 68 26 f0 3d 0d aa c9 3c 3b 22 d4 bd dd e7 32 3d
       0.117260754 0.02461722 -0.103580914 0.043678153
000130 b5 d3 ac be f9 44 aa bd 7f df 48 3d e8 bf bf 3c
       -0.3375527 -0.08313937 0.049041267 0.023406938
000140 cd c3 8d bc 59 b9 d2 bd ee b9 64 bd f1 8b 10 3d
       -0.01730528 -0.102892585 -0.05584138 0.03528971
000150 28 fb 1f bd 83 97 2b 3c d1 97 8c be e9 e4 96 bc
       -0.03905788 0.010473135 -0.27459577 -0.0184197
000160 33 c8 e7 bd 1a 61 f9 bd b1 ca 9b bd 6f 92 20 bd
       -0.11317482 -0.12176724 -0.0760702 -0.03920215
000170 82 c6 d2 bd 89 ee 3f bb 93 f5 2d bd 46 0f e0 3d
       -0.102917686 -0.0029286465 -0.042470526 0.10940413
000180 69 18 1a 3c 7f 4d e1 3c fe b6 14 3d 38 d8 09 3d
       0.009405234 0.027502773 0.036307327 0.033653468
000190 dc 8f be 3d 78 b4 be 3b 85 f0 cf bd 8f 9d f0 3c
       0.09304783 0.0058198534 -0.10153297 0.029372005
0001a0 9a db 2b be 95 b9 99 3d ee 08 76 3b de f2 8c bd
       -0.1678299 0.075061 0.0037541944 -0.06882261
0001b0 57 0e d7 bd e4 e3 55 bd 78 c8 19 bd b8 8f ea 3d
       -0.10500782 -0.052219287 -0.037544698 0.114531934
0001c0 57 11 8d 3c 2a 27 c2 bd 78 de d4 3d a8 bc 6a bd
       0.017220182 -0.09480126 0.10393995 -0.057308823
0001d0 c2 fc c0 be 23 17 ed 3c 00 e7 dd 39 c3 36 f6 3d
       -0.3769284 0.028941697 0.00042324513 0.12022164
0001e0 97 43 8f bc d5 8f a7 bc bb 83 a8 bc 6e dd 41 be
       -0.017488284 -0.020454327 -0.020570626 -0.18932125
0001f0 40 c7 a3 bd 32 cc 11 3e 58 07 40 be 49 ae a1 3d
       -0.07996988 0.1423805 -0.18752801 0.078945704
000200 d8 4f 1e 3d 0a 47 83 3d 26 2d 99 bd d0 c8 5d bc
       0.038650364 0.06410034 -0.074793145 -0.013536647
000210 84 3f 4b bd a4 d6 66 bd 60 f8 a6 3d d2 a8 c4 bd
       -0.04962112 -0.05635704 0.081528425 -0.096025124
000220 c4 d0 09 bd 4a 2c b4 bd 50 23 49 3d 00 98 3c 3c
       -0.03364636 -0.0879751 0.049105942 0.011510849
000230 40 ba 83 bd 88 b6 20 3d 66 76 f6 bd a8 b0 f7 3c
       -0.06432009 0.039236575 -0.120343015 0.030235603
000240 2e 3c f1 3d 50 31 82 bd 20 75 9c 3d bc a8 b4 3d
       0.117790565 -0.06357062 0.07639527 0.08821246
000250 d0 25 df 3d 90 e2 87 bd 2a 58 e3 bd 46 e9 e0 3d
       0.10895884 -0.0663501 -0.111008 0.109819934
000260 60 92 80 3b 6c f6 be bd 80 f9 88 bc 8c 07 42 3d
       0.0039236993 -0.09324345 -0.016720533 0.04737048
000270 bc 49 75 bd e0 51 3b 3c 9c d5 20 3d fe 74 8e bd
       -0.05988477 0.011433095 0.039266214 -0.06955908
000280 30 82 b4 bd e0 72 8d bb ec 3a 04 3d e8 c5 2a 3d
       -0.08813894 -0.0043166727 0.032282755 0.041692644
000290 80 4a 57 3c 40 e3 80 bd 08 e6 93 bd 02 7e d6 bd
       0.013140321 -0.062933445 -0.07221609 -0.10473253
0002a0 ae 7c c8 bd ec 13 7c bd 20 1d 2c bc 40 47 b6 bb
       -0.09789406 -0.061542436 -0.010504991 -0.005562693
0002b0 3e 97 86 3d 50 35 c5 3c 20 aa eb 3c b8 9f 9d 3d
       0.06571816 0.024073273 0.028767645 0.076964796
0002c0 3c 3a ed 3d 60 9c e2 3c b8 43 d7 3c 30 aa 45 3c
       0.11583373 0.027662456 0.026277408 0.012064502
0002d0 3c 0a 85 3d 50 15 ca 3c d0 16 b6 bd fe f9 c2 bd
       0.06496093 0.024668366 -0.0889107 -0.095203385
0002e0 f0 8e 15 3c ac 3d 92 bd 7e 4c f7 bd 7e fa d0 3d
       0.009128317 -0.07140669 -0.120751366 0.102040276
0002f0 80 4b ed 3a ae cf ea bd 00 46 2c 3c 82 b6 cb bd
       0.0018104166 -0.11465393 0.010514736 -0.0994692
000300 b8 64 ef bd 04 8b 5c bd 90 c6 12 bc a2 c3 2c 3e
       -0.116891325 -0.053843513 -0.008958474 0.16871503
000310 95 46 95 bd e6 84 19 3e a6 a3 6f 3c a9 67 c0 3d
       -0.07288853 0.14992103 0.014626419 0.093947716
000320 b8 5c a0 3d 8c 51 89 bd 2e 9d 45 3d dd 87 19 3e
       0.07830185 -0.06705007 0.0482456 0.14993234
000330 b1 49 53 3c 4e b9 bf 3b 4e 44 9d 3c 12 05 bf bd
       0.012895987 0.0058509475 0.01919761 -0.09327139
000340 c3 c0 eb 3d 83 8b 86 be 47 a8 e9 bb e4 f9 08 3d
       0.11511376 -0.26278314 -0.007130656 0.03344144
000350 15 14 0e 3d 2c f1 8d bd 53 04 11 3d 4a d4 ac bd
       0.03468712 -0.069307655 0.035404515 -0.084389284
000360 b2 28 d4 bd d8 ef d4 3c a0 e0 2f 3d 8e 19 de 3d
       -0.103593245 0.025993273 0.04293883 0.10844718
000370 43 17 bd bd b9 1a 7d 3b 39 8c 99 3d 01 1d 4a bd
       -0.092329524 0.0038620664 0.074974485 -0.049344067
000380 d7 f3 0d be 8a ac b5 3d 25 16 fa bd 30 ea 1f bc
       -0.13862549 0.088708 -0.12211255 -0.0097604245
000390 ad e4 01 bf 71 70 cd 3d fc f8 50 bc c8 ea 2d be
       -0.50739557 0.10031212 -0.012754675 -0.16984093
0003a0 75 07 8c bd 71 0b f8 3d a1 1d 20 3e 5a 55 f5 3d
       -0.0683736 0.12111557 0.15636303 0.1197917
0003b0 e5 75 57 3e 89 93 8b 3c dd 6f 08 bd a2 e1 61 bb
       0.21041067 0.017038124 -0.033309806 -0.0034466763
0003c0 ae 7b b3 3d 83 d2 4f 3d ea 89 47 3e c1 97 af bd
       0.087638244 0.05073787 0.19486204 -0.08573867
0003d0 5a 3e f0 3c 0f 92 cb bd 88 00 69 be dc c3 80 3d
       0.029326607 -0.09939968 -0.22754109 0.06287357
0003e0 a0 39 f2 3d d5 42 90 bd 32 91 ee bd 12 22 8b bd
       0.11827397 -0.07043997 -0.116487876 -0.06793608
0003f0 de c2 de 3d 59 62 a7 be a5 a8 cd be 04 b1 74 3d
       0.10877012 -0.3269222 -0.40167728 0.059739128

fc2.bias f4 [64]
000000 bb 19 26 3d 46 03 1f 3e d0 19 21 bd 9c b2 da bd
       0.040551882 0.15528592 -0.039331257 -0.10678598
000010 fc 64 04 3e c8 dc 08 bc 03 d3 b4 bd d5 c2 1c bc
       0.12929147 -0.00835342 -0.0882931 -0.009567936
000020 01 72 e5 3d 80 62 5f bc ce be bb bd 14 70 ef bd
       0.11203385 -0.013634324 -0.091672525 -0.11691299
000030 dd 33 c5 3c 6a b4 35 3e b0 3c a8 3b ee 20 bb bd
       0.024072582 0.17744604 0.0051341876 -0.0913714
000040 c7 8b 1c 3d f9 a9 b5 bd f4 e7 10 bd 04 00 bd bd
       0.03821924 -0.0887031 -0.035377458 -0.092285186
000050 eb 86 73 3c a2 56 ba bd 08 71 33 3c 45 22 06 3d
       0.01486371 -0.09098555 0.010952242 0.032747526
000060 2c 50 ad 3d 94 25 83 bd 06 5f 82 3c 92 c5 31 3d
       0.08462557 -0.06403652 0.015914451 0.04340131
000070 78 d0 c8 3c 26 98 0f 3d 64 29 cb 3d 9f 20 1b 3d
       0.024513468 0.03505721 0.09920004 0.037872907
000080 2e 29 5b 3c a8 0e 30 bd 58 8b 45 3c 25 cc c1 3d
       0.013376517 -0.042982727 0.012057148 0.094627656
000090 9a cd a4 bd 6a 05 80 3c 34 ce 99 3b 2c 91 aa 3b
       -0.08047028 0.015627582 0.004693771 0.005205294
0000a0 61 9c 2c 3d 4b ae 01 3e 37 a7 77 3a 95 44 c2 3d
       0.042141322 0.12664144 0.0009447219 0.09485737
0000b0 90 63 d3 bd 51 3d 80 3d 3e e1 09 3b c7 19 38 bd
       -0.103217244 0.06261695 0.0021038796 -0.04494646
0000c0 fd 1c 84 3c ec 8c dc bd 64 55 b2 3d c6 32 e5 bc
       0.016127104 -0.10769066 0.08707693 -0.027978312
0000d0 cb e6 13 3c 0c 6b 47 bd 49 c5 0c be 8f 09 9e bd
       0.009027193 -0.048686072 -0.13747133 -0.07716667
0000e0 d4 52 08 3d 7b 19 21 bd 3b 88 fc 3d 38 0d 5e bd
       0.033282116 -0.03933094 0.123306714 -0.054211825
0000f0 71 be 85 bd 38 44 92 3d 80 0b 0a 3e 82 c4 88 3c
       -0.065304644 0.07141918 0.1348095 0.016695265

fc3.weight f4 [7, 64]
000000 e2 a4 2a be 31 3a 19 3e 7c 92 a6 bd e3 8c 83 3d
       -0.1666446 0.14963605 -0.081334084 0.064233564
000010 58 a8 14 3e 0e 9c cd 3c fe 7f 11 3e 35 82 39 bc
       0.14517343 0.025098827 0.14208981 -0.011322548
000020 fa 48 1e 3e 88 df 04 3d 34 2a 5a 3d e6 15 ed 3c
       0.15457526 0.03243974 0.053262904 0.028941106
000030 b3 7b 53 bd bf 88 69 3e 1c 7e fb 3c 44 56 65 bd
       -0.05163164 0.2280607 0.030699782 -0.055990472
000040 29 5e 62 be 23 11 63 3d 04 2a 00 bd fe ff 14 be
       -0.22106232 0.055436265 -0.03129007 -0.14550778
000050 3e 23 08 3e c2 a7 cb 3e 3c 2b 1c 3d 84 fd 37 be
       0.13294694 0.39776427 0.03812717 -0.17967802
000060 8f a9 11 3d f5 47 93 3d 04 01 7c bd 1f 54 43 3e
       0.035562094 0.07191459 -0.061524406 0.19075058
000070 d4 ca 05 bd 46 0b f9 bc 8c c4 66 be 32 4b 54 bd
       -0.032664135 -0.030400883 -0.22535914 -0.051829524
000080 0e 1d 45 be 13 59 c7 bd fc 60 80 3c dd 5e e2 3c
       -0.19249365 -0.097337864 0.015671246 0.027633125
000090 35 9c 3f bd 62 52 15 bd 53 9c ef 3c c1 1f e5 bd
       -0.04677983 -0.03645552 0.029249346 -0.11187697
0000a0 d6 cb fa 3c 42 d8 bd bc 94 bb 02 3e 86 37 0b be
       0.030614775 -0.023174409 0.12766868 -0.135954
0000b0 80 42 dc bc 07 65 09 3d 3c a9 d0 bc 26 19 04 3d
       -0.026887178 0.033543613 -0.025471322 0.032250546
0000c0 cf 9d 21 be 64 03 1d 3d 37 82 9a 3d 74 1e 78 bd
       -0.15782855 0.03833331 0.07544368 -0.060575917
0000d0 11 e2 2c 3d dc fd a2 bd fd 50 3f be f7 f2 e7 bc
       0.04220778 -0.07958576 -0.18683238 -0.028314097
0000e0 eb 6a 26 be 0a 7b 8b be 4e 88 9e 3d f5 88 75 be
       -0.16251723 -0.2724231 0.07740842 -0.23978026
0000f0 c1 08 b3 bd a2 2e 2c 3e 2c 0f bf 3d cf c7 23 3d
       -0.08741904 0.16814664 0.09329066 0.039985474
000100 e9 f7 30 3d 09 80 ad 3d 62 e4 d4 3d 42 59 f5 bd
       0.043205176 0.084716864 0.10395123 -0.11979915
000110 38 73 32 be b1 2e dc be b1 45 3b bc 64 65 dd bd
       -0.17426765 -0.43004373 -0.01143019 -0.10810354
000120 fc a8 be bd 14 a4 cf bd b8 b1 47 3d 4b 30 76 bd
       -0.09309575 -0.10138717 0.04875347 -0.06010465
000130 83 6a 07 3c 37 4a 09 3f 4a c6 91 bd 68 f7 b5 bd
       0.0082651405 0.5362887 -0.07117899 -0.088850796
000140 45 67 1f be ac 58 1e 3b 84 59 c1 3d c0 2c 2b be
       -0.15566738 0.002416174 0.09440902 -0.1671629
000150 97 b6 b7 3d 5a fd 6c ba 6b 48 55 3d 42 cb 45 3c
       0.08970373 -0.0009040438 0.052071016 0.012072386
000160 85 bb fa bd ee ff e9 3d a0 fc fc bd 1e d6 a7 3d
       -0.12242798 0.11425768 -0.12352872 0.081951365
000170 43 8e 50 3d 8c 6d 76 3b a1 97 bc be 5b 74 f4 3c
       0.05091692 0.0037601916 -0.36834434 0.029840639
000180 3d a8 24 be 75 d6 aa bc db 21 b6 3c 05 09 c7 3d
       -0.16079803 -0.020854214 0.02223294 0.09718517
000190 55 cd df bd 18 42 13 3e 78 ff af bd 3c 98 c3 bd
       -0.10927836 0.14380682 -0.08593649 -0.09550521
0001a0 a3 05 40 bd 7a c2 85 bd 68 6f b5 3d 42 64 86 bc
       -0.046880376 -0.06531234 0.0885914 -0.016405229
0001b0 1e cc a6 bd 50 0b 46 3c a4 2e 34 3e e2 ff 14 3e
       -0.08144401 0.012087658 0.17595917 0.14550737
0001c0 ea 11 c9 bd 22 e8 b5 3d 98 78 1c bd 00 e6 fe bd
       -0.0981787 0.088821664 -0.038200945 -0.12446213
0001d0 cd 53 0a 3e 4e bf 8e bd e0 f0 15 bd bb 05 e9 3d
       0.1350853 -0.06970082 -0.03660667 0.11378046
0001e0 76 53 77 3d 26 67 b4 3d 9a 79 1b 3d 63 d6 f9 bd
       0.06038233 0.088087365 0.037957765 -0.12199094
0001f0 80 86 42 3d 10 33 e3 3d d0 45 bd bc a2 47 86 3d
       0.04749155 0.11093724 -0.023104578 0.065566316
000200 91 25 1b 3e f9 3a 8f 3d d0 c7 b9 3c 53 be f7 3c
       0.15151049 0.0699367 0.022678286 0.03024212
000210 81 98 65 3b d8 c8 96 3d dd 4d 4f bd 05 78 7c bc
       0.0035033526 0.07362527 -0.050611366 -0.015409474
000220 39 3e ac 3d 70 dd 15 bc 1c d7 ef 3d 36 53 2f be
       0.084103055 -0.009147033 0.11710951 -0.17121586
000230 c0 03 86 3e 9b 91 52 3e 77 e6 64 be 84 ae 1c bc
       0.26174736 0.20563357 -0.2235354 -0.009563092
000240 3a 19 90 3b 88 42 e8 bd e8 0c 10 3d 89 40 36 3e
       0.0043975385 -0.11340815 0.03516856 0.17798056
000250 53 1b 2f 3d f9 2b 10 be dc b8 02 be c6 e3 46 3d
       0.042750668 -0.14079274 -0.12765831 0.048557065
000260 95 5e 0f bd 27 62 32 be 52 79 cd 3d f5 28 13 3e
       -0.03500231 -0.17420255 0.10032906 0.14371093
000270 ec 5e a5 3d 89 51 4b be 35 e1 2c 3d 24 79 b4 3d
       0.080747455 -0.19855322 0.04220696 0.08812168
000280 4c 4c ac bd 8c b0 d8 be 77 c6 e8 3b e3 81 48 3e
       -0.0841299 -0.42322195 0.007103737 0.19580798
000290 bf d1 24 be 8f 09 02 3e e3 ba 21 be 80 d2 10 bd
       -0.16095637 0.12698959 -0.15793948 -0.035357
0002a0 9a 63 bb 3b 82 7c 70 bd 43 4b e0 3d 4a 03 57 bd
       0.0057186605 -0.05871249 0.10951855 -0.05249337
0002b0 8c dd b6 3d 0e d4 2e 3e 68 04 2a 3e b1 a6 18 bd
       0.089289755 0.1707308 0.16603243 -0.037268344
0002c0 cf 77 e0 bd a0 c1 9e bb ce f9 0b be c6 da de bc
       -0.10960352 -0.0048448592 -0.13669512 -0.027203929
0002d0 f1 25 77 bd 00 85 62 ba 26 30 89 be a1 6b 4a bb
       -0.060338918 -0.00086410344 -0.26794547 -0.0030886906
0002e0 06 4d 11 be e5 03 44 bd 32 50 ea bd 31 90 db 3d
       -0.14189538 -0.047855277 -0.11441077 0.10720862
0002f0 80 32 72 3d 2c d2 85 3c 67 54 01 3e f1 0c 82 bd
       0.05913019 0.01633557 0.12629853 -0.063501246
000300 ab 10 2a be 15 6b d6 3c da 66 92 3d 80 41 02 be
       -0.16607921 0.026174108 0.07148524 -0.12720299
000310 b2 b0 b2 3b 0b 6d e5 3c 9c 2a 02 3e 5d db 88 3e
       0.0054531926 0.028006097 0.12711567 0.2672986
000320 59 27 6a bc a8 c0 65 bd f0 d6 10 3c 0a 93 56 bb
       -0.014291608 -0.056091934 0.008840308 -0.003274145
000330 4b 7e 79 3e 72 66 f8 3c fd ff 18 be 40 0c 17 3c
       0.24364583 0.030322287 -0.14941402 0.009219229
000340 c6 67 f9 3d 7f 5a 15 3c 58 09 c9 bc ce fc f5 bd
       0.12177996 0.009115814 -0.024540588 -0.12011109
000350 fa 95 2f 3e 4e ba da bb 70 09 3b bc fd 89 3d be
       0.17147055 -0.0066750413 -0.011415824 -0.1850967
000360 21 30 37 3e fe b5 84 3c cd 91 28 3d 2d 00 2a bd
       0.17889453 0.016200062 0.04115467 -0.041504074
000370 fc 07 2c 3e 93 7d b9 3d c0 7c 67 3e ad d0 72 bc
       0.16799921 0.090571545 0.22606182 -0.01482026
000380 2e 89 54 be 78 f9 7c be f2 ec d7 3d 04 ac f2 bd
       -0.20755455 -0.2470454 0.105432406 -0.118492156
000390 0d b3 aa bd e4 f0 96 3c 16 b6 73 bd e8 a5 0f be
       -0.083349325 0.018425412 -0.059499823 -0.14028132
0003a0 2f cd a2 3c fe 4e 17 3e 19 8f 24 3d 08 de 9a bd
       0.01987323 0.14776227 0.04017553 -0.0756188
0003b0 84 85 e8 bd 2c 6e 0d 3e a1 a5 18 3c 70 51 dc 3b
       -0.11353591 0.13811558 0.009316833 0.0067235753
0003c0 0d 18 9a bd 10 36 17 3c 6d 93 52 bd 09 96 d4 bd
       -0.075241186 0.009229198 -0.051410127 -0.103801794
0003d0 26 9b 2e 3d 90 6b 00 3d ac 0c 8f 3b 87 ff 26 3e
       0.04262843 0.03135258 0.0043655243 0.16308413
0003e0 7a c3 2f bd 58 d0 16 be bc ec f8 bd e2 36 91 3c
       -0.04291103 -0.14727914 -0.121545285 0.017726365
0003f0 dc 92 ee 3d 76 9e 20 3d e4 05 8e 3d ca 55 5a 3c
       0.11649105 0.03921362 0.06934717 0.013326118

fc3.bias f4 [7]
000000 13 1f ac bd 83 eb 91 bd 72 a3 84 bd b4 fc 25 3e
       -0.084043644 -0.071249984 -0.06476487 0.1620968
000010 f1 47 fe 3c 61 fd 78 bd d6 59 45 be
       0.031040164 -0.060788516 -0.19272551
