src/pretty_good_actually_with_other_rewards.pth (torch, 294018 bytes, 10 tensors)

conv1.weight f4 [16, 80, 3, 3]
0	0x3d1be331	0.038058463
1	0x3d51042a	0.05102936
2	0x3daf559f	0.08561253
3	0x3dc67d1a	0.0969183
4	0x3c179ba0	0.0092534125
5	0x3ce28595	0.027651588
6	0x3dc92e58	0.098232925
7	0xbd922cc2	-0.07137443
8	0x3d25c180	0.04046774
9	0xbc85a32b	-0.016313156
10	0xbb142f59	-0.002261123
11	0x3c72f3fa	0.014828676
12	0x3c0000b2	0.007812666
13	0xbc2d3a7f	-0.010573029
14	0xbbe5d1bf	-0.007013529
15	0x3d10d504	0.035359398
16	0x3c6f96b7	0.014623336
17	0x3928afef	0.00016087269
18	0xbb18853d	-0.0023272776
19	0xbad0b19b	-0.0015922071
20	0x3c6ca5ad	0.014443797
21	0xbb56cff0	-0.003277775
22	0x391b1454	0.00014789525
23	0xbc06bda6	-0.008223927
24	0xbb9ca6b1	-0.0047806134
25	0x3c2a651b	0.010400082
26	0xba7941b0	-0.00095083844
27	0xbd05fcda	-0.03271184
28	0xbc1209fa	-0.008913511
29	0x3b98fe44	0.0046689827
30	0x3b0b767b	0.0021280337
31	0xbc9716b7	-0.018443448
32	0xba6f9df6	-0.00091406645
33	0xbabfada9	-0.0014623898
34	0x3c861ee9	0.016372161
35	0xba98899a	-0.0011637688
36	0xbb520141	-0.0032044204
37	0xbd2216ee	-0.03957265
38	0x3cf919df	0.030407844
39	0xbd045679	-0.03230903
40	0x3bd2ded1	0.006435253
41	0x3cf0bb95	0.029386321
42	0x3c118343	0.008881393
43	0x3d00f53c	0.031483874
44	0x3c8ac0fc	0.016937725
45	0x3d23159b	0.039815526
46	0x3ca0c568	0.01962538
47	0xbc004b28	-0.007830419
48	0xbd46e9b9	-0.04856274
49	0xbb9dd740	-0.0048169196
50	0xbc909057	-0.017646952
51	0xbc68ed12	-0.014216678
52	0xbb2ed856	-0.002667924
53	0xbca95ce1	-0.02067417
54	0x3d310870	0.043220937
55	0x3cb84588	0.022494093
56	0xbc624a5e	-0.013811676
57	0x3c80d22c	0.015725218
58	0x3b8dbbc6	0.004325363
59	0x3b66e01c	0.0035228794
60	0x3d1b7648	0.0379546
61	0x3cadd8bc	0.021221511
62	0x3c4aea2a	0.012384931
63	0xbc2d5bc5	-0.010580962
64	0x3bbd9d88	0.0057866015
65	0x3cc0c1aa	0.023529846
66	0xbb8b331d	-0.0042480365
67	0x3c9ff295	0.019524852
68	0xbd1de846	-0.03855159
69	0xbbb0a357	-0.0053905654
70	0x3d00d643	0.031454336
71	0x3b0ffeff	0.0021972058
72	0xbb1b8077	-0.0023727694
73	0x3c20f9b0	0.009825155
74	0xbcd46ce1	-0.025930824
75	0x3d08aa5a	0.033365585
76	0xbc8b653e	-0.01701605
77	0x3c76f54b	0.015073131
78	0x3d7391cd	0.05946522
79	0x3b700ee2	0.0036629965
80	0xbb3c59de	-0.0028740088
81	0x3c041cd7	0.008063517
82	0x3d7478f1	0.05968565
83	0x3cddd803	0.027080541
84	0xbcdb2daa	-0.026755173
85	0x3bcb9117	0.0062123644
86	0x3d80f81b	0.06297322
87	0x3c68a42c	0.014199298
88	0xbc8c5f03	-0.017135149
89	0x3cd5b145	0.026085505
90	0x3daca1db	0.08429309
91	0x3d67d93e	0.056603663
92	0x3d35bcb3	0.04436941
93	0x3d1e92a7	0.038714077
94	0x3ce9cce3	0.02854008
95	0x3d531b4b	0.0515397
96	0x3d9a6060	0.07537913
97	0xbde41456	-0.11136691
98	0x3dadf632	0.08494224
99	0xbbd76746	-0.0065735904
100	0xba16e83e	-0.00057566527
101	0xbbbc0be9	-0.0057387245
102	0x3bbd7c64	0.005782651
103	0xbc9f76c5	-0.019465813
104	0xbc39904c	-0.011325907
105	0x3d852598	0.06501311
106	0x3c0e604d	0.008689952
107	0x3be0b4a3	0.006857471
108	0xbb9c6c6c	-0.004773667
109	0xbbdd457c	-0.006752668
110	0x3c157684	0.009122495
111	0x3b45a6f1	0.003015932
112	0x3a887305	0.0010410255
113	0xbbd23e0c	-0.006416088
114	0xbcb41225	-0.021981308
115	0x3bd3ebcd	0.0064673186
116	0xbc75a488	-0.014992841
117	0xbc93d4bf	-0.018045781
118	0xbd00a1d1	-0.03140432
119	0x3c1151ca	0.008869598
120	0x3c3944ae	0.011307878
121	0xbcb5d6d5	-0.022197166
122	0x3c35f95e	0.011106817
123	0x3c0006e1	0.00781414
124	0x3c2f69b9	0.010706359
125	0x3bb9a853	0.0056658178
126	0xbd0066ab	-0.03134791
127	0xbd3ce83f	-0.046119925
128	0x3d1863f7	0.03720471
129	0xbce8a6f1	-0.028399916
130	0xbcbc2ddd	-0.022971088
131	0x3c2ebc94	0.010665078
132	0x3cd461b9	0.025925504
133	0x3ca180b1	0.019714685
134	0x3d4d1b9b	0.050075155
135	0x3cc0c020	0.023529112
136	0x3d7fbabe	0.06243395
137	0x3cb5139a	0.022104073
138	0x3b0f06ab	0.0021824043
139	0x3d0d2f8c	0.034469172
140	0xbca380ca	-0.019958872
141	0x3cdd190f	0.026989488
142	0xbcb1675a	-0.021655727
143	0xbc0b9ba0	-0.008520991
144	0x3d5192a3	0.051165234
145	0x3c7c66d0	0.015405372
146	0x3c81ef26	0.015861105
147	0x3c49ffec	0.012329083
148	0x3c002494	0.007821221
149	0x3b480985	0.0030523252
150	0x3d6d5517	0.057942476
151	0x3c875e8b	0.016524574
152	0x3b9d6fdc	0.0048045944
153	0xb951c919	-0.00020006708
154	0x3ba5335a	0.005041522
155	0xbd50cfa2	-0.050979264
156	0xbc842fe6	-0.016136121
157	0x3bce5b66	0.0062975166
158	0xbc190a42	-0.009340825
159	0xba1d80a9	-0.00060082466
160	0x3cb63f75	0.022247056
161	0x3c989723	0.018626755
162	0xbbd7fb69	-0.0065912497
163	0xbc80c832	-0.01572046
164	0xbceec729	-0.029147701
165	0xbc8eec16	-0.017446559
166	0xbc1f278b	-0.009714018
167	0x3c8c4d5f	0.017126737
168	0x3c4f8a2a	0.012667218
169	0xbc638b47	-0.013888187
170	0xbc7925de	-0.015206782
171	0x3ba98f0f	0.0051745246
172	0x3d964299	0.07336921
173	0x3d2f090f	0.04273325
174	0x3b4447e7	0.0029950084
175	0xbc923ca2	-0.017851178
176	0x3d9df9f3	0.0771369
177	0x3bb49b09	0.0055116457
178	0x3af12b2c	0.0018399707
179	0x3ce4cee1	0.027930679
180	0x3d1e56ff	0.038657185
181	0x3d994228	0.074833214
182	0x3dcb0093	0.09912219
183	0x3d91c8c6	0.071183726
184	0xbc17bac2	-0.009260835
185	0x3d448e79	0.047987435
186	0x3da54506	0.08069806
187	0xbd69cd6e	-0.05708068
188	0x3d95998c	0.07304677
189	0xbb451a6a	-0.0030075558
190	0xb8ab8aba	-8.179755e-05
191	0x3b73a4be	0.0037177051
192	0x3c61387f	0.01374638
193	0xbd0e6015	-0.0347596
194	0xbc99d262	-0.018777076
195	0x3d8ad40d	0.06778727
196	0x3cb0ca58	0.02158086
197	0x3c3a3a35	0.011366417
198	0xbc295c7a	-0.01033699
199	0xbba6ccf5	-0.0050903508
200	0x3c86df54	0.016463913
201	0x3bfac14d	0.007652438
202	0xbc2d49b0	-0.0105766505
203	0x3bc068c3	0.0058718636
204	0xbc93f2fd	-0.018060202
205	0x3c6f8d2e	0.014621062
206	0xbc8193c2	-0.015817527
207	0xbd0fac1a	-0.03507624
208	0xbcf38898	-0.029728219
209	0xbb2a1a93	-0.002595578
210	0x3bee56ac	0.0072735157
211	0xbd016e62	-0.03159941
212	0x3cb57f12	0.022155318
213	0xbb23b184	-0.0024977634
214	0x3c841eea	0.016128022
215	0x3b0f1f78	0.0021838825
216	0xbcfae4da	-0.030626703
217	0xbc3ec09f	-0.011642604
218	0xbba5e003	-0.0050621047
219	0xbc4ff2cf	-0.012692167
220	0xbcdf867c	-0.027285807
221	0x3b1d5dbd	0.0024012171
222	0x3da19b46	0.07890944
223	0x3c9443bc	0.018098705
224	0x3cf7f2bc	0.030267112
225	0x3c41376d	0.011793
226	0x3d1c4699	0.038153265
227	0x3b89d81f	0.004206672
228	0xbcd8870e	-0.026431587
229	0x3c335b71	0.010947094
230	0xbcf6e53f	-0.03013861
231	0xbbd4a5cb	-0.0064894906
232	0xbd3e76fa	-0.046500184
233	0xbce661e9	-0.02812286
234	0x3d4f4590	0.05060345
235	0x3a35e339	0.0006938461
236	0x3c9c1255	0.01905171
237	0x3cd4f673	0.025996422
238	0xbc82facc	-0.01598873
239	0x3aa02247	0.0012217247
240	0x3d5823bc	0.052768454
241	0x3ca2b214	0.019860305
242	0xbc6ed2ce	-0.014576627
243	0xbb466a47	-0.0030275749
244	0x3c87c7a1	0.016574683
245	0xbd00bbc5	-0.03142907
246	0x3d084748	0.033271104
247	0x3b800d90	0.003907867
248	0x3c813cc3	0.015776044
249	0xbceb7b0d	-0.028745199
250	0x3ce794c7	0.028269185
251	0xbd0cf84b	-0.034416478
252	0x3d33c324	0.043887272
253	0x3d2ecce1	0.042675857
254	0x3b84b3b5	0.004049743
255	0xbb99e9c7	-0.004697058

conv1.bias f4 [16]
0	0x3e2edc51	0.17076232
1	0xba211ecf	-0.00061462534
2	0x3c9d2168	0.019180968
3	0x3d017115	0.031601984
4	0x3dfc6f03	0.12325861
5	0xbd2dc004	-0.04241945
6	0x3dab0ec3	0.08352425
7	0xbd7ba23a	-0.06143401
8	0x3dd7a9fe	0.1053047
9	0xbd4fafb2	-0.050704665
10	0x3d81c8e3	0.06337144
11	0xbd168e2e	-0.036756687
12	0xbca2cd60	-0.019873321
13	0x3dd46428	0.10370666
14	0x3e413ee5	0.18871649
15	0x3e528bed	0.2056119

conv2.weight f4 [32, 16, 3, 3]
0	0x3e75f8fc	0.24020761
1	0xbcdf9fb1	-0.027297826
2	0x3dad67ec	0.08467087
3	0x3e2b7649	0.16744341
4	0x3d4b3ce1	0.049618606
5	0x3da63977	0.08116429
6	0x3cc4506c	0.02396413
7	0x3d8bd14a	0.06827028
8	0x3e328965	0.17435224
9	0xbceaca63	-0.028660959
10	0x3debba77	0.11510175
11	0xbd98ffe2	-0.07470681
12	0x3df8c4e5	0.1214693
13	0x3e877764	0.26458275
14	0x3de82d14	0.11336723
15	0x3e0e7c2d	0.13914557
16	0x3e913b21	0.28365424
17	0xbda786ab	-0.08179983
18	0xbe44a7b4	-0.19204599
19	0xbe0a3d42	-0.1349993
20	0x3e246ce7	0.16057168
21	0xbe181b75	-0.14854224
22	0x3ac4739c	0.0014988068
23	0xbdf87f64	-0.12133673
24	0x3d975a71	0.07390297
25	0xbc945156	-0.01810519
26	0x3d13e315	0.036105234
27	0x3e6c6d60	0.23088598
28	0xbe4600b7	-0.1933621
29	0x3e129214	0.14313537
30	0xbe2bfd2d	-0.16795798
31	0xbda8a9bb	-0.082354985
32	0xbe281da9	-0.16417564
33	0x3d22fa4c	0.039789483
34	0xbe5fc665	-0.21853025
35	0xbcea1a8a	-0.028577108
36	0x3e84b2bd	0.25917616
37	0x3d301058	0.042984337
38	0x3dcca675	0.09992687
39	0x3e646e72	0.22307757
40	0x3e16090b	0.14651887
41	0xbdf27165	-0.118380345
42	0x3e605f65	0.2191139
43	0xbb19488e	-0.0023389193
44	0x3dfc98a7	0.123338036
45	0x3d1d472e	0.03839796
46	0x3e2428a6	0.16031131
47	0x3cd356d2	0.025798235
48	0xbaad56fd	-0.0013224777
49	0xbdd1f9b5	-0.10252706
50	0xba6892da	-0.000887198
51	0xbc9202c5	-0.017823586
52	0x3c42d7b5	0.011892249
53	0xbdc54cd3	-0.09633794
54	0x3cda4154	0.026642479
55	0xbd08b14f	-0.03337222
56	0xbe111ba5	-0.14170702
57	0x3df0ec43	0.11763813
58	0x3c3bcace	0.011461927
59	0x3d9a74cb	0.07541808
60	0x3e2e9c16	0.1705173
61	0x3db9b0fc	0.0906696
62	0x3c7639bc	0.015028413
63	0x3c65e58d	0.01403178
64	0x3d922079	0.071351
65	0x3c1cf65a	0.009580219
66	0xbe3fdefa	-0.18737403
67	0x3d8bf6c6	0.06834178
68	0xbd1c53a3	-0.0381657
69	0x3d62bf89	0.055358443
70	0xbd964947	-0.07338195
71	0x3ccac072	0.024749968
72	0x3bee3244	0.0072691757
73	0xbe362190	-0.1778624
74	0x3d9afb21	0.0756743
75	0x3ddaa945	0.10676817
76	0xbe81739b	-0.25283512
77	0xbe6d1d58	-0.23155725
78	0x3d3af80a	0.045646705
79	0xbe33cf34	-0.1755951
80	0x3d471745	0.048606176
81	0x3d9ffe87	0.07812219
82	0x3df0ad3b	0.11751791
83	0x3e50e55f	0.20399998
84	0x3e05b3a9	0.13056816
85	0x3db041a7	0.08606272
86	0x3dc77e86	0.09740929
87	0xbd8009ff	-0.062519066
88	0x3c257237	0.010098032
89	0x3e2dfded	0.16991396
90	0x3d34df3c	0.044158205
91	0x3cd6412f	0.026154129
92	0x3dca3fa6	0.09875421
93	0xbdeb4938	-0.11488575
94	0x3d49a2de	0.049227588
95	0xbe0de1af	-0.13855623
96	0x3d907ca6	0.07055025
97	0xbdfd54a8	-0.123696625
98	0x3e2bf875	0.16793998
99	0xbd1d11b9	-0.03834698
100	0x3e232a23	0.15934043
101	0x3e09d52f	0.1346023
102	0xbd559e8c	-0.052153155
103	0xbe0f641f	-0.14003037
104	0x3d05dffc	0.03268431
105	0xbdf466dd	-0.11933682
106	0x3cda662c	0.026660047
107	0xbdd3b115	-0.1033651
108	0x3e4ec93b	0.20193951
109	0xbba53b79	-0.00504249
110	0x3ba48d3f	0.0050217207
111	0x3e83d7d2	0.25750595
112	0x3cac04f7	0.020998461
113	0x3e04a556	0.12953696
114	0x3b06b707	0.002055587
115	0x3ce3113e	0.027718183
116	0xbc4c0883	-0.012453201
117	0x3d35b462	0.04436148
118	0xbe23d4e3	-0.15999179
119	0xbdc044d1	-0.09388126
120	0xbc26bae5	-0.010176395
121	0xbe38c13b	-0.18042462
122	0xbd7c215c	-0.06155525
123	0xbc09b8c6	-0.00840587
124	0x3db5bf6c	0.088744015
125	0x3daa1020	0.08303857
126	0x3d4b8042	0.049682863
127	0xbc28c7e8	-0.010301568
128	0x3e1ea6a8	0.15493262
129	0x39ced3a3	0.00039449063
130	0x3de40144	0.11133054
131	0xbd636414	-0.055515364
132	0xbdc6171e	-0.09672378
133	0xbc63b5b2	-0.0138983
134	0x3d356065	0.044281382
135	0x3d77e0fc	0.060517296
136	0x3cb5de2a	0.022200663
137	0x3d84fa8f	0.06493103
138	0xbb67815a	-0.0035324902
139	0x3e65f5d9	0.22457065
140	0x3d7d7998	0.06188354
141	0x3e10d140	0.14142323
142	0xbd916a30	-0.07100332
143	0xbddca0b0	-0.10772836
144	0xbe1159ae	-0.14194366
145	0x3d76173d	0.060080756
146	0xbc03ac82	-0.008036735
147	0x3dabee23	0.0839503
148	0x3d4c7079	0.04991195
149	0xbd60e51f	-0.054906007
150	0xbd311274	-0.04323049
151	0x3d2cd075	0.042190988
152	0x3ac18fc7	0.001476758
153	0xbdc09586	-0.09403519
154	0x3e248f24	0.16070229
155	0xbca9c580	-0.020724058
156	0xbcc0eba6	-0.023549866
157	0x3e54e861	0.2079177
158	0xbe02d2ee	-0.12775776
159	0x3e3c6230	0.1839683
160	0x3d9f94da	0.07792063
161	0xbe0a3aa0	-0.13498926
162	0x3dd54bac	0.10414824
163	0x3dcd29ee	0.10017763
164	0x3e00018a	0.12500587
165	0xbbdfb23f	-0.0068266685
166	0xbdfc5f69	-0.123228855
167	0xbcc11a44	-0.023572095
168	0xbe187f96	-0.1489242
169	0xbdf21f39	-0.118223615
170	0xbd952b76	-0.0728368
171	0xbe28e2d1	-0.16492774
172	0x3d494687	0.049139526
173	0x3d8c0a5e	0.06837915
174	0x3d889eb8	0.06670898
175	0x3e157a1d	0.14597364
176	0xbdf549a2	-0.11976935
177	0x3e83119e	0.25599378
178	0x3e393341	0.18085958
179	0x3e6597c6	0.22421178
180	0xbecbe027	-0.39819452
181	0xbe9742ff	-0.295433
182	0x3e508a30	0.20365214
183	0x3dbc7f75	0.09203998
184	0x3dbbe278	0.09174055
185	0x3dc4cf0f	0.09609806
186	0xbdd6a8c6	-0.1048141
187	0x3c4b1b2f	0.012396618
188	0x3e330a33	0.1748436
189	0x3e91d05f	0.28479287
190	0x3e3f125c	0.18659347
191	0xbba34358	-0.0049823932
192	0x3ea40cd0	0.32041025
193	0x3e316d2d	0.17326804
194	0xbb4fe4f0	-0.003172215
195	0x3daf9660	0.08573604
196	0xbe28eba0	-0.16496134
197	0xbcbcdf79	-0.023055779
198	0xbe46dc1e	-0.19419906
199	0x3e6a653b	0.22890179
200	0xbd2ecd48	-0.04267624
201	0x3e452c02	0.19255069
202	0x3e64f0be	0.22357461
203	0x3d82c73e	0.06385659
204	0xbd2f06de	-0.04273116
205	0x3c80b1df	0.015709816
206	0xbe0d06a1	-0.1377206
207	0x3dc01c09	0.09380347
208	0x3e66b493	0.22529821
209	0xbdd55c66	-0.10418014
210	0x3e64e416	0.22352633
211	0x3e01a523	0.12660651
212	0x3d21cde3	0.03950299
213	0x3c2dba70	0.010603532
214	0xbe209024	-0.15679985
215	0xbd85cdde	-0.06533407
216	0xbec6d252	-0.38832337
217	0xbe8ab4c2	-0.27091032
218	0x3d90a885	0.070633925
219	0xbed9227a	-0.42409116
220	0xbe99309e	-0.29919904
221	0x3e44b3bb	0.19209187
222	0xbea72dd9	-0.32652166
223	0x3bd9c24a	0.0066454755
224	0x3e89bb63	0.26900777
225	0x3c2df5f2	0.01061772
226	0xbda654bc	-0.081216305
227	0x3dc44599	0.09583587
228	0xbda7be5e	-0.081906065
229	0xb777ae13	-1.4762877e-05
230	0x3e2534ef	0.16133474
231	0x3c745ada	0.014914239
232	0xbc165f34	-0.009177972
233	0x3e6ed19c	0.23322147
234	0x3dbedbe3	0.09319284
235	0x3c9c9577	0.01911424
236	0xbb91476f	-0.0044335644
237	0x3e20bd33	0.15697174
238	0x3e599483	0.21248059
239	0x3e0804eb	0.13283126
240	0xbdd8f85c	-0.10594246
241	0xbd708d93	-0.058728766
242	0x3e201303	0.15632252
243	0xbd4cc400	-0.049991608
244	0xbdc847b9	-0.09779305
245	0x3c5f22cd	0.013619137
246	0xbda16d34	-0.07882157
247	0x3ca5b1ae	0.020226326
248	0x3dd7e8bd	0.10542438
249	0x3d78f368	0.060779005
250	0x3da5b037	0.08090251
251	0x3dd6f41c	0.10495779
252	0xbc17a1f4	-0.009254921
253	0x3ce57cf2	0.02801368
254	0x3b2059ee	0.0024467665
255	0xbd9baf1c	-0.07601759

conv2.bias f4 [32]
0	0x3dd43a1d	0.10362647
1	0x3d3bdde0	0.045865893
2	0x3dd92d39	0.10604329
3	0x3de5bf13	0.11218085
4	0x3c728edc	0.014804568
5	0x3e214173	0.15747623
6	0x3d4608cf	0.048348244
7	0x3de9db18	0.11418742
8	0x3db5cff2	0.08877553
9	0x3cf57749	0.029964106
10	0x3d93a778	0.072096765
11	0x3e17b142	0.14813712
12	0x3d3f1d8a	0.04665903
13	0x3cab758c	0.020930074
14	0x3c9fa91d	0.01948982
15	0xbca5c78f	-0.020236759
16	0x3d8df27a	0.06931014
17	0x3cf4d5d6	0.029887121
18	0x3db78bfd	0.089622475
19	0x3d72eb60	0.059306502
20	0x3db5d91c	0.08879301
21	0x3d41472e	0.047187023
22	0x3d8a32ab	0.067479454
23	0x3ce351e5	0.027749011
24	0x3c74ba2c	0.014936965
25	0x3e21f3a8	0.15815604
26	0x3e215ceb	0.15758102
27	0x3e28b377	0.1647471
28	0x3def79dc	0.11693165
29	0x3e01add7	0.12663971
30	0x3c87913a	0.016548742
31	0xbd4c73d0	-0.049915135

fc1.weight f4 [64, 800]
0	0x3c6736a4	0.014112148
1	0xbb9ebda4	-0.0048443843
2	0xbd08fe2b	-0.03344552
3	0x3cde7d2a	0.027159292
4	0xbcde011a	-0.027100135
5	0xbcac36cc	-0.021022223
6	0xbca905bf	-0.020632623
7	0xbc5bbc97	-0.013411663
8	0x3ccbc4e7	0.024874164
9	0xba7e9332	-0.0009711265
10	0xbce76edc	-0.028251104
11	0x3c45369d	0.012036947
12	0x3cdb4bc8	0.026769534
13	0xbc89ca79	-0.01682018
14	0xbbb3b464	-0.0054841507
15	0xbcd3421b	-0.025788357
16	0xba5c6cca	-0.0008408545
17	0x3cf3bf22	0.029754225
18	0x3bcf8143	0.006332548
19	0x3b2fe817	0.0026841217
20	0xbcf51af2	-0.029920075
21	0x3bc204ba	0.0059209736
22	0x3b8988f6	0.004197235
23	0xbcb9aa50	-0.02266422
24	0x3c6fad08	0.014628656
25	0xbcae10ac	-0.021248184
26	0xbca2974c	-0.019847535
27	0x3cac012f	0.020996658
28	0x3c0da780	0.008645892
29	0xbd0ceeec	-0.03440754
30	0xbd0f1edf	-0.03494155
31	0xbcf774e4	-0.030207105
32	0x3bff6026	0.007793444
33	0x39f92496	0.0004752024
34	0xbd18727c	-0.037218556
35	0x3d01e1a6	0.031709336
36	0xbb927376	-0.0044693304
37	0x3bb73207	0.0055906805
38	0xbc1cff2d	-0.009582323
39	0xbc82a817	-0.015949292
40	0x3cd5203c	0.026016347
41	0xbcedcf8a	-0.029029626
42	0xbcae8f8c	-0.021308683
43	0xbc1c3d02	-0.00953603
44	0xbcccf9b8	-0.025021419
45	0x3c68f283	0.014217976
46	0x3c83a522	0.016069952
47	0x3bcbbd97	0.006217669
48	0xbd11acd2	-0.035565205
49	0xbd0d234c	-0.03445749
50	0xbcf83858	-0.030300304
51	0xbce093cd	-0.027414227
52	0xbcb6c501	-0.022310736
53	0x3ce0e3ea	0.027452428
54	0x3c7f3dd3	0.015578705
55	0xbca087d7	-0.019596023
56	0x3cdc8871	0.02692053
57	0x3cd32ab9	0.025777208
58	0x3a1d0bb9	0.00059908215
59	0xbbc701df	-0.006073221
60	0x3cfc1223	0.030770367
61	0xbbc33ddc	-0.005958302
62	0xbc3fc58d	-0.011704815
63	0x3c894be8	0.016759828
64	0x3cda4d16	0.026648086
65	0xbb9f3e6d	-0.0048597367
66	0xbccbccb4	-0.024877883
67	0xbc4040d6	-0.011734208
68	0xbc64200d	-0.013923657
69	0x3cc46b83	0.023977047
70	0x3cfb36c3	0.03066576
71	0x3cf2501c	0.029579215
72	0x3a2e8ae9	0.00066582725
73	0x3c84d746	0.016215932
74	0xbb2104e9	-0.0024569577
75	0xbbeeeb5e	-0.0072912415
76	0xbc9cb37c	-0.019128554
77	0x3cc9af77	0.024619801
78	0x3cb35b0e	0.021894004
79	0x3c97428d	0.018464351
80	0x3c724ba4	0.014788542
81	0xbc9a8755	-0.01886336
82	0x3cc0b3b9	0.023523198
83	0x3bd12eaa	0.0063837366
84	0x3c62b43d	0.0138369175
85	0xbc93164b	-0.017954966
86	0x3c62f17f	0.0138515225
87	0xbd06e578	-0.032933682
88	0xbcb3ba12	-0.021939311
89	0xbc0ebedf	-0.008712499
90	0xbcb1aff1	-0.02169034
91	0x3bcc060e	0.0062263077
92	0x39f92ca9	0.00047526255
93	0x3cfca06d	0.030838216
94	0x3ce68d1a	0.028143454
95	0x3c815bef	0.015790908
96	0xbc9d1993	-0.019177234
97	0x3c8a07c0	0.016849399
98	0x3cab35ab	0.020899614
99	0xbc68a7eb	-0.014200191
100	0xbc5bbf9c	-0.013412382
101	0xbd05c55f	-0.03265893
102	0x3c388eee	0.011264546
103	0xbc96f304	-0.018426426
104	0xbaa3be15	-0.0012492562
105	0x3c6eb2a1	0.014568956
106	0xbd010398	-0.031497568
107	0x3c4d5066	0.0125313755
108	0x3cfd7aa9	0.030942278
109	0x3d0a0030	0.033691585
110	0x3c3bb0ec	0.011455756
111	0x3c0c5c02	0.008566858
112	0x3c781804	0.0151424445
113	0xbd072634	-0.032995418
114	0xbcbe221a	-0.02320962
115	0x3c5add86	0.013358479
116	0xbc9dea58	-0.019276783
117	0xbd142b43	-0.03617407
118	0xbc8d42fd	-0.017243857
119	0xbabc66e1	-0.0014373922
120	0xbcbc0490	-0.022951394
121	0xbcb4f7e0	-0.022090852
122	0xbd1b1e3a	-0.037870623
123	0xbc25aff6	-0.010112753
124	0xbc6fa6c6	-0.014627164
125	0xbca5cd15	-0.020239392
126	0xbcc85513	-0.024454629
127	0x3b4c8826	0.003120908
128	0x3c259deb	0.010108451
129	0xbbe04b82	-0.0068449387
130	0xbcbdfec8	-0.023192778
131	0xbcb934ea	-0.02260824
132	0x3ccb878d	0.02484491
133	0x3ca60311	0.020265134
134	0xbcfcac7b	-0.030843964
135	0xba81d15a	-0.000990431
136	0xb974a343	-0.00023330473
137	0x3cd20b30	0.0256401
138	0x3cb6f22b	0.022332272
139	0x3ce39f3a	0.027785886
140	0xbcdf5d51	-0.027266176
141	0xbcdde966	-0.027088832
142	0xbcfbe68f	-0.030749587
143	0x38de5f80	0.00010603573
144	0xbd0b0c18	-0.03394708
145	0xbb882b6a	-0.004155566
146	0x3cb516a2	0.022105519
147	0xbcc3b83c	-0.02389156
148	0x3c7d9e0e	0.015479578
149	0x3b50116d	0.0031748668
150	0x3c5058ea	0.012716511
151	0xbc3b3cb5	-0.011428048
152	0xbc918537	-0.017763717
153	0x3ba3565a	0.004984659
154	0xbc88bff6	-0.016693097
155	0x3bdd74c4	0.0067583043
156	0xb92f4ffa	-0.00016719094
157	0x3c597afd	0.013273952
158	0xbcd323c2	-0.025773887
159	0x3cbfd03f	0.02341473
160	0x3caa4cd1	0.020788582
161	0x3c94cf74	0.018165328
162	0xbcf68dac	-0.030096851
163	0xbce1ee57	-0.02757947
164	0xbc83e055	-0.01609818
165	0xbd04c9e5	-0.032419104
166	0x3b9d6a2b	0.004803916
167	0xbbd71a8b	-0.0065644435
168	0xbcc27056	-0.023735207
169	0x3cd376e3	0.025813526
170	0xbc74f200	-0.014950275
171	0xbc5f3d9b	-0.013625528
172	0xbc3908ec	-0.011293631
173	0xbcc8484f	-0.024448542
174	0xbc99d9de	-0.018780645
175	0x3cf2c6d9	0.029635834
176	0xbbe84728	-0.0070885606
177	0x3c9c115a	0.019051243
178	0xbc7319e1	-0.014837713
179	0xbcd76c3b	-0.026296725
180	0x3ccc96bf	0.024974225
181	0x3ccf97b6	0.025340896
182	0x3cedcfe7	0.0290298
183	0xbd15996c	-0.036523268
184	0x3b537647	0.0032266544
185	0xbbdbb390	-0.006704755
186	0x3ce7fa2c	0.028317533
187	0xbcf5e4e3	-0.030016368
188	0x3c9c2231	0.019059272
189	0x3c989ec2	0.01863039
190	0x3ba8916c	0.0051442888
191	0xbcc7950e	-0.024363067
192	0x3cfe9045	0.031074652
193	0xbbf3ac85	-0.0074363374
194	0x3b469e69	0.0030306822
195	0x3cd50443	0.026003009
196	0x3cb20f3e	0.021735784
197	0x3c859f54	0.016311325
198	0x3ced9ed0	0.029006392
199	0xbc1281a9	-0.008942046
200	0xbd109bb7	-0.03530475
201	0xbcaebc99	-0.021330165
202	0xbbc2829e	-0.005935981
203	0x3d020c48	0.031749994
204	0x3bfbfb30	0.007689856
205	0x3c5a6000	0.013328552
206	0xbc6fb805	-0.014631276
207	0x3ba8d8a2	0.005152778
208	0x3b7b1ed1	0.0038317929
209	0x3ceeedf5	0.029166201
210	0xbd14acd2	-0.036297627
211	0xbcc22456	-0.023698967
212	0xbc61c7cd	-0.013780546
213	0x3c594844	0.013261858
214	0x3be40df6	0.006959672
215	0x3b9add89	0.004726116
216	0x3c3e3048	0.011608191
217	0xbd18a76a	-0.037269033
218	0xbaec08c3	-0.0018007982
219	0xbd122959	-0.035683963
220	0xbcdd84e8	-0.027040914
221	0xbc993f6e	-0.018707003
222	0xbd0acbb8	-0.033885688
223	0x3c66ee43	0.014094892
224	0x3cdc58ba	0.026897777
225	0x3c608e78	0.013705842
226	0x3ccd26c9	0.025042908
227	0x3cb0116b	0.02149268
228	0x3c529434	0.012852717
229	0x3c555737	0.013021282
230	0x3cbeeca8	0.023306206
231	0xba2d3717	-0.00066076353
232	0xbaf53e56	-0.0018710594
233	0xbc25f8de	-0.010130135
234	0x3c9d5627	0.01920612
235	0x3cd01a85	0.02540327
236	0x3c4f6e7a	0.012660617
237	0xbd0b0e0e	-0.03394895
238	0xbd172a8e	-0.036905818
239	0x3c49e34e	0.01232226
240	0x3bc04550	0.0058676377
241	0xbcd5c84c	-0.026096486
242	0xbcea1369	-0.028573709
243	0xbbd3ffa8	-0.0064696856
244	0x3b886b12	0.0041631544
245	0xbc42e9e4	-0.011896584
246	0x3bfdf6e4	0.007750379
247	0xbc5ffde3	-0.013671371
248	0x3b2edbfc	0.0026681414
249	0x3cdcc8dd	0.026951248
250	0x3c94ce54	0.018164791
251	0x3c942b9e	0.018087205
252	0xbd0fd248	-0.03511265
253	0x3cba3ac9	0.02273311
254	0x3cd648ba	0.026157726
255	0xbcd9c794	-0.026584424

fc1.bias f4 [64]
0	0x3cabe935	0.020985225
1	0xbcb54426	-0.022127222
2	0x3cf18f0d	0.029487157
3	0x3d1def94	0.038558558
4	0xbbc280cb	-0.0059357635
5	0x3c63a6d1	0.013894753
6	0x3cf82488	0.030290857
7	0xbccfb875	-0.02535651
8	0xbc74435d	-0.014908639
9	0x3c96cf59	0.018409418
10	0x3bf3c39d	0.0074390904
11	0x3d12c4e2	0.035832293
12	0x3caaabaa	0.020833809
13	0xbc37dff3	-0.011222827
14	0x3d38db10	0.04513079
15	0xbc53a6e4	-0.012918208
16	0x3ccc26f7	0.024920924
17	0x3d394dc9	0.045240197
18	0x3cca9933	0.024731254
19	0x3cc44078	0.023956522
20	0xba2723a8	-0.00063758576
21	0xb81f9198	-3.804415e-05
22	0x3cb7df0d	0.022445226
23	0x3c9f7468	0.019464687
24	0x3cf85ab5	0.03031669
25	0x3c76e556	0.015069326
26	0x3ce7d510	0.028299838
27	0x3c0e4070	0.008682355
28	0xbc8f7226	-0.017510485
29	0x3d86b1ff	0.06576919
30	0x3caf3f53	0.0213925
31	0xbbd7e4d1	-0.0065885563
32	0xbc388103	-0.011261228
33	0xbd0baaeb	-0.034098547
34	0xbd06e296	-0.032930933
35	0xbbcd28bc	-0.0062609594
36	0x3d9f61bf	0.077823155
37	0x3d1cebf1	0.03831095
38	0x3d398775	0.045295198
39	0x3d70296f	0.058633264
40	0x3d49d0a8	0.049271256
41	0x3daf143a	0.0854878
42	0x3ce11142	0.02747405
43	0x3b60ed05	0.0034320962
44	0xbc5dac34	-0.013529826
45	0x3d180f5c	0.037124023
46	0x3b65dd75	0.0035074626
47	0x3ce704b1	0.02820048
48	0xbcbd729b	-0.023125937
49	0xbc2af032	-0.010433244
50	0x3c1f23f2	0.00971316
51	0xbc67ed8a	-0.014155755
52	0x3b9d2e7e	0.004796802
53	0x3c49335c	0.012280311
54	0x3d822e86	0.0635653
55	0x3d39f25d	0.04539715
56	0x3bca8fe1	0.0061817025
57	0x3d6ae412	0.05734641
58	0x3c5ba359	0.013405644
59	0x3cefb445	0.029260764
60	0xb802fcfa	-3.1230018e-05
61	0x3c5a6c35	0.013331463
62	0x3d1abadb	0.037775856
63	0x3d411aaf	0.047144588

fc2.weight f4 [64, 64]
0	0x3dc24fb8	0.094878614
1	0x3af8c600	0.0018979907
2	0xbd443210	-0.047899306
3	0x3dc7a8b8	0.097489774
4	0x3d6f4dde	0.05842387
5	0x3e116e85	0.14202316
6	0xbda78d60	-0.08181262
7	0x3dfa4562	0.12220265
8	0xbda8f66c	-0.08250126
9	0x3de5a4f1	0.11213101
10	0xbd8ae196	-0.06781308
11	0x3d78540a	0.06062702
12	0x3d9aa000	0.07550049
13	0xbdb08b55	-0.086203255
14	0x3e22b206	0.15888223
15	0x3d65d2b0	0.05610913
16	0x3c9881ba	0.018616546
17	0xbee6bc07	-0.45065328
18	0xbdf73176	-0.12069981
19	0xbdca9084	-0.098908454
20	0x3d31bacf	0.043391045
21	0xbdbc01b8	-0.09180015
22	0x3dd66da6	0.104701325
23	0xbb938940	-0.0045024455
24	0xbd95cb49	-0.07314164
25	0x3cbba9d0	0.022908121
26	0x3e0f25f9	0.13979329
27	0xbd81ca9a	-0.06337471
28	0xbd4002c0	-0.046877623
29	0xbdbb3568	-0.09141046
30	0xbc9a94c7	-0.01886977
31	0x3d7e82a2	0.0621363
32	0xbc71a501	-0.014748813
33	0xbda3f2e9	-0.08005316
34	0x3d9563df	0.072944395
35	0xbd9f67f6	-0.07783501
36	0xbe69713c	-0.22797102
37	0xbd958c9b	-0.07302209
38	0x3d88edb0	0.0668596
39	0xbd6ef28c	-0.05833678
40	0x3e146c38	0.14494407
41	0x3e264c90	0.16240144
42	0x3cc0e638	0.023547277
43	0xbbc2ccfb	-0.0059448457
44	0xbdd8af12	-0.10580267
45	0xbdfeb200	-0.124362946
46	0xbdca39b3	-0.098742865
47	0x3abeba80	0.0014551431
48	0x3ddf39c1	0.108996876
49	0x3ce92a11	0.028462442
50	0xbceb099b	-0.028691104
51	0xbde6297a	-0.1123838
52	0xbd50f3cc	-0.051013753
53	0xbd0dcbd7	-0.034618225
54	0xbee11062	-0.43957812
55	0x3ae7de06	0.001769007
56	0xbdd1ebc3	-0.10250046
57	0xbd02c605	-0.031927127
58	0x3d4a3547	0.049367215
59	0xbd131a87	-0.03591397
60	0xbc0d77aa	-0.008634487
61	0xbec62ba8	-0.38705182
62	0xbe83438c	-0.25637472
63	0x3e29dad1	0.16587378
64	0xbd809bb1	-0.06279696
65	0xbd6710a8	-0.05641237
66	0xbcbdc576	-0.023165446
67	0x3dccd033	0.10000648
68	0xbd8d1742	-0.06889202
69	0x3dfc012a	0.123049095
70	0xbde7fe12	-0.11327757
71	0x3b1f69c0	0.0024324507
72	0x3df02668	0.117260754
73	0x3cc9aa0d	0.02461722
74	0xbdd4223b	-0.103580914
75	0x3d4137e5	0.047172446
76	0xbeac6d05	-0.33676925
77	0xbdaa44f9	-0.08313937
78	0x3d4f1d26	0.050564907
79	0x3cbfbfe8	0.023406938
80	0xbd0cbf6e	-0.03436225
81	0xbdd7d2fa	-0.105382875
82	0xbd6588a6	-0.05603852
83	0x3d108bf1	0.03528971
84	0xbd1ffb28	-0.03905788
85	0x3c2b9783	0.010473135
86	0xbe8d232f	-0.27565905
87	0xbc96e4e9	-0.0184197
88	0xbde7c833	-0.11317482
89	0xbdf9611a	-0.12176724
90	0xbd9be624	-0.07612255
91	0xbd20926f	-0.03920215
92	0xbdd2c682	-0.102917686
93	0xbb31c8e7	-0.0027127804
94	0xbd2df593	-0.042470526
95	0x3de00f46	0.10940413
96	0x3ca35b73	0.019941067
97	0x3ce14d7f	0.027502773
98	0x3d14b6fe	0.036307327
99	0x3d09d838	0.033653468
100	0x3dbd6bed	0.09249101
101	0x3b916404	0.0044369716
102	0xbdd2230c	-0.10260591
103	0x3cf8c4e3	0.03036732
104	0xbe30afba	-0.17254534
105	0x3d9b0b71	0.07570542
106	0x3b9c416f	0.0047685425
107	0xbd8cf2de	-0.06882261
108	0xbddf9f38	-0.109190404
109	0xbd55ee2d	-0.052229095
110	0xbd19c878	-0.037544698
111	0x3dea8fb8	0.114531934
112	0x3c8d1157	0.017220182
113	0xbdc2272a	-0.09480126
114	0x3ddef164	0.10885885
115	0xbd6abca8	-0.057308823
116	0xbebe36df	-0.37151238
117	0x3cf870de	0.030327257
118	0x3aa92283	0.0012903962
119	0x3df5d56e	0.12003599
120	0xbc8f4397	-0.017488284
121	0xbcf284b2	-0.02960429
122	0xbca883bb	-0.020570626
123	0xbe42eb4f	-0.19035076
124	0xbda3c740	-0.07996988
125	0x3e15b1f4	0.14618665
126	0xbe3c9f55	-0.18420155
127	0x3da1c6e3	0.07899263
128	0x3d1e4fd8	0.038650364
129	0x3d83470a	0.06410034
130	0xbd992d26	-0.074793145
131	0xbc5dc8d0	-0.013536647
132	0xbd4b3f84	-0.04962112
133	0xbd66d6a4	-0.05635704
134	0x3da6f860	0.081528425
135	0xbdc4a8d2	-0.096025124
136	0xbd09d0c4	-0.03364636
137	0xbdb42c4a	-0.0879751
138	0x3d492350	0.049105942
139	0x3c3c9800	0.011510849
140	0xbd83ba40	-0.06432009
141	0x3d20b688	0.039236575
142	0xbdf67666	-0.120343015
143	0x3cf7b0a8	0.030235603
144	0x3df13c2e	0.117790565
145	0xbd823150	-0.06357062
146	0x3d9c7520	0.07639527
147	0x3db4a8bc	0.08821246
148	0x3ddf25d0	0.10895884
149	0xbd87e290	-0.0663501
150	0xbde3582a	-0.111008
151	0x3de0e946	0.109819934
152	0x3b809260	0.0039236993
153	0xbdbef66c	-0.09324345
154	0xbc88f980	-0.016720533
155	0x3d42078c	0.04737048
156	0xbd7549bc	-0.05988477
157	0x3c3b51e0	0.011433095
158	0x3d20d59c	0.039266214
159	0xbd8e74fe	-0.06955908
160	0xbdb48230	-0.08813894
161	0xbb8d72e0	-0.0043166727
162	0x3d043aec	0.032282755
163	0x3d2ac5e8	0.041692644
164	0x3c574a80	0.013140321
165	0xbd80e340	-0.062933445
166	0xbd93e608	-0.07221609
167	0xbdd67e02	-0.10473253
168	0xbdc87cae	-0.09789406
169	0xbd7c13ec	-0.061542436
170	0xbc2c1d20	-0.010504991
171	0xbbb64740	-0.005562693
172	0x3d86973e	0.06571816
173	0x3cc53550	0.024073273
174	0x3cebaa20	0.028767645
175	0x3d9d9fb8	0.076964796
176	0x3ded3a3c	0.11583373
177	0x3ce29c60	0.027662456
178	0x3cd743b8	0.026277408
179	0x3c45aa30	0.012064502
180	0x3d850a3c	0.06496093
181	0x3cca1550	0.024668366
182	0xbdb616d0	-0.0889107
183	0xbdc2f9fe	-0.095203385
184	0x3c158ef0	0.009128317
185	0xbd923dac	-0.07140669
186	0xbdf74c7e	-0.120751366
187	0x3dd0fa7e	0.102040276
188	0x3aed4b80	0.0018104166
189	0xbdeacfae	-0.11465393
190	0x3c2c4600	0.010514736
191	0xbdcbb682	-0.0994692
192	0xbdef64b8	-0.116891325
193	0xbd5c8b04	-0.053843513
194	0xbc12c690	-0.008958474
195	0x3e2bba7b	0.16770355
196	0xbd954695	-0.07288853
197	0x3e17259a	0.14760438
198	0x3c6fa3a6	0.014626419
199	0x3dc067a9	0.093947716
200	0x3da05cb8	0.07830185
201	0xbd89518c	-0.06705007
202	0x3d459d2e	0.0482456
203	0x3e190e80	0.14946938
204	0x3c5390ab	0.0129129095
205	0x3bbfb94e	0.0058509475
206	0x3ca27c14	0.019834556
207	0xbdbf0512	-0.09327139
208	0x3db0006f	0.08593833
209	0xbe784ebf	-0.24248789
210	0xbbf76436	-0.007549788
211	0x3d08f9e4	0.03344144
212	0x3d0e1415	0.03468712
213	0xbd8df12c	-0.069307655
214	0x3d115da4	0.035489693
215	0xbdacd44a	-0.084389284
216	0xbdd428b2	-0.103593245
217	0x3cd4efd8	0.025993273
218	0x3d2f5ccc	0.042813107
219	0x3dd9f2d9	0.10642023
220	0xbdbd1743	-0.092329524
221	0x3a30be35	0.000674221
222	0x3d998c39	0.074974485
223	0xbd4a1d01	-0.049344067
224	0xbe0ddafd	-0.13853069
225	0x3db5ac8a	0.088708
226	0xbdfa1625	-0.12211255
227	0xbc1fea30	-0.0097604245
228	0xbf0012ea	-0.5002886
229	0x3dc8d74a	0.09806688
230	0xbc642c35	-0.013926555
231	0xbe2d3667	-0.16915284
232	0xbd8c7da9	-0.06859905
233	0x3df78bdc	0.12087223
234	0x3e1e17ec	0.15438813
235	0x3df5555a	0.1197917
236	0x3e578faa	0.21050897
237	0x3c7ed619	0.015553975
238	0xbd086fdd	-0.033309806
239	0xbb61e1a2	-0.0034466763
240	0x3db37bae	0.087638244
241	0x3d4fd283	0.05073787
242	0x3e484dfb	0.19560997
243	0xbdaf97c1	-0.08573867
244	0x3cfb6900	0.030689716
245	0xbdc5db92	-0.0966102
246	0xbe5e95fc	-0.21736902
247	0x3d83e207	0.06439596
248	0x3df239a0	0.11827397
249	0xbd9527f0	-0.07283008
250	0xbdee9132	-0.116487876
251	0xbd898cac	-0.06716284
252	0x3ddec2de	0.10877012
253	0xbea46555	-0.3210856
254	0xbeca2137	-0.39478466
255	0x3d6e6271	0.05819935

fc2.bias f4 [64]
0	0x3d1d74d9	0.038441513
1	0x3e1c3be9	0.15257229
2	0xbd2119d0	-0.039331257
3	0xbdde8b1f	-0.10866379
4	0x3e01da55	0.12680943
5	0xbb9a26ef	-0.0047043483
6	0xbdb3120f	-0.08743679
7	0xbc18606b	-0.009300332
8	0x3de47b09	0.111562796
9	0xbc5f6280	-0.013634324
10	0xbdbbbece	-0.091672525
11	0xbdf567b4	-0.119826704
12	0x3cca10ce	0.024666216
13	0x3e328d08	0.17436612
14	0x3b8de0e6	0.0043297885
15	0xbdb87ce9	-0.090082
16	0x3d1898b1	0.037254993
17	0xbdb15bab	-0.086600624
18	0xbd10e7f4	-0.035377458
19	0xbdc0e8b0	-0.094193816
20	0x3c6c80d4	0.014435012
21	0xbdb6de8b	-0.089291655
22	0x3c337108	0.010952242
23	0x3cf582e2	0.029969636
24	0x3dafab6d	0.08577619
25	0xbd83c6d9	-0.064344116
26	0x3c825f06	0.015914451
27	0x3d35e483	0.04440738
28	0x3cd2eff5	0.025749186
29	0x3d12585b	0.035728794
30	0x3dcb7d39	0.09935994
31	0x3d1b209f	0.037872907
32	0x3c38a8fb	0.011270757
33	0xbd3acd44	-0.045605913
34	0x3c458b58	0.012057148
35	0x3dbfab3f	0.093588345
36	0xbda1557e	-0.078776345
37	0x3c6f12d3	0.01459189
38	0x3af5ad1b	0.0018743606
39	0x3b4ddf37	0.0031413564
40	0x3d32850b	0.04358391
41	0x3dff22e9	0.124578305
42	0x3906cb3f	0.00012854951
43	0x3dbb549c	0.09146997
44	0xbdd36390	-0.103217244
45	0x3d81c47e	0.06336306
46	0x3ae9eb9d	0.0017846707
47	0xbd35012b	-0.044190567
48	0x3c5c8d63	0.013461444
49	0xbddc8cec	-0.10769066
50	0x3daf9387	0.085730605
51	0xbcea37b9	-0.028591024
52	0x3c05a2ec	0.008156519
53	0xbd476b0c	-0.048686072
54	0xbe0ad47e	-0.13557622
55	0xbd9b2bf3	-0.07576742
56	0x3d00c94c	0.03144197
57	0xbd1a71ca	-0.037706174
58	0x3dfe50b2	0.12417735
59	0xbd68bbae	-0.05681961
60	0xbd868c5e	-0.06569742
61	0x3d966257	0.073429756
62	0x3e0a72ad	0.13520308
63	0x3c8fce6c	0.017554484

fc3.weight f4 [7, 64]
0	0xbe280c1f	-0.16410874
1	0x3e19b5f4	0.15010816
2	0xbda6927c	-0.081334084
3	0x3d852d45	0.06502775
4	0x3e111a4a	0.14170185
5	0x3cbf8906	0.023380768
6	0x3e12051c	0.14259762
7	0xbc3361ad	-0.010948581
8	0x3e1db8e7	0.15402566
9	0x3d04df88	0.03243974
10	0x3d5a2a34	0.053262904
11	0x3ceaf7a3	0.028682536
12	0xbd490614	-0.049078062
13	0x3e6b7f42	0.22997764
14	0x3cf68699	0.030093478
15	0xbd672f8d	-0.056441832
16	0xbe5f2cc2	-0.21794418
17	0x3d3b6d39	0.04575846
18	0xbd002a04	-0.03129007
19	0xbe122452	-0.14271668
20	0x3e02ee80	0.12786293
21	0x3ec99ea0	0.39378834
22	0x3d1c2b3c	0.03812717
23	0xbe35097f	-0.17679404
24	0x3d10b0f0	0.03532499
25	0x3d929eba	0.07159181
26	0xbd7c0104	-0.061524406
27	0x3e40f93c	0.18845075
28	0xbce983dd	-0.02850526
29	0xbd003022	-0.031295903
30	0xbe61337a	-0.21992293
31	0xbd544b32	-0.051829524
32	0xbe42575f	-0.18978642
33	0xbd91b013	-0.071136616
34	0x3c8060fc	0.015671246
35	0x3ce96ae0	0.028493345
36	0xbd23adb9	-0.039960597
37	0xbd44ba78	-0.048029393
38	0x3cea33d1	0.028589161
39	0xbde013ab	-0.10941251
40	0x3cfacbd6	0.030614775
41	0xbcb33dbb	-0.021880021
42	0x3df7ad3b	0.12093588
43	0xbe08c722	-0.13357213
44	0xbcdc4280	-0.026887178
45	0x3d310452	0.04321701
46	0xbc83dac4	-0.016095527
47	0x3d10ee31	0.035383407
48	0xbe1f327e	-0.15546605
49	0x3d1d0364	0.03833331
50	0x3d9961d1	0.0748936
51	0xbd6c7e6d	-0.057737757
52	0x3d337084	0.043808475
53	0xbda2fddc	-0.07958576
54	0xbe34fb1f	-0.1767392
55	0xbcdcf410	-0.026971847
56	0xbe255f09	-0.16149534
57	0xbe85eafd	-0.26155844
58	0x3d9d7805	0.076889075
59	0xbe6f6005	-0.23376472
60	0xbdb24358	-0.08704251
61	0x3e2beb0d	0.16788884
62	0x3dbebebf	0.09313726
63	0x3d25de79	0.04049537
64	0x3d31e03c	0.043426737
65	0x3da1348d	0.078713514
66	0x3dd4e462	0.10395123
67	0xbdf39a78	-0.11894697
68	0xbe2d6dc7	-0.16936408
69	0xbed4e044	-0.4157735
70	0xbc09ed18	-0.008418344
71	0xbdc65b5e	-0.09685396
72	0xbdb6f9ae	-0.08934341
73	0xbdcfa414	-0.10138717
74	0x3d47b1b8	0.04875347
75	0xbd72921a	-0.059221365
76	0x3bcb52d4	0.0062049422
77	0x3f07a761	0.52989775
78	0xbd8e7f6c	-0.069578975
79	0xbdb2ef7f	-0.087370865
80	0xbe1f1257	-0.1553434
81	0xbac9620f	-0.0015364307
82	0x3dc15984	0.09440902
83	0xbe2aad46	-0.16667661
84	0x3db02787	0.08601289
85	0x3b9814b9	0.004641142
86	0x3d55486b	0.052071016
87	0x3c414ca5	0.011798059
88	0xbdf7a79b	-0.12092515
89	0x3dec666f	0.11542975
90	0xbdfcfca0	-0.12352872
91	0x3db6e039	0.08929486
92	0x3d4b4450	0.049625695
93	0x3b83e131	0.0040246476
94	0xbeb71365	-0.35756984
95	0x3cf4745b	0.029840639
96	0xbe23b7b6	-0.15988049
97	0xbce187f6	-0.027530652
98	0x3cb621db	0.02223294
99	0x3dcf4d05	0.10122112
100	0xbddd198b	-0.107958876
101	0x3e05ba88	0.13059437
102	0xbdadab98	-0.084799945
103	0xbdc26dfd	-0.09493635
104	0xbd4005a3	-0.046880376
105	0xbd8495bb	-0.06473871
106	0x3daabcec	0.08336815
107	0xbc83a5d4	-0.016070284
108	0xbda6cc1e	-0.08144401
109	0xbbbaa615	-0.005696068
110	0x3e3397cc	0.17538375
111	0x3e1486f5	0.14504607
112	0xbdc7c6c3	-0.09754708
113	0x3db5e822	0.088821664
114	0xbd1559d2	-0.036462612
115	0xbdfe6f43	-0.12423565
116	0x3e1466e2	0.14492372
117	0xbd8ebf4e	-0.06970082
118	0xbd188a19	-0.037241075
119	0x3de99fef	0.11407458
120	0x3d783937	0.06060144
121	0x3dbd237c	0.09235284
122	0x3d24f9df	0.04027736
123	0xbdff0c83	-0.12453558
124	0x3d428680	0.04749155
125	0x3dea2dd4	0.11434522
126	0xbca4e1db	-0.020127228
127	0x3d87ab49	0.06624467
128	0x3e1cee6e	0.15325329
129	0x3d9a61c1	0.07538176
130	0x3cb9c7d0	0.022678286
131	0x3d03cb09	0.03217605
132	0x3b63138b	0.00346491
133	0x3da6381a	0.08116169
134	0xbd4cd48a	-0.05000738
135	0xbcf46a0d	-0.029835725
136	0x3dac5607	0.08414846
137	0xbc15dd70	-0.009147033
138	0x3defd71c	0.11710951
139	0xbe2c587e	-0.16830632
140	0x3e85fc20	0.2616892
141	0x3e49b21d	0.19696851
142	0xbe62caeb	-0.2214772
143	0xbc03445b	-0.008011903
144	0x3bb716c9	0.005587433
145	0xbdf5b5d2	-0.1199757
146	0x3d100ce8	0.03516856
147	0x3e379cff	0.17930983
148	0x3d2b2ef7	0.041792836
149	0xbe108308	-0.14112484
150	0xbe02b8dc	-0.12765831
151	0x3d4e1c28	0.05031982
152	0xbd08117b	-0.033219796
153	0xbe3045f0	-0.17214179
154	0x3dcd7952	0.10032906
155	0x3e142d05	0.14470299
156	0x3da7c202	0.08191301
157	0xbe47754c	-0.19478339
158	0x3d461f91	0.048369948
159	0x3db47924	0.08812168
160	0xbdaa1392	-0.08304514
161	0xbed2e717	-0.41191933
162	0x3be8c677	0.007103737
163	0x3e4a1374	0.19733983
164	0xbe1972aa	-0.14985147
165	0x3e01ed64	0.12688214
166	0xbe1f97bd	-0.15585227
167	0xbd0c3577	-0.034230676
168	0x3bec5edf	0.007213458
169	0xbd6ddb0c	-0.058070228
170	0x3ddde24a	0.10834177
171	0xbd5224a9	-0.051304493
172	0x3db6dd8c	0.089289755
173	0x3e2ba9a1	0.16763927
174	0x3e2bcc67	0.16777192
175	0xbd0bd7d8	-0.03414139
176	0xbddde50f	-0.10834705
177	0xbb9ec1a0	-0.0048448592
178	0xbe0a2ec7	-0.13494407
179	0xbcde41e3	-0.027131027
180	0xbd6b3219	-0.057420824
181	0xba628500	-0.00086410344
182	0xbe8af214	-0.27137816
183	0xba9b4573	-0.0011846259
184	0xbe0f5eed	-0.14001055
185	0xbd29547f	-0.041340347
186	0xbde618d4	-0.11235204
187	0x3de15f87	0.110045485
188	0x3d723280	0.05913019
189	0x3c916b84	0.017751463
190	0x3e01e5e4	0.12685353
191	0xbd7e7418	-0.062122434
192	0xbe27e1cf	-0.16394733
193	0x3c2920ad	0.010322732
194	0x3d9266da	0.07148524
195	0xbe01189e	-0.12607047
196	0x3c00c424	0.007859264
197	0x3d4601aa	0.04834143
198	0x3e035b09	0.12827696
199	0x3e82b705	0.25530258
200	0xbc4e9eb4	-0.01261108
201	0xbd65c0a8	-0.056091934
202	0x3c10d6f0	0.008840308
203	0xbb7ecd42	-0.0038879667
204	0x3e7bbbf0	0.24583411
205	0x3cf54f14	0.029944934
206	0xbe18fbb1	-0.14939763
207	0x3c1e450e	0.009660019
208	0x3df943a9	0.12171108
209	0x3c8cf142	0.017204884
210	0xbcc90958	-0.024540588
211	0xbdf25f2b	-0.11834558
212	0x3e30cb51	0.17265059
213	0x3c465ffa	0.0121078435
214	0xbc3b0970	-0.011415824
215	0xbe3b7fd4	-0.18310481
216	0x3e373c48	0.17894089
217	0x3c84c191	0.01620558
218	0x3d2891cd	0.04115467
219	0xbd1a72f7	-0.037707295
220	0x3e2b743c	0.16743559
221	0x3db869b1	0.09004534
222	0x3e68d5be	0.22737786
223	0xbc72d0ad	-0.01482026
224	0xbe52ec6a	-0.20597997
225	0xbe7fb3f4	-0.2497099
226	0x3dd7ecf2	0.105432406
227	0xbde875e3	-0.1135061
228	0xbd97ae0e	-0.07406245
229	0x3cabe89d	0.020984942
230	0xbd766125	-0.060151238
231	0xbe0df065	-0.13861234
232	0x3ca2cd2f	0.01987323
233	0x3e16e421	0.14735462
234	0x3d308347	0.043093946
235	0xbd976c3f	-0.07393693
236	0xbde88584	-0.11353591
237	0x3e0a6913	0.13516645
238	0x3c155e09	0.009116658
239	0x3b927154	0.004469076
240	0xbd9689d4	-0.073505074
241	0x3c173610	0.009229198
242	0xbd50e50d	-0.05099969
243	0xbdd089de	-0.10182546
244	0x3d2fe3b5	0.042941768
245	0x3d006b90	0.03135258
246	0x3b308634	0.002693546
247	0x3e26e0b4	0.16296655
248	0xbd34f05f	-0.04417455
249	0xbe13b05b	-0.14422743
250	0xbdf63afa	-0.12022968
251	0x3c9db2d8	0.019250318
252	0x3df1d210	0.11807644
253	0x3d27e6e5	0.040991683
254	0x3d92dae3	0.071706556
255	0x3c4bd663	0.0124412505

fc3.bias f4 [7]
0	0xbdab55ce	-0.08365975
1	0xbd8ea70f	-0.06965458
2	0xbd81be8f	-0.06335174
3	0x3e26a73d	0.16274734
4	0x3cea9147	0.028633727
5	0xbd783d9f	-0.06060564
6	0xbe38ec54	-0.18058902
